mlartifacts/403163061964527456/dcc7b0fd2ac7478c987f592d4f5ef475/artifacts/models/data/model.pth (torch, 119466 bytes, 70 tensors)

bias f4 [32]
-0.005073754 0.9370362 0.026836239 -0.73792386 0.31963554 0.31371698 0.45094788 -0.96142
0.9379438 -0.92555344 0.004858748 -0.4175051 0.9082467 0.019874329 0.82348764 0.3144766
-0.94294673 0.4022239 -0.010396346 -1.1765617 -1.0449252 -0.009836564 -0.93802106 0.9673741
0.011473213 0.7763468 -0.041344915 -1.2465907 0.054825563 1.0021399 0.64769155 0.0011826139
00000000: bc41 a6bb 9be1 6f3f acd7 db3c 94e8 3cbf
00000010: 45a7 a33e 839f a03e a4e2 e63e 9f1f 76bf
00000020: 161d 703f 12f1 6cbf 2236 9f3b 3ac3 d5be
00000030: db82 683f 7dcf a23c 16d0 523f 1403 a13e
00000040: f564 71bf 4bf0 cd3e 7055 2abc 9399 96bf
00000050: 1cc0 85bf 8a29 21bc 2622 70bf d4a5 773f
00000060: 25fa 3b3c aabe 463f 4959 29bd 4990 9fbf
00000070: c590 603d 1f46 803f 1dcf 253f f001 9b3a

weight f4 [32, 3]
0.4273723 0.61123204 0.19525927 1.1673229 0.4966501 -0.23258512 0.97958314 0.45129272
-0.57161534 -0.323132 1.2124944 1.511361 -0.38258234 -0.08997057 -0.7966355 0.34208986
-0.6090249 -1.2818079 0.18548834 -0.085506625 0.1831773 -0.14814143 -0.60777247 -0.9642866
0.73293793 -0.076273724 0.41169012 0.47208402 -0.6597442 -0.6669479 -0.16238664 0.47499603
0.9628524 -0.9208448 0.33052367 -0.3594577 -0.5394043 0.5864203 0.62210476 0.4563946
-0.08554951 -0.72577417 -0.536674 -1.0376514 0.86041856 -0.95680594 0.33117867 -1.268707
1.0159404 0.46356282 -0.2874072 0.18628177 0.11805479 0.56760186 1.45392 0.48587078
-0.42245603 -1.0226848 -0.5111443 -1.1482649 -0.48902017 0.5458863 -0.7388885 -0.11703074
0.70336413 0.29900655 -0.3722639 0.32570916 0.46528894 -0.62207085 -0.07435445 0.7143284
-0.49951988 -0.6978049 -1.2429512 0.5265819 -1.0106646 -1.258493 -1.0275987 -0.930818
-0.6932916 -1.0672133 -0.7659775 -1.2958093 0.8033862 -0.70640886 1.1731752 -1.04065
0.8482927 1.160423 0.86964154 0.62619215 0.6424831 -0.84036976 1.0771834 -0.36020413
00000000: 8bd0 da3e b479 1c3f 0cf2 473e d66a 953f
00000010: ec48 fe3e cb2a 6ebe f6c5 7a3f d70f e73e
00000020: 6255 12bf 8f71 a5be 0433 9b3f 4774 c13f
00000030: d5e1 c3be 7d42 b8bd 4ef0 4bbf 6726 af3e
00000040: 0ee9 1bbf 4812 a4bf a8f0 3d3e 191e afbd
00000050: d592 3b3e 63b2 17be fa96 1bbf 7ddb 76bf
00000060: d2a1 3b3f 6635 9cbd 0cc9 d23e ffb4 f13e
00000070: ffe4 28bf 19bd 2abf af48 26be ae32 f33e
00000080: 7f7d 763f 7cbc 6bbf 663a a93e d70a b8be
00000090: 6616 0abf a41f 163f 4242 1f3f 8eac e93e
000000a0: 9534 afbd 56cc 39bf 7863 09bf c3d1 84bf
000000b0: 6444 5c3f 3cf1 74bf 4090 a93e fe64 a2bf
000000c0: 560a 823f 1b58 ed3e 0927 93be a6c0 3e3e
000000d0: b6c6 f13d 5b4e 113f 0d1a ba3f 0ec4 f83e
000000e0: 284c d8be 56e7 82bf 5ada 02bf 58fa 92bf
000000f0: da60 fabe 34bf 0b3f cc27 3dbf d0ad efbd
00000100: ac0f 343f 6317 993e 6099 bebe 5ac3 a63e
00000110: 5a3a ee3e 0940 1fbf 2547 98bd 3ade 363f
00000120: 12c1 ffbe 58a3 32bf 0619 9fbf 12ce 063f
00000130: 755d 81bf 4c16 a1bf 5b88 83bf 174a 6ebf
00000140: 8f7b 31bf 729a 88bf 1a17 44bf 14dd a5bf
00000150: b8aa 4d3f 36d7 34bf 9b2a 963f 0534 85bf
00000160: b629 593f be88 943f d4a0 5e3f 214e 203f
00000170: c679 243f 7922 57bf 25e1 893f ad6c b8be

weight f4 [32, 3]
0.35876566 -0.5811402 0.9390925 -0.27307191 -0.58268046 1.1711833 -0.5609379 -1.4404532
-0.72440064 0.832913 -0.6742419 1.2987126 -1.5733455 0.49082816 0.12267278 -0.76117206
0.36303085 -1.2120272 0.083725125 0.6945641 -0.20599523 0.7785898 1.1072822 0.78387576
1.5034251 -0.17021285 0.16640928 -1.1574811 0.0660733 -0.3480251 -1.6812769 -0.0026657798
-0.7799752 0.19021243 -1.7485958 0.751449 -0.76706415 -0.21354839 -0.37523535 -1.0527558
0.080277555 -0.22601865 -0.76285607 -0.39401248 -0.24030074 0.73558044 -0.40923658 -0.872684
-1.1126431 0.054074887 -0.53228086 0.077546105 -0.02408571 -0.5182604 -0.9585834 0.46649867
-1.6273493 0.4312273 -0.30963206 -0.48552427 -0.7988277 0.48893914 0.54760295 -0.022732913
0.8132129 0.5062481 0.0012055186 -0.67971236 -0.76849586 -0.47916874 0.4397508 -1.2264568
-0.6453043 -0.90911937 -0.18906787 0.3315479 0.41450733 0.28971577 -0.014692537 0.20873119
0.99384815 0.7920041 0.9671549 1.0543432 -0.5269848 0.038560517 0.51968944 1.9065353
-0.22262627 -0.12229766 -0.49028757 0.3644153 -0.9320059 0.6349132 -1.2086666 0.6600169
00000000: 22b0 b73e 9bc5 14bf 5e68 703f 15d0 8bbe
00000010: 8c2a 15bf 56e9 953f a099 0fbf c560 b8bf
00000020: 5272 39bf c939 553f 1e9b 2cbf 373c a63f
00000030: 6363 c9bf d44d fb3e de3b fb3d 2cdc 42bf
00000040: 2edf b93e b523 9bbf 1478 ab3d f4ce 313f
00000050: 6af0 52be a951 473f 6cbb 8d3f 15ac 483f
00000060: 3c70 c03f 474c 2ebe 3267 2a3e 5728 94bf
00000070: 7051 873d 5930 b2be 1534 d7bf 5db4 2ebb
00000080: 74ac 47bf 0cc7 423e fdd1 dfbf f65e 403f
00000090: 515e 44bf 6eac 5abe d91e c0be b4c0 86bf
000000a0: 8f68 a43d 6f71 67be 894a 43bf 01bc c9be
000000b0: 6611 76be 004f 3c3f 7587 d1be 3868 5fbf
000000c0: 176b 8ebf a17d 5d3d 8f43 08bf 7ed0 9e3d
000000d0: 654f c5bc b7ac 04bf b965 75bf ead8 ee3e
000000e0: fb4c d0bf d3c9 dc3e 1888 9ebe a396 f8be
000000f0: f97f 4cbf 3b56 fa3e b52f 0c3f 603a babc
00000100: b82e 503f 7a99 013f 7e02 9e3a a101 2ebf
00000110: 25bc 44bf 9b55 f5be 0427 e13e 89fc 9cbf
00000120: aa32 25bf 0cbc 68bf 029b 41be a5c0 a93e
00000130: 4e3a d43e a055 943e f7b8 70bc a1bd 553e
00000140: d56c 7e3f c8c0 4a3f 7797 773f b8f4 863f
00000150: 7ae8 06bf a2f1 1d3d 5e0a 053f 5909 f43f
00000160: 24f8 63be 3277 fabd f906 fbbe a494 ba3e
00000170: f097 6ebf ac89 223f 96b5 9abf def6 283f

bias f4 [32]
0.087663904 0.9619125 -0.76023734 0.9418041 0.7115439 0.6072239 -0.6121557 0.67749876
0.49955964 0.19408779 -0.03526755 1.5754348 -0.27328825 0.32553667 0.08527059 -0.47976956
-0.06441689 0.48008847 -0.62913465 0.36726728 -0.99172026 0.5624452 -0.087907694 -1.1456497
-0.038799513 -0.6317543 -0.044135313 1.1832778 0.076335914 0.37434795 -1.1021979 0.0114927795
00000000: 2289 b33d e63f 763f ea9e 42bf 131a 713f
00000010: be27 363f 0773 1b3f 3cb6 1cbf 8f70 2d3f
00000020: 48c6 ff3e f3be 463e b574 10bd d9a7 c93f
00000030: 70ec 8bbe beac a63e 59a2 ae3d 5ba4 f5be
00000040: 01ed 83bd 28ce f53e f80e 21bf 750a bc3e
00000050: 61e1 7dbf 69fc 0f3f f308 b4bd a6a4 92bf
00000060: 3dec 1ebd a6ba 21bf 3bc7 34bd a675 973f
00000070: 0156 9c3d 89aa bf3e d214 8dbf 364c 3c3c

weight f4 [32, 1]
0.1923297 -0.7259985 0.5243846 0.8903682 -0.3933838 -0.019727075 -0.9495667 -0.8215618
-0.5256648 1.0914193 0.09608951 0.71117973 -0.1888013 0.03632566 1.9921093 -1.1635791
0.70554227 0.34198493 -0.47943604 -1.5911394 -0.88420796 -0.11650846 1.04934 -1.5646443
0.5225509 0.7921126 -0.32117468 0.95613825 -0.12338577 -2.0535989 -1.3335031 1.761884
00000000: 14f2 443e 0adb 39bf 123e 063f 2cef 633f
00000010: 9a69 c9be ad9a a1bc ce16 73bf e051 52bf
00000020: f891 06bf a1b3 8b3f 94ca c43d e00f 363f
00000030: 2155 41be 37ca 143d 70fd fe3f 29f0 94bf
00000040: 6b9e 343f a618 af3e a478 f5be 75aa cbbf
00000050: 745b 62bf fd9b eebd c650 863f 4446 c8bf
00000060: e5c5 053f e4c7 4a3f 0271 a4be 7ac5 743f
00000070: aeb1 fcbd 2a6e 03c0 3bb0 aabf 6a85 e13f

weight f4 [32, 1]
0.6614588 0.1374901 0.9487942 -1.2136874 -0.40613428 0.31146744 0.82815886 -0.9849721
-0.43667686 -1.0314842 0.75842404 -0.018679533 1.015945 -0.7466446 1.129435 1.21279
-0.8490733 1.3345143 1.4691819 -0.05913801 -1.4351739 0.82546514 1.1195338 0.61496824
0.5396501 -0.3517892 -0.7771915 -0.11754109 0.14893611 1.0110958 0.74173486 0.4590112
00000000: 5d55 293f 34ca 0c3e 2de4 723f 1c5a 9bbf
00000010: d5f0 cfbe a978 9f3e 3802 543f 2227 7cbf
00000020: 1c94 dfbe ad07 84bf 1428 423f d205 99bc
00000030: 7c0a 823f 1a24 3fbf 5391 903f b43c 9b3f
00000040: de5c 59bf 5dd1 aa3f 270e bc3f b33a 72bd
00000050: c7b3 b7bf af51 533f e24c 8f3f 8f6e 1d3f
00000060: 8226 0a3f b71d b4be 06f6 46bf 62b9 f0bd
00000070: b582 183e 966b 813f 56e2 3d3f 8403 eb3e

bias f4 [32]
0.8029272 0.043544687 -0.61533403 -1.7053447 1.1692283 -0.26099825 1.3090544 -1.659852
0.38698918 -1.1482564 0.4753796 -0.37489516 1.8290856 0.47893637 0.30818313 -0.5052361
-0.99719924 -0.4630371 -0.89809304 -1.8710607 -1.2323346 0.013331166 -1.3521397 1.1204097
-0.70469123 0.36102483 0.1805868 -1.7407012 0.0741166 1.4007119 0.7127495 -0.14323787
00000000: a38c 4d3f ea5b 323d 8886 1dbf bc48 dabf
00000010: 46a9 953f 90a1 85be 188f a73f 0876 d4bf
00000020: 7223 c63e 11fa 92bf f464 f33e 42f2 bfbe
00000030: 7a1f ea3f 2637 f53e 2eca 9d3e 2757 01bf
00000040: 7348 7fbf 3313 edbe 6de9 65bf eb7e efbf
00000050: 24bd 9dbf f66a 5a3c ea12 adbf 9669 8f3f
00000060: a566 34bf 3fd8 b83e bfeb 383e 4ccf debf
00000070: 72ca 973d 874a b33f c076 363f f3ac 12be

weight f4 [32, 3]
0.62772584 0.39779365 0.2152586 0.5659966 0.17647712 0.54821473 0.61428565 0.6802462
-0.14694929 -0.45757103 0.12217192 0.81700134 0.0999954 0.61904067 -1.3146187 0.46154615
-0.99805665 -1.0387597 0.76228046 0.098510236 1.0736258 -0.55682236 -0.8923993 -1.5140753
1.1176121 0.62746155 1.3211713 1.1467592 -0.3580325 -0.64362144 -0.03901608 0.49968973
1.3851764 -0.9244485 0.39742982 -0.8132979 -0.35392988 0.013690916 1.0050781 -0.32398465
-0.14792979 -0.42942655 -0.49373055 -0.46686578 0.33925807 -0.9667602 0.07508346 -0.30750826
0.642306 0.5464729 -1.1095419 -0.018576657 0.9374872 0.5821374 0.5085128 1.0676482
-0.3533582 -1.1095018 0.22101952 -0.7199346 0.4506741 0.08980715 -0.8708847 0.40882123
0.47551897 0.35529825 -0.099874824 0.36448348 -0.26667204 -1.2717135 0.24383105 1.0983585
0.11982011 -0.94985336 -0.65793693 -0.2595042 -0.29137766 -0.78404117 -0.9604385 -1.074021
-0.55127674 -0.6060237 -0.90716153 -1.2233765 1.3768972 -0.2306774 0.74915683 -0.415024
0.002625918 0.892658 0.2174572 0.88408315 0.74490213 -0.937332 0.17152894 -0.21113643
00000000: a4b2 203f 9cab cb3e c06c 5c3e 27e5 103f
00000010: 6bb6 343e cd57 0c3f d341 1d3f 9d24 2e3f
00000020: e079 16be c046 eabe 4635 fa3d 0027 513f
00000030: 63ca cc3d 7379 1e3f 6d45 a8bf c74f ec3e
00000040: a480 7fbf 14f6 84bf d024 433f bcbf c93d
00000050: 926c 893f e98b 0ebf 4874 64bf 38cd c1bf
00000060: ea0d 8f3f 52a1 203f 241c a93f 01c9 923f
00000070: 0950 b7be 60c4 24bf 53cf 1fbd 55d7 ff3e
00000080: 764d b13f a8a8 6cbf ec7b cb3e 4b34 50bf
00000090: 4c36 b5be dd4f 603c 66a6 803f 51e1 a5be
000000a0: e87a 17be ccdd dbbe 40ca fcbe 0809 efbe
000000b0: 3cb3 ad3e 997d 77bf 5bc5 993d b971 9dbe
000000c0: 2b6e 243f a6e5 0b3f 7805 8ebf 132e 98bc
000000d0: 29ff 6f3f f506 153f e52d 023f b2a8 883f
000000e0: 5eeb b4be 2804 8ebf f152 623e a24d 38bf
000000f0: c1be e63e d0ec b73d 4df2 5ebf 0451 d13e
00000100: 3977 f33e a7e9 b53e 2c8b ccbd 949d ba3e
00000110: 3d89 88be 82c7 a2bf d9ae 793e 0397 8c3f
00000120: 3f64 f53d 9729 73bf 8e6e 28bf bcdd 84be
00000130: 742f 95be ecb6 48bf 4cdf 75bf 8579 89bf
00000140: 7920 0dbf 5f24 1bbf bd3b 68bf 9a97 9cbf
00000150: 2b3e b03f b236 6cbe bec8 3f3f 077e d4be
00000160: 9817 2c3b 3c85 643f 1aad 5e3e 4653 623f
00000170: e8b1 3e3f fdf4 6fbf 48a5 2f3e 2634 58be

weight f4 [32, 3]
-0.73023653 -0.33012584 0.85535675 0.45601577 -0.9602696 -0.29359108 -0.93006754 -1.2316331
0.027862178 1.4151658 0.69657284 0.6175794 1.7939813 -1.3481225 1.5358208 0.14479983
-0.7008662 0.45007968 1.1461481 -1.2520685 0.45546088 0.07915295 -0.6241245 -0.005350098
-1.6280401 -0.36294958 -0.97202295 -0.6396948 -0.70187837 -0.20603572 -0.34577987 -0.39544907
-0.5496447 -0.6773085 -0.2773672 -0.5957759 -0.47568226 0.41455835 -1.0493803 1.1944683
-0.28039867 -0.5307095 -0.095093824 -0.2551246 0.7192641 -1.0598919 0.805107 -0.69591427
1.0810211 0.5963297 0.98964864 -0.77058876 -1.1451428 -0.14029323 -1.9235218 0.101577014
-1.2574654 0.6408943 -0.54099727 -0.4701574 -0.493808 -0.9482752 -0.0074164784 -0.15268998
1.2581002 -0.18665683 -0.020000413 -0.20974922 0.61276644 0.90223163 0.28569907 0.93200105
0.37460512 -0.9044445 0.11137069 -0.2846556 -0.8998154 -0.13751207 -0.03539808 -1.0128847
0.18432154 -0.45582464 -0.67603636 -0.31128782 -0.13425522 0.2512931 -0.9865106 -0.7878275
-0.9809277 0.5083804 1.108586 0.030807968 1.0173525 0.34446102 -0.6553088 0.85518205
00000000: c8f0 3abf 4106 a9be a9f8 5a3f e67a e93e
00000010: 3ad4 75bf 9251 96be e818 6ebf 27a6 9dbf
00000020: 393f e43c 2724 b53f 9952 323f af19 1e3f
00000030: 2ea1 e53f 478f acbf c795 c43f 6846 143e
00000040: f86b 33bf d870 e63e fbb4 923f c843 a0bf
00000050: 2b32 e93e f11a a23d a0c6 1fbf e04f afbb
00000060: 9e63 d0bf 87d4 b9be 7fd6 78bf 0ac3 23bf
00000070: 4dae 33bf 07fb 52be 0f0a b1be 4d78 cabe
00000080: 84b5 0cbf 1764 2dbf 1303 8ebe c584 18bf
00000090: a08c f3be fe40 d43e 1852 86bf 56e4 983f
000000a0: 6a90 8fbe 94dc 07bf 8dc0 c2bd b19f 82be
000000b0: b121 383f 8aaa 87bf 7e1b 4e3f 7027 32bf
000000c0: e65e 8a3f 10a9 183f 9d59 7d3f 4e45 45bf
000000d0: 0a94 92bf 07a9 0fbe f635 f6bf 9c07 d03d
000000e0: a0f4 a0bf a611 243f cc7e 0abf 79b8 f0be
000000f0: 67d4 fcbe 2ac2 72bf ee05 f3bb c35a 1cbe
00000100: 6d09 a13f f822 3fbe e8d7 a3bc 80c8 56be
00000110: 43de 1c3f a7f8 663f 2647 923e 9f97 6e3f
00000120: 3ecc bf3e ad89 67bf 5116 e43d 61be 91be
00000130: 4d5a 66bf f7cf 0cbe 94fd 10bd 35a6 81bf
00000140: c9be 3c3e d961 e9be b810 2dbf 1e61 9fbe
00000150: 337a 09be 7da9 803e f58b 7cbf 10af 49bf
00000160: 141e 7bbf 3825 023f 25e6 8d3f fe60 fc3c
00000170: 9b38 823f 325d b03e 51c2 27bf 36ed 5a3f

bias f4 [32]
-0.26418087 0.9088325 -1.032004 0.7490178 1.8210245 0.40046692 0.97593176 0.96411407
-1.748401 -0.95215666 -1.1810949 -0.2240792 -0.6626938 1.2084206 -0.70846653 -0.9374406
0.45416147 -1.0777142 -1.2433856 1.0251281 -0.80018646 0.58514124 0.7441498 0.78199035
-0.3152333 -1.068639 0.5458348 -1.1265469 -0.79519653 -0.52507055 0.44125694 0.5589914
00000000: b742 87be 3fa9 683f b518 84bf a1bf 3f3f
00000010: 5517 e93f 000a cd3e aad6 793f 2ed0 763f
00000020: 9bcb dfbf 8ac0 73bf 1e2e 97bf 0575 65be
00000030: 4da6 29bf 87ad 9a3f 105e 35bf 1bfc 6fbf
00000040: da87 e83e 8af2 89bf 4227 9fbf 6637 833f
00000050: 05d9 4cbf d1cb 153f 9a80 3e3f 8530 483f
00000060: 4266 a1be 2ac9 88bf d4bb 0b3f b032 90bf
00000070: 0092 4bbf 066b 06bf 6eec e13e 0f1a 0f3f

weight f4 [32, 1]
0.699598 1.1206623 0.7729462 -0.67755395 -0.5661226 -0.90207225 0.3081784 -1.203049
0.64873374 0.11305959 0.793178 -1.4159484 0.058357276 -1.784509 -0.3991507 -0.76202047
-0.37254685 0.7934201 0.15861411 -0.36622354 0.5195746 1.7103403 0.4898875 0.9268655
-1.7062345 -1.1129076 -0.9633533 -0.4857052 1.2038388 -0.42174122 0.92063415 -1.2212176
00000000: db18 333f dd71 8f3f cddf 453f 2d74 2dbf
00000010: 69ed 10bf 35ee 66bf 8fc9 9d3e 82fd 99bf
00000020: 6a13 263f c98b e73d b70d 4b3f cc3d b5bf
00000030: 0a08 6f3d ca6a e4bf 7b5d ccbe c613 43bf
00000040: 76be bebe 941d 4b3f bd6b 223e a781 bbbe
00000050: d702 053f 6eec da3f 89d2 fa3e 0f47 6d3f
00000060: e465 dabf c273 8ebf 529e 76bf 5aae f8be
00000070: 6417 9a3f 77ee d7be aeae 6b3f dc50 9cbf

bias f4 [32]
0.4851904 0.26939872 0.8434644 -1.508049 0.32683626 1.2800571 -0.14991724 -1.5528979
1.4501776 -0.39963454 -0.60950154 -0.32821757 0.06895442 0.42210537 1.0256269 -0.08039424
-0.14381088 0.66840714 0.39693344 -1.2036403 -1.3204628 0.5065146 -0.49181083 0.15233144
0.5133304 0.43725154 -0.6763848 -1.3279499 -0.62822896 1.3829381 0.7617793 0.79600924
00000000: e06a f83e a1ee 893e 48ed 573f c007 c1bf
00000010: 1557 a73e e9d8 a33f e883 19be 5cc5 c6bf
00000020: 6b9f b93f e69c ccbe 4b08 1cbf 220c a8be
00000030: fa37 8d3d 321e d83e be47 833f bca5 a4bd
00000040: 2943 13be bb1c 2b3f dc3a cb3e e310 9abf
00000050: ed04 a9bf f1aa 013f a1ce fbbe c6fc 1b3e
00000060: 9f69 033f 6fdf df3e 8e27 2dbf 43fa a9bf
00000070: 9dd3 20bf 1e04 b13f f803 433f 43c7 4b3f

weight f4 [32, 3]
0.8732437 0.5552912 1.2330195 0.64791036 0.6322692 0.28843194 0.8630665 0.014765197
-0.28670117 0.0034806244 0.93497175 0.88108516 -0.17627719 0.47889632 -0.8354968 1.2264149
-1.1069467 -0.7115324 1.1135725 0.96867156 0.7754621 -0.8190968 -0.31284338 -0.6550116
0.95050925 -0.46951443 1.0100409 1.1394902 -0.3296441 -0.5955678 0.27802527 -0.3347568
0.4848501 -1.2768898 0.6760134 0.07977933 -0.46825838 0.7680147 0.44899845 0.4546299
-0.42600444 -1.4360409 -0.6719704 -0.51790166 0.9306219 -1.039837 0.23600103 -0.48748493
1.3765177 0.34132677 -1.0045296 -0.37973046 0.7448768 0.65592873 1.1917367 0.4971605
-0.098853394 -0.50621796 0.16435589 -0.77089214 0.13716443 0.11110026 -1.2735981 -0.3853152
0.86357677 -0.18127927 0.5245698 -0.29244736 0.02790658 -1.348496 0.8384632 1.0623446
0.07612901 -0.51553124 -0.6680837 0.18017136 -1.2482466 -1.1001747 -0.5392526 -1.1284677
-0.17928125 -0.7881567 -0.46320885 -0.7002736 1.5093518 -0.71102965 1.1765057 -0.84352654
0.63477564 1.0944678 -0.094684936 0.84733534 0.87401396 -1.1781728 0.30713686 0.10880187
00000000: e68c 5f3f 9027 0e3f 95d3 9d3f 74dd 253f
00000010: 65dc 213f 5aad 933e edf1 5c3f bae9 713c
00000020: 7fca 92be 301b 643b 4f5a 6f3f cc8e 613f
00000030: 0282 34be e631 f53e 1ee3 55bf 2afb 9c3f
00000040: 6eb0 8dbf fd26 36bf 8b89 8e3f dcfa 773f
00000050: af84 463f 54b0 51bf 022d a0be d7ae 27bf
00000060: 9354 733f 3264 f0be 0549 813f d1da 913f
00000070: 1dc7 a8be 2277 18bf 5459 8e3e 3e65 abbe
00000080: 463e f83e 2071 a3bf 370f 2d3f 5863 a33d
00000090: 90bf efbe 9d9c 443f 20e3 e53e 40c5 e83e
000000a0: 411d dabe 30d0 b7bf 4106 2cbf 3495 04bf
000000b0: 3d3d 6e3f 6119 85bf 41aa 713e a097 f9be
000000c0: bb31 b03f 62c2 ae3e 6d94 80bf 086c c2be
000000d0: 3fb0 3e3f f2ea 273f d48a 983f d28b fe3e
000000e0: a673 cabd 8097 01bf e94c 283e 3059 45bf
000000f0: d574 0c3e 8888 e33d 4305 a3bf 0948 c5be
00000100: 5e13 5d3f 46a1 39be 354a 063f a9bb 95be
00000110: 579c e43c 849b acbf 86a5 563f e8fa 873f
00000120: 87e9 9b3d dbf9 03bf 8907 2bbf d77e 383e
00000130: 8bc6 9fbf 86d2 8cbf 750c 0abf a171 90bf
00000140: 8195 37be a3c4 49bf b629 edbe 2145 33bf
00000150: 7132 c13f 0a06 36bf bd97 963f 5bf1 57bf
00000160: a880 223f 8517 8c3f 2dea c1bd f8ea 583f
00000170: 61bf 5f3f 5ece 96bf 0b41 9d3e 84d3 de3d

weight f4 [32, 3]
1.7231387 -0.51025474 0.033971786 0.6362759 -0.124032155 0.0812542 -0.31923926 0.10533483
-0.23793551 0.08559373 0.7738346 1.1184702 0.3794019 0.28977498 -0.5820482 0.5068789
-0.41034842 0.551712 -0.6820835 0.19354725 -1.4201182 0.19389893 -0.2709458 -0.021082848
-0.31471696 0.8673389 0.49470252 0.45633462 0.057116147 0.36189565 0.25448856 0.4920171
-0.39752308 0.05404089 0.16571398 0.86792785 1.5079815 -0.47760123 0.39639378 0.6539421
0.22337116 0.59409124 -0.34206235 1.0223582 -0.54279214 0.055473138 0.032644406 -0.58034414
-0.32892656 0.69849247 -0.6173263 0.4623149 0.7908345 0.65122575 -0.3211422 -0.090200126
-1.0032165 0.004949064 -0.22906168 1.2133503 0.15350972 1.250501 0.6466156 0.81579083
-1.1421787 0.8994142 0.7176094 0.83143646 1.0336282 -0.8911434 -1.0961163 1.2964362
0.6042076 1.0858434 -0.3491179 -0.9059273 0.2764279 0.24826014 1.2259713 -0.813341
-1.2434559 0.012706879 0.94954073 1.0801486 0.840273 -0.7419617 0.68091875 -0.30592236
-1.8295349 0.1533719 -0.6461481 -0.42206773 -1.5830339 -0.11807257 1.0619355 0.24070996
00000000: cf8f dc3f 0ea0 02bf 0026 0b3d fae2 223f
00000010: 9204 febd 9a68 a63d 5473 a3be cab9 d73d
00000020: 5ea5 73be c44b af3d 061a 463f 082a 8f3f
00000030: f740 c23e 635d 943e 1c01 15bf d1c2 013f
00000040: 3019 d2be ff3c 0d3f 069d 2ebf 4031 463e
00000050: 6fc6 b5bf 718d 463e 68b9 8abe f0b5 acbc
00000060: 9522 a1be ec09 5e3f a649 fd3e b1a4 e93e
00000070: 9ff2 693d 634a b93e 534c 823e aae9 fb3e
00000080: 2588 cbbe fb59 5d3d edb0 293e 8530 5e3f
00000090: 8a05 c13f 2688 f4be 20f4 ca3e c068 273f
000000a0: 69bb 643e 5d16 183f cc22 afbe a2dc 823f
000000b0: 6df4 0abf cd37 633d 24b6 053d 6f91 14bf
000000c0: 1069 a8be 67d0 323f 1909 1ebf 8ab4 ec3e
000000d0: 2174 4a3f bbb6 263f c06c a4be d8ba b8bd
000000e0: 6669 80bf c22b a23b 258f 6abe 104f 9b3f
000000f0: a731 1d3e 6b10 a03f 9a88 253f abd7 503f
00000100: e932 92bf 0240 663f 40b5 373f 05d9 543f
00000110: ee4d 843f f921 64bf 8a4d 8cbf 9ff1 a53f
00000120: 59ad 1a3f ebfc 8a3f 95bf b2be daea 67bf
00000130: f587 8d3e e837 7e3e a1ec 9c3f 1e37 50bf
00000140: 9029 9fbf 8330 503c 1a15 733f 4f42 8a3f
00000150: 221c 573f 34f1 3dbf b150 2e3f dba1 9cbe
00000160: 332e eabf 860d 1d3e f669 25bf 4319 d8be
00000170: dba0 cabf 08d0 f1bd 81ed 873f ac7c 763e

bias f4 [32]
0.3782354 0.3221698 0.38923568 0.3529934 0.59019065 0.3681678 -0.21128137 1.5386697
0.85210687 0.2265965 0.08769904 0.706822 -0.51836884 -0.3633684 -0.2994018 -0.096136294
-0.016513655 0.71591663 -0.47028154 0.55701274 -0.17574853 0.60814506 0.33868092 -1.2217607
0.18945408 -0.044185672 -0.5963214 0.3783634 -0.24755804 -0.10100501 -1.0471089 0.6327026
00000000: 12a8 c13e 71f3 a43e e649 c73e 8dbb b43e
00000010: bc16 173f 7d80 bc3e 255a 58be 21f3 c43f
00000020: ad23 5a3f ea08 683e 8e9b b33d 49f2 343f
00000030: d2b3 04bf 6c0b babe 314b 99be 1be3 c4bd
00000040: a547 87bc 5046 373f bec8 f0be 6398 0e3f
00000050: 6cf7 33be 65af 1b3f 9667 ad3e a862 9cbf
00000060: 4000 423e 09fc 34bd 85a8 18bf d9b8 c13e
00000070: db7f 7dbe b7db cebd aa07 86bf ccf8 213f

weight f4 [32, 1]
1.2586925 0.5577577 1.1642457 0.0026719787 -0.35959262 0.5542506 0.20904689 -0.6157899
0.7881504 1.0521659 0.037838962 -0.8022032 0.25261155 -0.45083073 0.66792035 -1.3316885
0.879766 2.0522444 -0.80912966 -1.3113425 -0.33623955 -0.8748659 0.71534514 0.25810438
1.327311 0.96951324 0.542778 1.0507631 0.6746078 -0.43412906 -0.93783504 0.9378607
00000000: d61c a13f 35c9 0e3f 0106 953f 5d1c 2f3b
00000010: 861c b8be 5ee3 0d3f 6310 563e 68a4 1dbf
00000020: 3ac4 493f 5fad 863f 07fd 1a3d 305d 4dbf
00000030: 4d56 813e 49d3 e6be d4fc 2a3f c574 aabf
00000040: 5838 613f f957 0340 1f23 4fbf 12da a7bf
00000050: 9727 acbe 36f7 5fbf dc20 373f 4226 843e
00000060: 54e5 a93f 0532 783f 80f3 0a3f 687f 863f
00000070: 19b3 2c3f 2a46 debe f515 70bf a417 703f

weight f4 [32]
0.52990097 1.1874696 0.94743174 2.0815644 0.46221593 0.93801475 1.214261 1.1450502
2.3375216 -0.46437883 0.9495965 1.6150413 -0.24058925 0.7601518 -0.03761341 0.2977038
1.0927111 1.1227514 0.52897143 1.9661611 1.0926481 1.1837734 0.72279793 1.243248
1.2311437 1.265263 1.5158243 -0.37553197 2.2460363 -0.051217645 0.58753884 0.4758295
00000000: 97a7 073f 01ff 973f e38a 723f 5a38 0540
00000010: 91a7 ec3e bc21 703f e86c 9b3f 0191 923f
00000020: f499 1540 10c3 edbe c218 733f acb9 ce3f
00000030: 075d 76be 4f99 423f 8510 1abd a26c 983e
00000040: f5dd 8b3f 51b6 8f3f ac6a 073f 2bab fb3f
00000050: e5db 8b3f e385 973f 4909 393f c022 9f3f
00000060: 1e96 9d3f 23f4 a13f 8806 c23f ba45 c0be
00000070: 0fbf 0f40 98c9 51bd f268 163f ed9f f33e

bias f4 [32]
0.19653592 -0.79330295 -1.2639368 0.2683451 -0.9179512 0.93191713 -0.36384383 -0.07346819
-1.2931826 -0.31708947 -0.790475 -0.3851722 0.4460332 -0.38019416 0.25896162 0.35200942
1.1427459 -0.22121088 0.5801177 0.41318163 -0.37792507 0.12838343 0.8247137 -0.33891445
-0.43051505 -0.38667879 -0.4196838 0.17437567 -0.87885416 0.3162472 0.43064845 0.54864
00000000: b640 493e e715 4bbf aec8 a1bf 8764 893e
00000010: dafe 6abf 1f92 6e3f bd49 babe 7e76 96bd
00000020: 0287 a5bf 8d59 a2be 925c 4abf 4a35 c5be
00000030: 775e e43e cfa8 c2be 9e96 843e 943a b43e
00000040: 7f45 923f 1b85 62be 9882 143f 8b8c d33e
00000050: 657f c1be f276 033e 7020 533f 3286 adbe
00000060: 786c dcbe c3fa c5be cce0 d6be 898f 323e
00000070: 96fc 60bf 27eb a13e f47d dc3e ac73 0c3f

running_mean f4 [32]
-0.05891995 0.3000689 -0.98099285 0.99575984 0.9991321 0.5830464 0.9390501 0.5492671
-0.99975306 -0.9710695 -0.98040813 -0.93471503 -0.961826 0.88999 -0.011761836 -0.97747105
0.9916372 -0.98271966 -0.99961835 0.55473983 -0.9302667 0.6208434 0.8661853 0.9919721
-0.2760606 -0.95122373 0.12049442 -0.97588193 -0.9488176 -0.80230445 0.98874134 0.8948369
00000000: 0c56 71bd a2a2 993e 5922 7bbf 1eea 7e3f
00000010: 1fc7 7f3f 8742 153f 9665 703f c59c 0c3f
00000020: d1ef 7fbf 0398 78bf 07fc 7abf 7c49 6fbf
00000030: 3b3a 76bf 62d6 633f b7b4 40bc 8b3b 7abf
00000040: efdb 7d3f 8493 7bbf fde6 7fbf 6e03 0e3f
00000050: f525 6ebf 98ef 1e3f 52be 5d3f e2f1 7d3f
00000060: d157 8dbe 6683 73bf c7c5 f63d 66d3 79bf
00000070: b6e5 72bf d363 4dbf 271e 7d3f 0814 653f

running_var f4 [32]
0.12544304 0.18965061 0.00034046502 1.9309233e-05 1.16753945e-05 0.04788541 0.0036567077 0.03700634
1.2197651e-07 0.00047905502 0.00023802929 0.002349995 0.0040337094 0.0058745183 0.097584546 0.00080591417
0.00016082771 0.0002853936 6.499704e-07 0.08267016 0.0033186544 0.10106619 0.007882947 0.00010776648
0.140211 0.0017131214 0.16755405 0.00036541012 0.0050183595 0.015126514 0.00026745483 0.016363928
00000000: 2474 003e c533 423e 7180 b239 43fa a137
00000010: 70e1 4337 7e23 443d 60a5 6f3b f693 173d
00000020: a6f8 0234 ad29 fb39 8097 7939 6002 1a3b
00000030: 352d 843b 087f c03b 68da c73d fc43 533a
00000040: dca3 2839 e1a0 9539 a079 2e35 f94e a93d
00000050: c87d 593b cafb ce3d 7a27 013c b000 e238
00000060: 7993 0f3e d18a e03a 4a93 2b3e 8494 bf39
00000070: 0d71 a43b 33d5 773c 2e39 8c39 a50d 863c

weight f4 [32]
0.098385535 1.944299 2.2870243 0.21277854 2.1126924 1.8090855 2.0919147 0.03087679
0.69156986 0.48321053 0.9753393 1.5687119 1.7122451 1.2039789 0.39872307 2.262867
0.46071643 0.38858894 -0.00011557166 0.06785972 -0.22600542 0.94969 0.39327273 1.3938305
0.050220944 0.22014755 2.1070192 1.9253303 1.9454677 1.5202018 0.19482662 0.016127571
00000000: 5b7e c93d cade f83f 9b5e 1240 9ee2 593e
00000010: 5a36 0740 1d90 e73f eee1 0540 52f1 fc3c
00000020: b90a 313f 5f67 f73e d6af 793f 8dcb c83f
00000030: d92a db3f fb1b 9a3f 6e25 cc3e d0d2 1040
00000040: 06e3 eb3e 21f5 c63e 105f f2b8 09fa 8a3d
00000050: f76d 67be e21e 733f 0b5b c93e 0a69 b23f
00000060: 7ab4 4d3d 5c6e 613e 67d9 0640 3971 f63f
00000070: 1605 f93f f995 c23f a180 473e f81d 843c

bias f4 [32]
-0.86710364 -0.014610428 0.70817775 0.730441 -0.708756 -0.045007437 -0.08351765 0.9023961
-1.0965384 0.6767306 0.08086118 1.2613231 0.5414308 0.3725688 0.058417663 0.0809222
0.6624815 0.3377871 -0.58914393 0.24295276 -1.2644104 0.08777782 1.254405 0.21249288
1.1868548 1.1643671 0.1852246 -0.0058419425 0.6916251 -0.9795367 0.5382604 1.11743
00000000: 81fa 5dbf 9460 6fbc 234b 353f 2efe 3a3f
00000010: 0971 35bf b859 38bd 4d0b abbd 6e03 673f
00000020: 5f5b 8cbf 373e 2d3f 8c9a a53d 0973 a13f
00000030: 359b 0a3f 56c1 be3e 5c47 6f3d 8aba a53d
00000040: 6398 293f 6ef2 ac3e 23d2 16bf 9cc8 783e
00000050: 33d8 a1bf dcc4 b33d 5890 a03f bc97 593e
00000060: dcea 973f fb09 953f 84ab 3d3e c46d bfbb
00000070: 580e 313f ebc2 7abf 6fcb 093f f207 8f3f

running_mean f4 [32]
0.9190914 0.90940845 0.4803075 -0.96677077 0.49309865 0.38976276 0.9565159 -0.9997338
0.98298156 -0.8920574 0.31497937 -0.80553854 0.98945695 0.14381407 0.8954371 -0.36274603
-0.82620454 0.7296197 0.027837534 -0.9997456 -0.9986828 0.68327695 -0.81001633 0.8581257
-0.40772727 0.3489113 -0.7113279 -0.9997933 0.025735538 0.9855905 0.983997 0.21609147
00000000: 9349 6b3f fece 683f ddea f53e 4a7e 77bf
00000010: 6d77 fc3e fc8e c73e 3ade 743f 8eee 7fbf
00000020: aea4 7b3f e05d 64bf fa44 a13e c637 4ebf
00000030: 0d4d 7d3f ff43 133e 5e3b 653f d9b9 b9be
00000040: 2482 53bf 5bc8 3a3f 8a0b e43c 54ef 7fbf
00000050: ada9 7fbf 3deb 2e3f 3b5d 4fbf 20ae 5b3f
00000060: a1c1 d0be 80a4 b23e 9619 36bf 74f2 7fbf
00000070: 56d3 d23c a94f 7c3f 3ae7 7b3f 1547 5d3e

running_var f4 [32]
0.004821607 0.004969291 0.17332609 0.022261294 0.5788206 0.64877176 0.0014019493 5.408457e-08
0.01846573 0.1126805 0.25852492 0.08237613 0.00049305154 0.527246 0.08050591 0.26781434
0.18253057 0.04599559 0.4687229 3.490859e-08 3.5506675e-06 0.060316212 0.17865224 0.11870626
0.2197876 0.6983708 0.06140657 2.978051e-08 0.5184168 0.0026372643 0.00019018467 0.44181773
00000000: 92fe 9d3b 6fd5 a23b 657c 313e 515d b63c
00000010: 962d 143f e815 263f 9dc1 b73a 9d4a 6833
00000020: 7145 973c 09c5 e63d 615d 843e d1b4 a83d
00000030: 2140 013a 98f9 063f 48e0 a43d f61e 893e
00000040: 4be9 3a3e df65 3c3d 73fc ef3e 67ee 1533
00000050: 0148 6e36 220e 773d 9df0 363e 451c f33d
00000060: 0010 613e 6ec8 323f 7585 7b3d 09d0 ff32
00000070: f7b6 043f f4d5 2c3b 4f6c 4739 ef35 e23e

weight f4 [32]
1.239698 0.9589846 1.8653663 0.017135281 0.450918 0.13292857 0.881824 0.9242185
0.55691296 2.0172775 1.6292391 1.0273936 2.071855 -0.28877613 1.5512722 2.3398736
0.9579268 1.5889899 1.8202192 -0.35092536 1.8219726 0.9893046 0.38236293 0.05013594
1.0835776 0.9761242 0.91484594 0.3256084 0.9096172 0.98601955 0.8467514 1.5781357
00000000: 6dae 9e3f 0480 753f 53c4 ee3f 4a5f 8c3c
00000010: b9de e63e 6d1e 083e 38bf 613f 9599 6c3f
00000020: d991 0e3f 131b 0140 e88a d03f a281 833f
00000030: 4699 0440 77da 93be 1690 c63f 7dc0 1540
00000040: b13a 753f 0564 cb3f f1fc e83f 7dac b3be
00000050: 6636 e93f 1143 7d3f 13c5 c33e 585b 4d3d
00000060: acb2 8a3f 47e3 793f 5833 6a3f 25b6 a63e
00000070: acdc 683f c76b 7c3f b3c4 583f 5a00 ca3f

bias f4 [32]
0.93398803 0.012920314 1.3985311 -1.3591992 0.13951497 -0.014044469 -1.0007541 -1.044135
-0.97969073 -0.25239486 0.85895705 -0.91971415 0.67961204 -0.10146832 -1.128456 0.117772706
-1.2725058 1.2424201 -0.9619311 0.33107242 -0.07856894 -0.058875535 0.052482273 0.042749852
0.23961006 -0.037896827 -0.0008722873 -0.16561598 0.25727305 -0.026627904 1.2653041 1.0396391
00000000: d719 6f3f baaf 533c 1103 b33f 3dfa adbf
00000010: 03dd 0e3e c61a 66bc b618 80bf 37a6 85bf
00000020: 03cd 7abf e639 81be 9ce4 5b3f 6372 6bbf
00000030: 0efb 2d3f 9fce cfbd 3f71 90bf d132 f13d
00000040: 78e1 a2bf 9f07 9f3f 1e41 76bf 5382 a93e
00000050: c1e8 a0bd 7927 71bd a7f7 563d 781a 2f3d
00000060: 575c 753e b439 1bbd 36aa 64ba 3c97 29be
00000070: 4bb9 833e c322 dabc 7cf5 a13f e512 853f

running_mean f4 [32]
0.998762 0.9979642 -0.97809243 0.99997294 0.008735365 -0.026887964 -0.9975038 0.99745905
0.98511714 0.22893417 -0.9338039 0.9985331 0.25909188 0.42881134 -0.87612844 -0.98807377
-0.96769494 0.9675472 -0.9999835 0.86361444 0.6061175 0.99785894 0.8365697 -0.99497676
-0.16843411 -0.24725726 0.289639 0.9999845 0.9541599 0.2341291 -0.9999986 0.9555823
00000000: deae 7f3f 957a 7f3f 4464 7abf 3afe 7f3f
00000010: c71e 0f3c 2644 dcbc 695c 7fbf 7a59 7f3f
00000020: a330 7c3f b86d 6a3e c60d 6fbf de9f 7f3f
00000030: b1a7 843e 298d db3e f449 60bf 67f2 7cbf
00000040: dbba 77bf 2cb1 773f ebfe 7fbf d615 5d3f
00000050: 842a 1b3f af73 7f3f 6f29 563f ccb6 7ebf
00000060: fe79 2cbe 0231 7dbe 904b 943e fcfe 7f3f
00000070: d343 743f 8abf 6f3e e9ff 7fbf 0ba1 743f

running_var f4 [32]
3.7251066e-05 0.00011434677 0.009883941 2.3799643e-07 0.53291494 0.47980213 0.0006725874 0.0002831419
0.0006568357 0.44525358 0.021925176 0.00057549536 0.53841066 0.40598765 0.15550275 0.000739676
0.024227986 0.0034550373 7.885927e-08 0.14233942 0.2441133 0.0002782953 0.10466538 0.0009748118
0.4516071 0.41307917 0.40705475 4.7539293e-09 0.014972896 0.55752194 2.9443314e-10 0.009931141
00000000: 073e 1c38 74cd ef38 41f0 213c f68b 7f34
00000010: 1d6d 083f a0a8 f53e 9450 303a aa72 9439
00000020: 7f2f 2c3a 47f8 e33e 6d9c b33c d7dc 163a
00000030: 48d5 093f 9ddd cf3e 1d3c 1f3e d1e6 413a
00000040: c579 c63c e86d 623b 5859 a933 6dc1 113e
00000050: d6f8 793e 2ae8 9139 ce5a d63d 838a 7f3a
00000060: 0c39 e73e 1d7f d33e 7b69 d03e 0158 a331
00000070: e150 753c c2b9 0e3f c8dd a12f 39b6 223c

weight f4 [32, 32]
-0.17992239 0.97204554 0.085033596 -0.123302124 0.6531391 -0.93121225 0.13661818 -0.95868903
0.011320563 0.1294954 0.91633755 0.03642398 -0.10117048 -0.045657687 -0.9640363 -0.6980683
-0.41243175 0.35209748 -0.17599481 -0.9319074 -0.73106086 0.9424909 -0.94759876 -1.0323005
-0.765824 0.28162682 -1.0181354 0.15161456 1.3687893 -0.47998494 -0.0736976 -0.89570236
0.41374305 -1.2034422 -0.62705684 1.0112516 -0.9109668 0.42931604 -0.64812225 0.5279706
-0.7221513 -0.48195982 0.4040075 0.5325486 0.78518367 -0.73026323 0.6870161 0.6117475
0.6881014 -0.88522035 0.65157783 0.7476832 0.669526 -0.5839987 0.5432062 0.63865155
0.31086364 -0.96876585 0.17084035 -0.1453235 0.6192529 0.53294516 -0.53592646 0.50456804
-0.5616583 0.2436393 0.3523628 -0.6003863 0.3202922 -0.5936164 0.5704311 -0.4849158
0.52926725 0.42243874 0.36013997 0.66751766 -0.34846732 0.55900574 -0.44381705 -0.29724514
-0.45971584 0.41847467 -0.50899184 -0.5653711 -0.6117554 0.4546388 -0.58722985 -0.48359627
-0.5830594 0.5627547 -0.6174935 -0.44341183 0.47660083 -0.41320607 -0.5598342 -0.47902945
-0.329129 0.20336387 0.42504665 -0.2762822 0.5559333 0.6771431 0.9850086 -0.58165604
0.3211086 0.53580415 -0.6408497 -0.62077993 0.30439684 0.5015039 -0.25790256 -0.21493137
-0.2350897 0.4852786 -0.96412975 -0.6172585 0.36819047 -0.31839812 1.0464348 -0.68038946
-0.88967025 0.6133302 -1.0999645 0.42417285 -0.58299017 -1.0519159 0.44913116 1.2505689
-0.5046836 0.94899786 -0.16034101 -0.61254364 1.4430436 -0.49967143 0.45916554 1.3913853
1.4212009 -0.17290072 0.6280772 0.46909517 -0.2937729 -0.14040703 -0.7120605 -0.5028374
-1.5903128 0.5890992 -0.2633779 1.0084728 -0.2629796 0.29609683 -0.526373 -0.32217225
-0.23262489 0.46935052 -0.16639984 -0.24698251 0.8767239 -0.4070678 -0.5572384 -0.4133614
-0.2075315 0.8310686 -0.095552325 -0.73287773 0.59119946 -0.43331203 0.40822792 -0.19619828
0.74193764 0.024575295 0.7322554 0.1535531 -0.31377974 0.34377015 -0.47151068 -0.39401323
-0.5618581 0.7868653 -0.40889424 -0.24382691 -0.46461958 0.18067941 -0.55365014 -0.37897897
-0.35551277 0.51804435 -0.35144356 0.030864572 0.5684897 -0.2670132 0.31639194 -0.4450149
0.14044401 -0.25628102 -0.045165222 1.0385844 -0.9098582 0.9895399 -0.14365405 -0.12726651
-1.1840043 0.13108288 -0.8096625 -0.44138142 -0.15197517 -0.16854227 0.711722 0.78397036
1.0569807 -0.098787874 0.09783945 -1.0862039 -0.046002224 0.21075457 0.91928905 -0.12807028
0.059213888 -0.15354349 -0.20589389 -0.14807779 -1.0030707 0.13619104 1.1107999 0.42568755
0.63676184 -0.37908423 -0.45324782 0.52978486 -0.33489046 0.39036536 -0.43542016 0.44458252
-0.28240985 -0.4047537 -0.49319285 -0.6224642 0.6056626 -0.28847563 0.5580752 0.48626596
0.6024332 -0.5693378 0.4965919 0.38713795 0.6468691 -0.6012415 0.61970747 0.6480126
0.53851277 -0.5816303 0.5906746 0.42045715 -0.535275 0.6365482 0.5901051 0.52623487
00000000: 933d 38be fad7 783f 1826 ae3d d385 fcbd
00000010: 2034 273f ed63 6ebf a3e5 0b3e a56c 75bf
00000020: e279 393c 719a 043e 1995 6a3f 5031 153d
00000030: 7832 cfbd 8e03 3bbd 15cb 76bf 9bb4 32bf
00000040: 412a d3be 1f46 b43e fc37 34be 7c91 6ebf
00000050: ce26 3bbf 1547 713f d595 72bf 6c22 84bf
00000060: 0b0d 44bf 6431 903e 4352 82bf d940 1b3e
00000070: 7d34 af3f 96c0 f5be c4ee 96bd c04c 65bf
00000080: 21d6 d33e 650a 9abf cc86 20bf b170 813f
00000090: 1f35 69bf 50cf db3e 57eb 25bf 1529 073f
000000a0: e8de 38bf 70c3 f6be 12da ce3e 1b55 083f
000000b0: cc01 493f 88f2 3abf 4ae0 2f3f 7c9b 1c3f
000000c0: 6a27 303f cd9d 62bf cecd 263f 2b68 3f3f
000000d0: 0e66 2b3f f080 15bf 900f 0b3f ab7e 233f
000000e0: 8529 9f3e 0a01 78bf c6f0 2e3e afcf 14be
000000f0: 5c87 1e3f 186f 083f 7a32 09bf 5f2b 013f
00000100: d7c8 0fbf 957c 793e e668 b43e ebb2 19bf
00000110: 57fd a33e 3ff7 17bf c607 123f e246 f8be
00000120: 0f7e 073f e449 d83e 4464 b83e 70e2 2a3f
00000130: 4f6a b2be 001b 0f3f fd3b e3be 8430 98be
00000140: e05f ebbe 5042 d63e 4a4d 02bf 29bc 10bf
00000150: 009c 1cbf 6bc6 e83e b254 16bf ee99 f7be
00000160: 6143 15bf b110 103f 0e14 1ebf e006 e3be
00000170: 0605 f43e bf8f d3be 4b51 0fbf 5943 f5be
00000180: 9983 a8be 9e3e 503e b79f d93e dc74 8dbe
00000190: a551 0e3f 4059 2d3f 8629 7c3f 69e7 14bf
000001a0: 5968 a43e 762a 093f ba0e 24bf 6feb 1ebf
000001b0: e7d9 9b3e 8f62 003f ce0b 84be f816 5cbe
000001c0: 5bbb 70be 7076 f83e 35d1 76bf a704 1ebf
000001d0: 7683 bc3e 1405 a3be 93f1 853f 012e 2ebf
000001e0: 6ec1 63bf 3503 1d3f a3cb 8cbf 2f2d d93e
000001f0: d83e 15bf 2ea5 86bf 85f4 e53e a412 a03f
00000200: f232 01bf 86f1 723f 6f30 24be a9cf 1cbf
00000210: a7b5 b83f efd4 ffbe bf17 eb3e ea18 b23f
00000220: e9e9 b53f e30c 31be abc9 203f 3e2d f03e
00000230: 6769 96be dcc6 0fbe 9949 36bf f4b9 00bf
00000240: 5f8f cbbf 35cf 163f 78d9 86be a315 813f
00000250: 43a5 86be 019a 973e 62c0 06bf c3f3 a4be
00000260: 3835 6ebe b64e f03e b864 2abe fce8 7cbe
00000270: fa70 603f 316b d0be 2da7 0ebf 1ba4 d3be
00000280: 2383 54be e9c0 543f f0b0 c3bd e09d 3bbf
00000290: d958 173f 13db ddbe 4003 d13e 34e8 48be
000002a0: a0ef 3d3f 2152 c93c 1775 3b3f 063d 1d3e
000002b0: bda7 a0be a402 b03e d969 f1be 1abc c9be
000002c0: efd5 0fbf 0170 493f 965a d1be c3ad 79be
000002d0: 9ee2 edbe 0604 393e 04bc 0dbf 8809 c2be
000002e0: c505 b6be 8e9e 043f 69f0 b3be b3d7 fc3c
000002f0: 8a88 113f f4b5 88be 20fe a13e fed8 e3be
00000300: 8ed0 0f3e 4437 83be 2bff 38bd 55f0 843f
00000310: 78ec 68bf 7d52 7d3f 0c1a 13be 2752 02be
00000320: 748d 97bf 973a 063e 0b46 4fbf bffc e1be
00000330: 619f 1bbe 5896 2cbe 6a33 363f 48b2 483f
00000340: 254b 873f 4c51 cabd 0d60 c83d bb08 8bbf
00000350: d46c 3cbd 0cd0 573e 8756 6b3f db24 03be
00000360: 438a 723d 813a 1dbe d9d5 52be b4a1 17be
00000370: 9f64 80bf aa75 0b3e b12e 8e3f b8f3 d93e
00000380: d302 233f 5417 c2be 1910 e8be fb9f 073f
00000390: c376 abbe f8dd c73e 64ef debe 52a0 e33e
000003a0: 0698 90be e13b cfbe c683 fcbe d059 1fbf
000003b0: b40c 1b3f 14b3 93be 04de 0e3f daf7 f83e
000003c0: 1039 1a3f 1fc0 11bf 4b41 fe3e f236 c63e
000003d0: 3799 253f f7ea 19bf 26a5 1e3f 27e4 253f
000003e0: f9db 093f b9e5 14bf 7336 173f 2946 d73e
000003f0: c807 09bf d3f4 223f 2111 173f 54b7 063f

bias f4 [32]
-0.028721746 0.2931241 0.47425294 0.61897296 -0.3270573 -0.8130307 -0.14941949 -0.33908695
0.6766258 -0.5411354 0.48411345 0.8952823 -0.65856886 0.50984967 0.8117545 -0.38347873
0.26752943 -0.39107442 0.9126383 -0.11917235 0.2611905 0.50096226 1.1093498 0.7462385
-0.17795488 0.23542869 1.2733929 0.4309792 -0.11078854 -0.5828769 0.858329 -0.35789824
00000000: de49 ebbc 5d14 963e 48d1 f23e 0375 1e3f
00000010: 0e74 a7be c822 50bf 6c01 19be ce9c adbe
00000020: 5937 2d3f d987 0abf b8dd f73e 3931 653f
00000030: f897 28bf 8285 023f 25cf 4f3f 5357 c4be
00000040: 9ef9 883e e83a c8be aaa2 693f a210 f4bd
00000050: c3ba 853e 103f 003f 2dff 8d3f 7d09 3f3f
00000060: ce39 36be 3814 713e 8afe a23f 4ea9 dc3e
00000070: 1ae5 e2bd 6c37 15bf 73bb 5b3f 703e b7be

weight f4 [32, 32]
0.46986932 -0.057361558 -1.0691192 -0.8977226 -0.12146097 -0.8545897 0.08474117 0.4997735
0.14357863 0.13292757 -0.60392904 -0.040915962 -0.2062082 0.82211244 -0.87231493 0.19999546
0.24598236 -0.95918065 0.2623424 -0.97544557 -0.18127263 -0.008852774 0.018125622 -1.023945
-0.01734278 -0.1329052 0.8763786 -0.9047151 -0.7713733 -0.7172506 -0.9362909 0.21612428
0.31543666 0.64741284 -0.20690997 -0.26549608 0.55602294 -0.15720235 -1.5097942 -0.47904724
-0.66636884 0.05188756 0.07764233 0.4166128 -0.45098168 0.71963257 0.3376784 0.50736165
-0.19394389 -0.47362322 0.36887455 0.5359403 -0.3920167 -0.6706369 0.5747203 0.36220068
0.4967346 0.8782794 1.2488716 0.7132145 -0.68530655 0.13038605 0.5903359 -0.4795506
0.43069157 0.3707231 -0.52444524 -0.42568707 -0.53722745 0.45020002 0.79763216 0.43151364
0.41084146 0.57757115 -0.5219279 -0.14169866 -0.5297811 0.43842137 -0.49818587 -0.5027668
0.35494787 -0.3058311 0.35485834 -0.4363645 -0.55167085 -0.09693314 -0.5647802 -0.3715293
-0.57619077 0.40310052 0.358223 -0.44459626 -0.26821926 -0.34381118 -0.4265449 0.3387708
-0.36455438 -1.045773 0.7189055 0.65685874 0.52298206 0.4962703 -0.6285347 -0.46434984
0.39237916 -0.5965396 0.58971465 -0.41618857 0.5114232 -0.40401533 0.4041114 0.4294559
-0.531012 0.44001904 -0.71233284 0.7870545 0.3704782 0.42079657 -0.40036145 0.62397265
-0.44002807 -0.5609413 -0.63495797 0.31728822 0.5803037 0.40160373 0.73012537 -0.46421722
0.5929207 0.05682899 -0.6395217 -0.63238895 0.5474772 -0.6689937 0.6951846 -0.06680533
-0.55800164 0.22467622 -0.600726 0.4312419 -0.34285015 0.5884454 0.32709688 0.4000568
0.24471909 -0.69811505 0.5412447 0.5837619 -0.3163819 -0.4919361 0.5981727 -0.6647624
0.531806 0.52041894 0.43146077 -0.35132015 -0.35418987 -0.48058712 0.045173552 0.3694118
0.41770095 0.7230668 -0.6464226 -0.39675355 -0.27314407 -1.0877746 0.6142156 0.47552636
-0.6009412 0.2846744 -0.37587184 0.36446443 -0.5812449 0.4981353 -0.28484514 0.5675352
0.35843882 -0.35952416 0.39521864 -0.46668956 -0.5869698 -0.24615625 0.6270777 -0.24736066
0.62053674 0.34185648 0.48366785 -0.4029741 -0.43372056 -0.56534106 -0.5488114 0.33745632
-0.44109672 -0.9829451 0.58185375 0.44606268 -0.2123076 0.4837548 -0.57548267 -0.27466226
0.48844114 -0.39686015 0.9076296 -0.15601102 0.791806 -0.5654241 0.82295245 -0.37131476
-0.5065324 0.71827114 -0.9513542 -0.21148007 0.500268 0.3515603 -0.2955113 1.088272
-0.5535382 -0.51303345 -0.40378565 0.636329 0.5581243 0.76252675 1.0135342 -0.46906474
-0.7416514 -0.46209973 0.8880608 -0.5496889 0.34986928 0.93315905 -0.30802256 -0.2946976
-0.38407287 -0.6302185 0.64707714 0.37368605 0.54932654 -0.41350496 0.40315333 0.62111574
-0.58959293 0.4597811 0.65457755 0.3465899 -0.5855168 0.13698389 0.6385253 0.303124
0.6937955 0.8537172 0.2865603 0.5667297 -0.4471327 0.4938997 0.6388141 -0.4530974
00000000: b692 f03e f4f3 6abd e6d8 88bf 26d1 65bf
00000010: 87c0 f8bd 64c6 5abf c78c ad3d 50e2 ff3e
00000020: 4706 133e 2a1e 083e 189b 1abf 7f97 27bd
00000030: 3e28 53be f675 523f 0850 5fbf 9ccb 4c3e
00000040: cde2 7b3e dd8c 75bf be51 863e cdb6 79bf
00000050: 889f 39be 3a0b 11bc 2f7c 943c a110 83bf
00000060: 7212 8ebc 4d18 08be 595a 603f 699b 67bf
00000070: b878 45bf bc9d 37bf c3b0 6fbf af4f 5d3e
00000080: ea80 a13e d9bc 253f 35e0 53be 1aef 87be
00000090: 8557 0e3f a7f9 20be f040 c1bf ae45 f5be
000000a0: 2697 2abf 0d88 543d f102 9f3d 464e d53e
000000b0: 12e7 e6be d739 383f 2fe4 ac3e 74e2 013f
000000c0: 3a99 46be be7e f2be 20dd bc3e 6233 093f
000000d0: 6ab6 c8be dcae 2bbf df20 133f 5e72 b93e
000000e0: ff53 fe3e ebd6 603f 06db 9f3f 3a95 363f
000000f0: 4070 2fbf ec83 053e 4120 173f a887 f5be
00000100: 9b83 dc3e 6bcf bd3e 0b42 06bf a8f3 d9be
00000110: bd87 09bf 9e80 e63e 9f31 4c3f 5bef dc3e
00000120: d059 d23e b4db 133f 119d 05bf 7419 11be
00000130: bc9f 07bf c478 e03e 3812 ffbe 53b5 00bf
00000140: babb b53e e595 9cbe feaf b53e 2b6b dfbe
00000150: 4d3a 0dbf e284 c6bd 6f95 10bf 1739 bebe
00000160: 3d81 13bf 3163 ce3e 0169 b73e 1fa2 e3be
00000170: 0954 89be 0508 b0be 1864 dabe 5e73 ad3e
00000180: dfa6 babe e4db 85bf 310a 383f e527 283f
00000190: 27e2 053f 2417 fe3e a6e7 20bf 43bf edbe
000001a0: ece5 c83e d2b6 18bf 8af7 163f ab16 d5be
000001b0: a1ec 023f 19db cebe b0e7 ce3e a5e1 db3e
000001c0: 67f0 07bf 2d4a e13e 725b 36bf 677c 493f
000001d0: 52af bd3e a672 d73e 2dfc ccbe acbc 1f3f
000001e0: 5c4b e1be d999 0fbf 9b8c 22bf 9a73 a23e
000001f0: c98e 143f 019f cd3e 7fe9 3a3f e1ad edbe
00000200: a7c9 173f 84c5 683d b2b7 23bf 3ee4 21bf
00000210: 7727 0c3f 2c43 2bbf 9ef7 313f 3cd1 88bd
00000220: 32d9 0ebf 8611 663e 2ec9 19bf bdcb dc3e
00000230: 0e8a afbe 5ca4 163f 3e79 a73e 3fd4 cc3e
00000240: a497 7a3e abb7 32bf 038f 0a3f 6b71 153f
00000250: cffc a1be 0cdf fbbe d921 193f de2d 2abf
00000260: 7024 083f 2d3a 053f 6de8 dc3e 3ce0 b3be
00000270: 6058 b5be 840f f6be e707 393d 8b23 bd3e
00000280: e6dc d53e e81a 393f f47b 25bf 4823 cbbe
00000290: 8ad9 8bbe 333c 8bbf 3c3d 1d3f 3178 f33e
000002a0: 48d7 19bf d8c0 913e 4672 c0be 159b ba3e
000002b0: 77cc 14bf 970b ff3e 39d7 91be fd49 113f
000002c0: 4b85 b73e 8d13 b8be 195a ca3e eff1 eebe
000002d0: a743 16bf 6210 7cbe 2a88 203f 1d4c 7dbe
000002e0: 7fdb 1e3f d007 af3e 50a3 f73e 9f52 cebe
000002f0: 9f10 debe 31ba 10bf e77e 0cbf 13c7 ac3e
00000300: 6ed7 e1be 4aa2 7bbf 5ef4 143f 5462 e43e
00000310: 2a67 59be b6ae f73e d552 13bf 88a0 8cbe
00000320: f514 fa3e 4131 cbbe 6a5a 683f 5ac1 1fbe
00000330: ccb3 4a3f a2bf 10bf 03ad 523f f81c bebe
00000340: 1bac 01bf 9ee0 373f f38b 73bf 3b8e 58be
00000350: 9011 003f b6ff b33e 424d 97be 7f4c 8b3f
00000360: aeb4 0dbf 2956 03bf febc cebe 75e6 223f
00000370: 3ce1 0e3f f434 433f 7dbb 813f 4129 f0be
00000380: dedc 3dbf 5698 ecbe f457 633f 69b8 0cbf
00000390: 1122 b33e 83e3 6e3f 22b5 9dbe 9be2 96be
000003a0: 33a5 c4be 0056 21bf d9a6 253f c753 bf3e
000003b0: aaa0 0c3f ecb6 d3be 1d6a ce3e 7101 1f3f
000003c0: 90ef 16bf 6e68 eb3e 6592 273f 3b74 b13e
000003d0: 6ee4 15bf 8145 0c3e 6576 233f 1233 9b3e
000003e0: 959c 313f 368d 5a3f 08b8 923e 3315 113f
000003f0: 94ee e4be 6ce0 fc3e 5289 233f 62fc e7be

weight f4 [32, 32]
-0.394034 -0.53084165 0.4082599 -0.55176276 0.41074318 0.36892352 -0.5849807 -0.6608713
0.55595106 -0.39605537 0.53761965 -0.6873677 0.61370623 -0.47226882 0.2703597 0.29832336
-0.50749826 0.38943666 -0.3844498 0.518073 -0.050657634 0.33743632 0.22458187 0.37967885
0.30695614 -0.55109423 -0.55197614 0.47428212 -0.80967885 0.34379563 0.37393746 -0.602736
0.6405864 0.8773988 -0.053649656 -0.08192063 -0.40043375 -1.0644492 0.866221 0.72584987
-1.0158402 0.80045956 0.1134573 0.96309155 -0.013562374 0.026609898 -0.14737195 -0.16011976
0.49118653 0.11572515 0.0013537577 -0.03825682 -1.0237294 -0.027324308 0.7609464 0.19948368
0.15980028 0.35712206 -0.11061995 -0.26656777 0.13013226 -0.42757922 0.020041043 0.82894164
0.26212734 -0.0844542 -0.06892833 -0.7499106 0.17079686 0.88292575 -1.0733852 -0.3498926
0.7041173 -0.57213664 -0.023769943 -0.79245675 0.044225127 0.045666024 0.09321118 0.5149728
-0.27759287 -0.09016993 -0.0966186 0.2549716 -0.057381414 0.055038825 -1.0812389 0.027887294
0.88084775 -0.20663562 -0.051835485 0.4640255 -1.0633796 -0.07828974 -0.056829162 -0.75708884
-0.009796113 0.98448193 -0.13704085 0.78838956 -0.96506125 -0.9374311 0.98602825 1.0629721
-0.9547263 1.0365378 -0.18924949 0.06628838 -0.36338466 0.26274958 -0.3035087 -1.1671159
0.9497607 0.039800584 -0.03983146 -0.7456862 -0.91666335 -0.066568404 0.99107784 -0.06921846
0.8602147 0.94689226 0.015921533 -0.7125636 -0.16716531 -0.8472557 -0.017144114 0.9104254
0.36015093 0.8760687 -0.40957925 0.0065211863 -0.77475786 -0.5828182 0.5697725 0.6350712
-0.3344354 0.782221 -0.3252165 0.6530571 -0.5279348 0.3824047 0.3063453 0.71493447
0.60243684 -0.37994757 0.42925873 -0.7616351 -0.47538292 -0.58253723 0.6037786 -0.44848886
0.6110427 0.40069696 0.590526 -0.5363948 -0.3194824 -0.83192354 -0.25673664 0.6777605
-0.7263128 -0.8427347 -0.12638494 0.69652975 -0.67990613 -0.2515022 0.4767415 0.48971003
0.37850243 0.71837187 -0.11084118 -0.46531376 -0.17142697 -0.54416704 0.6000287 -0.4935676
0.3447345 0.8452046 0.12411482 -0.37539977 0.60273254 -0.19796023 -0.49328268 -0.11826809
-0.32492352 0.64168614 -0.07436621 -0.32009214 0.6992198 -0.38212508 -0.14803807 0.6965166
0.31066176 -0.059942324 -0.1530113 -0.5919416 -0.066358835 0.814594 -0.9344779 -0.14238195
0.78678936 -0.421574 0.024846673 -0.92163795 0.10998988 0.115134805 0.019954724 0.42689654
-0.4182035 0.12798598 0.0005066565 0.4301882 0.8282952 -0.06514534 -0.15907025 0.1698494
0.08799215 -0.2035477 -0.11616635 0.44904792 -0.7430589 0.02202665 0.16650194 -0.7360824
0.37934268 -0.047763515 0.91721267 -0.035167668 0.038864005 -1.0036931 -0.23377404 0.9141274
-0.9599563 -0.12091218 0.9483408 0.9270383 0.9313667 -0.008476475 -0.095870614 0.53966063
-0.2186001 0.80093056 -0.83046067 0.88400906 -0.89925295 0.046869256 0.7678225 1.0618441
0.07718698 -0.08105385 -0.9855518 0.8159311 0.09234546 0.000681852 0.98819053 -0.80426556
00000000: d3be c9be 3de5 07bf 7107 d13e 5340 0dbf
00000010: ee4c d23e 8be3 bc3e 4cc1 15bf dd2e 29bf
00000020: cf52 0e3f c5c7 cabe 71a1 093f 54f7 2fbf
00000030: da1b 1d3f 38cd f1be 966c 8a3e d7bd 983e
00000040: 68eb 01bf 3e64 c73e 9bd6 c4be 6fa0 043f
00000050: 617e 4fbd 74c4 ac3e caf8 653e 4465 c23e
00000060: 5b29 9d3e 8314 0dbf 4f4e 0dbf 1bd5 f23e
00000070: 1d47 4fbf fb05 b03e bb74 bf3e e84c 1abf
00000080: 78fd 233f 359d 603f bebf 5bbd 01c6 a7bd
00000090: a705 cdbe df3f 88bf a9c0 5d3f 4cd1 393f
000000a0: 0d07 82bf ebea 4c3f 4d5c e83d 2b8d 763f
000000b0: b834 5ebc 00fd d93c ace8 16be 6ff6 23be
000000c0: cd7c fb3e 4f01 ed3d 9270 b13a 2fb3 1cbd
000000d0: 9109 83bf 3ad7 dfbc 62cd 423f 7345 4c3e
000000e0: afa2 233e b4d8 b63e b68c e2bd 927b 88be
000000f0: 6441 053e aaeb dabe 1d2d a43c 8535 543f
00000100: 8e35 863e 53f6 acbd 4c2a 8dbd 24fa 3fbf
00000110: 5fe5 2e3e 6c07 623f b064 89bf 1f25 b3be
00000120: 0841 343f 8c77 12bf 2fb9 c2bc 72de 4abf
00000130: 6825 353d 4c0c 3b3d 81e5 be3d 42d5 033f
00000140: a720 8ebe 03ab b8bd f9df c5bd a38b 823e
00000150: c608 6bbd 6470 613d 0966 8abf e573 e43c
00000160: 3d7f 613f 4a98 53be 7251 54bd c094 ed3e
00000170: d31c 88bf 5f56 a0bd b2c5 68bd 93d0 41bf
00000180: e07f 20bc 0207 7c3f 7054 0cbe e6d3 493f
00000190: 410e 77bf 7cfb 6fbf 596c 7c3f 780f 883f
000001a0: f168 74bf 45ad 843f 9eca 41be 34c2 873d
000001b0: 8e0d babe 1d87 863e 7e65 9bbe 0e64 95bf
000001c0: 8423 733f f005 233d 5026 23bd 4ae5 3ebf
000001d0: 73aa 6abf 0455 88bd 47b7 7d3f 68c2 8dbd
000001e0: 0837 5c3f 8867 723f e06d 823c 916a 36bf
000001f0: 622d 2bbe c0e5 58bf d071 8cbc a411 693f
00000200: b465 b83e 0a46 603f 5fb4 d1be adaf d53b
00000210: 8856 46bf 9333 15bf 9cdc 113f 0794 223f
00000220: 1e3b abbe a33f 483f c782 a6be c02e 273f
00000230: bc26 07bf 8dca c33e 4bd9 9c3e f205 373f
00000240: 4d39 1a3f 7d88 c2be cdc7 db3e 85fa 42bf
00000250: 6465 f3be 2921 15bf 3c91 1a3f 55a0 e5be
00000260: 4b6d 1c3f 2728 cd3e b62c 173f 2b51 09bf
00000270: 3293 a3be f1f8 54bf fc72 83be b681 2d3f
00000280: a3ef 39bf 76bd 57bf 0e6b 01be c64f 323f
00000290: 540e 2ebf e5c4 80be 7617 f43e 46bb fa3e
000002a0: 12cb c13e 38e7 373f b300 e3bd 9b3d eebe
000002b0: 8d8a 2fbe 884e 0bbf 7b9b 193f e4b4 fcbe
000002c0: 0a81 b03e 545f 583f e92f fe3d 6634 c0be
000002d0: ae4c 1a3f 16b6 4abe 8c8f fcbe 8a36 f2bd
000002e0: 605c a6be 8b45 243f 504d 98bd 1ee3 a3be
000002f0: 1200 333f e6a5 c3be 4b97 17be e94e 323f
00000300: 0f0f 9f3e 1586 75bd ffae 1cbe 7c89 17bf
00000310: 24e7 87bd 3b89 503f f239 6fbf 93cc 11be
00000320: 076b 493f 8cd8 d7be 408b cb3c 77f0 6bbf
00000330: 6042 e13d cccb eb3d 1778 a33c 2f92 da3e
00000340: c51e d6be c20e 033e 24d1 043a a141 dc3e
00000350: 270b 543f ec6a 85bd 50e3 22be 00ed 2d3e
00000360: 3a35 b43d cf6e 50be a0e8 edbd 9ce9 e53e
00000370: 1c39 3ebf 3c71 b43c 7c7f 2a3e e56f 3cbf
00000380: 3439 c23e ada3 43bd 73ce 6a3f f90b 10bd
00000390: dd2f 1f3d 0479 80bf 7662 6fbe 4104 6a3f
000003a0: b2bf 75bf cea0 f7bd 76c6 723f 6252 6d3f
000003b0: 0c6e 6e3f eae0 0abc d057 c4bd 3327 0a3f
000003c0: b4d8 5fbe c909 4d3f 1299 54bf 6b4e 623f
000003d0: 7135 66bf faf9 3f3d 0490 443f 82ea 873f
000003e0: 3514 9e3d 90ff a5bd 1f4d 7cbf dce0 503f
000003f0: 9e1f bd3d 50be 323a 0efa 7c3f 59e4 4dbf

bias f4 [32]
0.4434305 -0.08444477 0.0016001561 0.019588858 -0.21663314 -0.26235622 0.10680614 0.054237507
-0.96945524 0.48982593 -0.14777137 0.924534 0.8691694 0.46346366 -1.1204689 0.13472651
-0.030610707 0.36032736 -0.064611286 0.028795376 -1.0510076 0.63491887 -0.10497146 0.15387195
-1.0925032 0.20297925 -0.860177 -0.95095176 -0.16644731 0.62238175 0.2215313 0.82111585
00000000: 5309 e33e 61f1 acbd 54bc d13a d078 a03c
00000010: 14d5 5dbe 8e53 86be 2dbd da3d 2628 5e3d
00000020: 382e 78bf 77ca fa3e 6151 17be 43ae 6c3f
00000030: e381 5e3f 1c4b ed3e 866b 8fbf bff5 093e
00000040: 4ec3 fabc d47c b83e ec52 84bd 48e4 eb3c
00000050: 6b87 86bf 0b8a 223f 47fb d6bd 9c90 1d3e
00000060: 25d7 8bbf cbd9 4f3e 8f34 5cbf 9371 73bf
00000070: 2a71 2abe 6954 1f3f 1ad9 623e a634 523f
