mlartifacts/403163061964527456/d7ed52488ff04ac09573b212bd6b3d0b/artifacts/models/data/model.pth (torch, 72192 bytes, 46 tensors)

bias f4 [16]
0	0x3f29f59d	0.663904
1	0x3f29f592	0.66390336
2	0xbf29ec2f	-0.6637601
3	0x3f29f592	0.66390336
4	0x3f29f59e	0.6639041
5	0xbf29f5a5	-0.6639045
6	0x3f29f56c	0.6639011
7	0xbf29f54c	-0.6638992
8	0xbf29f5a4	-0.6639044
9	0x00000000	0.0
10	0x00000000	0.0
11	0x3f29cdb1	0.66329485
12	0xbf29f58c	-0.663903
13	0x3f29f589	0.6639028
14	0x3f29f59c	0.66390395
15	0xbf29f595	-0.66390353

weight f4 [16, 3]
0	0x3f7b614b	0.9819533
1	0x3f35b3e4	0.70977616
2	0x3e80586b	0.25067458
3	0x3f9ce3cf	1.2257022
4	0x3ee07a1e	0.43843168
5	0x3e250770	0.16116118
6	0xbec3d64a	-0.38249427
7	0xbe8b815e	-0.27247137
8	0xbf0937db	-0.53600854
9	0x3f90ad7f	1.1302947
10	0x3f3f2ee8	0.7468095
11	0x3f1d187b	0.6136548
12	0x3f96b50a	1.1773999
13	0x3e82274c	0.25420606
14	0x3f9e6ef4	1.237761
15	0xbea95562	-0.33072954
16	0xbe9f94a0	-0.3116808
17	0xbf2b1660	-0.66831017
18	0x3e6a94f6	0.22908387
19	0x3e8968bb	0.26837716
20	0xbeb7c08d	-0.35889092
21	0xbdf97500	-0.12180519
22	0xbf0853be	-0.5325278
23	0xbf4f9d2a	-0.8109919
24	0xbf2e3018	-0.68042135
25	0xbf89678c	-1.0734725
26	0xbeb779f7	-0.3583524
27	0xbeb18d94	-0.34678328
28	0xbe8dfdb4	-0.27732623
29	0xbe4bddf0	-0.19908881
30	0xbf124e16	-0.571504
31	0xbe4c2e5f	-0.19939564
32	0x3f048a54	0.5177357
33	0x3f42040e	0.75787437
34	0xbf0e55a4	-0.5559943
35	0xbd0cc827	-0.034370568
36	0xbed34871	-0.41266206
37	0xbf0286c6	-0.509869
38	0xbf2668e3	-0.65003794
39	0x3f990154	1.195353
40	0xbf4534f4	-0.77033925
41	0x3f256c9f	0.6461887
42	0xbefa4e3d	-0.48887816
43	0x3f6e7d2b	0.9315974
44	0x3f83e9d0	1.0305729
45	0xbdc52998	-0.09627074
46	0xbee5f802	-0.44915777
47	0xbe260d24	-0.1621595

weight f4 [16, 3]
0	0xbf5186e2	-0.8184644
1	0xbe4d75f6	-0.2006453
2	0xbf57834e	-0.8418473
3	0xbf845fad	-1.0341698
4	0x3f8812c8	1.0630732
5	0xbf6f3a7c	-0.93448615
6	0xbf08070a	-0.5313574
7	0x3ed18bfe	0.40927118
8	0x3ede5b23	0.43428907
9	0xbecd595b	-0.40107235
10	0x3ef76ceb	0.48325285
11	0xbe0f8faa	-0.14019647
12	0x3f8d913e	1.1059949
13	0x3f077164	0.52907395
14	0x3e005c50	0.12535214
15	0xbee6a040	-0.45044136
16	0xbeb4958f	-0.35270354
17	0xbf5ab2f3	-0.85429305
18	0xbf1eec6c	-0.620795
19	0xbec5c809	-0.38629177
20	0xbe98b713	-0.29827175
21	0xbf09d494	-0.53839993
22	0xbf2028d0	-0.62562275
23	0xbf9af028	-1.210454
24	0x3f4d8a2c	0.8028896
25	0x3f2a2594	0.6646359
26	0x3f76c426	0.9639305
27	0xbf33d70d	-0.70250016
28	0xbf0ed598	-0.5579467
29	0xbeed76d9	-0.46379736
30	0xbee0d646	-0.43913478
31	0xbee6fbd1	-0.45113996
32	0xbf64aeb8	-0.893291
33	0x3f4639b9	0.7743183
34	0x3f5eba28	0.870028
35	0x3f41fa62	0.7577268
36	0x3d17ba52	0.037042923
37	0xbedb5957	-0.42841598
38	0xbe20c269	-0.15699162
39	0xbf73663c	-0.9507787
40	0xbf159275	-0.584266
41	0xbf4bed20	-0.796587
42	0x3eb5476f	0.35406062
43	0xbe8d9db3	-0.27659377
44	0xbe50b7cd	-0.20382614
45	0xbf802492	-1.001116
46	0xbe978233	-0.29591522
47	0xbf17bf62	-0.592764

bias f4 [16]
0	0xbea35b84	-0.31905758
1	0xbefe16b5	-0.496267
2	0xbed8707c	-0.4227332
3	0xbee52ebd	-0.4476222
4	0x3f452292	0.77005875
5	0xbf1095d1	-0.564786
6	0xbf844837	-1.0334538
7	0xbe87f27d	-0.2655219
8	0x3f359f7d	0.70946485
9	0xbf4bd58c	-0.7962272
10	0xbe8caafc	-0.274742
11	0x3ecd9151	0.4014993
12	0xbe523225	-0.20526941
13	0xbe0d45fc	-0.13796228
14	0xbef2541b	-0.47329792
15	0xbf764e78	-0.96213484

weight f4 [16, 1]
0	0xbf9e0362	-1.2344782
1	0x3df99750	0.12187064
2	0xbe82ce6c	-0.25548112
3	0x3ecb2030	0.39672995
4	0xbe596498	-0.2122978
5	0x3c315e00	0.010825634
6	0x3f9b23d1	1.2120305
7	0xbf622226	-0.88333356
8	0x3decc6c0	0.11561346
9	0xbd477720	-0.04869759
10	0xbf9a4400	-1.2052002
11	0xbfb0472d	-1.3771721
12	0x3e42d860	0.19027853
13	0xbe537dec	-0.20653504
14	0x3d0045c0	0.03131652
15	0xbf0c7fbc	-0.5488241

weight f4 [16, 1]
0	0x3fca03d4	1.5782418
1	0x3fc20171	1.515669
2	0xbfbb6fac	-1.4643455
3	0x3f3299d5	0.6976598
4	0xbe708a78	-0.23490322
5	0xbf957a9f	-1.1678046
6	0x3e937df4	0.28807032
7	0xbf5c9c6f	-0.861762
8	0x3d997ac0	0.07494116
9	0xbf393b46	-0.7235607
10	0xbf44e8d8	-0.7691779
11	0xbe2a79bc	-0.16648
12	0xbefaede0	-0.4900961
13	0xbf99fd5c	-1.2030444
14	0x3f957076	1.1674945
15	0xbf974fea	-1.1821263

bias f4 [16]
0	0x3f3c2ff1	0.7351065
1	0x3cbbe1c0	0.022934794
2	0xbf869f34	-1.0517335
3	0x3f9f8b0b	1.2464308
4	0x3f12633e	0.5718268
5	0x3ea35ffe	0.31909174
6	0x3fc93760	1.5720024
7	0xbf8a408e	-1.080095
8	0x3e517600	0.2045517
9	0xbf1b6fd4	-0.6071751
10	0xbefa62d8	-0.48903537
11	0x3ed1a30e	0.40944713
12	0xbed20ae0	-0.41023922
13	0x3fb3b104	1.4038396
14	0x3f8f1cbf	1.1180648
15	0xbfc2871e	-1.5197484

weight f4 [16, 3]
0	0x3eb01351	0.34389737
1	0x3f4301bd	0.7617453
2	0x3f715062	0.9426328
3	0x3f28f55c	0.6599939
4	0x3f71ed1b	0.9450242
5	0x3f66c90d	0.9015053
6	0xbe9fd214	-0.31214964
7	0xbf35af52	-0.7097064
8	0xbf59c113	-0.8506023
9	0x3f8b15a4	1.0865979
10	0x3f8345b2	1.0255644
11	0x3e843e56	0.2582881
12	0x3edd5b54	0.4323374
13	0x3f709720	0.939806
14	0x3f8736fe	1.0563657
15	0xbf8a858f	-1.0822009
16	0xbe01d000	-0.12677002
17	0xbdbd4cb0	-0.092431426
18	0x3ee855b6	0.45377892
19	0x3f973d0c	1.1815505
20	0xbf987e52	-1.191355
21	0xbf21c3ff	-0.6318969
22	0xbe619232	-0.22028425
23	0xbf90612a	-1.1279652
24	0xbe2f86e0	-0.17141294
25	0xbe19d714	-0.15023452
26	0xbe59f0a2	-0.212832
27	0x3edf1447	0.43570158
28	0x3e78c64c	0.24294394
29	0xbf07c45f	-0.53034014
30	0xbef00cf2	-0.46884876
31	0x3f1259d4	0.57168317
32	0xbe93da8b	-0.28877673
33	0x3f82e48d	1.0225998
34	0xbf991dd6	-1.196223
35	0xbe5302f7	-0.206066
36	0xbe675694	-0.2259162
37	0xbedf053b	-0.43558678
38	0xbf973ce2	-1.1815455
39	0x3f39fcfe	0.7265166
40	0xbf1f966b	-0.62338895
41	0x3f39187c	0.72302985
42	0xbd0c0ec0	-0.034193754
43	0x3e90d61f	0.2828836
44	0x3f9cf2ac	1.2261558
45	0xbf8d5376	-1.1041095
46	0xbe558b98	-0.20854032
47	0xbe64eb34	-0.22355348

weight f4 [16, 3]
0	0xbe77d84a	-0.24203601
1	0xbf0a5652	-0.54037964
2	0xbf256a41	-0.64615256
3	0xbf9c7466	-1.2223022
4	0xbecc1bfb	-0.39865097
5	0xbf819388	-1.0123148
6	0x3f8feb0a	1.1243603
7	0xbf101fd0	-0.5629854
8	0x3f2da9a9	0.67837006
9	0x3f90ea1c	1.1321445
10	0x3f625ca1	0.8842259
11	0x3e946466	0.28982848
12	0xbe7bbb3a	-0.2458314
13	0xbecfffd1	-0.4062486
14	0xbdd1a6d7	-0.102369
15	0xbeaa02af	-0.33205172
16	0xbecc219d	-0.39869395
17	0x3e2233f3	0.1584013
18	0xbe5aec92	-0.21379307
19	0xbea303cb	-0.3183883
20	0xbe2b35a8	-0.16719687
21	0xbf8eb2a0	-1.1148262
22	0xbed7fbfd	-0.4218444
23	0xbf8bf416	-1.0933864
24	0x3f0ef587	0.55843395
25	0xbf8336be	-1.0251081
26	0x3e59119a	0.2119812
27	0x3f115477	0.5676951
28	0xbd50d49d	-0.050984014
29	0xbd40156d	-0.046895433
30	0xbe7aa5c8	-0.24477303
31	0xbdfc69a8	-0.1232484
32	0xbf5f032b	-0.8711421
33	0x3f4a0558	0.78914404
34	0xbefb8709	-0.4912646
35	0x3f8e7dc5	1.1132132
36	0x3f8a8cee	1.0824258
37	0x3f33d87d	0.7025221
38	0x3eb2e5ee	0.34941047
39	0x3ee8247d	0.45340338
40	0x3f060885	0.5235675
41	0x3ee380b6	0.44434136
42	0x3f3fa88d	0.74866563
43	0x3e2a53bc	0.16633505
44	0x3f9633ca	1.1734555
45	0xbf03d4e0	-0.51496696
46	0xbe277401	-0.16352846
47	0x3e11628b	0.14197747

bias f4 [16]
0	0xbf48ba16	-0.78408945
1	0xbdcfeb28	-0.10152274
2	0x3f160e6c	0.58615756
3	0x3f891e1b	1.0712312
4	0xbf7e0218	-0.99221945
5	0xbee48c09	-0.44638088
6	0xbf1fb139	-0.62379795
7	0xbdc1ed88	-0.094691336
8	0xbe844be9	-0.25839165
9	0xbea0c65f	-0.31401345
10	0x3f04bfde	0.51855266
11	0x3e758452	0.23976257
12	0x3f5a6435	0.85309154
13	0x3f70c232	0.9404632
14	0x3eba28a6	0.36359137
15	0xbe6c60b6	-0.23083767

weight f4 [16, 1]
0	0x3f932830	1.1496639
1	0x3e955bfa	0.29171735
2	0xbfaae8c9	-1.335229
3	0xbdbd0df0	-0.09231174
4	0x3f25d5da	0.64779437
5	0xbf870281	-1.0547639
6	0x3f01b4a3	0.50666255
7	0xbf531b41	-0.8246346
8	0xbda79638	-0.08182949
9	0xbec2aca8	-0.3802235
10	0xbd3daa20	-0.046304822
11	0xbebda9a8	-0.370435
12	0xbf705242	-0.93875515
13	0x3eed001e	0.46289152
14	0x3ea519a6	0.3224613
15	0xbfa5e942	-1.296181

bias f4 [16]
0	0x3fc25940	1.5183487
1	0x3f8376be	1.0270612
2	0xbf9240d0	-1.1426029
3	0x3e8e2b14	0.2776724
4	0x3f19ff1e	0.601549
5	0x3e8be916	0.27326268
6	0x3f9459b9	1.1589881
7	0xbf78065e	-0.96884716
8	0xbf679e4a	-0.90475905
9	0xbf624506	-0.8838657
10	0xbf074aea	-0.52848685
11	0x3f42e851	0.76135737
12	0xbf3ed356	-0.74541223
13	0x3e5de9fc	0.21671289
14	0xbeaba424	-0.33523667
15	0xbed3f7e2	-0.41400057

weight f4 [16, 3]
0	0x3f2af2eb	0.66776913
1	0x3f9db050	1.2319431
2	0x3f50b011	0.81518656
3	0x3f9d3a7a	1.2283471
4	0x3f776554	0.9663899
5	0x3f920bbe	1.1409833
6	0xbf3ad143	-0.7297556
7	0xbefae384	-0.49001706
8	0xbe5dad08	-0.21648037
9	0x3e2b3a58	0.16721475
10	0x3ee54651	0.4478021
11	0x3ed6e6c4	0.41972935
12	0x3f9952ce	1.1978395
13	0x3dff63e0	0.124702215
14	0x3f089851	0.53357416
15	0xbf373cb9	-0.7157703
16	0xbee52e39	-0.44761828
17	0xbe4d9264	-0.20075375
18	0x3ddf2ac8	0.10896832
19	0x3deb46a0	0.1148808
20	0xbf777837	-0.9666781
21	0xbf2d9a8a	-0.6781393
22	0xbe287e7a	-0.16454497
23	0xbe7e157e	-0.24812886
24	0xbf12244e	-0.57086647
25	0xbf6ab616	-0.9168409
26	0xbf013fb5	-0.50487834
27	0x3e74da6e	0.2391145
28	0xbea3a6ac	-0.31963098
29	0x3dce053c	0.10059592
30	0x3d9028ea	0.07039054
31	0x3e7a9b53	0.24473314
32	0xbeb0deb2	-0.34544903
33	0x3f3019cc	0.6878936
34	0xbef61a9a	-0.4806717
35	0xbf08133b	-0.53154343
36	0xbf9aeeee	-1.2104166
37	0x3f09a2fe	0.5376433
38	0xbe8d6729	-0.27617767
39	0x3f1e80a4	0.6191504
40	0xbe82633b	-0.25466332
41	0x3f6ce5bc	0.92538047
42	0x3c078a76	0.008272758
43	0x3f603a8c	0.87589335
44	0x3ee36b26	0.44417685
45	0xbf88948d	-1.0670334
46	0xbf95d906	-1.1706855
47	0xbe0e7884	-0.1391316

weight f4 [16, 3]
0	0xbf172e2c	-0.5905483
1	0xbe87b394	-0.26504195
2	0xbf53e3c3	-0.8276941
3	0xbebde63c	-0.37089717
4	0xbf8dd6a4	-1.1081128
5	0xbf483377	-0.7820353
6	0x3e1e6411	0.1546786
7	0x3ed04248	0.4067557
8	0xbee61f96	-0.44945973
9	0xbd616238	-0.05502531
10	0xbdd43a64	-0.103627
11	0xbf0cf9c7	-0.5506863
12	0x3efb6a66	0.49104613
13	0x3f88b1a0	1.0679207
14	0x3e7ed21c	0.24884838
15	0x3f03e2ad	0.51517755
16	0x3e5bccc8	0.21464837
17	0xbf848ae5	-1.0354887
18	0xbed2e7b8	-0.41192412
19	0xbe87109b	-0.26379856
20	0xbf56d85b	-0.8392388
21	0xbde80d00	-0.113306046
22	0xbf9ce309	-1.2256786
23	0xbf461611	-0.7737742
24	0x3f381c12	0.7191783
25	0x3e16eddc	0.14739174
26	0x3f53b54b	0.82698506
27	0xbf8ad72a	-1.0846913
28	0x3ee0fc3d	0.43942443
29	0xbf75e4f6	-0.9605249
30	0xbec541d7	-0.38526794
31	0xbf2a2d65	-0.66475517
32	0xbebd9d90	-0.37034273
33	0x3f055eba	0.52097666
34	0x3ef9d3f7	0.4879453
35	0x3f17d3ab	0.59307355
36	0xbedcd447	-0.43130705
37	0xbe321235	-0.17389758
38	0xbea241c8	-0.31690812
39	0xbf41831f	-0.755907
40	0xbf42988a	-0.76014006
41	0xbf8d813b	-1.1055063
42	0xbede3efb	-0.43407425
43	0xbdbe3d5f	-0.09289049
44	0xbeb238be	-0.34808916
45	0xbf77cade	-0.96793926
46	0xbf1f9b01	-0.6234589
47	0xbf1e4023	-0.61816615

bias f4 [16]
0	0xbf040062	-0.51563084
1	0xbf29f71c	-0.66392684
2	0xbee9d204	-0.45668042
3	0xbecc1b6f	-0.3986468
4	0x3f468210	0.7754221
5	0xbf4c2772	-0.7974769
6	0xbf1d9000	-0.6154785
7	0xbf5a121c	-0.8518388
8	0x3f4ce44b	0.8003585
9	0xbf0180c4	-0.50587106
10	0xbf1d6fa2	-0.61498463
11	0x3f9a95e8	1.2076998
12	0x3eb96c5e	0.3621549
13	0xbe0bddac	-0.1365878
14	0x3e8b7265	0.27235714
15	0xbe99828a	-0.29982406

weight f4 [16, 1]
0	0x3e899c9c	0.26877296
1	0xbf199228	-0.5998864
2	0x3eb79b58	0.35860705
3	0x3ee3b230	0.44471884
4	0xbf1c94dc	-0.6116464
5	0xbf56d792	-0.83922684
6	0xbe0d8888	-0.13821614
7	0x3e1a2848	0.15054429
8	0x3f6be610	0.9214792
9	0xbee9528c	-0.4557079
10	0x3e387284	0.18012434
11	0xbde17800	-0.11009216
12	0xbf4f691a	-0.8101975
13	0x3fc3390a	1.5251782
14	0xbddb77b0	-0.10716188
15	0xbe581f38	-0.21105659

weight f4 [16, 16]
0	0x3e213856	0.15744147
1	0xbe2fabc2	-0.17155364
2	0xbe45a48a	-0.19301048
3	0xbe13cf18	-0.14434469
4	0x3d6328d0	0.055458844
5	0x3af09700	0.0018355548
6	0xbe05d176	-0.13068184
7	0x3e0639c4	0.13107973
8	0x3e304fe8	0.17217982
9	0xbe0a77aa	-0.1352221
10	0x3ba8af00	0.0051478148
11	0xbe699642	-0.22811225
12	0x3cc11a50	0.023572117
13	0xbdf788a8	-0.12086612
14	0xbd59aa58	-0.053140968
15	0xb9a43000	-0.0003131628
16	0x3ee60691	0.44926885
17	0x3ef35bc1	0.4753094
18	0x3f17d8bc	0.59315085
19	0x3f3b089e	0.73060024
20	0xbab4ac00	-0.001378417
21	0x3d58edc8	0.05296114
22	0x3f69bbc7	0.9130215
23	0x3eeb9f0f	0.4601979
24	0x3f65565c	0.895849
25	0x39d22c00	0.00040087104
26	0xbf224ece	-0.63401496
27	0x3ecee809	0.40411404
28	0x3eeec594	0.46635115
29	0x3f4e17fa	0.80505335
30	0x3f3fcdeb	0.7492358
31	0xbe2ae740	-0.16689777
32	0xbf5e474c	-0.8682754
33	0xbf01e99b	-0.5074708
34	0xbf117eba	-0.56833994
35	0xbf530585	-0.824303
36	0xbf157e96	-0.5839628
37	0x3c753cc0	0.014968097
38	0xbf5f8104	-0.8730624
39	0xbf21e11a	-0.632341
40	0xbeea52ae	-0.45766205
41	0x3c464e40	0.012103617
42	0xbf3303d2	-0.69927704
43	0xbf2bd46c	-0.67121005
44	0xbf51121a	-0.81668246
45	0xbf59d84a	-0.85095656
46	0xbef856db	-0.48503765
47	0xbd1f7618	-0.038930982
48	0x3dfa320c	0.12216577
49	0xbe31ba84	-0.17356306
50	0x3df38858	0.1189124
51	0xbe76661e	-0.24062392
52	0x3d86e96c	0.065874904
53	0xbd5d3c58	-0.054012626
54	0xbd98805c	-0.074463576
55	0xbda7e4cc	-0.081979364
56	0x3e154b22	0.14579442
57	0x3e565fbe	0.2093496
58	0xbe07bb00	-0.13254929
59	0xbe0ffddc	-0.14061683
60	0xbe210e74	-0.1572817
61	0xbd6ad3f8	-0.057331055
62	0xbd941408	-0.07230383
63	0x3da1d508	0.079019606
64	0x3ee4634d	0.4460701
65	0x3f4a6576	0.7906107
66	0x3f67a66d	0.9048832
67	0x3f65c7e8	0.8975816
68	0x3f11e15e	0.5698451
69	0xbc8468c0	-0.01616323
70	0x3f22f021	0.6364766
71	0x3f233df9	0.6376644
72	0x3f2520e7	0.6450333
73	0x3ba2df40	0.004970461
74	0x3f37de28	0.7182336
75	0x3f12f24c	0.57400966
76	0x3f62eed3	0.88645667
77	0x3f53e341	0.82768637
78	0x3f3e2849	0.7428022
79	0xbb6e5300	-0.003636539
80	0xbeed2a5f	-0.4632139
81	0xbf2f258e	-0.6841668
82	0xbf5dd0b4	-0.8664658
83	0xbf59f207	-0.8513493
84	0xbf4e0c28	-0.804873
85	0xbda0d6d8	-0.07853478
86	0xbefcba81	-0.4936104
87	0xbf116a88	-0.5680318
88	0xbf3b7eb8	-0.7324023
89	0xbd580a50	-0.05274421
90	0xbf2d8210	-0.67776585
91	0xbedeae75	-0.43492475
92	0xbf0307c2	-0.5118371
93	0xbf227a96	-0.634683
94	0xbf66f302	-0.9021455
95	0xbb090400	-0.0020906925
96	0xbf34f8b2	-0.7069198
97	0x3eddc239	0.43312243
98	0xbf0ade24	-0.5424521
99	0x3f69cc8e	0.9132775
100	0xbf0198dc	-0.5062387
101	0x3e5d8366	0.21632156
102	0x3f20ae07	0.62765545
103	0x3f559480	0.8342972
104	0x3f2ed5ec	0.6829517
105	0xbc4d15e0	-0.012517422
106	0xbf2ac434	-0.6670563
107	0x3f27abd2	0.6549655
108	0x3f2866ee	0.6578206
109	0x3f216d05	0.63056976
110	0x3f4f132e	0.8088864
111	0x3dbf1b04	0.09331325
112	0xbf597096	-0.8493742
113	0xbf539062	-0.82642186
114	0xbf0c7924	-0.54872346
115	0xbef8022e	-0.48439163
116	0xbeefcc67	-0.46835634
117	0x3e6c1b46	0.23057279
118	0xbefd4e2b	-0.494737
119	0xbf2a6f36	-0.66575944
120	0xbf4075fa	-0.7518002
121	0x3de87dac	0.11352095
122	0xbf249eea	-0.64304984
123	0xbf2e0335	-0.67973644
124	0xbf574a92	-0.8409816
125	0xbf615be1	-0.8803082
126	0xbf1fbc13	-0.62396353
127	0x3dd83f2c	0.10558924
128	0xbf24f890	-0.64441776
129	0xbf083af0	-0.5321493
130	0xbf015698	-0.50522757
131	0xbf183742	-0.59459317
132	0xbe6cb240	-0.23114872
133	0x3e41e76e	0.1893594
134	0xbf056761	-0.5211087
135	0xbf4e9b40	-0.8070564
136	0xbf3bbbf0	-0.73333645
137	0xbd8561f4	-0.06512824
138	0xbf26c428	-0.6514306
139	0xbd7ba720	-0.06143868
140	0xbed73db8	-0.42039275
141	0xbed5eb82	-0.4178124
142	0xbe318374	-0.17335302
143	0x3e33ee10	0.17571282
144	0xbf27c0e8	-0.65528727
145	0xbf2714e6	-0.65266263
146	0xbf1d5016	-0.61450326
147	0xbeef4a29	-0.46736267
148	0xbf2fefb6	-0.68725145
149	0xbe684226	-0.22681484
150	0xbf3c416e	-0.7353734
151	0xbed7ac5a	-0.4212368
152	0xbf530bc0	-0.82439804
153	0xbdf0ddcc	-0.117610544
154	0xbf31be0c	-0.69430614
155	0xbf64dfc2	-0.8940393
156	0xbf52eb62	-0.82390416
157	0xbf205033	-0.62622374
158	0xbf67aa6c	-0.9049442
159	0x3b523a80	0.0032078326
160	0xbdc2c4f4	-0.09510222
161	0xbd104f28	-0.03523174
162	0x3e6b7f38	0.22997749
163	0xbe7419e2	-0.23837999
164	0xbe0bff70	-0.1367166
165	0xbc9032c0	-0.017602324
166	0xbe4ee2a6	-0.20203647
167	0xbdb582dc	-0.0886285
168	0x3ddaa96c	0.10676846
169	0x3cd9c100	0.026581287
170	0x3d7f6638	0.062353343
171	0x3d1040a8	0.03521791
172	0xbd417910	-0.047234595
173	0xbd9509d0	-0.07277262
174	0x3dd93e48	0.10607582
175	0xbe017774	-0.12643224
176	0xbdda8c90	-0.106713414
177	0xbd36b910	-0.044610083
178	0x3ddf4abc	0.10902926
179	0x3e779d38	0.24181068
180	0x3bfa31c0	0.007635325
181	0xbe076e38	-0.13225639
182	0xbe34c98e	-0.17655012
183	0x3e544884	0.20730788
184	0x3dc72ad4	0.09724966
185	0x3e6c6b78	0.23087871
186	0x3aa1ce00	0.0012344718
187	0xbe1901c2	-0.14942077
188	0xbdcd9760	-0.10038638
189	0xbe2a7d56	-0.16649374
190	0xbca563b0	-0.020189136
191	0xbe2303ba	-0.1591939
192	0xbe419b28	-0.18906844
193	0xbd01e3e8	-0.03171149
194	0x3e637e1e	0.22216079
195	0xbe50cd48	-0.20390809
196	0x3dd403a8	0.1035226
197	0x3e0a0d98	0.13481748
198	0x3df77d48	0.120844424
199	0x3d8b727c	0.068089455
200	0xbd61dba8	-0.05514112
201	0x3d623c30	0.05523318
202	0xbe566012	-0.20935085
203	0x3db5c374	0.0887517
204	0xbd16af08	-0.036788017
205	0x3e55e656	0.20888647
206	0x3c629d20	0.013831407
207	0x3d601468	0.05470696
208	0x3efb822e	0.49122757
209	0x3ef26b42	0.47347456
210	0x3f3a92f2	0.7288047
211	0x3f35a4a6	0.7095436
212	0x3f19e890	0.6012049
213	0x3c44d060	0.012012571
214	0x3f0529e0	0.5201702
215	0x3f1c27fe	0.60998523
216	0x3f0e8d4a	0.5568434
217	0xbe7eadbc	-0.24870962
218	0x3f4f2f23	0.809313
219	0x3f521b20	0.8207264
220	0x3f51bac4	0.81925607
221	0x3f4715aa	0.7776743
222	0x3ee14403	0.439972
223	0x3d440538	0.04785654
224	0xbf338428	-0.7012353
225	0xbf20315c	-0.62575316
226	0xbf36d2b4	-0.7141526
227	0xbeecaf47	-0.46227476
228	0xbefdea80	-0.49592972
229	0xbdfa45fc	-0.1222038
230	0xbef940eb	-0.4868234
231	0xbf221480	-0.6331253
232	0xbf310452	-0.6914722
233	0x3e4208fc	0.1894874
234	0xbef5c5b9	-0.48002413
235	0xbf3a9062	-0.7287656
236	0xbf0610f6	-0.5236963
237	0xbf30a6f4	-0.6900475
238	0xbf1c8565	-0.61141044
239	0xbce8e960	-0.028431594
240	0x3e73cfdc	0.23809761
241	0xbe49e96c	-0.1971795
242	0x3a828b00	0.0009959638
243	0x3dce6a2c	0.100788444
244	0x3e318090	0.17334199
245	0xbe6c8406	-0.23097238
246	0xbe14cb7e	-0.14530751
247	0x3d153210	0.036424696
248	0x3c9ce3f0	0.019151658
249	0xbdea66c4	-0.11445382
250	0x3daee840	0.08540392
251	0xbe73e8b2	-0.23819235
252	0xbd17e4b8	-0.037083358
253	0x3e59429e	0.21216819
254	0x3de984b4	0.11402264
255	0x3e2e7dd8	0.17040193

bias f4 [16]
0	0xbe4b89ca	-0.19876781
1	0x3f346a58	0.7047477
2	0xbf00106a	-0.50025046
3	0xbe0bcd46	-0.13652524
4	0x3f667f70	0.90038204
5	0xbf0f7099	-0.56031185
6	0x3f312e54	0.69211316
7	0xbf345a35	-0.70450145
8	0xbf3564fc	-0.70857215
9	0xbefa9398	-0.4894073
10	0xbe652c32	-0.2238014
11	0x3e251980	0.16123009
12	0x3e243386	0.1603528
13	0x3f3cb47b	0.7371289
14	0xbf112db0	-0.5671034
15	0x3e386430	0.18006968

weight f4 [16, 16]
0	0xbe174d3a	-0.14775553
1	0x3e4e7d98	0.20165098
2	0x3e660242	0.22461799
3	0x3e3721f0	0.1788404
4	0xbe66307c	-0.22479433
5	0x3b7d8e00	0.0038689375
6	0x3c8f42a0	0.017487824
7	0xbca3a0f0	-0.019974202
8	0xbd022200	-0.031770706
9	0xbe4509ae	-0.19241974
10	0x3e2a2dfa	0.16619101
11	0x3e40451c	0.18776363
12	0x3e15a98a	0.14615455
13	0x3e25fd26	0.1620985
14	0xbe13b5f6	-0.14424881
15	0xbd86e430	-0.06586492
16	0x3f11a78a	0.5689627
17	0x3f5e5ebb	0.868633
18	0x3f0849cf	0.5323762
19	0x3f0c70bb	0.54859513
20	0x3f501d53	0.81294745
21	0x3eea4868	0.45758367
22	0x3f476186	0.77883184
23	0x3f07287e	0.5279616
24	0x3f612f8c	0.87963176
25	0xbe61166c	-0.2198121
26	0xbcd304f0	-0.02575919
27	0xbf0f1b6b	-0.5590121
28	0xbee01fe1	-0.43774322
29	0x3f43f916	0.7655195
30	0x3f4345c0	0.76278305
31	0x3f02b0ad	0.51050836
32	0xbf30d214	-0.69070554
33	0xbf4165b4	-0.7554581
34	0xbf174862	-0.5909482
35	0xbed5b612	-0.4174047
36	0xbef780ae	-0.48340362
37	0xbf5783be	-0.841854
38	0xbee7b796	-0.45257252
39	0xbf015714	-0.50523496
40	0xbef3514a	-0.47522956
41	0x3e3f9eb0	0.18712878
42	0xbe450b84	-0.19242674
43	0xbf057cf6	-0.521438
44	0xbf5fb824	-0.8739035
45	0xbf40197c	-0.75038886
46	0xbf463d30	-0.77437115
47	0xbf22f927	-0.63661426
48	0xbe620436	-0.22071919
49	0x3da4dd50	0.080500245
50	0xbba2c900	-0.0049678087
51	0x3e2f66be	0.17129037
52	0x3e33c656	0.17556128
53	0x3dc7853c	0.09742209
54	0xbe4e53c2	-0.20149139
55	0x3e555de4	0.20836598
56	0xbc758880	-0.014986157
57	0xbe20b5be	-0.15694329
58	0x3e594304	0.2121697
59	0x3e1df1e6	0.15424308
60	0xbdefb91c	-0.11705229
61	0xbe4ea944	-0.20181757
62	0xbe5206a2	-0.20510343
63	0x3db76088	0.08953959
64	0x3f4f57d7	0.8099341
65	0x3f521a34	0.8207123
66	0x3f22872a	0.63487494
67	0x3ede2673	0.4338871
68	0x3f616eb2	0.8805953
69	0x3ef18ebf	0.4717922
70	0x3f2e7f30	0.6816282
71	0x3ee975a0	0.45597553
72	0x3f039354	0.5139668
73	0xbe5be086	-0.21472368
74	0x3e54a158	0.20764673
75	0x3f5eed31	0.87080675
76	0x3f31c619	0.694429
77	0x3ef161b2	0.47144848
78	0x3f280b3e	0.65642154
79	0x3f1325e7	0.5747971
80	0xbf4145ac	-0.75496936
81	0xbf2bcb50	-0.67107105
82	0xbf23fa49	-0.6405378
83	0xbf1f1392	-0.62139237
84	0xbf0ea6c4	-0.55723214
85	0xbf21e09a	-0.6323334
86	0xbf14cf40	-0.5812874
87	0xbedc09fe	-0.42976373
88	0xbf2b045e	-0.6680354
89	0xbdf3ad54	-0.11898294
90	0xbd7994a8	-0.060932785
91	0xbf4c01e2	-0.7969037
92	0xbeda3786	-0.42620486
93	0xbf1f0952	-0.62123597
94	0xbf43f6ec	-0.7654865
95	0xbf060fcb	-0.5236785
96	0x3f268d22	0.650591
97	0xbf22235a	-0.6333519
98	0x3f3b4aba	0.731609
99	0x3f1b8372	0.60747445
100	0x3efcc186	0.49366397
101	0x3f5aa17c	0.85402656
102	0x3ed44d83	0.41465387
103	0xbf3b9ae8	-0.73283243
104	0x3f4648f8	0.7745509
105	0x3dde9e28	0.1087001
106	0xbe21d068	-0.15802157
107	0xbf378408	-0.7168584
108	0xbf697653	-0.91196173
109	0x3ef29d2a	0.47385532
110	0x3f33ac6a	0.7018496
111	0x3f4f2e5a	0.809301
112	0xbf6249d6	-0.88393915
113	0xbed9f161	-0.4256697
114	0xbf4d4729	-0.80186707
115	0xbf4825f0	-0.7818289
116	0xbf269ce6	-0.6508316
117	0xbef014ce	-0.46890873
118	0xbf0122c0	-0.5044365
119	0xbf1f4b87	-0.6222462
120	0xbf48f8b4	-0.7850449
121	0x3dcb5f3c	0.09930274
122	0x3d98708c	0.074433416
123	0xbf1a4402	-0.6026002
124	0xbf2c2d38	-0.672565
125	0xbee8c79f	-0.454648
126	0xbefec201	-0.49757388
127	0xbeecc8d3	-0.46246967
128	0xbf4de3a5	-0.80425483
129	0xbf2ad71c	-0.6673448
130	0xbcfa7060	-0.030571163
131	0xbed8d14f	-0.4234719
132	0xbf44a0ae	-0.7680768
133	0xbf5bab78	-0.85808516
134	0xbf562ac6	-0.8365902
135	0xbdccb204	-0.09994891
136	0xbf3ccc03	-0.737488
137	0xbdbed19c	-0.093173236
138	0xbe59aa58	-0.21256387
139	0xbf288f71	-0.65843874
140	0xbf021a02	-0.50820935
141	0xbf65a8b4	-0.89710546
142	0xbe2919a2	-0.16513684
143	0x3d95decc	0.07317886
144	0xbf11b59a	-0.56917727
145	0xbf43d83c	-0.7650182
146	0xbf55817c	-0.834007
147	0xbf5a9674	-0.85385823
148	0xbf186b3e	-0.5953864
149	0xbf0aaf84	-0.54174066
150	0xbf21b694	-0.6316922
151	0xbf4d396c	-0.80165744
152	0xbf3a476c	-0.7276523
153	0x3e57fdee	0.2109296
154	0x3e561aa6	0.20908603
155	0xbf02b926	-0.51063764
156	0xbf6924d2	-0.9107181
157	0xbee65fcb	-0.4499496
158	0xbf2f72ea	-0.6853472
159	0xbf5d67d4	-0.86486554
160	0x3d765790	0.0601421
161	0x3ddd1200	0.10794449
162	0x3d756070	0.059906423
163	0xbe0258a6	-0.12729129
164	0x3da747d0	0.08167994
165	0x3c530ee0	0.012881964
166	0x3cdb3170	0.026756972
167	0xbdba7e7c	-0.09106156
168	0xbdbacdf0	-0.09121311
169	0xbe26b60a	-0.1628038
170	0x3d0fdf08	0.03512481
171	0xbe6ca3d4	-0.2310937
172	0xbe06c86c	-0.13162392
173	0x3e29ff30	0.16601253
174	0xbcaa8c20	-0.02081877
175	0xbe7b6474	-0.24550039
176	0xbe24d466	-0.16096649
177	0x3e7a9b52	0.24473312
178	0xbe606d72	-0.2191675
179	0x3dc28030	0.09497106
180	0xbe45a784	-0.19302183
181	0xbe5429fc	-0.20719141
182	0xbe0e000a	-0.13867202
183	0x3d83e168	0.06439477
184	0xbdd19308	-0.10233122
185	0xbe5226c0	-0.20522594
186	0xbd3878e8	-0.04503718
187	0xbe7cb41a	-0.24678078
188	0x3e632b06	0.22184381
189	0xbe5bb3f4	-0.21455365
190	0x3bd5b6c0	0.0065220296
191	0x3d31ea50	0.04343635
192	0x3e288116	0.16455492
193	0x3d105740	0.035239458
194	0xbe589ea4	-0.21154267
195	0xbe589be4	-0.21153218
196	0xbe681b34	-0.22666627
197	0xbafefc00	-0.0019453764
198	0xbe586184	-0.2113095
199	0xbded82a0	-0.1159718
200	0xbe6e4c54	-0.23271304
201	0xbe7deb46	-0.24796781
202	0x3e0af3fe	0.13569638
203	0x3d90bc04	0.07067111
204	0xbcb3ea00	-0.021962166
205	0xbe7e5410	-0.24836755
206	0x3d73c060	0.059509635
207	0xbe5811dc	-0.21100563
208	0x3f1d4c62	0.61444676
209	0x3edb1a80	0.42793655
210	0xbe195ebc	-0.14977545
211	0x3f1a8a64	0.6036742
212	0x3f57d6ec	0.8431232
213	0x3f475d3f	0.7787666
214	0x3f2c098e	0.6720208
215	0x3f23a420	0.6392231
216	0x3f1187f0	0.5684805
217	0x3d27d5a0	0.040975213
218	0x3e52f41a	0.2060093
219	0x3f45314c	0.77028346
220	0x3f2e2f8a	0.6804129
221	0x3f467340	0.7751961
222	0x3f01e9d6	0.5074743
223	0x3ee22566	0.44169158
224	0xbf33a05c	-0.70166564
225	0xbf388fea	-0.72094595
226	0xbeecce8e	-0.4625134
227	0xbf452835	-0.77014476
228	0xbf424542	-0.7588693
229	0xbf0d195f	-0.5511684
230	0xbf5b077a	-0.85558283
231	0xbf227517	-0.63459915
232	0xbf24c46a	-0.64362204
233	0xbe3a5f98	-0.18200529
234	0x3e62f188	0.2216245
235	0xbf5ada2c	-0.85489154
236	0xbee798a4	-0.45233643
237	0xbf0ee12c	-0.55812335
238	0xbf22d748	-0.63609743
239	0xbf4af746	-0.7928356
240	0xbe6f0de0	-0.23345137
241	0x3d2f84c0	0.04285121
242	0x3e79d9da	0.2439951
243	0xbde47f88	-0.11157137
244	0xbe47a902	-0.19498065
245	0xbe36e946	-0.17862424
246	0xbe05001a	-0.1298832
247	0x3e0c157e	0.13680074
248	0xbdf04610	-0.11732113
249	0x3df7f3d4	0.121070534
250	0xbd3ac518	-0.04559812
251	0xbdf636cc	-0.120221704
252	0xbd958440	-0.07300615
253	0xbe12cc9e	-0.14335868
254	0xbc819ba0	-0.015821278
255	0xbd09d7a8	-0.03365293

weight f4 [16, 16]
0	0xbf4566e2	-0.7711011
1	0xbf5afe1a	-0.8554398
2	0xbf15a6b8	-0.5845752
3	0xbf07ce9a	-0.53049624
4	0xbedd64ad	-0.43240872
5	0xbeee8fc5	-0.46594062
6	0xbf5444e5	-0.82917625
7	0xbf20be56	-0.6279043
8	0xbf15d34b	-0.5852553
9	0xbb9d30c0	-0.004797071
10	0x3e637116	0.22211108
11	0x3ed8624c	0.42262495
12	0xbf25ad02	-0.64717114
13	0xbf3c86c3	-0.7364313
14	0xbf40a3be	-0.7524985
15	0xbef38c5f	-0.47568032
16	0xbf21cc58	-0.6320243
17	0xbf330c1a	-0.6994034
18	0xbf643562	-0.89143956
19	0xbed9f770	-0.42571592
20	0xbf59ad5f	-0.8503017
21	0xbedfa5a1	-0.43681052
22	0xbf10bb3a	-0.56535685
23	0xbf2066f4	-0.62657094
24	0xbefe6008	-0.4968264
25	0xbcc77170	-0.024346083
26	0xbe5abaa4	-0.2136026
27	0x3f2a1b28	0.6644769
28	0xbee20a6d	-0.4414858
29	0xbf2cd560	-0.67513084
30	0xbf32e1e2	-0.6987592
31	0xbf06e928	-0.5269952
32	0xbf42d023	-0.7609884
33	0xbf65acb5	-0.89716655
34	0xbf158932	-0.5841247
35	0xbf5cb9e8	-0.8622117
36	0xbf2a78da	-0.66590655
37	0xbee27938	-0.44233108
38	0xbf584e40	-0.844944
39	0xbed4b95c	-0.41547668
40	0xbf64702b	-0.89233655
41	0xbe1b7556	-0.15181479
42	0x3d295068	0.041336447
43	0x3f4c5056	0.7981008
44	0xbf513466	-0.8172058
45	0xbef7b7ab	-0.48382315
46	0xbed5f058	-0.4178493
47	0xbf19dd43	-0.60103244
48	0xbf042ffc	-0.5163572
49	0xbeec92bc	-0.462057
50	0xbf0a0e64	-0.5392821
51	0xbf22f7b9	-0.63659245
52	0xbf4f7f6e	-0.8105382
53	0xbf406ab2	-0.75162804
54	0xbf4bc8d8	-0.7960334
55	0xbf34d7d1	-0.7064181
56	0xbf3619b5	-0.71132976
57	0xbbdc25c0	-0.0067183673
58	0x3dcb6f8c	0.09933385
59	0x3e3bfe94	0.18358833
60	0xbf3869e6	-0.7203659
61	0xbf33c05c	-0.7021539
62	0xbf1b4dc0	-0.6066551
63	0xbf0d2df6	-0.55148256
64	0x3eeebe1d	0.4662942
65	0x3f3d32e3	0.7390577
66	0x3ede472a	0.4341367
67	0x3f25c54e	0.6475419
68	0x3f0d2d57	0.5514731
69	0x3f67d3de	0.9055766
70	0x3f6837a4	0.907099
71	0x3ed43291	0.4144483
72	0x3f51dbc8	0.81975985
73	0x3e497c52	0.1967633
74	0x3e26d7d4	0.1629327
75	0xbf31e06a	-0.69483054
76	0x3f0069c6	0.501614
77	0x3f3b541e	0.7317523
78	0x3ef21699	0.47282866
79	0x3f1ff282	0.6247941
80	0x3ee0c137	0.4389741
81	0x3f6987f4	0.91223073
82	0x3f180354	0.5938008
83	0x3f618aac	0.8810222
84	0x3f5d21a5	0.8637946
85	0x3f0a3a46	0.5399517
86	0x3ef0b435	0.47012487
87	0x3f22336e	0.63359725
88	0x3f29b926	0.6629814
89	0x3db358c0	0.08757162
90	0xbd29f080	-0.041489124
91	0xbf363eb8	-0.7118945
92	0x3f02e227	0.5112633
93	0x3f48563e	0.78256595
94	0x3efa2ced	0.488624
95	0x3f5d5e65	0.8647216
96	0xbdb7632c	-0.089544624
97	0xbda4aca4	-0.08040741
98	0x3e7f6080	0.24939156
99	0xbd858c30	-0.06520879
100	0x3e22d9e2	0.15903428
101	0xbe6da3b0	-0.23206973
102	0xbdfb6fac	-0.12277159
103	0xbd1a93b8	-0.03773853
104	0xbe11689e	-0.14200065
105	0x3e07cca0	0.13261652
106	0xbdf12694	-0.11774936
107	0x3e75bc2c	0.23997563
108	0xbe20cda8	-0.15703452
109	0xbe04abc0	-0.12956142
110	0x3e2a85cc	0.16652602
111	0x3de86ae4	0.11348513
112	0xbf02354f	-0.5086259
113	0xbf0d949c	-0.55304885
114	0xbf28cb38	-0.6593509
115	0xbed6c9c1	-0.419508
116	0xbf3a890e	-0.7286538
117	0xbf2e0e96	-0.67991006
118	0xbf0452e2	-0.5168897
119	0xbf5709ba	-0.83999217
120	0xbf1a9fd7	-0.60400146
121	0x3e49cb9e	0.1970658
122	0x3e67ddba	0.22643176
123	0x3f4eec6a	0.8082949
124	0xbf022ef4	-0.50852895
125	0xbf5c4527	-0.8604302
126	0xbf5058b2	-0.8138534
127	0xbee1b570	-0.44083738
128	0x3f1e8541	0.6192208
129	0x3eea40cd	0.45752564
130	0xbe077b9e	-0.1323075
131	0xbf288b7e	-0.6583785
132	0x3ee38675	0.4443852
133	0x3f540ca4	0.8283179
134	0x3efdb33d	0.4955081
135	0x3edbd765	0.4293777
136	0x3ef5dfe9	0.48022392
137	0x3d95f454	0.073219925
138	0x3ccc3770	0.024928778
139	0xbde41204	-0.11136249
140	0x3f215a9d	0.6302889
141	0x3f2d8352	0.67778504
142	0x3f4d5d83	0.8022081
143	0x3f209bca	0.62737715
144	0xbf5dc583	-0.86629504
145	0xbf4e543c	-0.8059728
146	0xbf4bce4a	-0.7961165
147	0xbf11711e	-0.5681323
148	0xbf051bd4	-0.5199559
149	0xbef214fe	-0.4728164
150	0xbf521a64	-0.8207152
151	0xbf5f0262	-0.8711301
152	0xbeda8ab5	-0.4268395
153	0x3e24b59e	0.16084906
154	0xbe0c07dc	-0.13674873
155	0x3f5997bc	0.84997153
156	0xbf192800	-0.5982666
157	0xbf431091	-0.76197153
158	0xbf34e219	-0.706575
159	0xbf0c1a15	-0.547273
160	0xbf0cba2c	-0.54971576
161	0xbd3877b8	-0.045036048
162	0x3dd639cc	0.10460243
163	0xbf62c056	-0.8857473
164	0xbf0ec3f3	-0.55767745
165	0xbf673488	-0.9031453
166	0xbf45a9bc	-0.7721212
167	0xbd83a184	-0.06427291
168	0xbf5065a2	-0.8140508
169	0x3d7d4848	0.06183651
170	0xbdfa38f8	-0.12217897
171	0xbd944d6c	-0.072413296
172	0xbf2bd478	-0.67121077
173	0xbf3c2777	-0.7349772
174	0xbf4db286	-0.8035053
175	0xbf0f9ebf	-0.561016
176	0x3f10f849	0.56628853
177	0x3f49679c	0.7867372
178	0x3f623c88	0.88373613
179	0x3f3f47fa	0.747192
180	0x3f18011a	0.5937668
181	0x3f2dac56	0.6784109
182	0x3f4398a6	0.764048
183	0x3f24ef52	0.64427674
184	0x3f1ed676	0.6204599
185	0x3d615340	0.055011034
186	0x3c001b80	0.0078190565
187	0xbf1d98f3	-0.61561507
188	0x3f5de200	0.86672974
189	0x3f65bcfc	0.8974149
190	0x3f238636	0.63876665
191	0x3f24dd2c	0.6439998
192	0x3f02c341	0.51079184
193	0x3f0158ce	0.5052613
194	0x3e686f96	0.22698817
195	0x3f0b300a	0.54370177
196	0x3f38e80f	0.72229093
197	0x3f3030ed	0.68824655
198	0x3f5cb544	0.8621409
199	0xbf1a13ec	-0.6018665
200	0x3f24141c	0.64093184
201	0x3e640c9c	0.22270435
202	0x3c8f0920	0.017460406
203	0xbe71dd4e	-0.23619577
204	0x3f1e97e9	0.61950547
205	0x3f127e57	0.5722403
206	0x3f392298	0.7231841
207	0x3f02f66e	0.5115727
208	0xbd64cef8	-0.055861443
209	0x3e1ce20c	0.15320605
210	0x3ccc76d0	0.024958998
211	0x3e3908ca	0.18069759
212	0x3d5e8ba0	0.054332376
213	0xbe3539f0	-0.17697883
214	0xbde46ba4	-0.11153343
215	0x3dce666c	0.10078129
216	0x3e1a2758	0.15054071
217	0xbe736040	-0.23767185
218	0x3d3e39f0	0.046441972
219	0x3e5fae70	0.21843886
220	0x3e62cd7e	0.22148702
221	0xbe72d92c	-0.23715657
222	0x3e6f9374	0.23396093
223	0x3e51b04c	0.20477408
224	0xbee67d2f	-0.45017383
225	0xbf5dec2c	-0.86688495
226	0x3c359440	0.011082709
227	0xbf571951	-0.84023005
228	0xbf239b09	-0.6390844
229	0xbf158fd0	-0.58422565
230	0xbf2a3f30	-0.66502666
231	0xbf110702	-0.5665132
232	0xbf3a6e3e	-0.72824466
233	0xbc210120	-0.009826928
234	0x3b23c280	0.0024987757
235	0x3d486808	0.048927337
236	0xbf5bd620	-0.85873604
237	0xbf1ea464	-0.6196959
238	0xbf5b0c06	-0.8556522
239	0xbf050bd2	-0.5197116
240	0xbd83b3f0	-0.06430805
241	0x3d987dd4	0.07445875
242	0xbe5af99c	-0.21384281
243	0x3e0ef4d6	0.13960585
244	0xbe1d479a	-0.15359345
245	0x3d80bdc8	0.06286198
246	0x3d830d40	0.063990116
247	0x3cf7f090	0.030266076
248	0xbd16c910	-0.036812842
249	0xbe791f0a	-0.24328247
250	0xbe62be7c	-0.22142977
251	0x3da0c55c	0.07850143
252	0xbe45af08	-0.1930505
253	0xbe1afc14	-0.15135223
254	0xbb72fc00	-0.0037076473
255	0x3e64d432	0.22346571

bias f4 [16]
0	0xbf3453dc	-0.7044046
1	0xbf1a7bf8	-0.6034541
2	0xbf15bb0e	-0.5848855
3	0xbf5cec2e	-0.8629788
4	0x3f480703	0.781357
5	0x3f0fa830	0.5611601
6	0xbe735f34	-0.23766786
7	0xbf3635c3	-0.71175784
8	0x3f182fd6	0.5944799
9	0xbf2c3836	-0.6727327
10	0xbf0b2b18	-0.5436263
11	0x3f652ff8	0.8952632
12	0x3f1c66f5	0.610946
13	0xbe6d0516	-0.23146471
14	0xbf3b3992	-0.7313472
15	0x3e37e81c	0.17959636

weight f4 [16, 16]
0	0xbf43cebc	-0.76487327
1	0xbeef90e5	-0.46790233
2	0x3dc816f0	0.0977
3	0x3e361f84	0.1778546
4	0xbf0c5f30	-0.54832745
5	0xbf1bab54	-0.608083
6	0xbf013957	-0.5047812
7	0x3f2225b6	0.6333879
8	0xbf1e029c	-0.6172273
9	0xbf16507e	-0.5871657
10	0xbf4effa0	-0.808588
11	0xbf59e186	-0.85109746
12	0xbe064c14	-0.13114959
13	0xbf52d37c	-0.8235395
14	0x3e6ad23a	0.22931758
15	0xbf146338	-0.57963896
16	0xbee3ad6c	-0.44468248
17	0xbf4ed33c	-0.8079107
18	0xbe5c533e	-0.2151613
19	0x3c512800	0.012765884
20	0xbf035e8c	-0.5131614
21	0xbf326c59	-0.69696575
22	0xbf32d376	-0.69853914
23	0x3f2ce899	0.67542416
24	0xbf18c7e8	-0.5968003
25	0xbf1e2d84	-0.617882
26	0xbf5aad84	-0.85421014
27	0xbf09db9b	-0.53850716
28	0xbe5b3796	-0.21407923
29	0xbf4e39c7	-0.8055691
30	0xbc0abc40	-0.008467734
31	0xbf0c527c	-0.5481336
32	0xbf6841f2	-0.90725625
33	0xbf348c1d	-0.70526296
34	0x3db7c144	0.08972409
35	0x3e5a5158	0.21320093
36	0xbee9d900	-0.4567337
37	0xbee7c9a4	-0.45271027
38	0xbf57b276	-0.84256685
39	0x3f167707	0.5877537
40	0xbf559216	-0.83426034
41	0xbf3c1e90	-0.73484135
42	0xbf30e7a0	-0.6910343
43	0xbf4f29d0	-0.80923176
44	0xbe4844e8	-0.19557536
45	0xbf0c4358	-0.5479026
46	0x3dd292a8	0.10281879
47	0xbf63fee3	-0.890608
48	0xbef50875	-0.47858015
49	0xbf06da60	-0.52676964
50	0xbd936c70	-0.07198417
51	0xbc1d5960	-0.009603828
52	0x3f61a069	0.8813539
53	0xbf5f90e6	-0.8733047
54	0x3f3c0613	0.7344677
55	0x3f289428	0.6585107
56	0xbf5094e6	-0.814772
57	0xbe2d8616	-0.16945681
58	0xbee093df	-0.43862817
59	0xbf347d37	-0.7050356
60	0xbda62a08	-0.081134856
61	0xbf1d28b4	-0.61390233
62	0x3dbdfae0	0.09276366
63	0xbee30e00	-0.4434662
64	0x3f395dd8	0.7240882
65	0x3f1d8940	0.6153755
66	0x3c24dd80	0.010062575
67	0xbdaccd9c	-0.084376544
68	0xbf06fe82	-0.527321
69	0x3f02b02a	0.51050055
70	0x3f2355f9	0.6380306
71	0xbf223c18	-0.63372946
72	0x3f2b2291	0.6684962
73	0x3f631148	0.88698244
74	0x3f66f6c1	0.90220267
75	0x3f612974	0.8795388
76	0xbe14833e	-0.1450319
77	0x3f0f8838	0.5606723
78	0x3dc977f4	0.09837332
79	0x3f14b6c8	0.580914
80	0x3f1d4dbf	0.61446756
81	0x3ef155f4	0.4713589
82	0xbe0d10ae	-0.13775894
83	0x3b9b77c0	0.0047445
84	0x3f2805b8	0.65633726
85	0x3f3dad2f	0.7409238
86	0x3efaa727	0.48955652
87	0xbf1fed22	-0.6247121
88	0x3f2aa3fc	0.6665647
89	0x3eff2848	0.4983542
90	0x3f23fa3d	0.6405371
91	0x3f46f562	0.77718174
92	0x3e635110	0.22198892
93	0x3f3e64d1	0.74372584
94	0xbd877ae4	-0.066152364
95	0x3f0072f2	0.5017539
96	0xbd905098	-0.07046622
97	0x3d028568	0.031865507
98	0x3e1880ce	0.14892885
99	0x3d5e5bc8	0.05428675
100	0x3e052a62	0.13004449
101	0x3e3bda08	0.18344891
102	0x3de3001c	0.11084005
103	0x3db6c818	0.089248836
104	0xbe385138	-0.17999732
105	0xbdc35a14	-0.095386654
106	0xbe01f8c8	-0.12692559
107	0x3e06d7bc	0.13168234
108	0xbd3f2a70	-0.04667133
109	0x3d0497e0	0.0323714
110	0xbe1f3892	-0.15548924
111	0x3e756b5a	0.23966733
112	0xbede1feb	-0.43383726
113	0xbf57d09f	-0.84302706
114	0x3d704fa0	0.058669686
115	0x3dca5c04	0.09880832
116	0xbef4c00e	-0.47802776
117	0xbefe193d	-0.4962863
118	0xbf079454	-0.52960706
119	0x3f2f41ca	0.6845976
120	0xbf5204c4	-0.8203852
121	0xbed49d4f	-0.41526267
122	0xbf18dae4	-0.59709
123	0xbf1b21c2	-0.60598385
124	0x3d1eaa18	0.038736433
125	0xbef6af2c	-0.4818052
126	0xbc6796c0	-0.014135063
127	0xbf405b4b	-0.751393
128	0x3f49b0fc	0.7878568
129	0x3f19dbe6	0.60101163
130	0xbe0da6da	-0.1383318
131	0xbe60806a	-0.21923986
132	0xbe370a44	-0.1787501
133	0xbe05572a	-0.13021532
134	0x3f00866f	0.5020513
135	0xbf299e5e	-0.66257274
136	0x3f43ccea	0.7648455
137	0x3d99cdf4	0.075099856
138	0x3f0849a0	0.5323734
139	0x3f17d930	0.59315777
140	0x3e355aec	0.17710465
141	0x3f1c2cf4	0.61006093
142	0xbe657290	-0.22406983
143	0x3ed82084	0.42212307
144	0xbee02a67	-0.4378235
145	0xbf671552	-0.9026691
146	0xbde708c8	-0.11280972
147	0x3e600924	0.21878487
148	0xbf68ee5e	-0.9098872
149	0xbf3eced6	-0.74534357
150	0xbf521e5e	-0.82077587
151	0x3f57ff11	0.84373575
152	0xbeffc16e	-0.49952263
153	0xbf256a3a	-0.64615214
154	0xbf3063f6	-0.6890253
155	0xbeffbfca	-0.4995101
156	0x3e0f590c	0.13998812
157	0xbed81f97	-0.422116
158	0x3e13dd1c	0.14439815
159	0xbf1043f2	-0.56353676
160	0xbef546e1	-0.4790564
161	0xbf2ca9a6	-0.6744636
162	0xbe255058	-0.1614393
163	0xbe6b775a	-0.22994748
164	0x3ca18050	0.019714504
165	0xbf0c4254	-0.5478871
166	0x3e79be34	0.24388963
167	0xbdae5a48	-0.085133135
168	0xbf1af304	-0.6052706
169	0x3e620630	0.22072673
170	0xbf4db8ce	-0.80360115
171	0xbf39a90e	-0.7252358
172	0xbe2f6d88	-0.17131627
173	0xbf028972	-0.50990975
174	0x3e5d5138	0.21613014
175	0xbf37f942	-0.7186471
176	0x3f5feedd	0.8747385
177	0x3f4db15a	0.8034874
178	0xbe353742	-0.1769686
179	0xbe60d38c	-0.21955699
180	0x3f1148e1	0.5675183
181	0x3f60c4cf	0.87800306
182	0x3f1463b8	0.5796466
183	0xbeea86e0	-0.45806026
184	0x3f54b31c	0.830858
185	0x3efed631	0.4977279
186	0x3f4ad778	0.7923503
187	0x3f0566c2	0.5210992
188	0xbe382558	-0.17982996
189	0x3f0e7181	0.55641943
190	0xbdd32eb0	-0.10311639
191	0x3eee4de5	0.46543804
192	0x3f389e92	0.7211696
193	0x3f0871f2	0.53298867
194	0x3c540160	0.012939781
195	0x3e295636	0.16536793
196	0xbf16711f	-0.5876636
197	0x3f3be50a	0.7339636
198	0x3ee32170	0.44361448
199	0xbf18ca09	-0.5968328
200	0x3ef15dbb	0.47141823
201	0xbd1e6e00	-0.038679123
202	0x3ef016d3	0.46892413
203	0x3f5fade2	0.873747
204	0x3e239cee	0.15977833
205	0x3f0a3002	0.53979504
206	0xbe1cd662	-0.15316156
207	0x3eeef51c	0.4667138
208	0xbe290e0a	-0.16509262
209	0x3e123c68	0.14280856
210	0x3e0283c4	0.12745577
211	0xbd2a2550	-0.04153949
212	0xbe10ecfe	-0.14152905
213	0xbd864338	-0.0655579
214	0xbcb8a340	-0.022538781
215	0x3cb97670	0.022639483
216	0x3e3ff8ba	0.18747225
217	0xbe7ed62a	-0.24886385
218	0x3e2e2ea8	0.17009985
219	0x3e792736	0.24331364
220	0x3e169bca	0.14707866
221	0x3e1bad50	0.15202832
222	0x3e0f3098	0.13983381
223	0x3e4078cc	0.1879608
224	0xbef53546	-0.47892207
225	0xbf211da9	-0.6293588
226	0xbe65998e	-0.22421858
227	0xbe31f72a	-0.17379442
228	0x3dad515c	0.08462784
229	0xbf308bac	-0.6896312
230	0xbf46a972	-0.77602303
231	0xbdeefbb0	-0.11669099
232	0xbf5cda38	-0.86270475
233	0x3e76c6c2	0.24099258
234	0xbf322456	-0.69586694
235	0xbf05dc83	-0.522896
236	0xbe45b560	-0.1930747
237	0xbf143910	-0.5789957
238	0x3c96c290	0.018403322
239	0xbf609b5e	-0.8773707
240	0x3d0a2a88	0.033731967
241	0x3d430288	0.047609836
242	0x3d3949c0	0.04523635
243	0xbdb15cac	-0.08660254
244	0xbe2257ce	-0.15853807
245	0xb946f000	-0.00018972158
246	0x3e19c810	0.15017724
247	0xbdd4acb8	-0.10384506
248	0xbe7c9802	-0.24667361
249	0x3d909fb4	0.07061711
250	0xbe2a9ad2	-0.16660622
251	0x3e12fdba	0.14354602
252	0xbdd07118	-0.10177821
253	0x3e35171a	0.17684594
254	0x3bddbc80	0.0067668557
255	0xbdff2854	-0.12458864

weight f4 [16, 16]
0	0x3e00f9b8	0.1259526
1	0x3da5815c	0.08081314
2	0xbdd81cf8	-0.105524
3	0x3d071118	0.032975286
4	0x3e22e708	0.15908444
5	0xbcbee230	-0.023301214
6	0x3e2afbe2	0.16697648
7	0xbcf3ed10	-0.029776126
8	0x3e634640	0.22194767
9	0xbca82cb0	-0.020529121
10	0x3e71fcc0	0.23631573
11	0xbe5fe956	-0.21866354
12	0x3d8b91e0	0.06814933
13	0xbe2135d2	-0.15743187
14	0x3e604da4	0.21904618
15	0x3e2c27f8	0.16812122
16	0x3f08ad73	0.5338966
17	0x3eeb7893	0.45990428
18	0xbd0fd480	-0.035114765
19	0x3e27f4f6	0.16402039
20	0x3f3c1958	0.7347617
21	0x3f64a488	0.89313555
22	0x3f666898	0.9000335
23	0x3f1a8584	0.6035998
24	0x3f2d5c83	0.67719287
25	0x3f30c12d	0.6904476
26	0x3f2fd7dc	0.6868875
27	0x3ee15713	0.44011745
28	0x3e7b1bd0	0.24522328
29	0x3f1382f8	0.5762172
30	0xbd069e78	-0.03286597
31	0x3f296f74	0.6618569
32	0xbf4109fa	-0.7540585
33	0xbf02a5b8	-0.51034117
34	0x3d0ae638	0.03391096
35	0xbe746f0c	-0.23870486
36	0xbf637fc4	-0.8886683
37	0xbee6a0ce	-0.4504456
38	0xbef292a1	-0.47377494
39	0xbee45430	-0.4459548
40	0xbf6905ec	-0.9102466
41	0xbf313b22	-0.69230855
42	0xbefe6e35	-0.49693456
43	0xbf50b474	-0.8152535
44	0x3e4237f8	0.18966663
45	0xbed4a210	-0.41529894
46	0x3df5b3ac	0.1199716
47	0xbf3b3596	-0.7312864
48	0xbe3c51d4	-0.1839059
49	0xbddde7b0	-0.108352065
50	0xbe7681f2	-0.24073008
51	0x3e41e926	0.18936595
52	0x3e413df0	0.18871284
53	0xbe495c80	-0.19664192
54	0xbc86c650	-0.016451985
55	0xbe2973ac	-0.16548032
56	0xbcef4690	-0.029208452
57	0xbe51a69c	-0.20473713
58	0x3d83a8f8	0.064287126
59	0x3e685fca	0.2269279
60	0x3e7ce438	0.24696434
61	0xbe7e7ac8	-0.24851525
62	0xbd2d3ec0	-0.04229617
63	0xbe2b0b9c	-0.16703647
64	0x3f152916	0.5826582
65	0x3f1576b2	0.5838424
66	0x3e202d8a	0.15642372
67	0xbe63a78c	-0.22231883
68	0x3f6412f6	0.8909143
69	0x3f235517	0.6380171
70	0x3f0a615a	0.54054797
71	0x3f282260	0.6567745
72	0x3f26e914	0.651994
73	0x3f1bfd15	0.6093305
74	0x3ef76f1d	0.4832696
75	0x3f214b60	0.6300564
76	0x3e013b2c	0.12620229
77	0x3f3d11f8	0.73855543
78	0xbda589dc	-0.08082935
79	0x3f35e1f0	0.7104788
80	0xbef31b1f	-0.4748163
81	0xbf0decd2	-0.55439484
82	0x3bb4e500	0.005520463
83	0xbdc82ec4	-0.09774545
84	0xbf62a296	-0.88529336
85	0xbf1af9d7	-0.60537475
86	0xbf207e7c	-0.62693
87	0xbf3418a5	-0.70350105
88	0xbf2a4b5b	-0.66521233
89	0xbf12a610	-0.5728464
90	0xbf1b8082	-0.6074296
91	0xbf42cf54	-0.7609761
92	0x3e027a7c	0.12742037
93	0xbf020ae2	-0.50797856
94	0xbe6dec8e	-0.2323477
95	0xbf3ea23b	-0.74466294
96	0x3f54d2f0	0.83134365
97	0xbed6e195	-0.4196898
98	0xbdbe22dc	-0.09283993
99	0x3b247700	0.0025095344
100	0x3f184a62	0.594885
101	0x3f1503d0	0.5820894
102	0x3f30b753	0.6902973
103	0x3f558f0d	0.83421403
104	0x3f4d15fc	0.8011167
105	0x3f044bd5	0.5167821
106	0x3f555dba	0.8334614
107	0x3f2f1fe2	0.68408024
108	0x3dc45e30	0.09588277
109	0x3f3f87ea	0.74816763
110	0x3d46a658	0.04849848
111	0xbf45ea0e	-0.77310264
112	0xbf3c77c2	-0.73620236
113	0xbf51f3f4	-0.8201287
114	0xbe0e3570	-0.13887572
115	0x3e4aee76	0.19817528
116	0xbf647068	-0.8923402
117	0xbf5838ca	-0.84461653
118	0xbef619b0	-0.48066473
119	0xbf5a5f7c	-0.8530195
120	0xbf398e04	-0.72482324
121	0xbf016483	-0.50543994
122	0xbf50c1ff	-0.81546015
123	0xbf1de299	-0.61673886
124	0x3e24a9a8	0.16080344
125	0xbf6454ae	-0.8919171
126	0x3c439380	0.011937022
127	0xbf424c8e	-0.75898063
128	0xbf1ea7ba	-0.6197468
129	0xbf42802b	-0.7597682
130	0x3ce414b0	0.027841896
131	0xbe29b710	-0.16573739
132	0xbf0564c0	-0.5210686
133	0xbf482f1c	-0.78196883
134	0xbed67a43	-0.41890153
135	0xbee1de6c	-0.44115007
136	0xbf68aa0b	-0.90884465
137	0xbf0b913f	-0.545185
138	0xbeef9a49	-0.46797398
139	0xbed6065d	-0.4180173
140	0xbe760e18	-0.24028814
141	0xbf10f1d9	-0.5661903
142	0x3b941a40	0.004519731
143	0xbf553ee4	-0.8329909
144	0xbf1c763c	-0.6111791
145	0xbf671192	-0.90261185
146	0xbd7960c8	-0.060883313
147	0x3df0fbec	0.117668
148	0xbf2529ec	-0.6451709
149	0xbf4e7daa	-0.806605
150	0xbf1edd38	-0.62056303
151	0xbf298c66	-0.66229856
152	0xbf555514	-0.83332944
153	0xbf3b95d4	-0.73275495
154	0xbf0a5c8f	-0.54047483
155	0xbf5e634a	-0.86870253
156	0x3dfa0554	0.122080475
157	0xbf3ceb2a	-0.7379633
158	0x3e3f8b38	0.18705451
159	0xbedd1e14	-0.4318701
160	0xbe2a7a58	-0.16648233
161	0xbe40cdd4	-0.18828517
162	0x3e775560	0.24153662
163	0x3d8eae84	0.0696688
164	0x3d09e928	0.03366962
165	0x3e04b21a	0.12958565
166	0xbe31d232	-0.1736534
167	0xbd337e80	-0.04382181
168	0xbcc7e380	-0.024400473
169	0xbe1ca218	-0.15296209
170	0x3df32ca8	0.11873752
171	0xbe7f17bc	-0.24911398
172	0xbd803d08	-0.06261641
173	0x3e426d42	0.18986991
174	0x3dbc38d8	0.091905296
175	0x3d662598	0.056188196
176	0xbdb7e2a4	-0.08978775
177	0x3e7ae9f4	0.24503309
178	0x3dd8d1d4	0.105868965
179	0xbd66f628	-0.056387097
180	0xbe4dd3f6	-0.20100388
181	0xbe75c0bc	-0.23999304
182	0x3df60460	0.12012553
183	0x3da6a14c	0.08136234
184	0x3e5cbd66	0.21556625
185	0xbe46ec2c	-0.1942603
186	0xbc8c2010	-0.017105132
187	0xbe03e35c	-0.128797
188	0xbe2f8be2	-0.17143205
189	0xbe55c852	-0.20877197
190	0xbc980a30	-0.018559545
191	0x3e4f126e	0.20221874
192	0x3ded0674	0.115734965
193	0xbd289478	-0.041157216
194	0xbe654a28	-0.2239157
195	0x3d8b2c88	0.06795603
196	0xbdabbc70	-0.08385551
197	0xbe590bd6	-0.21195921
198	0x3e6e376c	0.2326333
199	0x3de12a10	0.10994351
200	0xbe6284c6	-0.22120962
201	0xbe40fbc0	-0.18846035
202	0x3d3534e8	0.04423991
203	0x3e461570	0.19344115
204	0xbe367fbe	-0.17822167
205	0x3e6690f0	0.22516227
206	0x3e040112	0.12891033
207	0x3d59ec88	0.05320409
208	0x3f1f10ba	0.621349
209	0x3f483dc3	0.7821924
210	0xbe5d8a82	-0.21634868
211	0xbdce7864	-0.100815564
212	0x3ee29d3c	0.44260585
213	0x3f0cf816	0.5506605
214	0x3ef2ddc0	0.47434807
215	0x3f2f93c3	0.6858484
216	0x3f0a54a1	0.54035383
217	0x3f347e07	0.705048
218	0x3f3d5d61	0.7397061
219	0x3f231f30	0.63719463
220	0xbd55e3c8	-0.052219182
221	0x3f0dba1b	0.553621
222	0xbdaca4b0	-0.08429849
223	0x3ef59076	0.47961777
224	0xbf629934	-0.8851502
225	0xbeebf0a5	-0.46082035
226	0xbe7ce83c	-0.24697965
227	0xbe22f240	-0.15912724
228	0xbf1a3bc8	-0.6024747
229	0xbf012424	-0.5044577
230	0xbf1515a8	-0.5823617
231	0xbf52a174	-0.8227761
232	0xbf5fe401	-0.8745728
233	0xbf501ab8	-0.8129077
234	0xbf198ea8	-0.599833
235	0xbf5875d1	-0.84554774
236	0xbdae20c4	-0.08502343
237	0xbf36366e	-0.71176803
238	0x3e054458	0.13014352
239	0xbed85631	-0.4225326
240	0xbd0c8a78	-0.03431174
241	0x3ddb0d54	0.106959015
242	0x3e476efc	0.19475931
243	0xbdb15b64	-0.086600095
244	0xbe29d402	-0.16584781
245	0xbdbd681c	-0.09248373
246	0xbc1443e0	-0.009049386
247	0xbda7f28c	-0.08200559
248	0xbdeb1ef0	-0.1148051
249	0xbd261c88	-0.040554553
250	0xbdb9b6f0	-0.09068096
251	0x3e3cecec	0.18449754
252	0xbe7cdfda	-0.24694768
253	0x3e0f0faa	0.13970819
254	0xbe25b51e	-0.16182372
255	0x3e3943d2	0.18092278

bias f4 [16]
0	0x3db34ca8	0.087548554
1	0x3f0caba4	0.549494
2	0xbf11d4b2	-0.5696517
3	0x3dad5db0	0.08465135
4	0x3f5fec2c	0.87469745
5	0xbf07b7ca	-0.53014815
6	0x3ef427e5	0.47686687
7	0xbf4db5d8	-0.80355597
8	0xbf07fde0	-0.5312176
9	0xbf64d6e2	-0.89390385
10	0xbe199386	-0.14997682
11	0xbd86a73c	-0.06574866
12	0xbdfd6744	-0.12373212
13	0x3f49702c	0.78686786
14	0xbf0be4f7	-0.5464625
15	0x3e1f948c	0.1558401
