mlartifacts/982343343277370496/7d01de10d76f424c94cc5e580632df58/artifacts/models/data/model.pth (torch, 282386 bytes, 130 tensors)

att_src f4 [1, 1, 32]
0	0xbe9be530	-0.30448294
1	0xbea688de	-0.32526296
2	0x3de9ca22	0.11415507
3	0xbe5076af	-0.20357774
4	0x3e3df235	0.18549426
5	0xbe5bfbbb	-0.21482746
6	0x3ea6ffcf	0.3261704
7	0xbeb89791	-0.36053136
8	0xbcf694af	-0.030100195
9	0xbe87085f	-0.26373574
10	0xbd4948b2	-0.049141593
11	0x3e95ff7a	0.29296476
12	0xbe73819d	-0.23779912
13	0xbdd7b5d6	-0.10532729
14	0x3da61db5	0.08111135
15	0xbeb65df1	-0.35618547
16	0xbecc890f	-0.39948317
17	0xbdca8af9	-0.09889788
18	0xbda13a91	-0.07872499
19	0x3ddc08ab	0.10743841
20	0xbecacd71	-0.39609864
21	0xbec74991	-0.38923314
22	0xbe4a30af	-0.19745134
23	0xbe43f6e3	-0.19137149
24	0xbe4bcaec	-0.19901627
25	0x3e946b50	0.28988123
26	0x3bffd5fb	0.007807491
27	0x3de7a50f	0.11310779
28	0xbba48042	-0.0050201723
29	0xbcf14440	-0.02945149
30	0xbe1b513a	-0.15167704
31	0xbdfb28f7	-0.12263673

att_dst f4 [1, 1, 32]
0	0x3e982a04	0.29719555
1	0x3e9cfd2e	0.3066191
2	0xbde10c90	-0.10988724
3	0xbe3b2437	-0.18275534
4	0xbe1269d8	-0.14298189
5	0xbe635f3f	-0.22204302
6	0x3d57ddae	0.052701645
7	0xbe8202d6	-0.2539279
8	0xbe7922b4	-0.24329644
9	0xbe322f3a	-0.17400828
10	0xbd8b03a0	-0.06787801
11	0xbe90b9f6	-0.28266877
12	0x3eaa8c64	0.33310235
13	0xbea182c5	-0.31545082
14	0xbec976ba	-0.39348394
15	0xbe8de14a	-0.27710944
16	0xbc955d56	-0.018232983
17	0xbed3e0ff	-0.41382596
18	0x3e283b51	0.16428877
19	0xbeabe2ab	-0.3357137
20	0xbdec5cec	-0.11541161
21	0x3c949132	0.01813564
22	0x3e1fd5f6	0.15608963
23	0xbed35a33	-0.41279754
24	0xbddefe25	-0.10888318
25	0xbe229fbb	-0.15881245
26	0x3cc04d01	0.023474218
27	0xbeaa2a42	-0.33235365
28	0x3debd1bb	0.11514612
29	0x3ec32e71	0.3812137
30	0xbe7046c4	-0.23464495
31	0x3e44e2b0	0.192271

bias f4 [32]
0	0x3e490cb9	0.1963376
1	0xbd73caa5	-0.05951943
2	0xbd95144a	-0.072792605
3	0x00000000	0.0
4	0x00000000	0.0
5	0xbe2930be	-0.165225
6	0xbe2a9d9d	-0.16661687
7	0xbe68e571	-0.22743775
8	0xbe07e049	-0.13269152
9	0x3e671f5c	0.22570556
10	0xbe30212e	-0.17200157
11	0xbe020a45	-0.1269923
12	0x3e3354ff	0.17512892
13	0x3dd9fbff	0.106437676
14	0x3bc8511b	0.006113184
15	0x3dfd6211	0.1237222
16	0x3ce57d1f	0.028013764
17	0xbe65e0ab	-0.22448985
18	0x3e64d349	0.22346224
19	0x3d9878bc	0.07444903
20	0x3e656e54	0.22405368
21	0x3b237906	0.0024943962
22	0x00000000	0.0
23	0x3e57bed4	0.21068889
24	0x3db43ec7	0.08801036
25	0x3e681cc9	0.2266723
26	0xbc055268	-0.008137323
27	0x3e62fb0c	0.2216608
28	0xbc47339c	-0.012158301
29	0x3e4e8dc7	0.20171271
30	0x3de9ea26	0.114216134
31	0x00000000	0.0

weight f4 [32, 3]
0	0x3de873ef	0.113502376
1	0x3e1b3fbd	0.15161033
2	0x3ea51217	0.32240364
3	0xbe991287	-0.29896948
4	0xbeb92147	-0.361582
5	0xbe65d615	-0.22444947
6	0xbeb1ceb6	-0.3472802
7	0xbe8cfd1a	-0.2753685
8	0xbe07a140	-0.13245106
9	0x3e968769	0.29400185
10	0xbe93d415	-0.28872743
11	0x3ea9c867	0.33160707
12	0xbd212041	-0.0393374
13	0x3ec108ce	0.3770203
14	0x3cabd621	0.020976128
15	0xbed324ec	-0.41239107
16	0x3e6d6311	0.23182322
17	0xbd7ae452	-0.0612529
18	0x3eb38d0e	0.35068554
19	0x3dcfe208	0.10150534
20	0x3dbf3146	0.0933557
21	0x3eb27f62	0.3486281
22	0xbe0a2f1c	-0.13494533
23	0xbe4ef6f2	-0.2021139
24	0x3d9fa2f4	0.07794753
25	0xbda65297	-0.081212215
26	0xbd80ef66	-0.06295662
27	0xbe505cef	-0.20347951
28	0x3ec297ce	0.38006443
29	0x3e47d887	0.19516192
30	0x3dda71c2	0.10666229
31	0x3e843e8c	0.2582897
32	0xbd393e5c	-0.045225486
33	0x3e12615b	0.1429495
34	0x3d5bd20e	0.05366712
35	0xbe9e323c	-0.308977
36	0xbd843dfb	-0.06457134
37	0xbe696212	-0.22791317
38	0xbc0e5b89	-0.008688816
39	0x3e996c57	0.2996547
40	0xbd888fcd	-0.06668053
41	0xbdfc0612	-0.12305845
42	0xbeb22890	-0.34796572
43	0x3e182228	0.1485678
44	0xbe2390fa	-0.15973273
45	0xbe85f821	-0.2616587
46	0x3e1af455	0.15132268
47	0xbe83f782	-0.2577477
48	0xbeb8739d	-0.36025706
49	0x3e8755ab	0.26432547
50	0x3c00c4c7	0.007859415
51	0x3e6b2220	0.22962236
52	0xbd442177	-0.047883477
53	0xbec4ff64	-0.38476098
54	0xbebae81f	-0.3650522
55	0x3dbb76f7	0.0915355
56	0x3e77f23d	0.242135
57	0xbec6b062	-0.38806444
58	0x3ecc7caf	0.39938876
59	0xbe1426e6	-0.14467964
60	0xbe69e71f	-0.22842072
61	0xbe141f0b	-0.14464967
62	0x3eb9f59c	0.36320198
63	0xbeb4f8c7	-0.35346052
64	0x3e9213aa	0.28530627
65	0xbdb39add	-0.08769772
66	0x3e79de84	0.24401289
67	0x3e8403fe	0.25784296
68	0x3e5b7bc7	0.21433936
69	0x3df5f1e7	0.1200903
70	0x3e50be6e	0.20385143
71	0x3de63f93	0.112425946
72	0xbeb75f68	-0.35814977
73	0x3e2c951e	0.16853759
74	0xbe6dfbdf	-0.23240612
75	0xbdc3b4d5	-0.09555975
76	0x3e57ec4f	0.21086238
77	0x3d9abae9	0.075551815
78	0x3d340b04	0.043955818
79	0x3d7636d0	0.060110867
80	0xbce3974e	-0.027782109
81	0x3ea093f8	0.3136289
82	0xbd93ca66	-0.07216339
83	0xbde1444e	-0.10999356
84	0xbe6acb4f	-0.22929119
85	0x3eb08708	0.3447802
86	0x3de84437	0.11341136
87	0xbe213bb3	-0.1574543
88	0x3dd1fd01	0.10253335
89	0xbe0299dc	-0.12754005
90	0x3eb46416	0.3523261
91	0x3cf12be4	0.029439874
92	0xbcd08155	-0.025452295
93	0x3e6573e7	0.22407494
94	0xbe6c4cc7	-0.23076163
95	0xbd7e47d6	-0.062080227

att_src f4 [1, 1, 32]
0	0xbf114d75	-0.56758815
1	0x3edec8c7	0.43512556
2	0x3d33b086	0.043869518
3	0x3e25c123	0.16186957
4	0x3dca36a2	0.09873702
5	0x3f10f2cd	0.56620485
6	0x3b7c7b3c	0.0038525602
7	0x3ec797ea	0.3898309
8	0x3e0fafdb	0.14031927
9	0xbe9b1dd8	-0.30296206
10	0x3e933460	0.28750896
11	0xbde33b4e	-0.11095296
12	0x3dd1836b	0.10230144
13	0x3e4d0a3d	0.20023437
14	0x3fa420dc	1.2822528
15	0xbc8001bb	-0.015625825
16	0x3e718d6f	0.23589109
17	0x3eb1d459	0.3473232
18	0xbe37a9f5	-0.17935927
19	0x3d9bb7ca	0.07603414
20	0x3f035119	0.5129562
21	0x3f03df6c	0.5151279
22	0x3f12cbfb	0.573425
23	0xbe059f20	-0.13048983
24	0x3ec1d35f	0.37856576
25	0xbeda8093	-0.4267622
26	0xbe5f8d9e	-0.21831366
27	0x3dd09240	0.10184145
28	0xbe42c273	-0.19019489
29	0xbee55847	-0.44793913
30	0xbe5fed8c	-0.2186796
31	0xbec93875	-0.39300886

att_dst f4 [1, 1, 32]
0	0xbedfa6c8	-0.43681931
1	0xbf1ccfe2	-0.61254704
2	0xbd93fc01	-0.072258
3	0x3d9954a5	0.07486848
4	0xbf0a2066	-0.53955686
5	0xbeda211a	-0.4260338
6	0x3dcafc8c	0.09911451
7	0x3f1cacaf	0.61200994
8	0xbd4d398a	-0.0501037
9	0x3ed4fe9c	0.41600502
10	0x3df2c082	0.11853124
11	0xbf08e352	-0.53471863
12	0xbe99b0c4	-0.30017674
13	0xbe029b3a	-0.12754527
14	0xbe3a18b4	-0.18173486
15	0xbedfef90	-0.4373746
16	0xbeebb076	-0.46033067
17	0xbdd82952	-0.10554756
18	0xbdfe5885	-0.124192275
19	0x3dcb11fb	0.09915539
20	0xbe97c498	-0.29642177
21	0x3f19f5e7	0.6014084
22	0x3f161d3c	0.5863836
23	0x3f09cf3a	0.5383183
24	0x3f16b0c5	0.5886348
25	0x3e8df146	0.2772314
26	0x3eec65e6	0.46171492
27	0x3e11d520	0.14241457
28	0x3f1597a8	0.58434534
29	0x3d8912c8	0.06693035
30	0xbe830c03	-0.25595102
31	0x3ecdf4ec	0.40225923

bias f4 [32]
0	0x3e280ee1	0.16411926
1	0xbe714e51	-0.23565032
2	0xbe0d34fe	-0.13789746
3	0xbe0ce9fa	-0.1376113
4	0x3ddb5f6b	0.10711559
5	0xbe737827	-0.23776303
6	0xbe086f6e	-0.13323757
7	0xbe15519c	-0.14581913
8	0xbcac7d06	-0.02105571
9	0xbe0907bc	-0.13381857
10	0xbe9ea45c	-0.3098477
11	0xbe319c20	-0.17344713
12	0xbe0c41fb	-0.13697045
13	0xbe0999e1	-0.13437606
14	0xbe07836a	-0.13233724
15	0x3e100db6	0.1406773
16	0xbeb1cf9b	-0.34728703
17	0xbe6a616c	-0.22888726
18	0x3d61dd0b	0.055142444
19	0xbe43bcad	-0.19114943
20	0xbe414d28	-0.18877089
21	0xbe0573ac	-0.13032407
22	0xbe301855	-0.17196782
23	0xbe42910d	-0.19000645
24	0x3e08cba4	0.13358933
25	0xbe0fc535	-0.14040072
26	0x3e0084cf	0.12550662
27	0xbe62eadd	-0.22159906
28	0xbe1721da	-0.14759007
29	0x3d8e7a8e	0.06956969
30	0xbe4585e6	-0.1928936
31	0xbe044776	-0.12917885

weight f4 [32, 3]
0	0xbf039200	-0.51394653
1	0x3ec4dab3	0.38448104
2	0x3eb1f588	0.34757638
3	0xbdc0eeb0	-0.09420526
4	0x3bcb0b08	0.0061963834
5	0xbf1dd2e4	-0.6164992
6	0xbe941ee2	-0.28929812
7	0xbc802fab	-0.01564773
8	0xbd27f9b9	-0.04100964
9	0xbd11d53b	-0.035603743
10	0x3da0c59f	0.07850193
11	0xbe9c5d13	-0.3053976
12	0x3f05d204	0.52273583
13	0xbe538442	-0.20655921
14	0x3d8cae99	0.06869239
15	0xbe494cf4	-0.19658262
16	0x3d9dead0	0.077108026
17	0xbf25ec4d	-0.6481369
18	0xbef9e5c1	-0.488081
19	0x3ce3f054	0.027824558
20	0x3e061450	0.13093686
21	0xbea233a3	-0.3168002
22	0xbe6c9600	-0.23104095
23	0xbea13607	-0.31486532
24	0xbea421a4	-0.32056916
25	0x3f19821c	0.59964156
26	0x3e649de1	0.22325851
27	0x3e89f389	0.26943615
28	0xbe8fb54e	-0.28068012
29	0xbd12319a	-0.035691835
30	0xbedeb660	-0.43498516
31	0x3f0580fc	0.5214994
32	0xbf1f92be	-0.62333286
33	0xbea89a14	-0.32930052
34	0xbeea2c8c	-0.45737112
35	0xbd40db80	-0.04708433
36	0xbd1a3651	-0.037649456
37	0xbe898ac6	-0.26863688
38	0x3e12954d	0.14314766
39	0xbe213acb	-0.15745084
40	0x3d529da9	0.051419888
41	0xbe4e6a5b	-0.20157759
42	0x3d88d8e1	0.06681991
43	0xbd4a7ac6	-0.049433492
44	0xbe92149d	-0.28531352
45	0x3ee617c2	0.4494
46	0x3f3dedc3	0.7419092
47	0xbe6f314b	-0.23358648
48	0xbeaa9e2d	-0.33323804
49	0x3ee002a4	0.43752015
50	0xbf8fb0c7	-1.1225823
51	0x3e1071d6	0.14105925
52	0x3e9e9a58	0.3097713
53	0xbf29b0e6	-0.6628555
54	0x3ec09cba	0.37619573
55	0x3efa63bb	0.48904213
56	0xbe7f353d	-0.24922653
57	0xbda46668	-0.08027345
58	0xbeaa7166	-0.3328964
59	0x3e502f24	0.20330483
60	0xbef54581	-0.4790459
61	0x3d744e38	0.059644908
62	0xbe57e8ae	-0.21084854
63	0xbebcea0a	-0.36897308
64	0xbd08fe85	-0.033445854
65	0xbefaa4dc	-0.48953903
66	0xbee5ffac	-0.44921625
67	0xbdd5ba0b	-0.104358755
68	0xbf18a73c	-0.5963018
69	0x3e0e565e	0.13900134
70	0xbf1513b0	-0.58233166
71	0xbd39a763	-0.045325648
72	0x3f0564e8	0.52107096
73	0x3ec34f68	0.3814652
74	0xbe591e47	-0.21202956
75	0x3d56e0ee	0.052460603
76	0xbccc0cab	-0.024908384
77	0x3e0ae527	0.13563977
78	0x3ca30c0e	0.019903209
79	0xbeea3e36	-0.45750588
80	0x3e011e4c	0.12609214
81	0x3ea3785a	0.31927758
82	0xbe84b5e3	-0.2592002
83	0xbd736a9d	-0.059427846
84	0xbe2be87a	-0.16787902
85	0xbe9ba1cb	-0.30396876
86	0x3e7177de	0.23580882
87	0x3e2a7d57	0.16649376
88	0xbec05360	-0.3756361
89	0x3e16ed2b	0.1473891
90	0x3e4d5208	0.20050824
91	0xbefc892c	-0.49323404
92	0x3cce4a30	0.02518186
93	0xbe2a9efb	-0.16662209
94	0xbea72efb	-0.3265303
95	0x3d948122	0.07251193

weight f4 [32, 1]
0	0xbf0e5b68	-0.55608225
1	0xbe92f22b	-0.28700384
2	0x3d256ab9	0.04038498
3	0xbbefee98	-0.0073221438
4	0xbea57de1	-0.323226
5	0xbeeef0e3	-0.46668157
6	0xbdc6eb7f	-0.09712886
7	0x3eff99d0	0.49922037
8	0x3dc25f91	0.09490884
9	0x3e562ae8	0.20914805
10	0x3e67b26e	0.2262666
11	0xbeb2e1f1	-0.34938005
12	0xbf10bf4b	-0.5654189
13	0xbd39b37e	-0.045337193
14	0xbded02ea	-0.115728214
15	0xbf24a420	-0.64312935
16	0xbea6831d	-0.32521906
17	0x3e4b8f6e	0.19878933
18	0xbe6207fb	-0.22073357
19	0xbc6f798a	-0.0146163795
20	0xbf20f2e6	-0.62870634
21	0x3ec76571	0.3894458
22	0x3f260e10	0.6486521
23	0x3ec14215	0.3774573
24	0x3e92c112	0.28662926
25	0x3e4a699c	0.1976685
26	0x3e86eb97	0.26351616
27	0x3db60fd0	0.08889735
28	0x3ecc7f42	0.3994084
29	0xbd2c4816	-0.042060934
30	0xbf170605	-0.5899356
31	0x3ef4de3f	0.4782581

att_src f4 [1, 1, 32]
0	0x3e9a4e8d	0.30138054
1	0x3dc499ab	0.09599622
2	0x3eec6560	0.46171093
3	0xbeac6273	-0.3366886
4	0xbdad72e1	-0.08469177
5	0x3e1b40bf	0.15161417
6	0x3e1d4696	0.15358958
7	0xbf06bbf7	-0.5263056
8	0x3e03ca09	0.12870039
9	0xbe3b6c70	-0.18303084
10	0xbf1e7fe0	-0.6191387
11	0xbb4d8362	-0.0031358828
12	0xbeaed15c	-0.34144104
13	0xbd09afa7	-0.03361478
14	0xbe10a9f3	-0.1412733
15	0x3f0dfdff	0.5546569
16	0x3e8d25e4	0.2756797
17	0x3d846740	0.06465006
18	0xbe14b9b1	-0.1452396
19	0x3d0e780b	0.03478245
20	0x3eaaaa2c	0.33332956
21	0xbb5d4ea8	-0.0033768807
22	0xbe96f135	-0.294809
23	0x3e804409	0.25051907
24	0xbc64e3a6	-0.013970291
25	0x3f0bdd4c	0.5463455
26	0x3e1d3a8d	0.15354367
27	0x3e1ec2e7	0.15504037
28	0xbe279c1a	-0.16368142
29	0x3e70fc9d	0.23533864
30	0xbe120071	-0.14257981
31	0xbf055b03	-0.52092

att_dst f4 [1, 1, 32]
0	0xbe60cb44	-0.2195254
1	0xbda3199f	-0.07963871
2	0xbe085a1a	-0.13315621
3	0xbbf41b8a	-0.007449572
4	0xbe2f45d4	-0.17116481
5	0xbe913129	-0.2835782
6	0xbec0b294	-0.37636244
7	0xbe2998fb	-0.16562264
8	0xbef42f7e	-0.47692484
9	0x3da563c7	0.08075672
10	0xbe1ffcff	-0.15623854
11	0x3ebb475f	0.3657789
12	0xbe343656	-0.17598853
13	0x3d5efb3b	0.05443881
14	0x3ec49aae	0.3839926
15	0xbd856ee8	-0.06515294
16	0x3d8731dd	0.066013075
17	0x3c20568f	0.009786262
18	0x3e581239	0.21100701
19	0x3dadb219	0.08481235
20	0xbcfcf801	-0.030879976
21	0xbe545deb	-0.20738952
22	0x3db17b83	0.08666136
23	0xbea72649	-0.32646397
24	0x3ea6b847	0.32562467
25	0xbe8a2b9f	-0.26986405
26	0xbd8cd345	-0.06876234
27	0xbea6c6fd	-0.3257369
28	0xbe755b47	-0.23960601
29	0xbe940a49	-0.28914097
30	0xbe5a9fcb	-0.21350019
31	0xbd0cb241	-0.034349684

bias f4 [32]
0	0x3e490cb9	0.1963376
1	0xbd73caa5	-0.05951943
2	0xbd95144a	-0.072792605
3	0x00000000	0.0
4	0x00000000	0.0
5	0xbe2930be	-0.165225
6	0xbe2a9d9d	-0.16661687
7	0xbe68e571	-0.22743775
8	0xbe07e049	-0.13269152
9	0x3e671f5c	0.22570556
10	0xbe30212e	-0.17200157
11	0xbe020a45	-0.1269923
12	0x3e3354ff	0.17512892
13	0x3dd9fbff	0.106437676
14	0x3bc8511b	0.006113184
15	0x3dfd6211	0.1237222
16	0x3ce57d1f	0.028013764
17	0xbe65e0ab	-0.22448985
18	0x3e64d349	0.22346224
19	0x3d9878bc	0.07444903
20	0x3e656e54	0.22405368
21	0x3b237906	0.0024943962
22	0x00000000	0.0
23	0x3e57bed4	0.21068889
24	0x3db43ec7	0.08801036
25	0x3e681cc9	0.2266723
26	0xbc055268	-0.008137323
27	0x3e62fb0c	0.2216608
28	0xbc47339c	-0.012158301
29	0x3e4e8dc7	0.20171271
30	0x3de9ea26	0.114216134
31	0x00000000	0.0

weight f4 [32, 1]
0	0x3f031ca8	0.512156
1	0x3e974329	0.29543427
2	0x3ec50af6	0.38484925
3	0xbed44823	-0.41461286
4	0xbd83617a	-0.064150766
5	0x3d17acbf	0.037029978
6	0x3c35481c	0.0110645555
7	0xbe8c78e1	-0.27435973
8	0x3ed4f490	0.41592836
9	0x3e27c60e	0.16384146
10	0xbe644ba5	-0.22294481
11	0xbd9dbbcf	-0.07701837
12	0xbdde7839	-0.108627744
13	0x3eae5059	0.34045675
14	0x3d58e440	0.05295205
15	0x3f061760	0.5237942
16	0x3de0cf89	0.10977084
17	0x3e1d5d1d	0.15367551
18	0x3f0762e8	0.52885294
19	0x3ec8a47b	0.3918799
20	0x3f0a4b69	0.54021317
21	0x3e0871a6	0.13324603
22	0xbef42463	-0.4768401
23	0x3f191e83	0.5981218
24	0x3ee083b5	0.43850484
25	0x3e544e64	0.20733029
26	0xbddfc06c	-0.109253734
27	0x3f12596a	0.57167685
28	0x3efca197	0.49342033
29	0x3d91b788	0.07115084
30	0x3ef3cc4e	0.4761681
31	0xbed1b10e	-0.40955395

weight f4 [32, 3]
0	0xbc9c2ccb	-0.019064328
1	0xbeb09e84	-0.34495938
2	0xbecec03d	-0.4038104
3	0xbdb301da	-0.087405875
4	0xbe4ab9a8	-0.19797385
5	0xbc9917cf	-0.01868811
6	0x3de48a3d	0.11159179
7	0x3e0dc682	0.13845256
8	0xbe918369	-0.2842057
9	0xbd45a041	-0.048248533
10	0x3d324445	0.04352214
11	0xbeb7c255	-0.3589045
12	0x3e8b2b6e	0.27181572
13	0x3e89e424	0.2693187
14	0x3e67c649	0.22634234
15	0xbe3d60bd	-0.18493934
16	0xbed2f1f1	-0.41200212
17	0x3cf2c5ad	0.029635275
18	0xbe9b2540	-0.30301857
19	0xbe9bb451	-0.30411008
20	0xbeaa024a	-0.3320487
21	0xbe2129b4	-0.15738565
22	0xbdd3b224	-0.10336712
23	0xbeaaaa23	-0.3333293
24	0xbeb6c434	-0.35696566
25	0xbe273cab	-0.16331737
26	0xbe9f5d29	-0.31125763
27	0xbe086e99	-0.1332344
28	0x3ebd0ec3	0.36925325
29	0xbd73d8ee	-0.059533052
30	0x3e39c413	0.18141203
31	0x3e42feb4	0.19042474
32	0x3db74b92	0.08949961
33	0x3e8623c2	0.26199156
34	0xbe5aa189	-0.21350683
35	0xbda6651f	-0.08124756
36	0x3bdcbb76	0.0067362143
37	0x3e42e3a8	0.19032156
38	0xbec4e7df	-0.38458154
39	0x3ec952b8	0.39320922
40	0xbe16e16c	-0.14734429
41	0x3e880b76	0.26571244
42	0xbe6382a1	-0.222178
43	0x3e441308	0.19147885
44	0x3e915d0c	0.28391302
45	0x3e70b43d	0.23506255
46	0x3d6b894d	0.057503987
47	0xbe929439	-0.2862871
48	0xbea2964a	-0.31755286
49	0x3b6fe564	0.0036605233
50	0xbe65bdef	-0.22435735
51	0xbeb8e1d8	-0.36109805
52	0xbd2d088b	-0.042244475
53	0xbe3ef7f6	-0.18649277
54	0xbdfe6474	-0.12421504
55	0xbeca9317	-0.39565346
56	0x3dcda457	0.10041111
57	0xbd8ddcdd	-0.06926892
58	0x3eb83ab5	0.3598229
59	0x3ec87dd6	0.39158505
60	0x3ea2525c	0.3170346
61	0x3dd2d33c	0.10294196
62	0xbecfa90a	-0.40558654
63	0xbd9460a6	-0.07244997
64	0xbea4919d	-0.32142344
65	0xbe36a9bf	-0.1783819
66	0x3ec1b531	0.3783355
67	0xbda50852	-0.080582276
68	0xbe559eca	-0.20861354
69	0x3e37e34b	0.17957799
70	0x3ec8a775	0.3919026
71	0x3e8e2343	0.27761278
72	0xbd144949	-0.036202703
73	0xbeac85be	-0.33695787
74	0x3ec13bbe	0.37740892
75	0xbe1c1b3a	-0.15244761
76	0xbe07b04f	-0.1325085
77	0x3e8e7bd8	0.2782886
78	0x3e7136d1	0.23556067
79	0xbdfc52af	-0.12320458
80	0x3e98d5a3	0.29850492
81	0x3d849c98	0.064751804
82	0x3d80c235	0.06287042
83	0x3e004f2d	0.12530203
84	0xbe3b3ba2	-0.18284467
85	0x3ea53249	0.32264927
86	0xbecc8772	-0.39947087
87	0xbdd87653	-0.105694436
88	0x3e45e4f2	0.19325617
89	0xbe8d0324	-0.2754146
90	0xbd102c26	-0.035198353
91	0x3e97810e	0.29590648
92	0x3d9a42db	0.07532283
93	0xbe255626	-0.16146144
94	0xbd02fe6a	-0.03198091
95	0xbd92e2a6	-0.07172136

att_src f4 [1, 1, 32]
0	0x3d99817e	0.07495402
1	0xbe805dbc	-0.25071514
2	0xbde9851e	-0.11402343
3	0x3ec6ac21	0.388032
4	0x3de49bb4	0.111625105
5	0x3e234def	0.15947698
6	0x3d62ef77	0.055404153
7	0xbcf20f9d	-0.02954846
8	0xbe042f25	-0.12908609
9	0xbe719c48	-0.23594773
10	0x3c1b4bd5	0.009478529
11	0xbe9560ae	-0.29175323
12	0xbe9207cf	-0.28521582
13	0x3c030684	0.007997159
14	0xbea5994e	-0.32343525
15	0x3ed832b4	0.42226183
16	0xbde88177	-0.113528185
17	0xbe7fb89e	-0.2497277
18	0xbee04c29	-0.43808106
19	0x3d843c9a	0.06456871
20	0xbe59a0f2	-0.21252802
21	0x3e548984	0.20755583
22	0xbe4fb729	-0.20284714
23	0xbde8e839	-0.11372418
24	0xbeb8f669	-0.36125496
25	0xbe2c8232	-0.1684654
26	0x3e6c6a34	0.23087388
27	0xbc65f93e	-0.014036475
28	0x3e0a7edb	0.13524954
29	0xbe109c22	-0.1412206
30	0x3dda489e	0.10658382
31	0x3ed58380	0.4170189

att_dst f4 [1, 1, 32]
0	0x3dc56128	0.09637672
1	0xbe0b4573	-0.13600712
2	0x3ea7964f	0.32731864
3	0x3e846c2c	0.2586378
4	0xbde04199	-0.10950012
5	0x3d7e0024	0.062011853
6	0x3e321fd6	0.17394957
7	0x3e80ddf4	0.25169337
8	0xbe63b849	-0.22238268
9	0x3dcdf194	0.10055843
10	0x3e0a07f8	0.13479602
11	0x3d7c2728	0.06156078
12	0xbeafae46	-0.34312648
13	0xbd05f504	-0.03270437
14	0xbe31cdcb	-0.1736366
15	0x3daafcda	0.08349009
16	0x3e93acff	0.28842923
17	0x3eab6d0b	0.3348163
18	0xbdc74563	-0.09730031
19	0xbc6c8a55	-0.014437278
20	0x3ec85593	0.39127788
21	0xbe05588e	-0.13022062
22	0x3ccb2bcf	0.024801163
23	0xbe164f58	-0.14678705
24	0xbcb87641	-0.022517325
25	0xbea2a74b	-0.3176826
26	0x3dbf50a1	0.093415506
27	0xbe1f3cf3	-0.15550594
28	0xbebac315	-0.3647696
29	0xbeda4c77	-0.42636463
30	0x3e72ff8c	0.23730296
31	0x3daf447e	0.08557986

bias f4 [32]
0	0xbdfd12df	-0.12357115
1	0x3e306c15	0.1722873
2	0xbe0bf05b	-0.13665907
3	0x00000000	0.0
4	0x3e139d53	0.14415483
5	0x3dcade9c	0.099057406
6	0xbe75f02b	-0.24017398
7	0x00000000	0.0
8	0xbe58045e	-0.21095416
9	0x3e3fbe1e	0.18724868
10	0xbe604aa3	-0.21903472
11	0xbe0f91d5	-0.14020474
12	0xbe2976da	-0.16549245
13	0xbe49edad	-0.19719572
14	0x3e0b056c	0.13576287
15	0x3e31817e	0.17334554
16	0x00000000	0.0
17	0x3df5769f	0.11985516
18	0x3de43ca6	0.1114438
19	0xbe46417c	-0.19360918
20	0xbe022deb	-0.12712829
21	0x3e3749dc	0.17899269
22	0xbde7ef18	-0.113249004
23	0xbe49098f	-0.19632553
24	0xbe5495e2	-0.20760301
25	0xbe5c1c3b	-0.21495144
26	0x00000000	0.0
27	0x3db16a6a	0.08662875
28	0xbe30239c	-0.17201084
29	0xbe93a8ff	-0.2883987
30	0xbe6ce901	-0.23135759
31	0x00000000	0.0

weight f4 [32, 3]
0	0x3e62d4fa	0.22151557
1	0x3e64bd98	0.2233795
2	0xbe73316f	-0.23749326
3	0xbd5266aa	-0.05136744
4	0x3eb5cf53	0.35509738
5	0x3f07f7d1	0.5311251
6	0xbe7ab958	-0.24484766
7	0x3e977a50	0.29585505
8	0xbd9a4948	-0.075335085
9	0xbeed9ab6	-0.46407098
10	0xbeb991fd	-0.36244193
11	0xbe04b608	-0.12960064
12	0xbe88aefc	-0.26696002
13	0x3f2d32a1	0.6765538
14	0x3d81fa51	0.06346572
15	0xbe1e0ea5	-0.15435274
16	0xbf270300	-0.6523895
17	0xbf4ca6e2	-0.7994214
18	0xbd71e06a	-0.05905191
19	0x3e891322	0.2677241
20	0x3d19f2e8	0.03758517
21	0xbe7a4d8b	-0.24443643
22	0xbe1ccf1c	-0.15313381
23	0x3de36754	0.11103693
24	0xbe901aef	-0.2814555
25	0x3e0bf3d7	0.13667236
26	0x3e4b002f	0.19824289
27	0x3f05068c	0.51963115
28	0xbeada7fe	-0.3391723
29	0x3e121b0d	0.14268132
30	0xbf0c8455	-0.5488942
31	0x3e08ad22	0.13347295
32	0x3e38e979	0.18057813
33	0x3de97a82	0.1140032
34	0xbe29f269	-0.16596378
35	0xbecf9691	-0.4054456
36	0xbde27688	-0.11057764
37	0xbb1c1fb4	-0.0023822607
38	0x3e7e828f	0.24854492
39	0xbe4fb743	-0.20284753
40	0xbe8744a2	-0.2641955
41	0x3c196c36	0.009364178
42	0x3d8c20db	0.06842204
43	0xbe854c5a	-0.26034814
44	0x3eeca2ac	0.4621786
45	0xbee33588	-0.4437678
46	0x3e39121e	0.18073317
47	0x3e12e6ab	0.14345805
48	0xbddbd7bf	-0.1073451
49	0xbe0ac4c2	-0.1355162
50	0xbe29ebd7	-0.16593872
51	0x3e849e18	0.25901866
52	0xbbbb7a1a	-0.0057213427
53	0x3ee868bf	0.45392415
54	0x3f0378d8	0.5135627
55	0xbc9522a4	-0.018204994
56	0x3d6a2078	0.05715987
57	0xbcb572da	-0.022149492
58	0xbecaed6d	-0.39634266
59	0x3e5c2b20	0.21500826
60	0xbe08be17	-0.13353764
61	0x3f4534e0	0.77033806
62	0xbdad5d54	-0.084650666
63	0x3e9a210b	0.30103335
64	0xbf29cf62	-0.66332066
65	0x3ecf6bc5	0.4051191
66	0xbe053578	-0.13008678
67	0xbf0e51d8	-0.55593634
68	0xbda8ea73	-0.08247843
69	0x3e402dda	0.18767491
70	0xbf05d979	-0.5228496
71	0xbe8132e3	-0.25234136
72	0xbdf56a49	-0.11983163
73	0xbe6363fa	-0.22206107
74	0x3e0dc2c5	0.1384383
75	0x3d2ec4d6	0.042668186
76	0xbec46719	-0.38359907
77	0xbcd8b1e1	-0.026452007
78	0xbe90160e	-0.28141826
79	0xbd45d57f	-0.04829931
80	0xbeaff261	-0.34364608
81	0x3ddddcb6	0.10833113
82	0x3eab1d33	0.33420715
83	0x3d7e5b98	0.06209907
84	0xbeae3a04	-0.34028637
85	0xbe697065	-0.22796781
86	0x38d4e7b0	0.00010152103
87	0xbe1ed765	-0.15511854
88	0x3f0ed06e	0.5578679
89	0xbdd98e64	-0.10622862
90	0xbe86ac17	-0.2630317
91	0x3c11e378	0.00890433
92	0xbe4296b7	-0.19002806
93	0xbedf2e6a	-0.435901
94	0xbe13fd2d	-0.14452048
95	0xbe585d04	-0.21129233

att_src f4 [1, 1, 32]
0	0xbdd53486	-0.10410409
1	0x3e656b85	0.22404297
2	0xbf169f82	-0.5883714
3	0x3e0e6036	0.13903889
4	0xbe457ffd	-0.19287105
5	0x3efd76c1	0.49504665
6	0x3e6dc4af	0.2321956
7	0x3ef02f7c	0.46911228
8	0xbed42dd8	-0.41441226
9	0xbe10d0b5	-0.14142115
10	0xbe8292b1	-0.25502542
11	0x3e2e9764	0.17049938
12	0x3edcfea2	0.4316302
13	0xbf1acff0	-0.6047354
14	0xbebdf54b	-0.37101206
15	0x3b4c774d	0.0031199038
16	0x3de06402	0.10956575
17	0x3d979a33	0.07402458
18	0xbe789175	-0.24274237
19	0x3f0b70e0	0.5446911
20	0xbe228567	-0.15871201
21	0xbef9ed2f	-0.4881377
22	0xbf1e9842	-0.61951077
23	0x3e0820ec	0.13293809
24	0x3f1ae97c	0.6051252
25	0xbe62e11b	-0.22156183
26	0xbb8f0107	-0.004364136
27	0xbf0d6eaa	-0.55246985
28	0xbd1cc988	-0.038278133
29	0x3ed8a5c8	0.4231398
30	0x3f20ba8b	0.6278464
31	0xbedc7cef	-0.43064067

att_dst f4 [1, 1, 32]
0	0x3ebf7417	0.37393257
1	0xbd559bfb	-0.052150708
2	0x3e963e08	0.293442
3	0x3eb8c186	0.36085147
4	0xbdb0cc81	-0.08632756
5	0x3e840cad	0.2579092
6	0x3a659b1d	0.00087587704
7	0xbed25355	-0.41079202
8	0x3e7a0495	0.2441581
9	0x3acf8893	0.0015833549
10	0x3e5ff1bf	0.21869563
11	0xbe1f37e2	-0.15548661
12	0xbea44f0c	-0.32091558
13	0x3d9e06da	0.077161506
14	0xbdbbf189	-0.091769286
15	0xbe1263f3	-0.1429594
16	0xbecb7e0b	-0.397446
17	0xbebdef75	-0.37096754
18	0xbd796505	-0.060887355
19	0x3e48680a	0.19570938
20	0x3e2ea2ab	0.1705424
21	0x3e50ceb8	0.20391357
22	0xbce9c1b1	-0.028534742
23	0xbdca1234	-0.09866753
24	0xbe902874	-0.28155863
25	0x3e02794a	0.1274158
26	0xbead8e6d	-0.33897725
27	0xbea92a9b	-0.33040318
28	0xbe2faf0c	-0.17156619
29	0x3e4d2337	0.20032965
30	0x3e94e891	0.29083684
31	0xbde4d38f	-0.11173164

bias f4 [32]
0	0x3e490cb9	0.1963376
1	0xbd73caa5	-0.05951943
2	0xbd95144a	-0.072792605
3	0x00000000	0.0
4	0x00000000	0.0
5	0xbe2930be	-0.165225
6	0xbe2a9d9d	-0.16661687
7	0xbe68e571	-0.22743775
8	0xbe07e049	-0.13269152
9	0x3e671f5c	0.22570556
10	0xbe30212e	-0.17200157
11	0xbe020a45	-0.1269923
12	0x3e3354ff	0.17512892
13	0x3dd9fbff	0.106437676
14	0x3bc8511b	0.006113184
15	0x3dfd6211	0.1237222
16	0x3ce57d1f	0.028013764
17	0xbe65e0ab	-0.22448985
18	0x3e64d349	0.22346224
19	0x3d9878bc	0.07444903
20	0x3e656e54	0.22405368
21	0x3b237906	0.0024943962
22	0x00000000	0.0
23	0x3e57bed4	0.21068889
24	0x3db43ec7	0.08801036
25	0x3e681cc9	0.2266723
26	0xbc055268	-0.008137323
27	0x3e62fb0c	0.2216608
28	0xbc47339c	-0.012158301
29	0x3e4e8dc7	0.20171271
30	0x3de9ea26	0.114216134
31	0x00000000	0.0

weight f4 [32, 1]
0	0xbb9f4a76	-0.0048611714
1	0x3ebc91c1	0.3682995
2	0xbea93a56	-0.3305232
3	0xbe457e7f	-0.19286536
4	0xbebd3f32	-0.36962277
5	0x3ea60529	0.32425812
6	0x3e48eed1	0.19622351
7	0x3e3e7e99	0.1860298
8	0xbe8769b0	-0.2644782
9	0x3ebda114	0.37036955
10	0xbf0ee25c	-0.55814147
11	0xbea23cf8	-0.3168714
12	0x3ec417bb	0.38299355
13	0xbed7785c	-0.42084014
14	0xbf1b1fea	-0.6059557
15	0x3c67ca2a	0.014147321
16	0x3eb0608c	0.3444866
17	0x3c922965	0.017842004
18	0x3e46bc52	0.19407776
19	0x3eb1c00d	0.34716836
20	0x3eea009c	0.4570359
21	0xbefbcfc0	-0.49181938
22	0xbeaa1fa5	-0.33227268
23	0x3eeb8b10	0.46004534
24	0x3e54fa24	0.20798546
25	0xbf0d9ea5	-0.553202
26	0x3dca0f16	0.09866159
27	0x3e136288	0.14393055
28	0xbde9fbdd	-0.11424992
29	0x3eabe1f6	0.33570832
30	0x3e647e2d	0.22313757
31	0xbeb2c6b3	-0.3491722

weight f4 [32, 3]
0	0xbe0ae893	-0.13565283
1	0xbe9d466f	-0.307178
2	0x3e557abf	0.20847605
3	0xbe83fcaf	-0.2577872
4	0x3eca76d5	0.39543787
5	0x3e28a522	0.16469243
6	0x3ecef1e9	0.40418938
7	0x3dd54bc0	0.10414839
8	0x3e16e050	0.14734006
9	0x3e8f8a97	0.28035423
10	0x3eabc0c4	0.33545506
11	0xbd529b38	-0.05141756
12	0xbcde3168	-0.027123168
13	0xbe8f172e	-0.27947372
14	0xbcdc13cd	-0.02686491
15	0x3e90e84e	0.28302234
16	0xbcc13122	-0.023582999
17	0x3eb266ea	0.34844142
18	0x3ebe8c7e	0.37216562
19	0xbecc05d7	-0.39848205
20	0xbe909aa9	-0.28242996
21	0xbd6893fb	-0.05678175
22	0xbdd983ce	-0.10620843
23	0xbe661baf	-0.22471498
24	0x3e9a52a0	0.30141163
25	0x3e362f38	0.1779145
26	0xbe7a201b	-0.2442631
27	0x3e65a756	0.22427115
28	0x3e807768	0.250911
29	0x3e443810	0.19162011
30	0x3e932b16	0.2874381
31	0x3e23235c	0.15931457
32	0x3e2c202d	0.16809149
33	0x3e808418	0.2510078
34	0x3e23555d	0.15950532
35	0x3dad05ea	0.08448394
36	0xbc96d880	-0.018413782
37	0x3d953e08	0.07287222
38	0x3e56b457	0.20967232
39	0x3e84cbb1	0.25936654
40	0x3e91c881	0.28473285
41	0xbe96508d	-0.2935833
42	0xbec87514	-0.39151824
43	0xbe0279df	-0.12741803
44	0x3e9aaa93	0.30208263
45	0x3e0e7ea4	0.13915497
46	0x3e8cf77f	0.27532575
47	0xbe97919b	-0.29603276
48	0x3da8e916	0.082475826
49	0xbec21617	-0.37907478
50	0xbea6ab41	-0.3255253
51	0x3deda3a2	0.11603476
52	0xbec4a760	-0.38408947
53	0xbed09b73	-0.40743598
54	0xbebb3789	-0.36565807
55	0x3e568d70	0.20952392
56	0xbc104eca	-0.008807847
57	0xbea81152	-0.32825714
58	0xbe1f4f52	-0.15557602
59	0x3e8c052d	0.273477
60	0xbe5bdb5f	-0.21470402
61	0x3e511443	0.20417885
62	0x3e68b28a	0.22724357
63	0xbc7d224f	-0.015450074
64	0xbec18888	-0.37799478
65	0x3ea3d6da	0.31999856
66	0x3e0dc689	0.13845266
67	0x3ebe79e0	0.37202358
68	0x3e29eeeb	0.16595046
69	0xbe23b2ce	-0.15986177
70	0x3dd940ca	0.10608061
71	0x3d64224a	0.055696763
72	0xbe7227b6	-0.23647961
73	0xbd272383	-0.04080535
74	0xbe8721b1	-0.26392892
75	0xbec69a31	-0.38789514
76	0xbdfc94b9	-0.12333054
77	0xbe0faa36	-0.14029774
78	0x3dddc19d	0.108279444
79	0x3e691ec9	0.2276565
80	0x3eafed26	0.34360617
81	0x3ec14c66	0.377536
82	0x3e3815b6	0.17977032
83	0x3d6bf43e	0.057605974
84	0xbebaae65	-0.36461177
85	0xbddc6376	-0.10761158
86	0xbecbb504	-0.3978654
87	0xbe85593a	-0.26044637
88	0xbe03646f	-0.12831281
89	0xbd2e1869	-0.042503748
90	0xbde269a4	-0.110553056
91	0xbebe4e6f	-0.37169215
92	0xbeadfaa8	-0.33980298
93	0x3db10ef4	0.0864543
94	0xbe2d0506	-0.16896448
95	0x3eb85a42	0.3600636

att_src f4 [1, 1, 32]
0	0x3e218595	0.15773614
1	0xbdaefb3a	-0.085440114
2	0xbea4b218	-0.32167125
3	0xbdaefa31	-0.08543814
4	0xbde4fec4	-0.11181405
5	0x3dc3ae08	0.09554678
6	0x3e2f3ff5	0.17114241
7	0x3e3c7be5	0.18406637
8	0xbe6b1100	-0.22955704
9	0x3c77b5b7	0.015119008
10	0xbe81e4ea	-0.2536996
11	0x3e118d2f	0.14214014
12	0xbd7e90bb	-0.062149744
13	0xbe50f9cf	-0.20407794
14	0x3ee12ed2	0.43981034
15	0x3e8c0dc5	0.27354255
16	0xbe60ba43	-0.21946053
17	0x3e92027a	0.28517514
18	0x3cd4e4b1	0.025987955
19	0x3f0d8296	0.55277383
20	0x3e2997a0	0.16561747
21	0xbe3a1617	-0.18172489
22	0x3f00d6a1	0.503275
23	0x3e70d46b	0.23518531
24	0x3f09253a	0.5357243
25	0xbe293902	-0.16525653
26	0x3eab8598	0.3350036
27	0x3e74e592	0.23915699
28	0xbebe698e	-0.37189907
29	0x3d54b4b9	0.051930163
30	0xbd6101cd	-0.054933358
31	0xbe39a483	-0.18129162

att_dst f4 [1, 1, 32]
0	0x3c644997	0.013933561
1	0x3d960789	0.07325656
2	0xbd96ce9c	-0.07363626
3	0xbee285db	-0.4424275
4	0xbcff4539	-0.031160938
5	0x3ebe0a5f	0.37117288
6	0x3f18338c	0.59453654
7	0x3dfb074c	0.12257251
8	0xbe8299c9	-0.25507954
9	0x3f01f701	0.50767523
10	0x3c86fe2e	0.016478624
11	0x3ea115e8	0.31462026
12	0x3e377d88	0.1791898
13	0x3e6527f6	0.22378525
14	0x3ee0b72d	0.43889752
15	0xbdfee9b3	-0.12446918
16	0x3e63866d	0.22219248
17	0xbeb86a54	-0.36018622
18	0xbd6fd3f8	-0.05855176
19	0xbebfa24a	-0.37428504
20	0x3eb5f7da	0.35540658
21	0xbe370f39	-0.178769
22	0xbd66f925	-0.056389946
23	0xbecbc425	-0.39798084
24	0xbd7d44ad	-0.061833072
25	0xbe32fa8d	-0.1747839
26	0x3f047363	0.51738566
27	0x3ed8c072	0.42334324
28	0x3f18f254	0.59744763
29	0xbb2df837	-0.0026545653
30	0x3e93592d	0.28778973
31	0x3efcf349	0.49404362

bias f4 [32]
0	0x3e280ee1	0.16411926
1	0xbe714e51	-0.23565032
2	0xbe0d34fe	-0.13789746
3	0xbe0ce9fa	-0.1376113
4	0x3ddb5f6b	0.10711559
5	0xbe737827	-0.23776303
6	0xbe086f6e	-0.13323757
7	0xbe15519c	-0.14581913
8	0xbcac7d06	-0.02105571
9	0xbe0907bc	-0.13381857
10	0xbe9ea45c	-0.3098477
11	0xbe319c20	-0.17344713
12	0xbe0c41fb	-0.13697045
13	0xbe0999e1	-0.13437606
14	0xbe07836a	-0.13233724
15	0x3e100db6	0.1406773
16	0xbeb1cf9b	-0.34728703
17	0xbe6a616c	-0.22888726
18	0x3d61dd0b	0.055142444
19	0xbe43bcad	-0.19114943
20	0xbe414d28	-0.18877089
21	0xbe0573ac	-0.13032407
22	0xbe301855	-0.17196782
23	0xbe42910d	-0.19000645
24	0x3e08cba4	0.13358933
25	0xbe0fc535	-0.14040072
26	0x3e0084cf	0.12550662
27	0xbe62eadd	-0.22159906
28	0xbe1721da	-0.14759007
29	0x3d8e7a8e	0.06956969
30	0xbe4585e6	-0.1928936
31	0xbe044776	-0.12917885

weight f4 [32, 3]
0	0x3dd085bc	0.10181758
1	0x3f026c9c	0.50946975
2	0xbe4878ba	-0.19577304
3	0xbe664fae	-0.22491333
4	0xbe032efb	-0.1281089
5	0x3e234cfc	0.15947336
6	0x3e6ae998	0.22940671
7	0xbd58b977	-0.052911248
8	0x3e7f0cd2	0.24907234
9	0xbd909f2e	-0.07061611
10	0xbeb42fad	-0.35192624
11	0x3dfb8d51	0.12282813
12	0xbcd02375	-0.025407532
13	0x3eea41aa	0.45753223
14	0x3f00183b	0.5003697
15	0xbdc9b3c1	-0.098487385
16	0xbe9d1156	-0.3067729
17	0x3d8cc659	0.06873769
18	0xbe209b2b	-0.15684192
19	0xbda0495a	-0.07826491
20	0xbeb9a602	-0.36259466
21	0x3e349e44	0.17638499
22	0xbda6a389	-0.081366606
23	0xbc2a870a	-0.010408172
24	0x3dff81c6	0.12475924
25	0xbdd4f40f	-0.10398113
26	0x3d2e1bd8	0.042507023
27	0xbeeed8dd	-0.4664983
28	0x3dc69557	0.09696453
29	0x3e6cadbc	0.2311315
30	0x3da003a7	0.07813197
31	0x3c599ea3	0.013282451
32	0xbe8c9c16	-0.27462834
33	0xbda355da	-0.07975359
34	0x3e52eac5	0.2059737
35	0x3c77501a	0.015094781
36	0xbf036d12	-0.51338303
37	0xbe6ab1b3	-0.2291935
38	0xbecea739	-0.40361956
39	0x3e35239c	0.17689365
40	0xbe428c48	-0.18998826
41	0xbe7f439a	-0.24928132
42	0x3e166fa2	0.14691022
43	0xbf0806f3	-0.53135604
44	0xbee085e5	-0.43852153
45	0xbefc4375	-0.49270216
46	0x3cd62780	0.026141882
47	0xbeacecff	-0.33774564
48	0xbdfadf76	-0.12249653
49	0xbe570c31	-0.21000744
50	0x3d4ce1c7	0.050020006
51	0xbec32b02	-0.3811875
52	0xbe9316ec	-0.28728426
53	0xbed3ce9c	-0.41368568
54	0x3e8b9380	0.2726097
55	0xbedbe17f	-0.42945477
56	0xbd594299	-0.053042028
57	0xbd3907c7	-0.045173433
58	0xbe1cba5a	-0.15305462
59	0xbebf1711	-0.37322286
60	0xbe2ad67c	-0.16683382
61	0xbf0887cf	-0.5333223
62	0xbe6ab7d3	-0.22921686
63	0x3d1a6f97	0.037704077
64	0x3e1128e0	0.14175749
65	0x3e89d9c2	0.2692395
66	0xbdf8c0eb	-0.12146171
67	0xbc22fddb	-0.009948219
68	0xbe5e7fe3	-0.21728472
69	0x3e54d66a	0.20784917
70	0xbcbbfcfc	-0.02294778
71	0xbe028ac2	-0.12748244
72	0xbf0f2c2d	-0.5592678
73	0xbea3e6cb	-0.3201202
74	0xbe792225	-0.24329431
75	0xbf0b2957	-0.54359955
76	0x3e56d35a	0.20979062
77	0x3e35d760	0.1775794
78	0x3e974494	0.29544508
79	0xbf0127b8	-0.5045123
80	0x3de1e3ae	0.110297546
81	0xbe97f606	-0.29679888
82	0x3dec9cd2	0.115533486
83	0xbea78e51	-0.32725766
84	0xbcd49388	-0.025949255
85	0x3e34f4d8	0.17671525
86	0x3e0c5368	0.13703692
87	0x3d5584c0	0.052128553
88	0x3dac1dd4	0.08404127
89	0x3e5cf8e5	0.2157932
90	0xbe0faac9	-0.14029993
91	0xbe64f8af	-0.2236049
92	0xbe30db60	-0.17271185
93	0xbe774e68	-0.24151003
94	0xbdef1332	-0.11673583
95	0xbe85ff0d	-0.2617115

weight f4 [32, 1]
0	0xbd1d63e6	-0.03842535
1	0xbbee130f	-0.0072654556
2	0x3dd03d32	0.10167922
3	0x3f0f5bed	0.5599964
4	0xbd6a05e6	-0.05713453
5	0xbee48d4c	-0.4463905
6	0xbeaef6d5	-0.34172693
7	0xbe5eac1f	-0.21745346
8	0x3ec491e0	0.38392544
9	0xbefc411c	-0.49268425
10	0xbe68d988	-0.22739232
11	0xbeb50de4	-0.3536216
12	0xbcafe87e	-0.021473166
13	0xbe099968	-0.13437426
14	0xbea42aaf	-0.32063815
15	0x3e6ec182	0.23316005
16	0xbedfaea5	-0.4368793
17	0x3ef59923	0.47968397
18	0x3d9bf30a	0.076147154
19	0x3f129f20	0.57274055
20	0xbe97b9d6	-0.2963397
21	0x3e2a965d	0.16658922
22	0xbe032986	-0.12808809
23	0x3ecb8588	0.39750314
24	0x3e207e49	0.15673174
25	0xbe2d08fe	-0.16897961
26	0xbeb16b67	-0.34652254
27	0xbee6b6b9	-0.4506128
28	0xbeffa590	-0.49931002
29	0xbd706714	-0.058692053
30	0xbe82c5ee	-0.25541633
31	0xbe836dbd	-0.2566966

att_src f4 [1, 1, 32]
0	0x3e9b92b0	0.3038535
1	0xbebec1f9	-0.37257364
2	0xbe1218f3	-0.1426733
3	0x3ed600d6	0.41797513
4	0xbe96e095	-0.29468217
5	0x3e22f392	0.15913227
6	0x3e12bd2b	0.14329974
7	0x3e915f27	0.28392908
8	0x3ea59836	0.3234269
9	0x3e947147	0.28992674
10	0xbe8d1cbe	-0.2756099
11	0xbebb3978	-0.36567283
12	0xbe69f263	-0.2284637
13	0xbeb899f4	-0.36054957
14	0xbea10912	-0.31452233
15	0x3e9ac3e5	0.3022758
16	0x3ea31967	0.31855318
17	0xbe3b30b6	-0.182803
18	0xbe96f32d	-0.29482403
19	0xbd9ff75b	-0.07810851
20	0x3d50e8ec	0.05100338
21	0x3d6e4380	0.05816984
22	0x3ec030b6	0.37537163
23	0xbe841580	-0.25797653
24	0x3e5535b7	0.20821272
25	0xbe43b52f	-0.19112085
26	0xbdf83251	-0.12118972
27	0x3ec3b996	0.38227528
28	0xbec04f6e	-0.375606
29	0x3e9b0c28	0.30282712
30	0x3d7012f2	0.058611818
31	0x3de4c0e8	0.111696064

att_dst f4 [1, 1, 32]
0	0x3e913719	0.2836235
1	0xbe9bfbec	-0.3046564
2	0xbe0d7513	-0.13814192
3	0xbec37a0c	-0.38179052
4	0x3c98ebea	0.01866718
5	0x3dd8c62d	0.10584674
6	0x3dae5f24	0.085142404
7	0x3e89f293	0.26942882
8	0x3ed83c05	0.4223329
9	0xbe88446f	-0.2661471
10	0x3ebccee7	0.36876604
11	0xbe75cbba	-0.24003497
12	0x3e684123	0.22681098
13	0x3e340d5b	0.1758322
14	0x3e90cc90	0.2828107
15	0x3e0ccd05	0.13750084
16	0x3d114e9f	0.03547537
17	0x3d99e001	0.075134285
18	0xbded6ae3	-0.11592653
19	0x3decfaee	0.115712985
20	0x3d44fb4d	0.04809122
21	0x3bb8cb1b	0.0056394464
22	0xbe2f1bbe	-0.17100427
23	0xbe1d93fd	-0.15388484
24	0x3e74b33f	0.23896502
25	0xbe9df0e9	-0.30847862
26	0xbe302308	-0.17200863
27	0xbe4477e3	-0.19186358
28	0x3e8e99b6	0.27851647
29	0x3e4084a0	0.18800592
30	0xbd0a1152	-0.033707924
31	0x3cf8b84a	0.030361313

bias f4 [32]
0	0xbe039c54	-0.12852603
1	0xbe4f44c1	-0.20241071
2	0xbe5fef33	-0.21868591
3	0xbe0b243e	-0.13588044
4	0xbe04373d	-0.12911697
5	0xbe059787	-0.13046084
6	0x3e432369	0.19056477
7	0xbe230220	-0.1591878
8	0x3e3e7a92	0.18601444
9	0xbe13800d	-0.14404316
10	0xbe0c614f	-0.13708995
11	0xbe1a1be7	-0.15049706
12	0xbe0449f3	-0.12918834
13	0xbe3023b6	-0.17201123
14	0xbe0d710f	-0.1381266
15	0xbe0dcbda	-0.13847294
16	0xbe761756	-0.2403234
17	0xbe79cc24	-0.2439428
18	0xbe5b69e3	-0.21427111
19	0xbe39adec	-0.18132752
20	0xbe05b067	-0.13055573
21	0xbe0496c1	-0.12948133
22	0xbe0f6126	-0.14001903
23	0xbe46c9ec	-0.19412965
24	0xbe3023ae	-0.1720111
25	0x3db62dc3	0.08895447
26	0xbe321894	-0.17392188
27	0xbe55e1ba	-0.20886889
28	0xbe3023b1	-0.17201115
29	0xbe3023b5	-0.17201121
30	0xbe3023b3	-0.17201118
31	0xbde31882	-0.11088659

weight f4 [32, 32]
0	0x3c6507fc	0.013978954
1	0x3e1af728	0.15133345
2	0xbe923648	-0.28557038
3	0xbe137500	-0.144001
4	0xbcf407c2	-0.029788855
5	0xbe065b9e	-0.13120887
6	0xbe33ff2c	-0.17577809
7	0xbe027473	-0.12739734
8	0xbda95b27	-0.08269339
9	0xbe26dbb1	-0.16294743
10	0xbd918a09	-0.07106406
11	0xbeb174b1	-0.3465934
12	0x3dcbfd5d	0.099604346
13	0x3d9a7d56	0.07543437
14	0xbd4c5577	-0.049886193
15	0xbe953a3c	-0.29145992
16	0x3e0a5e32	0.13512495
17	0x3e1f9bfa	0.15586844
18	0xbea6760a	-0.32511932
19	0xbe7a2d27	-0.24431287
20	0x3de322f5	0.11090652
21	0x3ddcd443	0.10782673
22	0x3d209b7d	0.039210785
23	0xbe10030a	-0.1406366
24	0xbe1801c3	-0.14844422
25	0xbeb0198a	-0.34394485
26	0x3e0b7a63	0.13620906
27	0xbe47c0c7	-0.19507132
28	0x3e161f52	0.14660385
29	0x3d03fe47	0.03222492
30	0x3d3a9f23	0.04556192
31	0xbace4d73	-0.0015739634
32	0xbea4ab2e	-0.3216185
33	0xbda1890c	-0.07887468
34	0xbc1a39a4	-0.009413157
35	0x3e7f5a5c	0.24936813
36	0xbcba97bb	-0.022777429
37	0x3d1538e0	0.036431193
38	0xbe193185	-0.14960296
39	0x3e920b80	0.285244
40	0xbe8ba5d4	-0.27274954
41	0xbe18ddeb	-0.14928405
42	0xbe96cb4e	-0.29451984
43	0x3d95dfda	0.07318087
44	0xbe8269c9	-0.25471333
45	0xbd500e3b	-0.05079482
46	0xbe362f3f	-0.1779146
47	0xbe810fa6	-0.2520725
48	0x3e52a365	0.20570143
49	0xbe146dc4	-0.14494997
50	0xbd3d1eaa	-0.04617182
51	0xbddfc511	-0.10926259
52	0xbec8585d	-0.39129916
53	0xbe5a87f6	-0.21340927
54	0xbe3e1cd9	-0.18565692
55	0xbec0db9e	-0.37667555
56	0xbd2f50f2	-0.042801805
57	0x3d931848	0.07182366
58	0x3e061135	0.13092501
59	0xbeba15c0	-0.3634472
60	0xbea7fafc	-0.32808673
61	0xbed1f4f9	-0.41007212
62	0xbe407a23	-0.18796591
63	0xbd2b4e4a	-0.04182271
64	0xbf031645	-0.51205856
65	0x3d50b343	0.050952207
66	0xbe301618	-0.17195928
67	0x3ca05b3b	0.019574752
68	0xbe0f134f	-0.1397221
69	0x3e1e5830	0.15463328
70	0xbde7c74b	-0.11317309
71	0x3db5fdfc	0.08886334
72	0xbf09f5e2	-0.5389081
73	0xbd72f948	-0.059319764
74	0xbf051bbc	-0.51995444
75	0xbe9362c1	-0.2878628
76	0xbc4d593a	-0.01253348
77	0xbc77e3ef	-0.015130027
78	0xbeec4d69	-0.4615281
79	0xbe05e286	-0.13074693
80	0x3e7e0648	0.24807084
81	0xbf0a8035	-0.5410188
82	0x3c697279	0.014248484
83	0xbea27a0a	-0.31733733
84	0xbea810b8	-0.32825255
85	0xbe47fe9d	-0.19530721
86	0x3c16d9bf	0.009207188
87	0xbe60c5f3	-0.21950512
88	0xbcc00a4f	-0.023442416
89	0xbe1b86da	-0.1518816
90	0x3e38cf81	0.18047906
91	0x3e443405	0.19160469
92	0xbee7687e	-0.4519691
93	0x3e34df30	0.17663264
94	0xbe99469a	-0.29936677
95	0xbe0df566	-0.13863143
96	0xbd5afdfe	-0.053464882
97	0xbe1a6816	-0.15078768
98	0x3e19bea2	0.15014127
99	0x3e979838	0.2960832
100	0x3e6c3b26	0.23069438
101	0xbeb6da49	-0.35713413
102	0x3d990d29	0.07473213
103	0xbd05ed96	-0.032697283
104	0xbcf9ed53	-0.030508673
105	0xbe4c41e1	-0.19947006
106	0xbe36afe0	-0.17840528
107	0x3d937c06	0.0720139
108	0x3daf2fb4	0.085540205
109	0x3d2f0435	0.04272862
110	0x3e012ca5	0.12614687
111	0xbec5f831	-0.38665918
112	0x3e8e09fd	0.27741995
113	0x3e028ce0	0.12749052
114	0xbebe398c	-0.3715328
115	0xbec6fc32	-0.38864285
116	0xbe2d1bb6	-0.16905102
117	0xbe464307	-0.19361506
118	0x3e119b83	0.1421948
119	0x3de03c9a	0.10949059
120	0xbe98faef	-0.29878947
121	0xbe1800f1	-0.14844109
122	0xbdec8a16	-0.11549775
123	0xbe81cf1a	-0.25353318
124	0x3e322a90	0.17399049
125	0x3d97ad6a	0.07406123
126	0xbd5e95f0	-0.05434221
127	0x3701d2ae	7.738052e-06
128	0x3d83b2de	0.064306006
129	0xbed069b7	-0.40705654
130	0x3e41306d	0.18866129
131	0xbe82aaa6	-0.2552082
132	0x3eae4919	0.34040144
133	0xbecad152	-0.39612824
134	0x3e10b890	0.14132905
135	0x3e83d34e	0.2574715
136	0xbed06f6e	-0.40710014
137	0xbe9ca44d	-0.30594102
138	0xbdf92571	-0.121653445
139	0xbd1eb61d	-0.038747896
140	0xbc9a86af	-0.01886305
141	0xbe8cbf27	-0.27489588
142	0xbea3ab67	-0.31966707
143	0xbec317b3	-0.3810402
144	0xbe0cf6d0	-0.13766026
145	0xbea83ea1	-0.32860282
146	0x3de21212	0.11038603
147	0xbd99634b	-0.07489642
148	0x3e122cd7	0.14274918
149	0x3b879a63	0.0041382774
150	0xbeafbd60	-0.3432417
151	0xbd52d8b7	-0.051476207
152	0xbe996ab5	-0.29964224
153	0xbd5e7b54	-0.054316834
154	0x3e0536a1	0.1300912
155	0x3e3e6c39	0.18595971
156	0x3eb6a3d1	0.35671857
157	0x3e1ebdfb	0.1550216
158	0x3bf5ec99	0.0075050113
159	0x3e4bee32	0.19915083
160	0xbed85204	-0.42250073
161	0xbed4ccc8	-0.41562486
162	0x3e902550	0.28153467
163	0x3da7edbc	0.08199641
164	0xbcdf5b0e	-0.027265098
165	0xbe3f4a93	-0.18680792
166	0xbcabc5db	-0.020968368
167	0xbe12799b	-0.14304201
168	0xbeacd4d8	-0.33756137
169	0xbec3c50d	-0.38236275
170	0xbef3b40a	-0.47598296
171	0xbeabb0fb	-0.33533463
172	0x3dfb9e19	0.12286014
173	0x3dbce1d0	0.09222758
174	0xbe9231de	-0.2855367
175	0x3d3f7396	0.04674109
176	0x3ca7c026	0.020477366
177	0xbeb7b2cc	-0.358786
178	0xbe5f6e83	-0.218195
179	0x3df6aa45	0.12044195
180	0xbe38ca86	-0.18046007
181	0xbdbaa573	-0.09113588
182	0x3d9dcf58	0.07705563
183	0xbca8a01b	-0.020584157
184	0xbbd18e7b	-0.006395159
185	0xbeb91621	-0.36149696
186	0xbe98f211	-0.29872182
187	0x3c559f43	0.013038459
188	0x3e3e441c	0.18580669
189	0xbd8f1b39	-0.06987614
190	0xbda83b68	-0.08214456
191	0x3e187d34	0.14891511
192	0x3e66758a	0.22505775
193	0x3da0b34c	0.07846698
194	0x3e484fb2	0.19561651
195	0x3e932431	0.2873855
196	0xbe58782d	-0.21139593
197	0x3edb89af	0.42878482
198	0xbda10b27	-0.07863455
199	0xbe4c8745	-0.19973476
200	0xbdac12b3	-0.08402004
201	0x3e552032	0.20813063
202	0x3e7aa40b	0.2447664
203	0x3d97d2f7	0.07413285
204	0xbdd94925	-0.10609654
205	0x3dd2e987	0.10298448
206	0x3ef5e654	0.4802729
207	0xbe086d3b	-0.13322918
208	0x3dc4bb06	0.096059844
209	0x3e78a113	0.24280195
210	0x3e3cd31e	0.1843991
211	0x3bb0c73a	0.0053948434
212	0x3edd13b7	0.43179104
213	0x3e5251b0	0.20538974
214	0xbde0cfc5	-0.10977129
215	0x3e80356e	0.25040764
216	0xbd878620	-0.06617379
217	0xbdb6bded	-0.08922944
218	0xbe347eeb	-0.1762654
219	0x3e4c5d12	0.19957379
220	0x3eed0e12	0.46299797
221	0xbe3f891b	-0.18704645
222	0x3de94257	0.113896064
223	0xbe613041	-0.21991064
224	0xbe16d28b	-0.14728753
225	0xbe2f0a05	-0.17093666
226	0x3def3431	0.116798766
227	0x3e7dc067	0.24780427
228	0xbe04c487	-0.12965594
229	0xbd50f3a7	-0.051013615
230	0xbd3ed370	-0.04658836
231	0x3ae55b7f	0.0017498581
232	0xbe4bdc8e	-0.19908354
233	0xbe9b752f	-0.3036284
234	0xbe9c7ba7	-0.3056309
235	0xbe791d3d	-0.2432756
236	0xbd9a9886	-0.07548623
237	0xbe2df42e	-0.16987678
238	0xbdd1485c	-0.102188796
239	0xbe8cffe9	-0.27538994
240	0x3df5d3fd	0.12003324
241	0xbe8ba4a2	-0.27274042
242	0x3ce5754e	0.028010037
243	0xbe8cba45	-0.27485862
244	0xbdd0efbb	-0.10201975
245	0xbe87e1ea	-0.26539546
246	0x3e0683f3	0.13136272
247	0xbeb0732b	-0.34462866
248	0xbd2ec8c8	-0.04267195
249	0x3d8cc0d5	0.06872717
250	0xbbc890ad	-0.0061207623
251	0x3df13984	0.11778548
252	0x3e1e0fcd	0.15435715
253	0x3e3c6674	0.18398458
254	0x3cc890b4	0.024483062
255	0xbe64b04f	-0.22332881

weight f4 [32, 32]
0	0xbe214a24	-0.15750939
1	0xbe829d0e	-0.25510448
2	0xbd389bbb	-0.04507039
3	0xbe08e135	-0.1336716
4	0xbe87eeb1	-0.26549295
5	0x3e5a5e6e	0.21325085
6	0xbe2a53f9	-0.16633596
7	0x3e5ab0e6	0.21356544
8	0x3e1ae93e	0.15128037
9	0x3e2d3877	0.16916071
10	0x3e30b91c	0.17258114
11	0x3e1dbb29	0.15403427
12	0xbe04d284	-0.1297093
13	0xbdb1ac5e	-0.086754546
14	0xbe9a3cc7	-0.30124494
15	0xbd408840	-0.047004938
16	0x3bc45910	0.0059920624
17	0x3e91a56b	0.28446516
18	0x3df68c41	0.1203847
19	0x3e8fe965	0.28107753
20	0x3d8e87cb	0.06959494
21	0xbe183095	-0.14862283
22	0x3e89230f	0.2678456
23	0x3e1f6118	0.15564382
24	0xbe87fbc4	-0.2655927
25	0xbe63ddc5	-0.22252567
26	0x3e85ac92	0.26108223
27	0x3ccba0aa	0.024856884
28	0x3e2f184c	0.17099112
29	0xbdf278bb	-0.11839434
30	0xbce1b31a	-0.027551223
31	0x3c4d8eb2	0.012546228
32	0x3e49a5b5	0.19692118
33	0xbe603683	-0.21895795
34	0xbdf94773	-0.12171831
35	0x3d35f1d1	0.044420067
36	0x3dcdfae5	0.1005762
37	0x3e4de391	0.20106341
38	0xbe67f962	-0.22653726
39	0xbe9472e3	-0.28993902
40	0x3be2089b	0.0068979985
41	0xbd8b6beb	-0.06807693
42	0xbd97ec28	-0.0741809
43	0x3dfaf9a4	0.122546464
44	0xbd19bef0	-0.037535608
45	0xbe67167d	-0.22567172
46	0x3e77b8d3	0.24191599
47	0x3e25fbd1	0.16209342
48	0xbd9f5303	-0.07779505
49	0x3defcb73	0.11708727
50	0xbdffcfa1	-0.12490774
51	0xbe4973c3	-0.19673066
52	0xbd98c399	-0.07459182
53	0x3d409d9c	0.047025308
54	0xbd34e469	-0.04416314
55	0x3e927d51	0.28611234
56	0x3e9c9b66	0.3058731
57	0x3d7f7794	0.062369898
58	0xbe274b7e	-0.16337392
59	0xbe3353f0	-0.17512488
60	0xbd1c2e24	-0.03812994
61	0xbdf87dec	-0.12133393
62	0xbdf31576	-0.11869328
63	0xbd4ccbbb	-0.04999898
64	0xbe3c1401	-0.18367006
65	0xbe97deca	-0.29662162
66	0x3d1aa35a	0.03775344
67	0x3e215f38	0.1575898
68	0x3e95f359	0.29287222
69	0x3e66445f	0.22487019
70	0xbe71ec0f	-0.23625205
71	0xbe8095c8	-0.25114274
72	0xbcb32c13	-0.021871602
73	0xbe82a895	-0.25519243
74	0xbda7148d	-0.081582166
75	0x3a6a93b1	0.00089483993
76	0xbcc9188c	-0.024547838
77	0x3e4f2647	0.20229445
78	0x3dec6bfc	0.11544034
79	0xbe90a497	-0.28250572
80	0xbe6c3581	-0.23067285
81	0x3dd79876	0.105271265
82	0xbe61ea7c	-0.22062105
83	0xbe0792cd	-0.13239594
84	0x3df64b04	0.12026027
85	0x3e53135a	0.20612851
86	0x3e6525a0	0.22377634
87	0x3e501dc1	0.2032385
88	0x3e79dd1e	0.24400756
89	0x3e8676d7	0.26262543
90	0x3e1617b1	0.14657475
91	0x3e98c9a4	0.2984134
92	0xbd47d4de	-0.04878699
93	0x3dc29e96	0.09502904
94	0xbe058130	-0.13037562
95	0xbe52c978	-0.20584667
96	0x3d435ceb	0.047696035
97	0xbd063a70	-0.032770574
98	0x3e817a36	0.25288552
99	0x3e7d21fe	0.24719998
100	0xbe627cf9	-0.22117986
101	0xbdc8c4b0	-0.0980314
102	0x3e4bacc7	0.19890128
103	0xbe5bb32d	-0.21455069
104	0xbd1101b6	-0.035402022
105	0x3dff2e40	0.12459993
106	0xbd9c4cef	-0.076318614
107	0xbd5ec684	-0.054388538
108	0xbe5e087b	-0.21682923
109	0xbdb3953b	-0.08768698
110	0x3e9235e1	0.2855673
111	0xbdcaa2b9	-0.09894318
112	0x3e8b3efc	0.2719649
113	0xbda4c037	-0.080444746
114	0x3db7da5b	0.08977195
115	0xbd0d48c9	-0.03449324
116	0xbd6cd353	-0.057818722
117	0xbe91d47a	-0.2848242
118	0xbe571013	-0.21002226
119	0xbd803193	-0.062594555
120	0xbe8488d7	-0.2588565
121	0x3e756829	0.23965515
122	0x3dccf83e	0.10008286
123	0x3e8ddee4	0.27709115
124	0xbe9024f7	-0.28153202
125	0xbe23934d	-0.1597416
126	0xbdb71894	-0.08940235
127	0xbe5dbe9a	-0.2165474
128	0x3c089fce	0.008338882
129	0x3e8a52fd	0.2701644
130	0x3e2ec8b0	0.17068744
131	0x3e8a31df	0.26991174
132	0x3e88ecb9	0.26743105
133	0xbd17c66c	-0.037054464
134	0x3dacd635	0.08439294
135	0x3e993677	0.29924366
136	0x3db075fd	0.086162545
137	0x3e99e7fa	0.30059797
138	0xbe0ede96	-0.13952097
139	0x3e0d105c	0.13775772
140	0xbca16998	-0.019703671
141	0x3db38919	0.08766384
142	0x3cf459ec	0.029828034
143	0xbcfd9934	-0.030956842
144	0x3e52bf86	0.20580873
145	0x3e660e45	0.22466381
146	0xbe914e09	-0.2837985
147	0x3e573800	0.21017456
148	0xbd9a294d	-0.07527409
149	0x3d55bbbf	0.052181
150	0x3e5aa13c	0.21350569
151	0xbe867015	-0.26257387
152	0xbe9a8352	-0.30178314
153	0x3e8a0b56	0.26961774
154	0xbe92b2b6	-0.2865197
155	0x3e4f8d9b	0.20268862
156	0xbe8e6abe	-0.27815813
157	0xbe9c911d	-0.30579463
158	0xbe982f5c	-0.29723632
159	0xbe143a41	-0.14475347
160	0x3e941532	0.2892242
161	0x3e128b7a	0.14311019
162	0x3e865589	0.26237133
163	0xbe891254	-0.26771796
164	0x3ca21df0	0.019789666
165	0xbe878105	-0.26465622
166	0xbe001fd6	-0.12512144
167	0xbe75a6a0	-0.23989344
168	0x3d8e75fa	0.06956096
169	0x3e076446	0.13221845
170	0x3bb5bd9c	0.005546285
171	0xbe87acfb	-0.2649916
172	0x3b9f7a91	0.004866906
173	0xbdccec4d	-0.10006008
174	0x3e2e9bd2	0.17051628
175	0x3e98dc6c	0.2985567
176	0xbdf899a1	-0.121386774
177	0xbd1295fe	-0.035787575
178	0x3e884043	0.26611528
179	0xbe95970e	-0.29216808
180	0xbd826828	-0.063675225
181	0x3e286fff	0.16448973
182	0xbe66a8ef	-0.2252538
183	0xbe8b06f5	-0.27153745
184	0x3dfa3556	0.12217204
185	0xbdfb758d	-0.122782804
186	0xbe2bf937	-0.16794287
187	0x3d0512bd	0.032488573
188	0xbd337a27	-0.043817665
189	0x3cfb1163	0.03064794
190	0x3e11478d	0.1418745
191	0xbe8515f7	-0.2599332
192	0x3e8ee16a	0.27906352
193	0x3e054b00	0.13016891
194	0x3e02d41d	0.12776227
195	0xbe899812	-0.26873833
196	0xbd915678	-0.07096571
197	0xbde38802	-0.11109926
198	0xbddac1d3	-0.106815
199	0x3de1cc84	0.110253364
200	0xbd90c31e	-0.07068466
201	0xbd9db61e	-0.07700752
202	0x3dc7edf5	0.097621836
203	0xbe069adc	-0.13145012
204	0xbe45e2f6	-0.1932486
205	0xbc59f873	-0.013303864
206	0x3e157af2	0.14597681
207	0x3e1797fc	0.14804071
208	0x3dd7a251	0.10529006
209	0x3e1f3f5e	0.15551516
210	0xbe5361d5	-0.20642789
211	0x3e2de2f1	0.16981103
212	0x3e3c5c24	0.18394524
213	0x3dfbe56c	0.12299618
214	0x3e780234	0.2421959
215	0xbe7d072c	-0.24709767
216	0xbe25bd4c	-0.16185492
217	0xbe9ab350	-0.3021493
218	0x3dbadf9c	0.09124681
219	0x3d2b29e4	0.041787997
220	0x3e9175ee	0.28410286
221	0xbdacf401	-0.084449776
222	0x3e8fefce	0.28112644
223	0xbe8a905c	-0.27063262
224	0x3d9ce76c	0.07661328
225	0xbe7d9644	-0.24764353
226	0xbe92dee4	-0.28685677
227	0xbde7c49d	-0.11316798
228	0x3e8b95ca	0.27262717
229	0x3e032ff8	0.12811267
230	0xbe7db276	-0.24775109
231	0x3d3c77b7	0.046012606
232	0x3e845c81	0.25851825
233	0x3e60f83e	0.21969697
234	0x3e80066c	0.250049
235	0x3e838d89	0.2569392
236	0xbe4f41ce	-0.20239946
237	0xbd07517d	-0.033036698
238	0x3e5fd35b	0.2185797
239	0xbc7941fa	-0.015213484
240	0x3dde0b97	0.10842054
241	0x3d905262	0.07046963
242	0x3ddb8cbb	0.107202016
243	0x3e64d6dc	0.22347587
244	0xbe0745e4	-0.13210255
245	0x3d170599	0.036870573
246	0x3d7d5248	0.061846048
247	0x3d9dbed3	0.077024125
248	0x3e85fe5c	0.26170623
249	0x3e9142ab	0.28371176
250	0xbcc96814	-0.024585761
251	0x3e8c10b4	0.27356493
252	0x3e6eb833	0.23312454
253	0xbd662a67	-0.05619278
254	0x3e29d0a8	0.16583502
255	0x3d52b81f	0.051445123

att_src f4 [1, 1, 32]
0	0x3e6b1284	0.22956282
1	0x3e28079d	0.16409154
2	0xbdc39105	-0.09549145
3	0x3ef2edc8	0.47447038
4	0x3e141bf2	0.14463785
5	0xbee7f86c	-0.45306718
6	0xbd749c7f	-0.05971956
7	0x3e702790	0.23452592
8	0x3e1bee77	0.15227686
9	0xbeb3ad43	-0.35093126
10	0xbe6f5108	-0.23370755
11	0x3ee1eb4f	0.4412484
12	0x3e5f2a52	0.21793488
13	0x3e714be1	0.23564102
14	0x3d6e4ace	0.058176808
15	0xbefb2a30	-0.49055624
16	0xbde5f75e	-0.11228822
17	0x3e0e074c	0.13869971
18	0x3e69a836	0.22818074
19	0x3da341f4	0.07971564
20	0xbe357c54	-0.17723209
21	0xbf0ed151	-0.5578814
22	0xbe20f554	-0.15718585
23	0x3e6763c1	0.22596647
24	0x3def4ca6	0.116845414
25	0x3e6401f2	0.22266367
26	0xbec6ba5e	-0.38814062
27	0x3f09428b	0.5361716
28	0xbe0c0e41	-0.13677312
29	0xbc8ef45c	-0.017450504
30	0xbf0bc9e6	-0.5460495
31	0x3ec6abe5	0.3880302

att_dst f4 [1, 1, 32]
0	0x3e3a2312	0.18177441
1	0xbe858645	-0.26079002
2	0xbf17d41b	-0.5930802
3	0xbe1ed865	-0.15512235
4	0x3ef68816	0.481507
5	0xbdf89d04	-0.12139323
6	0xbe892691	-0.26787236
7	0xbe2bc692	-0.16774967
8	0x3e6145c3	0.21999268
9	0xbf0e3053	-0.55542487
10	0xbabbc84e	-0.0014326663
11	0xbe640aa1	-0.2226968
12	0x3e61beff	0.22045515
13	0xbe022118	-0.12707937
14	0xbece2a34	-0.40266573
15	0x3d54ec9b	0.051983457
16	0xbed4cd80	-0.41563034
17	0x3eb5300a	0.35388213
18	0x3dfc9376	0.123328134
19	0xbeb84506	-0.3599016
20	0xbe83cfea	-0.25744563
21	0xbea2cd4b	-0.3179725
22	0xbe93344b	-0.28750834
23	0xbe31a0a9	-0.17346443
24	0x3e1472cb	0.14496915
25	0x3d8af9da	0.06785937
26	0xbe7f60f2	-0.24939325
27	0xbe99c8dd	-0.3003606
28	0x3e1bae51	0.15203215
29	0xbf02ca0a	-0.5108954
30	0xbe471a04	-0.19443518
31	0x3d5b5da2	0.053556092
