mlartifacts/403163061964527456/4cfb374961364dd6849f481446c501b1/artifacts/models/data/model.pth (torch, 67072 bytes, 46 tensors)

bias f4 [16]
000000 62 f3 04 40 1a 7f 8d be 5e cf 50 3f 07 4c d9 be
       2.077355 -0.27636033 0.8156642 -0.42440817
000010 e5 25 5a 3c c5 5b e0 bf c5 e3 c0 3e 5e 11 79 3e
       0.013314699 -1.7528006 0.37673774 0.24323031
000020 06 e4 04 40 c9 cf fb 3f d6 df 49 bf 78 99 98 3e
       2.0764174 1.9672786 -0.7885717 0.29804587
000030 e1 bc 88 bf 00 de 64 bf e1 95 4a 3f cd 6d 4b bf
       -1.0682641 -0.89401245 0.7913495 -0.7946442

weight f4 [16, 3]
000000 34 7f 61 3f 4b d1 11 be ce 9b 2d 3f 3c f0 35 3f
       0.8808472 -0.14239995 0.67815864 0.71069694
000010 ee 8a 0a c0 45 42 78 bf 4a 47 31 3f de 60 8d be
       -2.1647296 -0.9697612 0.69249403 -0.27612966
000020 ec f1 0f 3f 10 a7 54 40 2a bc de be 04 b7 42 3d
       0.5622852 3.3226967 -0.43502933 0.04753782
000030 e5 51 24 40 22 fa 6e bf e7 9a 48 be 45 3e d8 3f
       2.5674984 -0.9335042 -0.1959034 1.6894003
000040 08 54 a7 bf 01 c6 a0 bf 65 dc 66 3f 23 76 69 3f
       -1.3072519 -1.2560426 0.90180045 0.9119589
000050 8a f5 c5 3e 35 03 72 bf 45 8f 2c c0 7d 73 42 bd
       0.38663894 -0.94536144 -2.6962445 -0.04747342
000060 54 2e 44 be d8 9f 90 40 ca e5 b6 3f 55 d3 9a 3f
       -0.19158298 4.519512 1.4288876 1.2095743
000070 1a 2a e4 bf a1 9b d6 3e 42 5f 16 bf 0c 0b 87 bf
       -1.7825348 0.4191561 -0.587391 -1.0550246
000080 4c d2 18 bf e7 65 46 c0 f2 b7 76 40 de 8f d7 3f
       -0.5969589 -3.0999696 3.8549771 1.684078
000090 c1 0f 35 bf a0 9c dd be f5 a6 24 bf 7f 94 32 be
       -0.70727164 -0.43283558 -0.64317256 -0.1743946
0000a0 62 73 5d 40 c4 54 7b bf b8 57 b2 3f bd 24 77 c0
       3.4601674 -0.9817622 1.393302 -3.8616173
0000b0 e9 c3 fe 3f 95 91 a8 bf 7e 66 12 bf 99 0f 9c be
       1.9903537 -1.3169428 -0.5718764 -0.3048065

weight f4 [16, 3]
000000 bb d0 48 3f 01 7b 38 3f 9e 83 51 3f 11 1d d3 be
       0.784435 0.7206269 0.81841457 -0.41233113
000010 3e 52 7a 3f 3e 80 ff be 11 c4 39 3f 1b 48 f8 3d
       0.9778174 -0.4990253 0.725648 0.12123128
000020 89 2b 55 3e 6b 4b 67 3f cf 84 86 3e 18 75 7a 3f
       0.20817389 0.90349454 0.262732 0.9783492
000030 8f 37 4c bf b3 32 99 bf 7f ed ea be cc 38 e4 3e
       -0.79772276 -1.1968597 -0.4588432 0.44574583
000040 6f 94 b3 be a9 96 14 3e aa 7b 1d 3f 06 b6 27 3f
       -0.35074183 0.14510597 0.6151682 0.6551212
000050 85 d1 81 3f 7f c3 89 bc e6 b0 47 be fb fa 02 bf
       1.0142065 -0.016816853 -0.19501075 -0.51164216
000060 13 3b 3e bf 7e 22 70 bf 15 bc a2 bc 33 e6 a9 be
       -0.7430889 -0.9380263 -0.019865075 -0.3318344
000070 dd 98 a4 3e 48 99 e2 be 90 a3 8d be b1 e1 a7 bf
       0.32147875 -0.4425757 -0.2766385 -1.311575
000080 d8 4d e0 3e 77 71 a7 bd 55 55 ce be 65 28 ff be
       0.4380939 -0.081759386 -0.40299478 -0.49835506
000090 cf 4a 96 bf e7 3b 83 bf eb c0 1d be 0a 5d 06 bf
       -1.174158 -1.0252656 -0.15405624 -0.52485716
0000a0 56 2c 0e bf 05 03 83 be 49 9c 92 bf ad 95 6f be
       -0.555364 -0.2558824 -1.1453944 -0.2339694
0000b0 ec fe 85 bf c4 07 08 3f e0 54 af 3f 4c 84 c6 3c
       -1.0468421 0.5313685 1.3697777 0.024233006

bias f4 [16]
000000 da b6 8b 3e f1 9d 86 bf 39 d1 08 3f 91 73 63 3f
       0.27287942 -1.051695 0.5344425 0.88848215
000010 dd e8 2b bf 4d 2a 0c 3f 82 8f 34 3f 32 05 72 bf
       -0.67152196 0.54752046 0.70531476 -0.9453918
000020 57 12 89 be 9a 10 98 be 88 c6 33 bf 82 da 76 bf
       -0.26771805 -0.29700166 -0.7022481 -0.96427166
000030 05 09 86 be 3f ae a8 be 69 59 1f bf 68 33 c6 3e
       -0.26178756 -0.3294544 -0.62245804 0.38711095

weight f4 [16, 1]
000000 b3 21 ee 3e ef 16 81 40 22 27 dd 3c 77 9c 55 3e
       0.46510085 4.0340495 0.026996199 0.20860468
000010 db f7 88 be ab 35 0e 3f 32 9f af bd 74 37 d5 be
       -0.267516 0.5555064 -0.08575286 -0.4164387
000020 e3 e3 9b 40 88 0d 0c bf eb 46 a2 40 57 46 a6 be
       4.871568 -0.5470815 5.071157 -0.3247554
000030 3a 1a 4e bf 82 5d ce bf 83 a2 ea 3e 33 0b a2 c0
       -0.8050877 -1.6122286 0.45827112 -5.063867

weight f4 [16, 1]
000000 69 6b b8 bf 9c c6 81 40 df cf 71 3f f4 7e b3 bf
       -1.4407779 4.0554943 0.9445781 -1.4023118
000010 5e 62 0a bf 9b a6 9a 3f 57 39 23 3f 01 fd c0 3f
       -0.54056346 1.2082094 0.6375937 1.5077211
000020 94 e7 06 40 14 f8 ba bf e9 30 54 bd e3 9f 19 40
       2.1078844 -1.4606957 -0.051804457 2.4003837
000030 ae 85 ac bf 20 7a 1f bf bc 0a 82 c0 b4 50 73 be
       -1.3478296 -0.6229572 -4.0638103 -0.23761255

bias f4 [16]
000000 88 c0 0e 40 b5 c7 02 be a1 f4 b5 3f 52 de 42 bf
       2.2305012 -0.12771495 1.421528 -0.76120484
000010 39 9f 54 bf 68 4d 19 c0 9c e8 a2 3f 1a a4 75 3f
       -0.83055454 -2.3953495 1.2727237 0.95953524
000020 dc 0f b5 3f 9b 6d 35 40 90 26 d4 bf b9 3a 4f 3e
       1.4145465 2.8348148 -1.6574268 0.20237245
000030 2e e5 f9 be 31 3a ff be d0 7c dc 3f 0a 87 11 bf
       -0.48807663 -0.49849084 1.722559 -0.5684668

weight f4 [16, 3]
000000 14 b6 80 3e 8f 63 79 3d 2d c7 8c 3f 4b a2 c0 3e
       0.25138915 0.060885962 1.0998284 0.3762382
000010 41 4d 10 c0 c5 9d 16 bf e3 81 8f 3e 9f 1a 03 3f
       -2.2547152 -0.5883449 0.28028783 0.51212496
000020 04 99 4c 3f 9a 11 58 40 34 02 46 bf 7e 84 53 be
       0.79920983 3.3760743 -0.7734711 -0.2065601
000030 bf 08 1e 40 89 3d da bf 77 04 b6 3e 9b c8 d6 3f
       2.4692838 -1.7050029 0.3555028 1.677997
000040 49 31 c9 bf 3d ba 46 bf 42 9c 4c 3e 46 e3 0e 3f
       -1.5718166 -0.7762793 0.19981483 0.5581554
000050 f5 27 6d 3e ad b8 a3 bf 6e 28 30 c0 32 e1 8f bf
       0.23159774 -1.2790734 -2.7524676 -1.1240599
000060 51 db 39 3b a1 4e 91 40 31 69 87 3f 32 45 81 3f
       0.0028359483 4.5408483 1.0578977 1.0099242
000070 4e 7a fd bf 5b 37 a3 3f 59 ae 95 be 9d a9 04 bf
       -1.980295 1.2751268 -0.2923458 -0.5182131
000080 33 fb 54 bf ff 91 17 c0 1a 7f 42 40 ff a8 db 3f
       -0.831958 -2.368286 3.0390077 1.7160949
000090 f0 5b 78 bf 7f d0 2e be a6 4f 3e bf 89 32 64 3e
       -0.97015285 -0.17071722 -0.74340284 0.22284903
0000a0 cc 25 56 40 91 87 e4 be 97 0a 9f 3f 67 4d 40 c0
       3.346057 -0.4463468 1.2425107 -3.0047243
0000b0 e9 db ce 3f 7b 26 80 bf 26 1a 95 bf 3e fb a6 bf
       1.6160861 -1.0011743 -1.1648605 -1.3045423

weight f4 [16, 3]
000000 33 46 48 3f af 8b 08 3f 5c cb 5e 3f 5e 38 c5 3e
       0.78232116 0.5333814 0.8702905 0.38519567
000010 38 f1 33 3f 7c 65 9b 3f 80 49 a1 bf c0 68 65 bf
       0.70289946 1.2140346 -1.2600555 -0.8961296
000020 de 32 c8 3e 52 7a 96 bf 1e 08 7a bf 78 b0 73 bf
       0.3910131 -1.1756079 -0.97668636 -0.95191145
000030 f1 55 de be e2 fc 38 bf 2b 67 34 bf c5 1f 01 40
       -0.43424943 -0.7226087 -0.7046992 2.017564
000040 3c 69 72 3e 02 e6 85 bd d3 c2 fc be 22 73 b8 bf
       0.23672956 -0.06538011 -0.4936739 -1.4410136
000050 0e 46 fd 3e 85 c6 2c bf c7 12 2a bf 31 cb 85 bf
       0.4946751 -0.67490417 -0.664349 -1.0452634
000060 a4 70 fc be cd 0b 56 be cd 52 8a bf c4 9b 78 bf
       -0.49304688 -0.20902939 -1.0806519 -0.9711268
000070 fc c7 2a 3d fa eb 2b bf 73 f7 2d bf 49 6b 30 3f
       0.041694626 -0.67156947 -0.679557 0.68913704
000080 b5 c6 88 bf 96 e5 3a 3e 5c 36 49 3f a7 1f fa bf
       -1.068564 0.18251643 0.7859857 -1.954091
000090 7e 96 58 bf 5f 5b 8a bf d1 27 bd be 17 23 4e bf
       -0.8460463 -1.0809134 -0.3694444 -0.8052229
0000a0 2d ee 94 be 79 e6 48 bf 6a 7d 80 bf 4b 48 b5 bf
       -0.29087964 -0.78476673 -1.0038273 -1.4162687
0000b0 b9 d0 cb bf 8f 26 9f be b7 97 5e 3f 2d ef ae 3f
       -1.5923072 -0.31084105 0.8695025 1.3666741

bias f4 [16]
000000 85 14 22 3f e6 2b b4 3f 52 3f 28 bf 5c aa 3a bf
       0.6331256 1.4075897 -0.6572162 -0.729162
000010 08 4f 0e bf 65 37 12 40 e3 5b 74 bf 8b 56 63 bf
       -0.5558934 2.284631 -0.9545271 -0.8880393
000020 a7 10 39 bf 42 4c b1 bf c3 ba 98 bf b7 3e 65 3f
       -0.72291034 -1.3851397 -1.1931995 0.8954882
000030 29 b0 bd bf 88 ab 47 bf ec 49 df bf ec 1d 02 3f
       -1.4819385 -0.7799611 -1.7444434 0.5082691

weight f4 [16, 1]
000000 55 e9 6b bf 02 c2 a9 c0 f1 75 11 3f 8e 7c b9 bf
       -0.9215291 -5.3049326 0.5682059 -1.4491136
000010 a5 36 7f 40 10 b4 2a 3f 9e e5 45 3f 84 2f 6b bf
       3.9877102 0.66681004 0.77303493 -0.9186938
000020 69 69 d9 3f 29 75 91 40 d9 78 45 3d 29 4e d9 bf
       1.6985294 4.545552 0.048210952 -1.6976978
000030 e8 38 03 bf 96 a0 1d c0 e6 9a 38 40 3d df fb be
       -0.5125871 -2.4629264 2.8844543 -0.49193755

bias f4 [16]
000000 89 95 40 40 05 cf 31 3f ba 2e 6b 3f d2 a0 25 bf
       3.009127 0.6945651 0.91868174 -0.6469852
000010 36 4b c3 be 9b af af bf 04 85 9e 3f 19 40 80 3f
       -0.3814332 -1.3725466 1.2384343 1.0019561
000020 84 2f 3e 40 5b 6e e5 3f 96 ad 8c bf 0c 34 bd 3c
       2.9716501 1.7924303 -1.0990474 0.023096107
000030 78 0b 56 bf 83 7e 13 bf fe ad 39 3f f3 4f 65 bf
       -0.8361125 -0.57614917 0.72531116 -0.8957512

weight f4 [16, 3]
000000 ad 37 ea 3e f9 4a 33 be 10 60 9c 3f 62 a9 54 3e
       0.45745602 -0.17509069 1.2216816 0.2076774
000010 07 f3 40 c0 0a ba 4b bf b5 a4 91 bd dd 94 14 3f
       -3.0148332 -0.7958075 -0.071114935 0.5803965
000020 80 25 c1 3e e4 38 37 40 43 d2 5e bf 50 d3 e7 bd
       0.37723923 2.8628473 -0.87039584 -0.113196015
000030 f5 fb 30 40 35 64 70 bf 5f d4 ba 3e 1c 2c 49 3f
       2.7653782 -0.93902904 0.3649015 0.7858293
000040 a3 93 2a bf 3c 13 c6 bf b3 8c 00 be 57 31 2c 3f
       -0.66631526 -1.547462 -0.12553672 0.67262787
000050 d7 38 76 3f 2e 31 ee bf cb 6c 57 c0 ed fb 53 bf
       0.9618048 -1.8608758 -3.3660152 -0.82806283
000060 b6 a4 03 3e 10 53 91 40 f1 f1 8b 3f 3b ea d6 3f
       0.12855801 4.5413895 1.093321 1.6790231
000070 3a d6 de bf af de 55 3f be 3b 88 bf 68 30 10 bf
       -1.7409127 0.83542913 -1.0643232 -0.5632386
000080 14 9f bd be 34 9a 00 c0 0c c1 3c 40 6c 61 e8 3f
       -0.3703543 -2.0094118 2.9492826 1.8154731
000090 8a 9b a4 bf 05 11 4f bf ec 1a ed be e4 b7 13 3b
       -1.2859967 -0.80885345 -0.46309602 0.0022540027
0000a0 41 4c 70 40 da a9 a0 bd 63 d4 a3 3f 51 dd 5d c0
       3.7546542 -0.078448966 1.279919 -3.466633
0000b0 27 97 cf 3f ea b1 9a bf 7f c2 82 bf 71 13 75 bf
       1.6218003 -1.2085545 -1.0215605 -0.9573279

weight f4 [16, 3]
000000 2e ab 9f 3e 6a bc f8 3d 23 31 21 3f 69 58 d6 be
       0.31185287 0.12145312 0.629656 -0.41864327
000010 ae 86 8d 3e a6 e6 b4 be f3 b9 6d 3f eb c2 69 3d
       0.27641815 -0.3533222 0.9286186 0.057070654
000020 9b 35 75 3f 0e 16 a6 3e 6e 34 84 3f d9 03 90 3f
       0.9578492 0.324387 1.03285 1.1251174
000030 8f ff fb be 42 27 9d be c8 62 e2 bc 2b d3 8a 3e
       -0.49218413 -0.30694014 -0.027634993 0.27114233
000040 0c 41 3b 3f 8f db 69 3f 44 39 2f 3f 8c bb 50 3f
       0.7314613 0.91350645 0.68446755 0.81536174
000050 e4 e2 30 3f 81 44 8d be dc cd 7d bf 72 b3 53 bf
       0.6909621 -0.27591327 -0.9914224 -0.82695687
000060 5c 03 ee be 96 77 28 bf 29 51 6d bf 17 e7 06 bf
       -0.46486938 -0.65807474 -0.92701966 -0.52696365
000070 7b 0d ae be fe 55 81 bf 06 f8 a6 3d 76 c4 fb 3e
       -0.3399466 -1.0104368 0.081527755 0.49173325
000080 f6 8a ff bf 5b 78 36 bf 5e ed 82 bf 9e 1e 1f bf
       -1.9964283 -0.712774 -1.0228689 -0.62156093
000090 8b 9f 8d bf ab 59 4f bf 40 1e 22 bf 13 27 e9 bc
       -1.1064314 -0.809962 -0.6332741 -0.028461015
0000a0 ba 3f 69 bf e2 44 a6 be 04 57 db be d2 35 0a be
       -0.91112864 -0.32474428 -0.42839825 -0.13497093
0000b0 33 54 e2 be 23 17 14 3f ec 6b 81 3f ed 85 a6 3f
       -0.44204864 0.57847804 1.011106 1.3009621

bias f4 [16]
000000 58 f2 86 3f 51 d6 83 bf 72 85 83 3e 69 15 c4 3e
       1.0542707 -1.0299779 0.25687748 0.38297585
000010 7d bb 77 bf c3 e8 68 3f e5 7a cd bd e7 bd 80 bf
       -0.9677046 0.90980166 -0.10033206 -1.0057954
000020 53 03 77 bf 43 94 3f bf 03 eb d2 be a6 64 29 bf
       -0.9648945 -0.74835604 -0.41194925 -0.661692
000030 83 fe 52 bf f4 a1 32 be d5 68 5d bf 78 27 16 3f
       -0.82419604 -0.17444593 -0.86488086 0.58653975

weight f4 [16, 1]
000000 33 bb 73 3f 8c 23 65 40 85 a5 80 3f 70 5a b1 3d
       0.9520752 3.5802946 1.0050513 0.08659828
000010 b6 fb 9d 3e 1c df d2 be 5c 69 bb 3f 2b 73 2d be
       0.30856103 -0.41185844 1.4641528 -0.16938464
000020 21 e7 8f 40 a9 95 58 be cc ad 8c 40 8d a2 2a 3f
       4.496964 -0.21150841 4.3962154 0.6665428
000030 f7 e3 86 3c 6a 39 b7 bf a5 e5 9e bf 84 5c 83 c0
       0.016466124 -1.4314396 -1.2413832 -4.1050434

weight f4 [16, 16]
000000 16 61 3a be 4f 3e cc be 70 d0 93 3d 7e 75 2b 3f
       -0.18201098 -0.39891288 0.07217491 0.66976154
000010 f0 45 33 bf 51 e3 94 3e 46 0d 3d 3e 0a c6 c5 3e
       -0.7002859 0.2907968 0.18462095 0.38627654
000020 72 9f f9 be 38 12 2b 3f e2 6b 20 bf a5 2f 48 bf
       -0.4875446 0.66824675 -0.62664616 -0.781977
000030 0c ff 4c 3f e2 52 39 3f 26 4a 56 3f 9e 20 fb be
       0.8007667 0.72392094 0.8370689 -0.49048322
000040 dd 46 70 be d9 27 31 bf 5b 38 61 3c 53 7c 35 3f
       -0.23464532 -0.6920143 0.013746346 0.7089283
000050 62 ae 1e bf 10 81 11 3f 4b aa d0 3e 6b 07 50 3f
       -0.6198484 0.5683756 0.40754923 0.8126132
000060 3d 16 f3 be 2c d3 0a 3f 90 bb 1a bd 1b 6d 24 be
       -0.47477904 0.5422847 -0.03777653 -0.16057245
000070 65 31 af bc 33 46 3b 3f fd 67 72 3e 0d fb e6 be
       -0.021385858 0.7315399 0.23672481 -0.45113412
000080 70 e4 41 3f 66 55 25 3f 0c a5 ec bd 13 eb 2b bf
       0.7573919 0.6458343 -0.11554918 -0.6715557
000090 78 e3 87 be 58 8a 81 bd 8d 0b 7c 3d fb 5e 16 bf
       -0.26540732 -0.06325215 0.061534453 -0.5873868
0000a0 fd f6 ed bd 52 df cc be cc 41 b9 bc aa 11 47 3e
       -0.11619375 -0.4001413 -0.022614382 0.19440332
0000b0 93 4c a3 3d 1f 4c 2b bf af dd 8e bd 74 a5 d2 3d
       0.0797359 -0.66913027 -0.069758765 0.10285464
0000c0 b5 5b 16 3e 22 99 b9 be 6a 05 24 3f cd 17 1a 3f
       0.14683421 -0.36249644 0.6407076 0.6019257
0000d0 a1 a7 67 be 07 56 d8 be 4f 72 01 3e 6a 80 5a 3f
       -0.22622539 -0.42253134 0.12641262 0.85352194
0000e0 29 80 0c bf f4 ea 48 3f d5 64 98 be 90 a5 65 bf
       -0.54883057 0.7848351 -0.2976443 -0.89705753
0000f0 de bb 11 be a2 57 ce 3e 12 a2 bf bd 97 0c 5c 3d
       -0.14231822 0.40301234 -0.09357084 0.053722944
000100 6e b7 1c bf e7 7e 76 3e d4 1b 55 3f 22 05 23 be
       -0.6121739 0.24071847 0.8324559 -0.15919927
000110 d3 6b 33 3f 68 c3 44 bf cb 9d 28 bf f0 ed 78 3d
       0.700864 -0.76860666 -0.6586577 0.06077379
000120 b5 e0 11 3f 67 d3 25 be 70 e2 39 bf 4f 7f 47 3e
       0.569835 -0.16193925 -0.7261114 0.19482158
000130 f5 74 26 3f d4 94 fa be cd 19 d0 be e9 ea cf 3e
       0.6502221 -0.48941672 -0.40644684 0.4060891
000140 07 dd 8c 3e 43 52 37 bf f2 62 54 3f a8 ad 13 3f
       0.2751238 -0.71609896 0.8296348 0.57686853
000150 77 8c 6e be 81 28 93 bf fb 77 4a 3f 84 c8 15 3f
       -0.2329577 -1.1496736 0.79089326 0.5850909
000160 25 f2 5d 3f 27 f3 3f 3f 4f 80 4c 3f e3 2a fc bf
       0.8669761 0.74980396 0.79883283 -1.9700588
000170 5e 94 d2 3c a8 8a c3 3e 1f 0d 05 3e 3f 10 e8 be
       0.025705513 0.38191724 0.12993287 -0.45324895
000180 2f e1 e6 3e 3e 08 3b 3f 35 11 16 3f c6 4d ae be
       0.45093676 0.7305945 0.58620006 -0.3404371
000190 12 06 7f 3e cf 77 90 be 44 b0 92 be da 23 de be
       0.2490466 -0.28216407 -0.28650105 -0.43386728
0001a0 87 de d8 3e a8 85 f5 be d9 7c 25 bf 1a 57 c9 3e
       0.42357275 -0.47953534 -0.6464363 0.39324266
0001b0 10 e4 45 3e a6 2f ff be 2f ff 34 bf cc f7 97 3e
       0.1932528 -0.4984104 -0.7070188 0.29681242
0001c0 92 ac e1 bf f1 ff 25 c0 33 2f 14 c0 83 e6 1a 40
       -1.7630789 -2.5937464 -2.3153808 2.4203193
0001d0 33 66 cc 3f 0b 84 dd bf 2c 64 c3 bf 54 75 2b 40
       1.5968689 -1.7305921 -1.5264945 2.6790361
0001e0 57 84 d2 3f 21 83 15 40 2f 5a 94 bf 76 b7 9f 3f
       1.6446637 2.3361285 -1.1590022 1.2477863
0001f0 33 3a 73 3f 86 c5 18 40 39 ae 9d bf a9 3e b1 3f
       0.9501068 2.3870559 -1.2318794 1.3847247
000200 4f ae e0 3f 99 63 9e 3f 20 c9 19 3f 9a 4e c3 bf
       1.7553195 1.2374145 0.6007252 -1.5258362
000210 2f 26 4c bf 73 6d 2e 40 b5 32 cf 3f 0d 2e ab bf
       -0.79745764 2.7254303 1.618735 -1.3373429
000220 b8 d5 5f bf 03 3e b7 bf c3 e6 d9 3e 94 fb 50 bf
       -0.87435484 -1.43158 0.4255887 -0.8163388
000230 28 ea fb bf d1 6a af bf 1e f9 b8 3f 50 71 d9 bf
       -1.9680834 -1.3704473 1.4451025 -1.6987705
000240 97 56 95 3f 4d 92 20 3f 0f d2 ac bd 07 05 00 bf
       1.166705 0.6272324 -0.08438503 -0.5000767
000250 76 e7 0c 3f 9d 66 81 be 17 8b 85 be 5c e1 3d bf
       0.5504068 -0.252736 -0.2608268 -0.74171996
000260 5b 13 9d 3e 98 e6 96 be 49 06 2e bf fb 0e 44 bf
       0.3067883 -0.29472804 -0.6797834 -0.7658536
000270 26 a5 f6 3e 5e 68 0c bf ec 9d d5 be fd 88 21 3f
       0.48172873 -0.5484675 -0.41722047 0.6309965
000280 94 5c ad be ed 12 35 3f fe f4 52 bf 46 7a e3 be
       -0.33859694 0.70732003 -0.8240508 -0.44429225
000290 8a a4 a6 3d a0 3d 07 bf aa cc 60 bf 19 fa e2 be
       0.08136852 -0.5282841 -0.8781229 -0.44331434
0002a0 33 13 cc 3d 33 ee d2 be fe ff 7b be a3 75 50 3e
       0.099645995 -0.41197357 -0.24609372 0.20357375
0002b0 aa 2e d5 3e 00 6a 1f bf 3d 9a a0 be d6 06 d8 3e
       0.41637164 -0.6227112 -0.31367674 0.42192715
0002c0 be d5 03 40 18 a2 01 40 96 e1 cb 3f 82 52 13 c0
       2.0599208 2.0255184 1.5928218 -2.3019109
0002d0 d9 87 0f c0 c8 b7 ac 3f 7b 5f 00 40 7c e4 10 c0
       -2.2426665 1.3493586 2.0058277 -2.2639456
0002e0 41 5f ab bf d4 96 e7 bf 56 a6 41 bf ee 0d a1 bf
       -1.3388444 -1.8092904 -0.75644433 -1.2582376
0002f0 44 66 0d c0 d5 4c 0b c0 9c ff 9c 3e 63 18 45 bf
       -2.2093668 -2.1765645 0.30663764 -0.76990336
000300 11 32 11 3e 6e eb 22 3f 63 00 f5 3e d0 a6 03 bf
       0.14179255 0.6364049 0.47851858 -0.5142641
000310 bb 9c 05 3f 04 2b 96 be 2f 8e 82 be 22 61 1f bf
       0.52192277 -0.29329693 -0.25499102 -0.6225759
000320 e1 cb 01 3f e1 3e 41 bf bc 09 06 3f d7 52 4f 3e
       0.5070172 -0.7548657 0.52358603 0.20246445
000330 25 e8 b1 bd 7c 46 d9 be 75 17 2c bf 31 e3 de 3e
       -0.08686856 -0.42436588 -0.6722329 0.43532708
000340 07 29 0f 3f 22 5f c3 3e c8 a5 ba 3e ef f4 7d be
       0.5592198 0.38158518 0.36454606 -0.24800466
000350 71 3b cf be 7b 6e 4c 3f 98 b6 02 3f 11 d5 83 be
       -0.40475038 0.7985608 0.51059866 -0.25748494
000360 7f 50 44 bf 0b ff f5 be 1e 99 e4 bd a5 37 e2 be
       -0.7668533 -0.48046145 -0.11162017 -0.44183078
000370 81 7a 3e bf cc d1 15 be 55 09 a2 bd 70 77 53 be
       -0.74405676 -0.14630812 -0.07911936 -0.2065103
000380 00 ba ed be 85 4c e1 be 6c 95 cc 3e f7 11 d3 3e
       -0.4643097 -0.44003692 0.3995775 0.41224644
000390 ce cc 2d bf af 13 c6 be b9 95 3e bf 1d 71 27 3f
       -0.6789063 -0.38686892 -0.7444721 0.6540697
0003a0 57 88 05 bf 80 ea e3 3e 8c e7 13 be 0f 47 94 be
       -0.52161163 0.44514847 -0.14443797 -0.28960463
0003b0 86 1e b5 3e 46 7a 25 3f 52 16 2c 3f ae f1 26 bf
       0.3537485 0.646397 0.6722156 -0.65212524
0003c0 66 11 3c 3e ba d0 5e 3f a0 ad 4a be 7b a3 5f bf
       0.18366012 0.8703724 -0.19792795 -0.87358826
0003d0 6c c9 5d 3e 94 ab 5d be 84 14 7f be bf 19 21 bf
       0.21658868 -0.21647483 -0.2491017 -0.6292991
0003e0 94 59 2a 3e a7 45 4f bf 81 b5 02 3d 03 9d d0 bd
       0.16635734 -0.80965656 0.031911377 -0.101861976
0003f0 a7 52 85 be d7 0d 0e bf 61 e7 0e bf 53 e3 67 3d
       -0.2603962 -0.5548987 -0.55821806 0.056613278

bias f4 [16]
000000 26 eb 4d bf 2f b1 03 bf 5a 58 49 3f 57 2c 01 bf
       -0.80436933 -0.51442236 0.7865044 -0.5045828
000010 b9 05 c7 3d 68 95 da be 16 e3 38 3f 9a bc 1a c0
       0.097178884 -0.42692113 0.72221506 -2.4177613
000020 5a 64 96 3f 0e 3f 26 3f 75 f7 1e 3f 91 d0 06 40
       1.1749375 0.64939964 0.6209634 2.10648
000030 a7 ae cb 3e d7 3b e0 3e 1c 13 02 bf fc 34 45 3f
       0.39781687 0.43795654 -0.5081041 0.7703397

weight f4 [16, 16]
000000 ba 0e 03 bf 19 7f 38 bf 52 18 d6 be 9e dc b8 3e
       -0.51194346 -0.72068936 -0.4181543 0.36105818
000010 31 c4 ee 3e 31 ce de be 04 5c 37 bf 6f f5 32 bf
       0.46634057 -0.43516687 -0.7162478 -0.6990575
000020 74 bb 5f bf 3e ef 50 bf cf 58 a8 3e 0b db 45 3f
       -0.87395406 -0.81615055 0.32880256 0.7728736
000030 d7 0b 5c bf 32 53 27 bd 69 38 d8 be 82 df de bd
       -0.85955566 -0.040850826 -0.42230538 -0.108824745
000040 b8 1d 14 bf a9 38 f1 be ab ce 03 bf 30 2b c9 3e
       -0.5785785 -0.4711354 -0.51487225 0.39290762
000050 a5 2d e5 3e 34 a9 95 be 06 f5 25 bf 11 d9 76 be
       0.44761387 -0.29230654 -0.64827 -0.24106242
000060 fc b4 32 be 64 5a 0f bf 5c b1 2b 3f 2d af 22 3f
       -0.17451853 -0.559973 0.67067504 0.6354855
000070 ba f9 b6 be 17 3f 47 bd 8d cd 15 bf 18 66 29 be
       -0.357374 -0.04864415 -0.5851677 -0.16542852
000080 95 8e 79 3d 0f b2 84 3f a3 fe e4 3e 1e f2 88 bf
       0.060926992 1.0366839 0.44725522 -1.0698888
000090 75 c5 59 bf 0b 8f 84 3c cf ef 16 3f 33 cf 5e 3f
       -0.8506692 0.01618149 0.5895967 0.8703491
0000a0 3c 70 d6 bd 5e ab 95 3e 0b 52 9d be eb c3 e8 be
       -0.10470626 0.29232305 -0.30726656 -0.45461974
0000b0 15 23 80 3e c5 b8 84 3f da 80 a3 bc 90 ea ce bc
       0.25026765 1.0368887 -0.019958902 -0.025258332
0000c0 fd 1a dc 3e 2a f1 85 bf 8c 3c 05 bf 8e f1 97 be
       0.4298934 -1.0464222 -0.5204551 -0.2967648
0000d0 91 01 ab bd 76 54 b0 be ec 48 04 bf 39 76 1a bf
       -0.08349908 -0.3443944 -0.5167377 -0.60336643
0000e0 71 73 97 3c 66 0e 51 bf 78 2d 9c bc 89 31 2b 3f
       0.018487664 -0.81662595 -0.01906465 0.6687246
0000f0 89 4a 49 be f2 ee 9a 40 fb 0b dd bc 80 fa 6c be
       -0.19657339 4.841668 -0.026983252 -0.23142433
000100 59 76 66 bf ca 7b f1 3e 7f 58 b8 3e 81 f8 6b be
       -0.90024334 0.47164756 0.36005017 -0.23044015
000110 9a c9 06 bf 5a 0c 12 3f 9d 39 03 3f 7e 5b c7 3e
       -0.5265137 0.57050097 0.51259786 0.3893699
000120 4b ff 2b 3f 14 07 09 bf 48 9a f6 3e 79 cb 19 be
       0.6718642 -0.53526425 0.48164582 -0.15019025
000130 86 5d f4 3e 2e 46 83 bd 9f 67 09 bd 38 23 86 3f
       0.47727603 -0.0640987 -0.033546086 1.0479498
000140 f9 d6 78 3e 73 80 f0 3d 75 72 08 bf 62 35 92 bf
       0.24300756 0.1174325 -0.5329965 -1.1422541
000150 e9 ed f4 3e bc 1f 36 be dd 73 44 bf 35 e1 2e 3f
       0.4783776 -0.17785543 -0.76739293 0.6831239
000160 9b 71 d9 bd 98 90 02 3f cb 8a 2e 3f ac 39 b6 3f
       -0.10617372 0.5100188 0.6818053 1.423635
000170 42 fc ac be 6a 59 fa bf b2 2a 65 40 e7 5b fe be
       -0.33786207 -1.9558537 3.580731 -0.4967949
000180 db e5 3d be 93 08 fb 3e 7f 45 18 3f 3d 3a b3 be
       -0.18544714 0.4902998 0.5948104 -0.3500537
000190 73 6d 88 be c1 b7 27 3f 57 e0 35 3f ab a6 25 3f
       -0.26646003 0.6551476 0.7104544 0.6470744
0001a0 2e 30 1e 3f 16 f0 21 3f d0 2a 62 bf ac a0 2c bf
       0.61792266 0.6325697 -0.88346577 -0.67432666
0001b0 a1 43 de 3e ac ff 7b be 92 18 02 3f c7 05 27 bf
       0.43410972 -0.2460925 0.5081874 -0.6524319
0001c0 1d 46 b0 bf 00 f5 33 c0 d4 32 0e c0 86 b3 1e 40
       -1.3771397 -2.8118286 -2.2218523 2.4797072
0001d0 3e 04 1b 40 74 b4 aa 3f d3 10 0a c0 c4 73 32 c0
       2.422134 1.333632 -2.1572769 -2.7883158
0001e0 3a d1 1b c0 50 16 2c c0 7e a8 8a 3f 8a c6 ac bf
       -2.4346452 -2.6888618 1.083267 -1.3498089
0001f0 a4 86 ce 3f c9 81 34 40 53 da 19 c0 fa fb 12 40
       1.6134839 2.8204215 -2.4039505 2.2966294
000200 f4 5f 8b 3f 8f c0 a9 bf 68 1f a4 3f 88 97 15 c0
       1.0888658 -1.3261889 1.2822084 -2.3373737
000210 04 c7 b6 bf 43 6e b8 bf 2f b9 b4 3f 3e 2c 31 bf
       -1.4279485 -1.4408649 1.4119014 -0.69208133
000220 cb ff 26 40 3e b4 90 3f f8 47 e7 bf 56 63 b6 3f
       2.6093624 1.1305006 -1.8068838 1.4249065
000230 4a f7 72 bf 8d 95 bb bd 3e 25 37 3f 93 dc aa bf
       -0.94908583 -0.09159384 0.715412 -1.3348564
000240 25 57 3c be 38 90 ad be ee f5 26 3f f8 62 42 be
       -0.18392618 -0.33899093 0.6521901 -0.18983066
000250 d3 f0 06 bf 9d 38 a1 3e 62 2a c6 3e bd 76 84 3e
       -0.5271122 0.31488505 0.3870421 0.2587184
000260 d5 2f 11 3f de 4b da 3e dd 85 91 3e 95 cc 1f bf
       0.5671361 0.42636007 0.28422442 -0.6242154
000270 91 67 6a 3e 4e a1 fd be 1a 49 f9 3e 0f 14 83 bf
       0.2289107 -0.49537128 0.48688585 -1.0240496
000280 b5 ef e1 be 62 ab ac 3f 3b 5b d6 3e 87 29 40 c0
       -0.44128194 1.3489802 0.41866478 -3.0025346
000290 e7 67 29 c0 2b 23 5b bf cb d0 b0 3e b0 9e 0b be
       -2.6469667 -0.8560054 0.34534296 -0.13634753
0002a0 ca 89 8d 40 ec 6c 41 bf c4 dc 01 bf a6 5f 52 40
       4.42307 -0.75556827 -0.50727487 3.287088
0002b0 c0 9f 96 3e 29 8c 36 40 ce e9 07 c0 be f6 03 3f
       0.29418755 2.8523047 -2.1236453 0.51548374
0002c0 80 bb 1c 40 77 58 1c 40 67 d6 05 40 59 81 b7 3f
       2.448944 2.4428995 2.091211 1.4336349
0002d0 e1 79 48 bf 0a 9a e7 bf 8b 72 0b 40 79 c3 4d 3f
       -0.7831097 -1.8093884 2.1788661 0.8037639
0002e0 e8 e8 eb be 50 de e1 3f 02 66 2b c0 4c 85 e6 be
       -0.4607613 1.7645969 -2.678101 -0.45023572
0002f0 4f 2a e6 bf fc cf 22 c0 b3 33 f2 3f 0c 86 1a c0
       -1.7981662 -2.5439444 1.8922027 -2.4144316
000300 e9 96 94 bd 8c e4 04 3f 0d 10 49 3f 50 33 15 bf
       -0.07255346 0.51911235 0.78540117 -0.5828142
000310 b5 40 1a bf 65 3a 89 3e 50 34 2a 3f 27 13 bf 3e
       -0.60254985 0.26802364 0.6648607 0.373193
000320 88 0b 8d 3e de e9 0c 3f 3e e7 3a bf e0 29 f3 be
       0.2754786 0.55044353 -0.730091 -0.47492886
000330 b0 6e 07 3f 6f 45 a6 be c3 df 9d 3e 99 24 0f 3a
       0.5290327 -0.3247485 0.3083478 0.00054604706
000340 41 74 d9 3e 3f 27 c7 3f e7 5b 92 3e 38 b7 da 3f
       0.42471507 1.5558852 0.2858574 1.7087164
000350 2e 56 e2 3e 91 b9 ac bd b0 9d bf 3e d7 a2 4f bf
       0.44206375 -0.084338315 0.37424994 -0.8110785
000360 68 d6 5a c0 39 6e 74 3f c9 19 b2 be 2d 40 18 be
       -3.4193363 0.95480686 -0.34785298 -0.14868231
000370 2b 97 ce be 0d ed ca bf 9a b8 dd 3e f3 74 76 bf
       -0.40349707 -1.5853592 0.43304902 -0.962722
000380 aa f0 bd be 1f 0f 1e bf d3 c5 08 bf 6c 4c 4e 3f
       -0.37097675 -0.6174182 -0.53426856 0.8058536
000390 6e cb a7 3e 8d 45 03 3f d5 c8 2f bf 25 05 17 bf
       0.32772392 0.51278 -0.6866582 -0.58992225
0003a0 05 55 bd be 3b 27 ba bd a4 11 3c 3f a7 27 21 3f
       -0.36978927 -0.09089514 0.7346442 0.6295113
0003b0 32 3d 2a bd 02 04 76 bf 2b e5 68 3e cd c7 12 3e
       -0.041562267 -0.96099865 0.2274367 0.1433403
0003c0 9f f5 bd be 01 f5 3e 3d b8 3a 5d 3f df d1 20 bf
       -0.37101457 0.046620373 0.8641772 -0.6282024
0003d0 35 44 0d bf 9b 81 fd 3e 9e 75 0a 3f 8a d4 9e 3d
       -0.551822 0.49512944 0.5408572 0.07755382
0003e0 75 e6 64 3e 16 10 67 3f f4 ea 1e be 11 24 3b bf
       0.22353537 0.9025892 -0.15519315 -0.7310191
0003f0 51 d3 30 3e 7a 7b a4 be 5b 31 2f 3e 9e dd 5f be
       0.17268111 -0.32125455 0.17108671 -0.21861884

weight f4 [16, 16]
000000 ad 16 4f bd fa b2 dc be a7 7b 52 3f 9e b0 68 bf
       -0.050558735 -0.43105298 0.8221993 -0.90894496
000010 f6 9f 1c bf a3 e0 ad 3e a5 3d 64 3f 26 13 f4 3e
       -0.6118158 0.33960447 0.8915656 0.4767086
000020 7b 91 10 3f 2c b1 7e 3f 92 3c 33 3e d4 80 6d bf
       0.56471986 0.9948909 0.17503574 -0.927747
000030 fe b3 d7 3e c7 30 6c 3e da 3b 74 3e 60 64 9e be
       0.4212951 0.23065482 0.23850957 -0.30935955
000040 38 47 5a 3f 70 eb 39 be 46 68 6d 3e e9 dd 8c bd
       0.8526492 -0.18156219 0.23184308 -0.068782635
000050 33 2a 03 3f 9e a6 6b bf 22 0f 23 3e bf e3 75 bf
       0.51236266 -0.9205111 0.15923741 -0.9605064
000060 25 14 20 bf cd 66 54 bd 2b 21 81 bf b2 25 89 bd
       -0.6253074 -0.05185585 -1.0088247 -0.06696643
000070 73 fe 7d bf 74 c7 d3 3e cd 00 54 bf 75 94 4a bf
       -0.99216384 0.41363108 -0.8281372 -0.7913278
000080 82 2d 9e be b7 07 70 3f 47 56 13 bf 69 b1 3e 3f
       -0.30894095 0.9376177 -0.57553524 0.74489456
000090 0c c6 12 be 87 c0 66 3e a8 d0 1b bf fa 6d c5 3e
       -0.14333361 0.22534381 -0.6086526 0.38560468
0000a0 d2 06 8c 3e 13 11 d4 be 19 e1 70 3e 8b 56 56 3f
       0.27348953 -0.41419277 0.23523368 0.83725804
0000b0 49 f5 f0 3e 91 d5 d8 be 63 ea 21 3f ae 45 e7 3e
       0.47062138 -0.42350438 0.6324827 0.4517035
0000c0 59 e8 41 3f e9 7e ab be 3d 5a 4b 3e 25 37 09 bf
       0.7574516 -0.33495262 0.19858642 -0.5359977
0000d0 55 e2 ec be 54 27 97 be 1e 52 98 3e 51 74 cc be
       -0.46266428 -0.29522192 0.2975015 -0.39932492
0000e0 00 27 71 3d 98 e1 ed 3e d1 68 02 bf de 04 1b bf
       0.058875084 0.46461177 -0.5094119 -0.605543
0000f0 17 fa 94 be 49 b3 76 3f 54 ef 82 bf a7 c3 4f bf
       -0.29097053 0.9636732 -1.0229287 -0.81157917
000100 ad 1f 0d c0 3b 54 d4 be 2a 43 13 bf 22 d9 21 bf
       -2.2050583 -0.41470513 -0.5752436 -0.63221943
000110 12 5b f7 bf 8d e2 4c 3f 07 df ed bd fd a2 f5 bf
       -1.9324667 0.8003319 -0.11614805 -1.9190365
000120 03 26 a6 3e 3b c2 1d be f3 20 67 3f 1b 7f 8e bf
       0.32450876 -0.15406124 0.9028465 -1.113254
000130 1f a8 ad 3f 67 43 7d bf 41 1d a4 40 37 4f b5 3f
       1.3566931 -0.9893097 5.128571 1.41648
000140 fd 9e a5 3f d4 4a 02 bf 7e ea a0 3d 1f 43 12 be
       1.2939144 -0.5089543 0.07857226 -0.14283417
000150 e8 da 0d 3f d4 9f 41 bf db e7 d8 bd 2c 52 95 bf
       0.5541215 -0.75634503 -0.10591098 -1.1665702
000160 d4 f1 13 be e5 1f bb bd 76 5c 84 bf 4d a4 3b 3e
       -0.14447719 -0.09136943 -1.0340717 0.18324395
000170 67 89 81 bf 59 5f a2 3e 61 0d 5c bf d7 c5 39 bf
       -1.0120057 0.3171337 -0.85957915 -0.72567505
000180 6d 3d 81 3f c5 df 07 bf 22 97 b7 3e ad bb 81 bd
       1.0096871 -0.5307582 0.35857493 -0.063346244
000190 56 d3 52 be 74 44 56 bd 28 fa 0e 3f 9d ea 5c bf
       -0.20588431 -0.052311376 0.5585046 -0.8629549
0001a0 b6 95 06 3f eb 35 1d 3f be 8f 79 bf f2 6b 09 be
       0.5257219 0.614104 -0.9748496 -0.13420084
0001b0 01 69 6c bf d8 88 48 bd f7 b0 b7 bd 21 ea 5a bf
       -0.92347723 -0.04895863 -0.089693 -0.855135
0001c0 4f b3 3d 3d 02 f0 a9 3f 0a c1 58 be c3 a0 30 be
       0.04631358 1.327637 -0.21167389 -0.17248826
0001d0 3e e2 a9 3e 70 fd f3 be 74 e8 bd be 34 70 13 bd
       0.33180422 -0.47654295 -0.3709141 -0.035995677
0001e0 51 78 43 3e 18 d7 96 bd 67 36 0b bf 36 3a a5 3e
       0.19088866 -0.073652446 -0.54379886 0.32270974
0001f0 f7 ee e1 be 60 73 60 3f 4a bb 6f bf 14 23 19 bf
       -0.44127628 0.8767605 -0.93645155 -0.5981915
000200 53 da 10 bd 2b 0d 31 bf d3 72 65 3f cf 51 1f bf
       -0.03536446 -0.6916072 0.8962833 -0.62234205
000210 7f f1 e0 be 28 77 48 bd 76 7a 3a 3f 7d e9 44 be
       -0.43934247 -0.04894176 0.7284311 -0.19229694
000220 4d a4 4d 3e 58 b5 5d 3f f3 76 2e be e2 39 30 bf
       0.20082207 0.86604834 -0.17037563 -0.6883832
000230 7b 12 37 be 2a 12 6f bd 25 97 a4 3d de f5 e9 bd
       -0.17878143 -0.058366932 0.08036641 -0.114238486
000240 0b dc 1e be 00 8d ab be 7d 94 de 3e 97 54 ae be
       -0.15513627 -0.33506012 0.43472663 -0.34048912
000250 a1 a4 18 bf 69 cf df 3e e9 9d 97 3e 87 58 89 3e
       -0.59626204 0.4371293 0.29612663 0.26825354
000260 fa ec d1 3e 2b c6 10 3f b3 45 3f 3e 02 37 33 bf
       0.4100111 0.5655238 0.18678932 -0.7000581
000270 6e f7 68 3e 10 94 7a 3f b9 23 40 bf 69 10 b9 3e
       0.22750637 0.97882175 -0.7505451 0.36145332
000280 7f 95 17 bf bc b7 77 3f 41 23 0e bf e2 08 91 3e
       -0.5921249 0.9676473 -0.55522543 0.2832709
000290 87 3d 75 bf ef 30 34 3f bf 65 df be 10 6b 57 3f
       -0.9579701 0.70387167 -0.43632314 0.8414774
0002a0 40 1d 90 3e a4 3a 26 bf 97 8d a2 3f 99 31 b8 3e
       0.28147316 -0.6493323 1.269946 0.3597534
0002b0 85 98 9a 3f ba 2a 59 3e 6a a2 5b 3e 95 81 5a 3f
       1.2077795 0.21207705 0.21448675 0.85353976
0002c0 ad 4a 25 bf c9 77 4c 3e f1 4c 18 be af 48 b8 3e
       -0.6456707 0.1996757 -0.14873101 0.35992953
0002d0 3b 83 11 bf b4 9e 65 3f 23 78 bf be 0e 99 64 3f
       -0.56840867 0.89695287 -0.37396345 0.8929604
0002e0 c0 9a 0f 3f f3 0c 12 be bb 99 48 3f 2d 80 cd 3d
       0.56095505 -0.14262752 0.78359574 0.10034213
0002f0 a0 46 25 3f ee 74 2c bf fb 48 8d 3f 12 d3 15 3f
       0.6456089 -0.6736592 1.1037897 0.5852519
000300 f2 2e 56 bd 60 74 a5 be 10 ca 67 3f 62 39 23 bf
       -0.052290864 -0.3231535 0.905427 -0.63759434
000310 d3 bd 42 bd 45 d7 6a be 59 fa 67 3f e5 77 b6 be
       -0.04754431 -0.22933681 0.90616375 -0.35638347
000320 d3 00 2b 3e 43 96 57 3f f9 9a ed 3d 68 63 4d bf
       0.16699533 0.84213656 0.11601824 -0.80229807
000330 17 65 7a bd 32 58 c0 bb 0e 14 62 3e a0 3f 24 3e
       -0.061131563 -0.0058698887 0.22077963 0.16039896
000340 51 14 6e 3f c3 79 13 bf 18 19 e7 3e 3b 06 b1 be
       0.9299975 -0.5760767 0.45136333 -0.34575066
000350 ef d0 2b be 6a fc 4e bf 0d 9b 90 3e 34 6b 4a bf
       -0.1677892 -0.80853903 0.28243294 -0.7906983
000360 2a 5d 76 3e 9f fe 99 3e 0c 3b 47 bf 26 d9 b0 bd
       0.24058977 0.30077073 -0.77824473 -0.08635168
000370 a8 c8 33 bf be f9 aa 3d 34 e2 d6 be 0a dd 54 bf
       -0.7022805 0.08348416 -0.41969454 -0.8314978
000380 c5 d6 d6 be ec 24 4c 3f 18 42 46 bf 8c cf 68 3f
       -0.4196073 0.7974384 -0.774446 0.9094169
000390 e4 19 b0 3e a9 cc 82 bd 9a 7f 24 bf f9 0c 3e 3e
       0.34394753 -0.06386692 -0.64257205 0.18559636
0003a0 88 72 fd be 6a a3 0b bf ef ba 0d 3e 53 78 7e 3f
       -0.49501443 -0.54546225 0.13840841 0.9940235
0003b0 4a 13 ca 3c cd 95 91 be a5 e5 2a 3d 43 06 80 3e
       0.0246674 -0.284346 0.041722912 0.25004777
0003c0 09 97 26 be ae c9 97 3f 64 44 75 bf 89 9d 83 3f
       -0.16268553 1.1858423 -0.9580748 1.0282451
0003d0 3c 08 75 3f c6 18 cb be 22 5f 5e bf 3f b7 87 be
       0.9571569 -0.39667338 -0.8686391 -0.26506993
0003e0 51 e1 cf be ea 5b 78 bf ba 30 31 3e 6f 2e 60 3f
       -0.4060159 -0.9701525 0.17303744 0.8757085
0003f0 7d 9f aa be 33 a8 0c bf 81 a9 3c bd cf 04 ae bd
       -0.33324805 -0.5494415 -0.04606009 -0.08497011

bias f4 [16]
000000 dd 08 7f 3f 64 4c 2d be 38 1d 5c be 4e 24 17 3f
       0.996229 -0.16923672 -0.21495521 0.5903977
000010 3f 6e ee bd a2 cb ab 3d d2 1b 58 3f 70 29 fe be
       -0.116421215 0.08388449 0.8441745 -0.4964099
000020 2c 3d 60 3f c6 72 2e 3f 88 63 45 be fa 91 04 3e
       0.8759334 0.6814388 -0.1927625 0.1294631
000030 da 98 67 3f b3 2a f1 3e cd f0 5f bf 01 99 63 bf
       0.9046761 0.4710289 -0.8747681 -0.8890534

weight f4 [16, 16]
000000 c1 cb 6a 3f cf 0b 79 3e fa 1c f0 3e d4 c7 91 3f
       0.91717154 0.24320911 0.46897107 1.1389108
000010 78 15 d1 be 67 d2 3c 3f 72 44 45 3f c9 2a f6 be
       -0.40836692 0.7375855 0.77057564 -0.48079517
000020 03 3e 37 be d5 7a 97 be 12 66 af bd 3a f6 f3 be
       -0.1789475 -0.295859 -0.0856439 -0.47648793
000030 c6 b1 03 bf 27 5c 0a be d3 0f 31 3d cb f9 77 be
       -0.51443136 -0.13511716 0.04322798 -0.24216382
000040 30 42 65 3e 57 eb f1 be 51 f2 7a 3e be 61 f2 3d
       0.2238853 -0.47249863 0.24506499 0.11835049
000050 23 5b 47 bf 8a 55 a8 bd 21 0a a8 bd 2e 09 a0 be
       -0.7787344 -0.0821944 -0.08205057 -0.31257004
000060 c9 fa 48 bf 2a ca 88 bf 1b 26 31 bf 4c 42 3d bf
       -0.7850767 -1.0686696 -0.6919877 -0.73929286
000070 a7 d1 3f bf 38 c0 66 3c c3 42 5f bf 73 d4 4a be
       -0.7492928 0.014083914 -0.87211245 -0.19807605
000080 a9 de 3a bf 8c a1 76 3f 9a 77 7c bf 2d 21 be be
       -0.72996 0.9634025 -0.9862 -0.37134686
000090 16 56 2a 3f 04 04 a4 be be 57 a8 be aa 80 5f 3e
       0.66537607 -0.32034314 -0.32879442 0.21826425
0000a0 6f cb 22 3f 51 12 0d 3f 9e 95 73 3f ea 75 35 3f
       0.63591665 0.55106074 0.9515017 0.7088305
0000b0 37 50 50 3f b7 d6 8e 3c 07 1f cf 3e 95 89 99 3e
       0.813724 0.017436368 0.4045336 0.2998778
0000c0 f0 dc 01 3f e9 2f 12 3d b3 21 01 3f 9f d8 1b 3f
       0.5072775 0.035690222 0.50442046 0.6087741
0000d0 af c0 7e bf 24 38 25 3f 3a 2c c3 3e 05 11 35 bf
       -0.9951276 0.6453879 0.3811968 -0.70729095
0000e0 b7 e3 87 bf b3 b7 6f bf cb 31 a4 3d b1 7f 30 bf
       -1.0616368 -0.9363968 0.0801731 -0.6894484
0000f0 bd 37 75 bf 0e 68 16 be ad 6c 3e be 79 29 4d bc
       -0.95788175 -0.14688131 -0.18596144 -0.012522095
000100 07 a9 1e be 50 18 54 40 52 23 09 3e 51 5a 32 3d
       -0.15494166 3.313984 0.1339238 0.043543164
000110 cb be 86 3f 48 ce 73 3b b4 c3 75 3e 02 bf 09 3f
       1.0526975 0.003720181 0.24000436 0.5380708
000120 31 d4 5e 40 0a 0c 72 3f dc ee 38 40 26 e9 9a 3f
       3.4817011 0.9454962 2.8895788 1.2102401
000130 6f 7e 65 3f 05 46 97 bc a5 12 3a 3f 12 95 d8 bf
       0.8964605 -0.018466005 0.726847 -1.6920493
000140 2e 05 a7 bd 90 83 bb be e4 bb d9 3d 55 e1 10 be
       -0.08155285 -0.36623812 0.106315404 -0.14148457
000150 4f 7a 7b bf 57 57 e0 3d 7a cd 78 3d 80 fa 29 be
       -0.98233503 0.10954159 0.060742833 -0.16599464
000160 2c f6 57 bf 1f 20 5e bf 5e 60 5e bf d7 5b 8c bf
       -0.84360003 -0.8676776 -0.86865795 -1.0965527
000170 e1 a7 9d bf 5e 0b be be 20 04 77 bf 8d 58 20 3e
       -1.2316858 -0.37118047 -0.9649067 0.1565878
000180 d4 89 2b 3f 96 f8 0f 3f 7f 94 d4 3e e6 e4 0c 3f
       0.67007184 0.5623869 0.41519544 0.5503677
000190 23 42 be be 05 9f 46 3f 2e 9f 1f 3f 9b c7 c4 be
       -0.37159833 0.77586395 0.62352264 -0.38433537
0001a0 ee 4b 3d bc 96 f8 63 be f5 be 46 3f d9 6c f9 be
       -0.011553748 -0.22262797 0.7763513 -0.48715857
0001b0 2b 1c 06 bf 88 88 2c bf e1 0e 3c bf 21 7c 39 bf
       -0.5238673 -0.6739583 -0.73460203 -0.7245503
0001c0 da e3 72 be 5e a7 83 c0 83 01 a3 3e 1e b6 17 be
       -0.23719731 -4.1141806 0.3183709 -0.14815566
0001d0 7d 57 14 bf d4 8a ef be 94 ad 8f be 3a 9a d4 be
       -0.57945997 -0.46785605 -0.28062117 -0.41523916
0001e0 6f 4e 96 c0 9a 58 5b bf a7 40 79 c0 91 38 45 bf
       -4.6970744 -0.8568207 -3.894571 -0.7703944
0001f0 c2 8b 0c bf b5 3f 5b 3f f5 ed f8 3e 81 12 c3 3f
       -0.54900753 0.85644084 0.48619047 1.5240022
000200 f0 31 83 3f 82 7a 9c 3e 54 7d 30 3f 16 b3 6b 3f
       1.0249615 0.30562216 0.68941236 0.9207014
000210 3a e7 86 3e 80 d8 45 3f 8f 32 56 3f 81 3e 4a bf
       0.26348287 0.7728348 0.83670896 -0.79001623
000220 00 9d 7e 3e a3 9e a4 be cc 2e 6c 3e 24 3c 4b bf
       0.24864578 -0.3215228 0.23064727 -0.7938864
000230 9c df ed 3d fe f4 31 bf b2 3d 7b be a0 c0 42 bf
       0.11614916 -0.69514453 -0.24535254 -0.7607517
000240 f3 4b a3 3e 77 1f 01 3f 6d 59 5a 3f f7 85 19 3f
       0.31893882 0.50438637 0.852927 0.5997004
000250 42 6b 73 bf ab 3f a8 3e 9d fd 1d 3f 04 87 31 bf
       -0.9508554 0.32861075 0.6171511 -0.6934664
000260 63 3c 25 bf 7c 82 62 bf f0 ea ae be 28 c2 7c bf
       -0.6454527 -0.88480353 -0.34163618 -0.9873376
000270 af ec 31 bf e2 77 30 3f bb 8d 56 bd 3e c3 a2 3d
       -0.69501776 0.68932927 -0.05238126 0.07947396
000280 bd bd 9e be 7f 83 16 3f 5b 95 3e be 6d 68 83 be
       -0.31004134 0.587944 -0.18611662 -0.25665608
000290 00 d1 5f 3f 93 2e 6c 3e 6e 98 5a 3d 82 5d 92 3c
       0.87428284 0.23064642 0.053368025 0.017866854
0002a0 23 ac 06 3f 93 a3 cd 3c ab d2 57 be 21 7e 87 bd
       0.5260641 0.025102412 -0.21076457 -0.06615854
0002b0 fe d4 87 3f 17 75 58 3f b4 8f 3c 3f 60 74 50 3f
       1.0611875 0.84553665 0.73656774 0.81427574
0002c0 fd 81 c1 bc a0 88 82 3f 2c 69 00 be d4 d7 c0 bd
       -0.023621554 1.0197945 -0.1254012 -0.09416166
0002d0 da 32 51 3f c0 3c b5 3d fe 84 b1 bd 20 68 c6 3d
       0.8171822 0.08849478 -0.08667944 0.09687829
0002e0 53 3b 5d 3f 3c 67 34 3f 8b 30 1b 3f 55 de a9 3e
       0.86418647 0.70470023 0.60620946 0.33177438
0002f0 d4 33 73 3f 09 d4 f6 3d 5c bd 89 3f ac 20 cb bd
       0.9500096 0.12052161 1.0760913 -0.09918341
000300 83 3a 79 3f 64 81 06 3d bb a8 46 3f b3 5e 88 3f
       0.97354907 0.03283824 0.7760121 1.06539
000310 43 c5 ed be d6 34 36 3f 16 c2 42 3f 41 1c 86 bf
       -0.4643956 0.7117437 0.760774 -1.0477372
000320 2e 44 53 bf 44 e1 51 bf 5c 64 0d bf 08 ac 1f bf
       -0.8252591 -0.81984353 -0.5523126 -0.62371874
000330 5f e9 a5 be 79 92 c7 bd 8c d9 7f be 12 f7 78 be
       -0.3240461 -0.09744734 -0.24985331 -0.24313
000340 e7 65 e8 3e 9b 1f 07 3f ad 2f 6b 3d e9 df e3 3e
       0.45390245 0.527826 0.057418514 0.44506767
000350 c8 49 0e bd 86 36 fe 3e e6 53 41 3f 9a 7f 48 bf
       -0.034738332 0.49650973 0.75518644 -0.78319705
000360 d6 3c 07 be 14 4f 1f bf 24 81 91 bd 5d 0c f6 be
       -0.13206801 -0.6223004 -0.0710471 -0.48056307
000370 ce b6 e8 be 81 46 3c bf 7f 7b b9 be a5 b3 11 bf
       -0.4545197 -0.7354508 -0.36227033 -0.5691474
000380 ed be 1d bf c1 60 3c bf ff 98 23 bf bf fa 39 bf
       -0.61619455 -0.73585135 -0.6390533 -0.72648233
000390 67 03 91 be ad da 0e bf cf 04 63 bf b7 98 22 3f
       -0.28322908 -0.5580242 -0.8867921 0.63514274
0003a0 17 e2 31 be 12 82 47 3f 53 3e ca 3e 8a d5 61 3f
       -0.17371403 0.77932847 0.39500675 0.8821646
0003b0 46 0d 23 be f3 f4 45 3f 20 6c ed 3c ae 55 31 3f
       -0.15923032 0.7732689 0.028982222 0.6927136
0003c0 3f 4d 52 bf 69 24 ca bd 1e b5 83 bf f8 28 3f bf
       -0.8214912 -0.09870226 -1.0289648 -0.7467189
0003d0 3e 62 3e 3f 77 7e 71 bf 85 b8 90 bf ae 68 88 3f
       0.74368656 -0.94333595 -1.1306311 1.0656946
0003e0 8a ae d0 3e 7a 0b 2c 3f c9 df 21 3f d4 33 32 3f
       0.40758163 0.6720501 0.63232094 0.69610333
0003f0 a2 cc cb 3e df f1 95 be 95 a9 43 3d e2 37 bf be
       0.3980456 -0.29286095 0.047769148 -0.37347323

weight f4 [16, 16]
000000 f2 8b e6 be 2b 16 f8 be 2e c7 ae be 7e 38 48 bf
       -0.45028645 -0.48454413 -0.34136337 -0.782112
000010 62 71 e5 3e 0c 8e 24 bf 30 0f d4 be a9 f2 ab 3e
       0.44813067 -0.64279246 -0.41417837 0.33583573
000020 bf e5 1d 3f c4 af 1c 3f 56 3d 07 be 74 46 20 3f
       0.6167869 0.612057 -0.13206992 0.626075
000030 8d d6 4a 3f 17 03 4d bf 0c 82 08 3e 88 4d d3 3e
       0.7923363 -0.8008284 0.13330859 0.4127009
000040 4f bb 95 be 4d 9e c3 be 55 ce 1c bf b3 51 1c bf
       -0.29244468 -0.3820671 -0.6125234 -0.61062163
000050 74 fd 29 3f 0d af 00 bf 1d 5f 41 bf d6 6e 41 3f
       0.66402364 -0.50267106 -0.75535756 0.7555975
000060 0c de 50 3f d6 09 bc be f7 9d 13 bf a9 86 2b 3f
       0.81588817 -0.36726254 -0.5766291 0.6700235
000070 8f 22 25 3f ac dd b1 be 98 3a ce be 1a 57 17 bf
       0.6450586 -0.34739435 -0.40279078 -0.5911728
000080 cb fb 21 3f 4d d2 d4 3e ae b8 52 3f 87 5f 1f 3f
       0.6327483 0.41566697 0.8231305 0.6225514
000090 35 fc 3f bf e6 81 6e 3f 45 ad 10 3f 5c 91 2d bf
       -0.7499421 0.9316696 0.5651439 -0.67799926
0000a0 35 bc 83 be a7 9d 12 bf 85 bf 11 be 78 77 20 bf
       -0.25729528 -0.5727181 -0.14233215 -0.62682295
0000b0 f8 b6 94 bd 3d e0 9d 3d b9 33 7a be 34 89 b1 3d
       -0.07261461 0.07708786 -0.24433793 0.086687475
0000c0 3e 67 33 bf 9a e0 1f be cd dc 54 bf e1 85 43 bf
       -0.7007941 -0.15613022 -0.83149415 -0.7637616
0000d0 1e d8 14 3f ee a1 22 bf f4 fc 10 bf 51 03 23 3f
       0.5814227 -0.63528335 -0.56635976 0.63676935
0000e0 a1 9f 13 40 06 60 50 3e 84 66 64 be ca 21 47 3f
       2.306618 0.2034913 -0.22304732 0.77785933
0000f0 50 e9 2e 3f ca 60 69 be e1 7f a9 be 00 63 66 bf
       0.68324757 -0.22790828 -0.33105376 -0.8999481
000100 8c 0f 45 3f 48 3d 58 3e 2b 62 3c 3f cb 91 1e 3f
       0.7697685 0.21117127 0.7358729 0.6194121
000110 9a 8c 0d bf f2 9a 45 3f 7f 74 4f 3f 92 13 2d bf
       -0.55292666 0.7718955 0.81037134 -0.67607987
000120 83 24 48 3e 89 69 67 3a e6 33 d2 3e e9 a5 0f bf
       0.19545178 0.00088276766 0.4105522 -0.56112534
000130 bd cb 5c 3e b9 20 b3 3d 56 b1 07 3e 59 2f 61 3d
       0.21562095 0.08746476 0.13251242 0.054976795
000140 fb 63 c7 bf fd 80 d7 3d c0 f2 18 c0 b5 93 d6 bf
       -1.5577387 0.105226494 -2.3898163 -1.6763827
000150 3f a0 56 40 c2 6d b0 bf 54 bf cc bf 06 df 28 40
       3.3535306 -1.3783495 -1.5995889 2.6386123
000160 25 be 9e 3f 81 e3 c2 3f df 6b 95 3e 8d f4 15 40
       1.2401778 1.5225679 0.29183862 2.3430512
000170 4b ab 56 40 3f a9 a7 3f d1 95 ba 3f c6 90 9f bf
       3.354205 1.3098525 1.457697 -1.2466056
000180 e2 5e a2 3e 99 db 1c 3f 10 c2 25 3f 7e d1 f9 3e
       0.31713015 0.6127258 0.6474924 0.48792642
000190 e1 a7 0e bf 46 3c a1 3e 41 1e d7 3e a6 6b 1e bf
       -0.5572491 0.31491297 0.4201527 -0.6188301
0001a0 31 f0 29 bf 92 cc ee 3e 9c 69 fa 3e c8 d6 0f bf
       -0.6638213 0.4664045 0.489087 -0.56187105
0001b0 3c 85 1a 3f 1a 30 b1 3e 79 44 dc 3e f1 27 e4 3e
       0.6035955 0.3460701 0.4302099 0.44561723
0001c0 90 ba 2a c0 e6 e1 b5 3f 08 20 06 c0 ae 42 12 c0
       -2.6676369 1.4209564 -2.095705 -2.2853198
0001d0 8b 84 15 40 cc f4 15 c0 f9 01 19 c0 c0 a4 21 40
       2.3362148 -2.3430662 -2.3907454 2.5256805
0001e0 3c 65 4b 40 14 05 2e 3f f4 ff 1f 40 4d 7e 14 40
       3.1780539 0.679765 2.4999971 2.3202088
0001f0 44 bd 22 40 94 67 ad 3f 53 fd a8 3f 08 db 2a c0
       2.5428019 1.3547235 1.3202308 -2.6696186
000200 27 a1 75 3f fc 96 7a 3e 10 7b 5c 3f 5a c3 17 3f
       0.95949024 0.24471658 0.8612528 0.5928246
000210 0b 2a 12 bf 31 f0 66 3f d1 d3 fc 3e ae 81 a8 be
       -0.570954 0.90210253 0.49380353 -0.32911438
000220 fa 35 11 bf 35 72 06 bf be ad f2 3e aa 85 32 bf
       -0.56722987 -0.52518016 0.4739818 -0.69735205
000230 57 ba 77 bf 5c ac ee bf 43 b3 89 bf ab dd a8 be
       -0.9676871 -1.864635 -1.0757831 -0.3298162
000240 62 66 3c 3f ee 54 11 3f 2b b9 07 3f 75 5f 1d 3f
       0.73593724 0.5677022 0.5301692 0.6147378
000250 49 d3 fa be 7a a3 f7 3e 18 85 ca 3e b7 f6 30 bf
       -0.48989323 0.4836691 0.39554667 -0.69126457
000260 ef 8d 94 be 00 a1 e7 be cf c7 0f 3f 41 9a 01 bf
       -0.29014537 -0.4524002 0.5616426 -0.50626
000270 61 8a 2d bf d1 88 28 3f bd 3d 1e 3f 53 4b e0 3e
       -0.67789274 0.65833765 0.61812955 0.43807468
000280 83 d7 e2 3f bb 27 53 bf d0 81 d5 3f d0 9a 02 40
       1.7722019 -0.824825 1.6680241 2.040699
000290 19 60 d3 bf cb b4 d3 3f 90 ad d7 3f 0d 42 f8 bf
       -1.6513702 1.6539549 1.6849842 -1.9395157
0002a0 58 df 7b bf 01 50 81 bf f4 89 61 bf 1f 4c ff bf
       -0.9838767 -1.010254 -0.88101125 -1.9945105
0002b0 7e 5c 5c bf 72 1f 2c bf 84 81 43 bf e8 9d aa 3f
       -0.8607863 -0.6723548 -0.763695 1.3329439
0002c0 3a d8 55 3f 2c c7 2a c0 a4 61 61 3f 19 62 df 3e
       0.8353306 -2.6684065 0.8803961 0.4362953
0002d0 91 f5 8e bf 4e 07 69 3f a9 66 4e 3f 9e ff 71 bf
       -1.1168691 0.9102677 0.80625397 -0.94530666
0002e0 93 5e ad bf f4 5d 8a bf 86 59 09 c0 83 de 98 bf
       -1.3544487 -1.0809922 -2.146089 -1.1942905
0002f0 99 d6 dc bf 42 04 13 c0 b2 81 fb bf 47 fb 33 40
       -1.725299 -2.2971349 -1.9648955 2.8122118
000300 e0 e1 df 3e b6 28 fd 3e 37 4e c2 3e f9 be e6 3e
       0.43727016 0.49445122 0.37950298 0.45067576
000310 d6 e5 f5 be fe 45 1e 3f ba f1 23 3f ec 80 4a bf
       -0.48026913 0.6182555 0.6404072 -0.7910297
000320 af 97 30 bf fe 3a 0a 3f d3 95 10 3f d4 fe f3 be
       -0.6898145 0.53996265 0.56478614 -0.47655356
000330 55 38 da be d0 3e d5 3e dc 5f 1b 3f 34 ba 03 3f
       -0.42621103 0.41649485 0.60693145 0.51456
000340 f6 6e 75 3f a9 44 41 c0 c0 6f a0 3f 3c a7 9f 3f
       0.9587244 -3.0198157 1.2534103 1.2472911
000350 43 01 be bf ed 4e 95 3f 2a 01 8f 3f d6 40 9a bf
       -1.4844135 1.1664711 1.117223 -1.2051036
000360 ec f2 b8 bf a2 47 ac bf 73 c3 e7 bf 3e 32 96 bf
       -1.4449134 -1.3459361 -1.8106521 -1.1734083
000370 5b 8c a8 bf 6c b5 ad bf 28 39 b9 bf 02 7e 53 40
       -1.3167833 -1.357099 -1.4470568 3.304566
000380 b1 1f 13 bf c5 c9 3b bf e9 e8 b6 be 56 63 59 bf
       -0.5747023 -0.7335475 -0.3572457 -0.849172
000390 10 fe 0d 3f 29 57 10 bf 55 8b 3d bf 6f 35 5b 3f
       0.55465794 -0.56382996 -0.7404073 0.8562841
0003a0 f6 5f 97 3e ab 18 4a 3f bd 92 0e bf 04 ea e3 3e
       0.295654 0.7894389 -0.55692655 0.44514477
0003b0 49 2b 25 3f 64 1c b1 be ca 3d a6 3e 7f 77 47 3f
       0.6451917 -0.34591973 0.32469016 0.7791671
0003c0 df 5f 35 3f ab b6 34 3f 0c 51 db 3e b3 f1 f6 3e
       0.7084941 0.7059123 0.4283527 0.48231277
0003d0 74 8c 34 bf 9c 4b 2a 3f 5d 00 05 3f 18 56 b2 be
       -0.70526814 0.6652162 0.5195368 -0.3483131
0003e0 60 f4 d6 be dd 32 00 3f 83 4c 67 3e 23 61 35 bf
       -0.41983318 0.5007761 0.2258778 -0.70851344
0003f0 66 7e 30 bf 85 b3 e2 3e 50 c4 ff 3e a4 52 fc 3e
       -0.6894287 0.44277588 0.49954462 0.492818

bias f4 [16]
000000 dc 1b 31 bf f5 c1 a7 be 90 cb da 3e ea 3d 14 bf
       -0.69183135 -0.32765165 0.4273343 -0.57906973
000010 12 4b 84 3e d8 f9 49 bf b3 2a 90 3e b0 5f 1b c0
       0.25838524 -0.78896856 0.28157577 -2.4277153
000020 48 56 ba 3f 3d bd 18 3f 78 97 29 3f c1 f5 ed 3f
       1.4557581 0.59663755 0.6624675 1.8590623
000030 ed 13 46 3f 97 61 5c 3d 44 14 b2 be f2 52 3d 3f
       0.77374154 0.053804006 -0.34781086 0.7395469
