mlartifacts/403163061964527456/10ed7ac780be4156bae3a2924561005a/artifacts/models/data/model.pth (torch, 66496 bytes, 46 tensors)

bias f4 [16]
-0.1083949 -0.6157662 6.7394894e+28 -0.56189144 0.72432685 0.24199371 0.25728852 -0.36466643
-0.56093276 1.5782762 0.26709092 0.56219995 -0.123988606 -0.39942202 -0.6766362 1.1487279
00000000: 25fe ddbd dba2 1dbf c0c3 596f 1ed8 0fbf
00000010: 7c6d 393f 33cd 773e 52bb 833e 8fb5 babe
00000020: 4a99 0fbf f404 ca3f 24c0 883e 56ec 0f3f
00000030: bded fdbd 0b81 ccbe 0838 2dbf 8409 933f

weight f4 [16, 3]
-2.2139263 1.0969032 -0.0057047014 0.42594516 -0.640886 -0.3493352 -0.2524051 0.18919583
-0.35096207 0.8017398 -1.5561104 -0.36373755 0.76966757 1.0667928 0.6465887 0.46040225
-3.338596 0.33341536 1.2477272 -1.3300538 0.81958425 -0.65546066 2.6667738 -0.2150116
-0.19555683 -1.4338813 -0.079680674 -0.7826482 1.5681492 0.9348624 0.22665073 -1.1761881
0.23453514 1.383824 0.817712 1.0593446 -0.89743465 2.088654 -0.6301048 -0.94360304
-0.029549778 -0.28804404 -0.5283538 -1.0224447 -0.5798465 0.91038406 0.67708254 2.2730403
00000000: f8b0 0dc0 5367 8c3f 81ee babb 7c15 da3e
00000010: 1b11 24bf 10dc b2be 3e3b 81be 8dbc 413e
00000020: 4db1 b3be d23e 4d3f a02e c7bf cf3b babe
00000030: ef08 453f ab8c 883f d686 253f d8b9 eb3e
00000040: 8fab 55c0 6bb5 aa3e 86b5 9f3f 343f aabf
00000050: 46d0 513f 45cc 27bf 6cac 2a40 002c 5cbe
00000060: 0d40 48be 6c89 b7bf 9f2f a3bd a25b 48bf
00000070: 1db9 c83f 2453 6f3f 2117 683e 558d 96bf
00000080: fb29 703e 2521 b13f 9355 513f 9b98 873f
00000090: 47be 65bf 82ac 0540 8c4e 21bf f88f 71bf
000000a0: 6012 f2bc 827a 93be 3242 07bf 78df 82bf
000000b0: d270 14bf ee0e 693f 4855 2d3f 7e79 1140

weight f4 [16, 3]
-0.21570058 -0.114859015 0.49999547 -0.120886765 1.3086606 -0.46544543 -0.3239239 -0.40441757
-0.9030666 -0.48162502 0.15220253 -0.124006964 0.7857036 0.10420836 0.9383024 0.9912431
0.9557082 0.3409194 0.11310235 -0.75169915 -0.38278762 0.081603676 0.92471 0.49263117
0.2591179 0.60701317 0.015278868 -0.7592183 -0.8295569 -0.97857684 -0.63918895 -0.46004403
-0.4934947 -0.75831085 0.041144464 0.30772927 1.1785783 1.0590297 0.56989616 0.40261725
0.40540105 0.63757557 0.15236637 -0.5170627 0.3123339 0.3845485 1.0711508 0.1611015
00000000: 9de0 5cbe 343b ebbd 68ff ff3e 7b93 f7bd
00000010: 3182 a73f dd4e eebe 5ad9 a5be d20f cfbe
00000020: 5f2f 67bf 8e97 f6be fbda 1b3e 5df7 fdbd
00000030: df23 493f 316b d53d 9634 703f 1cc2 7d3f
00000040: 4ba9 743f fd8c ae3e 34a2 e73d 5b6f 40bf
00000050: bdfc c3be d41f a73d cbb9 6c3f 273a fc3e
00000060: 1aab 843e 3765 1b3f 3854 7a3c 215c 42bf
00000070: d75d 54bf 0384 7abf e3a1 23bf e48a ebbe
00000080: 56ab fcbe a920 42bf 1987 283d b18e 9d3e
00000090: a7db 963f 498e 873f b7e4 113f d923 ce3e
000000a0: ba90 cf3e 2738 233f ee05 1c3e 395e 04bf
000000b0: 3bea 9f3e 8ae3 c43e 781b 893f cbf7 243e

bias f4 [16]
0.70651156 -0.69055057 -0.2856367 -0.39789242 0.8392394 0.9793729 -0.03826709 0.36317056
0.48762605 -1.1916413 -0.17269328 -0.27405292 1.1621883 0.7003991 -0.52504575 0.3743019
00000000: f1dd 343f ecc7 30bf f93e 92be 8eb8 cbbe
00000010: 65d8 563f 2fb8 7a3f f4bd 1cbd 7ef1 b93e
00000020: 1faa f93e b487 98bf 82d6 30be aa50 8cbe
00000030: 96c2 943f 5b4d 333f 6669 06bf 80a4 bf3e

weight f4 [16, 1]
-1.4567696 1.0831281 2.224185 2.684266 0.08447379 1.1287693 2.559837 -2.2991455
-2.6661878 -1.8198905 1.6227787 1.2191162 0.17339799 1.4720638 0.8688873 -1.1534629
00000000: 6d77 babf f1a3 8a3f 0c59 0e40 04cb 2b40
00000010: 9800 ad3d 837b 903f 5fd4 2340 3325 13c0
00000020: d2a2 2ac0 2cf2 e8bf 36b7 cf3f 000c 9c3f
00000030: 3e8f 313e 966c bc3f 666f 5e3f aca4 93bf

weight f4 [16, 1]
1.5892187 -1.805537 -0.31267512 -1.079713 1.8974292 -2.382553 -1.2253032 1.6511729
-0.4410791 3.2213924 -0.5826925 -1.9881536 0.09700923 -0.14717597 -1.4845822 -3.5513692
00000000: 856b cb3f d61b e7bf f416 a0be 0934 8abf
00000010: f6de f23f c07b 18c0 bcd6 9cbf a259 d33f
00000020: 1fd5 e1be 4b2b 4e40 562b 15bf d17b febf
00000030: c6ac c63d 4cb5 16be ca06 bebf a249 63c0

bias f4 [16]
-0.8376187 -1.1998827 -0.5466763 0.34963185 -0.07976359 1.2227192 -0.37586135 -0.7445042
-0.29272342 0.64807606 -0.026404908 0.8127707 -0.8851506 -0.6377842 -0.41333663 1.9201262
00000000: 2e6e 56bf c295 99bf faf2 0bbf f202 b33e
00000010: 185b a3bd 1082 9c3f e670 c0be d497 3ebf
00000020: d8df 95be 50e8 253f 1b4f d8bc be11 503f
00000030: 3b99 62bf d345 23bf dca0 d3be b2c6 f53f

weight f4 [16, 3]
-2.6206656 1.636096 -0.42141965 -0.44108582 -0.4951663 -0.21990442 -0.047158554 -0.49872008
-0.53018457 0.7887515 -1.6526078 -1.2361355 0.652993 0.90678996 1.222462 -0.042005662
-2.391602 0.90672314 0.39552873 -1.8806353 0.7210374 -1.3763902 2.2721798 -0.98675346
-0.6171764 -1.3292679 0.71987206 -1.3715628 1.0758263 1.7681956 0.71494097 -1.9299849
-0.18510379 0.745167 0.809031 0.41873083 -0.115898706 1.951517 -0.08216365 -1.2900641
-0.67710304 0.4708179 -0.7555377 -0.34280968 -1.5015198 1.022601 1.0698602 2.5228226
00000000: fcb8 27c0 986b d13f 51c4 d7be 00d6 e1be
00000010: 7086 fdbe a02e 61be 5429 41bd 3d58 ffbe
00000020: 2dba 07bf 9eeb 493f a788 d3bf b039 9ebf
00000030: 8d2a 273f 6323 683f a379 9c3f 210e 2cbd
00000040: 0210 19c0 021f 683f be82 ca3e a8b8 f0bf
00000050: e895 383f 8e2d b0bf 656b 1140 e09b 7cbf
00000060: 46ff 1dbf 7325 aabf 8949 383f 5f8f afbf
00000070: adb4 893f 3c54 e23f 5f06 373f bf09 f7bf
00000080: d98b 3dbe 44c3 3e3f a81c 4f3f e363 d63e
00000090: 4d5c edbd 4fcb f93f 6a45 a8bd d220 a5bf
000000a0: a056 2dbf 0b0f f13e eb6a 41bf c084 afbe
000000b0: cd31 c0bf 97e4 823f 2ef1 883f ed75 2140

weight f4 [16, 3]
-1.3524508 -2.045894 -0.8632223 0.69854116 -0.27756035 1.0341196 0.5340531 -0.87033045
0.8788985 1.2296913 0.1721019 1.15983 0.58817375 0.8869799 1.0480335 -2.2981644
-1.045773 -1.5306754 -0.72477776 -0.8638545 0.32580504 0.830764 1.1053767 0.46359286
1.241341 0.7543451 1.0201864 0.84231377 1.0059289 1.451893 0.84271854 1.3239865
0.1993942 -1.5597034 -0.36870882 -1.1847143 -0.35755345 0.2653602 -0.61375976 -1.7337433
-1.4015619 -1.7463837 0.8679222 0.95988137 0.70748514 1.5904304 1.0646987 0.94635415
00000000: 1c1d adbf edef 02c0 23fc 5cbf 98d3 323f
00000010: 641c 8ebe 085e 843f b4b7 083f facd 5ebf
00000020: 7eff 603f 8666 9d3f 7b3b 303e 4f75 943f
00000030: 8e92 163f 1d11 633f f625 863f 2015 13c0
00000040: e4db 85bf 2ced c3bf 098b 39bf 9225 5dbf
00000050: ebcf a63e f3ac 543f fc7c 8d3f 0b5c ed3e
00000060: 43e4 9e3f c31c 413f 7895 823f e0a1 573f
00000070: 47c2 803f a1d7 b93f 67bc 573f 6478 a93f
00000080: fe2d 4c3e 5ca4 c7bf 67c7 bcbe b8a4 97bf
00000090: 3f11 b7be 4bdd 873e 5c1f 1dbf 4deb ddbf
000000a0: 6166 b3bf 8089 dfbf 2630 5e3f c9ba 753f
000000b0: bf1d 353f 3993 cb3f 0c48 883f 4444 723f

bias f4 [16]
0.37871727 0.98224086 0.0013244435 1.27657 0.7070355 0.11839403 0.06627685 0.5363315
1.4980112 0.5021605 0.9038243 -1.5327891 -0.4098114 -1.1735069 0.5888895 -0.003781043
00000000: 3be7 c13e 2374 7b3f f398 ad3a a566 a33f
00000010: 4700 353f 9278 f23d 28bc 873d 054d 093f
00000020: d5be bf3f 978d 003f 0861 673f 6f32 c4bf
00000030: cdd2 d1be 7935 96bf 76c1 163f 60cb 77bb

weight f4 [16, 1]
0.012202188 1.66479 -0.32832754 2.7333002 -1.9934638 -0.3307692 -0.101446904 1.4931573
1.3829176 1.4493139 -0.06369175 0.78067297 -0.16208524 -0.86352926 -0.8550441 4.901777
00000000: b0eb 473c d717 d53f 8c1a a8be 64ee 2e40
00000010: d229 ffbf 955a a9be 65c3 cfbd c71f bf3f
00000020: 7203 b13f 1e83 b93f d270 82bd 2fda 473f
00000030: acf9 25be 4110 5dbf 2ce4 5abf 5bdb 9c40

bias f4 [16]
-0.44861907 0.1308482 0.005273223 -0.793038 0.8473004 0.9664361 0.7323218 -1.070921
-1.3761935 1.7457768 1.1480676 -0.053751897 0.69149655 -0.6224103 -0.5360658 2.0647557
00000000: 66b1 e5be 12fd 053e 00cb ac3b 8a04 4bbf
00000010: aee8 583f 5b68 773f 7179 3b3f f013 89bf
00000020: 1c27 b0bf 9d75 df3f e1f3 923f f32a 5cbd
00000030: eb05 313f 4856 1fbf 9c3b 09bf f524 0440

weight f4 [16, 3]
-2.1579628 1.473167 0.32884204 0.09459797 -0.9986139 -0.9784041 -0.41180342 -0.525547
0.42045066 0.98409414 -1.8892807 -0.43818256 1.3958553 1.2280107 1.2506865 0.54743636
-2.3323646 0.27652183 1.0922401 -1.0386329 -0.019271849 -1.3229287 1.8846254 -1.0169399
-0.22970924 -2.0376608 0.6586126 -0.93834734 1.7799445 0.8990078 0.505464 -1.8338403
0.7600771 1.2051154 0.7341259 0.9670265 -0.70795035 1.45454 -0.7080475 -1.1986793
-0.6981579 0.44839835 -0.34465504 -0.4720823 -1.112171 0.5097927 0.21345894 1.7552387
00000000: 101c 0ac0 bc90 bc3f fc5d a83e 95bc c13d
00000010: 29a5 7fbf b178 7abf e6d7 d2be 408a 06bf
00000020: 4f45 d73e 98ed 7b3f f3d3 f1bf 7759 e0be
00000030: 63ab b23f 742f 9d3f 7f16 a03f ca24 0c3f
00000040: 7645 15c0 4594 8d3e 86ce 8b3f ecf1 84bf
00000050: ffdf 9dbc ba55 a9bf 683b f13f 162b 82bf
00000060: e638 6bbe 0969 02c0 d69a 283f 8837 70bf
00000070: 39d5 e33f 6025 663f 1766 013f 47bb eabf
00000080: 6a94 423f 3941 9a3f adef 3b3f 0c8f 773f
00000090: 3c3c 35bf 5e2e ba3f 9a42 35bf 536e 99bf
000000a0: 7aba 32bf 7894 e53e a076 b0be c5b4 f1be
000000b0: 9f5b 8ebf c681 023f fb94 5a3e a9ab e03f

weight f4 [16, 3]
0.19641583 -0.47041062 -0.48310617 -0.98323387 -0.26643497 -0.41418758 -0.18918736 0.77601653
-0.1189931 -0.1700813 -0.26309407 -0.16150634 0.5065802 0.67262685 0.7471985 0.1931069
0.11307361 0.38099256 -0.010741256 1.2655818 -0.1998104 -0.5233192 -0.013673326 -0.47301033
0.6761056 -0.24031092 0.7275549 -1.7730523 -2.7083025 -2.2638903 -0.705337 0.9820596
0.14601788 0.54497844 -0.093579724 -0.036739644 0.6777351 0.2791947 0.6929841 0.15971646
0.26741225 0.5996516 -0.41312703 0.2739433 -0.04633896 -0.02799424 0.10213515 0.9620138
00000000: 3b21 493e a9d9 f0be b159 f7be 37b5 7bbf
00000010: 2a6a 88be 6510 d4be 55ba 41be 05a9 463f
00000020: a8b2 f3bd cb29 2ebe 44b4 86be eb61 25be
00000030: 3daf 013f 4631 2c3f 6748 3f3f d1bd 453e
00000040: 2393 e73d 7511 c33e 18fc 2fbc 96fe a13f
00000050: 199b 4cbe 3ff8 05bf 1606 60bc 692e f2be
00000060: 4215 2d3f 1114 76be 0a41 3a3f 61f3 e2bf
00000070: d454 2dc0 94e3 10c0 f790 34bf 4268 7b3f
00000080: b685 153e b583 0b3f baa6 bfbd 4f7c 16bd
00000090: 0c80 2d3f 9cf2 8e3e 6867 313f b68c 233e
000000a0: 42ea 883e c482 193f 6385 d3be 4c42 8c3e
000000b0: eccd 3dbd 2d54 e5bc 3c2c d13d 8946 763f

bias f4 [16]
0.31955868 -0.010000238 -0.75900745 -0.8227283 0.5562911 0.32656214 -0.88856107 0.37709025
0.18158066 -1.050575 -0.56803703 -0.424668 0.24250065 0.08972623 -0.47127792 1.1273202
00000000: 329d a33e 0ad8 23bc 504e 42bf 529e 52bf
00000010: 1869 0e3f 2733 a73e bd78 63bf f911 c13e
00000020: 48f0 393e 3e79 86bf e06a 11bf 166e d9be
00000030: 1752 783e 63c2 b73d 574b f1be 074c 903f

weight f4 [16, 1]
-1.2329267 0.17308703 1.770669 1.9824783 0.3552473 -0.5794104 1.7504398 -0.5746876
-1.9681737 -1.1709381 2.6070838 0.32333666 0.71214736 1.0846654 1.8610582 -1.0689712
00000000: 8bd0 9dbf ba3d 313e 48a5 e23f d9c1 fd3f
00000010: f9e2 b53e 3d54 14bf 690e e03f ba1e 13bf
00000020: 1eed fbbf 4de1 95bf 76da 2640 628c a53e
00000030: 4a4f 363f 51d6 8a3f 2837 ee3f 0cd4 88bf

weight f4 [16, 16]
-0.37006503 0.5087894 0.3146166 0.23533998 0.23829223 -0.44157514 0.25325078 0.27828038
-0.048845712 -0.12073373 0.12864894 -0.31221703 -0.15308715 -0.25037837 0.397016 0.39605615
0.050102543 -0.09747656 0.19549009 0.39676273 -0.50033134 0.18704039 -0.1149907 -0.28840145
0.22277352 0.25440252 -0.39539894 -0.20369416 -0.44889945 0.0417031 -0.41177726 -0.13873471
0.7229585 -0.341895 -1.3002514 -0.4295782 -1.154741 1.9968027 0.5877836 -0.9048893
0.037462156 -1.3295234 -1.0631635 0.25055587 0.4714856 1.4494665 -1.126132 -1.4347398
-0.31848502 -0.29237282 -0.3131178 -0.5904826 0.57781935 -0.16854827 -0.67304456 0.18592171
-0.11896644 0.42102408 0.046710424 0.6162918 0.36628276 -1.8115358 0.124986134 0.060400683
-0.72117186 0.08616526 0.14915307 0.32393742 0.24352297 -0.638809 0.10781632 0.2592882
-0.4024453 0.22573332 0.23167446 -0.30722088 0.060512878 1.0792361 0.5058301 0.44088402
0.25072244 0.16772802 -0.030601582 0.09211665 -0.8497663 0.73123574 0.43288296 -0.54303795
0.24559766 -0.40053442 -0.5240165 -0.26976335 -0.32959345 0.9575159 -0.31353214 -0.4522671
-0.9342955 0.22492811 -0.10866854 -0.026781013 0.4109228 -0.67560285 -0.76226616 0.63070416
-0.52613837 -0.19124858 0.47838792 0.25119045 0.43717512 -0.06840306 0.3728018 0.71199316
1.2613133 -0.98182774 -1.1791313 -0.790653 -1.9930125 2.1062396 -0.74108535 -1.778475
-0.5056934 -1.461208 -2.0882945 1.1862563 0.9008986 2.3590147 -1.6932375 -1.7275007
-1.5235993 -2.4465232 0.44998762 -2.2956543 -1.4754329 0.95381176 -1.5440428 -1.5257183
-1.9488195 -2.022128 -1.3173109 2.0264854 2.6815476 1.7586126 -0.8521193 -0.7191378
0.9361774 -0.9285904 -0.5276995 -0.6511169 -0.93805486 1.2638083 1.1654534 -1.3163694
-0.59399027 -0.63357526 -0.7796843 1.1367067 1.1529676 1.5511532 -0.8223578 -1.5104727
0.24653381 0.3487658 -0.29574913 0.3975155 -0.54913276 0.38851997 0.08947756 -0.8541715
0.49387458 0.45053524 -0.33700728 -0.25383225 -0.4450213 0.5557966 -0.55395937 -0.56345624
0.38091215 0.30197027 0.17726813 0.63277483 -0.028147215 0.29431573 0.54240525 -0.24152774
0.43083027 -0.48854727 0.023050012 -0.6804223 -0.75723463 0.3420196 -0.06466317 -0.61735535
0.80304515 0.8637907 -1.0140631 1.0808704 1.8345914 -1.8467534 1.1615539 1.7524602
0.77760834 1.2453897 1.629088 -0.90013266 -0.9891954 -1.4719111 1.3992009 1.246073
0.17739935 -2.1282167 -0.57961977 -2.1229217 -1.2029035 0.9096151 -1.0586709 -1.3185946
-2.0264688 -1.1221576 -0.9519776 2.3183098 1.8046391 1.5956135 -0.41586626 -0.8649275
1.6361476 0.5359384 0.99478954 -0.95958173 -1.7731605 1.5085328 -0.40258965 -1.7940781
1.5508392 -0.9211397 -1.6291714 -1.0942132 -1.6183783 1.9055635 -1.5279998 -1.7939037
-0.6103414 -0.06729722 0.2462606 -0.38194057 1.019064 -0.9195029 -0.17930703 0.864692
-0.6331483 0.64419484 0.6332635 0.5931911 0.8182239 -1.6264575 0.6490093 0.5021863
00000000: 2a79 bdbe 0640 023f 6d15 a13e f7fc 703e
00000010: e102 743e 2316 e2be 16aa 813e c47a 8e3e
00000020: 7112 48bd 3f43 f7bd 8cbc 033e e9da 9fbe
00000030: e1c2 1cbe 9831 80be ae45 cb3e dfc7 ca3e
00000040: 5338 4d3d caa1 c7bd 8e2e 483e 7c24 cb3e
00000050: b715 00bf 8487 3f3e 3e80 ebbd 5ba9 93be
00000060: be1e 643e 0c41 823e bb71 cabe 3495 50be
00000070: 26d6 e5be dfd0 2a3d 78d4 d2be 7910 0ebe
00000080: cf13 393f dd0c afbe a36e a6bf adf1 dbbe
00000090: 8ece 93bf 3b97 ff3f fc78 163f d3a6 67bf
000000a0: eb71 193d d32d aabf be15 88bf dc48 803e
000000b0: 9066 f13e 1e88 b93f 1825 90bf 8ea5 b7bf
000000c0: 7810 a3be e4b1 95be fa50 a0be de29 17bf
000000d0: f8eb 133f eb97 2cbe a64c 2cbf 4362 3e3e
000000e0: ada4 f3bd 7890 d73e 6e53 3f3d 4dc5 1d3f
000000f0: 6a89 bb3e 68e0 e7bf bbf8 ff3d b566 773d
00000100: b89e 38bf 6977 b03d 95bb 183e 20db a53e
00000110: 165e 793e fd88 23bf cece dc3d 6cc1 843e
00000120: 4f0d cebe a326 673e 123c 6d3e 0e4c 9dbe
00000130: 5adc 773d 6924 8a3f 157e 013f 8dbb e13e
00000140: b15e 803e e5c0 2b3e 2bb0 fabc a7a7 bc3d
00000150: 498a 59bf 4432 3b3f d6a2 dd3e 8904 0bbf
00000160: f47d 7b3e d912 cdbe f225 06bf 6c1e 8abe
00000170: 79c0 a8be c31f 753f 4987 a0be 8e8f e7be
00000180: fd2d 6fbf 8e53 663e 9d8d debd db63 dbbc
00000190: 7964 d23e 4ff4 2cbf e023 43bf d475 213f
000001a0: 01b1 06bf abd6 43be 43ef f43e 099c 803e
000001b0: 6bd5 df3e e716 8cbd e1df be3e 2f45 363f
000001c0: b772 a13f 1059 7bbf c6ed 96bf 3c68 4abf
000001d0: 091b ffbf a1cc 0640 c5b7 3dbf 12a5 e3bf
000001e0: 1f75 01bf dd08 bbbf 9ea6 05c0 3fd7 973f
000001f0: 4aa1 663f 19fa 1640 02bc d8bf be1e ddbf
00000200: 4d05 c3bf d693 1cc0 c764 e63e 00ec 12c0
00000210: fcda bcbf 022d 743f 32a3 c5bf bd4a c3bf
00000220: eb72 f9bf 8c6a 01c0 a59d a8bf f0b1 0140
00000230: 7a9e 2b40 381a e13f 7e24 5abf 6a19 38bf
00000240: 52a9 6f3f 1ab8 6dbf 5017 07bf 99af 26bf
00000250: 5d24 70bf 78c4 a13f 942d 953f cb7e a8bf
00000260: bf0f 18bf fd31 22bf 6499 47bf 9b7f 913f
00000270: 7194 933f 308c c63f 0a86 52bf 2b57 c1bf
00000280: 5c73 7c3e 6e91 b23e 6e6c 97be 2787 cb3e
00000290: f793 0cbf 17ec c63e 0340 b73d fcaa 5abf
000002a0: 21dd fc3e 8eac e63e 388c acbe 4df6 81be
000002b0: d5d9 e3be b048 0e3f 48d0 0dbf ab3e 10bf
000002c0: eb06 c33e d99b 9a3e c785 353e 88fd 213f
000002d0: fd94 e6bc 8db0 963e 12db 0a3f 0c53 77be
000002e0: c995 dc3e de22 fabe 61d3 bc3c 2830 2ebf
000002f0: 21da 41bf 311d af3e 206e 84bd 000b 1ebf
00000300: 5e94 4d3f 6321 5d3f d2cc 81bf f659 8a3f
00000310: e4d3 ea3f 6a62 ecbf ccad 943f 9e50 e03f
00000320: 5711 473f ee68 9f3f f585 d03f 186f 66bf
00000330: e93b 7dbf 9567 bcbf 0419 b33f 527f 9f3f
00000340: 2da8 353e b434 08c0 f661 14bf f3dd 07c0
00000350: bef8 99bf 89dc 683f 8782 87bf b5c7 a8bf
00000360: aab1 01c0 dca2 8fbf ceb4 73bf 305f 1440
00000370: 6afe e63f 103d cc3f 6cec d4be e36b 5dbf
00000380: 496d d13f 4233 093f 87aa 7e3f 26a7 75bf
00000390: ecf6 e2bf 9a17 c13f 3b20 cebe 5aa4 e5bf
000003a0: e681 c63f d0cf 6bbf b088 d0bf 2e0f 8cbf
000003b0: 0527 cfbf 81e9 f33f 7f95 c3bf a39e e5bf
000003c0: 563f 1cbf 20d3 89bd bd2b 7c3e b78d c3be
000003d0: b070 823f 8b64 6bbf 439c 37be 745c 5d3f
000003e0: 0216 22bf f4e9 243f 8f1d 223f 5fdb 173f
000003f0: 1f77 513f c22f d0bf 7925 263f 488f 003f

bias f4 [16]
0.26417613 -0.625278 -0.97486204 -0.13936171 0.17296688 -0.37640435 0.6096965 -1.587798
-0.82458234 -0.6791358 -0.41429916 -0.16709338 1.8556547 -0.6107459 -1.2234623 0.7756419
00000000: 1842 873e 3812 20bf 8f90 79bf d6b4 0ebe
00000010: 3b1e 313e 12b8 c0be 1215 1c3f f73c cbbf
00000020: d417 53bf d8db 2dbf 051f d4be 871a 2bbe
00000030: 1886 ed3f d859 1cbf 6a9a 9cbf 7890 463f

weight f4 [16, 16]
-1.122745 0.36230803 0.5357514 0.20583187 -0.14002728 1.554889 1.492355 -1.6379808
1.2676932 -0.43692565 1.5550507 0.3128317 -2.0090566 -0.23387624 0.4907614 0.5607621
1.6262473 -0.3668545 -0.48246595 -0.45325896 0.34452122 -1.5111644 -1.0259709 1.7483631
-0.4791293 0.63554555 -1.9955366 1.0082651 1.6653348 -0.21191119 -0.21501195 -0.536193
0.084889285 1.188636 -0.7243027 1.5545478 -0.023689704 -0.8754896 0.23946455 0.82378465
1.8067287 -0.35236675 -0.095695965 -0.4717064 -0.5128773 -0.08390587 0.14818673 -0.8456981
0.40994272 -0.92019695 -0.23569776 -0.86024296 0.8510009 -2.2706802 -0.84181273 1.8344761
-1.4448482 -0.0872749 -1.2806355 0.0003991636 1.6705682 -0.07023733 -0.15478091 -0.08413522
-1.1266053 0.13551538 0.10124215 -0.20247057 -0.49939382 1.1710536 1.6461126 -1.5081036
0.74297154 -0.033951838 1.1897175 0.6506553 -1.142411 0.35682786 0.471377 0.25678244
0.016299717 0.24940637 -0.20735583 -0.17566131 -0.11649104 -0.50649965 -0.3265747 0.6325013
-0.34828022 0.24337174 -0.3993682 -0.3200958 0.8779239 -0.578133 0.107543215 -0.365636
-0.25449458 -0.31413534 0.2058451 0.3371049 -0.155276 0.4249092 -0.110570386 -0.21336357
0.12153829 -0.8974464 0.2046572 0.7476352 -0.050394762 0.563513 -0.111084186 0.84698725
-0.80730087 1.4125936 -1.6083696 1.4207082 -0.90611345 1.1038328 1.1604986 -1.0460805
1.2689776 -0.08799972 1.0950601 -1.4934292 -0.99726456 -1.6126775 1.0828856 -2.1237824
0.49443662 1.7553822 -1.0318612 1.4927313 -1.2779207 -0.68821895 -0.99299794 0.78767496
-0.8176999 -2.1230953 -0.6677682 -1.4112232 0.9306368 -1.4625751 1.5348291 -1.0314817
0.39618915 1.5314869 -0.8644557 -0.2667206 -1.5362079 -0.5412999 -0.47956017 0.6965677
0.42845443 -0.0914426 -0.34399736 -0.56990844 0.23181286 -0.2098489 0.048710134 -0.65151197
0.18671784 -0.09771953 -0.5433537 -0.1904274 -0.8711697 -0.23604336 -0.3973034 0.3338116
-0.11173857 0.24561624 -0.04554828 -0.3223662 -0.008673958 -0.34324843 0.15168336 -0.07093779
-1.4551187 0.47851637 0.06628428 1.0281472 -0.6793379 1.3766599 1.6953857 -1.3375292
0.9436059 -0.14911637 1.5848134 -0.15546969 -2.3693383 -0.8950778 0.49225363 0.35489193
-2.4033706 -1.7740301 1.8692898 -1.0857135 1.1281029 1.8638927 1.8105885 -2.0045156
0.82810706 0.77201056 2.22707 1.4967736 -1.4509097 -2.5770304 -1.3723949 1.5905602
0.6197722 2.4964566 -0.558658 1.1595293 -2.1941628 -0.093792595 -0.8497142 0.16735819
-1.432091 -0.109726496 -0.68394315 -0.8346165 0.6978337 -0.72836775 1.811304 -0.27740407
-0.27257615 1.3713938 -1.2909079 0.6954707 -0.29743677 0.6858546 1.1732746 -0.4540688
1.3044571 1.6112769 0.9002247 -0.62464374 -1.0091614 -1.4005935 0.6943386 -1.1887717
-0.2219812 -1.2752213 0.32914743 -1.4934837 0.48891246 0.22845471 0.1951645 -0.13443132
-1.4371234 -0.48439077 -0.84558624 -0.058038853 0.86636 0.7686192 1.0269599 0.42403805
00000000: 1cb6 8fbf 7080 b93e 0127 093f 97c5 523e
00000010: 5063 0fbe 9a06 c73f 7d05 bf3f 5ba9 d1bf
00000020: c543 a23f b8b4 dfbe e70b c73f 7a2b a03e
00000030: 6294 00c0 417d 6fbe 1445 fb3e 1b8e 0f3f
00000040: df28 d03f 5ad4 bbbe c705 f7be 8f11 e8be
00000050: 1665 b03e d66d c1bf 0453 83bf 5dca df3f
00000060: 7050 f5be 1db3 223f be6d ffbf d50e 813f
00000070: b129 d53f 3fff 58be 182c 5cbe f243 09bf
00000080: 6fda ad3d 3925 983f e76b 39bf 6cfb c63f
00000090: e910 c2bc 1620 60bf 3236 753e 8de3 523f
000000a0: e342 e73f 6a69 b4be 3ffc c3bd 8083 f1be
000000b0: ed4b 03bf d7d6 abbd 43be 173e ac7f 58bf
000000c0: 03e4 d13e 0792 6bbf c15a 71be e238 5cbf
000000d0: 32db 593f d352 11c0 0a81 57bf 1dd0 ea3f
000000e0: c9f0 b8bf 2fbd b2bd ddeb a3bf d546 d139
000000f0: 2ed5 d53f 97d8 8fbd e37e 1ebe 164f acbd
00000100: 9a34 90bf 8bc4 0a3e 0b58 cf3d 7254 4fbe
00000110: 8cb0 ffbe 16e5 953f d1b3 d23f 8a09 c1bf
00000120: 6233 3e3f 1511 0bbd aa48 983f 5991 263f
00000130: 863a 92bf 24b2 b63e 5358 f13e fd78 833e
00000140: fc86 853c 6264 7f3e 1655 54be 8fe0 33be
00000150: db92 eebd f6a9 01bf cd34 a7be 9beb 213f
00000160: c951 b2be 7136 793e fd79 ccbe 99e3 a3be
00000170: 9fbf 603f 8600 14bf 9e3f dc3d a434 bbbe
00000180: 1d4d 82be 59d6 a0be 0fc9 523e 0399 ac3e
00000190: ac00 1fbe b38d d93e ba72 e2bd fb7b 5abe
000001a0: 11e9 f83d 0cbf 65bf a891 513e 0565 3f3f
000001b0: bd6a 4ebd 6342 103f 1b80 e3bd 28d4 583f
000001c0: 45ab 4ebf decf b43f 0edf cdbf c4d9 b53f
000001d0: 0df7 67bf 654a 8d3f 388b 943f f7e5 85bf
000001e0: dc6d a23f 3239 b4bd ee2a 8c3f b028 bfbf
000001f0: bb4c 7fbf 376c cebf ff9b 8a3f 0dec 07c0
00000200: cc26 fd3e 5db0 e03f 0714 84bf d211 bf3f
00000210: e892 a3bf 1e2f 30bf 1d35 7ebf 11a5 493f
00000220: c854 51bf cbe0 07c0 dbf2 2abf f6a2 b4bf
00000230: 373e 6e3f a935 bbbf 4875 c43f 9807 84bf
00000240: 4ed9 ca3e c307 c43f f84c 5dbf 9a8f 88be
00000250: 76a2 c4bf a192 0abf e988 f5be 4352 323f
00000260: 615e db3e 4246 bbbd 6c20 b0be 85e5 11bf
00000270: 5a60 6d3e a1e2 56be 4784 473d 7dc9 26bf
00000280: f632 3f3e 2d21 c8bd 3a19 0bbf 66ff 42be
00000290: fa04 5fbf 5ab5 71be 5a6b cbbe 5be9 aa3e
000002a0: 31d7 e4bd d382 7b3e d590 3abd 2f0d a5be
000002b0: 371d 0ebc 42be afbe e252 1b3e d547 91bd
000002c0: 5441 babf 1900 f53e 0dc0 873d 549a 833f
000002d0: 17e9 2dbf 6436 b03f 6602 d93f 2834 abbf
000002e0: 2890 713f f6b1 18be 2adb ca3f 7233 1fbe
000002f0: 3da3 17c0 d223 65bf ab08 fc3e 65b4 b53e
00000300: d3d0 19c0 6b13 e3bf e344 ef3f a9f8 8abf
00000310: ad65 903f 0994 ee3f 5dc1 e73f fc49 00c0
00000320: d3fe 533f 7ca2 453f 5188 0e40 4796 bf3f
00000330: 69b7 b9bf 11ee 24c0 a3aa afbf 7a97 cb3f
00000340: 64a9 1e3f f2c5 1f40 3604 0fbf 756b 943f
00000350: 2a6d 0cc0 5516 c0bd df86 59bf f25f 2b3e
00000360: c24e b7bf 49b8 e0bd e616 2fbf 6da9 55bf
00000370: 3ba5 323f 4f76 3abf cfd8 e73f e807 8ebe
00000380: 1a8f 8bbe d589 af3f 783c a5bf 5e0a 323f
00000390: a249 98be 2b94 2f3f dd2d 963f b57b e8be
000003a0: 73f8 a63f 523e ce3f 2075 663f a7e8 1fbf
000003b0: 332c 81bf a646 b3bf 2dc0 313f ac29 98bf
000003c0: 0a4f 63be 743a a3bf 0386 a83e 792a bfbf
000003d0: bc52 fa3e 08f0 693e 34d9 473e 5da8 09be
000003e0: a9f3 b7bf 1102 f8be 5778 58bf 26ba 6dbd
000003f0: c5c9 5d3f 3ac4 443f 6c73 833f 841b d93e

weight f4 [16, 16]
0.24800578 0.33552778 0.11258731 0.1060958 -0.08636199 0.082877085 -0.10016034 0.26840892
0.186742 0.2417642 0.2183052 0.12718634 -0.15402555 -0.22798847 -0.43101674 -0.19665103
-0.66550213 0.21659797 0.32818237 0.35225242 0.2046332 0.45690516 0.47579902 -0.4402393
0.2487913 -0.65728545 0.4204441 0.4393526 -0.22776899 0.6345312 -0.17797437 0.47896135
-0.7122591 -0.020804921 0.6528608 0.14544724 0.044351354 0.49461198 0.64420974 -0.67686814
-0.16938208 -0.6474661 0.18127784 0.465337 -0.19768497 0.8363093 0.147899 0.46847817
0.38393822 0.07837541 -0.8951817 -0.29305267 -0.826894 -0.81527156 -0.17664342 0.57722926
-0.022531372 0.2295194 -0.13195485 -1.0799367 0.31907955 -0.96604 0.30421612 -0.93540156
0.27848566 0.5212194 -0.25494385 -0.08822099 0.24296713 -0.16225736 -0.07049532 0.6542342
0.5648324 0.20824546 -0.33789644 -0.2769891 0.24641114 -0.6718813 -0.4473842 -0.60428005
-0.63437986 -0.9621695 0.459528 0.5462358 -0.55470085 0.31810623 -0.13495162 -0.37310025
-0.5382139 -0.52943724 0.45623693 0.70517415 -0.22601606 0.6268367 0.67672384 0.5902146
0.31514162 2.1232493 -0.40758306 -0.38597947 0.29222926 -0.30282632 -0.7295797 0.26747042
0.27394736 0.32241368 -0.17410776 -0.4693977 0.39849663 -0.49694124 -0.058585536 -0.36155418
1.2383088 1.4027755 -1.1433947 0.7191489 -0.7023574 -1.24194 -0.97779304 1.1645173
1.158859 -0.44023117 -1.1148788 -1.5859491 0.7234638 1.4409044 0.6916035 -1.1191454
0.059814963 0.06644222 0.088136174 0.0071101063 0.20585738 0.047140248 0.14845377 0.018749291
0.026203666 -0.09802657 0.120575815 0.1456657 0.06379026 -0.1274598 0.16361368 -0.032224264
-0.68913585 0.38675895 0.6825001 0.38162178 -0.35642704 0.5098236 0.75151664 -0.25079265
-0.36424556 -0.5192116 0.26202714 0.5168551 -0.3498157 0.2581154 -0.2924647 0.573051
-0.14671113 0.017918553 -0.2125688 0.22968583 -0.065525316 0.046446595 -0.09344647 0.044472795
-0.014489241 0.05841424 -0.2184921 -0.05293184 -0.12937847 0.010882936 0.023127902 0.0814892
0.79025185 1.1009417 -0.7594298 -0.5108842 -0.0965318 -0.3984878 -0.5917323 0.43217686
0.5548629 0.35078493 -0.7744015 -0.6021183 0.44509822 -0.6591447 -0.55700046 -0.39105323
-0.028959028 -1.1342764 -0.446033 -0.6804343 0.08986201 -0.17557473 -0.12371487 0.29820862
-0.09135352 0.12437793 -0.31554964 -0.25945136 0.41433486 0.7993268 0.6794228 -0.058784
-0.11036229 0.02705132 0.20393902 0.035035744 -0.24221572 -0.17212279 0.083050326 0.19427098
-0.11230254 0.1228038 -0.10836949 -0.098503545 0.118025124 -0.17909166 -0.010834938 0.15815187
0.486197 0.6575516 -0.5308292 -0.2795948 0.5037999 -0.2217726 0.42918956 0.15117714
0.5718805 0.6927251 0.03663197 -0.10663749 -0.25948676 -0.23204833 -0.55603373 -0.41488162
-0.27966127 0.2942878 0.068726934 0.030377064 -0.021148082 0.05516404 0.06263348 -0.441247
-0.15441215 -0.05616481 -0.10829003 -0.04925971 0.1340962 0.108628854 -0.05464549 0.16155301
00000000: 3af5 7d3e 4cca ab3e 2d94 e63d c148 d93d
00000010: 8ede b0bd 76bb a93d dd20 cdbd e56c 893e
00000020: 4b39 3f3e 0991 773e 668b 5f3e 233d 023e
00000030: e0b8 1dbe cf75 69be 3aae dcbe e35e 49be
00000040: 595e 2abf dccb 5d3e 8507 a83e 6e5a b43e
00000050: 5e8b 513e 79ef e93e ee9b f33e 0c67 e1be
00000060: 26c3 7e3e dc43 28bf 7344 d73e d3f2 e03e
00000070: 463c 69be a370 223f ea3e 36be 6c3a f53e
00000080: 9d56 36bf 156f aabc e321 273f 1ff0 143e
00000090: c4a9 353d c83d fd3e eeea 243f 3b47 2dbf
000000a0: 7f72 2dbe 57c0 25bf e6a0 393e a740 ee3e
000000b0: ee6d 4abe 5e18 563f d672 173e 5fdc ef3e
000000c0: 8d93 c43e 4983 a03d a12a 65bf 000b 96be
000000d0: 53af 53bf a3b5 50bf 03e2 34be 4cc5 133f
000000e0: b693 b8bc 2207 6b3e 2c1f 07be 5e3b 8abf
000000f0: 655e a33e 664e 77bf 37c2 9b3e 7a76 6fbf
00000100: ac95 8e3e a26e 053f 0088 82be 35ad b4bd
00000110: 60cc 783e cb26 26be da5f 90bd e47b 273f
00000120: db98 103f 4c3e 553e c300 adbe 84d1 8dbe
00000130: 3453 7c3e 6a00 2cbf 8b0f e5be 19b2 1abf
00000140: b866 22bf be50 76bf 4147 eb3e 1cd6 0b3f
00000150: e000 0ebf d2de a23e c230 0abe ff06 bfbe
00000160: 63c8 09bf 3389 07bf e397 e93e 4b86 343f
00000170: c170 67be 5f78 203f c63d 2d3f 4e18 173f
00000180: 3e5a a13e 51e3 0740 baae d0be 1a9f c5be
00000190: 139f 953e 0d0c 9bbe bcc5 3abf e2f1 883e
000001a0: d442 8c3e 6813 a53e 4e49 32be e554 f0be
000001b0: c007 cc3e 156f febe 63f7 6fbd a11d b9be
000001c0: e780 9e3f 268e b33f c25a 92bf 241a 383f
000001d0: b2cd 33bf e4f7 9ebf a550 7abf e70e 953f
000001e0: 7e55 943f fb65 e1be 59b4 8ebf 6100 cbbf
000001f0: ec34 393f 8e6f b83f ed0c 313f 2840 8fbf
00000200: 8900 753d dc12 883d bd80 b43d e5fb e83b
00000210: 47cc 523e 2216 413d 4404 183e 1d98 993c
00000220: 12a9 d63c 28c2 c8bd 74f0 f63d 6429 153e
00000230: 78a4 823d d284 02be 588a 273e 97fd 03bd
00000240: 356b 30bf 4505 c63e 54b8 2e3f ee63 c33e
00000250: 9b7d b6be cd83 023f 6563 403f e567 80be
00000260: 657e babe 0deb 04bf 6c28 863e 9e50 043f
00000270: 0b1b b3be b427 843e efbd 95be 78b3 123f
00000280: 713b 16be eec9 923c a3ab 59be c332 6b3e
00000290: 2332 86bd c93e 3e3d dd60 bfbd 1b29 363d
000002a0: 4864 6dbc c543 6f3d 65bc 5fbe 0fcf 58bd
000002b0: ca7b 04be 584e 323c ba76 bd3c cfe3 a63d
000002c0: f24d 4a3f a8eb 8c3f fe69 42bf 4fc9 02bf
000002d0: 77b2 c5bd 9806 ccbe c57b 17bf 4946 dd3e
000002e0: 7f0b 0e3f 159a b33e 2d3f 46bf 6d24 1abf
000002f0: eae3 e33e b5bd 28bf 9597 0ebf 2138 c8be
00000300: 7c3b edbc f82f 91bf 705e e4be f130 2ebf
00000310: 9309 b83d ddc9 33be 395e fdbd cdae 983e
00000320: 8e17 bbbd dbb9 fe3d b98f a1be cfd6 84be
00000330: b323 d43e aea0 4c3f a7ee 2d3f 7ec7 70bd
00000340: a005 e2bd bb9a dd3c 64d5 503e a481 0f3d
00000350: 6607 78be f540 30be 4a16 aa3d f9ee 463e
00000360: e0fe e5bd 8f80 fb3d d3f0 ddbd 3abc c9bd
00000370: 28b7 f13d ce63 37be 0685 31bc 90f2 213e
00000380: d0ee f83e 4d55 283f 6ce4 07bf 0d27 8fbe
00000390: 08f9 003f 5b18 63be bcbe db3e 2ece 1a3e
000003a0: c366 123f 6f56 313f 680b 163d c264 dabd
000003b0: 73db 84be 149e 6dbe 3a58 0ebf 5d6b d4be
000003c0: c32f 8fbe e4ac 963e b5c0 8c3d 52d9 f83c
000003d0: be3e adbc b0f3 613d fb45 803d 20eb e1be
000003e0: 381e 1ebe 120d 66bd 2ac7 ddbd 8dc4 49bd
000003f0: 8450 093e ce78 de3d f3d3 5fbd 276e 253e

bias f4 [16]
-0.074907534 0.5868128 0.6740234 -1.00849 -0.50169224 0.3211509 -0.41689876 -1.0492469
0.24263147 0.4610482 -0.061746553 -0.51631695 -0.11061872 -0.11170588 -0.5326087 0.22032866
00000000: 1f69 99bd 5d39 163f cc8c 2c3f 3316 81bf
00000010: e76e 00bf e46d a43e c173 d5be b94d 86bf
00000020: 6274 783e 820e ec3e f4e9 7cbd 592d 04bf
00000030: 118c e2bd 0dc6 e4bd 0b59 08bf d69d 613e

weight f4 [16, 16]
-0.6395467 0.442734 0.72618383 0.6790282 0.015270975 -0.25550908 0.7721413 0.11321135
-0.36208972 0.07860238 0.5008918 0.27049008 -0.18959354 0.21611826 0.67523515 -0.35875493
-0.08530044 0.49092355 0.15222047 0.028982414 0.44456774 0.75275385 -0.06639538 0.31571105
-0.25025168 0.5389442 -0.031318717 0.07223489 0.1944279 0.106913075 -0.048976913 -0.21879429
0.28734845 0.24106643 -0.069432616 -0.13458276 0.44736865 0.842784 -0.18732783 0.10391061
-0.10469813 0.721812 -0.17238809 0.17474133 -0.22931999 0.45315683 -0.27353507 0.15189905
-0.08241235 -0.047481105 0.05414774 -0.060118638 -0.66032517 -1.1165775 -0.030279065 -0.2143131
-0.114855334 -0.5316036 -0.23860902 -0.25177556 -0.3303623 -0.1855749 0.3454466 0.0966809
-0.41050547 -0.027411602 0.43638015 -0.07284614 -0.2053706 -0.85856336 -0.03641447 -0.3462322
0.5207125 -0.25152287 -0.16582304 0.18840545 -0.117857195 -0.10918388 0.48611844 0.18177369
0.08096894 0.03426571 -0.12936656 0.14373599 0.30430514 0.9676206 0.30082104 0.45347854
-0.2629371 0.325422 -0.08278642 -0.4622601 -0.09478284 0.4403206 -0.794829 0.38107613
-0.34201336 -0.08251734 0.29939356 -0.19419742 -0.5166517 -0.7405011 0.14143114 -0.27282846
0.1403477 -0.3742672 0.15808594 0.49100173 -0.09484348 -0.31816673 0.3516993 -0.27220616
-0.85296315 0.82390577 1.1835784 0.9834717 -1.2908224 -1.3594091 1.4468019 -1.1202474
-1.0602708 0.39233658 1.3895026 0.2743254 -1.3969191 -0.58185333 1.1677531 -1.288427
0.7765697 0.011317152 -0.87558615 -0.29416746 -0.004329143 0.1818412 -0.7881495 -0.09704594
0.6739402 -0.18807344 -0.32549587 -0.15885906 0.118611656 -0.42236894 -0.12640767 0.4824902
0.16156746 -0.074148074 -0.39243603 -0.1521497 0.622083 0.6763742 -0.11321186 0.34987253
0.4195259 0.71638703 -0.115737244 -0.3726093 -0.41330948 0.5480359 -0.29825252 0.35344046
-0.96794134 0.11882721 0.79286236 0.40660003 0.05328166 0.10309418 0.63370067 -0.13845594
-0.5853126 -0.21552925 0.66739273 0.2755961 0.033710916 0.11902042 0.46790972 -0.39919108
-0.46212885 0.32171053 -0.00017434232 -0.088903636 -0.74970305 -1.0751826 -0.0886698 -0.37285888
0.064093456 -0.3783821 0.015211438 0.3982117 0.042923808 -0.56886435 0.74504846 -0.47835964
-0.298235 0.5556071 0.7664071 1.1372056 -0.18045813 -0.33550024 0.3998129 -0.33810794
-0.7894428 -0.43735796 0.73281735 0.40804154 1.0442467 -0.21356733 0.17108075 -0.21720165
-1.0294641 0.31573868 0.92841214 0.6066598 0.037445296 0.1591793 0.61729854 -0.21797526
-0.18288726 0.0400545 0.7599757 0.055785622 -0.09105956 0.37688264 0.5732732 -0.17193523
-0.494732 -0.1255823 0.22371405 0.02452271 -0.053026717 -0.45868465 0.28433266 -0.19096947
-0.1535158 -0.59283304 0.12337947 0.40713263 0.2773261 -0.20105785 0.8686633 -0.25752553
0.97673994 -0.33220783 -1.4009111 -0.79729027 0.3266815 0.3286024 -0.3538803 0.45629746
0.6922989 0.30198693 -1.1916335 -0.3027978 -0.41508368 -0.24904114 -0.46244296 0.55429447
00000000: 55b9 23bf 08ae e23e 2fe7 393f cbd4 2d3f
00000010: 1d33 7a3c 16d2 82be 0dab 453f 5adb e73d
00000020: d363 b9be 49fa a03d 723a 003f ad7d 8a3e
00000030: cf24 42be 1b4e 5d3e 36dc 2c3f baae b7be
00000040: ffb1 aebd 555a fb3e afdf 1b3e 876c ed3c
00000050: 629e e33e 7ab4 403f 4dfa 87bd e1a4 a13e
00000060: fd20 80be 3ff8 093f 0e48 00bd e3ef 933d
00000070: 1b18 473e 3ef5 da3d 049c 48bd 9c0b 60be
00000080: 561f 933e 1eda 763e b032 8ebd 10d0 09be
00000090: 810d e53e b1c0 573f ded2 3fbe 16cf d43d
000000a0: f96b d6bd acc8 383f 8186 30be 64ef 323e
000000b0: dcd2 6abe 2c04 e83e ca0c 8cbe 6d8b 1b3e
000000c0: cec7 a8bd 8c7b 42bd 05ca 5d3d f63e 76bd
000000d0: 120b 29bf 03ec 8ebf cd0b f8bc e574 5bbe
000000e0: 4639 ebbd 2c17 08bf ec55 74be bae8 80be
000000f0: 3f25 a9be 5907 3ebe 60de b03e a300 c63d
00000100: c62d d2be 4c8e e0bc 386d df3e 5b30 95bd
00000110: ac4c 52be cfca 5bbf 5727 15bd 5945 b1be
00000120: 6a4d 053f 9bc7 80be 84cd 29be 5ced 403e
00000130: 1d5f f1bd cc9b dfbd 84e4 f83e e222 3a3e
00000140: 0bd3 a53d 335a 0c3d ab78 04be 872f 133e
00000150: e2cd 9b3e fcb5 773f 3705 9a3e 572e e83e
00000160: b19f 86be b69d a63e ed8b a9bd 5bad ecbe
00000170: 811d c2bd b471 e13e ea79 4bbf 691c c33e
00000180: 601c afbe dafe a8bd 1d4a 993e b0db 46be
00000190: 4943 04bf 7b91 3dbf 53d3 103e 2cb0 8bbe
000001a0: 4fb7 0f3e f39f bfbe 48e1 213e 9464 fb3e
000001b0: 4c3d c2bd c0e6 a2be ee11 b43e 9b5e 8bbe
000001c0: cb5b 5abf 7deb 523f 7f7f 973f cdc4 7b3f
000001d0: ab39 a5bf 1e01 aebf ce30 b93f 4464 8fbf
000001e0: f4b6 87bf 57e0 c83e 39db b13f 6174 8c3e
000001f0: 3fce b2bf 57f4 14bf ef78 953f 2deb a4bf
00000200: 46cd 463f 936b 393c 6a26 60bf 1e9d 96be
00000210: 7cdb 8dbb 9434 3a3e 2ac4 49bf 06c0 c6bd
00000220: 5887 2c3f 5396 40be 65a7 a6be f3ab 22be
00000230: abea f23d be40 d8be 0371 01be f508 f73e
00000240: f171 253e f2da 97bd 60ed c8be 22cd 1bbe
00000250: d540 1f3f dc26 2d3f 9fdb e7bd 7e22 b33e
00000260: 19cc d63e 2465 373f a607 edbd a5c6 bebe
00000270: 4d9d d3be 154c 0c3f 8eb4 98be 26f6 b43e
00000280: 01cb 77bf ae5b f33d 07f9 4a3f e12d d03e
00000290: df3d 5a3d 0b23 d33d 353a 223f 65c7 0dbe
000002a0: 0cd7 15bf b3b3 5cbe 40da 2a3f ef1a 8d3e
000002b0: 7514 0a3d fac0 f33d dd91 ef3e c662 ccbe
000002c0: 279c ecbe 3eb7 a43e a9cf 36b9 1c13 b6bd
000002d0: 8aec 3fbf 959f 89bf 8398 b5bd 5ce7 bebe
000002e0: 6e43 833d 4cbb c1be 6539 793c 67e2 cb3e
000002f0: e0d0 2f3d 18a1 11bf 7fbb 3e3f 8eeb f4be
00000300: 42b2 98be 443c 0e3f 4133 443f f48f 913f
00000310: 04ca 38be b0c6 abbe 47b4 cc3e 7c1c adbe
00000320: ec18 4abf 62ed dfbe eb99 3b3f d2ea d03e
00000330: e0a9 853f 65b1 5abe cb2f 2f3e 1c6a 5ebe
00000340: 7bc5 83bf 80a8 a13e 6bac 6d3f 0f4e 1b3f
00000350: 3d60 193d e6ff 223e 4707 1e3f e834 5fbe
00000360: cc46 3bbe 3010 243d c48d 423f 777f 643d
00000370: 6f7d babd c3f6 c03e 08c2 123f ca0f 30be
00000380: 834d fdbe a598 00be 4c15 653e dae3 c83c
00000390: 8b32 59bd b7d8 eabe 0d94 913e 808d 43be
000003a0: 3f33 1dbe e8c3 17bf 60ae fc3d b073 d03e
000003b0: b0fd 8d3e 1ce2 4dbe b860 5e3f 63da 83be
000003c0: a10b 7a3f 2517 aabe 0e51 b3bf 371b 4cbf
000003d0: cc42 a73e 933e a83e cc2f b5be d29f e93e
000003e0: 803a 313f 089e 9a3e 7287 98bf 5008 9bbe
000003f0: d985 d4be a404 7fbe 53c5 ecbe 3ee6 0d3f

weight f4 [16, 16]
1.5546688 0.8780886 -1.6176664 -0.4729357 0.25737205 0.5361329 -0.64506286 0.57202464
0.12948428 0.35732415 -0.9738144 -0.6991082 0.13491262 0.23754211 -0.74132574 0.1968601
-0.8511945 0.6881989 1.0977609 -0.024710583 -0.16194876 -0.06779094 0.7894479 0.14147596
-1.0119392 -0.6148838 0.9949478 -0.051155183 -0.10951528 0.8243204 0.44199893 -0.7972467
-0.16520742 -0.86253405 0.34641364 0.60727835 -1.1005232 -1.1286952 0.4914554 0.08375073
-0.51484114 -0.08752456 0.67620134 0.38009706 -1.0026425 0.13375849 0.6609571 -0.6658765
-0.38075948 0.26425868 0.32579094 -0.15973127 0.04766911 -0.093340844 0.19619982 -0.3450234
-0.7399185 0.15008217 0.46409184 0.9853583 0.6321048 0.0831647 0.3889896 -0.6617117
1.4896771 0.8365982 -1.2874867 -0.26129213 0.07856696 0.09119664 -0.96227163 0.4500711
0.36238745 0.56377244 -1.0374216 -1.459816 -0.10211584 -0.114914745 -0.6525719 0.72954243
-0.13352844 -0.33178747 0.1696093 -0.15185462 -0.57612765 -0.6094097 0.11685843 -0.076594755
0.44220752 -0.36833334 0.18998511 -0.041668553 -0.4066549 -0.32570243 0.28533265 -0.74956685
2.5158517 0.0113289645 -3.8184447 -4.439525 0.56639326 0.38620722 -4.6189127 1.4963979
5.648115 0.46280384 -4.9736595 -1.4665803 -0.5117334 -0.2218591 -1.3849461 1.4591341
-3.9663188 0.9905246 3.3827064 2.6427429 -1.836305 -1.9820521 3.4263935 -1.9125863
-3.145656 0.40943113 3.7006423 0.2024688 -1.4974325 -0.3256063 2.164227 -3.2845871
-1.1198795 1.5965432 1.301682 1.6543075 -1.1924134 -1.1735369 1.0864408 -0.046098698
-1.4285884 1.678158 1.5585443 -1.4773207 -1.8630488 1.0227723 0.9378202 -1.363838
-0.90201163 0.5112129 0.58134776 0.1811024 -0.83900434 -0.7404397 0.4807019 -0.39602605
0.09048863 -0.08768806 0.27199918 0.12593046 -0.042825412 -0.31240237 0.58753806 -0.30400476
-0.2553494 0.089391485 0.043691956 -0.5399282 -0.6139806 -0.44539195 0.6205301 -0.091535494
0.07148056 -0.30478343 -0.2686079 -0.33368668 -0.09099729 -0.5264071 0.2294594 -0.559019
0.75697917 -0.1042499 -0.833935 0.39645022 -0.09922208 0.09994953 0.091196634 0.6600648
-0.56587625 0.17204401 -0.5547149 -0.42834458 -0.5134422 -0.18987745 -0.21278782 -0.51130575
2.1407907 -1.8117275 -2.1047852 -1.5421733 1.9691149 1.8260032 -2.403114 -0.10569987
1.6869646 -0.7460841 -2.2126317 0.9766496 0.57004565 -0.8845439 -1.7176027 1.6979209
-1.2654731 1.9432858 2.6334558 1.7581657 -0.6819385 -0.9457535 1.6412684 -0.3606751
-1.4945657 1.2348015 1.9696418 0.15333547 -0.7807097 -0.038517103 0.5895115 -1.0006167
-2.2415102 -0.531843 2.5669582 2.7460918 -1.4883435 -1.606826 2.7100933 -0.06770576
-3.1158197 -1.3537532 3.1174185 -0.059637405 -0.7492651 -0.17268737 1.646549 -0.17008257
0.11273748 1.3051155 -0.21082842 -0.9524501 0.34204474 1.0465012 -0.72715735 -0.64145225
0.37069115 0.4091902 -0.31909764 -0.68394625 1.5058618 0.100655176 -0.28942508 0.16381793
00000000: 63ff c63f 6aca 603f b10f cfbf a124 f2be
00000010: 45c6 833e 0140 093f d722 25bf 3570 123f
00000020: 8797 043e 31f3 b63e e74b 79bf c1f8 32bf
00000030: 8926 0a3e 3d3e 733e 86c7 3dbf b295 493e
00000040: e2e7 59bf ce2d 303f 6e83 8c3f d96d cabc
00000050: e5d5 25be fad5 8abd 4219 4a3f 13df 103e
00000060: 3987 81bf 0669 1dbf e6b4 7e3f 1988 51bd
00000070: 8c49 e0bd a906 533f af4d e23e 5c18 4cbf
00000080: 222c 29be 08cf 5cbf 215d b13e 9876 1b3f
00000090: f2dd 8cbf 1679 90bf 0ba0 fb3e 8185 ab3d
000000a0: a1cc 03bf 1440 b3bd 881b 2d3f 159c c23e
000000b0: 9756 80bf fcf7 083e 7c34 293f e276 2abf
000000c0: e8f2 c2be ea4c 873e 12ce a63e 9890 23be
000000d0: af40 433d 7c29 bfbd 9be8 483e e8a6 b0be
000000e0: 4c6b 3dbf 24af 193e 729d ed3e 7140 7c3f
000000f0: 9fd1 213f 4152 aa3d a529 c73e f065 29bf
00000100: bdad be3f 4d2b 563f 5dcc a4bf 15c8 85be
00000110: b7e7 a03d 4ec5 ba3d 6f57 76bf b86f e63e
00000120: d98a b93e 6453 103f 3bca 84bf 40db babf
00000130: 1c22 d1bd 6c58 ebbd f40e 27bf 4bc3 3a3f
00000140: aebb 08be 0ce0 a9be 0fae 2d3e c77f 1bbe
00000150: 1a7d 13bf 4602 1cbf 7953 ef3d b6dd 9cbd
00000160: 0669 e23e 3096 bcbe 758b 423e a5ac 2abd
00000170: 1235 d0be 78c2 a6be 1f17 923e 9de3 3fbf
00000180: b703 2140 1f9d 393c 6661 74c0 9710 8ec0
00000190: 26ff 103f f4bc c53e 22ce 93c0 f789 bf3f
000001a0: 5cbd b440 a0f4 ec3e 3828 9fc0 e7b8 bbbf
000001b0: f600 03bf 082f 63be ea45 b1bf e8c4 ba3f
000001c0: 2bd8 7dc0 0593 7d3f 437e 5840 b322 2940
000001d0: 0b0c ebbf e2b3 fdbf 084a 5b40 a1cf f4bf
000001e0: 6e52 49c0 f5a0 d13e 53d7 6c40 fb53 4f3e
000001f0: deab bfbf deb5 a6be b282 0a40 ad36 52c0
00000200: 3658 8fbf 875b cc3f 849d a63f 59c0 d33f
00000210: 01a1 98bf 7536 96bf 7e10 8b3f fdd1 3cbd
00000220: fcdb b6bf e2cd d63f 617e c73f d818 bdbf
00000230: 6278 eebf 34ea 823f fc14 703f 3e92 aebf
00000240: 3cea 66bf d9de 023f 35d3 143f e872 393e
00000250: fdc8 56bf 758d 3dbf 8f1e f63e edc3 cabe
00000260: 1a52 b93d cc95 b3bd 7a43 8b3e eaf3 003e
00000270: b369 2fbd 34f3 9fbe e568 163f 83a6 9bbe
00000280: 28bd 82be e212 b73d 56f6 323d bc38 0abf
00000290: d52d 1dbf 6a0a e4be 10db 1e3f f676 bbbd
000002a0: 6664 923d 930c 9cbe fa86 89be fbd8 aabe
000002b0: ca5c babd 9ec2 06bf 68f7 6a3e df1b 0fbf
000002c0: 63c9 413f f980 d5bd c47c 55bf 86fb ca3e
000002d0: f234 cbbd 57b2 cc3d 4dc5 ba3d 02fa 283f
000002e0: 44dd 10bf 4e2c 303e cc01 0ebf fb4f dbbe
000002f0: f370 03bf 3c6f 42be 0de5 59be efe4 02bf
00000300: b702 0940 b0e6 e7bf cdb4 06c0 ef65 c5bf
00000310: f50b fc3f 79ba e93f 9fcc 19c0 2c79 d8bd
00000320: 75ee d73f 5eff 3ebf c29b 0dc0 b505 7a3f
00000330: 83ee 113f 7871 62bf 68da dbbf 7955 d93f
00000340: 06fb a1bf 97bd f83f 8a8a 2840 930b e13f
00000350: 8693 2ebf e71c 72bf 1515 d23f 68aa b8be
00000360: ee4d bfbf fa0d 9e3f 391d fc3f f903 1d3e
00000370: 97dc 47bf 1cc4 1dbd 3aea 163f 3514 80bf
00000380: e774 0fc0 dd26 08bf 0b49 2440 f8bf 2f40
00000390: 0a82 bebf 79ac cdbf 2b72 2d40 51a9 8abd
000003a0: 9769 47c0 c947 adbf c983 4740 5a46 74bd
000003b0: d6cf 3fbf f5d4 30be 1ec2 d23f 202a 2ebe
000003c0: e8e2 e63d 060e a73f 68e3 57be c5d3 73bf
000003d0: 7d20 af3e c0f3 853f fc26 3abf 3736 24bf
000003e0: 3bcb bd3e 6181 d13e c460 a3be 1a17 2fbf
000003f0: 14c0 c03f 4d24 ce3d 862f 94be e3bf 273e

bias f4 [16]
0.15827923 -0.2474818 -1.128411 -0.21482526 0.5685138 -0.37719512 0.23460145 -1.6627108
-0.96234864 -0.83947587 -0.5492654 -0.2224384 1.6452795 -0.61263555 -1.2921289 0.36299405
00000000: f313 223e de6b 7dbe c66f 90bf 27fb 5bbe
00000010: 1f8a 113f b81f c1be 5d3b 703e b5d3 d4bf
00000020: 7b5c 76bf e4e7 56bf a89c 0cbf e4c6 63be
00000030: 8598 d23f afd5 1cbf 7b64 a5bf 5bda b93e

weight f4 [16, 16]
-0.953027 0.5269287 0.337871 0.43935868 -0.4017776 1.2212927 1.702711 -1.2786164
0.9085969 -0.7163717 1.8060459 0.102714546 -2.1330316 -0.07409643 0.5264727 0.44597435
1.4878927 -0.23813443 -0.6433518 -0.2239234 0.3402376 -1.811684 -1.2253029 1.8376702
-0.40671822 0.18482754 -2.1760392 1.2457308 2.0101895 -0.2285766 -0.5765812 -0.12104314
0.29479057 1.3921474 -0.8557642 1.8886712 -0.0036345618 -1.0303463 0.41132495 0.6502318
1.662843 -0.14565378 -0.083465524 -0.20898782 -0.19523032 0.08922886 0.027454564 -0.91010547
0.70537394 -0.6283839 -0.13819565 -0.54227984 0.863981 -1.9993249 -0.8602427 1.8494858
-1.2119428 -0.2557574 -1.44094 -0.057907343 2.0100253 0.3044335 0.3039278 -0.1582197
-1.4003311 0.38423273 0.23399313 0.068806455 -0.28261167 1.4146723 1.2737607 -1.9843993
1.2173204 -0.474543 1.1156958 0.716988 -0.8961798 0.21983682 0.3381715 0.64009154
0.34797952 0.24359338 -0.18100166 -0.14154556 0.057770617 -0.3890522 0.050701108 0.6327865
-0.31038567 0.5111943 -0.3110313 -0.37449032 0.86634886 -0.32398528 0.21572247 -0.48750144
-0.51838624 -0.3230004 0.32263213 0.56343126 -0.15725249 0.09203428 -0.10933991 -0.03896405
0.026687386 -0.82680273 0.2604737 0.76204747 -0.27272046 0.57638836 -0.06874336 0.8190012
-0.6547876 1.2222824 -1.8624021 1.2514148 -0.8556349 0.9617483 1.131273 -1.0464557
1.1696987 0.04421639 1.1369767 -1.352735 -1.2981313 -1.9152595 1.363227 -2.3190892
0.7228677 1.654297 -0.97477996 1.4759043 -1.3992846 -0.9703153 -1.156762 0.6331144
-0.95696664 -1.8794565 -1.119669 -1.6948307 0.9684261 -1.5810665 1.6819607 -0.7803059
0.25144345 1.4549915 -0.44575423 -0.13713038 -1.4399886 -0.3381896 -0.41690606 0.40840214
0.56371135 -0.1471316 -0.49032313 -0.5379087 0.43542135 -0.27759063 0.37066424 -0.6133455
0.35397997 -0.039779473 -0.5260878 -0.086687766 -0.7213776 -0.37141174 -0.27009732 0.25271055
0.02666317 0.07699862 -0.2597106 -0.31949434 0.27005312 -0.41441268 0.38251933 -0.06241074
-1.6455542 0.6071101 -0.23605835 0.9724935 -1.1231185 1.4177643 1.8331856 -1.6516833
1.1224338 -0.03413624 1.803743 -0.23684259 -2.5527744 -0.5691238 0.53931606 0.2867306
-2.214018 -1.7622287 1.9464244 -1.1197054 1.2201222 1.694357 1.8315855 -2.0705333
0.9678246 0.9464632 2.177766 1.1694918 -1.8299123 -2.4967918 -1.2107167 1.9040508
0.5892885 2.395297 -0.36891598 1.2185513 -2.1613362 -0.02358502 -0.7428642 0.5424088
-1.5384853 -0.19919126 -0.88709426 -1.1517773 0.6337477 -0.8812818 1.8735772 -0.4176951
-0.028068503 1.4778804 -1.1999704 0.79244184 -0.26905975 0.47283086 1.160544 -0.56505555
1.4489796 1.6607136 0.5120033 -0.62051064 -1.041399 -1.6277982 0.68191123 -1.5909002
-0.19264069 -1.3070114 0.33810744 -1.5634745 0.88246804 0.20824653 0.29435512 -0.20323603
-1.2969002 -0.69407123 -0.4803515 -0.07526326 1.0629029 0.6749406 1.160658 0.37783915
00000000: 94f9 73bf cde4 063f 6dfd ac3e 9ff3 e03e
00000010: cbb5 cdbe 5253 9c3f 6ff2 d93f b4a9 a3bf
00000020: ce99 683f 2364 37bf 832c e73f 015c d23d
00000030: 9783 08c0 debf 97bd eac6 063f c056 e43e
00000040: 4573 be3f 83d9 73be b4b2 24bf 2d4c 65be
00000050: 9f33 ae3e 43e5 e7bf bad6 9cbf c738 eb3f
00000060: 5f3d d0be 6e43 3d3e 3a44 0bc0 1b74 9f3f
00000070: f2a6 0040 fc0f 6abe d39a 13bf 77e5 f7bd
00000080: caee 963e e331 b23f 5d13 5bbf fabf f13f
00000090: d431 6ebb 63e2 83bf 2f99 d23e 9775 263f
000000a0: 0ad8 d43f 4426 15be f9ef aabd e700 56be
000000b0: 75ea 47be 9fbd b63d 65e8 e03c acfc 68bf
000000c0: 6393 343f c4dd 20bf 2983 0dbe dad2 0abf
000000d0: dc2d 5d3f e1e9 ffbf de38 5cbf f3bb ec3f
000000e0: f120 9bbf a2f2 82be b970 b8bf 4030 6dbd
000000f0: 41a4 0040 b5de 9b3e 6d9c 9b3e 5804 22be
00000100: 0d3e b3bf 27ba c43e e59b 6f3e 66ea 8c3d
00000110: 7ab2 90be fb13 b53f 970a a33f cc00 febf
00000120: 28d1 9b3f 4df7 f2be 1fcf 8e3f 878c 373f
00000130: 0a6c 65bf e71c 613e d124 ad3e 0add 233f
00000140: 5f2a b23e 8b70 793e 8058 39be 52f1 10be
00000150: e2a0 6c3d da31 c7be f7ab 4f3d 4cfe 213f
00000160: dfea 9ebe a1dd 023f 7f3f 9fbe 32bd bfbe
00000170: 0ac9 5d3f 66e1 a5be 5ae6 5c3e ca99 f9be
00000180: f6b4 04bf 4f60 a5be 0a30 a53e 083d 103f
00000190: cc06 21be 787c bc3d 9aed dfbd c598 1fbd
000001a0: 819f da3c 58a9 53bf cf5c 853e 8b15 433f
000001b0: 04a2 8bbe 308e 133f 52c9 8cbd 10aa 513f
000001c0: 29a0 27bf c073 9c3f 3163 eebf 5c2e a03f
000001d0: e40a 5bbf 2335 763f 8ecd 903f 43f2 85bf
000001e0: b0b8 953f 3f1c 353d 7488 913f 6c26 adbf
000001f0: 2b29 a6bf 3927 f5bf 397e ae3f f56b 14c0
00000200: dc0d 393f 01c0 d33f 2e8b 79bf 6fea bc3f
00000210: c21b b3bf 9566 78bf c710 94bf c913 223f
00000220: c4fb 74bf 0892 f0bf 5051 8fbf 36f0 d8bf
00000230: c6ea 773f 6360 cabf 7d4a d73f 21c2 47bf
00000240: 32bd 803e 293d ba3f e639 e4be e86b 0cbe
00000250: 8c51 b8bf 3027 adbe b674 d5be 161a d13e
00000260: 634f 103f aba9 16be a20b fbbe 62b4 09bf
00000270: 8cef de3e 5c20 8ebe b4c7 bd3e 3604 1dbf
00000280: dd3c b53e cdef 22bd b1ad 06bf 5b89 b1bd
00000290: 34ac 38bf ae29 bebe 324a 8abe 4763 813e
000002a0: b86c da3c 74b1 9d3d caf8 84be c394 a3be
000002b0: 6744 8a3e e62d d4be 93d9 c33e 67a2 7fbd
000002c0: 85a1 d2bf 916b 1b3f 48b9 71be 56f5 783f
000002d0: 59c2 8fbf 4d79 b53f d3a5 ea3f 5c6a d3bf
000002e0: e9ab 8f3f 71d2 0bbd 0de1 e63f dd86 72be
000002f0: a860 23c0 19b2 11bf 9e10 0a3f 5ace 923e
00000300: 79b2 0dc0 b690 e1bf 6f24 f93f 8252 8fbf
00000310: f72c 9c3f b1e0 d83f 6571 ea3f 9e83 04c0
00000320: 5ac3 773f 6a4b 723f 8560 0b40 e8b1 953f
00000330: 913a eabf 70cb 1fc0 c4f8 9abf f0b7 f33f
00000340: 9cdb 163f 8c4c 1940 8ee2 bcbe 7df9 9b3f
00000350: 5553 0ac0 5f35 c1bc 592c 3ebf 4edb 0a3f
00000360: 16ed c4bf cbf8 4bbe 9c18 63bf 706d 93bf
00000370: 4a3d 223f af9b 61bf 61d1 ef3f 22dc d5be
00000380: ebef e5bc 2f2b bd3f a198 99bf 78dd 4a3f
00000390: 33c2 89be e316 f23e b58c 943f 7ba7 10bf
000003a0: 2a78 b93f 4392 d43f a612 033f c9d9 1ebf
000003b0: 904c 85bf b15b d0bf bc91 2e3f 9ea2 cbbf
000003c0: 9a43 45be 264c a7bf 6b1c ad3e ef1f c8bf
000003d0: 6de9 613f 943e 553e b7b5 963e 1b1d 50be
000003e0: d300 a6bf a7ae 31bf a2f0 f5be a023 9abd
000003f0: 340d 883f e8c8 2c3f 7190 943f 2274 c13e
