mlartifacts/196996377989302197/3a61c46f25fc462697d72806e8ab2f8f/artifacts/models/data/model.pth (torch, 91302 bytes, 64 tensors)

bias f4 [16]
-0.0012718712 -0.0047665937 0.019382333 0.017643329 -0.008441274 0.0 0.0068798345 0.013492646
0.011750811 -0.021666989 0.0064667566 -0.014531972 -0.00598767 -0.015580994 -0.023762373 0.0
00000000: eab4 a6ba 1631 9cbb b3c7 9e3c be88 903c
00000010: 454d 0abc 0000 0000 3c70 e13b 4210 5d3c
00000020: 7986 403c f87e b1bc 16e7 d33b 8217 6ebc
00000030: 3734 c4bb 6d47 7fbc 4fa9 c2bc 0000 0000

weight f4 [16, 3]
0.38877666 0.5628215 0.4629765 0.36853042 -0.006808977 -0.18147422 -0.331316 0.12168711
0.05481339 0.32386634 0.3236528 -0.21809413 0.5679612 -0.21290953 0.37497345 -0.25663686
0.5759223 -0.5533146 0.28082684 -0.46470436 -0.23329782 -0.45934325 -0.3118245 -0.4004472
-0.1735892 -0.47310865 0.10468076 -0.4878847 0.17851973 -0.38191816 0.440899 -0.20532402
0.21622483 -0.34115323 0.039772544 -0.55156696 0.36360958 0.22271922 -0.16536124 0.08988997
0.39979985 -0.20742439 -0.5808006 -0.2399758 -0.5206369 -0.57446426 0.247515 -0.037037555
00000000: bc0d c73e 1215 103f 410b ed3e 05b0 bc3e
00000010: d71d dfbb 61d4 39be 40a2 a9be 1737 f93d
00000020: 0184 603d cfd1 a53e d2b5 a53e 1154 5fbe
00000030: e865 113f f504 5abe 85fc bf3e e865 83be
00000040: a56f 133f 07a6 0dbf 89c8 8f3e bbed edbe
00000050: a0e5 6ebe 0a2f ebbe 76a7 9fbe 6a07 cdbe
00000060: 5ec1 31be 4c3b f2be de62 d63d 06cc f9be
00000070: e0cd 363e c78a c3be 84bd e13e 7640 52be
00000080: 0b6a 5d3e a3ab aebe 89e8 223d 7e33 0dbf
00000090: 092b ba3e 8210 643e 7554 29be 3c18 b83d
000000a0: 91b2 cc3e 0f67 54be 59af 14bf 37bc 75be
000000b0: 7648 05bf 1710 13bf 9274 7d3e b1b4 17bd

weight f4 [16, 3]
-0.4481318 0.06384153 -0.12018786 0.16184682 -0.0409418 0.46649486 -0.3844629 -0.09428612
-0.07284042 0.5180996 -0.20836209 -0.45883587 0.44979295 -0.08718306 0.32957387 0.48003393
-0.58606064 0.0010658791 -0.23244919 -0.33976355 0.22446163 0.17644106 0.081725284 0.25007728
0.5456995 -0.47546378 -0.31460407 0.25977117 0.4840178 -0.088747084 0.05306365 -0.15480046
-0.08783199 -0.26847336 0.51082206 0.39919198 -0.440602 -0.30522257 0.08401682 0.057187743
0.10675765 -0.13915208 0.22118887 -0.028545322 0.3439087 -0.32974592 0.2872295 0.40206423
00000000: 8871 e5be 59bf 823d 0e25 f6bd 2cbb 253e
00000010: 97b2 27bd 6ad8 ee3e 52d8 c4be 1519 c1bd
00000020: 5c2d 95bd 2da2 043f df5c 55be 89ec eabe
00000030: 434b e63e 088d b2bd e8bd a83e 02c7 f53e
00000040: 1208 16bf f8b4 8b3a 2907 6ebe 7df5 adbe
00000050: 45d9 653e f7ac 343e 965f a73d 210a 803e
00000060: f6b2 0b3f fd6f f3be c913 a1be ba00 853e
00000070: 2ed1 f73e 08c1 b5bd 4559 593d 0384 1ebe
00000080: 42e1 b3bd 5775 89be 3cc5 023f e462 cc3e
00000090: 9696 e1be 2246 9cbe 0311 ac3d b23d 6a3d
000000a0: c1a3 da3d e27d 0ebe 567f 623e e1d7 e9bc
000000b0: cd14 b03e 75d4 a8be bf0f 933e 5ddb cd3e

bias f4 [16]
0.31756997 -0.37556896 -0.12976335 0.22060099 0.167441 0.23500511 -0.007752945 -0.094043866
0.2269669 -0.47368717 -0.45272243 -0.13821492 0.5088772 0.3944363 -0.27751514 0.25746828
00000000: 8898 a23e 934a c0be afe0 04be 3ae5 613e
00000010: a775 2b3e 2ea5 703e 6b0c febb 129a c0bd
00000020: 036a 683e 2087 f2be 3ccb e7be 3688 0dbe
00000030: c745 023f 8ef3 c93e 7716 8ebe e2d2 833e

weight f4 [16, 1]
-0.086534955 -0.7546773 0.9655405 0.3855599 -0.0024281482 -0.068354905 -0.32040453 0.45801985
0.77817947 -0.7865588 0.45914248 0.05967728 -0.90222096 -0.9718865 0.1003345 0.6256196
00000000: 3d39 b1bd 8832 41bf aa2d 773f 1b68 c53e
00000010: 9121 1fbb a8fd 8bbd 100c a4be 9481 ea3e
00000020: c536 473f eb5b 49bf b914 eb3e 2a70 743d
00000030: f4f7 66bf 8ecd 78bf 2d7c cd3d 9b28 203f

weight f4 [16, 1]
0.3993106 0.24271502 -0.6437307 -0.85344654 0.23115417 -0.8292067 0.51074964 0.2772227
0.47973672 0.8238258 -0.53589815 0.2637082 -0.7199162 -0.5354514 0.63973635 -0.28107357
00000000: 7072 cc3e 498a 783e 89cb 24bf 797b 5abf
00000010: aeb3 6c3e e446 54bf 7dc0 023f 22f0 8d3e
00000020: 0da0 f53e 3fe6 523f 9f30 09bf c304 873e
00000030: 6e4c 38bf 5813 09bf c3c5 233f e0e8 8fbe

bias f4 [16]
0.9773556 -0.97114635 0.39424655 0.72517383 0.16035776 -0.37471008 0.9481966 0.05293101
-0.11419641 0.5645424 0.41413254 -0.29409268 0.89804053 0.05892134 0.9260018 -0.77998984
00000000: fa33 7a3f 0c9d 78bf afda c93e fea4 393f
00000010: d334 243e 00da bfbe 03bd 723f 30ce 583d
00000020: cfdf e9bd da85 103f 2e09 d43e 5193 96be
00000030: fce5 653f 8157 713d 740e 6d3f 6aad 47bf

weight f4 [16, 3]
0.37841436 0.47435868 -0.2440888 0.10678753 0.16099754 0.32726216 0.314811 0.09083917
0.4943564 0.12486048 0.048677903 -0.48133525 0.41142288 -0.14158723 0.22497094 0.026668578
-0.35510257 -0.4486209 0.028945317 -0.2018506 -0.12483711 0.42028007 0.05284543 0.030174628
-0.47128317 0.2450483 0.0119305095 -0.26197854 0.19104719 0.49979666 0.25535896 -0.23301005
0.51273257 0.4873908 -0.49721816 0.33233914 0.36933482 0.4715663 0.20676991 -0.32458064
0.3748197 -0.09350919 0.15524383 -0.20353448 -0.24711263 0.30744377 -0.4426899 0.24498476
00000000: 87bf c13e 24df f23e 6af2 79be 6cb3 da3d
00000010: 8adc 243e e88e a73e e82e a13e e309 ba3d
00000020: 481c fd3e dab6 ff3d 7b62 473d 9371 f6be
00000030: 05a6 d23e 3efc 10be c85e 663e 1078 da3c
00000040: 01d0 b5be a3b1 e5be bb1e ed3c ecb1 4ebe
00000050: 99aa ffbd f32e d73e 7374 583d c830 f73c
00000060: 074c f1be f1ed 7a3e 2f78 433c 0d22 86be
00000070: e0a1 433e 59e5 ff3e 69be 823e 309a 6ebe
00000080: 7142 033f 498b f93e 6193 febe 5b28 aa3e
00000090: 7419 bd3e 2371 f13e 7ebb 533e 6f2f a6be
000000a0: 5ee8 bf3e bf81 bfbd 3df8 1e3e 586b 50be
000000b0: 180b 7dbe 4569 9d3e 40a8 e2be 49dd 7a3e

weight f4 [16, 3]
-0.4069082 -0.1307161 -0.09583375 -0.054992754 0.34079042 -0.16247956 0.024364404 0.09713724
-0.09025256 0.3649923 -0.54432976 0.5504612 -0.22395127 -0.049801454 -0.44432142 0.25996596
-0.25481287 0.34749258 -0.11677178 -0.39941385 -0.031747833 0.18266205 -0.19933881 -0.37767312
-0.15744212 0.023025552 0.28332496 0.512291 0.022644235 -0.27808732 0.22367553 0.21654062
0.17017531 -0.5333165 -0.019058129 -0.39770588 0.54021645 0.32306883 -0.25853822 0.26671618
0.43742248 -0.23320737 0.36298737 0.007908299 -0.41145563 0.44576907 0.20906459 -0.52240586
00000000: 4656 d0be 71da 05be 7c44 c4bd 1540 61bd
00000010: 157c ae3e 0b61 26be dc97 c73c e4ef c63d
00000020: 56d6 b8bd 45e0 ba3e 3259 0bbf 06eb 0c3f
00000030: 7b53 65be 9cfc 4bbd 197e e3be 421a 853e
00000040: d576 82be 8cea b13e 0b26 efbd f97f ccbe
00000050: 040a 02bd c30b 3b3e 791f 4cbe 5f5e c1be
00000060: 8238 21be 15a0 bc3c f80f 913e 8125 033f
00000070: 6780 b93c 7661 8ebe 330b 653e d3bc 5d3e
00000080: 7042 2e3e 6e87 08bf cb1f 9cbc 1ba0 cbbe
00000090: a04b 0a3f 4769 a53e 1f5f 84be 068f 883e
000000a0: d7f5 df3e eacd 6ebe 7bd9 b93e cf91 013c
000000b0: 50aa d2be d83b e43e 0715 563e 64bc 05bf

bias f4 [16]
-0.56737775 -0.52182233 0.41233438 -0.021862254 -0.5769411 -0.06992995 -0.22732234 0.17682275
-0.4338993 -0.34200573 -0.44529557 0.2355375 -0.091728106 -0.23366617 0.34048268 0.20467359
00000000: ab3f 11bf 2696 05bf 7e1d d33e 7818 b3bc
00000010: 69b2 13bf 6f37 8fbd 30c7 68be 0611 353e
00000020: 0d28 debe 601b afbe c8fd e3be be30 713e
00000030: f2db bbbd 2f46 6fbe bf53 ae3e f495 513e

weight f4 [16, 1]
-0.13630383 -0.4478091 0.50786203 0.9329514 -0.08959074 0.22231567 -0.49241218 0.026825009
-0.63835466 0.23136236 0.09804403 0.24808256 -0.29405323 -0.61884713 0.21622284 -0.61035764
00000000: 3b93 0bbe 3c47 e5be 3f03 023f e7d5 6e3f
00000010: 5a7b b7bd b8a6 633e 731d fcbe 1fc0 db3c
00000020: 366b 23bf 41ea 6c3e 4fcb c83d 5b09 7e3e
00000030: 258e 96be c46c 1ebf 8569 5d3e 6640 1cbf

bias f4 [16]
0.7182276 -0.4830365 0.42748794 -0.7260364 0.50967366 -0.014358759 -0.7268202 0.13925995
0.0047501298 -0.43150797 -0.6272493 -0.7937161 0.8728285 0.37983477 0.25117669 -0.13077736
00000000: c4dd 373f 8f50 f7be b3df da3e 86dd 39bf
00000010: f979 023f 0041 6bbc e310 3abf 299a 0e3e
00000020: faa6 9b3b 9dee dcbe 6993 20bf fa30 4bbf
00000030: b071 5f3f b479 c23e 3b9a 803e 80ea 05be

weight f4 [16, 3]
0.16805385 0.053939458 -0.12432749 0.031326484 0.39328337 -0.32909214 0.18942182 -0.048632305
-0.2518376 -0.23071453 0.50339794 -0.049222205 -0.00091730885 -0.25277755 -0.076538526 0.23068419
-0.5641348 0.5421789 0.049078986 0.25477028 -0.5527024 0.1311859 -0.14210625 -0.25040516
-0.075158164 -0.41027102 -0.011560399 0.48557624 -0.26591396 0.4574393 0.4729767 -0.30685085
0.14895634 0.19061841 -0.06123695 -0.43072549 -0.24727657 0.51556 -0.38097078 -0.2886838
0.26358888 0.26156512 -0.37062237 -0.550213 -0.3948822 -0.36333823 0.2769922 0.14082147
00000000: 4f16 2c3e 9fef 5c3d 699f febd 3350 003d
00000010: 705c c93e c47e a8be cbf7 413e ab32 47bd
00000020: dcf0 80be 6e40 6cbe b0de 003f 399d 49bd
00000030: 8e77 70ba 0f6c 81be 3bc0 9cbd 7a38 6c3e
00000040: 236b 10bf 3dcc 0a3f 0c07 493d 4071 823e
00000050: e87d 0dbf 9955 063e 4d84 11be 1b35 80be
00000060: 86ec 99bd 0b0f d2be d467 3dbc 739d f83e
00000070: e025 88be 7c35 ea3e 012a f23e 8e1b 9dbe
00000080: 0388 183e 7931 433e 99d3 7abd 0d88 dcbe
00000090: 1236 7dbe bdfb 033f 9a0e c3be 5dce 93be
000000a0: 1ff5 863e ddeb 853e 37c2 bdbe c2da 0cbf
000000b0: 002e cabe 7807 babe ecd1 8d3e 8133 103e

weight f4 [16, 3]
0.5285066 -0.5184636 -0.54670125 0.13503382 -0.3898075 0.021547114 -0.25578085 0.18023558
0.5434746 -0.44659865 -0.4034744 0.5908236 -0.08685317 -0.033179663 -0.10605588 0.008135182
0.2975283 -0.22752835 -0.56107956 -0.2937034 0.20233679 -0.0081503065 -0.3126472 0.5462516
-0.47344464 0.35687944 -0.4361175 0.27825212 -0.5521109 -0.3306609 -0.4319664 0.026858153
0.4934143 0.42417854 0.5881266 -0.014787406 -0.03333385 -0.2931596 -0.40272918 0.30564022
0.42399397 0.4184197 0.1400678 0.14515461 -0.27904463 0.341468 -0.55752873 0.17751564
00000000: 354c 073f 08ba 04bf 9df4 0bbf 4e46 0a3e
00000010: d994 c7be 9383 b03c b5f5 82be ad8f 383e
00000020: 2721 0b3f 94a8 e4be 3294 cebe 3740 173f
00000030: 13e0 b1bd 66e7 07bd d333 d9bd 6d49 053c
00000040: a155 983e 31fd 68be e9a2 0fbf 4b60 96be
00000050: 6031 4f3e dd88 05bc 4b13 a0be 25d7 0b3f
00000060: 5667 f2be e7b8 b63e cb4a dfbe 1077 8e3e
00000070: 2457 0dbf 634c a9be b32a ddbe a105 dc3c
00000080: cda0 fc3e ee2d d93e 778f 163f e046 72bc
00000090: 1389 08bd 0419 96be 8532 cebe e07c 9c3e
000000a0: bd15 d93e 1b3b d63e ef6d 0f3e 69a3 143e
000000b0: f0de 8ebe e5d4 ae3e 34ba 0ebf a9c6 353e

bias f4 [16]
-0.5519813 -0.018549472 0.21625623 -0.07149191 -0.25621307 -0.3899861 0.063350074 0.4982285
-0.56259435 0.16824572 0.442473 -0.025904778 -0.24901849 -0.49683383 -0.03702195 -0.29780534
00000000: a54e 0dbf 10f5 97bc 4672 5d3e 5a6a 92bd
00000010: 5c2e 83be 42ac c7be afbd 813d ce17 ff3e
00000020: 2f06 10bf 9b48 2c3e d28b e23e 4236 d4bc
00000030: b4fe 7ebe 0161 febe 54a4 17bd f179 98be

weight f4 [16, 1]
0.3233228 0.5567149 -0.36460513 0.24594823 0.40752494 -0.6188815 0.25788438 0.39287853
0.5916086 0.029243287 -0.9043043 -0.13885091 0.20491576 0.08349125 -0.50076216 -0.49350587
00000000: 918a a53e de84 0e3f 86ad babe dad9 7b3e
00000010: 1ca7 d03e 056f 1ebf 6c09 843e 6027 c93e
00000020: a973 173f 9e8f ef3c 7d80 67bf ef2e 0ebe
00000030: 70d5 513e 76fd aa3d f331 00bf cdac fcbe

weight f4 [16, 16]
-0.21071044 -0.16931847 0.17413466 0.05631673 -0.14747879 0.2029453 -0.07836056 -0.085371755
0.023777222 0.051234383 0.19941437 0.12792256 0.00080010784 -0.083256505 -0.2555162 -0.26374006
-0.23951557 0.043636084 0.12420709 -0.16325238 -0.02276975 0.1506642 0.08569312 -0.12030669
-0.17623538 0.2201094 0.20778571 0.1878961 -0.15683427 0.2064476 0.008881448 -0.21364437
0.19251436 0.23477185 0.2622972 0.037227493 -0.15173665 -0.027849307 0.11695936 0.054807987
0.15827307 -0.10873963 0.017135404 -0.14613634 -0.1683158 0.08672409 0.0062780217 0.25303435
0.14350957 0.15964025 0.23420644 -0.073424496 -0.079345495 0.16946676 -0.082850575 0.12315042
0.09328139 -0.044775266 -0.11459312 0.03585127 -0.2445377 -0.02801522 -0.19122957 -0.17522046
-0.22967803 0.07494131 -0.16078147 0.17302464 0.034154475 0.2152798 -0.060146183 -0.23343126
0.19434156 0.06608977 -0.04156831 0.10441238 0.11426839 0.156223 0.010663543 -0.120577216
0.2123613 0.1377686 0.086800106 -0.002692757 0.23937759 -0.046296764 0.12479517 -0.006314963
-0.20215927 -0.026291192 0.050145015 -0.1680263 0.15843514 0.056323178 0.23480466 -0.032873437
0.23627546 -0.119345784 -0.08520971 0.08099869 0.22122648 -0.061894037 -0.043249905 0.09559082
-0.20231214 0.250089 0.14125857 0.14488146 -0.17386945 0.006269729 0.18131791 0.2045837
0.114646435 -0.024672955 -0.20497969 0.13519415 -0.032556355 -0.09819046 0.12859151 0.10244781
-0.04584849 -0.22077048 -0.17395562 0.057238787 0.10071939 -0.13429731 -0.13010794 -0.008642852
0.1897161 -0.14894852 -0.20738225 -0.25388026 -0.04614976 0.17669149 0.20310679 -0.24855243
0.03984462 -0.1837167 0.12262275 -0.1344457 0.009586898 -0.21622667 -0.17294207 0.1404958
0.021488726 0.092476755 -0.2202906 0.15967467 -0.112948984 0.22448575 -0.07325256 -0.22284082
0.026515365 0.20175871 -0.20280981 0.03391224 0.23037577 0.0184367 0.061495006 -0.21205068
0.18520117 0.15248966 0.08954969 -0.07917035 0.09524155 -0.01633159 0.1404401 0.019764563
0.23879845 -0.16790542 0.2627711 0.14967948 0.17645465 0.16704331 0.15123959 -0.11391568
0.1528785 0.23372948 0.05575338 0.10952849 0.013102084 -0.044425912 0.19629347 -0.14169253
-0.08442087 -0.021493293 -0.22859521 0.20077893 0.02096548 -0.18046136 -0.12540638 0.23740879
-0.07485616 0.007396698 0.13433889 -0.16253495 -0.03719449 0.11637512 0.16903359 0.0681506
-0.1572431 0.12411675 -0.0074369777 -0.047997415 0.10710162 0.02074577 -0.15137513 0.16167633
-0.072313905 0.041447848 -0.09518186 0.18960631 0.028897196 0.08622007 -0.06155187 -0.21258172
0.126925 0.17967154 0.23992163 0.20722789 -0.013053875 0.16696417 -0.084689796 0.0038554843
0.20718649 -0.23845056 0.01655042 0.19200361 0.13388461 -0.027123809 -0.020450085 0.07200877
0.19673946 -0.15999526 -0.16060574 0.1207051 -0.23636182 0.05563919 0.03135756 0.023522343
0.16512054 0.24579072 0.1628537 -0.23357719 0.21528745 -0.21373767 0.099000365 0.09075968
0.017200893 0.017001232 -0.06388385 0.11081198 0.09704322 0.04213941 0.07504586 0.1341683
00000000: 7ac4 57be d261 2dbe 5b50 323e 5fac 663d
00000010: ae04 17be e5d0 4f3e 807b a0bd 63d7 aebd
00000020: 73c8 c23c 25db 513d 4833 4c3e 22fe 023e
00000030: 54be 513a 6382 aabd 05d3 82be f008 87be
00000040: 9243 75be c0bb 323d 4960 fe3d a22b 27be
00000050: a087 babc b747 1a3e e07f af3d 5b63 f6bd
00000060: 0c77 34be 5c64 613e c7c5 543e d667 403e
00000070: 2a99 20be 0067 533e 7e83 113c 97c5 5abe
00000080: 7c22 453e 0868 703e d24b 863e db7b 183d
00000090: da60 1bbe 3b24 e4bc 6488 ef3d 577e 603d
000000a0: 5612 223e e2b2 debd 8c5f 8c3c c4a4 15be
000000b0: fa5a 2cbe 669c b13d ddb7 cd3b b88d 813e
000000c0: 2cf4 123e bc78 233e d0d3 6f3e 955f 96bd
000000d0: e47f a2bd b288 2d3e 90ad a9bd 4a36 fc3d
000000e0: 500a bf3d 4566 37bd ccaf eabd c8d8 123d
000000f0: 1768 7abe 2d80 e5bc afd1 43be fe6c 33be
00000100: b830 6bbe d47a 993d e6a3 24be 5f2d 313e
00000110: 90e5 0b3d 4f72 5c3e d85b 76bd 9b08 6fbe
00000120: 7901 473e 135a 873d 8843 2abd 28d6 d53d
00000130: 8c05 ea3d ecf8 1f3e 24b6 2e3c 30f1 f6bd
00000140: 3e75 593e 3613 0d3e 41c4 b13d f778 30bb
00000150: 661f 753e ada1 3dbd 9c94 ff3d c0ed cebb
00000160: d702 4fbe a060 d7bc dc64 4d3d 160f 2cbe
00000170: d23c 223e 22b3 663d a270 703e 4ca6 06bd
00000180: 32f2 713e 906b f4bd 6e82 aebd a4e2 a53d
00000190: 3289 623e 9a84 7dbd d026 31bd 1fc5 c33d
000001a0: ea2a 4fbe aa0b 803e 16a6 103e ce5b 143e
000001b0: d50a 32be 4d72 cd3b 67ab 393e 647e 513e
000001c0: c0cb ea3d f01e cabc 32e6 51be 5670 0a3e
000001d0: d059 05bd 1418 c9bd 7ead 033e 28d0 d13d
000001e0: a0cb 3bbd a811 62be 6c21 32be 3873 6a3d
000001f0: f845 ce3d 3c85 09be 043b 05be c09a 0dbc
00000200: f044 423e f685 18be 035c 54be 98fc 81be
00000210: 8807 3dbd 9dee 343e 3afb 4f3e 8784 7ebe
00000220: 1d34 233d 3b20 3cbe a321 fb3d 22ac 09be
00000230: 5d12 1d3c 866a 5dbe ba17 31be 22de 0f3e
00000240: 2009 b03c 7464 bd3d dc93 61be c281 233e
00000250: cc51 e7bd 98df 653e 7005 96bd 6230 64be
00000260: c036 d93c d699 4e3e 60ad 4fbe 90e7 0a3d
00000270: a0e7 6b3e 9008 973c 30e2 7b3d d023 59be
00000280: 60a5 3d3e 4026 1c3e d465 b73d 1124 a2bd
00000290: 000e c33d d4c9 85bc 88cf 0f3e 4be9 a13c
000002a0: 9587 743e 66ef 2bbe ef89 863e 9445 193e
000002b0: 87b0 343e 670d 2b3e 8dde 1a3e a04c e9bd
000002c0: 2e8c 1c3e c856 6f3e a85d 643d 7950 e03d
000002d0: 20aa 563c f2f7 35bd 2801 493e d917 11be
000002e0: d9e4 acbd b412 b0bc dd14 6abe fe98 4d3e
000002f0: ccbf ab3c ddca 38be 886a 00be 4a1b 733e
00000300: 304e 99bd 0060 f23b 2290 093e 906f 26be
00000310: 4059 18bd 1456 ee3d 2417 2d3e 8b92 8b3d
00000320: 5604 21be ec30 fe3d e4b1 f3bb f098 44bd
00000330: 1858 db3d 08f3 a93c 1502 1bbe 7b8e 253e
00000340: 5019 94bd 38c5 293d b5ee c2bd 2828 423e
00000350: d0b9 ec3c 2694 b03d d01d 7cbd 06af 59be
00000360: a1f8 013e d1fb 373e 04ae 753e 8c33 543e
00000370: ecdf 55bc a8f8 2a3e d871 adbd 4bac 7c3b
00000380: b228 543e 622c 74be bf94 873c 989c 443e
00000390: 0c19 093e c032 debc f086 a7bc 5679 933d
000003a0: 1276 493e ccd5 23be d575 24be 3c34 f73d
000003b0: d508 72be ebe5 633d c970 003d eeb1 c03c
000003c0: 5c15 293e 90b0 7b3e 1fc3 263e dc2e 6fbe
000003d0: 5074 5c3e 0cde 5abe b4c0 ca3d 36e0 b93d
000003e0: e3e8 8c3c 2b46 8b3c 89d5 82bd 64f1 e23d
000003f0: 99be c63d 609a 2c3d a5b1 993d 6a63 093e

bias f4 [16]
-0.25057435 -0.013398576 0.1336203 0.20217705 0.1916045 -0.12300327 -0.0062309364 -0.2227175
0.040743593 -0.20836416 -0.15817505 -0.17734809 -0.09511783 -0.0726835 0.14102834 -0.21279019
00000000: 484b 80be b385 5bbc c3d3 083e 8007 4f3e
00000010: f833 443e 23e9 fbbd e22c ccbb 0e10 64be
00000020: c1e2 263d 6a5d 55be a4f8 21be bd9a 35be
00000030: 23cd c2bd 16db 94bd bc69 103e ace5 59be

weight f4 [16, 16]
0.0065140408 -0.20805056 -0.19487365 -0.17410001 0.08786979 0.13519719 -0.15987206 -0.27579424
0.0009948506 -0.15723306 0.009916007 0.19281982 -0.062355794 -0.0006099125 -0.25313902 -0.1542091
0.10675707 0.18903543 -0.10236173 -0.021947434 -0.04535003 0.041549027 -0.2279242 0.05089524
-0.024117313 -0.22291575 -0.09571358 -0.15326221 -0.12979819 0.059922155 -0.17924772 -0.04281968
0.083965726 -0.16875212 -0.17014888 -0.326727 -0.09563908 0.123313874 -0.07962789 -0.016313441
-0.1434702 0.33500588 -0.096249424 0.04417593 0.30290106 0.19974092 0.19382863 0.021255016
-0.047879454 -0.047776822 -0.09809935 0.2249156 -0.13547924 -0.23691157 0.19473729 0.1516072
-0.06531288 0.06548049 0.03616992 0.07358682 -0.24977106 -0.22128394 0.08532955 0.14290538
0.13016555 0.17555934 -0.2786917 0.16644889 0.17291813 0.02670762 -0.25044155 -0.054999005
0.18304625 0.020486012 -0.09757327 0.20096174 -0.14077073 0.048926674 0.056040924 -0.028445005
0.08156458 0.091249496 -0.14105792 -0.23895392 0.11632899 -0.18931648 0.11620955 0.07440444
-0.23444445 0.016624782 0.16733083 0.2374586 -0.18483405 0.15298985 -0.11447214 -0.0113194585
-0.04453743 -0.23011234 0.16994257 0.16332576 0.0029672869 0.06894213 -0.036127675 -0.06161451
0.11779408 -0.13994999 0.30856746 -0.03906994 0.26292175 0.18571262 0.07488885 0.19163212
-0.15474129 0.22197449 0.13740009 0.14050329 0.16226348 0.100216985 -0.2374261 0.1856567
0.08577025 -0.17124665 -0.19052896 0.009807259 -0.1728552 0.13830408 -0.13893864 -0.03640136
0.111492164 -0.09146333 0.1612677 -0.07215886 -0.09880919 0.048407763 -0.18033886 -0.24698815
0.028263232 -0.059032697 -0.004616974 -0.17573434 -0.14310025 -0.17579809 0.2335182 -0.21718162
-0.06144139 -0.15293288 -0.23351184 -0.17018345 0.09391436 0.06974724 0.12405488 -0.018079638
-0.00054344535 0.18082777 -0.18152273 -0.18624535 0.05243674 -0.17133719 -0.0018841326 -0.18139285
0.20213938 0.21647224 -0.1497992 0.37210578 0.18719053 0.21440056 0.0013270583 0.21052594
0.0004397765 -0.14571922 0.086185664 -0.1471253 0.06436487 0.2028702 0.26738846 -0.121878594
-0.19479801 0.054132096 0.080069155 0.0077483873 0.23332709 0.14661628 -0.24446926 0.116517
-0.07998559 -0.05659062 0.035097342 0.2347421 0.13301913 -0.076324195 -0.023546973 -0.01812312
-0.28103885 0.21680883 -0.29574394 0.1275986 0.04269871 0.21784675 -0.21075149 0.10589845
0.13692163 0.2072254 -0.25341424 -0.1036899 -0.23988771 0.004923284 0.021386351 -0.14132935
-0.163796 -0.20255429 0.19216123 -0.00047207635 0.12212819 0.22961286 -0.19086142 0.17497146
-0.17237489 -0.14817971 0.13523063 0.21999617 0.057008352 0.16717014 0.2296581 0.05911401
0.18980572 -0.073112324 0.057192545 -0.14588982 -0.22514184 -0.09930977 0.05365643 -0.25341088
0.1100415 -0.13496228 0.13527021 0.22769119 0.066377856 -0.13526654 -0.2135509 0.0737637
0.18084528 -0.02062098 -0.15601614 0.1048009 0.08302159 -0.033405602 0.07151573 0.04602056
0.11411129 0.023667155 -0.21317364 0.17013524 -0.1591682 0.051679485 0.004117446 -0.075046
00000000: bc73 d53b 350b 55be f58c 47be 4647 32be
00000010: 14f5 b33d 2271 0a3e 80b5 23be e734 8dbe
00000020: a665 823a b401 21be bf76 223c 8f72 453e
00000030: ca68 7fbd 89e2 1fba 709b 81be fee8 1dbe
00000040: 73a3 da3d 8192 413e 07a3 d1bd 1bcb b3bc
00000050: f4c0 39bd 502f 2a3d f664 69be 8777 503d
00000060: ac91 c5bc 0744 64be 7b05 c4bd c5f0 1cbe
00000070: d1e9 04be ef70 753d b78c 37be b063 2fbd
00000080: 39f6 ab3d 5bcd 2cbe 823b 2ebe c348 a7be
00000090: 6cde c3bd fc8b fc3d f213 a3bd c4a3 85bc
000000a0: dae9 12be e485 ab3e 6b1e c5bd d2f1 343d
000000b0: d915 9b3e e288 4c3e 037b 463e 001f ae3c
000000c0: 3f1d 44bd a1b1 43bd 50e8 c8bd 4650 663e
000000d0: 12bb 0abe f298 72be 3669 473e eb3e 1b3e
000000e0: c2c2 85bd a31a 863d e926 143d b0b4 963d
000000f0: fcc3 7fbe 4298 62be 42c1 ae3d ca55 123e
00000100: 1e4a 053e d4c5 333e aeb0 8ebe 9471 2a3e
00000110: 7311 313e f0c9 da3c e039 80be a346 61bd
00000120: 7a70 3b3e 48d2 a73c 7fd4 c7bd eac8 4d3e
00000130: 3426 10be 5667 483d 2b8b 653d 8005 e9bc
00000140: 550b a73d 04e1 ba3d 7d71 10be 56b0 74be
00000150: e53d ee3d 2edc 41be 46ff ed3d 5b61 983d
00000160: 3512 70be b230 883c c658 2b3e 5928 733e
00000170: 2345 3dbe 5fa9 1c3e 5f70 eabd 4075 39bc
00000180: e16c 36bd 92a2 6bbe 6d05 2e3e de3e 273e
00000190: d076 423b 8831 8d3d 9dfa 13bd 7f5f 7cbd
000001a0: 063e f13d 0d4f 0fbe 8efc 9d3e cd07 20bd
000001b0: ae9d 863e 732b 3e3e 535f 993d 363b 443e
000001c0: 8074 1ebe 484d 633e 9cb2 0c3e 18e0 0f3e
000001d0: 6628 263e 903e cd3d d41f 73be ca1c 3e3e
000001e0: 50a8 af3d 485b 2fbe 061a 43be a0ae 203c
000001f0: f400 31be 969f 0d3e ee45 0ebe 9819 15bd
00000200: 0156 e43d 2051 bbbd 5c23 253e 06c8 93bd
00000210: 795c cabd 3847 463d c0aa 38be 76ea 7cbe
00000220: 4b88 e73c 45cc 71bd fc49 97bb b4f3 33be
00000230: df88 12be 6a04 34be 651f 6f3e dc64 5ebe
00000240: f8a9 7bbd 709a 1cbe ba1d 6fbe 9244 2ebe
00000250: 2c56 c03d a4d7 8e3d 7c10 fe3d c01b 94bc
00000260: 0076 0eba ea2a 393e 18e1 39be 1ab7 3ebe
00000270: e8c7 563d 0473 2fbe 00f5 f6ba 0cbf 39be
00000280: a0fd 4e3e e6aa 5d3e f664 19be a684 be3e
00000290: e0ae 3f3e d28b 5b3e b0f0 ad3a 1d94 573e
000002a0: cd91 e639 6b37 15be 1c82 b03d 04a8 16be
000002b0: bbd1 833d 35bd 4f3e 24e7 883e 7c9b f9bd
000002c0: 2179 47be 9eb9 5d3d 4cfb a33d 2fe6 fd3b
000002d0: 4ced 6e3e 9422 163e 2656 7abe 77a0 ee3d
000002e0: 7ccf a3bd 91cb 67bd 3bc2 0f3d 3c60 703e
000002f0: 2b36 083e dc4f 9cbd 95e5 c0bc f076 94bc
00000300: 53e4 8fbe 2203 5e3e c06b 97be 35a9 023e
00000310: d8e4 2e3d 3813 5f3e 3dcf 57be 49e1 d83d
00000320: 2f35 0c3e e532 543e 83bf 81be 5f5b d4bd
00000330: 20a5 75be 8053 a13b 6e32 af3c a4b8 10be
00000340: 23ba 27be 646a 4fbe eac5 443e 0481 f7b9
00000350: 581e fa3d a21f 6b3e 2d71 43be b82b 333e
00000360: 0b83 30be 6cbc 17be e679 0a3e ad46 613e
00000370: 9781 693d a62e 2b3e 7e2b 6b3e 8821 723d
00000380: 6e5c 423e eabb 95bd bb42 6a3d 2464 15be
00000390: 958b 66be ec62 cbbd d8c6 5b3d 12bf 81be
000003a0: 705d e13d 8d33 0abe 4684 0a3e e127 693e
000003b0: 1df1 873d 5083 0abe 16ad 5abe 6c11 973d
000003c0: 812f 393e 54ed a8bc b2c2 1fbe dba1 d63d
000003d0: 3907 aa3d 50d4 08bd d776 923d 0e80 3c3d
000003e0: 2eb3 e93d 9fe1 c13c 314a 5abe ef37 2e3e
000003f0: fdfc 22be dead 533d a4eb 863b b8b1 99bd

weight f4 [16, 16]
-0.18875962 -0.046847373 0.015155762 0.13570926 -0.1928724 0.15648288 -0.17307213 -0.15668997
-0.06480804 0.16037011 0.21156669 0.11748418 0.12656176 -0.017375797 0.06214136 0.13809124
0.21485649 -0.20383957 -0.13659301 -0.20992877 0.14537212 0.14341146 0.024288813 -0.031838138
0.1730941 0.2377302 -0.0883587 -0.060509246 -0.19618338 -0.22487892 0.17967226 0.06801787
0.090078324 0.21444586 -0.13445115 -0.22109544 0.021291763 -0.1483342 -0.0018136977 -0.03249498
-0.25920713 0.0643086 0.06712163 -0.022337101 -0.2589808 0.16199957 0.04672398 0.050006658
-0.07397837 -0.011195242 0.024733244 0.1889394 -0.15047826 -0.21356949 -0.22734042 0.20658693
0.166156 0.06280052 -0.0066352566 -0.041736558 0.023332495 -0.14520133 0.0008805395 -0.23288485
0.14622614 0.05185327 0.087884046 -0.08445331 -0.23014317 0.10840249 -0.01915353 0.049332988
-0.18162218 0.13760936 0.016122617 0.012074255 0.2153021 -0.08439242 -0.20324412 0.14284733
-0.19824621 -0.07890141 -0.039236873 0.012127727 0.04026243 -0.20307961 -0.18446812 0.24522212
-0.079821974 0.026792973 -0.023430705 -0.024501354 -0.13755879 0.20959231 -0.10399252 0.19606176
0.23968038 -0.025382787 0.15097868 -0.024465472 -0.15989697 0.166726 0.23512954 -0.16783914
-0.09692961 0.08039218 -0.034860253 -0.15748599 -0.1791434 -0.04821208 -0.21939927 0.081710994
0.21345267 -0.14351612 0.15344419 0.03151048 0.18325688 0.03871286 -0.17125589 0.012773435
0.24244878 0.24907212 0.15772723 0.06883787 0.102901936 -0.13241538 -0.04730946 0.114527404
0.1181637 0.13369578 0.18513568 0.06549088 -0.020540245 -0.14697278 0.12702273 -0.03144818
-0.12441329 -0.16524059 -0.19960698 -0.19255103 -0.10770154 -0.04177411 -0.09841278 -0.014160454
-0.10352704 0.15221113 0.035734434 0.1584648 0.000981491 -0.20762706 -0.04982011 0.04343816
-0.029733326 -0.0094392225 0.13267529 0.2337251 -0.18725987 0.1014626 0.15215608 -0.07297158
-0.22825086 -0.11573538 0.21702486 -0.23217183 -0.1490713 0.093379974 0.024315953 -0.11861357
-0.04700899 -0.18491018 0.18356448 -0.17773014 -0.21760282 0.20882025 -0.015919268 -0.041031986
-0.21883965 0.23696977 -0.15012115 0.11496416 -0.06392709 -0.17262214 -0.20977384 -0.14902218
0.0017067805 -0.009450231 -0.22216457 -0.19546467 -0.06638309 -0.07665932 0.010597555 -0.24680522
-0.13789995 -0.030874312 -0.065948196 -0.19980529 0.155844 -0.20234463 -0.024751056 0.17957184
0.1808685 0.1641724 0.14277709 0.02777206 0.1083068 -0.05165019 0.014879897 -0.24885726
-0.12721327 0.2004348 0.10771467 -0.03407721 -0.013791505 -0.039800495 0.24480766 0.23451774
0.14345546 0.24226005 -0.022685865 -0.22274178 -0.16071814 0.09635571 0.039250735 0.1502428
-0.27818123 -0.028716296 -0.16269203 -0.25083268 -0.25051278 -0.060825437 -0.25424725 0.0794424
-0.12689324 0.035789926 0.007471266 0.107802376 0.029132342 -0.13562274 0.14349216 -0.20908785
0.23321284 0.117575586 -0.15290082 0.16269937 0.15505461 0.13396412 0.027903946 -0.100593984
-0.061204217 -0.025560245 0.19399582 0.041164484 -0.11078132 -0.21343844 0.14036052 -0.20844144
00000000: 344a 41be 08e3 3fbd e04f 783c 5ef7 0a3e
00000010: 5880 45be 0c3d 203e d239 31be 5673 20be
00000020: 14ba 84bd 1038 243e f0a4 583e 8c9b f03d
00000030: 6899 013e b057 8ebc f087 7e3d ca67 0d3e
00000040: 5703 5c3e 52bb 50be 0adf 0bbe 91f7 56be
00000050: 6edc 143e 74da 123e 55f9 c63c b568 02bd
00000060: 943f 313e 8c6f 733e 68f5 b4bd 8bd8 77bd
00000070: 4ce4 48be a946 66be 01fc 373e f44c 8b3d
00000080: fc7a b83d b297 5b3e 90ad 09be d866 62be
00000090: 106c ae3c ece4 17be 99b9 edba 7519 05bd
000000a0: ccb6 84be 3ab4 833d 1177 893d 4cfc b6bc
000000b0: 2299 84be 37e3 253e a561 3f3d c8d3 4c3d
000000c0: f981 97bd 406c 37bc 5f9d ca3c 5479 413e
000000d0: f916 1abe f6b1 5abe edcb 68be 868b 533e
000000e0: cc24 2a3e 8f9d 803d 916c d9bb f4f3 2abd
000000f0: ca23 bf3c a8af 14be 01d4 663a 5e79 6ebe
00000100: 4ebc 153e 1864 543d 8dfc b33d dbf5 acbd
00000110: a7aa 6bbe 2002 de3d dde7 9cbc 6311 4a3d
00000120: 2afb 39be 78e9 0c3e 9413 843c 19d3 453c
00000130: 2778 5c3e efd5 acbd 3a1f 50be 9246 123e
00000140: 0e01 4bbe 1097 a1bd d8b6 20bd 60b3 463c
00000150: 38ea 243d 1af4 4fbe 36e5 3cbe 821b 7b3e
00000160: b479 a3bd f07c db3c c0f1 bfbc 10b7 c8bc
00000170: 36dc 0cbe 5e9f 563e 08fa d4bd 6ac4 483e
00000180: c66e 753e 90ef cfbc 289a 1a3e d06b c8bc
00000190: 08bc 23be 38ba 2a3e ccc5 703e 06de 2bbe
000001a0: 0883 c6bd a8a4 a43d a0c9 0ebd 0244 21be
000001b0: 5e71 37be 087a 45bd 34aa 60be 1858 a73d
000001c0: 5693 5a3e e4f5 12be 7920 1d3e 2211 013d
000001d0: b1a7 3b3e 6091 1e3d b45d 2fbe ab47 513c
000001e0: 7e44 783e c30c 7f3e 3f83 213e dffa 8c3d
000001f0: 40be d23d e697 07be 90c7 41bd 588d ea3d
00000200: cfff f13d 8ce7 083e 3594 3d3e 1520 863d
00000210: 0444 a8bc 0880 16be 3f12 023e cfcf 00bd
00000220: 65cc febd d434 29be c665 4cbe 192c 45be
00000230: a092 dcbd 541b 2bbd a48c c9bd 4001 68bc
00000240: fc05 d4bd 3cdd 1b3e 455e 123d 9944 223e
00000250: 5fa5 803a 309c 54be 2c10 4cbd 36ec 313d
00000260: 4e93 f3bc f8a6 1abc 08dc 073e a255 6f3e
00000270: 0dc1 3fbe a0cb cf3d cece 1b3e 2072 95bd
00000280: 98ba 69be ac06 edbd c43b 5e3e 74be 6dbe
00000290: 26a6 18be 003e bf3d 4032 c73c aceb f2bd
000002a0: 808c 40bd 1859 3dbe 54f8 3b3e e4fe 35be
000002b0: 46d3 5ebe fad4 553e 2069 82bc 2811 28bd
000002c0: 8017 60be 34a8 723e 5cb9 19be 5472 eb3d
000002d0: 35ec 82bd dcc3 30be f4ce 56be 4599 18be
000002e0: 0db6 df3a 24d5 1abc 1c7f 63be e427 48be
000002f0: dcf3 87bd 90ff 9cbd 5ea1 2d3c 82ba 7cbe
00000300: a535 0dbe 20ec fcbc d90f 87bd c299 4cbe
00000310: 9295 1f3e 6e33 4fbe bac2 cabc aee1 373e
00000320: 9835 393e cf1c 283e 2834 123e 3b82 e33c
00000330: f5cf dd3d 268f 53bd d0ca 733c 70d4 7ebe
00000340: 3244 02be c83e 4d3e 8299 dc3d 8b94 0bbd
00000350: c4f5 61bc d805 23bd dcae 7a3e 6b25 703e
00000360: fde5 123e 0513 783e b5d7 b9bc 6c16 64be
00000370: 4c93 24be 2456 c53d 61c5 203d 40d9 193e
00000380: c56d 8ebe 703e ebbc bd98 26be 246d 80be
00000390: 3643 80be 1824 79bd b22c 82be b2b2 a23d
000003a0: 4df0 01be 7598 123d 86d1 f43b 7ec7 dc3d
000003b0: f3a6 ee3c b0e0 0abe 9cef 123e 201b 56be
000003c0: 59cf 6e3e 78cb f03d 0892 1cbe aa9a 263e
000003d0: a3c6 1e3e e42d 093e d196 e43c 3804 cebd
000003e0: 46b1 7abd b863 d1bc d7a6 463e 179c 283d
000003f0: 51e1 e2bd 9b8f 5abe abba 0f3e ac71 55be

bias f4 [16]
-0.23738632 0.18983757 -0.1093976 -0.03879977 0.11940773 0.052449405 0.07048139 0.12540813
-0.08275025 -0.07959781 -0.21165845 0.11491382 0.21386763 0.18349671 -0.1937504 0.00026280887
00000000: 6615 73be c864 423e d90b e0bd 82ec 1ebd
00000010: 0a8c f43d 30d5 563d 8c58 903d fd6a 003e
00000020: f778 a9bd 2d04 a3bd febc 58be f057 eb3d
00000030: 1e00 5b3e 90e6 3b3e 8166 46be 9cc9 8939

weight f4 [16, 16]
-0.150119 0.044324726 0.16575831 0.04048094 0.10711977 0.15154165 -0.061509043 -0.18118554
0.2443619 -0.07227573 -0.072484046 0.07054871 0.22009698 0.11663747 0.24609846 0.13141283
-0.15406473 0.03749371 0.052956305 -0.17528163 -0.25155056 0.08110966 0.099890836 0.03719484
0.15695843 0.044220675 0.16158497 -0.20048936 -0.0072178543 0.016710969 0.09452939 -0.18297611
-0.13637452 0.035728004 -0.010258853 -0.24542643 0.1893645 0.0054519577 0.07678841 -0.2549865
0.23246843 -0.22884414 -0.2633822 -0.124730885 0.031727493 -0.27141142 -0.16309024 0.011282055
0.10929468 -0.22519316 -0.05859548 0.13883802 -0.1358653 -0.01625227 0.017205298 -0.20470406
0.21541268 0.19964623 0.20328668 -0.13703297 -0.23357952 -0.24337122 -0.1695335 0.10980015
0.1939541 0.18706825 0.05532537 0.19273295 0.1563095 -0.148955 -0.051947974 -0.031172603
-0.08311722 0.034731027 -0.1728592 0.17606707 -0.11351314 0.073117636 0.10975929 -0.09114427
0.20406371 -0.11863226 0.10958171 -0.22292197 -0.16976708 0.034529924 0.15451252 -0.11497769
0.18205264 0.19393829 0.13336751 -0.15768301 0.040141284 -0.19606262 -0.05610463 -0.18014649
0.094091296 0.13834465 -0.17840606 -0.11626193 0.088167846 0.119650245 -0.04152286 0.009970009
-0.113753945 0.15545547 0.1270566 0.23787868 -0.181175 0.22531086 -0.04678926 0.23520392
0.036962006 0.009944987 0.001134347 0.09195272 0.13155898 0.07910336 0.17824452 -0.18375163
-0.031460676 0.23080741 0.0066609825 0.06988134 0.08025193 0.019415492 -0.15907747 -0.08083367
0.013042444 -0.15547527 0.11875475 0.08326578 -0.20186521 -0.13129982 0.06536638 -0.051480524
-0.23911865 -0.16355662 0.07172902 0.05138206 0.1465765 0.2305818 0.060817968 0.20724896
-0.0066277483 -0.17508829 0.09521164 -0.022914147 0.019035857 -0.022711916 0.053675313 0.074520096
0.05456603 -0.15657976 0.1873307 -0.26599407 -0.24882174 0.12419694 0.045422494 0.19157599
-0.14186606 -0.042007 -0.19216368 -0.23426756 0.108172834 0.21259323 0.0363546 -0.14631999
-0.05380684 0.13925031 -0.1962302 -0.09068957 0.017651618 -0.029652655 -0.12935969 -0.12960708
0.09664267 0.0924257 0.049073208 0.15324129 -0.0007630448 -0.006441509 -0.00023091491 -0.14834562
0.03725883 0.07422123 0.037943862 -0.1851374 -0.20459953 -0.25864777 0.15225959 0.11191527
-0.22804113 0.2012532 -0.22359438 -0.16669911 0.027553145 0.21429329 -0.0022426455 0.17048605
-0.1558451 0.1844878 0.20242521 0.05514352 -0.20137465 0.039366152 0.08397438 -0.12096184
0.08501739 0.20700915 0.22051372 -0.15266621 -0.10361314 0.14310464 -0.05763365 0.035459485
0.02530919 0.2367427 0.21062373 0.10430001 0.17505157 0.018023567 0.081523076 0.108561225
-0.07146758 -0.26621357 0.2197822 -0.16666584 0.15683807 -0.20193078 -0.11847734 -0.055637367
0.034342222 -0.00603887 0.14027052 -0.22705239 -0.08324006 -0.09591371 0.21041898 -0.103873625
0.1082162 0.17566055 -0.04677771 0.059858486 -0.078161746 -0.105084136 0.04696735 0.25635785
-0.23874229 0.086447485 0.2504883 0.14191619 0.030640692 0.14448546 0.20563744 0.076745346
00000000: ccb8 19be d88d 353d 8cbc 293e 58cf 253d
00000010: 9c61 db3d bc2d 1b3e e8f0 7bbd b488 39be
00000020: 023a 7a3e 4c05 94bd 8472 94bd d87b 903d
00000030: 1a61 613e a0df ee3d 3c01 7c3e 1691 063e
00000040: 25c3 1dbe 0193 193d b6e8 583d 077d 33be
00000050: 3ccb 80be d21c a63d 9193 cc3d 9e59 183d
00000060: b6b9 203e bd20 353d 8876 253e 154d 4dbe
00000070: c083 ecbb 71e5 883c a098 c13d 175e 3bbe
00000080: c3a5 0bbe 8757 123d c014 28bc 1151 7bbe
00000090: c4e8 413e 56a6 b23b 3e43 9d3d 978d 82be
000000a0: 340c 6e3e 1e56 6abe 08da 86be e872 ffbd
000000b0: b0f4 013d 70f6 8abe 2101 27be 5ed8 383c
000000c0: e4d5 df3d 0999 66be d001 70bd 8e2b 0e3e
000000d0: 4620 0bbe 7b23 85bc 20f2 8c3c f19d 51be
000000e0: 2495 5c3e 1070 4c3e 622a 503e 5f52 0cbe
000000f0: 782f 6fbe 4e36 79be 319a 2dbe e7de e03d
00000100: e79b 463e d28e 3f3e db9c 623d c95b 453e
00000110: 990f 203e a987 18be 66c7 54bd b05d ffbc
00000120: 5c39 aabd 1f42 0e3d 0102 31be ed4a 343e
00000130: 9479 e8bd b3be 953d 7bc9 e03d d9a9 babd
00000140: 14f6 503e 78f5 f2bd 606c e03d a845 64be
00000150: 6cd7 2dbe 406f 0d3d 8838 1e3e 6c79 ebbd
00000160: 026c 3a3e c297 463e 7e91 083e a877 21be
00000170: 306b 243d a4c4 48be f8cd 65bd 5278 38be
00000180: f0b2 c03d 38aa 0d3e 14b0 36be bc1a eebd
00000190: 5891 b43d 300b f53d e013 2abd 4059 233c
000001a0: d4f7 e8bd b82f 1f3e 201b 023e 7896 733e
000001b0: f085 39be e4b7 663e 18a6 3fbd 4cd9 703e
000001c0: 7965 173d 4cf0 223c 5fae 943a b551 bc3d
000001d0: 66b7 063e f100 a23d bb85 363e 6329 3cbe
000001e0: e9dc 00bd c758 6c3e 5f44 da3b f31d 8f3d
000001f0: 205b a43d 3d0d 9f3c 34e5 22be 208c a5bd
00000200: faaf 553c e934 1fbe b135 f33d 4087 aa3d
00000210: c1b5 4ebe 7673 06be cfde 853d 3edd 52bd
00000220: 85db 74be 637b 27be aae6 923d ff75 523d
00000230: 2618 163e a31d 6c3e 431c 793d 1239 543e
00000240: 952d d9bb 584a 33be 52fe c23d 73b6 bbbc
00000250: 16f1 9b3c 570e babc a5da 5b3d fe9d 983d
00000260: a180 5f3d 7256 20be 9ed3 3f3e 6030 88be
00000270: 20cb 7ebe f75a fe3d f00c 3a3d 7f2c 443e
00000280: 5645 11be 880f 2cbd 8ec6 44be d6e3 6fbe
00000290: b889 dd3d 0ab2 593e 90e8 143d e8d4 15be
000002a0: 9064 5cbd a297 0e3e 92f0 48be 74bb b9bd
000002b0: 209a 903c 20ea f2bc de76 04be b8b7 04be
000002c0: 98ec c53d af49 bd3d fd00 493d 49eb 1c3e
000002d0: 1207 48ba 4b13 d3bb c021 72b9 eae7 17be
000002e0: b79c 183d 4d01 983d 066b 1b3d a994 3dbe
000002f0: 8a82 51be 7b6d 84be f0e9 1b3e d533 e53d
00000300: 9d83 69be 5215 4e3e edf5 64be 2cb3 2abe
00000310: 22b7 e13c b36f 5b3e 59f9 12bb e593 2e3e
00000320: dc95 1fbe 5fea 3c3e 8e48 4f3e 2cde 613d
00000330: 2835 4ebe 673e 213d c2fa ab3d d7ba f7bd
00000340: 991d ae3d 35fa 533e 59ce 613e 8854 1cbe
00000350: 2033 d4bd 068a 123e 4311 6cbd f73d 113d
00000360: 3855 cf3c ae6c 723e bfad 573e 3e9b d53d
00000370: b840 333e 29a6 933c 92f5 a63d 5955 de3d
00000380: 985d 92bd 254d 88be 960e 613e 73aa 2abe
00000390: 299a 203e f1c6 4ebe 3fa4 f2bd 02e4 63bd
000003a0: 6eaa 0c3d b7e1 c5bb 13a3 0f3e 6c80 68be
000003b0: c479 aabd 686e c4bd 1378 573e b2bb d4bd
000003c0: 74a0 dd3d 5ce0 333e fc99 3fbd 2c2e 753d
000003d0: 4413 a0bd 5a36 d7bd d660 403d 5641 833e
000003e0: dc78 74be 610b b13d 0140 803e 7a52 113e
000003f0: 3002 fb3c fff3 133e 9f92 523e aa2c 9d3d

weight f4 [16, 16]
0.18768682 0.099867836 -0.06404572 -0.17808507 -0.23205608 0.05198889 0.1896146 0.1797393
0.08998647 0.2140992 -0.077388816 -0.044735674 0.047546715 -0.07398781 -0.1419118 0.1627519
0.13290672 0.10611769 -0.10619446 0.091003165 -0.12595975 -0.046162315 0.11357637 0.1978983
-0.025308313 0.16600762 0.008097403 0.0057482435 -0.09983629 -0.25159392 -0.20195498 -0.03567271
-0.11655525 -0.1194125 0.13913438 0.016996846 -0.008389868 0.23764524 0.18497929 -0.037336312
0.065132715 -0.15751123 0.22209786 0.18325907 -0.13605824 0.04558168 -0.17061532 -0.016715657
0.044874374 0.09124957 -0.19666165 -0.24792758 0.1021231 0.16757107 0.22935574 -0.0035915389
0.05973956 0.103497125 -0.011095719 0.093738034 -0.1824964 0.020894619 -0.18544337 0.041041635
0.049839277 0.092773095 0.15923966 -0.20830193 -0.26652223 -0.21275817 -0.038345724 -0.2469398
-0.058849644 0.013362044 -0.1827028 -0.13924794 0.000690192 -0.09735345 -0.03717778 0.17208846
-0.2513383 -0.10366036 -0.12199819 -0.22249454 -0.1562465 -0.06335866 0.16971724 -0.15626143
0.047128066 0.051191207 -0.20116843 -0.18972279 -0.15912926 0.163342 -0.23700269 0.05979173
0.115793966 -0.19552563 0.25344327 0.2294965 0.061501447 -0.1937991 0.1925843 0.14978746
-0.23473665 0.07453609 0.05487271 0.22064145 -0.2386105 0.038606104 -0.0225178 0.0029970338
0.0375773 -0.11264837 -0.08468425 -0.19062632 -0.0022610426 -0.1748927 -0.107032955 -0.21435344
0.13438609 -0.20175052 -0.0630016 -0.17041829 0.13672 0.06466249 0.24070087 0.22154588
-0.08648034 -0.08310714 0.17770274 -0.11771169 -0.19133885 0.020676918 0.02735232 0.14831962
-0.18877344 -0.1078016 0.20418872 0.12531427 0.12604311 0.12658656 0.12525308 -0.03991759
-0.06340441 -0.19394672 -0.15671879 -0.23988011 -0.21232134 -0.16109964 -0.061106384 -0.08668524
0.03365788 -0.100064486 -0.1710707 0.00081181526 0.23667976 -0.06614649 -0.12457585 -0.1854266
0.066667706 -0.03663142 -0.049819127 -0.28204957 -0.021459676 -0.082197554 0.030351402 -0.19149826
0.13845919 0.051798597 -0.004167583 0.14567287 -0.043526173 -0.19964418 0.09166394 0.17730777
0.0323417 0.18361746 0.15569548 -0.09817679 -0.08347996 -0.059231304 0.10164284 0.0072535984
0.12384504 0.21748057 -0.1562095 0.11841159 0.10528612 0.25680384 0.15398787 0.13384461
0.0532207 0.058478482 0.16562632 -0.17918307 -0.045192193 -0.14589086 -0.032033283 0.12320585
-0.10524478 0.026989877 -0.09414369 -0.29338297 -0.06500876 -0.06290019 0.15711367 0.12596329
0.06725207 -0.1371946 -0.12992908 -0.11789472 -0.18227626 0.025035264 -0.21408165 -0.023091793
-0.18976104 0.26449725 -0.086381115 0.0826205 0.09261754 -0.0372761 0.08554713 -0.07054735
0.15647554 0.20760602 0.054521114 0.07965082 0.16673332 -0.04777385 0.0673886 -0.010171596
0.18262276 0.14942893 -0.106335044 0.054478217 -0.03520003 0.225054 -0.10168234 -0.020577105
0.016564239 0.22083065 -0.087975636 0.22344024 -0.036538552 0.14876343 0.011125421 0.23719555
-0.26428545 0.1039409 0.020326346 0.025719646 -0.102035016 0.16325253 -0.13930115 0.076988
00000000: f930 403e 8287 cc3d 672a 83bd ef5b 36be
00000010: 1ca0 6dbe 4df2 543d 542a 423e 940d 383e
00000020: d44a b83d d23c 5b3e 077e 9ebd c13c 37bd
00000030: 58c0 423d ec86 97bd 5451 11be 6fa8 263e
00000040: b318 083e 3b54 d93d 7b7c d9bd de5f ba3d
00000050: 98fb 00be b214 3dbd ba9a e83d daa5 4a3e
00000060: 6153 cfbc e7fd 293e f8aa 043c c35b bc3b
00000070: f876 ccbd ebd0 80be 49cd 4ebe 8c1d 12bd
00000080: 85b4 eebd 8a8e f4bd 3e79 0e3e f83c 8b3c
00000090: a875 09bc 4659 733e 366b 3d3e f6ed 18bd
000000a0: 4d64 853d a04a 21be 9f6d 633e 44a8 3b3e
000000b0: da52 0bbe dbb3 3a3d c8b5 2ebe 46ef 88bc
000000c0: 31ce 373d 0ee1 ba3d ac61 49be bae0 7dbe
000000d0: ea25 d13d c097 2b3e 3bdc 6a3e 0660 6bbb
000000e0: 78b1 743d 4df6 d33d d2ca 35bc baf9 bf3d
000000f0: 56e0 3abe 312b ab3c dee4 3dbe 461b 283d
00000100: 4524 4c3d d2ff bd3d b90f 233e 1a4d 55be
00000110: 9a75 88be 47dd 59be 6810 1dbd c9dd 7cbe
00000120: 530c 71bd 79ec 5a3c 7116 3bbe 0397 0ebe
00000130: 00ee 343a 3f61 c7bd ba47 18bd f537 303e
00000140: 6aaf 80be e24b d4bd 30da f9bd 9cd5 63be
00000150: 15ff 1fbe 2fc2 81bd 5bca 2d3e ff02 20be
00000160: 5c09 413d dfad 513d 19ff 4dbe b146 42be
00000170: c8f2 22be 2043 273e d5b0 72be 2ce8 743d
00000180: 6325 ed3d df37 48be 51c3 813e 2101 6b3e
00000190: f1e8 7b3d 4573 46be d234 453e e261 193e
000001a0: ce5e 70be 61a6 983d 35c2 603d d5ef 613e
000001b0: 5056 74be 6f21 1e3d 4077 b8bc e269 443b
000001c0: a8ea 193d 30b4 e6bd f06e adbd 8c33 43be
000001d0: 002e 14bb 1217 33be 1834 dbbd 787f 5bbe
000001e0: 829c 093e b097 4ebe fc06 81bd 2282 2ebe
000001f0: 5400 0c3e c46d 843d 4a7a 763e ecdc 623e
00000200: 9b1c b1bd 1434 aabd b5f7 353e d412 f1bd
00000210: 55ee 43be a462 a93c f911 e03c 19e1 173e
00000220: d34d 41be 16c7 dcbd d916 513e 6252 003e
00000230: 7211 013e e89f 013e 5842 003e a080 23bd
00000240: 2cda 81bd f899 46be e47a 20be 22a3 75be
00000250: c46a 59be 4ef7 24be b04a 7abd 0888 b1bd
00000260: d8dc 093d 9cee ccbd 282d 2fbe 00d0 543a
00000270: 2e5c 723e d077 87bd a021 ffbd 78e0 3dbe
00000280: 1489 883d d40a 16bd 240f 4cbd cd68 90be
00000290: 34cc afbc 3157 a8bd 81a3 f83c 1f18 44be
000002a0: 3fc8 0d3e c42a 543d 3890 88bb 452b 153e
000002b0: 8048 32bd 866f 4cbe 4eba bb3d 2b90 353e
000002c0: bb78 043d 3706 3c3e a36e 1f3e ea10 c9bd
000002d0: 8bf7 aabd 869c 72bd 1f2a d03d 98af ed3b
000002e0: 78a2 fd3d 3ab3 5e3e 62f5 1fbe c781 f23d
000002f0: 40a0 d73d cb7b 833e ffae 1d3e 900e 093e
00000300: f3fd 593d 2287 6f3d f299 293e c47b 37be
00000310: 731b 39bd 6a64 15be 5535 03bd 5953 fc3d
00000320: 938a d7bd e019 dd3c 68ce c0bd 4b36 96be
00000330: 5023 85bd d1d1 80bd 68e2 203e 85fc 003e
00000340: 74bb 893d be7c 0cbe 210c 05be c972 f1bd
00000350: a1a6 3abe c116 cd3c 3838 5bbe 002b bdbc
00000360: b850 42be 2f6c 873e 95e8 b0bd f034 a93d
00000370: 44ae bd3d d3ae 18bd 5533 af3d 217b 90bd
00000380: 203b 203e ac96 543e 8851 5f3d f81f a33d
00000390: 24bc 2a3e 83ae 43bd 0903 8a3d c4a6 26bc
000003a0: 7601 3b3e e603 193e 30c6 d9bd 8d24 5f3d
000003b0: e82d 10bd 8e74 663e d53e d0bd 5191 a8bc
000003c0: bab1 873c 6e21 623e 922c b4bd 85cd 643e
000003d0: 73a9 15bd 7155 183e 6647 363c 64e3 723e
000003e0: 6c50 87be f7de d43d 7083 a63c 02b2 d23c
000003f0: bcf7 d0bd ac2b 273e f6a4 0ebe e2ab 9d3d

bias f4 [16]
0.07313431 -0.12856701 0.2513636 -0.1960459 -0.15765676 -0.18594688 0.25913927 -0.122926235
-0.082075685 0.1185253 0.11588788 -0.09097592 -0.009447367 -0.19740562 -0.2339386 -0.05890801
00000000: 71c7 953d 12a7 03be bbb2 803e 42c0 48be
00000010: c670 21be dc68 3ebe e7ad 843e c0c0 fbbd
00000020: 4c17 a8bd 64bd f23d a056 ed3d 9551 babd
00000030: 21c9 1abc b324 4abe 9a8d 6fbe 8749 71bd

weight f4 [16, 16]
0.10358387 -0.16601367 0.11311751 0.030021332 0.17549306 -0.16137448 -0.17516002 0.13095792
-0.046078395 -0.0010350514 0.018945726 -0.24899836 0.16638574 0.1606158 0.1847977 0.14974499
0.119997576 -0.2064736 0.064935006 -0.11322751 0.1765568 0.038518816 0.19000804 0.21031581
0.21882178 0.18384643 -0.038079176 -0.08245203 -0.03038983 0.087749936 -0.12756233 0.077398926
0.17849487 0.0177975 -0.24615689 0.14355221 -0.21140161 0.055397004 0.030166622 -0.05452034
0.20391542 -0.012017064 -0.0022545164 -0.22239725 0.13628986 0.11823052 0.1477126 0.027872175
0.21992666 -0.13355398 -0.12447386 0.21676311 0.049055178 -0.07602534 0.14914447 -0.21526687
-0.22546954 0.15986931 0.22324114 0.14388403 -0.03757415 -0.17895254 0.15934028 0.11999676
0.042216208 -0.1468249 -0.22214891 -0.044561468 -0.09612321 0.17615032 -0.07182451 -0.088477656
0.010773043 0.14085706 0.19654658 -0.14523213 0.04505924 0.07463348 -0.11818787 -0.0343979
-0.010765749 0.2209411 -0.22045736 0.082550466 0.08256743 -0.0757564 -0.13318358 0.13212329
-0.06268572 0.010715488 0.21252999 -0.22498293 0.15147592 0.0073304093 0.061266195 0.11665836
0.26222968 0.22090179 0.20367421 0.29324517 -0.0640831 0.24627918 0.16575778 0.092789955
-0.10791108 0.16223533 0.2292753 -0.07413281 -0.017820615 -0.06370351 -0.17500226 0.02820617
-0.11093047 -0.08295748 0.14584556 0.22161931 0.045362145 -0.014940858 0.053786337 0.20656437
0.21510473 0.098216504 -0.1297245 0.042315215 -0.039835513 -0.13535342 -0.018605143 0.13519248
-0.06664526 -0.23120625 -0.051326767 -0.13736156 -0.24171935 -0.23254225 0.22542909 -0.037990477
0.06060585 -0.25430763 0.029458564 0.19087484 0.18500526 0.10557908 -0.20740809 -0.1796839
-0.041565537 0.093697816 0.019969702 0.133261 -0.17751545 0.18235627 -0.22620842 0.005289644
0.16275018 0.15785271 -0.1552499 -0.1302051 0.04826492 0.20314288 -0.06105271 -0.14612591
-0.0696123 0.17497167 0.21514693 -0.08533787 0.10261597 -0.10676134 -0.20108579 -0.06868924
-0.22185789 -0.26344314 0.2137837 -0.062455952 0.05907353 -0.1858307 0.14375411 0.15075925
-0.13049266 0.076404065 0.0533519 0.061321937 0.13362461 -0.18439454 0.047656998 0.2529892
-0.02183411 -0.1430447 0.29902047 -0.017196437 -0.0013312369 -0.070387304 -0.025017122 0.0075478554
-0.20434591 0.028293777 0.09437439 -0.12155596 0.07079248 -0.22280711 0.1737711 -0.27290574
-0.109728664 -0.12833478 -0.1757335 -0.15499105 -0.0065055476 -0.08951852 -0.116743 -0.011384606
0.21257995 0.11131713 -0.097294256 0.13177875 0.020223208 0.17638466 0.18712865 0.06848952
-0.21821146 0.14409038 0.15373904 0.24677064 -0.0764415 -0.030861558 0.087980114 0.16297126
0.15987271 0.12957554 -0.24526964 0.17301281 -0.014825689 -0.11953604 0.1702431 -0.023936216
-0.15418819 -0.0728085 0.085929066 -0.19362105 -0.04990687 0.0151352985 -0.06365653 -0.035604477
-0.24929677 -0.21984336 0.02657711 -0.0007752558 0.05119309 -0.18055502 0.17252758 0.13479707
0.061537594 -0.050545648 -0.1819161 0.21659468 -0.06912214 -0.020165602 -0.20830376 -0.09888974
00000000: c823 d43d 7dff 29be 27aa e73d 4cef f53c
00000010: 74b4 333e 5a3f 25be 265d 33be d519 063e
00000020: b3bc 3cbd 90aa 87ba 1134 9b3c 6df9 7ebe
00000030: 0661 2a3e 7878 243e 9c3b 3d3e c056 193e
00000040: 4ac1 f53d d16d 53be a5fc 843d d3e3 e7bd
00000050: 4ecb 343e e8c5 1d3d 7891 423e 075d 573e
00000060: d112 603e 3d42 3c3e e9f8 1bbd 9cdc a8bd
00000070: 18f4 f8bc 3db6 b33d b39f 02be 5483 9e3d
00000080: 5cc7 363e 10cc 913c 8d10 7cbe 5aff 123e
00000090: aa79 58be f8e7 623d fe1f f73c b850 5fbd
000000a0: 34cf 503e 38e3 44bc 82c0 13bb 1bbc 63be
000000b0: 928f 0b3e d822 f23d f941 173e 3054 e43c
000000c0: 7434 613e 60c2 08be 27ec febd 26f7 5d3e
000000d0: 15ee 483d 2cb3 9bbd 54b9 183e eb6e 5cbe
000000e0: 7de1 66be c8b4 233e 5399 643e 5656 133e
000000f0: 5ae7 19bd 563f 37be 192a 233e dcc0 f53d
00000100: e7ea 2c3d 4459 16be 017b 63be 1686 36bd
00000110: 3fdc c4bd c060 343e bb18 93bd c633 b5bd
00000120: 6b81 303c d53c 103e 8243 493e bbb7 14be
00000130: 0a90 383d 70d9 983d 7b0c f2bd d0e4 0cbd
00000140: d362 30bc 623e 623e 93bf 61be 3810 a93d
00000150: 1d19 a93d 2c26 9bbd 4761 08be 544b 073e
00000160: 5f61 80bd 0490 2f3c 76a1 593e ed61 66be
00000170: 811c 1b3e ee33 f03b 43f2 7a3d 94ea ee3d
00000180: f842 863e 1434 623e f98f 503e 3b24 963e
00000190: 003e 83bd 9c30 7c3e 68bc 293e a908 be3d
000001a0: 7c00 ddbd 0521 263e 25c7 6a3e f1d2 97bd
000001b0: 8afc 91bc fc76 82bd cb33 33be a010 e73c
000001c0: 842f e3bd 9ce5 a9bd 8a58 153e 2cf0 623e
000001d0: a8cd 393d 80ca 74bc 104f 5c3d 9c85 533e
000001e0: 6a44 5c3e bc25 c93d 80d6 04be b852 2d3d
000001f0: 902a 23bd 169a 0abe d069 98bc e66f 0a3e
00000200: 4f7d 88bd 55c1 6cbe 043c 52bd 82a8 0cbe
00000210: 4785 77be 8e1f 6ebe e2d6 663e e79b 1bbd
00000220: d73d 783d 9c34 82be 1653 f13c b274 433e
00000230: 0572 3d3e d839 d83d c962 54be 0eff 37be
00000240: a040 2abd a4e4 bf3d 8097 a33c 9275 083e
00000250: 9cc6 35be 9abb 3a3e 2ea3 67be c054 ad3b
00000260: fca7 263e 24a4 213e d4f9 1ebe 7c54 05be
00000270: 70b1 453d b004 503e 6812 7abd 08a2 15be
00000280: e590 8ebd c62b 333e 7a4f 5c3e 9fc5 aebd
00000290: 5228 d23d b0a5 dabd 6fe9 4dbe f2ac 8cbd
000002a0: b72e 63be 05e2 86be 1dea 5a3e d0d1 7fbd
000002b0: 16f7 713d 674a 3ebe 4734 133e a260 1a3e
000002c0: de9f 05be bc79 9c3d 8687 5a3d b62c 7b3d
000002d0: e4d4 083e ecd1 3cbe fc33 433d cd87 813e
000002e0: 73dd b2bc 4f7a 12be 3619 993e 8bdf 8cbc
000002f0: e67c aeba 3827 90bd b5f0 ccbc 0054 f73b
00000300: 0e40 51be 5ac8 e73c 5c47 c13d 55f2 f8bd
00000310: a6fb 903d 8c27 64be 0df1 313e 4dba 8bbe
00000320: 6cb9 e0bd 316a 03be 7cf3 33be f9b5 1ebe
00000330: 7d2c d5bb 7c55 b7bd f416 efbd 8086 3abc
00000340: 8fae 593e 3cfa e33d 3642 c7bd 02f1 063e
00000350: 24ab a53c 2e9e 343e a79e 3f3e 3c44 8c3d
00000360: d372 5fbe 6e8c 133e c46d 1d3e 71b1 7c3e
00000370: 5c8d 9cbd 61d1 fcbc eb2e b43d f0e1 263e
00000380: acb5 233e 73af 043e f727 7bbe 452a 313e
00000390: 72e7 72bc 50cf f4bd 3554 2e3e e215 c4bc
000003a0: 82e3 1dbe 9f1c 95bd 94fb af3d 9944 46be
000003b0: 256b 4cbd 0bfa 773c 5b5e 82bd 00d6 11bd
000003c0: a747 7fbe 9e1e 61be 3db8 d93c 893a 4bba
000003d0: d8af 513d 6ae3 38be 12ab 303e 3e08 0a3e
000003e0: d80e 7c3d f408 4fbd 3748 3abe ffca 5d3e
000003f0: e98f 8dbd 5532 a5bc 954d 55be b486 cabd
