mlartifacts/196996377989302197/2483e22cc82f4d649bbfa6c28b719ce8/artifacts/models/data/model.pth (torch, 35354 bytes, 28 tensors)

bias f4 [4]
000000 e2 44 87 bf b5 be c5 bf 6f db 28 bf cb 55 d1 3e
       -1.0567896 -1.5448824 -0.6595983 0.40885767

weight f4 [4, 3]
000000 cd 87 6b bf d2 ed 4d bf ae c2 3e bf 97 25 d0 be
       -0.9200409 -0.8044101 -0.7451581 -0.4065368
000010 b5 94 9d bf 6e ce f7 be 0b c2 78 3f 50 9f cb bf
       -1.2311007 -0.4839968 0.97171086 -1.5907993
000020 9e c4 99 bf b4 66 c7 3f d0 4b b6 bf 32 c8 d4 3f
       -1.2013128 1.5578218 -1.4241886 1.6623595

weight f4 [4, 3]
000000 b1 f8 66 3e f0 af 1a 3e e4 89 c4 3e d5 13 01 bf
       0.22555806 0.15106177 0.38386452 -0.50420886
000010 67 80 3f bf a6 f5 60 bf 20 f3 43 3f 4f df ce 3e
       -0.748053 -0.8787483 0.76542854 0.40404746
000020 57 aa b5 3f 63 d3 a8 bf 98 71 cf bf 81 1d bb bf
       1.4192609 -1.318951 -1.6206541 -1.4618379

bias f4 [4]
000000 0f 19 71 3f 1f fe b4 bf 59 9c 7e 3f f9 ee db bf
       0.9417886 -1.4140052 0.9945732 -1.7182304

weight f4 [4, 1]
000000 d9 2e 93 c0 89 1f 82 bf ce 14 6c c0 62 ca 37 3d
       -4.5994687 -1.0165874 -3.6887698 0.04487074

weight f4 [4, 1]
000000 64 b9 9d bf fb 20 d2 bf 9e 7a bb bf fd 5e 8f bd
       -1.2322202 -1.6416315 -1.4646795 -0.070005395

bias f4 [4]
000000 e8 42 c7 be 2b de ad bf f2 26 b5 bc fd f1 53 be
       -0.38918233 -1.3583425 -0.022113297 -0.2069778

weight f4 [4, 3]
000000 09 aa bf be b0 d5 9f bf 0e 8a 9a bf 52 54 85 bf
       -0.37434414 -1.2487087 -1.2073381 -1.0416358
000010 da 73 0b bf ea 1f 86 bf 42 3c 19 3f 17 07 e5 bf
       -0.5447365 -1.0478489 0.5985757 -1.7892789
000020 62 e0 cb bf 52 f0 b1 3f c7 e5 0b bf 87 8c 79 3f
       -1.5927851 1.3901465 -0.5464749 0.9748005

weight f4 [4, 3]
000000 f6 a2 05 bd ca de dd 3e 58 2c f8 bc 34 ef 8a be
       -0.032626115 0.43334037 -0.030294582 -0.27135623
000010 5e 71 71 be 5e 7a c4 3e 7a 8b c1 be a5 d7 4f be
       -0.23578402 0.3837461 -0.37801725 -0.20297106
000020 90 1a d1 3e 03 58 12 3f 92 ae 90 3e 61 68 a1 3c
       0.40840578 0.57165545 0.28258187 0.019703092

bias f4 [4]
000000 84 32 78 be 4a 70 74 be 26 05 ac be 02 de 0b 3f
       -0.2423802 -0.2387096 -0.33597678 0.5463563

weight f4 [4, 1]
000000 ea 86 98 be c0 e9 d4 bf 41 58 2d 40 3c a7 e2 3f
       -0.2979043 -1.6633835 2.7085116 1.7707286

bias f4 [4]
000000 79 97 db bf f3 69 9e bf bd 8c 53 bf b3 ae b0 3e
       -1.7155601 -1.2376083 -0.82636625 0.34508285

weight f4 [4, 3]
000000 59 1d b9 be 8c fa 5a bf 44 2f e5 be b5 be 89 bf
       -0.36155203 -0.85538554 -0.44762623 -1.0761324
000010 9e d4 a7 be 59 55 7f bf 9c 6b 96 3f c7 c3 c4 bf
       -0.32779402 -0.99739605 1.175159 -1.5372247
000020 48 9a 99 bf e9 b4 57 3f 3c ce 66 bf a7 68 ae 3f
       -1.2000208 0.8426042 -0.9015844 1.3625687

weight f4 [4, 3]
000000 0d 90 50 3f bd 8b 1d c0 94 42 aa 3f 0b 0d a2 be
       0.81469804 -2.461654 1.3301568 -0.31650576
000010 a2 06 ef bf 40 95 84 bf 86 7e 18 3f 04 30 14 c0
       -1.8673899 -1.0358047 0.5956806 -2.3154306
000020 ea f7 c6 3e 2b 42 aa bf dc b8 0e c0 7b cc a8 bf
       0.38861018 -1.3301443 -2.230033 -1.3187402

bias f4 [4]
000000 b5 aa 9d 3f e5 52 df be d7 6c 27 3f 17 57 45 bf
       1.2317721 -0.4361793 0.6540045 -0.77086014

weight f4 [4, 1]
000000 dc dd 4d c0 b4 40 a3 bf 49 11 87 c0 5d 41 93 bf
       -3.2166662 -1.2754121 -4.22086 -1.1504322

weight f4 [1, 4]
000000 5a f7 93 be 80 ce b0 be 90 dc 3b be 40 7f a6 3e
       -0.28899652 -0.34532547 -0.18345857 0.3251896

weight f4 [1, 4]
000000 74 e8 a7 be 44 e7 61 be c8 4a f5 3e 30 42 60 3d
       -0.32794535 -0.22060877 0.47908616 0.05475062

weight f4 [1, 4]
000000 fb b1 de be 8f 3e 0e bf 81 7a 13 3f 51 ff 95 3f
       -0.43495163 -0.55564207 0.576088 1.1718541

weight f4 [1, 4]
000000 75 cc c4 bf 5e a3 04 bf 1c 9b 59 bf c9 fe 3e bf
       -1.5374895 -0.5181178 -0.85002303 -0.7460752

weight f4 [1, 4]
000000 0c 4f 73 be 4c 29 74 3e 36 76 c0 be aa 04 b4 3e
       -0.23760623 0.23843879 -0.37590188 0.35159808

weight f4 [1, 4]
000000 9a 0e a8 3e 7c 4b 53 be e0 b6 ef bc 54 f0 34 be
       0.3282364 -0.20634264 -0.029262006 -0.17669803

weight f4 [1, 4]
000000 bc 49 3d be 2c d7 ee be b4 0f 9b be fc 48 af be
       -0.18485159 -0.46648538 -0.30285418 -0.3423537

weight f4 [1, 4]
000000 60 95 57 3d a8 6d 3d be 7a fb a6 3e 34 b6 72 be
       0.05263269 -0.18498862 0.32613736 -0.23702317

weight f4 [1, 4]
000000 30 e2 73 bd b0 36 f7 3e f6 f2 cf 3e 5c 96 c5 be
       -0.05954188 0.4828391 0.40615052 -0.38591278

weight f4 [1, 4]
000000 00 03 db be 30 94 4e bd 80 04 e8 3b 98 11 ab 3e
       -0.42775726 -0.05043429 0.0070806146 0.3341186

weight f4 [1, 4]
000000 5a c6 d7 be 5f 67 37 bf dd cd 0f bf c3 0c 69 bd
       -0.42143518 -0.71642107 -0.561735 -0.056896936

weight f4 [1, 4]
000000 18 9a 6f bf 50 5d cf be 8f 92 99 bf eb f3 04 bf
       -0.93594503 -0.4050088 -1.1997851 -0.5193469
