mlartifacts/196996377989302197/a889dd8e93604910b6b0bd9a348a8d60/artifacts/models/data/model.pth (torch, 117644 bytes, 82 tensors)

bias f4 [16]
0	0x3cf48ce0	0.02985233
1	0x3d5de23f	0.054170843
2	0x3dc2acc6	0.0950561
3	0x3ca68937	0.020329101
4	0xbdc47099	-0.09591789
5	0xbcdd9e30	-0.027052969
6	0xbd8df0d6	-0.069307014
7	0x00000000	0.0
8	0xbd818015	-0.06323258
9	0xbd12b656	-0.03581842
10	0xbd1f799b	-0.03893433
11	0xbcfeaace	-0.031087305
12	0xbc4fbe2c	-0.012679618
13	0x00000000	0.0
14	0xbd1e759c	-0.03868638
15	0x00000000	0.0

weight f4 [16, 3]
0	0x3f0c96b6	0.54917467
1	0xbf35bf75	-0.70995265
2	0xbd9530b8	-0.07284683
3	0x3e6cd74f	0.23129009
4	0x3e4d4934	0.20047456
5	0x3f1b1896	0.6058439
6	0x3e51aed7	0.20476852
7	0x3d7aed1b	0.061261278
8	0xbc536b96	-0.012904068
9	0xbf0ae3a9	-0.5425363
10	0x3ec5a840	0.38604927
11	0xbe47833e	-0.19483659
12	0xbd3f9535	-0.046773154
13	0x3d94aa44	0.07259038
14	0xbf063ec1	-0.52439505
15	0xbe898ff8	-0.26867652
16	0x3e549f2a	0.20763841
17	0xbe819384	-0.25307858
18	0xbe80da4b	-0.25166544
19	0xbed22bd8	-0.41049075
20	0x3ef08fc8	0.46984696
21	0x3cd3469b	0.025790503
22	0xbe0cc9b4	-0.13748819
23	0xbebf5098	-0.37366176
24	0x3e36a17d	0.1783504
25	0x3eee54c7	0.46549055
26	0xbdfe9373	-0.124304675
27	0x3dfe21b1	0.1240877
28	0xbec87341	-0.39150432
29	0xbee81907	-0.45331594
30	0xbef3995e	-0.47577947
31	0xbde9bb82	-0.114127174
32	0x3eebb993	0.4604002
33	0x3d237869	0.039909754
34	0x3e189914	0.14902145
35	0xbedd3770	-0.43206358
36	0x3ca9b0a8	0.02071412
37	0x3e203e0c	0.15648669
38	0x3e095103	0.1340981
39	0xbdf93485	-0.121682204
40	0x3d8731b2	0.066012755
41	0xbe0e255c	-0.13881439
42	0xbe666c6a	-0.22502294
43	0x3f108bbb	0.5646321
44	0xbeac1334	-0.336084
45	0x3eb9b31a	0.36269456
46	0x3d170f48	0.036879808
47	0xbf097e56	-0.537084

weight f4 [16, 3]
0	0x3f4209f7	0.75796455
1	0x3e64fba5	0.2236162
2	0xbdd55aa6	-0.104176804
3	0xbd31d471	-0.04341549
4	0x3e5440a1	0.20727779
5	0x3e82bb3b	0.2553347
6	0xbe22c2fe	-0.15894696
7	0x3f03d598	0.51497793
8	0x3d3d378e	0.04619556
9	0x3d8956c1	0.06706
10	0x3e12cc61	0.14335777
11	0xbe80a838	-0.2512834
12	0xbe656bb5	-0.22404368
13	0x3e84f97e	0.25971597
14	0x3e4f67e8	0.20254481
15	0xbe29b7e9	-0.16574062
16	0x3f0011d3	0.500272
17	0xbbc6fef8	-0.006072875
18	0x3e8dbbce	0.27682346
19	0xbefd23b3	-0.494413
20	0x3f00cee9	0.5031572
21	0x3ef3e705	0.4763719
22	0x3f20979e	0.6273135
23	0xbe69db66	-0.228376
24	0x3eec5c74	0.46164286
25	0x3ea3d575	0.31998792
26	0x3dbf3160	0.093355894
27	0x3eecccbc	0.4624995
28	0xbeae3d34	-0.3403107
29	0x3e1322de	0.1436877
30	0xbf0603f0	-0.5234976
31	0xbcdfa179	-0.027298676
32	0xbe349eb8	-0.17638671
33	0x3d95e4a1	0.07318998
34	0xbea9b88b	-0.33148608
35	0xbef0fa0b	-0.47065768
36	0xbefc3bcc	-0.4926437
37	0xbe87be5e	-0.26512426
38	0xbeb03829	-0.34417847
39	0x3f15584f	0.58337873
40	0xbee040f0	-0.43799543
41	0x3edcb843	0.4310933
42	0x3efce171	0.49390748
43	0xbeae76eb	-0.34075102
44	0x3f0b608b	0.5444419
45	0xbe1a4974	-0.15067083
46	0xbe0c174d	-0.13680764
47	0xbef0fe12	-0.4706884

bias f4 [16]
0	0x3e50288c	0.20327967
1	0xbed161e8	-0.4089501
2	0x3ec98b2e	0.39363998
3	0xbd9d5d44	-0.07683805
4	0x3f0e3720	0.55552864
5	0x3e338f16	0.17535052
6	0xbe74425b	-0.23853438
7	0x3ddbad96	0.10726468
8	0xbed41cc4	-0.41428196
9	0xbd6b627d	-0.057466973
10	0xbf0abe58	-0.5419669
11	0x3ef1d284	0.47230923
12	0xbe6eb8e0	-0.23312712
13	0x3e4044b9	0.18776216
14	0x3d393821	0.045219544
15	0xbeb753e2	-0.35806185

weight f4 [16, 1]
0	0xbe17bb51	-0.1481755
1	0xbea7c2b5	-0.32765737
2	0x3f32616e	0.69679916
3	0x3f39440a	0.72369444
4	0xbeab8d74	-0.33506358
5	0xbee15438	-0.44009566
6	0x3f578fbc	0.84203696
7	0x3ebc5845	0.36786094
8	0xbe16e5f8	-0.14736164
9	0x3f29e9d5	0.66372424
10	0xbf5da6d6	-0.86582696
11	0xbec7e5e8	-0.39042592
12	0x3f0d56ed	0.55210763
13	0x3d18f79d	0.037345517
14	0x3e86e968	0.2634995
15	0xbe38bd80	-0.18041039

weight f4 [16, 1]
0	0xbf37150e	-0.715165
1	0x3ef8ada0	0.48569965
2	0xbf04c622	-0.51864827
3	0x3f15ab43	0.5846445
4	0xbf8a8f4e	-1.0824983
5	0xbf35c03a	-0.7099644
6	0x3f5938bd	0.848522
7	0xbf3ef32e	-0.7458981
8	0x3f45498d	0.77065355
9	0x3f845516	1.0338466
10	0xbe99719b	-0.29969487
11	0x3f7defa4	0.9919379
12	0xbf740d1e	-0.95332515
13	0xbf77a27e	-0.9673232
14	0xbec29da9	-0.3801091
15	0x3ed1a608	0.40946984

bias f4 [16]
0	0x3ec09f7d	0.3762168
1	0xbf691800	-0.91052246
2	0xbf1d16c9	-0.6136289
3	0x3e95ef08	0.2928393
4	0x3e5d8d7c	0.21636003
5	0x3ec64da2	0.38731104
6	0x3dd5d336	0.10440676
7	0xbf2e3ca6	-0.6806129
8	0x3f2ff606	0.68734777
9	0x3f34f3ca	0.7068449
10	0x3f2e8eae	0.6818646
11	0xbe6f20f2	-0.23352411
12	0x3de2baaf	0.11070763
13	0xbf6f2eba	-0.93430674
14	0x3f29547d	0.66144544
15	0xbf79abee	-0.9752797

weight f4 [16, 3]
0	0xbea8b0a5	-0.3294727
1	0xbeb0c5fb	-0.34526047
2	0xbec3087a	-0.38092405
3	0x3ef60fd9	0.48058966
4	0xbe1e0928	-0.1543318
5	0x3e49e6c3	0.19716935
6	0xbb7f5a97	-0.0038963908
7	0x3eaadf19	0.33373335
8	0xbdc523fa	-0.096260026
9	0x3d5f2047	0.05447414
10	0x3f051fdb	0.5200173
11	0xbeee0bea	-0.46493465
12	0x3d0c612e	0.034272365
13	0x3e5ce4af	0.21571611
14	0x3e8ada4e	0.27119678
15	0x3ebff7eb	0.37493834
16	0x3ea7c0e2	0.32764345
17	0xbcb723d2	-0.022355948
18	0xbf147cc8	-0.580029
19	0xbee6b215	-0.4505774
20	0x3e1b2086	0.15149125
21	0xbe36bd1f	-0.17845581
22	0xbe57e63f	-0.21083926
23	0xbe21a33c	-0.15784925
24	0xbe438d95	-0.19096978
25	0x3ef28c60	0.47372723
26	0x3ef7abf4	0.48373377
27	0x3df08dc9	0.11745793
28	0x3e8c89b1	0.274488
29	0xbe271471	-0.16316392
30	0x3dee22d0	0.11627734
31	0x3e320f34	0.17388612
32	0x3e87836a	0.26467448
33	0xbeab410f	-0.33448073
34	0x3ecb4bd3	0.39706287
35	0x3cce7aa2	0.02520496
36	0xbf05f2f1	-0.52323824
37	0xbe8a1fe4	-0.26977456
38	0x3ed8c2fc	0.4233626
39	0x3dba287a	0.090897515
40	0xbe87bdad	-0.265119
41	0xbf0a70f5	-0.5407861
42	0x3e8ef07e	0.27917856
43	0x3ee7d3a5	0.4527866
44	0xbe20785d	-0.15670915
45	0x3cb0317d	0.021507973
46	0x3e2e5552	0.17024735
47	0x3e8d40b1	0.27588418

weight f4 [16, 3]
0	0x3f01ddba	0.5072895
1	0x3e4b347a	0.19844237
2	0x3eb48e2d	0.35264722
3	0xbf0cd4f9	-0.5501247
4	0xbea9a2fa	-0.33132154
5	0xbe9f90cc	-0.3116516
6	0x3f301d51	0.68794733
7	0x3dfa1112	0.12210287
8	0x3dfce554	0.12348428
9	0x3c96a0ca	0.018387217
10	0xbe010206	-0.12598428
11	0x3db12506	0.0864964
12	0x3f028790	0.509881
13	0xbe23f4c9	-0.16011347
14	0xbec4048d	-0.38284722
15	0x3eb3272a	0.34990817
16	0x3ed7877d	0.42095557
17	0x3edfb713	0.43694362
18	0xbca8a6d4	-0.020587362
19	0xbe4493da	-0.19197026
20	0xbe97c034	-0.29638827
21	0x3f106d7b	0.56417054
22	0x3f2a5d39	0.66548496
23	0xbdb9f551	-0.090799935
24	0x3ec39b48	0.38204408
25	0xbf146f53	-0.5798237
26	0x3e98b97b	0.2982901
27	0xbed438f5	-0.41449705
28	0x3e900d77	0.28135273
29	0xbe822364	-0.25417626
30	0x3e8120e2	0.252204
31	0xbdd093ab	-0.101844154
32	0xbde2640d	-0.110542394
33	0xbe1cacc5	-0.15300281
34	0x3e64a779	0.22329511
35	0xbf29993c	-0.6624944
36	0xbf233779	-0.6375652
37	0xbef0a69a	-0.47002107
38	0xbf0dd104	-0.5539706
39	0x3efad722	0.48992258
40	0xbf12e939	-0.5738712
41	0x3e116d22	0.14201787
42	0xbe8ef520	-0.2792139
43	0x3d9674af	0.073464744
44	0xbe283847	-0.16427718
45	0xbe8cf1b8	-0.27528167
46	0xbe78fa9d	-0.24314351
47	0xbd7b8196	-0.06140288

bias f4 [16]
0	0xbdfa7fd4	-0.122314125
1	0x3e96a57d	0.29423133
2	0x3dd6b420	0.10483575
3	0xbe86310b	-0.26209292
4	0xbf0dd6f5	-0.55406123
5	0xbd838087	-0.06420999
6	0xbed1d169	-0.4098008
7	0x3ea0b0ea	0.31384975
8	0x3e020204	0.12696081
9	0xbebfa1fe	-0.37428278
10	0x3ef919cd	0.48652497
11	0x3d96b93a	0.07359548
12	0x3e99a2a7	0.30006906
13	0xbed7072a	-0.41997653
14	0x3eb33926	0.35004538
15	0x3edadafd	0.427452

weight f4 [16, 1]
0	0x3f4b61bc	0.79446006
1	0x3ec7ba01	0.39009097
2	0x3f916986	1.1360328
3	0xbea57137	-0.3231294
4	0x3f132a6b	0.574866
5	0xbf8fad7c	-1.1224818
6	0x3dae6315	0.08514992
7	0x3f5117de	0.81677043
8	0xbf3f4a46	-0.7472271
9	0x3f8121a5	1.0088392
10	0x3f2b2462	0.6685239
11	0xbe67261a	-0.22573128
12	0x3f19dbf9	0.60101277
13	0xbeb2f574	-0.3495289
14	0xbf5116dc	-0.81675506
15	0x3e9f9298	0.3116653

bias f4 [16]
0	0x3c9aca1c	0.018895201
1	0x3e643b43	0.22288232
2	0x3f0cb13f	0.54957956
3	0x3d7dca21	0.061960343
4	0xbf086531	-0.53279406
5	0x3e79adc1	0.24382688
6	0xbee47c31	-0.44626
7	0xbe6644f0	-0.22487235
8	0x3dbdfa4c	0.09276256
9	0x3f0bc90c	0.5460365
10	0xbf2dfc02	-0.6796266
11	0x3f24c2cb	0.6435973
12	0x3b8ccecf	0.0042971144
13	0xbf668820	-0.9005146
14	0x3e991e45	0.29905906
15	0x3e63ab20	0.22233248

weight f4 [16, 3]
0	0xbecbb421	-0.39785865
1	0xbda25f75	-0.07928363
2	0x3e3eeab5	0.18644221
3	0x3ea94637	0.33061382
4	0x3e5b4ac2	0.21415237
5	0xbea77e6e	-0.32713646
6	0x3f18bb35	0.59660655
7	0x3f212504	0.62947106
8	0xbed25b97	-0.41085503
9	0x3e7167e8	0.23574793
10	0xbe71f6a5	-0.23629244
11	0xbe262f20	-0.16228914
12	0xbe2703e2	-0.16310075
13	0x3ef8c0c6	0.48584574
14	0xbeb21ca4	-0.34787476
15	0xbe91a0e3	-0.2844306
16	0x3ebd0514	0.36917937
17	0x3ed7836c	0.42092454
18	0xbcd54356	-0.026033085
19	0xbe2e16c5	-0.17000873
20	0x3df5b146	0.11996703
21	0x3dae5cc1	0.08513785
22	0x3e1a391b	0.15060847
23	0xbee6006f	-0.44922206
24	0xbe65dce7	-0.22447549
25	0x3f17a00a	0.59228575
26	0x3eb071fe	0.3446197
27	0xbed5e1bf	-0.41773793
28	0x3de78d8d	0.113062955
29	0xbf0de914	-0.55433774
30	0x3d04e530	0.032445133
31	0xbeba877f	-0.364315
32	0xbe412de6	-0.18865165
33	0x3ee0749e	0.43838972
34	0xbece0086	-0.40234774
35	0x3d654c30	0.05598086
36	0x3eb8ed8f	0.36118743
37	0x3ef51fc3	0.47875795
38	0x3f082234	0.5317719
39	0x3e1b8b4e	0.1518986
40	0x3e6c0c2f	0.23051523
41	0x3dd3284b	0.1031042
42	0xbe4be567	-0.19911729
43	0x3eb95fa7	0.3620579
44	0x3e9bc1dc	0.3042134
45	0xbf0fe9cc	-0.5621612
46	0xbea93981	-0.33051684
47	0xbe196ffd	-0.14984126

weight f4 [16, 3]
0	0xbed4ebe4	-0.4158622
1	0x3f1b8c10	0.60760593
2	0xbf135471	-0.5755072
3	0x3f0e2bca	0.55535567
4	0x3ddeb673	0.10874643
5	0x3ec6d9a6	0.38837928
6	0x3f00a1c1	0.50246817
7	0x3c61e342	0.013787093
8	0xbea120b3	-0.3147026
9	0xbe8bc957	-0.27302048
10	0xbd9adde2	-0.07561852
11	0xbee69df6	-0.4504239
12	0xbcf41045	-0.029792914
13	0xbcebe392	-0.028795037
14	0xbe9d912e	-0.30774826
15	0x3f2b8afc	0.6700895
16	0xbed9465b	-0.4243649
17	0xbe851f95	-0.26000658
18	0x3ecf3b58	0.40474963
19	0xbe96fa0c	-0.29487646
20	0x3ebdde40	0.37083626
21	0xbe9d76a2	-0.30754572
22	0x3d69a1fd	0.05703925
23	0xbe5053bf	-0.20344447
24	0xbda9ad49	-0.08285005
25	0x3d6be87f	0.057594772
26	0xbe800383	-0.2500268
27	0x3e82f4ba	0.25577337
28	0xbd104e67	-0.03523102
29	0x3ef683a5	0.48147312
30	0xbe6abdef	-0.22924016
31	0xbec6b59c	-0.38810432
32	0xbe39b992	-0.18137196
33	0xbd9c4877	-0.07631009
34	0x3e5bdaab	0.21470134
35	0x3e3827f2	0.17983988
36	0xbe8e77eb	-0.27825865
37	0x3ed28426	0.41116446
38	0x3f038912	0.5138103
39	0x3e94b0a8	0.29041028
40	0xbebe454e	-0.3716225
41	0xbeeaeb3a	-0.4588259
42	0x3d843063	0.064545415
43	0xbee2e3eb	-0.44314513
44	0xbe8dcbf0	-0.27694654
45	0xbe474a59	-0.19461955
46	0xbee366ea	-0.44414455
47	0xbd1abd84	-0.037778392

bias f4 [16]
0	0x3ebe4f66	0.3716995
1	0x3e0da00c	0.13830584
2	0x3dbb0a86	0.091328666
3	0xbd3c1355	-0.045916874
4	0xbec5d2d3	-0.3863741
5	0xbdc229c5	-0.09480623
6	0x3eb4c11b	0.35303578
7	0x3e4fdcfd	0.20299144
8	0xbe89787f	-0.26849744
9	0xbd8a12fe	-0.06741904
10	0x3e14ca78	0.1453036
11	0x3e8bfba9	0.2734044
12	0x3f01777a	0.5057293
13	0xbe0294f1	-0.12752129
14	0x3f16fcca	0.58979475
15	0xbe383c9c	-0.1799187

weight f4 [16, 1]
0	0xbf4ca245	-0.79935104
1	0x3c90229f	0.017594634
2	0xbf8ee72a	-1.1164296
3	0xbf2db1da	-0.67849505
4	0x3f89879a	1.0744507
5	0xbf1a3874	-0.6024239
6	0xbee14da7	-0.44004557
7	0x3f7f21bc	0.9966085
8	0xbea35e2c	-0.31907785
9	0x3f4e9ea9	0.80710846
10	0x3f08fff4	0.53515553
11	0x3ec75d00	0.3893814
12	0x3eeb259c	0.4592713
13	0x3eb9c05a	0.36279565
14	0xbf74777f	-0.95494837
15	0xbf0c3196	-0.5476316

weight f4 [16, 16]
0	0x3e4f6674	0.20253927
1	0xbdafc5ab	-0.08582624
2	0x3d766d5f	0.0601629
3	0xbd55acb8	-0.05216667
4	0x3e48074e	0.19534037
5	0x3d14b4d8	0.03630528
6	0x3e2b02f6	0.16700348
7	0x3e7df7bf	0.24801539
8	0x3d6bcb18	0.057566732
9	0x3e4e4f6e	0.20147488
10	0xbe607723	-0.21920447
11	0x3e73f689	0.23824514
12	0x3e23e16e	0.16003963
13	0x3dcf8134	0.101320654
14	0xbe8de24f	-0.27711722
15	0xbe8e3c5c	-0.27780426
16	0xbdc5d531	-0.09659804
17	0x3e78155c	0.24226898
18	0xbe83d538	-0.2574861
19	0xbe51850e	-0.20460913
20	0xbe02c994	-0.12772208
21	0x3c8ecc18	0.017431304
22	0xbdfca7d4	-0.12336698
23	0xbe186aef	-0.14884542
24	0x3d95b353	0.07309594
25	0x3d151538	0.03639719
26	0x3d353de8	0.04424849
27	0xbe6002e9	-0.2187611
28	0xbdfc22d6	-0.12311332
29	0x3e787438	0.24263084
30	0x3c787793	0.015165227
31	0x3df690d1	0.1203934
32	0x3f0b4005	0.5439456
33	0x3d1e2124	0.038605824
34	0x3e129606	0.14315042
35	0x3dc0eb90	0.0941993
36	0xbcbdbd60	-0.02316159
37	0x3c9b1e8a	0.01893546
38	0xbe42b114	-0.19012862
39	0xbe40050c	-0.18751925
40	0xbdd8e3e1	-0.105903395
41	0xbe70c188	-0.23511326
42	0x3bb8b199	0.0056364057
43	0x3e422a98	0.1896156
44	0xbe2ae049	-0.1668712
45	0xbe4cdf52	-0.20007065
46	0xbe40a620	-0.18813372
47	0x3e1f5820	0.15560961
48	0xbe255899	-0.16147079
49	0x3da19a32	0.078907385
50	0xbcf44a45	-0.02982057
51	0x3e5beb84	0.21476561
52	0xbe0f72f4	-0.14008695
53	0x3e3ef0d6	0.18646559
54	0x3e549a78	0.2076205
55	0x3dcedd86	0.10100846
56	0xbcfc2307	-0.030778421
57	0xbc07f7a0	-0.0082987845
58	0x3e2ab99d	0.16672368
59	0x3c24aa8c	0.010050427
60	0x3e21dea8	0.15807593
61	0xbe3e4c44	-0.1858378
62	0x3d9d3ceb	0.07677635
63	0xbd4eee6f	-0.050520357
64	0x3b5279ed	0.003211613
65	0x3ceac7a4	0.02865965
66	0xbd54a4ff	-0.051915165
67	0x3d84d058	0.06485051
68	0x3e4089c8	0.1880256
69	0x3e07c8cf	0.13260196
70	0x3e294868	0.16531527
71	0xbe46d238	-0.1941613
72	0x3e065422	0.13118032
73	0x3d50e620	0.051000714
74	0xbe062b96	-0.13102564
75	0x3dca077a	0.09864707
76	0x3e2517c6	0.1612235
77	0x3e62b4f0	0.22139335
78	0xbba66d69	-0.0050789607
79	0x3e4d9346	0.20075712
80	0x3e344f00	0.17608261
81	0x3daeb78f	0.08531105
82	0xbddb53ac	-0.107093185
83	0x3e792632	0.24330977
84	0x3e29d442	0.16584876
85	0xbe857e75	-0.26073042
86	0xbe0b44b8	-0.13600433
87	0xbde22bee	-0.11043535
88	0x3e299680	0.16561317
89	0x3dbea364	0.09308508
90	0xb8dad884	-0.00010435379
91	0xbd8fafd4	-0.070159584
92	0x3e3249cb	0.17410962
93	0xbe097ecc	-0.13427275
94	0x3e21d6d4	0.15804607
95	0x3e31cf2d	0.17364188
96	0x3e269896	0.16269144
97	0x3e7f5796	0.24935755
98	0xbc73c900	-0.014879465
99	0x3e45df44	0.1932345
100	0xbe6b1cfc	-0.22960275
101	0xbcd0ff00	-0.025512218
102	0x3e4b0f10	0.19829965
103	0xbdd6a0ec	-0.10479912
104	0xbe668f58	-0.22515619
105	0xbd4bb300	-0.049731255
106	0xbe38fcda	-0.18065205
107	0x3e050660	0.12990713
108	0xbe7aecca	-0.2450439
109	0xbcbcdd00	-0.0230546
110	0x3dc708a4	0.09718445
111	0xbe18754a	-0.14888492
112	0xbeb7cc21	-0.35897925
113	0xbd8b88dc	-0.06813213
114	0xbe9ea5a5	-0.30985752
115	0xbe7504ee	-0.23927662
116	0x3e0f8490	0.14015412
117	0xbdd11046	-0.10208182
118	0x3e6db072	0.2321184
119	0xbd519cd6	-0.05117496
120	0x3e5da52c	0.2164504
121	0xbb0dc780	-0.0021633804
122	0xbe0c2086	-0.13684282
123	0xbe4759f8	-0.19467914
124	0xbd807a5b	-0.062733375
125	0x3e46dcae	0.1942012
126	0x3e3ffcd6	0.18748793
127	0xbd3012e5	-0.04298677
128	0xbd8f8070	-0.070069194
129	0x3d20dc88	0.039272815
130	0x3e198846	0.1499339
131	0x3e1cccee	0.1531255
132	0xbdf0a1a0	-0.117495775
133	0x3da125a6	0.07868509
134	0xbc561b00	-0.013067961
135	0xbe276435	-0.1634682
136	0x3d58fdbb	0.05297635
137	0x3da82c48	0.08211571
138	0xbdd0e3d9	-0.101997085
139	0x3cda6fe1	0.026664676
140	0xbe662be0	-0.22477674
141	0xbe762fa6	-0.24041614
142	0xbe6f44ec	-0.23366135
143	0x3d0049c9	0.031320367
144	0x3dfff746	0.124983355
145	0xbdc51335	-0.09622804
146	0xbe181693	-0.14852361
147	0xbc813680	-0.015773058
148	0x3e442c5a	0.19157544
149	0xbe14543f	-0.14485262
150	0xbe1fa08c	-0.15588588
151	0xbdc84ead	-0.09780631
152	0xbe10ba8c	-0.14133662
153	0x3b192a80	0.002337128
154	0x3e3624b2	0.17787436
155	0x3cae507d	0.021278614
156	0x3e114df6	0.14189896
157	0x3c5f08e0	0.013612956
158	0x3df91773	0.12162676
159	0xbe2a4d21	-0.16630985
160	0xbdde925c	-0.108677596
161	0xbe4c10fc	-0.19928354
162	0xbcc7f7a0	-0.024410069
163	0x3dc1c3e0	0.09461188
164	0xbe7f3f22	-0.24926427
165	0x3dc75954	0.09733835
166	0xbc25dd60	-0.010123581
167	0x3e3e3ba4	0.18577439
168	0x3d363dd2	0.04449255
169	0xbdf207d8	-0.11817902
170	0xbd86a396	-0.0657417
171	0x3ccee61c	0.02525621
172	0x3e1a4358	0.15064752
173	0x3d7344b0	0.059391677
174	0xbe370151	-0.17871596
175	0x3e507c75	0.20359977
176	0xbe15f724	-0.14645058
177	0x3db05c50	0.08611357
178	0x3e37c468	0.17946017
179	0xbe1ef6a4	-0.15523773
180	0x3daec0dc	0.08532879
181	0x3e25c336	0.16187748
182	0x3e6a3632	0.22872236
183	0x3e5ba5d6	0.2144998
184	0xbe5a6c6e	-0.21330425
185	0xbdce5eac	-0.10076651
186	0xbe338398	-0.17530668
187	0xbe6d81b0	-0.23194003
188	0x3ddc4b44	0.10756543
189	0x3e22ae66	0.1588684
190	0x3d9c0388	0.07617861
191	0xbe0938e0	-0.13400602
192	0xbe5c00e9	-0.21484722
193	0x3e37b8c0	0.1794157
194	0xbe957c85	-0.29196563
195	0x3e17c828	0.14822447
196	0x3ddb48d0	0.10707247
197	0xbd8d77dd	-0.06907628
198	0xbd075050	-0.033035576
199	0xbd96f5f9	-0.07371134
200	0xbe39ac09	-0.18132032
201	0xbe03f284	-0.12885481
202	0x3c97eca0	0.018545449
203	0x3d449a28	0.047998577
204	0xbe505081	-0.2034321
205	0x3d58aa58	0.052896827
206	0x3d9dc20c	0.07703027
207	0xbe00a809	-0.125641
208	0x3e5145c6	0.20436773
209	0xbd26a014	-0.040680006
210	0x3e32ffa9	0.17480339
211	0x3c976c90	0.018484384
212	0xbe7f0146	-0.2490283
213	0x3e5e78f3	0.21725826
214	0xbe4ff19c	-0.2030701
215	0x3da8a67d	0.0823488
216	0x3e40260d	0.18764515
217	0xbe6fa62c	-0.23403233
218	0x3e20b7a2	0.1569505
219	0xbdb7053f	-0.089365475
220	0xbd99fcbf	-0.075189106
221	0xbdead68c	-0.11466703
222	0x3e19d351	0.15022017
223	0x3df1d5eb	0.1180838
224	0x3e47ef67	0.19524918
225	0x3e3c8a99	0.18412246
226	0x3b4cb950	0.0031238385
227	0x3c3082a0	0.010773331
228	0x3e3ab952	0.18234757
229	0xb8714e28	-5.7531666e-05
230	0xbe7f2508	-0.2491647
231	0xbde17365	-0.11008338
232	0x3c452f3c	0.012035187
233	0x3e1d6c5a	0.15373364
234	0x3de92089	0.11383159
235	0x3ce40668	0.027835086
236	0xbe17b077	-0.1481341
237	0x3d0819b8	0.033227652
238	0x3bb5b110	0.005544789
239	0xbe5d7928	-0.21628249
240	0xbe878514	-0.26468718
241	0xbd83f7e9	-0.064437695
242	0x3d8bfc50	0.06835234
243	0x3aae3400	0.0013290644
244	0x3dd1503c	0.102203816
245	0xbe6d54b9	-0.2317685
246	0xbe4aa518	-0.19789541
247	0xbcfe1453	-0.03101555
248	0xbd32d6ad	-0.043661762
249	0x3e5a9882	0.2134724
250	0x3d8f20bc	0.069886655
251	0x3e3c5049	0.18390001
252	0xbdef1f02	-0.11675836
253	0x3ce6bde0	0.028166711
254	0x3e164c8d	0.1467764
255	0xbe54c0da	-0.20776692

bias f4 [16]
0	0x3e4235d9	0.18965854
1	0x3d66374b	0.056205075
2	0xbe6a34e5	-0.2287174
3	0xbd395928	-0.04525104
4	0xbbc8a2c4	-0.006122919
5	0x3e4c7783	0.19967465
6	0xbe63af4a	-0.22234836
7	0xbd56e409	-0.052463565
8	0x3dc21bca	0.094779566
9	0x3e3405dd	0.17580362
10	0xbc98bf72	-0.018645976
11	0x3e215c76	0.15757927
12	0x3e3f9ba3	0.18711714
13	0x3db3fb3e	0.08788155
14	0x3dcd3a4a	0.100208834
15	0xbdb1caf7	-0.086812906

weight f4 [16, 16]
0	0x3df80d01	0.12111855
1	0xbe4ac4cc	-0.19801635
2	0xbefacbfb	-0.4898375
3	0x3e9873f2	0.2977596
4	0xbe41ac92	-0.18913487
5	0x3e0958b7	0.13412748
6	0x3e1c4688	0.1526128
7	0x3dac17bc	0.084029645
8	0x3e3be51e	0.1834912
9	0xbc029d1f	-0.007972031
10	0xbe8b5b4b	-0.27218089
11	0xbdaa184e	-0.08305417
12	0x3d733861	0.05937994
13	0xbe46d8a4	-0.1941858
14	0x3ddf5f7f	0.10906886
15	0xbe2c3ef4	-0.1682089
16	0xbe86d15f	-0.26331612
17	0x3ca15f18	0.019698665
18	0xbe748a91	-0.23880984
19	0xbe431d24	-0.19054085
20	0x3e295a97	0.16538464
21	0x3d1f6edd	0.038924087
22	0x3e0fca7c	0.14042085
23	0xbdeb9170	-0.115023494
24	0xbce35fc0	-0.027755618
25	0xbe4ae381	-0.19813348
26	0xbdbe5d46	-0.09295134
27	0xbe114ec0	-0.14190197
28	0x3e14eac8	0.14542687
29	0xbd835180	-0.06412029
30	0xbd95fece	-0.07323991
31	0xbe563e5e	-0.20922229
32	0x3e641c7b	0.2227649
33	0xbcfc7f81	-0.030822517
34	0x3d6fbaa4	0.058527604
35	0x3d8c98cc	0.06865081
36	0x3e559885	0.20858963
37	0x3e27e3ac	0.16395444
38	0xbe9bed2b	-0.30454382
39	0xbe279a5c	-0.16367477
40	0x3d119c54	0.035549477
41	0xbdd57961	-0.10423542
42	0x3d26003d	0.04052757
43	0x3e0e692a	0.13907304
44	0x3d77b0f7	0.0604715
45	0x3d978320	0.07398057
46	0xbdb97673	-0.090557955
47	0x3e2d5bb0	0.16929507
48	0xbdea9def	-0.11455905
49	0x3c4572d4	0.012051303
50	0xbdb38d44	-0.08767179
51	0xbe76266a	-0.24038091
52	0xbe0f1739	-0.13973702
53	0xbdb203f9	-0.08692164
54	0x3d99867a	0.074963525
55	0xbe2340b0	-0.15942645
56	0xbc151820	-0.00909999
57	0x3dde7468	0.108620465
58	0x3c8bba4d	0.017056609
59	0xbe16be44	-0.14721018
60	0x3df29cbf	0.11846303
61	0x3cabe4d0	0.02098313
62	0xbdcecf54	-0.100981385
63	0x3e56d0d0	0.20978093
64	0xbe2a630e	-0.16639349
65	0x3da86898	0.08223075
66	0x3d9f406a	0.07775958
67	0x3da6f15c	0.081515044
68	0xbde8383d	-0.113388516
69	0xbd907633	-0.07053795
70	0x3e0ab008	0.13543713
71	0x3e3e5a70	0.18589187
72	0x3e13b293	0.1442359
73	0xbddd8367	-0.10816079
74	0x3dc7d074	0.09756556
75	0x3bc18172	0.0059053237
76	0xbd8a91b6	-0.067660734
77	0xba280a00	-0.00064101815
78	0xbcc50696	-0.024050992
79	0x3d72eeb8	0.05930969
80	0x3e0a79a5	0.13522966
81	0x3e4b61bc	0.19861501
82	0x3d915622	0.07096507
83	0xbe37876a	-0.1792275
84	0xbe86eb01	-0.2635117
85	0x3d42ffe9	0.047607336
86	0xbd38d670	-0.04512638
87	0x3df92f3c	0.12167212
88	0xbe6bc5ba	-0.23024645
89	0x3e4384e6	0.19093665
90	0x3e0e15a5	0.13875444
91	0x3dfa5b15	0.12224404
92	0xbe0a59ef	-0.1351087
93	0x3e76d9d2	0.2410653
94	0xbdbfea17	-0.09370821
95	0xbda58c04	-0.080833465
96	0xbc8faa90	-0.017537385
97	0xbd96078c	-0.07325658
98	0xbd7867f8	-0.060646027
99	0x3e68060c	0.22658557
100	0xbe23f61c	-0.16011852
101	0xbdac5fcc	-0.08416709
102	0xbd2324a0	-0.03982985
103	0x3e21c06e	0.15796062
104	0xbdcfcb40	-0.10146189
105	0xbe179caa	-0.14805856
106	0x3cd22bd0	0.025655657
107	0x3e622f70	0.22088408
108	0x3e7a6966	0.24454269
109	0x3d3204e0	0.04346168
110	0x3db0c8bc	0.08632037
111	0xbda5ab00	-0.08089256
112	0xbecf7ba9	-0.40524033
113	0x3d95f3a2	0.0732186
114	0x3e65689f	0.22403191
115	0xbdc518b0	-0.096238494
116	0x3f0618d1	0.52381617
117	0xbc92cc90	-0.017919809
118	0xbbda601f	-0.0066642906
119	0x3e35ef90	0.17767167
120	0xbd0417cd	-0.03224926
121	0x3e3fb533	0.18721466
122	0xbe127683	-0.14303021
123	0x3e215746	0.15755948
124	0x3d87daa8	0.06633502
125	0x3ce73360	0.02822274
126	0xbd7cc2f3	-0.061709356
127	0x3e11fbe6	0.14256248
128	0x3caad780	0.020854712
129	0x3e13cf57	0.14434563
130	0x3e425e62	0.18981317
131	0xbe57a850	-0.210603
132	0xbdb986a4	-0.09058884
133	0xbe37287e	-0.1788654
134	0xbe0c0418	-0.13673437
135	0x3dd85b08	0.10564238
136	0xbe6f7184	-0.23383147
137	0x3e5b263a	0.21401301
138	0xbe6b8d91	-0.23003222
139	0x3c0189ac	0.007906359
140	0xbe600e89	-0.21880545
141	0x3d82661c	0.06367132
142	0xbe737aab	-0.23777263
143	0xbe21c2d0	-0.15796971
144	0xbcf49800	-0.029857635
145	0x3e4c66d7	0.19961105
146	0x3d829906	0.06376843
147	0xbe3d238f	-0.18470596
148	0xbe8de78e	-0.27715725
149	0xbd1aff13	-0.037840914
150	0x3e5a7f84	0.21337706
151	0xbd247808	-0.040153533
152	0xbe10cd57	-0.14140831
153	0xbe34bb61	-0.17649604
154	0x3e42d948	0.19028199
155	0x3d695024	0.056961194
156	0x3de31b4e	0.11089192
157	0xbe76589a	-0.24057236
158	0xbb0d7946	-0.0021587177
159	0xbca3bb00	-0.01998663
160	0xbe6355f5	-0.22200759
161	0x3e18091e	0.14847228
162	0x3e2557d7	0.1614679
163	0xbd9c4d65	-0.07631949
164	0x3e4844b8	0.19557464
165	0xbdf137f2	-0.11778249
166	0x3cb5a99f	0.022175608
167	0x3ac98e00	0.0015377402
168	0x3e392351	0.18079878
169	0xbe45704c	-0.19281119
170	0x3e08f1dd	0.13373514
171	0x3dcacddb	0.09902545
172	0xbdca3068	-0.09872514
173	0xbdc597b8	-0.09648079
174	0x3d884965	0.06654624
175	0xbdb23694	-0.08701816
176	0xbe582714	-0.21108657
177	0x3e104352	0.1408818
178	0xbe042b70	-0.12907195
179	0x3d2f45b0	0.04279107
180	0xbdb70b54	-0.089377075
181	0xbc6d8d20	-0.014498979
182	0x3d4b7d48	0.049680024
183	0x3e4a27f4	0.19741803
184	0x3dbf7e04	0.093502074
185	0x3e5797ca	0.21053997
186	0xbe5ef5e2	-0.21773484
187	0x3cdc5a40	0.026898503
188	0xbb97d2c0	-0.0046332777
189	0x3dd2b93c	0.10289237
190	0x3cf491b0	0.029854625
191	0x3e033ec2	0.12816909
192	0xbeeaa5a6	-0.45829505
193	0x3e51d781	0.20492364
194	0x3dcaa03b	0.09893843
195	0xbd929e08	-0.07159048
196	0x3eee103b	0.46496758
197	0x3c349f3a	0.011024291
198	0x3dde1d4b	0.10845431
199	0xbdf9c620	-0.121959925
200	0x3e3127d2	0.17300346
201	0x3e30dee8	0.17272532
202	0xbe8adfeb	-0.2712396
203	0xbd02da12	-0.03194625
204	0xbe2dfb4f	-0.16990398
205	0xbe48c252	-0.19605377
206	0x3dd55f4a	0.104185656
207	0xbe7f82b0	-0.24952197
208	0x3c58af96	0.013225457
209	0x3d8a6b11	0.067587025
210	0xbd0fbacb	-0.03509025
211	0x3e0b7a24	0.13620812
212	0xbd5fd6b9	-0.054648135
213	0x3e62d982	0.22153285
214	0x3c8157ef	0.015789
215	0x3c854a70	0.016270846
216	0x3e48f860	0.19625998
217	0x3e5053b3	0.20344429
218	0x3e00849c	0.12550586
219	0xbe4a9493	-0.19783239
220	0x3d7d57f1	0.061851446
221	0xbd624990	-0.055245936
222	0x3e4023ff	0.18763731
223	0x3e1c2b66	0.1525093
224	0x3d063cbf	0.032772776
225	0x3d5b9f2d	0.0536186
226	0xbcd382d8	-0.025819227
227	0xbdbd623a	-0.09247251
228	0xbe976c8f	-0.2957501
229	0x3d88d663	0.06681516
230	0x3e210d16	0.15727648
231	0x3e39753c	0.18111128
232	0xbe3761f2	-0.17908457
233	0x3e20cdab	0.15703456
234	0x3d08a486	0.033360027
235	0x3e253fc3	0.16137604
236	0x3d920a8f	0.0713092
237	0x3e124d2c	0.14287251
238	0xbe351784	-0.17684752
239	0x3b3fa680	0.002924353
240	0xbe84cc29	-0.25937012
241	0x3e2fc7e7	0.171661
242	0xbdd4f70f	-0.10398685
243	0xbe8b0037	-0.271486
244	0xbb87a215	-0.0041391947
245	0x3d125536	0.035725795
246	0x3dc240c4	0.09485009
247	0xbda9fc50	-0.08300078
248	0xbe48f876	-0.1962603
249	0x3e1c193f	0.15244006
250	0xbdd667d2	-0.10469021
251	0xbe7f14be	-0.24910256
252	0x3e1b9101	0.15192033
253	0xbdec7858	-0.11546391
254	0xbd354f38	-0.044265002
255	0x3d8a5128	0.067537606

weight f4 [16, 16]
0	0x3c83807c	0.016052477
1	0x3dfda945	0.12385801
2	0x3dfc6f7c	0.123259515
3	0xbd80434b	-0.06262835
4	0x3e20c285	0.15699203
5	0x3de68dc4	0.112575084
6	0xbde495f4	-0.11161414
7	0x3dd478f4	0.103746325
8	0xbe62116a	-0.22076955
9	0xbe0725cc	-0.13198012
10	0x3d02a831	0.03189868
11	0xbe1d4dee	-0.15361759
12	0xbe47fe5c	-0.19530624
13	0xbe1defa6	-0.1542345
14	0x3dc2012c	0.0947288
15	0x3d1bee80	0.03806925
16	0xbd907013	-0.070526265
17	0xbe9934cf	-0.29923102
18	0x3e51c796	0.20486292
19	0xbe98d3c2	-0.29849058
20	0x3e8f2db5	0.2796456
21	0x3de82b71	0.11336411
22	0x3e8a7da7	0.2704899
23	0x3dc96df0	0.09835422
24	0xbe49c5c1	-0.19704343
25	0x3dc33ce4	0.09533098
26	0xbd12c00a	-0.035827674
27	0xbd578219	-0.052614305
28	0xbe2e7f7e	-0.17040822
29	0x3d20eff0	0.039291322
30	0x3dbfb1c6	0.093600795
31	0x3c8b9e40	0.017043233
32	0xbe585f02	-0.21129993
33	0xbe34fbc4	-0.17674166
34	0x3d3787d3	0.044807266
35	0xbe3a2d09	-0.18181242
36	0x3e3d925e	0.18512866
37	0x3c03cd2c	0.008044522
38	0x3d4a2b58	0.049357742
39	0xbe557e92	-0.20849064
40	0xbe1d8bbf	-0.1538534
41	0x3d99063f	0.074718945
42	0xbe839eab	-0.25706992
43	0xbe2afb14	-0.16697341
44	0x3e05cecd	0.1306717
45	0x3e417f8a	0.18896309
46	0x3dc8ff4e	0.098143205
47	0x3e1dcdc8	0.1541053
48	0xbe5fc91f	-0.21854065
49	0x3d6b3d34	0.057431415
50	0xbe6680ea	-0.22510114
51	0x3cb8321d	0.022484833
52	0xbd7d6353	-0.0618623
53	0xbe051c1f	-0.12999009
54	0xbc84257d	-0.016131157
55	0xbe28cd72	-0.16484621
56	0x3e680a65	0.22660215
57	0xbe742dad	-0.23845549
58	0x3deb710c	0.11496171
59	0xbdbf7118	-0.09347743
60	0xbc370211	-0.011169926
61	0xbd22bf20	-0.039733052
62	0xbe0abdee	-0.13549015
63	0xbe4ecc88	-0.2019521
64	0x3d137a6f	0.036005434
65	0x3e590952	0.21194962
66	0x3cc871ca	0.024468321
67	0x3d08e573	0.033421945
68	0xbe819061	-0.25305465
69	0xbe7dce07	-0.24785624
70	0xbda01783	-0.078169845
71	0xbd971740	-0.073774815
72	0xbd424e60	-0.047438025
73	0x3d810edd	0.06301663
74	0xbd6aa4b5	-0.057285983
75	0xbe6ec766	-0.23318252
76	0xbe3a5e2e	-0.18199989
77	0x3dd35df8	0.103206575
78	0x387dcdc0	6.051152e-05
79	0xbdabd944	-0.083910495
80	0xbdfbef82	-0.12301542
81	0x3d8fed32	0.07027663
82	0xbd8a672c	-0.0675796
83	0x3d1899be	0.037255995
84	0xbd458240	-0.04821992
85	0xbe7a6573	-0.24452762
86	0x3d98fd83	0.074702285
87	0x3e01a9d2	0.12662438
88	0x3e455b44	0.19273096
89	0xbe39bb4a	-0.18137851
90	0x3e43a6f6	0.1910666
91	0xbddc6216	-0.10760896
92	0xbd523a6b	-0.051325243
93	0x3e44d3fc	0.1922149
94	0x3e5afad1	0.21384741
95	0x3d12ce78	0.035841435
96	0x3e4ff246	0.20307264
97	0x3cf80dc1	0.030279996
98	0xbd831755	-0.064009346
99	0xbdb699b2	-0.08916034
100	0xbe51820d	-0.20459767
101	0x3e204213	0.15650205
102	0x3df29712	0.118452206
103	0xbcf235c0	-0.029566646
104	0x3cee1234	0.029061414
105	0x3d3838e2	0.044976123
106	0xbdc76091	-0.097352155
107	0xbe5e515b	-0.21710722
108	0xbdfe5230	-0.1241802
109	0x3bfd9d80	0.0077397227
110	0xbe11f25f	-0.14252613
111	0x3e43bf0a	0.19115844
112	0xbdb8a822	-0.09016444
113	0xbdc63691	-0.096783765
114	0xbdcdf935	-0.10057298
115	0x3daa7163	0.08322408
116	0x3eb807ce	0.35943455
117	0xbcbe12c4	-0.023202308
118	0xbe846f57	-0.25866196
119	0xbcaa3480	-0.020776987
120	0x3dbe896f	0.09303557
121	0xbd9ac05f	-0.07556223
122	0x3d8bf235	0.06833307
123	0x3dabc880	0.08387852
124	0x3d6cd81d	0.05782329
125	0xbe5ca76a	-0.21548238
126	0xbe03284c	-0.12808341
127	0x3dabbb08	0.08385283
128	0xbe20a04f	-0.15686153
129	0xbe5e6200	-0.21717072
130	0xbde8cd1e	-0.11367248
131	0x3e140445	0.14454754
132	0xbe2c798c	-0.16843241
133	0xbd547ae1	-0.051875
134	0x3e93079b	0.2871674
135	0x3d8b720c	0.06808862
136	0x3e66d1bc	0.22540945
137	0x3e3ca5a7	0.18422566
138	0xbd8c6c78	-0.06856626
139	0x3d795816	0.06087502
140	0x3ddb1949	0.10698182
141	0xbd5d9d80	-0.05410528
142	0xbd938d79	-0.07204718
143	0x3e1c8ddc	0.1528849
144	0x3e9275e6	0.28605574
145	0x3e91b0d8	0.28455234
146	0x3d8bd3d1	0.0682751
147	0xbd341ad1	-0.043970887
148	0xbe4a6e99	-0.19768752
149	0xbe34beba	-0.17650881
150	0x3dc7ee8f	0.09762298
151	0x3cde1350	0.027108818
152	0x3e26adcc	0.16277236
153	0xbdb95f33	-0.09051361
154	0x3dfa0b83	0.12209227
155	0x3e83e208	0.25758386
156	0xbdffd64c	-0.12492046
157	0x3e3f87a8	0.18704093
158	0x3d870669	0.065930195
159	0x3e1f0bea	0.15531889
160	0x3e8b0291	0.27150396
161	0x3e975419	0.2955635
162	0x3ea7f885	0.32806793
163	0x3e626313	0.22108106
164	0xbdc9d4b9	-0.09855027
165	0x3e306859	0.17227305
166	0x3de97c82	0.11400701
167	0x3d9cd4a8	0.076577485
168	0xbc16035e	-0.009156076
169	0x3e59cfc1	0.21270658
170	0x3d825263	0.0636337
171	0x3e601d69	0.21886219
172	0xbd81b649	-0.06333596
173	0x3cb26450	0.021776348
174	0xbcb9bd20	-0.02267319
175	0xbdfa6b14	-0.12227455
176	0x3d26d170	0.04072708
177	0xbded4714	-0.11585823
178	0x3d9c11c8	0.07620579
179	0xbdc1a40c	-0.094551176
180	0x3e12a854	0.14322025
181	0xbe3bb2a0	-0.18329859
182	0x3d24e018	0.040252775
183	0x3b6acd80	0.0035828054
184	0xbd0d52c8	-0.034502774
185	0x3c806cf0	0.015676945
186	0x3c8c2130	0.017105669
187	0x3d8d6fd8	0.06906098
188	0x3e1d3ad6	0.15354475
189	0x3e6cf6b2	0.23140982
190	0x3e346a98	0.17618787
191	0xbe62bb10	-0.22141671
192	0xbe4ae439	-0.19813623
193	0xbe17c16e	-0.14819881
194	0x3ce183c1	0.027528645
195	0x3de896fa	0.113569215
196	0xbe1699f6	-0.14707169
197	0x3dd212d9	0.10257501
198	0x3da291fc	0.079380006
199	0xbe2869ca	-0.16446605
200	0xbe4a444e	-0.19752619
201	0xbe5e38ee	-0.21701404
202	0xbe362901	-0.17789079
203	0xbdae0073	-0.084961794
204	0xbe14873b	-0.14504711
205	0xbd618d68	-0.055066496
206	0xbe67b756	-0.22628531
207	0xbe622664	-0.22084957
208	0x3cb5f5dc	0.022211961
209	0xbe32fcae	-0.17479202
210	0x3d5f2078	0.054474324
211	0xbb804fc0	-0.003915757
212	0xbe6adb82	-0.22935298
213	0x3db7cf83	0.089751266
214	0x3ce7bfc2	0.02828968
215	0x3de738e8	0.11290151
216	0x3e0a9529	0.13533463
217	0x3d8e8566	0.069590375
218	0x3e3c8d0a	0.18413177
219	0xbce61747	-0.028087271
220	0xbd9427f9	-0.07234187
221	0xbe0595d2	-0.13045433
222	0xbe7523ec	-0.23939484
223	0xbe62d136	-0.2215012
224	0xbe20f648	-0.15718949
225	0xbdb78f0f	-0.08962833
226	0xbda3dc34	-0.08000985
227	0xbded9cdb	-0.116021834
228	0xbe4f8310	-0.2026484
229	0x3d8d9474	0.06913081
230	0xbd98ae27	-0.07455092
231	0x3e3e6b28	0.18595564
232	0xbe0fd725	-0.14046915
233	0xbdcb3dec	-0.0992392
234	0xbe44dae5	-0.19224127
235	0xbd6a51ad	-0.0572068
236	0x3e6f2614	0.2335437
237	0x3e0e0768	0.13870013
238	0xbe371ff4	-0.17883283
239	0xbe46bbf2	-0.19407633
240	0xbe6f7c02	-0.23387149
241	0xbd3547d8	-0.04425797
242	0xbe7c7f94	-0.24658042
243	0x3d959b1e	0.07304977
244	0xbd586a90	-0.052836
245	0x3d7b4275	0.061342675
246	0xbe0dae18	-0.13835943
247	0xbe594392	-0.21217182
248	0xbe7dd563	-0.24788432
249	0xbe3db58f	-0.1852629
250	0x3c5bf8e8	0.013426043
251	0xbd0e50ac	-0.034744903
252	0x3cdbfa04	0.026852615
253	0x3e181516	0.14851794
254	0xbd8256c8	-0.063642085
255	0x3e42cf22	0.19024327

bias f4 [16]
0	0x3e5d3317	0.2160152
1	0xbe2ff867	-0.17184602
2	0xbe00a421	-0.1256261
3	0xbdab5193	-0.083651684
4	0x3dea0bb7	0.11428016
5	0xbe0d0186	-0.13770112
6	0x3d1ba7a8	0.038001686
7	0x3e238124	0.15967232
8	0xbcae4ec9	-0.021277802
9	0xbdf65f47	-0.120298915
10	0x3e5259e7	0.20542108
11	0xbcab2160	-0.020889938
12	0xbd7bd76a	-0.06148473
13	0xbe8002b4	-0.25002062
14	0x3e912883	0.2835122
15	0xbe446e20	-0.19182634

weight f4 [16, 16]
0	0xbd6991a3	-0.057023656
1	0xbde7c98b	-0.11317738
2	0xbe594c91	-0.21220614
3	0x3e40df6c	0.18835229
4	0xbe492c24	-0.19645745
5	0xbdd39327	-0.103308015
6	0xbd7ed8b2	-0.062218376
7	0x3d983b1e	0.07433151
8	0xbe561ebd	-0.20910163
9	0xbe6c7eb0	-0.23095202
10	0x3e4e5f02	0.2015343
11	0xbe46852b	-0.19386737
12	0x3cf33810	0.029689819
13	0x3dc27b29	0.09496147
14	0x3be339c2	0.0069343755
15	0x3e5e37f4	0.21701032
16	0xbe822dd6	-0.25425595
17	0x3e723927	0.23654614
18	0xbe2a4b9e	-0.16630408
19	0xbd97a198	-0.074038684
20	0xbd3d2413	-0.04617698
21	0xbeb19390	-0.34682894
22	0xbcccf7fd	-0.025020594
23	0x3e0e74fd	0.13911815
24	0x3c93ad80	0.018027067
25	0x3e80936d	0.25112477
26	0xbca690c0	-0.020332694
27	0xbdcf77d1	-0.10130275
28	0x3f0119fb	0.5043027
29	0xbe7cc2ed	-0.24683733
30	0xbe8fcf89	-0.28088024
31	0xbd0b1be0	-0.03396213
32	0x3cb01eab	0.021498999
33	0xbe82f109	-0.2557452
34	0xbd91a803	-0.07112124
35	0x3e14fec6	0.14550313
36	0xbe51261e	-0.20424697
37	0xbd776ae5	-0.060404677
38	0xbe3ccfc7	-0.18438636
39	0xbdb98d60	-0.09060168
40	0x3d3d1ec0	0.046171904
41	0xbe8272a8	-0.254781
42	0xbd141d10	-0.03616053
43	0xbd84da71	-0.06486977
44	0x3db77454	0.08957735
45	0xbe0e91cd	-0.13922806
46	0x3e1b92bd	0.15192695
47	0x3e7fcebe	0.2498121
48	0xbde628b6	-0.11238234
49	0x3e71d665	0.23616941
50	0x3e46f530	0.19429469
51	0xbc9aeb80	-0.018911123
52	0xbe4b5e50	-0.19860196
53	0xbcfc3414	-0.030786552
54	0x3ccc92e0	0.02497238
55	0xbd8b418a	-0.0679961
56	0xbd969da8	-0.07354289
57	0x3dcc8596	0.09986417
58	0xbd9a31dc	-0.07529041
59	0xbe2263be	-0.15858361
60	0xbeab2959	-0.33429983
61	0x3deb36b7	0.114850454
62	0x3e1c4699	0.15261306
63	0xbe5ab82e	-0.21359321
64	0x3d633904	0.055474296
65	0xbe304c39	-0.17216577
66	0xbe89ab09	-0.26888302
67	0x3e6e3894	0.2326377
68	0xbcb07057	-0.021537943
69	0xbdf8ceb4	-0.121488005
70	0x3e1dce85	0.15410812
71	0xbc898633	-0.016787624
72	0xbd495e38	-0.04916212
73	0x3e9de5c3	0.30839357
74	0x3df0b580	0.117533684
75	0xbe4c70a6	-0.19964847
76	0x3ea18cef	0.31552836
77	0x3e9880d6	0.29785794
78	0x3e0ccf2d	0.13750906
79	0x3d35c498	0.04437694
80	0x3de8d9f9	0.113697
81	0x3e5da2ab	0.21644084
82	0xbdc4310d	-0.09579668
83	0xbd8a25c0	-0.067454815
84	0x3d70834f	0.058718976
85	0xbe2d1f35	-0.16906436
86	0x3e5c5808	0.21517956
87	0x3d0100b0	0.031494796
88	0x3d3f9d77	0.04678103
89	0xbe40105d	-0.18756242
90	0xbe57eb40	-0.21085835
91	0xbe8aa191	-0.2707639
92	0xbe6cd21b	-0.23127024
93	0xbe36b024	-0.1784063
94	0xbe1560f0	-0.1458776
95	0xbd190bc0	-0.03736472
96	0x3e8b0fc2	0.2716046
97	0x3e3729bd	0.17887016
98	0x3dcc8051	0.09985412
99	0x3e63fa32	0.2226341
100	0xbd439fb0	-0.04775971
101	0x3ecf1686	0.40446872
102	0x3ca216bd	0.019786233
103	0xbe320504	-0.17384726
104	0x3cf1b0b1	0.029503198
105	0xbe842ca5	-0.2581531
106	0xbd9d892c	-0.07692179
107	0x3d8142ea	0.06311591
108	0xbf04bc9f	-0.5185031
109	0x3e7ecaee	0.24882099
110	0x3cbe0b3c	0.023198716
111	0xbdea3c0c	-0.11437234
112	0x3dee60b9	0.11639542
113	0xbdbf7699	-0.093487926
114	0xbc5b9a81	-0.013403536
115	0x3cda2960	0.026631057
116	0xbd0d07dd	-0.034431327
117	0x3e4584b8	0.1928891
118	0xbc7e010d	-0.01550318
119	0xbd4335c7	-0.047658708
120	0xbe44d368	-0.1922127
121	0x3ea01837	0.31268474
122	0xbe37afb4	-0.17938119
123	0x3e6f595f	0.23373936
124	0xbdca868f	-0.09888946
125	0xbe22e45e	-0.15907428
126	0xbde80aa8	-0.113301575
127	0x3dee3154	0.11630502
128	0xbe6aa857	-0.22915779
129	0x3cbf1253	0.023324167
130	0xbd93a92e	-0.07210003
131	0x3e6fff80	0.2343731
132	0x3de58bbe	0.11208294
133	0x3d9fc78a	0.07801731
134	0x3e3e8df4	0.18608838
135	0x3ea38396	0.3193633
136	0xbd4808a0	-0.04883635
137	0x3e62eb1c	0.2216
138	0xbd08f0a0	-0.033432603
139	0x3e260bb1	0.16215397
140	0x3e6f51a3	0.23370986
141	0x3c709643	0.014684263
142	0xbd6e12be	-0.058123343
143	0x3e207804	0.15670782
144	0x3e660b99	0.22465362
145	0xbce7b82a	-0.028286058
146	0x3e5fc008	0.21850598
147	0x3e345c40	0.17613316
148	0xbe836711	-0.2566457
149	0x3e95fdc2	0.29295164
150	0xbd92b74b	-0.071638666
151	0xbd888851	-0.06666625
152	0xbd18789b	-0.037224393
153	0x3e378b9f	0.17924355
154	0xbe15702a	-0.14593568
155	0xbcbb71ce	-0.022881415
156	0xbed53d5b	-0.41648373
157	0xbb93606a	-0.0044975774
158	0x3e97a916	0.2962119
159	0x3d0c2c10	0.03422171
160	0xbe8bdc6c	-0.27316606
161	0xbe3f4230	-0.18677592
162	0x3d635b9f	0.0555073
163	0x3d636e20	0.055524945
164	0x3dc73797	0.097274
165	0xbd8adbe1	-0.0678022
166	0xbdae9171	-0.085238345
167	0x3d1e47e2	0.03864277
168	0xbe8d5811	-0.27606252
169	0x3e93ae83	0.2884408
170	0x3e501066	0.20318756
171	0x3e0ed5dc	0.13948768
172	0x3e5cf70e	0.21578619
173	0xbd6b042b	-0.05737702
174	0xbe83691f	-0.2566614
175	0x3d311000	0.04322815
176	0xbd1dad80	-0.03849554
177	0xbe0f9ac6	-0.14023885
178	0xbe551ab6	-0.2081097
179	0x3e6cc1fc	0.23120874
180	0xbdb5d4dc	-0.0887849
181	0xbc9e69d0	-0.019337565
182	0xbd9e0164	-0.07715109
183	0x3c9c8060	0.019104183
184	0xbdaaa4d4	-0.0833222
185	0xbdbf2be4	-0.09334543
186	0xbe0b5b8a	-0.13609138
187	0xbe48e63a	-0.19619074
188	0xbdfea944	-0.124346286
189	0xbe0831a0	-0.1330018
190	0xbe0bfa70	-0.13669753
191	0xbe2e8b36	-0.17045292
192	0x3d46083e	0.048347704
193	0x3d3312be	0.043719046
194	0xbe65d843	-0.22445779
195	0xbe3551d6	-0.17706999
196	0xbd9c9124	-0.07644871
197	0x3e555ec1	0.20836927
198	0xbe440d42	-0.19145682
199	0x3d769b61	0.060206775
200	0xbdec1510	-0.11527455
201	0xbe851c42	-0.25998122
202	0xbd94e264	-0.07269743
203	0xbdc9970a	-0.098432615
204	0xbcaaa662	-0.02083129
205	0x3e002656	0.12514624
206	0x3e47d2ae	0.19513962
207	0x3d88ab5c	0.06673309
208	0xbe53b382	-0.20673946
209	0xbda8df94	-0.08245769
210	0xbe11ee36	-0.14251027
211	0x3c538880	0.012910962
212	0xbdaddf68	-0.08489877
213	0x3bd8bb7b	0.0066141463
214	0x3e2fe7e0	0.17178297
215	0xbdb1dd88	-0.08684832
216	0x3e174ec8	0.14776146
217	0xbe4767ca	-0.19473186
218	0x3e4a284e	0.19741938
219	0xbe24defc	-0.16100687
220	0xbda37480	-0.07981205
221	0xbe826b9b	-0.2547272
222	0xbe384e2b	-0.17998569
223	0xbe690da6	-0.22759113
224	0xbe0c233a	-0.13685313
225	0x3dc98263	0.098393224
226	0xbe594e4a	-0.21221271
227	0x3dc5c0bc	0.09655902
228	0xbdd38d94	-0.10329738
229	0x3e8d36fb	0.2758101
230	0x3e57d289	0.21076407
231	0xbd89a60d	-0.06721125
232	0x3d4643b8	0.048404425
233	0x3d5f1006	0.05445864
234	0x3d930f9c	0.071807116
235	0x3e0af66e	0.13570568
236	0xbea82ff5	-0.32849088
237	0xbdb83c50	-0.08995879
238	0x3e88d3be	0.26724046
239	0xbd0dfef0	-0.034666955
240	0xbdd4090f	-0.1035329
241	0x3def931b	0.1169798
242	0xbd023032	-0.031784244
243	0x3e0a1120	0.13483095
244	0x3d3478d8	0.044060558
245	0xbe1786ea	-0.1479756
246	0x3e59d25d	0.21271653
247	0xbd53b7d8	-0.051689
248	0x3dfc5e88	0.12322718
249	0xbddcc962	-0.10780598
250	0xbdb72b14	-0.089437634
251	0x3e271d1d	0.163197
252	0xbe299cf0	-0.16563773
253	0x3e76c88a	0.24099937
254	0x3e1215f9	0.14266194
255	0xbce7ee00	-0.02831173

weight f4 [16, 16]
0	0xbe6a094c	-0.22855109
1	0x3c2317ff	0.009954452
2	0x3e6e73a5	0.23286302
3	0xbe13bde0	-0.144279
4	0x3ce70b3e	0.028203603
5	0x3f06decd	0.52683717
6	0x3e3c54c0	0.18391705
7	0xbd031c0f	-0.03200918
8	0x3e820c4f	0.25400016
9	0x3dbc80a3	0.09204223
10	0xbdeb4088	-0.11486918
11	0xbe1c9e23	-0.152947
12	0xbe90b523	-0.28263196
13	0xbe8d24ac	-0.2756704
14	0xbe8ecafd	-0.27889243
15	0xbdc9790c	-0.09837541
16	0x3e749ba0	0.23887491
17	0x3cf5882e	0.029972162
18	0xbe05ee59	-0.13079204
19	0x3e00bf5a	0.12572995
20	0x3e25b5c0	0.16182613
21	0xbe18fb64	-0.14939648
22	0xbc8f1caa	-0.017469723
23	0x3e992275	0.299091
24	0x3cf180ba	0.029480327
25	0x3e830d44	0.25596058
26	0x3e5fef2e	0.21868584
27	0xbe0d7c47	-0.1381694
28	0x3d836238	0.06415218
29	0xbe6a18b0	-0.2286098
30	0xbd82b7e7	-0.06382733
31	0x3e3a5a96	0.18198618
32	0xbe12edcf	-0.1434853
33	0xbb22ded1	-0.0024852047
34	0x3e12c4de	0.14332911
35	0xbe3ba78c	-0.18325633
36	0x3e75cd1c	0.24004024
37	0x3e917633	0.2841049
38	0xbca725ac	-0.020403706
39	0x3df85f00	0.12127495
40	0xbe039ab7	-0.12851988
41	0x3e337d2d	0.1752822
42	0xbd300360	-0.04297197
43	0x3e2d3fcd	0.1691887
44	0xbd894f68	-0.06704599
45	0x3dbb1ba6	0.09136133
46	0x3c99d10c	0.01877644
47	0x3e47859c	0.19484562
48	0xbe5fa14d	-0.21838875
49	0x3c85e4ba	0.016344417
50	0xbe1dac45	-0.15397747
51	0x3e36303e	0.1779184
52	0xbea2e8ac	-0.3181814
53	0xbdc20a97	-0.09474676
54	0xbe84e139	-0.2595308
55	0xbe4072d3	-0.18793802
56	0x3cfa4767	0.030551625
57	0xbdbc70ee	-0.09201227
58	0x3e007f50	0.12548566
59	0xbd1b3701	-0.037894253
60	0xbe5f582f	-0.21810983
61	0xbbc0a5ce	-0.0058791405
62	0xbe08f013	-0.13372831
63	0x3e6b78b6	0.22995266
64	0xbe800de6	-0.25010604
65	0xbdae0942	-0.084978595
66	0xbe2fb154	-0.17157489
67	0x3d6b3230	0.05742091
68	0xbe47eabf	-0.19523142
69	0x3de7efc1	0.11325026
70	0xbe920754	-0.28521216
71	0x3e0be14c	0.13660163
72	0x3d189cce	0.037258916
73	0xbe7737b1	-0.24142338
74	0x3dba1ec8	0.09087902
75	0x3d5bf21a	0.053697683
76	0x3d7853e8	0.060626894
77	0xbe90431e	-0.28176206
78	0x3dda9109	0.106721945
79	0x3e301a60	0.17197561
80	0x3db3bcbd	0.08776233
81	0x3e5c94a6	0.2154108
82	0x3ca23eb3	0.019805288
83	0xbe19a0f4	-0.15002805
84	0x3dd82173	0.10553255
85	0xbe3b3fe6	-0.18286094
86	0xbe327d00	-0.17430496
87	0xbe0b1e19	-0.135857
88	0xbd21296c	-0.039346144
89	0x3d805dad	0.06267867
90	0x3e37fa22	0.17966512
91	0xbcfa5499	-0.030557917
92	0xbe998158	-0.29981494
93	0x3df9cad4	0.121968895
94	0xbdf7674d	-0.1208025
95	0x3e7afdb8	0.24510849
96	0xbd057b78	-0.032588452
97	0xbe27fb44	-0.16404444
98	0x3c6fd4c0	0.014638126
99	0xbe30cc98	-0.17265546
100	0x3cf9a8b0	0.030475944
101	0xbd89cd24	-0.067285806
102	0x3cec0ff0	0.028816193
103	0x3d1f4710	0.03888613
104	0x3e127910	0.14303994
105	0x3e79a9ae	0.24381134
106	0x3e5f4b50	0.21806073
107	0xbe4a1392	-0.19734028
108	0xbdab3478	-0.08359617
109	0xbb15b380	-0.0022842586
110	0x3c8ab330	0.016931146
111	0xbd5ede20	-0.054411054
112	0xbeb05a89	-0.34444073
113	0xbcf42bb2	-0.029805992
114	0xbe7dbea2	-0.24779752
115	0xbe5714d4	-0.21004039
116	0x3e7592e0	0.2398181
117	0x3dff7123	0.12472751
118	0xbe6cd8a1	-0.23129512
119	0x3db05474	0.08609858
120	0x3dc16f91	0.09445108
121	0x3e77fd2b	0.2421767
122	0x3d1424e0	0.03616798
123	0xbe20f218	-0.15717351
124	0x3f0de6f1	0.55430514
125	0xbe061e70	-0.13097548
126	0xbe56b9c6	-0.20969304
127	0xbd2d9960	-0.042382598
128	0xbd854e3c	-0.06509063
129	0xbd900e14	-0.07033935
130	0xbe164df1	-0.1467817
131	0xbdee238c	-0.11627874
132	0xbe27a2f8	-0.16370761
133	0xbe32b831	-0.17453076
134	0xbd88a16a	-0.06671412
135	0xbd9f9cd4	-0.077935845
136	0x3e528a6a	0.20560613
137	0xbe51ac0f	-0.20475791
138	0xbdc41544	-0.095743686
139	0xbdb3387a	-0.087510064
140	0xbe290510	-0.16505837
141	0x3db4e300	0.08832359
142	0xbe2f2d53	-0.17107134
143	0x3dbc9094	0.092072636
144	0xbe22a50b	-0.15883271
145	0x3dd51776	0.104048654
146	0xbe2c1e27	-0.16808377
147	0xbda472e0	-0.08029723
148	0xbdf7b735	-0.12095491
149	0xbd854dc6	-0.06508975
150	0x3de31109	0.110872336
151	0xbe5d3f3e	-0.21606156
152	0x3e172aec	0.14762467
153	0xbd59ecdb	-0.0532044
154	0x3e5e9cf2	0.21739557
155	0x3e01a943	0.12662224
156	0xbe66ddfb	-0.22545616
157	0xbdb035dc	-0.08604023
158	0x3e31278d	0.17300244
159	0x3d88db0c	0.06682405
160	0xbe7542d8	-0.2395128
161	0xbe58d237	-0.2117394
162	0xbe81c9b0	-0.25349188
163	0x3e013af0	0.12620139
164	0xbd0b75ee	-0.034048013
165	0x3d988cd3	0.07448735
166	0x3e1c8c1a	0.1528782
167	0x3d18467c	0.037176594
168	0xbc62645f	-0.013817876
169	0x3cddaf0f	0.027061014
170	0x3e6f17dc	0.23348945
171	0x3db535e6	0.08848171
172	0xbe4c5123	-0.19952826
173	0xbe17dda2	-0.1483064
174	0xbe73af8c	-0.23797435
175	0xbe2e2164	-0.17004925
176	0xbe69b38a	-0.22822395
177	0xbd251158	-0.040299743
178	0xbdedb834	-0.116073996
179	0x3db74b04	0.08949855
180	0xbd69b7a8	-0.057059914
181	0xbe23bcee	-0.1599004
182	0xbcf428b0	-0.029804558
183	0xbdcf90b4	-0.10135022
184	0xbe2a34ce	-0.16621706
185	0xbe30a9bc	-0.17252249
186	0xbe1c31f0	-0.15253425
187	0xbe7cc2d6	-0.24683699
188	0x3d368548	0.0445607
189	0x3e4740cc	0.19458312
190	0xbe4374a2	-0.1908746
191	0xbd9f6b58	-0.07784146
192	0xbe8a8c87	-0.2706034
193	0xbe5de176	-0.21668038
194	0xbe3cddd5	-0.18443997
195	0x3e7f0940	0.24905872
196	0x3cd9c005	0.02658082
197	0xbe49e9b6	-0.1971806
198	0x3c9d153d	0.019175166
199	0x3e09ef51	0.13470198
200	0x3e228f68	0.15875018
201	0x3e124068	0.14282382
202	0xbe2ec42a	-0.17067018
203	0xbe509074	-0.20367604
204	0x3f03447b	0.5127637
205	0xbe47dcae	-0.19517776
206	0xbe0f3a52	-0.13987091
207	0xbd8c77ec	-0.06858811
208	0xbe79be4f	-0.24389003
209	0xbd6f58e7	-0.058434393
210	0xbc1cb746	-0.00956518
211	0xbe463e72	-0.19359758
212	0x3e986f6d	0.2977251
213	0xbd30cf1a	-0.043166257
214	0xbde996e7	-0.114057355
215	0x3e7470d7	0.2387117
216	0x3cfcf36c	0.030877791
217	0x3e4562f1	0.19276024
218	0x3d103c58	0.0352138
219	0x3e08c04c	0.13354605
220	0x3dcea8eb	0.10090812
221	0xbe0d665a	-0.13808575
222	0xbe6a4d11	-0.22880961
223	0xbe61e352	-0.22059372
224	0xbe648121	-0.22314884
225	0xbc97fd1c	-0.01855331
226	0x3e5f84ed	0.21828051
227	0x3e76f528	0.24116957
228	0x3e0218eb	0.12704818
229	0x3dc59c4b	0.09648951
230	0x3db20764	0.08692816
231	0xbe228f3d	-0.15874954
232	0xbe375556	-0.17903647
233	0xbdee283c	-0.11628768
234	0x3dfce95c	0.12349197
235	0x3d5bfb73	0.053706598
236	0x3e2df809	0.16989149
237	0xbe600dae	-0.21880218
238	0x3c96d1db	0.018410614
239	0xbe46498c	-0.19363993
240	0x3e34b8b3	0.17648582
241	0xbe70cd3e	-0.23515794
242	0x3d221535	0.039571006
243	0x3e12c85c	0.14334244
244	0xbe4c9037	-0.19976889
245	0xbd161b0e	-0.036646895
246	0xbdf8ac69	-0.1214226
247	0xbe0a1702	-0.1348534
248	0xbe04037c	-0.12891954
249	0x3df5ff37	0.12011569
250	0x3d0f15f8	0.03493306
251	0x3de4c789	0.11170871
252	0xbdb0c039	-0.086304136
253	0xbe885786	-0.26629275
254	0x3b1a6807	0.002356054
255	0x3d0b99c8	0.034082204

bias f4 [16]
0	0x3dcb7bed	0.09935746
1	0x3e53e89e	0.20694205
2	0x3dd8a04a	0.10577448
3	0x3e404da2	0.18779615
4	0xbe93686a	-0.287906
5	0xbe8b6403	-0.2722474
6	0xbe5cbed2	-0.21557167
7	0xbe8dc515	-0.27689424
8	0xbcd71183	-0.026253467
9	0xbe7845b3	-0.24245338
10	0x3e139fed	0.14416476
11	0xbdc1e544	-0.09467557
12	0xbe23344b	-0.15937917
13	0x3cfc6ece	0.030814555
14	0x3d74fbe4	0.059810534
15	0xbe03a931	-0.1285751
