mlartifacts/196996377989302197/a05f8802c3cf41b3b91ee41817be3239/artifacts/models/data/model.pth (torch, 35738 bytes, 28 tensors)

bias f4 [4]
-0.26113808 -0.30496365 -0.28726074 -0.48423597
00000000: e4b3 85be 3224 9cbe d713 93be c7ed f7be

weight f4 [4, 3]
-0.6182058 0.8973464 0.10491468 -0.42561272 -0.7279435 -0.4205076 0.36254966 -0.25187665
-0.25939122 -0.5426371 1.3521007 -0.91274655
00000000: bc42 1ebf 7eb8 653f 82dd d63d e9e9 d9be
00000010: 815a 3abf c64c d7be 1ca0 b93e faf5 80be
00000020: edce 84be 44ea 0abf a311 ad3f c2a9 69bf

weight f4 [4, 3]
-0.0034943933 -0.6648103 -0.7996297 0.49356696 -0.07572387 -0.36443087 -0.5469847 -0.4403371
-0.7438731 -0.16206518 0.30000228 0.2712424
00000000: 3102 65bb 0231 2abf 88b4 4cbf cfb4 fc3e
00000010: 1e15 9bbd af96 babe 3007 0cbf dd73 e1be
00000020: 786e 3ebf 6af4 25be e699 993e 49e0 8a3e

bias f4 [4]
-0.6967819 -0.55064726 -0.5142142 0.15261005
00000000: 4c60 32bf 38f7 0cbf 8ba3 03bf cf45 1c3e

weight f4 [4, 1]
-1.4183711 1.7307166 -0.4885584 -0.6049863
00000000: 2f8d b5bf 1f88 dd3f 5424 fabe 62e0 1abf

weight f4 [4, 1]
-0.14967038 0.6190872 -0.4080842 -0.80909365
00000000: 3143 19be 807c 1e3f 6af0 d0be c320 4fbf

bias f4 [4]
-0.0939679 0.08548628 0.028616732 -0.7896982
00000000: 3e72 c0bd 6e13 af3d a36d ea3c a929 4abf

weight f4 [4, 3]
-0.29106346 0.31005457 -0.7543369 0.28042343 -1.1438776 -0.9327077 -0.3122157 -0.5836057
-0.57914126 -0.76352537 1.4226042 -1.044809
00000000: 4506 95be 79bf 9e3e 391c 41bf a993 8f3e
00000010: 956a 92bf efc5 6ebf bcda 9fbe 2f67 15bf
00000020: 9a42 14bf 6676 43bf e517 b63f 4dbc 85bf

weight f4 [4, 3]
-0.50163966 0.117874704 0.44000804 -0.16048196 0.14652766 0.40822545 0.5208509 -0.18608953
-0.30928156 -0.5578321 -0.40517277 0.223033
00000000: 756b 00bf 4b68 f13d bc48 e13e 6255 24be
00000010: 590b 163e ed02 d13e 7c56 053f 418e 3ebe
00000020: 275a 9ebe 16ce 0ebf ce72 cfbe c362 643e

bias f4 [4]
0.37032896 0.54941297 0.5764085 -0.4940171
00000000: c29b bd3e 54a6 0c3f 828f 133f cfef fcbe

weight f4 [4, 1]
0.6488827 0.050797887 0.6381904 0.0660015
00000000: 2d1d 263f 7211 503d 7260 233f cb2b 873d

bias f4 [4]
-0.37913495 -0.2590378 -0.51848805 0.41301653
00000000: fa1d c2be 9aa0 84be a2bb 04bf e776 d33e

weight f4 [4, 3]
-0.060287543 0.20128393 -0.3456843 -0.22065389 -0.6239451 -0.43913025 -0.09193397 -0.592706
0.034154676 -0.67438436 1.5674983 -1.1723003
00000000: 12f0 76bd 601d 4e3e 88fd b0be 18f3 61be
00000010: deba 1fbf aed5 e0be e147 bcbd 95bb 17bf
00000020: c6e5 0b3d 74a4 2cbf c9a3 c83f f00d 96bf

weight f4 [4, 3]
0.26937804 -0.105060846 -0.8158589 -0.101237625 0.40327933 -0.069154 -0.69572765 0.010799405
-0.18739454 0.243355 -1.1842226 0.16870044
00000000: ebeb 893e 242a d7bd 21dc 50bf ac55 cfbd
00000010: a17a ce3e 9da0 8dbd 351b 32bf fdef 303c
00000020: 5be4 3fbe 0e32 793e 9b94 97bf cfbf 2c3e

bias f4 [4]
0.043344315 -0.37414953 -0.58200747 -0.4796623
00000000: cf89 313d 8790 bfbe 71fe 14bf 4c96 f5be

weight f4 [4, 1]
-0.48090324 2.9430501 -0.00979352 -1.9115188
00000000: f338 f6be ef5a 3c40 0075 20bc a6ac f4bf

weight f4 [1, 4]
0.4215486 -0.20011383 -0.17268491 0.36690432
00000000: 38d5 d73e a4ea 4cbe 50d4 30be e2da bb3e

weight f4 [1, 4]
0.34884512 0.3717658 0.08550441 0.007968605
00000000: d49b b23e 1658 be3e f01c af3d c08e 023c

weight f4 [1, 4]
-0.023360234 0.19011611 0.19295031 -0.83087784
00000000: f65d bfbc ccad 423e c494 453e 69b4 54bf

weight f4 [1, 4]
0.19958502 1.1093482 0.09377647 -0.06812081
00000000: 0460 4c3e 1fff 8d3f e10d c03d ec82 8bbd

weight f4 [1, 4]
-0.486898 -0.051383197 0.2092244 0.4458391
00000000: b24a f9be 3077 52bd ec3e 563e 0645 e43e

weight f4 [1, 4]
0.095867276 0.3583871 0.33413547 -0.34658593
00000000: 1056 c43d 847e b73e ce13 ab3e b673 b1be

weight f4 [1, 4]
-0.4550131 -0.21670717 0.40628177 -0.22493058
00000000: 7af7 e8be 7ce8 5dbe 2a04 d03e 3454 66be

weight f4 [1, 4]
0.23955625 0.36216503 0.37174386 0.024653971
00000000: 3c4e 753e b26d b93e 3655 be3e 20f7 c93c

weight f4 [1, 4]
-0.17972624 0.033439517 0.008641481 0.1662314
00000000: 280a 38be e0f7 083d 0095 0d3c 9038 2a3e

weight f4 [1, 4]
-0.22848225 -0.37841594 -0.13612497 0.011156023
00000000: 40f7 69be bcbf c1be 5864 0bbe c0c7 363c

weight f4 [1, 4]
0.18938732 -0.2022775 0.13489881 0.51592326
00000000: c0ee 413e d521 4fbe ea22 0a3e 8c13 043f

weight f4 [1, 4]
-0.0972882 0.6861706 0.26585266 -0.29633433
00000000: 093f c7bd e0a8 2f3f d71d 883e 22b9 97be
