mlartifacts/403163061964527456/c0a37ae6aca04756833681b5beddf6f5/artifacts/models/data/model.pth (torch, 62528 bytes, 46 tensors)

bias f4 [8]
000000 cc 4b cb 3c db 6d e3 be 9b 18 0c bf 64 fe 4b 3d
       0.024816416 -0.4441975 -0.54725045 0.049803153
000010 1d d1 f9 be 1a c2 18 be 35 69 86 be 69 ec d2 be
       -0.48792353 -0.14917794 -0.26252142 -0.41195992

weight f4 [8, 3]
000000 40 9b 93 3f ab 5b 11 c0 23 6b ca 3e 7b ff 2d bf
       1.1531754 -2.27122 0.39534864 -0.6796796
000010 53 3b 23 bf a6 ef 07 bf 23 9d 74 bf b0 e4 8e 3b
       -0.63762397 -0.5310005 -0.9555227 0.004360758
000020 54 c1 f2 be ad 0d ad 3d d9 a7 75 bf ee 53 5c bd
       -0.47413123 0.08449874 -0.9595924 -0.05379098
000030 24 62 74 bf de be a1 3e 83 72 70 bf a0 fd 09 3e
       -0.9546225 0.31590933 -0.9392473 0.13475657
000040 dd 0e 6b bf cd 1d 07 bf a7 1b 6e bf 68 88 92 be
       -0.91819555 -0.5277985 -0.93010944 -0.28619695
000050 6d 74 80 be 30 b7 a6 bf 09 4e d6 3f 0d ba 12 bf
       -0.25088826 -1.3024654 1.6742564 -0.5731514

weight f4 [8, 3]
000000 4e 8e 6f be d8 23 a9 bf 21 98 4b bf 9d d6 19 bf
       -0.23394129 -1.3214064 -0.79529005 -0.600931
000010 31 56 2d bf 74 db 7d 3c f2 5a f4 be a4 42 9e bf
       -0.6770964 0.015494216 -0.47725636 -1.2364087
000020 6c 83 4e be eb 96 ad 3e ff 2c a5 3f 32 34 f1 3e
       -0.20167321 0.33904204 1.2904357 0.47110134
000030 d2 00 a4 3e fd b2 3a bf 23 ce e5 3d 61 9a 0a bf
       0.32031876 -0.72929364 0.11220958 -0.54141814
000040 dd fc 5c bf 2a 85 2b 3f 18 3e 26 3f cf d6 8c 3f
       -0.8632334 0.6700007 0.649385 1.1003054
000050 56 7e 24 3f d3 9b e1 be 5f a4 96 bf 32 c3 e4 be
       0.64255273 -0.44064197 -1.1768912 -0.44680172

bias f4 [8]
000000 3a f0 a4 bf bb 3c 26 bf 11 45 08 be 80 29 07 3f
       -1.2885811 -0.6493642 -0.13307597 0.527977
000010 e9 77 74 be d0 a5 3a bf 8d cc 99 3f 37 f1 77 bf
       -0.23873867 -0.7290926 1.2015549 -0.9685244

weight f4 [8, 1]
000000 34 8c 63 40 0b 3b 91 bf 07 52 4a 3f 7b 71 2c c0
       3.5554323 -1.1346143 0.79031414 -2.6944263
000010 41 5d dd bf 85 85 36 40 41 4e f6 bf 29 b2 c2 3d
       -1.7294084 2.8518994 -1.9242631 0.095066376

weight f4 [8, 1]
000000 84 7c 8f bf 3d 9f 88 be 19 1c 8b bf 8e db 01 c0
       -1.1209874 -0.2668399 -1.086795 -2.0290256
000010 f9 25 a0 be 47 33 2e bf d2 26 97 bf 63 e1 99 3f
       -0.3127897 -0.68046993 -1.1808722 1.2021908

bias f4 [8]
000000 a1 54 d4 be 67 c5 bc be a4 59 b7 be 56 91 3a bf
       -0.41470817 -0.36869356 -0.35810578 -0.72878015
000010 40 72 ab 3e 97 4d 69 3c 6d be 38 bf 6b 02 b1 bf
       0.33485603 0.01423969 -0.72165567 -1.3828863

weight f4 [8, 3]
000000 e8 dc 30 3f d7 6a f7 bf 43 93 c0 3d 33 c9 a2 be
       0.69087076 -1.932948 0.09403088 -0.31794128
000010 17 62 24 bf 4c 69 a8 be f8 44 e5 be 77 b4 33 bf
       -0.64212173 -0.32892835 -0.4477918 -0.7019724
000020 26 1d 77 bf fc c0 58 be e2 e6 80 bf b9 b4 dc be
       -0.9652885 -0.21167368 -1.007046 -0.4310663
000030 55 ad 81 bf cc 1e 8a 3f 02 7f 7e bf ef a1 6b 3d
       -1.0131022 1.0790648 -0.9941255 0.05752748
000040 5e 1d 91 bf 84 7e 17 bf 57 02 cd be 35 c6 f4 bd
       -1.1337087 -0.5917742 -0.40040848 -0.119518675
000050 4b 55 76 bf d4 40 22 bf 1a c7 07 40 ca f2 aa be
       -0.96223897 -0.6338017 2.1215272 -0.33388358

weight f4 [8, 3]
000000 c7 0a ef be 27 3c ae be b0 ff d3 bc 7e 49 0c 3f
       -0.4668791 -0.34030268 -0.025878757 0.5479964
000010 71 13 b8 bf aa 94 d9 3e 90 9d 81 3f cd 9a 08 bf
       -1.4380933 0.42496234 1.0126209 -0.5336121
000020 85 be da 3e c0 17 ab be 96 b7 8c bf 82 c2 50 bf
       0.4272348 -0.33416557 -1.0993526 -0.81546795
000030 4f 06 13 bf 2d a4 93 bf f0 c2 a2 bf 56 b7 1c 3f
       -0.574315 -1.1534477 -1.271574 0.6121725
000040 1a 1f 57 be 2b 1d 95 3e 9a 84 71 bf 8d 5f 84 bf
       -0.21007958 0.29123816 -0.9434296 -1.034166
000050 f5 21 53 bf 96 b7 ff be 7d 7b 92 be 99 55 f6 b9
       -0.8247369 -0.49944752 -0.2860984 -0.00046984552

bias f4 [8]
000000 a7 ac f6 be c9 53 83 3d 6f 42 6e 3f 5e f8 4c be
       -0.48178598 0.06412465 0.9307012 -0.2001662
000010 5a 1e 5b bf 2b 49 d0 3e dd 50 c7 be 4f 46 ed be
       -0.8559319 0.40680823 -0.3892888 -0.46342704

weight f4 [8, 1]
000000 bc de 82 3f 87 99 74 3f 12 97 4e bf 15 92 16 3f
       1.0224223 0.95546764 -0.80699265 0.58816653
000010 4b a9 3f bf e5 90 8e bf 24 b2 6b bf 99 44 15 3e
       -0.74867696 -1.1137968 -0.92068696 0.14576949

bias f4 [8]
000000 7b b5 d1 3e 95 03 af bf 62 62 ac bf e1 f4 21 bf
       0.4095877 -1.3672968 -1.3467524 -0.6326428
000010 9f 52 ef be 9a 07 7d bf 7a f0 e6 3d 4d 3d 72 3d
       -0.46742722 -0.98839724 0.11276336 0.059140492

weight f4 [8, 3]
000000 a9 a7 d2 3d 8f 37 b8 bf 3b 54 16 3f 88 e0 0c bf
       0.10285885 -1.4391955 0.58722275 -0.5503011
000010 6f 44 80 3c 75 2f 1a bf d9 ef 76 bd 6a 58 4c bc
       0.015657632 -0.60228664 -0.06028733 -0.012472251
000020 7a 08 2f bf a8 ce 5a 3f 8f 1b 7d bf 92 28 05 bf
       -0.6837231 0.8547158 -0.98870176 -0.5201503
000030 6f a1 b2 bf 06 90 c0 3e bc 65 89 bf d5 2a 1b be
       -1.3955516 0.3760988 -1.0734172 -0.15153058
000040 cf 36 bc be c7 fa 25 3e 5d cd 4b bf ad b1 cb be
       -0.36760566 0.16208945 -0.79610234 -0.39783993
000050 1f 93 81 be d0 4e 25 bf 30 6b aa 3f f9 bd e3 be
       -0.25307557 -0.64573383 1.3313961 -0.44480875

weight f4 [8, 3]
000000 0d 0f 71 bf 7a 0c 9e 3f 7c 22 59 bf 75 8b 24 bf
       -0.9416359 1.2347558 -0.84818244 -0.64275295
000010 ca 6b ae bf 14 21 a6 be e7 88 95 bf 3e e5 b1 3f
       -1.3626645 -0.32447112 -1.1682404 1.3898084
000020 8d 73 b5 bc 19 d6 85 3f 0e c3 c6 bf af 0d 8e 3f
       -0.022149825 1.0455962 -1.5528276 1.1097926
000030 4e e6 76 bf 2b 15 d9 bd a5 0d d3 be 6f da 53 bf
       -0.9644517 -0.105997406 -0.41221347 -0.8275518
000040 6c 95 06 40 90 42 e5 bd 99 4a 52 3f 77 a3 a3 bf
       2.10287 -0.111943364 0.82145077 -1.278426
000050 96 23 71 3e a4 30 ed be 8e 00 6a bf 9c 11 09 bf
       0.23548731 -0.46326172 -0.91407096 -0.53542495

bias f4 [8]
000000 e5 da 4a bf 36 6d 2c bc 2a e7 d6 be b3 bc 66 3f
       -0.79240257 -0.010524085 -0.4197324 0.9013168
000010 7b 1b 96 be c5 05 14 bf a7 4a 29 3f 92 9f 65 be
       -0.2931784 -0.57821304 0.66129535 -0.22424152

weight f4 [8, 1]
000000 43 8e 11 40 f0 96 fe be 39 5c d1 3f fe b9 16 c0
       2.274308 -0.4972453 1.6356269 -2.355102
000010 3e b8 76 bf 07 14 25 40 67 11 5c c0 13 e0 86 bf
       -0.9637488 2.5793474 -3.4385622 -1.0537132

weight f4 [8, 8]
000000 22 1d a1 3e 1c 2b 24 3f 41 25 a7 3e 68 99 22 3f
       0.3146754 0.6412828 0.3264561 0.6351533
000010 d6 38 fe 3d 45 96 a9 3e 12 a5 a3 3e a2 4a 23 3f
       0.12413184 0.3312246 0.31961876 0.63785756
000020 60 f7 5d 3d 03 f3 db 3e d4 85 11 3f 2a 86 81 3e
       0.054190993 0.4295884 0.5684483 0.25297672
000030 c9 85 c4 3e 93 6b 03 3f 44 91 ef 3e 0d 8c e7 3e
       0.3838332 0.5133602 0.46790516 0.45224038
000040 80 15 cc be 03 7a f6 be c5 d3 0e bf 4d f5 27 be
       -0.39860153 -0.48139963 -0.55791885 -0.16402169
000050 e0 d7 b5 be df d3 21 bf 37 5d 92 be a6 71 ad bc
       -0.35516262 -0.63213915 -0.28586742 -0.021172356
000060 f7 b2 b4 be 3c cd 27 bf 91 35 62 bf ed c9 50 bf
       -0.3529279 -0.6554754 -0.88362986 -0.81558114
000070 9e 11 cb be 1f 28 40 bf d3 5b 40 bf 86 20 5c bf
       -0.39661878 -0.7506122 -0.7514011 -0.85987127
000080 11 0a 88 bf d3 af c3 be 52 c2 14 bf 5d 8b 1f bf
       -1.0628072 -0.3822008 -0.5810901 -0.62322026
000090 ad d1 57 bf a9 c2 f1 be df 6a 45 bf e3 4a 29 bf
       -0.84304315 -0.47218826 -0.771162 -0.66129893
0000a0 fe 94 31 be fd bd a6 be 7e e7 0e bf 8b 6a cb bd
       -0.17341992 -0.32566825 -0.5582198 -0.09932431
0000b0 b0 16 bb bd 7a 51 a6 bd d6 42 0a 3d 38 4e ba 3d
       -0.09135187 -0.08121009 0.033755146 0.0909695
0000c0 50 58 f2 be 5f e1 cd be ad 2d 5e bf fc af 0d bf
       -0.47333002 -0.40211007 -0.86788446 -0.55346656
0000d0 17 5a a5 be a9 89 71 be 7e 16 4d be 3a ce f4 be
       -0.32295296 -0.2358767 -0.20028111 -0.47813588
0000e0 5e 6f 46 bf 7b f4 d4 be 09 51 30 bf c8 f2 2e bf
       -0.7751368 -0.41592774 -0.6887365 -0.68339205
0000f0 b7 fe 1f bf ea 49 17 bf 6c e6 7a bf 8d 5e 6b bf
       -0.6249804 -0.5909716 -0.98007846 -0.9194115

bias f4 [8]
000000 90 f1 c7 3e 44 be 20 3f 8b 52 f0 be 28 06 10 bf
       0.39051485 0.6279032 -0.46937975 -0.56259394
000010 0a 4b 32 bf 42 bd e6 be 84 7d 42 bf 66 b3 e7 be
       -0.6964575 -0.45066267 -0.7597277 -0.45254058

weight f4 [8, 8]
000000 17 b6 8b 3e c3 03 1c 3f b1 35 84 3e dc fb d6 3e
       0.2728736 0.6094324 0.25822213 0.41989028
000010 3f 67 1c 3f 2d 11 72 3d bd 01 c7 3e d3 07 0d 3f
       0.6109504 0.05909841 0.38868514 0.55090064
000020 ed 63 11 3f 3e 04 ec 3e ca 81 32 3f 2f b6 2e 3f
       0.567931 0.46096987 0.6972929 0.6824674
000030 18 ce 8a 3e d8 e2 d5 3d b4 b4 7d 3d 17 8c 8c 3e
       0.27110362 0.10443658 0.06193991 0.2745063
000040 1c c5 16 bf c4 43 fc be 9b 7e db be a3 7e ae be
       -0.58894515 -0.4927045 -0.4287003 -0.3408099
000050 26 a4 1f bf 4c e8 0e be 08 40 e0 be 63 0f cc be
       -0.62359846 -0.13955802 -0.43798852 -0.3985549
000060 c0 ff 34 bf 42 ae 01 bf c3 9a 0b bf 7d 06 53 bf
       -0.70702744 -0.5065652 -0.5453302 -0.82431775
000070 3c 7d 8a be 93 80 44 be 86 99 95 be c8 8f 55 bf
       -0.2704867 -0.19189672 -0.29218692 -0.8342252
000080 6f 54 17 bf 02 5a 3b bf 6d 6c 2d bd 28 e5 86 bf
       -0.5911321 -0.73184216 -0.04233973 -1.0538683
000090 ae a4 dc bd c7 eb 63 bf c6 d4 c9 be e1 3b 23 be
       -0.10773598 -0.8903164 -0.39420146 -0.1594081
0000a0 3b 3e 4a bf 77 a5 f6 3d cd 51 bb bd cd e2 3b bf
       -0.79001206 0.12043279 -0.09146462 -0.73392946
0000b0 93 90 a5 3e d4 ea fa be e2 16 46 3e 5d 3a 97 3e
       0.32336864 -0.49007285 0.19344667 0.29536715
0000c0 3d b4 69 bf 0d 95 41 bf fe f1 d0 be a0 fb 77 bf
       -0.91290647 -0.7561806 -0.40809625 -0.96868324
0000d0 41 7b 81 be 6d d9 6c bf a3 07 54 bf 61 59 12 be
       -0.25289348 -0.92519265 -0.8282415 -0.14291908
0000e0 03 89 1a bf b4 b3 19 bf 9b a8 ea be a1 d1 8f bf
       -0.60365313 -0.6003983 -0.4583176 -1.1235849
0000f0 1d f8 35 bf 96 0c 5a bf 1f 6a 4e bf e9 50 fc be
       -0.71081716 -0.85175455 -0.8063068 -0.4928048

weight f4 [8, 8]
000000 3c 6a c5 be 44 d3 40 be 77 6c 33 be 16 c3 1d bf
       -0.38557613 -0.18830591 -0.17521845 -0.616258
000010 52 e1 d1 3c 61 e1 1a bf 9f 6f c6 be d6 ec 0b 3f
       0.025620136 -0.6050015 -0.38757035 0.5465826
000020 11 15 68 bf fa 81 5b bf 6e 2c b2 be 93 7a 39 bf
       -0.90657145 -0.85745203 -0.34799522 -0.7245266
000030 7e 18 d0 be 5b ff 2f bf 80 f4 a3 be 1c 26 3b be
       -0.40643686 -0.68749017 -0.32022476 -0.18276256
000040 db 0f 4a be 50 74 8d bd 57 e1 34 bf 9f d2 cd 3e
       -0.19732611 -0.069069505 -0.7065634 0.40199754
000050 6f 6e b7 be ba 34 b5 3d b7 46 bd be 02 b4 1f bf
       -0.35826442 0.088479474 -0.36968014 -0.62384045
000060 8d 33 b2 be 10 da 12 bf 7f f0 16 be 35 b0 41 bf
       -0.34804955 -0.57363987 -0.1474018 -0.75659496
000070 75 6b 68 be 2a a2 a2 be 44 9b f3 be 50 02 48 bf
       -0.22697242 -0.31764346 -0.47579396 -0.7812853
000080 41 9e 37 bf ca c4 fe bd be fa 15 bf ef cb e9 be
       -0.7172585 -0.12439878 -0.5858573 -0.456634
000090 31 7b c8 be 6a 84 d3 be 54 93 41 bf 99 43 90 be
       -0.39156488 -0.4131196 -0.7561543 -0.28176573
0000a0 be fd ae 3d 33 f8 69 3d ef 42 5e be 27 c1 f6 bd
       0.08544491 0.057121467 -0.2170522 -0.1204856
0000b0 01 85 7f be 25 aa 90 be 7a 80 37 be e7 ce 01 be
       -0.2495308 -0.2825481 -0.17920104 -0.12676583
0000c0 fb 01 98 3e ea a8 90 be b0 03 15 be a1 b7 17 3e
       0.2968901 -0.2825387 -0.14552188 0.14816143
0000d0 6d 9d d2 be 62 06 8c be f4 5f 59 be fb 9b f3 be
       -0.4113573 -0.2734862 -0.2122801 -0.4757994
0000e0 20 4f 6e bf 6a 6b f7 be 5c d2 57 bf d6 c4 77 bf
       -0.93089485 -0.48324138 -0.8430536 -0.9678472
0000f0 e7 95 57 bf 8d b6 e0 be f3 f4 d0 be 43 a0 24 bf
       -0.8421311 -0.43889275 -0.4081188 -0.6430704

bias f4 [8]
000000 d0 81 13 bf 52 15 10 bf a7 33 4b be 82 3f e5 be
       -0.57619953 -0.5628253 -0.19843923 -0.44775015
000010 c8 01 30 bf 06 37 47 be 54 50 e7 be a3 a7 93 bf
       -0.6875272 -0.19454584 -0.45178473 -1.1535534

weight f4 [8, 8]
000000 52 88 7d bf 37 18 f4 be 67 5f 16 bf 5f fb fe 3c
       -0.99036133 -0.47674724 -0.5873932 0.031125722
000010 d4 db 05 bf 94 35 63 bf ce 80 15 3e 40 3f a3 be
       -0.52288556 -0.8875363 0.14599916 -0.31884193
000020 f7 99 b8 be b6 e8 0e bf 14 01 34 bf 04 a5 38 bf
       -0.36054966 -0.5582384 -0.70314145 -0.72126794
000030 50 9c 66 bf a2 d6 a5 be 1d dc 55 bf f7 82 53 be
       -0.90082264 -0.32390314 -0.8353899 -0.20655428
000040 91 b4 d6 3f d0 d6 8c be bb e6 70 3c cb 0e 93 bf
       1.6773854 -0.2750764 0.014703448 -1.148889
000050 ff 72 d0 be 02 be a7 3f 8a b4 fa be 55 5e ce bd
       -0.40712735 1.3104861 -0.48965865 -0.10076586
000060 d0 bd ae be 5a 08 f9 be fb 59 0f be 3e 60 1d bf
       -0.3412919 -0.48639184 -0.13999169 -0.6147498
000070 76 dc 1d bf 9c 46 dc be 56 8e cf be c0 44 0e bf
       -0.6166452 -0.4302262 -0.4053828 -0.55573654
000080 e0 f1 d5 be fe 63 2e bf b1 39 e2 be 6e 3b 8e be
       -0.41786098 -0.68121326 -0.4418464 -0.27779716
000090 23 6e 84 be 7b 20 93 bd 9d 09 02 bf 92 c5 e9 be
       -0.25865278 -0.071839295 -0.5079592 -0.45658547
0000a0 bd 4e 01 40 aa 93 ac be 03 9b 5c 3e 10 d6 db bf
       2.0204308 -0.3370641 0.21543507 -1.7174702
0000b0 c3 7c 17 bf e9 16 bc 3f f9 6c 40 bf b1 b1 11 be
       -0.59174746 1.4694492 -0.7516628 -0.1422794
0000c0 e3 a0 e4 3f d0 ab 17 bf 9f c7 d2 3e 7a cf c8 bf
       1.7861599 -0.5924654 0.41167924 -1.5688317
0000d0 1d dd 04 bf f4 44 cf 3f 6f 2d 97 bf c9 25 61 be
       -0.5189989 1.6192918 -1.181074 -0.2198707
0000e0 70 0b 53 bf 18 c3 f4 be 4c 22 88 bf c0 63 21 bf
       -0.8243933 -0.47805095 -1.0635467 -0.6304283
0000f0 a7 25 2f bf b3 26 cd be 23 36 91 bf 7c 4d 1a bf
       -0.6841683 -0.40068588 -1.1344646 -0.6027448

weight f4 [8, 8]
000000 a3 40 c7 3e 5b a8 0a 3f 4b 58 85 3e c4 75 d5 3e
       0.389165 0.5416314 0.26043925 0.4169141
000010 de 9c 21 3e e9 ad a1 3e 77 fe dd 3e 1e 4f 9c 3e
       0.15782496 0.31577995 0.43358204 0.30529112
000020 59 ca 1b 3f 56 b8 2c 3e 13 d4 a8 3e 2c ab 85 3e
       0.60855633 0.16867194 0.329743 0.26107156
000030 66 da dd 3e 56 b3 0e 3e 20 b2 ea 3d b4 8c 01 3e
       0.43330687 0.13935599 0.11459756 0.1265133
000040 9f b2 be bd ca ad cf be f9 7f ee bd 13 f5 18 bf
       -0.09311413 -0.40562278 -0.116455026 -0.59748954
000050 6e 75 d3 be 3e d2 1a bd e4 33 1b bf f0 01 01 be
       -0.4130053 -0.03779816 -0.60626054 -0.12598395
000060 9c a7 3c bf 7a 00 6d bf 2d 08 bf be c0 e4 61 bf
       -0.7369325 -0.9257885 -0.37310925 -0.8823967
000070 0e 77 18 bf 0c 98 4e bf d0 30 39 bf 30 41 69 bf
       -0.59556663 -0.80700755 -0.72340107 -0.91115093
000080 bc 78 1d bf a0 42 3a be d8 95 f0 be 9e b2 b9 be
       -0.6151235 -0.18189478 -0.46989322 -0.36269087
000090 c2 32 dd be bb 0e 9d 3c 54 d4 85 bf 85 73 1e bf
       -0.43202788 0.019172063 -1.0455422 -0.6189502
0000a0 0b 40 30 3f b6 db cf 3d 91 4c a3 3e 06 ac 2b bf
       0.6884772 0.101493284 0.31894353 -0.6705936
0000b0 ed ca 72 3e 14 ec 39 3f 05 de 88 be 13 5e 95 be
       0.23710223 0.7262585 -0.26731887 -0.29173335
0000c0 32 3d 61 be a3 e1 33 bf bc a4 54 bf d9 1f 1e bf
       -0.21996 -0.7026617 -0.83063865 -0.61767346
0000d0 58 d6 bb be d2 5f a3 be 32 2f 36 bf 45 c8 42 bf
       -0.3668697 -0.31909043 -0.71165764 -0.7608684
0000e0 e9 25 27 bf df e6 63 bf 48 0a 38 bf 47 11 e0 be
       -0.6529222 -0.89024156 -0.7189069 -0.43763182
0000f0 48 ef 4b bf 7b a4 4f bf 37 74 c9 be fc af f7 be
       -0.7966199 -0.8111035 -0.39346477 -0.48376453

bias f4 [8]
000000 fe 93 e1 3e 99 ce 20 3f e2 95 71 bd e2 b5 3d bf
       0.44058222 0.62815243 -0.05898083 -0.74105656
000010 07 7e 83 bf 9c da d9 bd fa 2a d8 be 42 f7 f3 be
       -1.0272835 -0.106373996 -0.4222029 -0.4764958

weight f4 [8, 8]
000000 3d 7a 3d 3e 2f ed 14 3f a8 61 89 3d b8 b9 7d 3e
       0.18503661 0.58174413 0.067080796 0.24777877
000010 59 2b 0b 3f 3d 56 82 3e de 6c 04 3f dd cb 8d 3e
       0.5436302 0.2545642 0.5172862 0.27694598
000020 f7 49 da 3e 6f 48 89 3e 5d fc 13 3f 1a e9 81 3e
       0.42634556 0.26813075 0.5780695 0.25373155
000030 9c 8c d0 3e 4f da f5 3e ff 86 00 3f 43 0d 28 3e
       0.40732276 0.4801812 0.5020599 0.16411309
000040 8f 7b f5 be 6f 68 08 bf e5 90 10 bf 55 b9 e6 be
       -0.4794583 -0.53284353 -0.5647109 -0.45063272
000050 e6 1b 92 be eb ba 10 bd 00 53 a9 be 33 42 32 bf
       -0.2853691 -0.03533451 -0.33071136 -0.6963226
000060 ef b4 ef be 60 ca 1e bf 26 14 7b be e6 7a 34 bf
       -0.4681773 -0.6202755 -0.24519405 -0.7050003
000070 05 ec 3d bf cf 70 46 be 77 ab ea be 5f 82 b5 be
       -0.7418826 -0.1937897 -0.45833942 -0.35451028
000080 ba bb 66 bf 12 92 b8 be 28 c3 5a 3e dd f5 56 bf
       -0.901302 -0.36048943 0.21363509 -0.8396891
000090 70 df bd be 63 a7 6f bf 0e af d5 be 1a cd 0a bf
       -0.37084532 -0.93614787 -0.4173512 -0.5421921
0000a0 23 62 02 bf 95 7a de be 5f aa 78 3d 34 12 76 bf
       -0.50930995 -0.43452898 0.060709354 -0.96121526
0000b0 40 be 95 3e 1a 3f aa be e9 d9 9a bd 52 e4 10 3f
       0.29246712 -0.33251268 -0.07561094 0.5659839
0000c0 8e 9c b1 be 49 85 f5 be 36 84 e7 be fa 96 49 bf
       -0.34689754 -0.4795325 -0.45218056 -0.78745997
0000d0 53 46 0d bf cc f9 e0 be 27 d9 df be a2 fd f3 be
       -0.5518543 -0.4394058 -0.43720362 -0.47654444
0000e0 0f e8 86 bf 49 5c 65 bf 42 b9 2f bf ef c3 7c bf
       -1.0539569 -0.8959394 -0.68642056 -0.9873647
0000f0 b7 74 59 bf 30 2d 23 bf 7d 71 70 bf 79 99 2c bf
       -0.8494372 -0.63740826 -0.9392317 -0.6742168

weight f4 [8, 8]
000000 9e c9 73 3e bc 41 a1 3d a3 11 6f bd bd 43 35 be
       0.2380738 0.07873866 -0.05836643 -0.17701621
000010 5d 39 4c 3e 60 38 47 be 3b 70 c6 3c 69 72 2e be
       0.19943757 -0.19455099 0.024223438 -0.17035832
000020 2a 8f b2 be 33 0f 7f be 2c 06 7f be 0c c3 90 3e
       -0.3487485 -0.24908142 -0.24904698 0.2827381
000030 dd a5 e7 bc a1 2a 4b be 82 80 61 3e de d3 a1 3e
       -0.028277332 -0.1984048 0.22021678 0.31606954
000040 e8 59 83 3e 43 cb 91 3d 76 96 d2 3d c4 47 b2 3c
       0.2565453 0.07118847 0.102826044 0.021762736
000050 7c 32 8e be ce b5 8f 3e 33 f5 1e be bc cd 11 3d
       -0.27772892 0.28068393 -0.15523224 0.035596594
000060 e0 2a 91 be 44 e9 83 3e 8b 77 14 be 5c 77 9a 3e
       -0.28353024 0.25763905 -0.14498727 0.3016919
000070 c5 32 37 be 94 f1 a9 be d4 ca 70 be 71 94 0e be
       -0.17890461 -0.33192122 -0.23514873 -0.13923813
000080 99 87 1c be a4 3f a3 be c7 6e b4 be f1 db c4 3c
       -0.15286101 -0.3188449 -0.35240766 0.024030657
000090 0f f0 29 be 6a 7b 6b 3e 4c a6 14 3e 72 92 80 be
       -0.16595481 0.22996297 0.14516562 -0.2511173
0000a0 cd 9f 29 be 1c 95 db 3d dc 35 0d bd ea 26 78 3d
       -0.16564865 0.107218 -0.034475192 0.060583986
0000b0 ac 64 d3 3d 6f be 52 3e 02 b8 5a 3e f2 e6 7b bd
       0.10321936 0.20580457 0.21359256 -0.061499543
0000c0 26 62 43 be 2f e1 e5 3d 25 0a fc 3d b6 0a 4f 3e
       -0.1908041 0.11224591 0.123066224 0.2021893
0000d0 3e 36 88 be 61 f8 12 be e3 28 bc 3d 75 6c 8c 3e
       -0.26603884 -0.14352562 0.09187486 0.27426496
0000e0 ae 45 3a be f5 d8 cd 3c a5 8e 91 be c3 38 9f 3e
       -0.18190643 0.025127867 -0.28429142 0.31097993
0000f0 75 3d 60 be 8a a7 99 be 54 37 b3 3e 7e 50 69 3e
       -0.21898444 -0.30010635 0.3500315 0.22784612

bias f4 [8]
000000 6d bd d5 3c ca bb 07 be eb 5b 8b 3e 8d 10 f4 3d
       0.026091302 -0.1325523 0.27218565 0.11917219
000010 59 bf 03 be 0a c2 45 be 1b 68 a5 be 59 c2 ac 3e
       -0.12865962 -0.19312301 -0.3230599 0.33742025

weight f4 [8, 8]
000000 d7 4e 20 3e 9d 72 83 3d 5b 4f 0a 3d 19 64 d7 3c
       0.15655075 0.06418345 0.033767086 0.026292847
000010 05 da af 3d f3 68 b1 3e 08 7c 7c 3e 3c f1 78 be
       0.08586506 0.34650382 0.24656689 -0.24310774
000020 14 6c aa be aa 72 7e be 53 e3 5b be 84 41 40 be
       -0.33285582 -0.24848428 -0.21473436 -0.18774992
000030 db d9 b2 be 46 c5 74 be 5b d9 7f bd b3 00 00 3d
       -0.34931836 -0.23903379 -0.062463146 0.031250667
000040 c5 d9 e3 bc fe ce 8d 3e 42 34 18 3e 3a 02 3e bd
       -0.027813802 0.27696985 0.14863685 -0.046388842
000050 ba c8 ac be 83 bb a2 be 04 66 e9 3d 79 3c 56 3e
       -0.33746892 -0.31783685 0.11396411 0.20921506
000060 5f ca 95 be 89 0b 74 3e 0a 2d b4 bd 49 3c 5a bd
       -0.2925596 0.23832525 -0.08797653 -0.05328015
000070 27 fe 26 be 0e 71 c9 3d 87 e1 ad 3e dd c7 a6 3e
       -0.16307889 0.098360166 0.33961126 0.3257436
000080 23 b2 2c 3e 10 d3 e9 3c ff 89 07 be ae 6a a6 3e
       0.16864829 0.028543025 -0.13236235 0.32503265
000090 a6 ae 3f 3d 35 ad 24 3e 95 06 a7 3e 45 40 9e 3b
       0.046797417 0.16081698 0.3262221 0.004829439
0000a0 53 78 95 be d7 c7 25 3c 30 0b 91 3e c6 61 2e 3c
       -0.29193363 0.010118446 0.28328848 0.010643428
0000b0 62 e6 5b be 6e 0c 5d 3e d8 95 1b 3e 24 91 51 be
       -0.21474603 0.21586773 0.1519388 -0.20465523
0000c0 4f 42 8b 3e 85 cf ef bd 62 29 62 3e a0 e5 1b be
       0.27199027 -0.11709503 0.22086099 -0.15224314
0000d0 65 94 00 be 2d 3a 64 be 83 c7 46 3d 60 92 9f bd
       -0.12556608 -0.22287817 0.048530113 -0.07791591
0000e0 f8 62 95 3e 89 b8 d6 3c da e7 1e bb 49 23 a7 3e
       0.2917707 0.02621104 -0.002424708 0.32644108
0000f0 4d 41 97 be 70 cc a1 3d e0 e6 8b be e0 73 94 be
       -0.29542008 0.079003215 -0.2732458 -0.28994656

weight f4 [8, 8]
000000 08 b8 0a 3d 2a 4d fa 3e 4c 9f 29 3f 46 9b 2a be
       0.033866912 0.48886997 0.6625869 -0.16660795
000010 9d 9c ab 3e ee 21 86 3e 85 a9 1a 3e c2 9f cc 3e
       0.33517924 0.2619776 0.15103729 0.39965636
000020 15 ba 17 3f f5 ec 9d 3e 63 9a 86 3e e1 27 e0 3e
       0.59268314 0.30844846 0.26289663 0.43780425
000030 cc 14 e3 3e 73 8b 04 3f bc ed bd 3e 56 80 1b 3f
       0.44351804 0.5177528 0.3709544 0.607427
000040 16 f1 d8 be c4 33 1a bf 0c e4 77 be f1 ba 2e bf
       -0.42371434 -0.6023524 -0.24208087 -0.68254
000050 0e ff b3 3c 47 61 16 bf ee 68 59 be 5d c9 c1 bd
       0.021972205 -0.58742183 -0.21231434 -0.09462235
000060 bb a4 4d bf dd d7 50 bf 4a 7f 85 be 3c 2e 2c bf
       -0.80329484 -0.8157938 -0.26073676 -0.6725805
000070 5b c8 08 bf f2 75 4d bf 71 ed 52 bf 0b 83 31 bf
       -0.5343072 -0.80258095 -0.82393557 -0.6934058
000080 2c 2d 02 bf cf 5f 09 be 95 fd 0a bf 57 51 3b be
       -0.50850177 -0.13415454 -0.54293185 -0.18292747
000090 5a 05 b5 be fd aa 05 be 19 43 2d bf ac b5 f9 bd
       -0.35355645 -0.13053508 -0.6768051 -0.12192854
0000a0 e2 00 0f be 6a fd 42 3d 2d 2f f6 bd 9a 62 b0 3d
       -0.1396518 0.047604956 -0.12020717 0.08612557
0000b0 73 96 0c 3f 01 68 8a 3d 34 58 d6 3e 5c ce 39 3e
       0.5491707 0.067581184 0.4186417 0.18145126
0000c0 86 6e 85 be a6 48 a4 bd f3 48 3e be 15 4c 07 bf
       -0.26060885 -0.08021669 -0.18582515 -0.52850467
0000d0 65 83 17 bf 74 08 84 be 2b 7c 25 bb 7c 68 46 bf
       -0.5918487 -0.257877 -0.0025251012 -0.7750318
0000e0 47 6d 63 bf af 02 0d bf 06 68 18 bf f1 15 07 bf
       -0.8883862 -0.5508222 -0.5953373 -0.52767855
0000f0 e6 11 00 bf 8a cf 2f bf d6 f8 12 bd 93 aa 52 be
       -0.5002731 -0.68676054 -0.03588184 -0.20572881

bias f4 [8]
000000 1f 1b 2f 3f c8 a8 c7 3e e2 ef 1c bf eb ae 73 be
       0.6840076 0.38995957 -0.6130353 -0.23797195
000010 da 1d d0 be ad 81 17 3e 71 2d ac be 1d dc 7c bf
       -0.40647775 0.14795561 -0.3362842 -0.98773366

weight f4 [8, 8]
000000 cf b1 0f 3f 65 20 d3 3e 8e 21 ab 3e 58 49 3d 3f
       0.5613069 0.41235653 0.33424038 0.7394004
000010 95 fd 16 3f 39 74 0e 3f 05 98 cf 3e be a5 0b 3f
       0.58980685 0.5564609 0.4054567 0.5454978
000020 65 3a 17 3f bf c9 b0 3e 8c 8a 07 3f 96 55 5f 3e
       0.5907348 0.3452892 0.5294578 0.21809992
000030 41 ff 1f 3f 65 5b 89 3d a4 39 dc 3e 99 2c 71 3e
       0.6249886 0.06706885 0.43012726 0.23552169
000040 4b 09 02 bf 7d d1 63 be 23 02 e7 be 6d 9e 90 be
       -0.5079543 -0.22247882 -0.45118818 -0.2824587
000050 4f 80 7a 3d 2a 25 f2 be df 1e 24 bf ad 7f 33 be
       0.06115752 -0.4729398 -0.64109606 -0.17529173
000060 86 d4 6b be 0f a1 3e bf f3 83 61 bf fa e5 04 bf
       -0.2303029 -0.74464506 -0.88091964 -0.51913416
000070 68 f2 a9 be 4e e3 2e bd 34 82 34 bf 00 94 a7 be
       -0.33192754 -0.042697243 -0.70511174 -0.32730103
000080 be d6 18 bf be fb 67 bf 06 0e f2 3e 8b 64 83 bf
       -0.5970267 -0.90618503 0.47276324 -1.0265058
000090 9e 94 3e bf ae 61 85 bf bc 70 d3 be 98 c2 33 bf
       -0.7444552 -1.0420434 -0.41296947 -0.702188
0000a0 b7 8c 59 bf 3b 96 08 3e 5d a2 6b 3e dc 9e 6d bf
       -0.8498034 0.13338558 0.23011155 -0.92820525
0000b0 e1 b5 ef 3d d2 eb 07 be 93 5d 94 bd e9 bd 2d 3f
       0.117046125 -0.13273552 -0.0724441 0.67867905
0000c0 41 f0 e1 be 59 d9 10 be b2 18 31 be 9c 3d 11 bf
       -0.44128612 -0.14145412 -0.17294577 -0.56734633
0000d0 00 79 2e bf 4c d9 7a bf d9 5b 59 bf d3 a2 67 bd
       -0.6815338 -0.9798782 -0.84905773 -0.056551766
0000e0 bb cb 84 bf 36 24 83 bf 93 e4 0a be c3 15 68 bf
       -1.0374674 -1.0245426 -0.13563757 -0.90658206
0000f0 5c 6f 8b be 40 4a 2b bf 7f 86 29 bf 74 d7 74 be
       -0.27233398 -0.6691017 -0.6622085 -0.23910314

weight f4 [8, 8]
000000 6d 41 cc 3e 80 ba a3 be 4e c2 50 be af a0 92 3e
       0.39893666 -0.31978226 -0.20386621 0.28638217
000010 c4 f9 33 bf 39 7e 01 bf 83 68 44 be e5 5b 3a bf
       -0.7030299 -0.50583225 -0.19180493 -0.7279647
000020 8e 9a 05 bf 10 b9 be be 7e e3 ff be 77 f4 8b bf
       -0.52188957 -0.37250566 -0.4997825 -1.093398
000030 28 92 43 bf e7 52 13 bf 7b 4a 44 bf c8 bb 37 bf
       -0.7639489 -0.57548374 -0.7667615 -0.71770906
000040 b7 07 06 bf e4 38 54 be 6b e6 07 bf 57 0b 99 be
       -0.5235552 -0.20724827 -0.53085965 -0.29891464
000050 9a 97 2b 3e f0 18 d6 be 22 56 3a 3d 70 0f ec 3e
       0.1675705 -0.418159 0.0454923 0.46105528
000060 2c 7f 64 bf 16 af cd be 42 2f f6 be 79 ae 7b bf
       -0.8925655 -0.40172642 -0.4808293 -0.983131
000070 76 7b 6c be 03 c7 fe be 0f f0 04 bf fa 9b 32 bf
       -0.23093972 -0.4976121 -0.519288 -0.6976925
000080 28 07 4a bf 20 9a 2b bf 1d 8b f0 bd 0b 33 07 bf
       -0.7891717 -0.6703205 -0.11745284 -0.5281226
000090 9f 18 6d bd f0 c9 17 be f6 61 d4 be 20 24 43 bd
       -0.05788481 -0.14823127 -0.41480988 -0.047641873
0000a0 a1 2c 07 bf eb 65 3b be f9 a9 a2 be 19 e0 db be
       -0.52802473 -0.18300597 -0.31770304 -0.4294441
0000b0 09 59 18 bc f1 d6 d0 be 32 10 ec bd 4c a3 d8 3e
       -0.009298571 -0.40788987 -0.115265265 0.42312086
0000c0 04 59 ff bd 22 ea 71 be 20 c6 93 be ae 3b 22 be
       -0.1246815 -0.23624471 -0.28862095 -0.15843078
0000d0 d0 88 d4 bc d2 d7 bf b9 4d 95 bb 3c 36 b6 1e be
       -0.025944144 -0.00036591158 0.02289834 -0.15499195
0000e0 3c fd 2c bf a2 13 73 bf 8c 98 34 bf ef 15 89 bf
       -0.67573905 -0.9495183 -0.7054527 -1.0709819
0000f0 e8 58 f2 be ee d4 e6 be 01 18 cb be dd 89 e7 be
       -0.47333455 -0.45084327 -0.3966675 -0.4522237

bias f4 [8]
000000 8c 76 53 bb a0 c1 f3 be 95 df e9 3b 8b 47 26 bf
       -0.0032266704 -0.47608662 0.0071372488 -0.64952916
000010 2f 72 46 bf c3 6b 96 be 88 43 e2 3d 55 30 8a bf
       -0.7751798 -0.2937909 0.11048037 -1.0796

weight f4 [8, 8]
000000 44 b6 7d bf 8f 61 1f be 44 2f 3e bf 53 d1 9a be
       -0.9910624 -0.1556456 -0.7429087 -0.30237827
000010 a7 e8 e1 be 19 ab 4f bf fb 27 3a bd 72 e7 a0 bd
       -0.44122812 -0.8112045 -0.045448285 -0.07856645
000020 9b cb d7 be 2f 99 10 bf 51 05 07 bf 2c 9b 12 bf
       -0.42147526 -0.5648374 -0.5274249 -0.57268023
000030 60 f9 96 be 75 60 01 be 04 dd f0 be e9 00 53 bf
       -0.29487133 -0.12634452 -0.47043622 -0.82423264
000040 ea da db 3f 0d b6 39 be 7f 0b c1 3b 1d 08 ae bf
       1.7176182 -0.18135853 0.005891263 -1.3596226
000050 45 43 7a be ce ac ce 3f 6f 29 44 bf 4c 5f 03 3e
       -0.24439724 1.6146486 -0.7662572 0.12829322
000060 b6 63 3e bd e0 09 b0 be 34 ac 11 bf d3 95 35 bf
       -0.04648181 -0.34382534 -0.56903386 -0.7093174
000070 14 cb 5d be b2 94 ca be 26 ec 25 bf 38 d2 46 bf
       -0.216595 -0.3956657 -0.6481346 -0.7766452
000080 b9 9a f6 be 45 5a a6 be fd 0b ef be b1 ec 31 bf
       -0.4816492 -0.32490745 -0.46688834 -0.6950179
000090 b0 86 26 bd 14 f1 25 bf 81 16 2f bf 01 49 23 bf
       -0.04065579 -0.6482098 -0.68393713 -0.6378327
0000a0 05 cb 0a 40 10 91 44 be 1b 56 27 3f ba c8 e0 bf
       2.1686413 -0.19195962 0.6536576 -1.7561257
0000b0 ed 3a e8 be 51 41 a2 3f 9e e7 98 bf 37 e6 66 3c
       -0.45357457 1.2676183 -1.1945684 0.014092973
0000c0 9f f1 e6 3f c2 66 17 bf 0a 5e 05 3f 2a ee ca bf
       1.8042487 -0.5914117 0.5209662 -1.5853932
0000d0 23 25 65 bf 07 da 94 3f 25 9e 5f bf 0b ca 3b 3e
       -0.8950979 1.1629037 -0.87350684 0.18338792
0000e0 ad 65 0a bf 87 93 66 bf e6 76 61 bf f7 7d 78 bf
       -0.54061395 -0.9006886 -0.8807205 -0.9706721
0000f0 7d 9f 46 bf 07 be 22 bf 1c f2 13 bf 73 fb cd be
       -0.7758711 -0.6357121 -0.57791305 -0.40230903

weight f4 [1, 8]
000000 bc 29 a3 3e 80 99 56 be b7 d0 05 3e 6e 59 e7 bd
       0.31867778 -0.20956993 0.130679 -0.11296354
000010 56 3d a9 bd 4a ff 74 3e b9 53 7f be 31 f9 98 be
       -0.08263652 0.2392551 -0.24934281 -0.29877618

weight f4 [1, 8]
000000 bb 56 b3 3e 70 84 d5 3d 5f 8c 5d 3e 8c d1 f8 3d
       0.35027108 0.10425651 0.21635579 0.12149343
000010 63 73 3a 3e 9f ae 6a 3b e6 d6 b4 bc 93 ce 22 3e
       0.18208079 0.0035809649 -0.022075128 0.15899114

weight f4 [1, 8]
000000 0c 91 6b be 5a 73 a2 be 4a 44 ae 3d 90 8f 0a 3e
       -0.2300455 -0.3172863 0.08509119 0.13531327
000010 bc 4f 21 bd cb 06 82 be d3 e4 c7 3d fa c7 97 3d
       -0.03938268 -0.25395808 0.09760442 0.074111894

weight f4 [1, 8]
000000 40 fd 54 be 2d 34 35 3d 8f 52 80 3f 81 12 c6 bc
       -0.20799732 0.04423921 1.0025195 -0.024178745
000010 5e a6 a2 3e 0d 36 b3 3f 13 dd a0 3f 0c b5 a7 3d
       0.31767553 1.400087 1.2567466 0.08188829

weight f4 [1, 8]
000000 28 65 05 3e 99 cb 25 3e 2a a8 14 3e 45 22 09 be
       0.1302687 0.16190948 0.14517274 -0.13391979
000010 3b f2 2e be e3 59 3a be 69 ed 87 be f9 48 62 bd
       -0.17084591 -0.18198352 -0.26548317 -0.055245373

weight f4 [1, 8]
000000 9a f2 c2 bd 00 eb 2d be 16 a5 0f be b2 26 00 3e
       -0.09518929 -0.16984177 -0.14027819 0.12514761
000010 82 f7 e8 bd 9f 85 61 3e e4 5b 35 be 00 5d 8c 3d
       -0.11375333 0.22023629 -0.17710835 0.06853676

weight f4 [1, 8]
000000 22 88 71 3e e3 63 9e 3c ce 73 8d 3e a1 39 b9 3d
       0.23587087 0.01933474 0.27627414 0.09044195
000010 8e 6f 07 be 13 47 87 3e 01 dc 45 bc 9c 69 75 be
       -0.13226148 0.26421413 -0.012076379 -0.23966068

weight f4 [1, 8]
000000 0a aa 54 3e 06 84 ae 3d f8 14 b1 bb 93 33 6e 3e
       0.2076799 0.08521275 -0.005404111 0.23261862
000010 92 cf 41 be fc 2f 96 be dd a9 86 bd 4c 5a 2f 3e
       -0.18926838 -0.29333484 -0.065753676 0.1712429

weight f4 [1, 8]
000000 76 2c 28 bd e6 1a a7 bc c3 ea 98 be 0e e6 02 bd
       -0.041058026 -0.020398568 -0.2986661 -0.03195768
000010 e6 31 04 3e f7 73 ec bd bb f9 8d bd 10 b8 9d be
       0.1290966 -0.11545556 -0.06932398 -0.3080449

weight f4 [1, 8]
000000 08 19 60 bd 46 c6 96 3e 1c bf 04 bd d7 16 4e be
       -0.05471137 0.29448146 -0.03240882 -0.201259
000010 4c e0 63 3e 1d 44 9f be 5e eb 91 3e 7e 4e 97 3e
       0.22253531 -0.31106654 0.28499883 0.29552072

weight f4 [1, 8]
000000 de 48 41 be 5d 5a 23 be b3 65 47 3b 90 08 41 bd
       -0.18875453 -0.1595244 0.0030425608 -0.047127306
000010 4b 86 0b 3f e4 6f 99 3e 72 10 ec 3e df cf c5 3e
       0.5450179 0.29968178 0.46106297 0.38635156

weight f4 [1, 8]
000000 3a fb 43 be 9b 49 18 be 6a ba 55 3f 55 a9 82 3e
       -0.19138804 -0.14871828 0.8348757 0.25519815
000010 e9 55 e7 bd c8 7f 88 3f 3a 09 a4 3f 7d 0d 61 3e
       -0.11295683 1.0663996 1.2815316 0.21977802
