mlartifacts/982343343277370496/3b53d6ed373b422498b7e1d9e873d3d0/artifacts/models/data/model.pth (torch, 719314 bytes, 130 tensors)

att_src f4 [1, 1, 64]
00000000: 034f 3f3c f174 f83d 6d34 88be b88c fdbc
00000010: ca75 e63d c8fb 923d 2f14 333e 20c6 8cba
00000020: 9bbc dbbc 697b 8dbe 8318 23be 71a0 76be
00000030: aa73 4e3e 3fc2 2ebe 7799 d73d 04b0 73be
00000040: 65b0 923d 1c14 323e 2609 023e 0dd5 de3c
00000050: 4f35 67be ba51 edbb a430 4e3e 0a51 303e
00000060: a9f3 8d3e 0716 38bd 84c0 863e 717e 52be
00000070: ee26 033e ac4c 293d 56c9 833e 71d5 0dbe
00000080: 93a7 78be 6eb3 4e3c df72 01bd c6ff 14be
00000090: dae2 8dbe fbc4 e23d b645 263e 7da6 1f3e
000000a0: 49bd 8e3e bc4a d43c 7fbf 0fbe 28f3 593e
000000b0: 1ec3 8bbe e114 15bc 7bf9 1fbe dc3c 5abe
000000c0: 26d0 8ebe c71e 1d3e 8bfa 42be 1468 0f3e
000000d0: fc1b 633d f328 713e f7cc e1bd c166 53be
000000e0: 359d 17be d567 2d3e 9227 b3bc c4c0 54be
000000f0: ba56 593e f546 883e c7c2 813e e769 8fbc
0.011676553 0.1213168 -0.26602498 -0.030950889 0.11252935 0.0717693 0.17488168 -0.0010740198
-0.026823333 -0.27633217 -0.15927319 -0.24084641 0.2016131 -0.17066287 0.10527318 -0.23797613
0.07162551 0.17390484 0.12698802 0.0272012 -0.2257893 -0.0072424086 0.20135742 0.17218414
0.2772496 -0.044942882 0.26318753 -0.20556046 0.12807819 0.041332886 0.25739545 -0.13850953
-0.24282674 0.012616022 -0.03160369 -0.14550695 -0.27712137 0.11072727 0.1623753 0.15590854
0.27878788 0.025914542 -0.14037894 0.21284163 -0.272973 -0.009099216 -0.15622513 -0.21312279
-0.2789318 0.15343772 -0.19040887 0.14004546 0.05544661 0.23550777 -0.11025422 -0.20644666
-0.14806063 0.1693414 -0.021869455 -0.20776659 0.2122449 0.26616636 0.25343916 -0.017506553

att_dst f4 [1, 1, 64]
00000000: 126a 4b3d d64c 693e 9392 04be f627 f83d
00000010: da5c 633d 4b4e e6bd 80ab 7d3e 276b 8ebe
00000020: 681e 253e 7f74 93be 4501 dc3c 6023 0abd
00000030: 1fee e1bd 0b57 39be 664e 7cbe d3c4 8fbe
00000040: 2a24 9c3c 26d2 d03d 4b18 45bb 028c a03d
00000050: c996 033e 60cd 15bd 2ca1 1f3d 7601 783e
00000060: 9f8b cdbd 6970 4b3e 580f 483e 8886 693e
00000070: 1a92 6cbe fc8c 033e 1da6 783e 2940 5dbe
00000080: 7149 49be d62b 43be 6c56 03be b3cc e1bd
00000090: 4bbb 3bbd 83b8 8b3e ccd1 293e 92bc 8abe
000000a0: d294 8a3e 76de 4cbe 1315 07bd d8d2 66be
000000b0: 2ab6 4cbe d857 143e 86ed 143e fd6a 123e
000000c0: 19bd 39be c328 e53d 10a7 80bd 7799 81be
000000d0: e44b 893d 28af 643e 3ba6 2cbe d0f3 1f3d
000000e0: 97ec 863b 2564 ae3d bd15 02be dde3 523e
000000f0: bdfb 923e b6ea 90be 6380 5f3e 934b 883e
0.049661703 0.22783217 -0.12946539 0.12116997 0.055508472 -0.11245402 0.24772453 -0.27816126
0.1612488 -0.28799817 0.026856074 -0.033725142 -0.11031746 -0.1809961 -0.24639282 -0.28079852
0.019060213 0.10196333 -0.0030074294 0.07839204 0.12850489 -0.036572814 0.038972065 0.24219307
-0.10036396 0.198671 0.19537103 0.22805226 -0.23102608 0.1284675 0.24282117 -0.21606506
-0.19656922 -0.19059691 -0.12825936 -0.110253714 -0.045832913 0.2728921 0.16583937 -0.27096993
0.27066666 -0.20006737 -0.032979082 -0.22541368 -0.19991365 0.14486635 0.14543733 0.14298625
-0.18138541 0.11189415 -0.06281865 -0.25312397 0.06703928 0.22332442 -0.16860287 0.039050877
0.004117559 0.08515195 -0.12703605 0.20594735 0.28707686 -0.2830407 0.2182632 0.2662016

bias f4 [64]
00000000: 4258 093d 8d57 293d 0000 0000 4069 9ebb
00000010: dd38 2b3c 84cf 3a3d f470 1d3c c271 493b
00000020: c0ed e33c 5482 283b 0569 2a3c c6e0 f13c
00000030: 5ae2 8d3b 516b 9cbb c0ab 333d 0000 0000
00000040: 0000 0000 0c59 953c e4a7 d23c 9023 2abc
00000050: 0000 0000 0000 0000 0000 0000 7a4e 243d
00000060: 0000 0000 dd22 9f3c 0000 0000 7951 97bb
00000070: 521a 513c 17ef 94ba f9fe 993c 1617 76bc
00000080: fa4a d33c 0000 0000 b0ac 413c 7fa9 353d
00000090: 3c38 22bc 0000 0000 6958 1b3d 1f3a c23b
000000a0: e5bd a63c 8e87 253d 5fa6 52bc f7d1 d63b
000000b0: 3554 bf3b 0000 0000 a20b 173c 4811 a53c
000000c0: 0000 0000 9ce3 993c 201f b33b a73c ba3c
000000d0: 4cbe 523c 9d38 9cbc 66da e23c 22d8 27bc
000000e0: 1f1f f43b 8261 cb3c 0000 0000 5fe4 133c
000000f0: 0000 0000 550e 2e3d 8f01 403d 4caf 163d
0.033531435 0.04134326 0.0 -0.004834324 0.010450569 0.04560806 0.00960945 0.003073797
0.027823329 0.0025712447 0.010401015 0.029526126 0.0043299617 -0.0047735353 0.043864965 0.0
0.0 0.018230937 0.025714822 -0.010384455 0.0 0.0 0.0 0.040113904
0.0 0.019425804 0.0 -0.0046178666 0.012762623 -0.0011362758 0.018798338 -0.015020153
0.025792588 0.0 0.011820957 0.044351097 -0.009901103 0.0 0.03792611 0.0059273387
0.02035422 0.04041248 -0.012857049 0.0065557915 0.0058388957 0.0 0.009219082 0.020149842
0.0 0.01878529 0.005466357 0.022734 0.012862753 -0.019069964 0.027692031 -0.010244401
0.007449999 0.024826769 0.0 0.009026616 0.0 0.042494137 0.046876486 0.03678827

weight f4 [64, 3]
00000000: 2742 72be f735 a2bc 7988 a83c 6c59 e03d
00000010: 6f75 c73c bb14 83be 03e0 fa3d bc2d e9bd
00000020: ec17 303e 0ca9 cfbd b551 74bd 709b cebd
00000030: 55cc 71bd 9ca5 87be 9c11 bebd e3ce 90be
00000040: 6254 3fbe 806d 833d 15cd 663e ee49 633e
00000050: 6b16 e6bd 0351 103e 2fb0 8ebd ed2c a3bd
00000060: 47d1 233e acf5 07be 6644 b13d 8c53 e53d
00000070: 961c 81be 0cbd 54be 59a9 2abe 0299 87be
00000080: b13c 16be 85f4 0bbe 06e5 e0bc c9f8 f6bd
00000090: ac36 8c3e 2d69 63be 09b8 903e 7cc0 883e
000000a0: 867a 01be 5912 893d 437d 14be 3887 2e3e
000000b0: 4ef1 fd3c 8d94 983e 1f34 133e 0f4f 4cbe
000000c0: c77f 4f3e 0c02 583e 6dd8 5abd 2062 24be
000000d0: 3807 84bd 6064 393e 9476 6bbe e695 893e
000000e0: bf35 da3d dd02 973d 8691 85bb 24bc c83c
000000f0: 0ebd 59be cf81 0f3e 66b4 943d 9dae 163e
00000100: 06e0 a13d d096 72be a322 72be 8658 593d
00000110: fb8f 393e e456 6ebe 02ea 913c aa40 a23c
00000120: 23f0 933e ab61 453e 47c1 8bbe e4ab 78be
00000130: 46f3 8dbe 0ebe 7bbe df47 21be 5f11 86be
00000140: 0c49 a63d edaa e33c dc1d 73be 17be c3bd
00000150: 3f77 823e a7db 463d bdde 913e 52fb 423e
00000160: c008 923e 4dea 4fbb c2cb 863e 0aa2 823e
00000170: c429 4dbe dc33 8d3e bd12 e33d 1313 82be
00000180: e13f 103e cbd4 e23d 126c e2bb 39b3 0ebe
00000190: 1679 65be 187a 2abd 1262 8abd 2f75 37bc
000001a0: b1a9 af3c 6f79 95be 9b4e c7bb 2451 b5bd
000001b0: a8a6 443e 1e02 e7bd 37dd 9f3b ba2f 86be
000001c0: c185 01be 6a52 56be 45e3 073e a974 6abe
000001d0: f1f3 5a3e b77e 893d 2913 81bd 69ef 153e
000001e0: 5376 773e 438b 803e 2ce2 5bbe 856b fdbd
000001f0: 5b6e 7ebe 10ef f6bc f860 843e c7b1 673d
00000200: 814a 4cbd c5ee ae3d f989 02be 2ee7 16bd
00000210: f8a3 073e f400 24be d698 89be 2121 bcbd
00000220: 4243 89be 8b81 ae3d 9678 c83c 8b8e 343e
00000230: 073b 25be 5831 863e 4787 3cbe 4cca 883e
00000240: e8ec 813e 0463 383e 20ff ad3d 40ec 82be
00000250: fb05 003e c1ba 323e 54cb 33bd 6a93 e8bd
00000260: 7936 d1bb a7f7 fa3d ebc0 473c 6192 02be
00000270: fd1c 2fbe 38fb 8abe a7d1 8f3d befc 813e
00000280: d035 273e e05b 5bbe 151b bfbd 9a75 763e
00000290: 9a69 993d 6e88 a4bb ac33 4fbe 9ee3 0e3e
000002a0: 6089 1d3e eea5 3abe ee04 983e 42cc bdbc
000002b0: f5ba 953d 91ec 0f3d 33d7 1e3e d539 8fbe
000002c0: b096 a8bd e005 bfbd 32b3 02bd 8a53 183e
000002d0: 8c69 483d 44fe 933d 94de d13d ce2c 4c3d
000002e0: 872a d7bd 4d3d 91bd ada8 8f3d 262c 4a3e
000002f0: b1b2 a33c 9ab5 533e 046d 463e c42d 833e
-0.23658048 -0.019801123 0.020572888 0.10954556 0.024347989 -0.25601754 0.12249758 -0.11385676
0.17196625 -0.10139665 -0.059648234 -0.10088241 -0.059032757 -0.26493537 -0.092807025 -0.28282842
-0.18684533 0.0641737 0.2253917 0.2219617 -0.11234745 0.14093404 -0.06967198 -0.07967553
0.15997802 -0.1327731 0.08655624 0.11197576 -0.25217122 -0.2077524 -0.16666164 -0.26483923
-0.1467159 -0.13667496 -0.027452957 -0.12059171 0.2738546 -0.2220809 0.28265408 0.26709354
-0.12644395 0.06692953 -0.14500909 0.1704377 0.030998852 0.29800835 0.14375351 -0.19952033
0.20263587 0.21094531 -0.053429056 -0.16053057 -0.06446689 0.18104696 -0.22994453 0.26872176
0.106547825 0.07373593 -0.0040761856 0.024503775 -0.21263525 0.14014362 0.07260971 0.14715047
0.07904057 -0.23690343 -0.23646025 0.05306294 0.1812133 -0.23275334 0.017811779 0.019806225
0.28894147 0.19275539 -0.27295896 -0.24284321 -0.27724665 -0.24584219 -0.15750073 -0.26185128
0.08119401 0.027791465 -0.23741859 -0.09557741 0.25481603 0.04854932 0.28490248 0.19041184
0.285223 -0.0031725348 0.2632733 0.2551425 -0.20035464 0.27578628 0.110875584 -0.25405177
0.14086868 0.11075743 -0.0069098556 -0.13935556 -0.22409472 -0.041620344 -0.06756987 -0.011197372
0.02144322 -0.2919421 -0.0060823685 -0.08853367 0.192042 -0.11279701 0.004878666 -0.26208287
-0.1264868 -0.20929876 0.1327029 -0.22896065 0.21382119 0.06713622 -0.06302483 0.14642109
0.24166231 0.25106248 -0.21472996 -0.12374023 -0.24846785 -0.03014329 0.2585523 0.056566026
-0.04987574 0.085416354 -0.12747945 -0.036841564 0.13246143 -0.16015989 -0.26874417 -0.09186006
-0.26809126 0.08520802 0.024471562 0.17632501 -0.16135798 0.2620952 -0.18410979 0.2671684
0.25376058 0.18006521 0.08495927 -0.2557087 0.12502281 0.17454053 -0.04389508 -0.11356242
-0.0063846675 0.12254267 0.012191991 -0.12751152 -0.17100902 -0.2714479 0.0702241 0.2538814
0.16329122 -0.21421766 -0.09331337 0.24068299 0.07490845 -0.0050211465 -0.20234555 0.13954017
0.15384436 -0.1822736 0.2969126 -0.023168687 0.0731105 0.035137717 0.1551178 -0.2797381
-0.08231866 -0.093272924 -0.031909175 0.14875618 0.048928782 0.07226232 0.102475315 0.049847417
-0.10506158 -0.0709177 0.07014594 0.19743404 0.019982668 0.20674744 0.19377524 0.25620854

att_src f4 [1, 1, 64]
00000000: 093a 05bd 1c2e 60be f5cf 843e 45bf a8bd
00000010: 68a5 c53e 2a43 a33e b7b2 aebe 55ea 41be
00000020: 140f cdbd d493 3e3e fb7c 843e 7d5d 78be
00000030: 2ec7 a1bd 77bd bebe e38e 8a3e cdb7 78be
00000040: 0d69 ed3d 9dcb 8e3e 339a b03e fc7f 6bbe
00000050: 3ab6 73be 537d 1b3e ac11 a7bc f399 13be
00000060: f8f9 8ebe d5d1 2f3e 78de 94be 75fa 9fbd
00000070: b3ed 043d 876c 103e 8cd2 0dbe febc 19be
00000080: e859 b83d 645d 533e 9772 a13e 49a9 87be
00000090: 0d2d a23c 7520 13bc 46be cd3d 9f90 92be
000000a0: 1395 353e 66fd 45be 9bf8 c1be 517a 65be
000000b0: a1d5 063d fa14 9bbd 9753 233e b000 493e
000000c0: a928 44bd 2167 33be 6bc2 a33e b00d 15bd
000000d0: 1175 e33d a801 bb3d 765a 6bbe e5eb 50be
000000e0: a7cc e43c 8850 4f3e 7c8f 7ebe 6475 b5be
000000f0: d4a7 66be 2e45 a43e 274a 32be 3a85 86be
-0.03252605 -0.2189259 0.2593991 -0.08239607 0.38602757 0.3188718 -0.34120724 -0.18937047
-0.100126415 0.1861108 0.25876603 -0.24254413 -0.07899319 -0.37253925 0.2706214 -0.24288864
0.115923025 0.2788972 0.34492645 -0.22998041 -0.23799983 0.15184526 -0.020394169 -0.14414196
-0.27925086 0.17169888 -0.2907598 -0.07811443 0.03245325 0.141039 -0.13849849 -0.15013501
0.09001523 0.20641094 0.31532738 -0.26496342 0.019796873 -0.008979906 0.100460574 -0.28625962
0.17732649 -0.19334945 -0.37884983 -0.22409941 0.032918576 -0.0757236 0.15949856 0.19629169
-0.04789034 -0.1751981 0.31984267 -0.036390007 0.11106313 0.09131175 -0.22983727 -0.20402487
0.027929617 0.20245564 -0.24859422 -0.35441124 -0.22524959 0.3208403 -0.174111 -0.2627352

att_dst f4 [1, 1, 64]
00000000: caf3 413d 6c34 a6be 434a 703d 1f05 24be
00000010: 0ea7 82be 1293 e13d fb7b 533d 2718 dd3c
00000020: 2d70 693e 0255 873d d680 7b3e 65b3 50be
00000030: 4dcf 56be 2cb9 8c3e b97f f03d 7596 4ebe
00000040: f4c6 5abe ea89 873d 6237 05be 19cc 7ebe
00000050: 4846 733e d200 7ebe 2675 f93d ecc6 e7bc
00000060: 88b4 e4bc 950f 1c3c e8ee 023d 2321 8b3e
00000070: 8ab2 1c3e b8c5 5b3e 7c7f 8c3e fa9a 4c3d
00000080: e986 03be 7319 82bd 96be 153e 4c3d 833e
00000090: e248 5dbe 53cf ff3d 1ee9 983e 9c36 1bbe
000000a0: 7b7c 083e c648 47be b688 2dbd 2a36 55be
000000b0: 79d4 c53d a13f d2bd 53b1 603e 83cf 023e
000000c0: 1310 aabd 057b 7fbe f83b b53d 504f f8bd
000000d0: e97a 9bbd 9473 cf3c f8cb 7abe d07e 52be
000000e0: acfc 503c 8b71 26be 05d6 2fbe 7ad0 79be
000000f0: e69f 1c3e 657c 833e 6c0c 93bd e78c 37be
0.047351636 -0.3246187 0.05866457 -0.16017579 -0.25518078 0.110143796 0.05163191 0.026989056
0.22796698 0.06608011 0.24560866 -0.20380934 -0.20977516 0.27485025 0.11743111 -0.20174582
-0.21364957 0.06618102 -0.13009408 -0.24882545 0.23757279 -0.24805 0.121805474 -0.028293096
-0.027918115 0.009525199 0.03196612 0.2717372 0.15302482 0.21462142 0.27441013 0.049952485
-0.12844433 -0.0635251 0.14623484 0.25632703 -0.21609834 0.12490716 0.29865354 -0.1515755
0.13328736 -0.19461355 -0.042366706 -0.20821443 0.096596666 -0.102660425 0.21942644 0.12774472
-0.08303847 -0.24949272 0.08849329 -0.12124503 -0.075918026 0.025323667 -0.2449187 -0.20556188
0.012755554 -0.1625425 -0.17171486 -0.24395934 0.15295371 0.25680843 -0.07180104 -0.17924844

bias f4 [64]
00000000: 2972 773b 95e6 673c 98ee c03c 0996 673d
00000010: c3ba 9e3c 696a 733d ed5f 1dbd fb93 523d
00000020: 457e 5dbb aa18 153b a3cb 9dbc 09f3 833c
00000030: 306d dfbc fd5d 003c 78b9 5ebc 5117 9f3c
00000040: ec36 febc 605c de3a 6dea cb3c 3ed0 b43a
00000050: adbf 073d 585a d93c c8b2 153d f079 4c3c
00000060: 8779 273d 4d91 843c 6ae6 aa3d 2176 5c3c
00000070: ae2b f73c f3f0 40bc e8f5 183d d129 86bb
00000080: 4234 943d 09bc a43c ecab 1f3d 71ea e3bb
00000090: 7cfa 533c cc41 e93c a5f3 bb3c cbbd 863c
000000a0: 6067 b83c e187 b53c 3855 483d 3b1c 4c3c
000000b0: c75b 1f3d 29ca 8f3d 024a 2539 0000 0000
000000c0: 558e 5c3c 0565 a33a 8bd9 763c 3794 4f3d
000000d0: 2496 64bb ee41 ec3c b9fa ec3c 11ff abbc
000000e0: 9c99 893d 0787 0f3c 0000 0000 3e5a f83b
000000f0: 4345 443c 77d0 e9bc 29ef 713c 1834 263d
0.0037757254 0.014154096 0.02355127 0.05653957 0.019376164 0.059427653 -0.03842156 0.051410656
-0.0033797186 0.0022750297 -0.01926214 0.0161071 -0.027273744 0.007834909 -0.013594024 0.019420298
-0.031032048 0.0016964786 0.024892056 0.0013794971 0.03314178 0.026532337 0.036547452 0.012480244
0.040887382 0.016182566 0.08344729 0.0134558985 0.030172195 -0.011776197 0.03734389 -0.0040943404
0.0723653 0.020109193 0.038982317 -0.006955438 0.012938138 0.028473757 0.022943327 0.016447922
0.02251023 0.022159519 0.048909396 0.012457903 0.038905885 0.07020981 0.00015763196 0.0
0.013461669 0.0012466019 0.015066515 0.050678458 -0.003487953 0.028840031 0.028928148 -0.020995649
0.06718752 0.00876022 0.0 0.007579117 0.011979404 -0.028541787 0.014766493 0.040577024

weight f4 [64, 3]
00000000: 7fcb 79be b157 943d d1e0 6c3d 23b0 40be
00000010: 5aec 933e 03ee 163e 3a29 3a3e 3639 0f3e
00000020: 433d 7e3e 7451 523e d371 7fbe b216 0cbe
00000030: 3e57 663e dad6 5f3e f922 2fbe 3a75 56bd
00000040: 6a69 393e 8c39 5dbe cab1 2bbe 586b 36be
00000050: 96f8 d8ba a1f5 473e 74af 98be 4065 01be
00000060: 95cb 00be a5f8 893b 97da 8a3e 4e92 2bbe
00000070: a90e bd3c f2c4 8c3e bc0c fe3d 6cba 823e
00000080: d06a 1cbe 1312 50be c144 463e cc21 10be
00000090: f864 7e3e 07df 15be 15c5 d3bc 9ddd 12be
000000a0: 983f 7cbe 106a 833e 82d8 1b3e a115 533d
000000b0: 0b40 fdbb 4ffa 54be a071 88bd 27b7 d23d
000000c0: 3acf b53d 0ce9 82be 15ff 6abe 8ace 60bd
000000d0: 1459 623e 20a7 08be 4a32 7c3e f4c8 3f3e
000000e0: 22c1 b13d ee2d 3a3e 3df9 223e 6e07 983e
000000f0: 6634 a6bd e301 5dbd 6429 243e b782 bcbd
00000100: bd60 913e 7989 4b3e e957 933d f8c3 e53d
00000110: 54d9 59bb 7376 8bbe 481a a33d 59b9 743e
00000120: da73 803e 36fe a2be e6af 393d 21f6 913e
00000130: 7256 873e 670b 693e 6921 82be 07f3 383c
00000140: 1b19 48be bbb8 f1bd 5608 7dbd 692c a7bc
00000150: 5bd9 6dbe ba6e 06bc ba60 8ebe 6405 933b
00000160: ce25 5cbe dfee d33c f5cc 86be cdb6 90be
00000170: c688 423d 4768 44be 9fbc c4bc dfbb 10be
00000180: fb97 a03e 77d5 f9bd 06c6 71be c978 dc3c
00000190: 5450 a5bd 18a1 a5bd 46fc ac3e 7c25 51be
000001a0: 5df0 b6bd 2dd2 afbe 4b4d 30be 3e5d 23be
000001b0: 60b1 7c3e 09f9 063e 36ba 97bd c64f 7cbe
000001c0: 829d d23c efcb 40bd a319 393e edd4 3dbd
000001d0: 986b 1e3d b716 72be 0a7e 2f3d af7b c83d
000001e0: 2007 19be 6994 86be 225c fd3d afd9 8f3e
000001f0: 070b 9f3e ea5d bb3b a1c2 e9bd 497d adbd
00000200: 5b13 a83d 7302 c6bd ce47 5ebe 022a 603e
00000210: ddb6 aabd 5eb9 49be 14f2 2cbe e5db 4bbd
00000220: 13af 5cbe cf7f c13d 7b1b 2d3e 64b9 a8be
00000230: 69ce 863e 0353 5bbe b0ca 32bb d895 923b
00000240: 1ae5 5fbe 08cc 283e 0a7e db3c 0a8b 813d
00000250: ae2c 1e3e a3fa 233b 13f1 773e d5ce 8d3e
00000260: e5d9 a9be 88dd 363e 84b3 353e c82d 27be
00000270: 4904 5c3d 4e41 02be 9b3e 713e 464b ab3e
00000280: 7cd9 41be 866c 06bc dcde 4b3e efc4 62be
00000290: 9057 5abd ec90 1abe 94bc 233e 867e 1ebe
000002a0: 5cc7 7cbe c3ce e73d 0e1b 9bbd 74a4 653e
000002b0: 5c8f 5ebe 5541 1d3d a7d8 1abd 41a3 42be
000002c0: 3fbb 54bd 9166 8abe 4687 2cbe 269e fc3d
000002d0: 39da 4bbe 3104 973e 43c0 d3bd 742c 2e3e
000002e0: 8558 3d3d 2bab 98bd 26d7 b43c ea44 73bc
000002f0: 31a1 fa3d b8f4 11be 95aa 2f3e e8da 1fbe
-0.24394034 0.07243288 0.05783159 -0.18817191 0.2889126 0.14739232 0.18179789 0.13986668
0.24828057 0.20538884 -0.24945764 -0.13680533 0.22494218 0.21859303 -0.17103185 -0.05235789
0.18106619 -0.21603984 -0.1676704 -0.17814386 -0.0016553577 0.19527294 -0.2982136 -0.1263628
-0.1257766 0.004210549 0.27119896 -0.1675503 0.02307828 0.27494007 0.12404773 0.25532854
-0.1527512 -0.20319395 0.19362165 -0.14075392 0.24843204 -0.1463586 -0.025850812 -0.14342351
-0.24633634 0.25666857 0.1521931 0.0515343 -0.007728582 -0.2079861 -0.06662297 0.1028884
0.08877416 -0.25568426 -0.22948869 -0.05488447 0.22104293 -0.13345003 0.24628559 0.18729001
0.08679415 0.18181583 0.1591539 0.29693168 -0.08115463 -0.053956877 0.16031414 -0.092046194
0.28394118 0.1987666 0.07194502 0.11219019 -0.003324111 -0.27238807 0.07963997 0.2389883
0.25088388 -0.31834573 0.045333765 0.28508094 0.2643314 0.22758256 -0.25416115 0.011288411
-0.19540827 -0.11802813 -0.061775528 -0.020406919 -0.23227446 -0.00820511 -0.27808172 0.0044867266
-0.21498796 0.025870739 -0.26328245 -0.28264466 0.04749372 -0.19180404 -0.024015723 -0.14134167
0.31365952 -0.12198918 -0.23610696 0.026913064 -0.08071962 -0.08087367 0.3378622 -0.20424455
-0.089325644 -0.3434004 -0.17216985 -0.15953538 0.24677038 0.13180937 -0.07408564 -0.24639806
0.025709871 -0.047069486 0.18076186 -0.04634564 0.03867683 -0.23641478 0.04284481 0.09789216
-0.14944124 -0.26285103 0.123710886 0.28095767 0.310631 0.0057179825 -0.11414076 -0.08471162
0.08206817 -0.09668436 -0.21707079 0.21891025 -0.0833566 -0.19699618 -0.1688922 -0.049770255
-0.2155116 0.09448206 0.16905014 -0.32953942 0.26329353 -0.21418385 -0.0027281456 0.004473429
-0.21864739 0.16484082 0.026793499 0.06325348 0.15446731 0.0025021217 0.24213056 0.27696863
-0.33174053 0.17857945 0.17744261 -0.16326058 0.053715024 -0.12720224 0.23559038 0.33455867
-0.1893062 -0.008204585 0.19909233 -0.22145437 -0.053306162 -0.15094346 0.15989906 -0.15477952
-0.24685425 0.113187335 -0.0757352 0.22426015 -0.21734375 0.038392384 -0.037804272 -0.19007589
-0.051936384 -0.27031377 -0.16848478 0.12334852 -0.19907464 0.29495385 -0.103394054 0.17009145
0.046226997 -0.07454523 0.022075247 -0.014847973 0.12237776 -0.14253509 0.17154916 -0.1561085

weight f4 [64, 1]
00000000: 063d 973d 7b85 78be 8104 4fbe 302e 643e
00000010: 011b 10be b075 4bbe 76a8 62be 64e9 113c
00000020: ad47 5abe 19f7 81be a9e3 fa3d fee7 593e
00000030: d54b 3abe c3b6 2cbe 5d80 85be cf9e 0ebe
00000040: 30c5 37be d1f9 343e fc3f f5bd a137 8fbd
00000050: dbdd 923e 2cfe 9ebe 319b 1ebd e874 523e
00000060: 6c0a afbd b2b4 a6bd 9123 f53d ebdb 9d3e
00000070: 20dd 44be 3ca1 27be 2cd7 22be ab5a a0bd
00000080: 967f ba3d 812c 9ebe 1958 36be 355b f33d
00000090: 7fc1 4fbe 7388 863e d1dd 9f3e a19e febb
000000a0: 3ce1 a63e 8beb 9abd c214 4cbe ca18 1cbd
000000b0: 7edd 4cbd 72f1 8b3e bb80 babd 1654 2dbe
000000c0: 550e 473d ebe4 813e ec6a cfbd 8029 083e
000000d0: 6215 2abe e628 09be 021b cfbd efba adbd
000000e0: 330e 0c3e 8f8a 27bd b8df 813e 850e 86be
000000f0: 6521 4abe f5eb a53e 4dc7 8b3e 46fe 29be
0.07384686 -0.24269669 -0.20216562 0.22283244 -0.14072801 -0.19869113 -0.22134575 0.008905742
-0.21316405 -0.25383833 0.12250454 0.21279904 -0.1819299 -0.16866593 -0.26074496 -0.13927768
-0.17946315 0.17673422 -0.11975095 -0.06993032 0.28684887 -0.31053293 -0.03872222 0.20552409
-0.0854691 -0.08139934 0.119696744 0.30831847 -0.19224977 -0.163701 -0.15902394 -0.078297935
0.09106366 -0.3089333 -0.17807044 0.11882631 -0.20288657 0.26275977 0.3122392 -0.007770375
0.32593715 -0.075644575 -0.19929793 -0.03810958 -0.05001592 0.27332646 -0.09106585 -0.16926607
0.048597652 0.25369963 -0.101278156 0.13297081 -0.1660972 -0.13394508 -0.10112573 -0.084829204
0.13677292 -0.040903624 0.25365996 -0.26182953 -0.19739302 0.32406583 0.27300492 -0.16600904

att_src f4 [1, 1, 64]
00000000: 9bc9 fabc e921 88be e2a0 34ba 47ec 95be
00000010: e19e 0b3e 6cf1 223d d2ef 253e 9bd6 5e3e
00000020: 4e3c 943d 670f 773e 6a55 8c3e 6420 ca3d
00000030: 0d4b 433d e295 64be 44f2 a6bc 2c3e f93d
00000040: ee97 8b3d ed3d 80be 5847 0c3d 9f6f febc
00000050: 3a93 373e 9a07 603e 7d61 563e b3ed 8abe
00000060: c9a7 e7bd a528 14be 6f81 8a3e 98e9 083e
00000070: 4d4b eabc 7c36 f0bd 0065 20bc 2ec1 d23d
00000080: 7658 22be 187b ad3c 1f92 0f3e acde 10be
00000090: 816b d0bd f957 653c cad9 78bb eabd 88be
000000a0: e3ee 2d3e a5eb 943e a14a 6ebd eb6f e1bd
000000b0: a66e 75be 98f5 d1bd aa7d 5c3d 22c6 4ebd
000000c0: bedb f2bd 7dc8 f73d 0511 88be 4747 5fbe
000000d0: 39c3 c0bd f211 11be dc57 4c3e 85ee 763d
000000e0: c2ef 0f3e 44e6 95bd 8c30 243e 6d68 8bbe
000000f0: ebd7 ebbd 883e 8dbe 592c 843e 9315 9bbe
-0.030613711 -0.2658837 -0.00068904285 -0.29281828 0.13634826 0.03978102 0.16204765 0.21761553
0.07238065 0.2412697 0.27408916 0.09869459 0.047678996 -0.22322801 -0.020379193 0.121700615
0.06816088 -0.25047246 0.034247726 -0.031059084 0.17927256 0.218779 0.20935626 -0.27134475
-0.11311299 -0.1446863 0.27051875 0.13370359 -0.02860036 -0.11729142 -0.009789705 0.10290752
-0.15854058 0.02117686 0.14020585 -0.14147443 -0.10176755 0.013998025 -0.003797161 -0.26707393
0.1698566 0.29086033 -0.05817664 -0.11007675 -0.2396799 -0.102519214 0.05383078 -0.050481923
-0.11858319 0.12098787 -0.26575485 -0.21804534 -0.09412236 -0.14167002 0.1995539 0.060286064
0.14056304 -0.0731931 0.16034144 -0.27228108 -0.115157925 -0.2758677 0.25815085 -0.30289897

att_dst f4 [1, 1, 64]
00000000: a5cd 823d 34eb 243e 8999 333e 7631 8fbe
00000010: e88b 8bbe 9db8 893e c0a5 653e 95ef 363e
00000020: ff20 8a3e 8e31 10be 127b 843d b78a f3bd
00000030: 64bd 32be fff2 df3d 0f11 9dbe 3741 a13c
00000040: fed0 773e 36df 43be c4df 2bbb 0c4a 473e
00000050: 2f0a 60be 3814 70be 49dc 71be 6ff6 40be
00000060: ab47 0f3e 7858 9fbe 953d b93d 1864 1ebe
00000070: 47d4 fabd 145b 033e 5df7 34be c8e3 8ebd
00000080: d5dd 433d 66fc 8dbe ceff 5d3e 72d7 80be
00000090: 8552 8f3c 6ca6 de3d d2ef 923d ec15 353d
000000a0: 1e5c 103d 58aa 803e 8624 943d 7539 8bbd
000000b0: 083b 78be 7809 0c3d d705 153e e44c 0f3e
000000c0: 6f35 963d 1123 1dbe 75f2 79be afc9 3b3e
000000d0: 69cd 703e c95e dcbd 5942 0b3d 95fa 80be
000000e0: af3b 853e 7f0e 42bd 7f89 2c3e c072 c1bd
000000f0: 1058 503e 1b31 53be 6a8c 353e ab9e 293e
0.0638688 0.16105348 0.17539038 -0.27967423 -0.27255177 0.2689866 0.2242651 0.17864831
0.269783 -0.14081404 0.06468786 -0.11891692 -0.1745506 0.1093502 -0.30677077 0.019684417
0.24200818 -0.19128117 -0.0026225904 0.1946184 -0.21878885 -0.23445213 -0.23619188 -0.18844007
0.13992183 -0.31122184 0.09044949 -0.1546787 -0.1224752 0.12827712 -0.17672487 -0.069770396
0.047818977 -0.27731627 0.21679613 -0.25164372 0.017495403 0.10871586 0.07174648 0.04421036
0.0352441 0.25129962 0.07233529 -0.067980684 -0.24241269 0.034188718 0.14553009 0.13994175
0.073344104 -0.15345408 -0.24408896 0.18338655 0.23515858 -0.10760266 0.03399882 -0.2519118
0.26022097 -0.047377106 0.16849326 -0.09445715 0.20346093 -0.20624201 0.17729345 0.16564433

bias f4 [64]
00000000: 4258 093d 8d57 293d 0000 0000 4069 9ebb
00000010: dd38 2b3c 84cf 3a3d f470 1d3c c271 493b
00000020: c0ed e33c 5482 283b 0569 2a3c c6e0 f13c
00000030: 5ae2 8d3b 516b 9cbb c0ab 333d 0000 0000
00000040: 0000 0000 0c59 953c e4a7 d23c 9023 2abc
00000050: 0000 0000 0000 0000 0000 0000 7a4e 243d
00000060: 0000 0000 dd22 9f3c 0000 0000 7951 97bb
00000070: 521a 513c 17ef 94ba f9fe 993c 1617 76bc
00000080: fa4a d33c 0000 0000 b0ac 413c 7fa9 353d
00000090: 3c38 22bc 0000 0000 6958 1b3d 1f3a c23b
000000a0: e5bd a63c 8e87 253d 5fa6 52bc f7d1 d63b
000000b0: 3554 bf3b 0000 0000 a20b 173c 4811 a53c
000000c0: 0000 0000 9ce3 993c 201f b33b a73c ba3c
000000d0: 4cbe 523c 9d38 9cbc 66da e23c 22d8 27bc
000000e0: 1f1f f43b 8261 cb3c 0000 0000 5fe4 133c
000000f0: 0000 0000 550e 2e3d 8f01 403d 4caf 163d
0.033531435 0.04134326 0.0 -0.004834324 0.010450569 0.04560806 0.00960945 0.003073797
0.027823329 0.0025712447 0.010401015 0.029526126 0.0043299617 -0.0047735353 0.043864965 0.0
0.0 0.018230937 0.025714822 -0.010384455 0.0 0.0 0.0 0.040113904
0.0 0.019425804 0.0 -0.0046178666 0.012762623 -0.0011362758 0.018798338 -0.015020153
0.025792588 0.0 0.011820957 0.044351097 -0.009901103 0.0 0.03792611 0.0059273387
0.02035422 0.04041248 -0.012857049 0.0065557915 0.0058388957 0.0 0.009219082 0.020149842
0.0 0.01878529 0.005466357 0.022734 0.012862753 -0.019069964 0.027692031 -0.010244401
0.007449999 0.024826769 0.0 0.009026616 0.0 0.042494137 0.046876486 0.03678827

weight f4 [64, 1]
00000000: 0ba2 d43d 7d64 7e3e bce7 ffbc 8da4 993e
00000010: 59e6 893e 44cd cc3e 94da 31be c507 133e
00000020: 5212 533e bd21 d1bd 5690 39be cd53 e6bd
00000030: 53fe a23d 80fb 553e 50ed 6b3e 2ec5 83be
00000040: 7003 1fbe 9828 a6be e1b2 e43d 2e5a 1e3c
00000050: 8a8d 80be bce4 38be b5fb 03be 900d 3e3e
00000060: b07b 7abe 531e ec3d 87f0 80be 43b6 14ba
00000070: 0be9 aebe d9b4 25be f33b 8b3d b77e 103e
00000080: 7f35 703e 4991 76be 15e6 b33e ce47 683e
00000090: f4fb 10b9 7b4e f0bd ff9c 243e e9d6 60be
000000a0: a81e 473e 0efd 1e3e ca6f 743e cf58 c33e
000000b0: 7d50 b13e e0bb 52be 9a2e 9bbe dc03 bcbd
000000c0: deed 90be 748c aabe 082a 8f3e 7ce9 f43d
000000d0: 586f 3d3e 1a33 97be fc20 8c3e d81b b03b
000000e0: 389b a73e 17a4 873e c071 91be 8586 ae3d
000000f0: 162b 0bbe aab4 d83d 45aa 183e eb5d 44be
0.1038247 0.2484302 -0.03123843 0.30008355 0.26933554 0.40000355 -0.17368537 0.14358433
0.20612457 -0.10211513 -0.18121466 -0.112464525 0.07958665 0.20896721 0.23039746 -0.25736374
-0.15528655 -0.32452846 0.11166931 0.009665055 -0.25107986 -0.18056005 -0.12888987 0.18559861
-0.24461246 0.115292214 -0.25183508 -0.0005672911 -0.34162173 -0.16182269 0.06798544 0.14110838
0.23457907 -0.2407886 0.35136476 0.22683641 -0.0001382677 -0.11733719 0.16075514 -0.21956982
0.19445288 0.1552622 0.23870769 0.38153693 0.3463172 -0.20579481 -0.30308992 -0.091804236
-0.28306478 -0.33310282 0.27961755 0.11958596 0.18499506 -0.29531175 0.27368915 0.005374413
0.3273561 0.26492378 -0.28407097 0.08521751 -0.13590655 0.10581334 0.14908703 -0.19176452

weight f4 [64, 3]
00000000: f5db 63be 86b4 093e 6a8a 803d 6c3b 993d
00000010: 2d1d 423c 2dd5 ccbd bfa1 493d cc9a 08be
00000020: f8c5 8f3e 92ba 493e 2269 68be e5ff 533d
00000030: 761f 23be 1530 5e3e a361 3f3e a400 783e
00000040: fa17 aabd a85e 9a3c 0c89 463e b18c 75be
00000050: 0313 87bd e2e2 523c 9144 20be 4b8b 76be
00000060: 1445 b7bd 847f 67be 9563 8d3e ba5a 993e
00000070: 430b 73ba 9143 ccbd 057f 5bbd 77b2 9b3d
00000080: 5c80 833c 44a3 f93d 38c4 673e ab6e 843e
00000090: ce1e c03d e835 413d c51b 923e 53f1 15bd
000000a0: 6744 83be f51c 43bd 5e58 8d3e 1444 493e
000000b0: 4833 8a3e cd49 433e 43d8 00be 6ebc 7f3e
000000c0: 9699 c5bd 7aa7 793e 0cb4 5f3d 0163 1fbe
000000d0: d539 49be 2562 7bbe 802d 2dbe 3140 81be
000000e0: 4644 f8bd cb85 f0bd 6cb2 8f3e f090 2dbe
000000f0: c437 1bbe b57d 6dbe f4b9 02be d67b 433d
00000100: f8c9 443e 1c04 2ebe fea1 8ebe 1bca 88be
00000110: 6a0a e6bd 837c 7a3e 8bfa 2ebe 3147 6ebe
00000120: b931 863e 7634 dd3c 7583 823d 9925 513e
00000130: 273e 3c3c 9642 0fbe 3aa1 95be 4268 ec3c
00000140: e575 5cbe d13b a43c 4cd1 d33d b010 783e
00000150: d40b 163e 8453 5cbe 8e5b f23d 9dc0 72be
00000160: 7e74 adbc fd74 5e3e a7ca 84be 20f1 473e
00000170: 6ed1 c13d c71c 5ebe fbc0 993d 4d34 933e
00000180: 4a51 73be 1a00 1b3e 2c7d 68be 6e76 e63d
00000190: f268 5d3d 881e d43d d2f2 4e3d 0960 613e
000001a0: f8e9 3dbe 3174 a0bd 297c be3a ccee 52bc
000001b0: b423 213d c429 893d 7a3e 383e bc01 4c3e
000001c0: a67c b1bd 64ec c53c d1e4 3a3e c2de 95bd
000001d0: d9c6 82be e1a5 5fbe d678 0d3e 96d7 f83d
000001e0: 6d2e 2bbe 8a4e 71be 93b2 cfbd a37b cf3d
000001f0: d043 8abe 0165 07be a6ee be3c 0d44 81be
00000200: 86c9 24be 83c9 05bd 14a9 313e 60a8 a83d
00000210: 7b76 52be df5b 8f3e a219 563e ca10 843d
00000220: ca28 2b3e d319 22be 2d35 693e b93e 2e3e
00000230: c132 583e a118 023e d33f 91be c996 6dbe
00000240: 2455 26be 4e21 ca3d 4969 09be acc7 28be
00000250: 2846 4bbe 18ef b43d 010e 1d3e 220b 853e
00000260: 3f73 963e 9245 773e 4942 f33c 37dd 0f3e
00000270: 151b d3bd c8c4 e4bc 6704 3e3e e11e 703e
00000280: f863 9a3b 8055 60be 9800 87be ba16 d4bd
00000290: a200 25be a784 143c 904a 943e cbc8 293e
000002a0: 0258 49bb 9e9f 37be 88c1 93bd f311 9f3e
000002b0: 6efb 753e 8af4 6d3e 4026 7e3d 5f47 803e
000002c0: a118 8dbe 2a14 d5bd 5ad4 213e 4cae 9abd
000002d0: b92f c4ba 65fd 96bc 18be d83d eb65 8e3e
000002e0: 9377 0fbe 1551 123e 7e84 d4bd e131 743e
000002f0: 6389 643e 3818 403e a5e4 49be 5c64 8fbe
-0.22251876 0.1344777 0.062764004 0.07482037 0.011847776 -0.100015976 0.04922652 -0.133403
0.28080726 0.19700077 -0.22696355 0.051757712 -0.1592997 0.2169803 0.18689589 0.24218994
-0.083053544 0.018843964 0.19388217 -0.23979451 -0.06595423 0.012871476 -0.15651156 -0.24076574
-0.089487225 -0.22607237 0.27615038 0.2995203 -0.00092713925 -0.09973825 -0.053587932 0.07602399
0.016052417 0.121893436 0.22633445 0.25865683 0.093808755 0.04717055 0.2853681 -0.036607098
-0.25638124 -0.047635037 0.2760648 0.19654876 0.2699225 0.19071122 -0.12582497 0.24974224
-0.09648435 0.24380293 0.054615065 -0.1556511 -0.19650967 -0.24549158 -0.16911888 -0.25244287
-0.12122397 -0.11744269 0.28065813 -0.1694982 -0.15157992 -0.23192485 -0.12766248 0.04772552
0.1921767 -0.16993755 -0.27857965 -0.26716694 -0.11232455 0.2446156 -0.17087762 -0.23269345
0.2620981 0.027002554 0.0637273 0.20424499 0.011489428 -0.13990244 -0.2922457 0.028858308
-0.21529348 0.020048054 0.103426546 0.24225116 0.1465295 -0.21516234 0.11833869 -0.23706289
-0.021173712 0.21724315 -0.2593586 0.19525576 0.09463774 -0.21690665 0.07507511 0.2875084
-0.23761478 0.15136757 -0.22704 0.112530574 0.05405516 0.10357386 0.05052454 0.22009291
-0.18546283 -0.07834662 0.0014532852 -0.012874316 0.03934069 0.06697419 0.17992583 0.19922537
-0.08666353 0.024160571 0.18251349 -0.07317878 -0.25542334 -0.21840622 0.13815627 0.12150495
-0.16716929 -0.23565117 -0.10141482 0.10131004 -0.27004862 -0.13222124 0.023307156 -0.2524723
-0.160925 -0.03266288 0.17349654 0.0823524 -0.20553009 0.2799978 0.20908216 0.06448515
0.16714779 -0.15830164 0.22774191 0.17016114 0.21113111 0.12704708 -0.28369007 -0.23202051
-0.16243416 0.098696336 -0.1341907 -0.16482419 -0.19850981 0.08834666 0.15337373 0.25985056
0.293848 0.24147633 0.029694693 0.1404923 -0.103079 -0.027925864 0.18556367 0.2344928
0.0047116242 -0.21907616 -0.2636764 -0.10355897 -0.16113523 0.00906483 0.28963137 0.16580503
-0.0030722623 -0.17931983 -0.072146475 0.31068382 0.24021694 0.23237815 0.062048197 0.25054452
-0.27557853 -0.104042366 0.15803662 -0.07552776 -0.0014967836 -0.018431375 0.105831325 0.27812132
-0.14010458 0.14288743 -0.103768334 0.23847152 0.22318034 0.18759239 -0.19716127 -0.28006256

att_src f4 [1, 1, 64]
00000000: 81b9 953e b24e 80be b1ac 13be e8e4 7a3d
00000010: dc9f 253e 0d2b 6b3e c934 6ebe dcf5 9ebd
00000020: 3e52 31be 056a 99be 7833 e3bd e3c6 66bd
00000030: 2932 33be 6bcd 33bd 2d53 823e f071 eabd
00000040: 1132 4abd 3d96 90be 4623 533e c778 3ebd
00000050: 36a7 7e3d 1431 61be 05df 313e ff6f 91bd
00000060: 7789 70be d98e 943e 5ef5 dfbb 02b1 abbd
00000070: 6076 94be e90f fbbd 9718 653d 8f0e 993e
00000080: c276 8d3e f97d 65bd d863 0f3e 6e63 223e
00000090: e073 0b3d f223 473e 58de 3ebd 27d2 7e3e
000000a0: 0066 8f3e fd99 91be a23d f13d c242 32be
000000b0: fc5e b73d 2a0d 2a3e 9c9e 8e3e 1d92 61be
000000c0: e4a2 8a3e d1ed bbbc 99e3 83be 9c51 2d3e
000000d0: a906 4cbe c8c8 6dbe 7451 a9bd 178c 36be
000000e0: 8798 5cbe f4ba 8a3e 18d8 54be 0a5a de3c
000000f0: 9cc3 3bbc 260f 873e 4b00 75be 5ba5 7abd
0.2924309 -0.2506004 -0.14421345 0.06125346 0.16174263 0.22965641 -0.23262323 -0.07761738
-0.17316529 -0.299637 -0.11093801 -0.056342017 -0.17499603 -0.043897074 0.25454083 -0.11447513
-0.049364153 -0.28239623 0.20618924 -0.0465019 0.062171184 -0.21991378 0.17370231 -0.0710144
-0.23489939 0.29015234 -0.00683467 -0.08383371 -0.28996563 -0.12258894 0.055931654 0.2989392
0.27629668 -0.05602834 0.14002931 0.15858242 0.034046054 0.19447306 -0.046598762 0.24884854
0.28007507 -0.28437796 0.11779334 -0.17408279 0.08953664 0.16606584 0.27855384 -0.22028394
0.270774 -0.022940548 -0.2575958 0.16925663 -0.19924416 -0.23221123 -0.08267489 -0.17826878
-0.2154256 0.2709576 -0.20785558 0.027142543 -0.011460211 0.26378745 -0.23925893 -0.06119285

att_dst f4 [1, 1, 64]
00000000: 5774 8d3e 4b7a 6ebd 6f42 483c f6b5 673e
00000010: 915a f8bd f0ba 3e3d a524 19be 1c58 ebbd
00000020: a6f4 3abe 82c8 143d eeec 46be f628 37be
00000030: efd0 8abd 2fdd 423d 1913 13be bb44 283e
00000040: 0dfd 253d 9118 5ebd be71 273e eb32 b23d
00000050: 7be8 e63b b833 85be 8d67 3bbe 59f4 67be
00000060: 216d e6bd 050e 46be 47af 89bd f569 ae3c
00000070: 3b31 8abe 31cf 363d 37df 213e abc6 4bbe
00000080: 47bd 02be 011d ecbd 3934 a5bd 0bfd 403e
00000090: ac76 e5bd 1ef9 85be cb81 f5bb 9c4a 943e
000000a0: 026e 85be afc0 b13c 9ff7 bbbd 11f4 813e
000000b0: ae7f a93d b3cd 043e 1f5e e0bc cbbe b03d
000000c0: 51e9 27be d154 95bd 8ed1 2cbe 9a75 8f3e
000000d0: 1cca 90bd b28a 773c b478 333e 789a 1e3e
000000e0: bf5c 633e 0ed5 163e 8241 07bc e6eb 8bbe
000000f0: 6234 143e 3b06 6abe d528 6ebe 56c1 8f3e
0.27627823 -0.058222096 0.01222287 0.22628006 -0.12126649 0.046564996 -0.14955385 -0.11491415
-0.18257388 0.03632403 -0.19426319 -0.17886719 -0.06778132 0.04757422 -0.14362754 0.16432469
0.04052453 -0.054222647 0.16351983 0.08701118 0.007046757 -0.2601602 -0.1830122 -0.22651805
-0.112512834 -0.19341286 -0.067228846 0.021290759 -0.26990685 0.044631187 0.15807806 -0.19900005
-0.12767516 -0.115289696 -0.08066601 0.18846528 -0.112042755 -0.26166624 -0.007492279 0.28963172
-0.26060492 0.021698324 -0.09178089 0.2538152 0.08276306 0.12969093 -0.02738863 0.08630141
-0.16397597 -0.07291568 -0.16876814 0.2801941 -0.07069799 0.015108751 0.17526513 0.15488613
0.22203349 0.14729711 -0.008255364 -0.27328414 0.14473107 -0.22853939 -0.23257764 0.2807719

bias f4 [64]
00000000: 0000 0000 bc8d 913c 6eae 953b 3e62 623b
00000010: 659e 193d 0000 0000 468f 383b 2cf8 7ebb
00000020: 5c35 5dbb 0000 0000 0000 0000 14aa 94bc
00000030: d266 083c cddb 9c3b 0000 0000 0000 0000
00000040: 7228 61bc 0000 0000 f80b 7a3c f8e7 f0bb
00000050: 3f58 82bb fe1d 8dbc caf5 abba 38e9 0e3c
00000060: aa64 4d3c a913 663b cd70 853c 4caa 09b9
00000070: 0000 0000 b7c0 9d3c 836b c2bc b506 9d3c
00000080: 048c 97bc 6fa8 1abd 0000 0000 18f0 4abb
00000090: 2383 96bb b1bc 8f3b 2b2d 8abb 97ca b2bb
000000a0: ff4c fcbc 2ec8 14bc 0000 0000 0000 0000
000000b0: 20b8 383c 0000 0000 0000 0000 0000 0000
000000c0: bbcd 003c 64d0 003d bb73 00bc 0000 0000
000000d0: d935 13bd 2822 9e3c 9fbe 0d3d be51 623c
000000e0: 03e3 6339 0000 0000 6525 e1bb a0b5 cc3b
000000f0: ae27 95bc 4c52 80bc 0000 0000 3af6 ca3b
0.0 0.01776778 0.004567913 0.003454342 0.037504572 0.0 0.002816157 -0.0038905246
-0.0033753728 0.0 0.0 -0.018147506 0.0083252955 0.0047869445 0.0 0.0
-0.013742553 0.0 0.015261643 -0.0073518716 -0.003977805 -0.017226215 -0.0013119515 0.008722596
0.012536207 0.0035106933 0.01628914 -0.00013128779 0.0 0.019256933 -0.023732906 0.019168237
-0.018499382 -0.037758287 0.0 -0.003096586 -0.0045932694 0.0043865074 -0.00421681 -0.0054562795
-0.030798433 -0.00908093 0.0 0.0 0.011274368 0.0 0.0 0.0
0.00786155 0.031448737 -0.007840092 0.0 -0.035940025 0.019303396 0.03460562 0.013813434
0.00021732975 0.0 -0.006870913 0.0062472373 -0.018207397 -0.015664242 0.0 0.0061939033

weight f4 [64, 3]
00000000: a183 2ebe b469 fc3c ebc6 8abe dc30 e6bc
00000010: dafa 8c3d 652d 063e 1e99 253e 1ab2 a43e
00000020: 37f7 83be ccdc 6d3e 614e f73d 767e 123e
00000030: 0e97 163e 6758 9fbe 3444 2ebd 4bf2 d2bd
00000040: 1ffb 1bbd daeb 4fbb 203b 83be d3fd 963c
00000050: 677e 5b3e 9a63 20bc 6427 a4bd 616d a4bc
00000060: 2ca4 493d e29c 97be fe47 78be f1aa 81bd
00000070: f6a7 83be a5cb 9ebe 5ba9 5fbe 4998 22bd
00000080: 1716 bebd 0633 66bd 5018 123e 808b 6abc
00000090: 1536 cd3d 7c23 21be 7c35 77be 6974 3b3e
000000a0: 51be 493e 7056 453e 0d37 6dbe abd3 c7bd
000000b0: 8d66 f8bd 7cf8 95bd fef9 a7bd c56e 48be
000000c0: 2326 483e 1b97 99be 5811 8a3d d186 44be
000000d0: e4c8 f73d 3c3d 88be 74e1 8e3e 7a32 46be
000000e0: 5636 84be e7b5 dbbc 944f ebbd cbbd a9bc
000000f0: df22 b5bc c162 a7be f88d 983e 213f 853e
00000100: f817 2e3e 4d29 1f3e 53e5 d3bc 432a c0bd
00000110: 6501 bb3d 9958 933b 2841 773d 681b 133e
00000120: 9d29 0dbd 6488 69be 962d 1a3e abcc 4e3e
00000130: c4ab b0bd aa88 3d3c 4efc a1bd 59e5 153e
00000140: dc93 813e db44 1dbd 8a23 9dbe 937d 793e
00000150: 0128 96be adb8 743e af7d 5cbe 2b45 a93e
00000160: 6ac8 c9bd 32ad 83be 4f44 8c3e 687c 8ebe
00000170: 16be 0e3e f960 7e3e ae21 91bd 124c 353e
00000180: 02c7 9bbc 37d6 97be f9ec 813e 7ff4 073e
00000190: 5107 9a3e 06e1 3fbe 8929 40be 7626 65be
000001a0: 01f2 81be 8645 4fbe 1559 373e 02e8 8b3c
000001b0: fb3e 0e3e cbe8 0ebd 996b 7cbe 3cd6 8a3e
000001c0: 7706 ccbd 2c17 cfbd cbf0 923e 7535 c8bc
000001d0: bb80 153e 48f3 6dbe 6084 a53e d0bb 813e
000001e0: 7da7 d13d d581 edbc 1a9a a43e 013c 8ebe
000001f0: b5cd a9bd 6c6e 403e eb0c 4ebe 8d1d 363e
00000200: 9d2a 66be 5622 90be cd92 12be 76d7 12be
00000210: c5ba 3bbe e102 08be a53a 023e c4b2 88be
00000220: 2dce a2bd d0a9 4439 4cf2 01bd a1c4 46be
00000230: 2ad7 90be 3acf f2bd 65c3 82be b85b 37be
00000240: 4485 263d d4cd 293d 654d b9bd a692 2f3e
00000250: 0b81 1a3e 10cb 983e cde8 ffbd b6dd 653e
00000260: 96bd 773e b59a 21be 4974 0a3e 3d45 85bb
00000270: 1a0e 7d3e cdd8 a5bd 5f79 ef3b 94b8 783a
00000280: 5911 743e 98ba 313e 9b8e 943e 04ef 53be
00000290: 73d6 52be 56f2 47be 4bfb 3c3e cac0 b53d
000002a0: 96a1 aa3d 2391 85bd 5f32 1d3e f979 12be
000002b0: 4cf3 ce3c 021b 22be e45f 73bd 2bf4 773d
000002c0: dd70 43bd 45d5 b03d 5c92 b1bd 4061 953d
000002d0: ab78 883e efdd 923c 5237 983e 0620 73be
000002e0: 6be9 de3d fa16 8c3e 3f18 75be 9704 75be
000002f0: 873a 3b3d c9eb 7c3e 4a8a 523e eccd 7bbe
-0.170424 0.030812122 -0.27104887 -0.02809947 0.06883784 0.13103254 0.16171691 0.3216713
-0.25774547 0.23228759 0.120754965 0.14306054 0.1470606 -0.31122133 -0.042545512 -0.1030012
-0.038081285 -0.0031726272 -0.25631046 0.01843158 0.21434937 -0.009789372 -0.08015326 -0.020071687
0.049228832 -0.2961188 -0.24246213 -0.063314326 -0.25714082 -0.31014743 -0.21841948 -0.03969601
-0.09281557 -0.056201003 0.14267087 -0.014315486 0.10020081 -0.15736192 -0.24141496 0.18306126
0.19701506 0.19271255 -0.23165531 -0.09757169 -0.12128935 -0.07322785 -0.08201979 -0.19573505
0.19545798 -0.29998097 0.06741589 -0.19192053 0.12098864 -0.26609218 0.27906382 -0.19355193
-0.25822705 -0.026820136 -0.11489788 -0.020720383 -0.022111354 -0.3269253 0.29795814 0.26024726
0.17001331 0.15543099 -0.025866186 -0.09383061 0.09131125 0.0044966456 0.060364872 0.14365923
-0.034463514 -0.22805935 0.15056452 0.20195262 -0.08626512 0.011568228 -0.079094514 0.1463827
0.2530812 -0.038395744 -0.30691177 0.24364309 -0.29327396 0.23898573 -0.2153232 0.33060583
-0.09852679 -0.25718075 0.27395865 -0.2782929 0.139397 0.2484168 -0.07086502 0.177048
-0.019015793 -0.2965562 0.25376108 0.13276862 0.30083707 -0.18738183 -0.18765844 -0.22377953
-0.25379947 -0.20241365 0.17905076 0.017078403 0.13891213 -0.034889977 -0.2465042 0.27116573
-0.099621706 -0.101118416 0.28699335 -0.024439553 0.14599888 -0.23237336 0.32327557 0.25338602
0.10237024 -0.028992573 0.3214882 -0.27780154 -0.08291189 0.18792123 -0.20122115 0.1778471
-0.22477193 -0.28151196 -0.14313813 -0.14340004 -0.18332966 -0.13282348 0.12717684 -0.26698887
-0.07949481 0.00018755277 -0.031725213 -0.19410945 -0.28289157 -0.118559316 -0.255397 -0.17906082
0.040654436 0.04145606 -0.09047965 0.17145786 0.15088288 0.29842424 -0.12495575 0.22447857
0.24193415 -0.15781672 0.13520922 -0.0040670917 0.2471241 -0.08097992 0.0073081697 0.00094879535
0.23834743 0.17356336 0.2901505 -0.20696646 -0.20589618 -0.19526038 0.18455236 0.08874662
0.08331601 -0.06521823 0.15351246 -0.14304341 0.025262497 -0.15830615 -0.05941762 0.06053559
-0.047715057 0.08634428 -0.08670494 0.072939396 0.26654562 0.017928092 0.29729706 -0.23742685
0.10884365 0.2736128 -0.2393503 -0.23927532 0.045710113 0.2469932 0.20560566 -0.24590272

att_src f4 [1, 1, 64]
00000000: 49d4 673e 38ea 13be 8649 1b3e ea03 8cbe
00000010: 4c2a 373e 7c6d bcbd 9a66 9d3c 4726 9bbd
00000020: c70f 9d3e bd77 2c3d 4f0e 76bd fa02 593b
00000030: b203 7bbe 5168 4abe f096 d1bd b54c 4a3e
00000040: 5297 74be 2693 a3bd a570 223d bb73 dd3d
00000050: 3101 f63d 0f52 8d3e 269e ec3d 421a 5a3e
00000060: 33a8 323d 5bfb 38be 59e2 f0bd dca2 87be
00000070: 980e 6b3e 1760 f43d 6fcb 543e e524 923e
00000080: 3b9a 97be 8205 95be 3c5d 6a3e 673e 203e
00000090: ec03 223e 12fe a83b 46c5 0fbe daa4 84be
000000a0: 49e0 803e c5fb 823e dd1a 0dbe 4369 993e
000000b0: 45f0 03be 3a0e 78be 731f 05be a250 32be
000000c0: 4369 233e 1167 9ebd afd7 e8bb 9952 91be
000000d0: e242 73be 3e31 81be 5f6c 9b3d 9ca0 64be
000000e0: a279 843e 1f86 e5bc b74f 763e 7db6 033e
000000f0: e4f0 693e 79ee 843e 7e74 7b3e 13a3 283e
0.22639574 -0.14444816 0.15164766 -0.27346736 0.17887229 -0.0920057 0.019213963 -0.0757566
0.306761 0.04210638 -0.06007224 0.0033113346 -0.24513128 -0.19766356 -0.10233867 0.19755824
-0.23885849 -0.07987051 0.039658207 0.108130895 0.12011946 0.27601668 0.11553602 0.21299079
0.04361744 -0.18064635 -0.117619224 -0.2649144 0.22954786 0.1193239 0.20780729 0.28543773
-0.29609856 -0.29105765 0.22887129 0.15648805 0.15821809 0.0051572407 -0.14040098 -0.25907022
0.25171116 0.2558271 -0.13779779 0.2996312 -0.12884624 -0.24224177 -0.13000278 -0.17413571
0.15958123 -0.07734502 -0.0071057896 -0.2838333 -0.23755983 -0.2523288 0.075890295 -0.22326893
0.25874048 -0.028018055 0.24053846 0.12862583 0.22845799 0.2596319 0.24556157 0.16468458

att_dst f4 [1, 1, 64]
00000000: 4c4c 58bd 4f2c b8bd f4d9 fd3d a4c3 503e
00000010: 235f 1cbe 5b3c 853e 95fa 97bb bc65 6a3d
00000020: 64f2 963e 311a b4bd 7b2c 5cbe 7432 d5bd
00000030: 4501 443c fe3e 813e 74df 99be 899b 0ebe
00000040: d84c 723c ff58 e3bd 11d4 89bd 7794 cabd
00000050: 0f0a 8c3c 8e58 70bd 7ace 91be 862c 013e
00000060: 5a74 4ebc bd7f 363e c679 72bd 6acd 79bd
00000070: 5c55 43bd 10bd 2f3d c75a 1dbe 7485 393d
00000080: 331d 17be e38a 92be 7cbb 45be 8737 4dbe
00000090: 05c9 c0bc 14ce 7cbe 960e 2b3d 21ca 8b3e
000000a0: 7a76 aabd 8661 393c a51f 4d3e 7eca 153e
000000b0: e3b2 0c3e 5cdd 57be c068 9dbe 3ddd b1bd
000000c0: a800 66be 1c03 96be 6025 b6bd 693a 873e
000000d0: 41a4 9b3e e355 86be cc6e c0bd e320 893d
000000e0: 97fa 803e b034 61be 886b 86be 2e92 973e
000000f0: 4ace b53d 05bd a6be e0b0 0ebe fe5a 673d
-0.052807137 -0.08992826 0.12395087 0.20387131 -0.15270667 0.2602261 -0.004638026 0.057225928
0.29481804 -0.08794058 -0.21501343 -0.10410014 0.011963193 0.25243372 -0.30053294 -0.1392652
0.014788829 -0.11100959 -0.067299016 -0.09891599 0.01709464 -0.058678202 -0.28477842 0.1261464
-0.012600983 0.17822166 -0.059198163 -0.060986914 -0.047688827 0.042904913 -0.1536666 0.045293286
-0.14757232 -0.28621587 -0.19309801 -0.20040713 -0.023533354 -0.24687988 0.041761957 0.2730265
-0.08323379 0.011314755 0.20031603 0.14628026 0.13740115 -0.21080536 -0.3074398 -0.08684776
-0.22461188 -0.29299247 -0.088938475 0.2641175 0.30398753 -0.262374 -0.09396133 0.06695726
0.25191185 -0.21992755 -0.26253915 0.29603714 0.08877237 -0.32566085 -0.1393466 0.05648326

bias f4 [64]
00000000: 4258 093d 8d57 293d 0000 0000 4069 9ebb
00000010: dd38 2b3c 84cf 3a3d f470 1d3c c271 493b
00000020: c0ed e33c 5482 283b 0569 2a3c c6e0 f13c
00000030: 5ae2 8d3b 516b 9cbb c0ab 333d 0000 0000
00000040: 0000 0000 0c59 953c e4a7 d23c 9023 2abc
00000050: 0000 0000 0000 0000 0000 0000 7a4e 243d
00000060: 0000 0000 dd22 9f3c 0000 0000 7951 97bb
00000070: 521a 513c 17ef 94ba f9fe 993c 1617 76bc
00000080: fa4a d33c 0000 0000 b0ac 413c 7fa9 353d
00000090: 3c38 22bc 0000 0000 6958 1b3d 1f3a c23b
000000a0: e5bd a63c 8e87 253d 5fa6 52bc f7d1 d63b
000000b0: 3554 bf3b 0000 0000 a20b 173c 4811 a53c
000000c0: 0000 0000 9ce3 993c 201f b33b a73c ba3c
000000d0: 4cbe 523c 9d38 9cbc 66da e23c 22d8 27bc
000000e0: 1f1f f43b 8261 cb3c 0000 0000 5fe4 133c
000000f0: 0000 0000 550e 2e3d 8f01 403d 4caf 163d
0.033531435 0.04134326 0.0 -0.004834324 0.010450569 0.04560806 0.00960945 0.003073797
0.027823329 0.0025712447 0.010401015 0.029526126 0.0043299617 -0.0047735353 0.043864965 0.0
0.0 0.018230937 0.025714822 -0.010384455 0.0 0.0 0.0 0.040113904
0.0 0.019425804 0.0 -0.0046178666 0.012762623 -0.0011362758 0.018798338 -0.015020153
0.025792588 0.0 0.011820957 0.044351097 -0.009901103 0.0 0.03792611 0.0059273387
0.02035422 0.04041248 -0.012857049 0.0065557915 0.0058388957 0.0 0.009219082 0.020149842
0.0 0.01878529 0.005466357 0.022734 0.012862753 -0.019069964 0.027692031 -0.010244401
0.007449999 0.024826769 0.0 0.009026616 0.0 0.042494137 0.046876486 0.03678827

weight f4 [64, 1]
00000000: 8f04 b7be 4f86 29be 2f0d 9ebe 67c4 b83e
00000010: 51ea a7be a3ee 943e acd2 493e b1cb b3bd
00000020: 05dd 71be f1e3 a93e a876 263e e9e1 bb3e
00000030: e3f7 a23e 1d50 2b3e 6f1c 9d3e f6a9 0bbd
00000040: f207 92be 1a76 ba3e 0c7b 5cbe f21a 45be
00000050: 1c9d 24be 4ca9 dabd 00e2 3abe f0ad 89be
00000060: 6efb 34be b3aa 1cbe 0be9 1abe 4d2d 20be
00000070: e417 c33e f7fb 623e 3459 f83d 376e 493e
00000080: bf88 a63e 512a 95be b871 933e 188b 8fbd
00000090: 6a85 d4bd e2aa 5bbe d1b9 653e a171 c23e
000000a0: 8bc9 cfbd a53b a5be 1df8 8d3e d3da 14be
000000b0: 96be 5ebe 9be2 24be 28a2 9a3e 85e8 873e
000000c0: dda1 96be 7790 9b3e b5ee 04be 4039 3ebe
000000d0: 8484 88be 306f be3c ebc9 093e bfc6 64be
000000e0: c6b1 853e 84ff b5bd 77c2 1ebd 7df0 803e
000000f0: eebd 30be 68d9 2c3e c15f 85be 17f4 c93e
-0.35745665 -0.16555141 -0.30869433 0.36087343 -0.32795957 0.29088315 0.19709271 -0.087790854
-0.23619469 0.33181718 0.16256201 0.36695793 0.31829748 0.1672978 0.30685756 -0.034097634
-0.28521687 0.3641823 -0.21531314 -0.1924856 -0.16075557 -0.10676822 -0.18250275 -0.26890516
-0.17674038 -0.15299492 -0.15127961 -0.15642281 0.38104165 0.2216643 0.12126389 0.1967095
0.32526204 -0.29133847 0.28797698 -0.07008952 -0.10377009 -0.21451905 0.22434165 0.37977317
-0.10145863 -0.32272068 0.27728358 -0.145366 -0.2175239 -0.16102068 0.3020184 0.26544586
-0.29420367 0.30383655 -0.12981685 -0.18576527 -0.266636 0.023246378 0.13455932 -0.2234144
0.26112193 -0.08886626 -0.038759675 0.25183478 -0.17259952 0.16879809 -0.26049617 0.39444038
