mlartifacts/196996377989302197/410f78f2a2d14a19a355a0a63c4d90e2/artifacts/models/data/model.pth (torch, 178330 bytes, 160 tensors)

att_src f4 [1, 1, 16]
0	0x3d9136c2	0.07090522
1	0xbcd8bed5	-0.026458183
2	0x3e8b47f6	0.2720334
3	0x3e85eb54	0.26156104
4	0x3e32e5b6	0.1747044
5	0xbe0314b8	-0.12800872
6	0xbec5ba1c	-0.38618553
7	0xbd900c44	-0.070335895
8	0x3ea1bee0	0.3159094
9	0x3c948dd6	0.018134039
10	0xbe05e332	-0.1307495
11	0x3e83faf8	0.2577741
12	0xbd77593a	-0.060387827
13	0xbef7b6f9	-0.48381785
14	0xbedfc29d	-0.43703166
15	0xbdeaea6f	-0.11470496

att_dst f4 [1, 1, 16]
0	0xbe6c472a	-0.23074022
1	0xbf08f444	-0.5349772
2	0xbf0a346f	-0.5398626
3	0xbeaedb7d	-0.3415183
4	0x3ea43964	0.32075036
5	0xbe3e5884	-0.18588454
6	0xbed07e48	-0.40721345
7	0x3f11c088	0.56934404
8	0x3ed31204	0.41224682
9	0xbf16126e	-0.5862187
10	0xbe716ce8	-0.235767
11	0x3db9f678	0.09080213
12	0x3e3a24ca	0.18178096
13	0x3edaed68	0.42759252
14	0x3ed59261	0.4171324
15	0xbee01f3a	-0.43773824

bias f4 [16]
0	0x3e8dd14d	0.27698746
1	0xbe817c12	-0.2528997
2	0x3ef5d179	0.48011377
3	0x3f0866e8	0.5328202
4	0x3f039673	0.5140144
5	0xbe25be54	-0.16185886
6	0xbdcfb09e	-0.10141109
7	0xbeeb2a03	-0.4593049
8	0x3e007b8d	0.12547131
9	0x3e805e9c	0.2507218
10	0x3d475053	0.048660588
11	0x3e64a762	0.22329476
12	0xbe80630e	-0.25075573
13	0xbe089381	-0.13337518
14	0x3e72af45	0.23699673
15	0xbdae0b2a	-0.08498223

weight f4 [16, 3]
0	0xbd747320	-0.059680104
1	0x3e9c5d31	0.3053985
2	0xbe9231f8	-0.28553748
3	0xbebe8c2e	-0.37216324
4	0xbd6672ca	-0.056261815
5	0xbda6620f	-0.08124172
6	0xbdc481e5	-0.09595088
7	0x3f029de2	0.5102216
8	0x3d3f2d7a	0.04667423
9	0x3ee28878	0.44244742
10	0x3e4fa827	0.20278989
11	0x3e9df41f	0.30850312
12	0x3f097418	0.5369277
13	0x3e09d05e	0.13458392
14	0xbeb7f8f5	-0.35932127
15	0xbd4abeae	-0.049498253
16	0xbea1056e	-0.31449455
17	0x3d8c8b4b	0.068625055
18	0xbe359578	-0.17732799
19	0xbedc8df8	-0.43077064
20	0x3ea92906	0.3303911
21	0x3a744ef3	0.00093196257
22	0xbe5a4ca6	-0.21318302
23	0x3ed45fd4	0.4147936
24	0x3f02f32a	0.5115229
25	0x3eb5afcb	0.35485682
26	0x3efb4000	0.49072266
27	0xbe88f031	-0.26745752
28	0x3e560c73	0.20903187
29	0xbd004d26	-0.031323574
30	0x3f01d72d	0.5071896
31	0xbefb1008	-0.49035668
32	0x3e8fdff1	0.2810054
33	0xbe981a88	-0.29707742
34	0x3ed665bf	0.418745
35	0x3ee13201	0.43983462
36	0x3d2ee827	0.042701866
37	0xbe50e706	-0.20400628
38	0xbebbc2fe	-0.36672205
39	0x3ed98ff5	0.42492643
40	0xbef96f73	-0.48717842
41	0xbec72bd3	-0.38900623
42	0xbe95a564	-0.29227746
43	0xbe46abd7	-0.19401489
44	0x3e3b8b06	0.18314752
45	0xbd65b22e	-0.05607813
46	0xbed58348	-0.41701722
47	0x3eef3c77	0.4672582

att_src f4 [1, 1, 16]
0	0x3ddad020	0.10684228
1	0x3f034a5b	0.5128533
2	0xbd8c7664	-0.06858519
3	0xbef42778	-0.47686362
4	0xbe5522e5	-0.20814092
5	0xbe665acc	-0.22495574
6	0x3f39aff8	0.7253413
7	0xbea2dbd3	-0.31808338
8	0xbf1975f2	-0.59945595
9	0xbe82d973	-0.25556526
10	0xbf334814	-0.7003186
11	0x3f0127dd	0.5045145
12	0xbf22ff2d	-0.6367062
13	0x3ed53e2f	0.41649005
14	0xbc98c965	-0.01865072
15	0xbf421301	-0.7581025

att_dst f4 [1, 1, 16]
0	0x3ea83f78	0.32860923
1	0xbf15891c	-0.5841234
2	0x3f238eec	0.63889956
3	0xbed7e48c	-0.42166555
4	0x3c8605e2	0.016360227
5	0x3f55dd07	0.83540386
6	0xbe0157b3	-0.12631111
7	0x3d9ad600	0.075603485
8	0x3f5f7a3a	0.8729588
9	0x3e87c65d	0.26518527
10	0x3e0c89e7	0.1372448
11	0xbd89f9b4	-0.0673708
12	0xbee7cd94	-0.4527403
13	0xbe6c10dc	-0.23053306
14	0x3f35ff56	0.71092737
15	0xbe56902a	-0.20953432

bias f4 [16]
0	0xbec6547c	-0.3873633
1	0x3ef318b8	0.47479796
2	0x3ec40dc6	0.38291758
3	0xbd2868d7	-0.041115608
4	0xbed7554b	-0.4205726
5	0xbed199a8	-0.40937543
6	0x3d871556	0.065958664
7	0x3eeef82a	0.4667371
8	0xbee804a3	-0.45316038
9	0xbec9e95b	-0.3943585
10	0x3eabe5e1	0.3357382
11	0xbe76d48f	-0.24104522
12	0x3e9e4f1b	0.30919728
13	0x3e915eb9	0.2839258
14	0xbe267aee	-0.16257831
15	0x3ea027dd	0.31280413

weight f4 [16, 3]
0	0xbf45bf61	-0.77245146
1	0x3affe550	0.0019523297
2	0x3da20aef	0.07912242
3	0x3f5badbd	0.8581198
4	0x3e6677f1	0.22506692
5	0x3f436c74	0.7633736
6	0x3f57450d	0.8408974
7	0x3f1e89c9	0.61928993
8	0x3eeb9e3d	0.46019164
9	0xbe19fe14	-0.1503833
10	0x3db5c511	0.08875478
11	0x3f11dd88	0.56978655
12	0xbec4cb6d	-0.38436452
13	0xbd897ed8	-0.06713647
14	0x3b426b18	0.0029665884
15	0xbedc0774	-0.42974436
16	0xbf4f7dab	-0.8105113
17	0xbf5c4814	-0.8604748
18	0x3d9a7b15	0.07543007
19	0xbe6bbbd5	-0.23020871
20	0x3ed60df8	0.41807532
21	0x3e43a5ee	0.19106266
22	0x3f238080	0.6386795
23	0x3f4a13e1	0.7893658
24	0xbf49a2c5	-0.7876399
25	0xbf13f7f8	-0.57800245
26	0xbe08b724	-0.13351113
27	0xbe038fbd	-0.128478
28	0xbf54870f	-0.83018583
29	0xbf343ea9	-0.7040811
30	0xbf4f7ad1	-0.8104678
31	0xbe3657df	-0.17806958
32	0x3ef2bf3a	0.4741152
33	0x3d3e5383	0.04646636
34	0x3e374f3c	0.1790132
35	0xbf10fa90	-0.5663233
36	0xbe549e07	-0.20763408
37	0x3eb7b031	0.3587661
38	0x3edcc1f3	0.43116722
39	0x3f0b2376	0.54350984
40	0xbea35f5f	-0.319087
41	0x3c2f9935	0.01071768
42	0x3df2d656	0.118572876
43	0xbe9c8258	-0.30568194
44	0xbea4ac6f	-0.32162806
45	0xbe7ce130	-0.24695277
46	0x3f04b52c	0.51838946
47	0x3eae4aec	0.34041536

weight f4 [16, 1]
0	0x3ecbf830	0.3983779
1	0xbf2cb292	-0.67459977
2	0x3f260e2c	0.64865375
3	0xbeeb3619	-0.4593971
4	0xbd959d7c	-0.073054284
5	0x3eda1812	0.4259649
6	0xbe36485b	-0.17801039
7	0xbd9a746c	-0.07541737
8	0x3ef1ef70	0.4725299
9	0x3ea2055b	0.3164471
10	0xbd6ce523	-0.05783571
11	0xbe352604	-0.17690283
12	0xbf4c6b3d	-0.7985113
13	0xbdae21b4	-0.08502522
14	0x3f53ed8b	0.82784337
15	0xbe3e4760	-0.18581915

att_src f4 [1, 1, 16]
0	0x3e945901	0.28974155
1	0x3e710617	0.2353748
2	0xbe136bfa	-0.14396659
3	0xbf173334	-0.59062505
4	0xbddf1e3b	-0.10894438
5	0x3e33db95	0.17564233
6	0xbf19ca60	-0.60074425
7	0xbdaa5590	-0.08317101
8	0x3e484bd5	0.19560178
9	0xbe08a4d6	-0.1334413
10	0x3df0454e	0.11731969
11	0xbe0b307c	-0.13592714
12	0xbe3b7b00	-0.1830864
13	0xbf075ea3	-0.5287878
14	0x3eae6718	0.3406303
15	0xbe2f8a81	-0.17142679

att_dst f4 [1, 1, 16]
0	0xbeeeea7c	-0.46663272
1	0xbe72fb1f	-0.23728608
2	0xbf2dc192	-0.6787349
3	0x3f094a2e	0.53628814
4	0x3e64ef6b	0.22356956
5	0x3f0cf94d	0.550679
6	0xbe1b7251	-0.15180327
7	0x3f5863ae	0.845271
8	0x3f5e8a14	0.8692944
9	0x3bd4273e	0.0064744046
10	0xbe4c04a1	-0.19923641
11	0xbed05c7e	-0.40695566
12	0xbde034a1	-0.10947538
13	0xbf209dcc	-0.6274078
14	0xbf3828a3	-0.71937007
15	0x3e137e51	0.14403655

bias f4 [16]
0	0x3e8dd14d	0.27698746
1	0xbe817c12	-0.2528997
2	0x3ef5d179	0.48011377
3	0x3f0866e8	0.5328202
4	0x3f039673	0.5140144
5	0xbe25be54	-0.16185886
6	0xbdcfb09e	-0.10141109
7	0xbeeb2a03	-0.4593049
8	0x3e007b8d	0.12547131
9	0x3e805e9c	0.2507218
10	0x3d475053	0.048660588
11	0x3e64a762	0.22329476
12	0xbe80630e	-0.25075573
13	0xbe089381	-0.13337518
14	0x3e72af45	0.23699673
15	0xbdae0b2a	-0.08498223

weight f4 [16, 1]
0	0xbe139f0d	-0.14416142
1	0xbea58c29	-0.32333496
2	0x3f56c9d1	0.839017
3	0x3f268999	0.6505371
4	0x3f39f141	0.7263375
5	0xbecaf420	-0.39639378
6	0x3da6f0e5	0.08151416
7	0xbee5e0b9	-0.44898012
8	0xbddd2891	-0.10798753
9	0x3f1721d2	0.5903598
10	0xbe0e4858	-0.13894784
11	0x3f0a98d8	0.5413947
12	0x3dcae06e	0.09906088
13	0x3e9020f6	0.28150147
14	0xbe71534d	-0.23566933
15	0x3ee3c6da	0.4448765

weight f4 [16, 3]
0	0x3f2776b9	0.6541553
1	0x3ebf07f0	0.37310743
2	0x3f074650	0.52841663
3	0xbd36ce3e	-0.04463028
4	0xbda788d9	-0.081803985
5	0x3eb7db24	0.3590938
6	0x3f4133d7	0.75469726
7	0x3de45be7	0.111503415
8	0x3ea35cb0	0.31906652
9	0xbde0b8a3	-0.10972717
10	0xbef83d35	-0.48484197
11	0xbebb56e5	-0.36589733
12	0x3f4e52bf	0.8059501
13	0xbe66790d	-0.22507115
14	0x3dbcef53	0.09225335
15	0xbea5a5e1	-0.32353118
16	0x3d5a2a13	0.05326278
17	0xbf23c2ee	-0.63969314
18	0xbec3958e	-0.3820004
19	0xbe94c846	-0.29059047
20	0x3bc84b2f	0.006112478
21	0xbf5e609f	-0.8686618
22	0xbc29dd55	-0.010367711
23	0xbea6368b	-0.32463488
24	0xbf35c6c5	-0.71006423
25	0xbf4e793c	-0.8065374
26	0xbf2e7e1b	-0.6816117
27	0x3df594df	0.119912855
28	0x3d984393	0.07434764
29	0xbe346fc3	-0.17620759
30	0xbef6551b	-0.48111805
31	0xbf28c907	-0.65931743
32	0xbe2e6b2e	-0.17033073
33	0xbe4d8fc9	-0.20074381
34	0x3f072aa1	0.5279942
35	0x3f193c74	0.5985787
36	0x3d4c1a04	0.049829498
37	0xbf22d123	-0.6360037
38	0x3e32d37e	0.1746349
39	0x3f304d16	0.68867624
40	0x3f5973f0	0.8494253
41	0x3efd4c7f	0.49472424
42	0xbd00dc07	-0.031459834
43	0x3f5a7188	0.85329485
44	0x3eee7f8e	0.46581692
45	0x3de2ff2f	0.11083829
46	0xbdd5476b	-0.104140125
47	0xbe04731d	-0.12934537

att_src f4 [1, 1, 16]
0	0xbf59e534	-0.8511536
1	0x3f06ebe8	0.52703714
2	0x3e292b60	0.16520452
3	0x3df91149	0.121615
4	0xbf02e340	-0.51128006
5	0x3e0f57e8	0.13998377
6	0x3e449fc0	0.19201565
7	0x3e83f0ec	0.25769746
8	0xbf37b9c2	-0.7176782
9	0xbf17274a	-0.59044325
10	0x3e1bc212	0.1521075
11	0x3e5ceec5	0.21575458
12	0x3e1e9ce7	0.15489541
13	0x3ea1cd98	0.31602168
14	0x3f3cfe80	0.73825836
15	0x3eb929d3	0.36164722

att_dst f4 [1, 1, 16]
0	0xbebd0ea9	-0.36925247
1	0xbf07dd1d	-0.5307177
2	0x3f03743a	0.5134922
3	0x3affc3b0	0.0019513275
4	0x3cc97d71	0.024595948
5	0x3d50442e	0.05084627
6	0xbee00c79	-0.43759516
7	0x3d879436	0.06620066
8	0x3e9c20ae	0.30493683
9	0xbdff0967	-0.12452965
10	0x3ed76356	0.42067975
11	0x3ebe7993	0.3720213
12	0xbd8ad039	-0.067779966
13	0xbe4963d7	-0.19666992
14	0x3e0feed7	0.14055954
15	0x3ea5167a	0.3224371

bias f4 [16]
0	0xbe99d3a4	-0.3004428
1	0x3e9b046a	0.30276805
2	0xbeacf8b7	-0.33783504
3	0x3ed9b4bc	0.42520702
4	0x3eb4f7ff	0.35345456
5	0xbeac67c3	-0.33672914
6	0x3eac9395	0.33706346
7	0xbe82a943	-0.2551976
8	0xbe88b40d	-0.26699868
9	0xbeaad7e3	-0.33367833
10	0xbedf389f	-0.43597886
11	0xbe9fe35b	-0.31228146
12	0xbea723c1	-0.32644466
13	0x3ea3d9ae	0.32002014
14	0x3e986f30	0.2977233
15	0x3ea6b113	0.32556972

weight f4 [16, 3]
0	0xbf3d8703	-0.74034137
1	0x3e817a77	0.25288746
2	0xbf501c20	-0.81292915
3	0xbda73390	-0.08164132
4	0x3e2cbb78	0.16868389
5	0x3ee0ea81	0.43928912
6	0xbe432068	-0.19055331
7	0xbe95ed81	-0.29282764
8	0xbf3dbf17	-0.74119705
9	0xbd152083	-0.03640796
10	0x3ec6b56a	0.38810283
11	0x3d96842c	0.073494285
12	0x3e40274a	0.18764988
13	0x3f34d580	0.70638275
14	0xbed5f641	-0.4178944
15	0xbd7a4483	-0.061100494
16	0xbee1f994	-0.44135725
17	0xbf469bf1	-0.775817
18	0x3eb5d8dc	0.35517013
19	0xbe17ff97	-0.14843594
20	0xbd9d1764	-0.07670477
21	0xbd569c6a	-0.05239526
22	0xbe376ace	-0.17911837
23	0xbae8ee51	-0.0017771219
24	0xbd7b54cb	-0.06136016
25	0x3f35c183	0.709984
26	0xbf3bb228	-0.7331872
27	0xbe8169a9	-0.25275925
28	0xbb253765	-0.002521002
29	0xbf58cde8	-0.8468919
30	0x3eb11eb8	0.3459375
31	0x3e437404	0.19087225
32	0x3e9f5773	0.31121406
33	0xbf35a455	-0.70953876
34	0xbddb660a	-0.10712822
35	0xbe9265f4	-0.2859341
36	0xbf0bfc99	-0.5468231
37	0xbd34c26f	-0.04413074
38	0xbec64628	-0.387254
39	0x3c5610ca	0.013065526
40	0xbd862c0e	-0.065513715
41	0x3f545467	0.8294129
42	0xbe8fc094	-0.28076613
43	0xbe42d074	-0.19024831
44	0x3e0b3ed8	0.13598192
45	0x3f60c992	0.8780757
46	0xbe0abe10	-0.13549066
47	0x3f18b9b1	0.5965834

att_src f4 [1, 1, 16]
0	0xbea69d57	-0.32541916
1	0x3e0fd44f	0.14045833
2	0xbe9a36f4	-0.3012005
3	0xbdf92152	-0.121645585
4	0xbed9e3ea	-0.42556697
5	0x3e854b9e	0.26034254
6	0x3eabe3ea	0.33572322
7	0x3ee0289e	0.43780988
8	0xbe452d05	-0.19255455
9	0x3d9a120a	0.07522972
10	0x3ec8a9ba	0.3919199
11	0x3ec0f66a	0.37688
12	0x3e64f1d7	0.2235788
13	0xbdb76b5c	-0.08956024
14	0xbf373aa8	-0.7157388
15	0x3e84d72e	0.2594542

att_dst f4 [1, 1, 16]
0	0x3e638a7f	0.22220801
1	0xbc4114c4	-0.011784736
2	0x3df40502	0.11915018
3	0x3f1a5d7a	0.60298884
4	0x3f558ba2	0.8341619
5	0xbe83b0a1	-0.25720695
6	0xbe934a66	-0.287677
7	0x3b9e2395	0.004826019
8	0xbdb83602	-0.08994676
9	0x3eb39a7b	0.35078797
10	0x3c03a402	0.008034708
11	0xbea95af4	-0.33077204
12	0xbe435c8d	-0.19078274
13	0x3ed57d0c	0.41696966
14	0x3ec8a9b9	0.39191988
15	0xbf1a8469	-0.6035829

bias f4 [16]
0	0x3e8dd14d	0.27698746
1	0xbe817c12	-0.2528997
2	0x3ef5d179	0.48011377
3	0x3f0866e8	0.5328202
4	0x3f039673	0.5140144
5	0xbe25be54	-0.16185886
6	0xbdcfb09e	-0.10141109
7	0xbeeb2a03	-0.4593049
8	0x3e007b8d	0.12547131
9	0x3e805e9c	0.2507218
10	0x3d475053	0.048660588
11	0x3e64a762	0.22329476
12	0xbe80630e	-0.25075573
13	0xbe089381	-0.13337518
14	0x3e72af45	0.23699673
15	0xbdae0b2a	-0.08498223

weight f4 [16, 1]
0	0x3f471612	0.7776805
1	0xbf2aa919	-0.6666427
2	0xbdd1b74b	-0.102400385
3	0x3f45ea39	0.7731052
4	0xbe27e18e	-0.16394636
5	0x3d2684cf	0.040654
6	0xbef7352f	-0.48282763
7	0xbf34174f	-0.70348066
8	0xbeecd822	-0.46258646
9	0x3f4ad93c	0.79237723
10	0x3ecae5ad	0.39628354
11	0x3eca83c2	0.39553648
12	0x3e730087	0.2373067
13	0xbe060639	-0.13088311
14	0x3d8d995f	0.06914019
15	0x3dfaef83	0.122527145

weight f4 [16, 3]
0	0xbe43c8a4	-0.19119507
1	0x3c5f47d6	0.013627967
2	0x3e811092	0.25207955
3	0xbf011f14	-0.50438046
4	0xbf11aedc	-0.5690744
5	0xbe931bd6	-0.28732175
6	0x3db0896b	0.086199604
7	0x3f60c0cd	0.8779419
8	0x3e967992	0.29389626
9	0x3ebbc57d	0.3667411
10	0x3edb88f2	0.42877918
11	0x3f43d96f	0.7650365
12	0x3f0e4057	0.55566925
13	0x3f053b4e	0.52043617
14	0x3f523213	0.8210766
15	0x3e8268ed	0.25470677
16	0x3ea6a1b3	0.32545242
17	0x3c740571	0.014893875
18	0x3eeac33f	0.45852086
19	0xbcea1bfa	-0.028577793
20	0xbe64c85b	-0.22342055
21	0xbe9c2e4b	-0.3050407
22	0x3e65b88a	0.22433677
23	0xbdea8682	-0.114514366
24	0x3f06ca69	0.52652603
25	0xbdbf3cd7	-0.09337776
26	0x3e2e8dc4	0.17046267
27	0xbedecc5f	-0.43515298
28	0x3f1b5664	0.60678697
29	0x3ea9f795	0.33196703
30	0xbeb067f3	-0.34454307
31	0x3c907ce4	0.017637677
32	0xbd0deef7	-0.034651723
33	0xbe498642	-0.19680122
34	0x3e2a6a2a	0.16642061
35	0xbf26a588	-0.6509633
36	0x3f08d4d1	0.5344973
37	0x3e5d0269	0.2158295
38	0xbe68eec1	-0.22747327
39	0x3e743eee	0.23852131
40	0x3cdb5a82	0.026776556
41	0x3ef81074	0.48450053
42	0xbe298fdf	-0.16558789
43	0x3ebeeb57	0.37288925
44	0x3f070a21	0.5274983
45	0xbec445a7	-0.3833439
46	0xbed3ccdf	-0.41367242
47	0xbec0c1fd	-0.37648

att_src f4 [1, 1, 16]
0	0xbddb38aa	-0.10704167
1	0x3d097382	0.033557422
2	0x3f774807	0.9659428
3	0xbf730252	-0.94925416
4	0xbf486535	-0.7827943
5	0xbdee66f1	-0.11640728
6	0xbe23a64e	-0.15981409
7	0x3e2923e9	0.16517605
8	0x3f3b6dd8	0.73214483
9	0xbe415018	-0.1887821
10	0x3c9c1914	0.019054927
11	0x3eebd036	0.4605729
12	0x3f3ec270	0.7451544
13	0x3c70c405	0.014695172
14	0xbe47443e	-0.19459626
15	0xbead45c6	-0.33842295

att_dst f4 [1, 1, 16]
0	0x3e5aa014	0.21350127
1	0x3e33067e	0.17482945
2	0xbf6a861f	-0.916109
3	0xbf40cc64	-0.75311875
4	0xbe20cdce	-0.15703508
5	0xbf5f63af	-0.8726148
6	0xbf19f0e6	-0.60133207
7	0xbd9b5a9f	-0.07585644
8	0xbf4a1f00	-0.7895355
9	0x3e33cc97	0.17558514
10	0x3e652bb8	0.22379959
11	0x3f40b8bb	0.75281876
12	0x3f29219f	0.66066927
13	0x3f078f00	0.52952576
14	0xbdc9853b	-0.09839865
15	0xbf2aec6a	-0.6676699

bias f4 [16]
0	0xbec6547c	-0.3873633
1	0x3ef318b8	0.47479796
2	0x3ec40dc6	0.38291758
3	0xbd2868d7	-0.041115608
4	0xbed7554b	-0.4205726
5	0xbed199a8	-0.40937543
6	0x3d871556	0.065958664
7	0x3eeef82a	0.4667371
8	0xbee804a3	-0.45316038
9	0xbec9e95b	-0.3943585
10	0x3eabe5e1	0.3357382
11	0xbe76d48f	-0.24104522
12	0x3e9e4f1b	0.30919728
13	0x3e915eb9	0.2839258
14	0xbe267aee	-0.16257831
15	0x3ea027dd	0.31280413

weight f4 [16, 3]
0	0xbf114616	-0.5674757
1	0xbee2d240	-0.44301033
2	0xbf3fdf5d	-0.749502
3	0x3f0d7a9c	0.5526521
4	0x3f5ba4da	0.8579842
5	0x3f14fe7a	0.582008
6	0x3ecee659	0.40410116
7	0x3f495265	0.7864135
8	0x3ed8a905	0.42316452
9	0xbf1ec3c4	-0.62017465
10	0x3edf1675	0.4357182
11	0x3dfe73b4	0.12424412
12	0xbf5cf587	-0.86312145
13	0xbf35520a	-0.70828307
14	0xbef21e23	-0.47288617
15	0xbf6f1f0d	-0.93406755
16	0xbf34f5ca	-0.70687544
17	0x3da38d2a	0.07985909
18	0xbe915fe7	-0.2839348
19	0xbd994916	-0.07484643
20	0x3f06da02	0.52676404
21	0x3e94055e	0.28910345
22	0x3ebb4077	0.3657262
23	0x3f23fe38	0.6405978
24	0xbe6f8511	-0.23390605
25	0xbb8c94a1	-0.004290179
26	0x3e197440	0.14985752
27	0xbf6a351a	-0.91487277
28	0xbf57fd2b	-0.8437068
29	0xbf1c9c19	-0.61175686
30	0x3ec6ccef	0.38828227
31	0x3e1f2a91	0.15543582
32	0x3c69c6c7	0.014268584
33	0xbe261874	-0.16220266
34	0x3f2cfe8c	0.6757591
35	0x3e892bc6	0.2679121
36	0x3ecd4c1e	0.40097135
37	0x3e87ee3f	0.26548955
38	0x3f4ea970	0.8072729
39	0x3e90ce42	0.28282362
40	0x3ec74fc8	0.38928056
41	0x3ebb8f6f	0.3663287
42	0xbf0a7923	-0.5409109
43	0x3f7599cc	0.959378
44	0xbf020101	-0.5078278
45	0x3dfa44e9	0.12220175
46	0xbe9ac0c7	-0.30225202
47	0xbdc9ccae	-0.09853493

weight f4 [16, 1]
0	0xbe16d123	-0.14728217
1	0xbe20fcc0	-0.15721416
2	0x3ef6ae64	0.48179924
3	0x3f06a7cb	0.5259978
4	0xbc124a41	-0.008928836
5	0x3ed1b10d	0.40955392
6	0x3f17e5e0	0.59335136
7	0x3e3645c2	0.17800048
8	0x3f14001f	0.57812685
9	0x3a63a9b9	0.00086846534
10	0xbe24b824	-0.16085869
11	0xbeae40d1	-0.34033826
12	0xbf2c0578	-0.67195845
13	0xbf57355b	-0.8406579
14	0xbe2d9755	-0.1695226
15	0x3f21dfe7	0.6323227

att_src f4 [1, 1, 16]
0	0xbeff1926	-0.49823874
1	0xbee24a3e	-0.44197267
2	0x3e004e90	0.12529969
3	0xbf07e4e3	-0.5308363
4	0x3e1dc2d4	0.15406352
5	0x3d43adb2	0.04777307
6	0x3e228d3b	0.15874188
7	0xbe681c03	-0.22666936
8	0x3ee1e934	0.44123232
9	0x3e9fe7a2	0.3123141
10	0xbef4a522	-0.47782236
11	0xbb9b68ec	-0.0047427323
12	0xbdeaee25	-0.11471204
13	0xbed53387	-0.41640875
14	0xbc1313d9	-0.0089769
15	0x3e736c7e	0.23771855

att_dst f4 [1, 1, 16]
0	0x3ed4d973	0.4157215
1	0x3d64ed5a	0.05589042
2	0x3ed844e0	0.42240047
3	0xbee02532	-0.43778378
4	0x3d3a5430	0.045490444
5	0xbec1e9c8	-0.37873673
6	0xbdfdad9a	-0.123866275
7	0xbe140877	-0.14456354
8	0xbebbe248	-0.36696076
9	0x3ee1e39b	0.44118962
10	0x3ef1fd62	0.47263628
11	0x3e862dcf	0.26206824
12	0xbe7484c6	-0.23878774
13	0x3ec5d8f9	0.386421
14	0x3f14e013	0.5815441
15	0x3e11b8ad	0.14230604

bias f4 [16]
0	0x3e828a1a	0.25495988
1	0xbdf3e33d	-0.11908577
2	0xbeaa0699	-0.3320816
3	0xbd16384b	-0.03667478
4	0x3e4d379c	0.20040745
5	0xbeb2d381	-0.3492699
6	0x3ea620d0	0.3244691
7	0x3edabcaa	0.42722064
8	0xbeaf9988	-0.34296823
9	0xbef91f00	-0.48656464
10	0xbe88baac	-0.2670492
11	0xbead4e90	-0.33849
12	0x3e9227c3	0.2854596
13	0x3eb97d07	0.362282
14	0x3ead7b62	0.33883196
15	0x3eb0c534	0.34525454

weight f4 [16, 16]
0	0x3bdbd0cb	0.0067082397
1	0x3e04fcda	0.1298708
2	0x3e31b962	0.17355874
3	0xbe80bf40	-0.25145912
4	0x3f2b9f57	0.6704001
5	0x3e5ebb5f	0.21751164
6	0xbe1dc167	-0.15405808
7	0xbdc58817	-0.09645098
8	0x3f1a0b35	0.6017335
9	0xbcefcc1d	-0.029272133
10	0x3ed9591f	0.42450806
11	0xbda15703	-0.07877924
12	0x3f153e51	0.5829821
13	0xbf3a68ea	-0.72816336
14	0xbeb51dcb	-0.35374293
15	0xbf0d99a1	-0.55312544
16	0xbe80c2d1	-0.25148633
17	0x3d6ca6d8	0.057776302
18	0x3e82b714	0.25530303
19	0xbd754d64	-0.05988826
20	0xbef8f1dd	-0.48622027
21	0x3f14cbf7	0.58123726
22	0xbee31281	-0.44350055
23	0x3d9fd241	0.078037746
24	0x3e461fbe	0.19348046
25	0x3edf5e90	0.43626833
26	0x3c8a6d7f	0.016897915
27	0x3d4ca30d	0.049960185
28	0x3e2affef	0.16699193
29	0xbeaa701e	-0.33288664
30	0x3da23a74	0.07921305
31	0x3ebcffb6	0.36913842
32	0x3f377531	0.71663195
33	0x3d521607	0.05129054
34	0x3d9243e2	0.07141854
35	0xbf34aee1	-0.70579344
36	0xbd2d4004	-0.04229738
37	0x3cb7629c	0.022385888
38	0x3eb88cfc	0.36045063
39	0x3f2b661f	0.669527
40	0x3a6d3192	0.0009048219
41	0xbc43a09e	-0.01194015
42	0xbf350302	-0.70707715
43	0x3b876da7	0.0041329446
44	0x3e382461	0.17982627
45	0xbdf72d60	-0.120692015
46	0x3ddf31ce	0.10898171
47	0xbd77ad1a	-0.060467817
48	0xbe5b63b4	-0.21424752
49	0xbd7048b9	-0.058663104
50	0xbe672a74	-0.22574788
51	0xbd0cab09	-0.0343428
52	0x3f518709	0.8184667
53	0x3ed02474	0.40652812
54	0x3e97ce53	0.296496
55	0xbedce862	-0.43146044
56	0xbe0c0da1	-0.13677074
57	0xbd886298	-0.0665943
58	0xbe121796	-0.1426681
59	0xbea3182e	-0.31854385
60	0xbccbcf9c	-0.02487927
61	0x3d9dbfc0	0.07702589
62	0x3cd6be46	0.026213776
63	0xbd10c098	-0.03533992
64	0x3ea573a8	0.323148
65	0x3e86e80d	0.26348916
66	0xbd9787c5	-0.07398943
67	0x3e897640	0.2684803
68	0x3f0e3527	0.55549854
69	0xbc506755	-0.012719949
70	0x3e974d64	0.29551232
71	0x3da24e40	0.07925081
72	0x3ecad089	0.39612225
73	0x3c4660dd	0.012108055
74	0xbd8531d9	-0.06503648
75	0xbd8073a6	-0.06272058
76	0xbe170c8a	-0.14750877
77	0xbec957ae	-0.39324707
78	0xbe98776f	-0.2977862
79	0x3eaee6ae	0.3416037
80	0x3f3673f4	0.7127068
81	0xbee3def0	-0.44506025
82	0x3f62005e	0.8828181
83	0x3d3de119	0.046357248
84	0xbee47097	-0.4461715
85	0x3f5fcee6	0.87425077
86	0x3f0f37c5	0.5594447
87	0x3f0de96c	0.554343
88	0x3d61ab17	0.055094805
89	0x3d99283b	0.074783765
90	0xbe2e5a00	-0.1702652
91	0x3f0923c5	0.53570205
92	0x3f6180fb	0.88087434
93	0x3e8603e8	0.26174855
94	0x3ea6f542	0.32608992
95	0xbf235e10	-0.63815403
96	0xbf0b4bb9	-0.5441242
97	0x3e19da87	0.15024768
98	0xbefe831c	-0.49709404
99	0x3c30feb8	0.010802917
100	0x3d198539	0.037480567
101	0xbec95a95	-0.3932692
102	0x3db95345	0.090490855
103	0xbdcb63aa	-0.09931119
104	0xbeca5420	-0.39517307
105	0xbe9b4d0e	-0.30332226
106	0x3f16da4a	0.5892683
107	0xbf3ad641	-0.72983176
108	0xbdc9f8fb	-0.098619424
109	0x3f220b83	0.63298815
110	0x3c4d255f	0.012521117
111	0x3ceb9b28	0.028760508
112	0x3c07b7bc	0.008283552
113	0x3df37f34	0.118894964
114	0xbeaf570e	-0.34246105
115	0x3df2f07c	0.11862275
116	0xbe2f46ec	-0.17116898
117	0xbe469c46	-0.19395551
118	0xbee24998	-0.44196773
119	0xbe9c2adf	-0.30501458
120	0xbf228c1a	-0.6349503
121	0xbf19465d	-0.5987299
122	0x3f3cf42c	0.73810077
123	0xbe8c2340	-0.27370644
124	0xbefe7c8a	-0.4970439
125	0x3f02b51c	0.510576
126	0xbcc075e1	-0.023493709
127	0x3eea0218	0.45704722
128	0x3d657ac8	0.056025296
129	0xbf121463	-0.5706236
130	0x3f06bf30	0.5263548
131	0xbf43eaf5	-0.7653039
132	0xbda39132	-0.07986678
133	0x3e986272	0.29762608
134	0x3e574090	0.21020722
135	0x3d6e4b00	0.058176994
136	0x3ed2155c	0.4103192
137	0x3efda982	0.49543387
138	0xbf0af205	-0.5427554
139	0x3e9e4b36	0.30916756
140	0x3ec26adb	0.3797215
141	0xbea0ef45	-0.31432548
142	0x3e7030a8	0.23456061
143	0xbeccc7a7	-0.39996073
144	0x3eb11a44	0.34590352
145	0xbdb84584	-0.08997634
146	0x3ddc0937	0.10743945
147	0xbdf9beda	-0.12194605
148	0xbe8529e7	-0.2600853
149	0x3ebef544	0.37296498
150	0x3ed13f8e	0.408688
151	0xbd01481b	-0.031562906
152	0x3dbbeb20	0.09175706
153	0x3e7856b4	0.24251825
154	0xbefd21d4	-0.4943987
155	0x3ec7b84d	0.39007798
156	0xbe4c28c2	-0.19937423
157	0xbebf7452	-0.37393433
158	0x3f2368fa	0.63832057
159	0xbf097985	-0.5370105
160	0x3dd3741c	0.103248805
161	0xbf051df2	-0.5199882
162	0x3ea27a21	0.31733802
163	0x3de90fcd	0.11379967
164	0x3efffe3e	0.4999866
165	0x3f0cdf08	0.5502782
166	0x3e678739	0.22610177
167	0x3f1f7efc	0.6230314
168	0xbdac491e	-0.084123835
169	0x3f3588fd	0.7091215
170	0x3e4930c8	0.19647515
171	0xbf06b442	-0.526188
172	0xbe259bd5	-0.16172726
173	0xbf281b1d	-0.6566637
174	0xbf3a76c6	-0.72837484
175	0xbe2c702c	-0.16839665
176	0x3e6832aa	0.22675577
177	0xbf4112dd	-0.7541941
178	0x3f3d0cab	0.73847455
179	0xbe887a92	-0.26656014
180	0xbe927291	-0.28603032
181	0x3ed9b216	0.4251868
182	0xbd3009c4	-0.042978063
183	0x3d1d8c72	0.038464017
184	0x3f0f3892	0.55945694
185	0x3f28eca9	0.65986115
186	0xbdf95ade	-0.12175535
187	0x3e841093	0.25793895
188	0x3e915654	0.28386176
189	0xbd377c12	-0.044796057
190	0x3f13711a	0.57594454
191	0xbe472f4f	-0.1945164
192	0xbeea6ecb	-0.45787653
193	0x3eac8747	0.33696958
194	0xbf020bd5	-0.50799304
195	0x3e5805ed	0.2109601
196	0xbce1e316	-0.027574103
197	0x3d543a79	0.051813576
198	0xbb992570	-0.0046736524
199	0xbea0deaf	-0.31419894
200	0xbea5c91d	-0.3238
201	0xbee25c5e	-0.44211096
202	0x3e900cf2	0.28134876
203	0xbdd71845	-0.10502676
204	0xbee0564f	-0.43815848
205	0xbe11fb7b	-0.14256088
206	0xbf07d868	-0.53064585
207	0x3ecc99fc	0.3996123
208	0xbf0afd67	-0.5429291
209	0x3cb8ec55	0.02257363
210	0xbf3a7ce0	-0.72846794
211	0x3e731a2c	0.23740453
212	0x3e993887	0.2992594
213	0xbf4a95bc	-0.79134727
214	0xbf2b0f07	-0.66819805
215	0xbf0eedcb	-0.55831593
216	0x3d11f871	0.035637323
217	0xbf46322c	-0.77420306
218	0x3e8e4d0a	0.2779315
219	0xbed68c24	-0.41903794
220	0xbf437529	-0.7635065
221	0xbe43e906	-0.1913186
222	0xbecbb3c1	-0.3978558
223	0x3f5771c5	0.84157974
224	0xbe3f6e73	-0.18694477
225	0xbd850f3d	-0.06497047
226	0xbea2af55	-0.31774393
227	0x3e2f0fab	0.1709582
228	0xbf143a2a	-0.5790125
229	0xbe673549	-0.2257892
230	0xbf274957	-0.6534628
231	0x3c709035	0.014682819
232	0xbea204a6	-0.3164417
233	0xbf286e1b	-0.6579301
234	0x3f20d311	0.6282206
235	0xbf09b87b	-0.5379712
236	0xbea593d7	-0.32339355
237	0x3e2cd76f	0.16879056
238	0xbef94f9d	-0.48693553
239	0x3e0a89f0	0.13529181
240	0xbd81f957	-0.06346386
241	0x3ed8b4a1	0.4232531
242	0xbe20fc4d	-0.15721245
243	0x3f0fc573	0.5616066
244	0x3f0574ad	0.5213116
245	0xbf1403c8	-0.5781827
246	0xbeb84fed	-0.3599848
247	0xbd4655a6	-0.048421524
248	0xbf1cca2f	-0.6124601
249	0xbf252cb5	-0.6452134
250	0x3f337c29	0.7011133
251	0xbe338d78	-0.17534435
252	0xbe469603	-0.19393162
253	0x3f55ac9e	0.8346652
254	0xbf209724	-0.6273062
255	0x3f1a5c9a	0.6029755

weight f4 [16, 16]
0	0x3e48730d	0.19575138
1	0xbea08f4e	-0.31359333
2	0xbea80790	-0.3281827
3	0x3de38dd9	0.1111104
4	0x3c9e1480	0.019296885
5	0x3e3dbe30	0.18529582
6	0x3e91d159	0.28480032
7	0xbecd585d	-0.40106478
8	0x3ead4724	0.33843338
9	0xbed5ed73	-0.41782722
10	0xbdc4b165	-0.09604148
11	0xbe1b8040	-0.15185642
12	0x3ed00e54	0.40635931
13	0xbe784bd0	-0.2424767
14	0xbcdd682c	-0.027027212
15	0xbea45b79	-0.32101038
16	0xbeabd8e4	-0.33563912
17	0xbec51d61	-0.38498977
18	0x3e83b3b7	0.2572305
19	0xbe0c8f08	-0.13726437
20	0xbec8d12d	-0.39222088
21	0x3b2d2782	0.0026421254
22	0xbe584392	-0.21119526
23	0xbe3f6069	-0.18689121
24	0xbd030fc6	-0.031997465
25	0x3e3e4a59	0.18583049
26	0xbe8b4b06	-0.27205676
27	0xbea1e9e7	-0.31623766
28	0xbe36341d	-0.17793317
29	0xbd65df58	-0.0561212
30	0x3db9f7da	0.09080477
31	0xb9dca5a4	-0.00042085082
32	0x3edbd64b	0.4293693
33	0x3e3afdef	0.1826093
34	0x3c95c3eb	0.018281898
35	0xbed90793	-0.4238859
36	0xbebe77ee	-0.37200874
37	0x3d480815	0.048835833
38	0xbe1ee95e	-0.1551871
39	0xbda38286	-0.0798388
40	0x3d922359	0.07135648
41	0x3ed1580a	0.4088748
42	0x3e577f7f	0.2104473
43	0x3ea1f225	0.31630054
44	0xbeb53ee6	-0.3539955
45	0x3eb578a4	0.35443604
46	0x3e86b3b2	0.26308972
47	0x3e93477e	0.28765482
48	0xbd7091fd	-0.058732975
49	0xbe21add1	-0.15788962
50	0xbec0a16c	-0.37623155
51	0xbebe0ae4	-0.37117684
52	0xbe980a12	-0.29695183
53	0x3e92eb55	0.2869517
54	0xbea7228a	-0.3264354
55	0x3ed28457	0.41116592
56	0x3e70ea29	0.23526825
57	0xbe3eeae0	-0.18644285
58	0x3e0e0fab	0.13873164
59	0x3ebd6806	0.36993426
60	0xbe9b1cd9	-0.30295447
61	0xbe28a353	-0.16468553
62	0xbedc2046	-0.42993373
63	0xbca0fffd	-0.019653315
64	0x3e87a08e	0.2648968
65	0x3e8b97d4	0.27264273
66	0x3e563cba	0.20921603
67	0x3c452ff8	0.012035362
68	0xbe8cd0f0	-0.27503157
69	0xbeaef3c1	-0.34170344
70	0xbb7d2825	-0.0038628664
71	0x3e004ba2	0.12528852
72	0x3cbdedb2	0.023184631
73	0x3e8ff517	0.28116676
74	0xbe3fcb33	-0.18729858
75	0x3cb2bb27	0.021817757
76	0xbdaf8c4e	-0.08571683
77	0xbe353237	-0.17694937
78	0xbe8749be	-0.26423448
79	0xbe3f5af5	-0.18687041
80	0x3eb32b47	0.34993955
81	0x3ed9ff40	0.42577553
82	0xbe312a58	-0.17301309
83	0xbe93af10	-0.288445
84	0xbe18786d	-0.14889689
85	0x3e722af1	0.23649193
86	0xbd1ef0da	-0.038803913
87	0x3e2d88bf	0.16946696
88	0x3e8b5c88	0.27219033
89	0xbe1c181e	-0.15243575
90	0xbeac912b	-0.33704504
91	0x3e095a79	0.13413419
92	0x3da8ff99	0.082518764
93	0x3ea969d9	0.33088568
94	0x3e220746	0.15823087
95	0x3e345008	0.17608654
96	0x3eb55b43	0.3542119
97	0x3e5a47bc	0.21316427
98	0x3e18a148	0.14905274
99	0x3ea7b750	0.32757044
100	0x3eaefecc	0.3417877
101	0x3cd5d1ad	0.026100958
102	0x3e177117	0.14789234
103	0xbe8225ce	-0.25419468
104	0xbd88b52b	-0.0667518
105	0xbd408295	-0.046999533
106	0xbea4ae6a	-0.32164317
107	0x3e0d421c	0.1379475
108	0xbed9682f	-0.42462298
109	0xbe08bf47	-0.13354217
110	0xbebb813b	-0.36622033
111	0x3c7ba1c8	0.015358396
112	0xbe784a34	-0.24247056
113	0x3e8e20c7	0.27759382
114	0xbe293ba3	-0.16526656
115	0xbe8a5285	-0.27016082
116	0x3e184ae8	0.14872324
117	0x3d23acbe	0.03995966
118	0x3c8c9b43	0.017163878
119	0xbece0329	-0.40236786
120	0xbe8a762f	-0.27043292
121	0xbece5a08	-0.40303063
122	0x3da8b579	0.08237738
123	0xbe566574	-0.20937139
124	0xbecfc152	-0.4057718
125	0x3e2f535d	0.17121644
126	0x3d844182	0.06457807
127	0x3ebbf159	0.3670757
128	0xbc7f7db4	-0.015593935
129	0xbe979ae0	-0.29610348
130	0xbe1ad1d0	-0.151191
131	0xbebdd466	-0.3707611
132	0xbd8f9341	-0.07010508
133	0x3e280717	0.16408955
134	0xbe9c495a	-0.30524713
135	0xbed28120	-0.4111414
136	0xbd187361	-0.03721941
137	0xbe94798b	-0.2899898
138	0xbe286aae	-0.16446945
139	0xbe3dc62c	-0.18532628
140	0xbe4c039c	-0.19923252
141	0xbe92a48e	-0.2864117
142	0x3ea5a0e0	0.323493
143	0x3d809669	0.062786885
144	0x3e65294e	0.22379038
145	0xbe10361f	-0.14083146
146	0x3eccd93c	0.40009487
147	0xbecd97c2	-0.40154845
148	0xbe55499a	-0.20828858
149	0xbec4ac35	-0.38412634
150	0x3e12ca47	0.14334975
151	0x3de57518	0.112039745
152	0x3ec1ae8f	0.3782849
153	0x3eae72a3	0.34071836
154	0xbe5acc54	-0.21367007
155	0x3ed0129c	0.40639198
156	0xbdb64e8b	-0.089017
157	0xbe2f179f	-0.17098854
158	0xbcd439ab	-0.025906404
159	0x3edb1ddf	0.42796227
160	0xbeaa1f0f	-0.3322682
161	0xbd0b87b4	-0.034064963
162	0xbeabe8d7	-0.3357608
163	0x3eb490be	0.3526668
164	0x3e8b503f	0.2720966
165	0xbec96586	-0.3933527
166	0x3db6980c	0.089157194
167	0x3e2af6f6	0.1669577
168	0x3dc1720a	0.09445579
169	0xbed75ef9	-0.42064646
170	0x3e95430b	0.29152712
171	0xbc82dce5	-0.015974471
172	0x3e8764f1	0.264442
173	0x3e33fa8a	0.17576042
174	0x3edbe239	0.42946032
175	0xbdb1eb3a	-0.08687444
176	0x3e1570d5	0.14593823
177	0xbe0b12f4	-0.13581449
178	0x3e027410	0.12739587
179	0xbeb44e86	-0.3521616
180	0x3e6556b0	0.2239635
181	0x3c3551a9	0.011066833
182	0xbe1a1e47	-0.15050612
183	0xbe6fd6b2	-0.23421744
184	0x3ea93214	0.3304602
185	0x3e8f4148	0.27979493
186	0xbeb067ec	-0.34454286
187	0x3e1f8964	0.15579754
188	0xbe5137de	-0.20431468
189	0x3e0d654e	0.13808176
190	0xbe54beff	-0.20775984
191	0xbe4d8732	-0.20071104
192	0xbe5bd8f9	-0.21469487
193	0xbe89ee8b	-0.26939806
194	0x3e449693	0.19198065
195	0xbda50480	-0.08057499
196	0x3e68ca55	0.22733434
197	0x3c9380df	0.018005786
198	0xbebe3c8c	-0.3715557
199	0x3e38168b	0.1797735
200	0x3db858cf	0.09001314
201	0xbe73dc97	-0.23814617
202	0x3e8c4bc2	0.2740155
203	0xbe06357d	-0.13106342
204	0xbda4b90d	-0.08043108
205	0x3d5a74c8	0.053334028
206	0x3eb542ce	0.3540253
207	0x3da7c8f0	0.08192623
208	0x3e817bc4	0.25289738
209	0x3edbbbae	0.42916626
210	0xbeaf0f2f	-0.34191272
211	0xbe7b4e9b	-0.24541704
212	0x3e001991	0.12509753
213	0x3e92421d	0.28566065
214	0xbedadcd8	-0.42746615
215	0xbedd8f93	-0.432736
216	0x3e259dd4	0.16173488
217	0x3edaff79	0.42773035
218	0x3e23eaef	0.16007589
219	0x3e8a4313	0.270043
220	0x3d97f02d	0.07418857
221	0x3e5af90a	0.21384063
222	0x3d055099	0.032547567
223	0xbd8d93e5	-0.06912974
224	0x3e5b5b36	0.21421513
225	0xbed86055	-0.42260996
226	0x3e9e8910	0.30963945
227	0xbdcb6558	-0.09931439
228	0x3ebb1bd5	0.36544672
229	0x3da3d472	0.07999505
230	0x3e29d5c3	0.1658545
231	0x3ec07b8f	0.37594268
232	0x3d37a0f1	0.04483122
233	0x3e5e324e	0.21698877
234	0xbe211bee	-0.1573331
235	0x3d52d8ed	0.051476408
236	0xbe608a31	-0.21927716
237	0xbe828f01	-0.25499728
238	0x3d147132	0.036240764
239	0xbde98f2d	-0.11404262
240	0xbdd4480a	-0.10365303
241	0xbd8c8d0e	-0.068628415
242	0x3ecd6db7	0.40122768
243	0xbd844cfb	-0.06459995
244	0xbe3d6fcc	-0.18499678
245	0xbe47c056	-0.19506964
246	0xbed10f94	-0.40832198
247	0xbeb2b5a9	-0.3490422
248	0x3e8eac40	0.2786579
249	0x3ecf0cc9	0.40439442
250	0xbe6143b2	-0.2199848
251	0x3e4bc795	0.19900353
252	0x3eb0adbf	0.34507558
253	0xbe64b5a6	-0.22334918
254	0xbec6c6b3	-0.3882347
255	0xbe5a70e9	-0.21332134

att_src f4 [1, 1, 16]
0	0x3f13f375	0.5779336
1	0xbc258ff2	-0.01010512
2	0x3d90c48a	0.07068737
3	0xbe3e3802	-0.18576053
4	0x3ec6a71f	0.38799378
5	0x3e41f96f	0.18942808
6	0x3eb6b9c2	0.35688597
7	0xbe99a3a0	-0.30007648
8	0xbefacaac	-0.4898275
9	0xbdee999f	-0.11650395
10	0xbe302d5e	-0.17204806
11	0x3c543414	0.0129518695
12	0xbe456e14	-0.19280273
13	0x3e8c4da7	0.27402994
14	0xbeee3ab2	-0.46529156
15	0x3f17b9d5	0.5926793

att_dst f4 [1, 1, 16]
0	0xbcec3768	-0.028835014
1	0x3e9ddf40	0.3083439
2	0x3f19459e	0.5987185
3	0x3f5e3002	0.86792004
4	0xbf0004d8	-0.5000739
5	0x3d50c417	0.050968256
6	0x3d255ef3	0.040373754
7	0x3edd3cb4	0.43210375
8	0xbe62ff2f	-0.22167657
9	0xbe81d223	-0.25355634
10	0x3eb87537	0.36026928
11	0x3d26ba93	0.040705275
12	0x3f40a735	0.7525514
13	0xbe842c3c	-0.25814998
14	0x3f533791	0.8250666
15	0xbf53a6bc	-0.8267629

bias f4 [16]
0	0xbea779a6	-0.32709998
1	0x3eb8e779	0.361141
2	0xbeb24f20	-0.34825993
3	0xbe5ceb89	-0.21574225
4	0x3d4bb0b9	0.049729083
5	0xbdb57289	-0.088597365
6	0xbec630a2	-0.3870898
7	0xbea76a10	-0.32698107
8	0x3e0230ca	0.12713924
9	0xbe613407	-0.21992503
10	0x3eac5bff	0.33663937
11	0x3f0637a5	0.52428657
12	0x3e8a6665	0.27031246
13	0xbeaed7c0	-0.3414898
14	0x3decbad2	0.11559071
15	0xbec9f0f6	-0.3944165

weight f4 [16, 16]
0	0xbf1d3b56	-0.61418664
1	0x3f001e48	0.50046206
2	0xbf266199	-0.6499267
3	0xbf245444	-0.6419108
4	0x3e8b73f1	0.27236894
5	0x3c4c9dc6	0.012488788
6	0x3f370cae	0.7150372
7	0x3f101f0d	0.5629738
8	0x3ea3cae6	0.31990737
9	0xbeeb1d46	-0.4592077
10	0xbe482c49	-0.19548143
11	0xbf3f036b	-0.7461459
12	0x3c417ef3	0.011810052
13	0xbdfc12fa	-0.12308307
14	0x3e93c095	0.28857866
15	0xbe83dd04	-0.2575456
16	0x3f0d2ff5	0.551513
17	0xbeb8146e	-0.35953087
18	0x3e87141d	0.26382533
19	0xbd036923	-0.032082688
20	0xbe8a98b8	-0.2706964
21	0xbef040b2	-0.4692436
22	0xbebf3246	-0.37343043
23	0xbe3db7f8	-0.1852721
24	0xbdc97007	-0.09835821
25	0x3f43456b	0.762778
26	0x3f2621c4	0.6489527
27	0x3e9e4391	0.30910924
28	0x3e201246	0.15631971
29	0x3e085901	0.13315202
30	0x3d39218c	0.04519801
31	0x3ef13126	0.4710781
32	0x3d650f87	0.05592301
33	0x3ed1dcb7	0.40988705
34	0x3d505ad2	0.050867863
35	0xbeda3ebb	-0.42625985
36	0x3e8071e8	0.25086904
37	0xbca29081	-0.019844295
38	0x3f21e99e	0.63247097
39	0x3ddaebcb	0.10689505
40	0x3f0da7d0	0.55334187
41	0xbe34f1ef	-0.17670415
42	0xbf0a8ec4	-0.54124093
43	0xbe6bd1de	-0.23029277
44	0xbefe1883	-0.49628076
45	0xbe0dce8d	-0.13848324
46	0x3f3276c9	0.697125
47	0xbe88c81c	-0.2671517
48	0xbf3d86ac	-0.7403362
49	0x3f2207de	0.63293254
50	0xbe54fea5	-0.20800264
51	0xbf3ae0be	-0.7299918
52	0xbf057400	-0.52130127
53	0x3f14623f	0.5796241
54	0x3e6abcb8	0.22923553
55	0x3e93b933	0.28852233
56	0xbe58ea8b	-0.21183221
57	0xbea9330f	-0.33046767
58	0xbcde5424	-0.02713973
59	0xbed02a13	-0.406571
60	0x3e6c7f58	0.23095453
61	0xbe502659	-0.20327128
62	0xbd7e881e	-0.06214153
63	0x3c95a0de	0.018265184
64	0x3e74edcc	0.23918837
65	0xbf0f11e5	-0.5588668
66	0xbd540b80	-0.05176878
67	0x3f055960	0.520895
68	0x3f45de01	0.77291876
69	0xbec27964	-0.3798324
70	0xbd9a928c	-0.07547483
71	0xbc0a5635	-0.008443405
72	0x3c801dd8	0.01563923
73	0x3ee82e24	0.45347703
74	0x3eb2a2f8	0.3488996
75	0xbd9257e4	-0.0714567
76	0xbebd2932	-0.36945492
77	0x3e2d4453	0.16920595
78	0x3ea38a7e	0.319416
79	0xbbaf6eb3	-0.0053537725
80	0x3e965c95	0.2936751
81	0xbede2e4f	-0.43394706
82	0x3da56076	0.08075039
83	0xbc2bec60	-0.010493368
84	0x3ed4e315	0.415795
85	0xbe01ccc9	-0.12675776
86	0xbcbeb719	-0.023280667
87	0x3e3e4d14	0.1858409
88	0xbdc12ab1	-0.09431971
89	0x3edacf0c	0.4273609
90	0xbeb3831e	-0.35060972
91	0x3ee62295	0.4494826
92	0x3e95d1cb	0.29261622
93	0x3bb1161a	0.005404246
94	0x3ee825fd	0.45341483
95	0xbdc40163	-0.09570577
96	0xbf245fd2	-0.6420871
97	0x3f413723	0.75474757
98	0xbe982966	-0.29719085
99	0xbf123e86	-0.57126653
100	0xbe6c3c82	-0.23069957
101	0x3f222cef	0.63349813
102	0x3ef481c9	0.47755268
103	0x3f5dc8c9	0.866345
104	0xbe7ccb1a	-0.24686852
105	0xbe9bff2c	-0.30468118
106	0xbf5811a8	-0.8440194
107	0xbf422183	-0.75832385
108	0xbf2ca2c8	-0.67435884
109	0xbf62c178	-0.8857646
110	0x3e4fe91f	0.20303772
111	0x3ed33961	0.41254714
112	0xbf13a40a	-0.5767218
113	0xbdfc6797	-0.12324446
114	0x3e09df46	0.13464078
115	0xbf2a3014	-0.6647961
116	0xbe5f3e97	-0.2180122
117	0x3d119866	0.03554573
118	0x3ee254fd	0.44205466
119	0x3e1b7e10	0.15184808
120	0x3e6dc995	0.23221429
121	0xbea21f47	-0.31664488
122	0x3d65fedd	0.05615126
123	0xbecfd9c6	-0.40595835
124	0xbdf50b64	-0.11965063
125	0x3c52279b	0.0128268255
126	0xbd9cf562	-0.076639906
127	0x3c3f6639	0.011682087
128	0xbde0f846	-0.109848544
129	0xbe0dc2eb	-0.13843887
130	0x3e957dec	0.29197633
131	0x3f01e915	0.5074628
132	0xbe19ff59	-0.15038814
133	0xbe1132b4	-0.14179498
134	0xbed13602	-0.40861517
135	0xbd82ad01	-0.06380654
136	0x3ea1eac9	0.3162444
137	0x3e94d78b	0.29070696
138	0xbe07dcaa	-0.1326777
139	0x3ec495fc	0.3839568
140	0x3e208f01	0.15679552
141	0xbdcefe24	-0.10107067
142	0x3ddc5506	0.107584044
143	0x3d9d9cbb	0.076959096
144	0x3c1b5f0c	0.00948311
145	0x3df1fda6	0.11815958
146	0x3e8e2166	0.27759856
147	0xbd143b05	-0.036189098
148	0x3f175845	0.59119064
149	0xbe1b4e49	-0.15166582
150	0x3ea544d3	0.3227907
151	0xbed60666	-0.41801757
152	0x3e6e10df	0.23248623
153	0xbc7bf10b	-0.015377293
154	0x3e3bab63	0.18327098
155	0xbdb21f88	-0.0869742
156	0xbef4dcd8	-0.4782474
157	0xbea820c9	-0.32837513
158	0x3e66ac50	0.2252667
159	0xbf500fd0	-0.8127413
160	0x3f28c1b6	0.6592058
161	0xbee09011	-0.43859914
162	0x3f681e1c	0.90670943
163	0x3ecd4945	0.40094963
164	0xbf136de7	-0.5758957
165	0xbf5c8308	-0.8613744
166	0xbefaedd7	-0.49009582
167	0xbf253e25	-0.6454795
168	0xbe9db6fb	-0.30803666
169	0x3f4d9337	0.8030276
170	0x3f3c82fd	0.7363737
171	0x3d248e52	0.04017479
172	0x3ea52faf	0.32262942
173	0x3f31c4b4	0.6944077
174	0xbc6f554b	-0.014607738
175	0xbde57049	-0.11203057
176	0x3f2da26e	0.67825973
177	0xbf66fd1c	-0.90229964
178	0x3e2c1a39	0.16806878
179	0x3e72a345	0.23695095
180	0x3f13d772	0.5775062
181	0xbf3c8ba4	-0.73650575
182	0xbf331d38	-0.6996646
183	0xbf1beb80	-0.6090622
184	0x3e9beca3	0.30453977
185	0x3f559b8c	0.8344047
186	0x3f54487d	0.8292311
187	0x3f5fee66	0.8747314
188	0xbc3abaf4	-0.011397112
189	0x3f03d311	0.51493937
190	0x3f059914	0.52186704
191	0xbe3f7805	-0.18698128
192	0x3dc680c6	0.0969253
193	0xbf0f6ecb	-0.5602843
194	0x3e8f4943	0.27985582
195	0x3f14c524	0.5811331
196	0x3f4a2cd9	0.7897468
197	0xbf11a8bf	-0.5689811
198	0xbe290548	-0.16505921
199	0xbf43871f	-0.76378053
200	0x3e916828	0.28399777
201	0x3caab6f7	0.020839198
202	0x3e9aff4c	0.302729
203	0x3ea7a31e	0.32741636
204	0xbe5416e3	-0.20711856
205	0x3e1aa9e0	0.15103865
206	0x3f2990ac	0.66236377
207	0xbf074a24	-0.52847505
208	0xbec1eeba	-0.37877446
209	0xbe03ba61	-0.12864067
210	0xbe227d1c	-0.15868038
211	0xbe808b9d	-0.25106516
212	0x3f1307f4	0.5743401
213	0x3ee3c329	0.44484833
214	0x3eebf92b	0.46088538
215	0x3d98f253	0.07468095
216	0x3f1d0e41	0.61349875
217	0xbf0e174f	-0.55504316
218	0x3d58c678	0.05292365
219	0xbea75fa0	-0.32690144
220	0xbe702762	-0.23452523
221	0xbdc27b83	-0.09496214
222	0xbe0193d3	-0.12654047
223	0xbf11e58a	-0.56990874
224	0x3dd3d8ed	0.1034411
225	0xbceb9aa4	-0.028760262
226	0x3f366861	0.7125302
227	0x3e0e99c2	0.13925841
228	0x3f40df91	0.75341135
229	0x3da32bba	0.079673246
230	0x3b91b438	0.0044465326
231	0xbe69a417	-0.22816502
232	0x3df1966a	0.11796267
233	0x3f057501	0.5213166
234	0x3e899a82	0.26875693
235	0x3e31c39a	0.17359772
236	0xbe80ca4f	-0.2515435
237	0x3e15ad8a	0.14616981
238	0x3e4e3972	0.20139101
239	0xbe7af728	-0.24508345
240	0xbf32fd0a	-0.69917357
241	0x3f6b0462	0.9180356
242	0xbeb459d4	-0.35224783
243	0xbf0ae6c8	-0.54258394
244	0xbf0a76c8	-0.54087496
245	0x3ef3d34a	0.47622138
246	0x3f7ba0d4	0.9829228
247	0x3f039d76	0.5141214
248	0x3eadaa72	0.33919102
249	0xbe1dc414	-0.15406829
250	0xbe10b9e9	-0.14133419
251	0xbe8a6f23	-0.27037916
252	0x3bdb4d99	0.0066926
253	0xbf66ea43	-0.90201205
254	0x3d51b288	0.05119565
255	0x3e9f25b2	0.31083447

weight f4 [16, 16]
0	0x3f18bcc6	0.59663045
1	0xbf0ac451	-0.54205805
2	0xbf12f1e7	-0.57400364
3	0x3c4f518a	0.012653718
4	0xbe854b77	-0.26034138
5	0x3da45478	0.08023924
6	0x3d39e352	0.045382805
7	0xbef14b7f	-0.4712791
8	0x3f11311a	0.5671555
9	0x3ea78cbe	0.32724565
10	0x3e49d424	0.19709831
11	0x3dcbc4b6	0.09949629
12	0x3ef3f510	0.47647905
13	0xbf379248	-0.7170758
14	0x3e74a444	0.23890787
15	0xbcb942ee	-0.022614922
16	0x3f2e55d2	0.680997
17	0xbec1113f	-0.3770847
18	0x3dd0381a	0.101669505
19	0xbec5bf21	-0.38622382
20	0xbee664d1	-0.44998792
21	0x3e98d1f3	0.2984768
22	0xbf165170	-0.58718014
23	0xbf029a94	-0.5101712
24	0x3ea82dca	0.32847434
25	0x3f387b0b	0.7206275
26	0x3ec72b53	0.3890024
27	0x3ed73bfb	0.4203795
28	0x3ec1f4e9	0.37882164
29	0xbe5b710d	-0.21429844
30	0xbc34f092	-0.011043685
31	0xbd2804ce	-0.041020207
32	0xbf198b8b	-0.5997855
33	0x3f1a9c60	0.6039486
34	0x3f32d706	0.6985935
35	0x3f3e8f73	0.74437636
36	0xbd45c606	-0.048284553
37	0xbd9a7636	-0.07542078
38	0x3cac5877	0.021038277
39	0x3eb1e63d	0.3474597
40	0xbf24566d	-0.64194375
41	0xbda881e3	-0.08227899
42	0xbeac1e2e	-0.33616775
43	0xbf194b82	-0.5988084
44	0xbf0a27b3	-0.53966826
45	0x3eacff59	0.33788565
46	0x3daef926	0.08543615
47	0xbf296f18	-0.6618514
48	0xbf3ea659	-0.74472576
49	0x3f1e4fcd	0.61840516
50	0x3f1b335e	0.60625255
51	0x3efef4a2	0.49796015
52	0x3e41f092	0.18939427
53	0xbf1ac100	-0.60450745
54	0x3eca3fc6	0.3950178
55	0x3e87cbb1	0.26522592
56	0xbe2b8fc4	-0.16754061
57	0xbf3ecfd5	-0.74535877
58	0xbf1b0058	-0.605474
59	0xbe61f868	-0.22067416
60	0x3d43ee75	0.047834832
61	0x3f2e3d71	0.680625
62	0xbf00983b	-0.50232285
63	0xbe2dce67	-0.16973267
64	0x3dfba2d5	0.12286917
65	0xbf0e1a78	-0.5550914
66	0xbf414dae	-0.75509155
67	0xbf3e992c	-0.7445247
68	0xbdbfc5ae	-0.09363876
69	0xbd09b846	-0.033623002
70	0xbf37ac09	-0.7174688
71	0xbf3b8017	-0.73242325
72	0x3e0d71dc	0.13812965
73	0x3f076af6	0.52897584
74	0x3db80bba	0.08986612
75	0x3deb30a6	0.11483888
76	0x3ecc56be	0.3990993
77	0xbea50a6b	-0.3223451
78	0x3f39cda9	0.7257944
79	0x3d6fe2c4	0.05856587
80	0x3eb3dd71	0.35129884
81	0xbed53d34	-0.41648257
82	0xbf0ef1bc	-0.5583761
83	0xbe3dca09	-0.18534102
84	0x3dafb14f	0.08578741
85	0x3ce60e0b	0.028082868
86	0xbf282380	-0.6567917
87	0x3d7a488a	0.061104335
88	0x3f22990d	0.63514787
89	0x3eec2747	0.46123716
90	0xbcfca862	-0.03084201
91	0x3ea94ab0	0.33064795
92	0x3e26e557	0.16298424
93	0xbf037520	-0.51350594
94	0x3db78a21	0.08961893
95	0x3f02be94	0.5107205
96	0x3efa567d	0.4889411
97	0xbe902620	-0.28154087
98	0x3d7341ab	0.059388798
99	0xbe599a54	-0.21250278
100	0xbf005014	-0.5012219
101	0x3e1b25d5	0.1515115
102	0xbdf3d096	-0.11905019
103	0xbdcaefb3	-0.09909
104	0x3e4f9f84	0.20275694
105	0x3f35e4fc	0.7105253
106	0x3ee1ef5f	0.44127938
107	0x3f1af324	0.60527253
108	0x3cceb1d5	0.025231281
109	0xbf3116fc	-0.69175696
110	0x3ebc8a6b	0.36824355
111	0xbd9f3912	-0.07774557
112	0xbde9f2e0	-0.11423278
113	0x3e4ee757	0.20205437
114	0x3de2d445	0.110756435
115	0xbd80faed	-0.0629786
116	0x3e18753f	0.14888476
117	0xbef29f13	-0.4738699
118	0x3f0639c6	0.52431905
119	0x3f2ab298	0.6667876
120	0xbdf223e9	-0.118232556
121	0xbececde4	-0.40391457
122	0xbf2dbb39	-0.67863804
123	0x3c1b93a6	0.009495651
124	0xbea3b11f	-0.3197107
125	0x3ef65715	0.48113313
126	0xbe3f8011	-0.18701197
127	0xbf25bcba	-0.647411
128	0xbf0341a7	-0.5127205
129	0x3d7ac64c	0.061224267
130	0x3d3eedf4	0.04661365
131	0x3f2692a1	0.6506749
132	0x3ec7afd2	0.39001328
133	0xbdf9eaf1	-0.12203015
134	0xbd74d13e	-0.05976986
135	0x3ee612aa	0.44936115
136	0xbe8d00b1	-0.2753959
137	0xbe9740dd	-0.29541674
138	0x3d2fc128	0.042908818
139	0xbe70ac5e	-0.23503253
140	0xbd93ba09	-0.07213218
141	0x3cb27055	0.02178208
142	0xbf356ba2	-0.7086736
143	0xbe077c2e	-0.13230965
144	0xbd918c1d	-0.071068026
145	0xbe34e2b7	-0.1766461
146	0x3d79f1ef	0.06102174
147	0x3c618f0b	0.013767014
148	0xbe82f5e9	-0.2557824
149	0xbcab899f	-0.020939646
150	0xbe9a5e5e	-0.3015012
151	0x3dba7a2a	0.09105332
152	0x3ed4894f	0.41511008
153	0x3f2cf191	0.675561
154	0x3b9eb516	0.0048433645
155	0x3f2a4a1f	0.6651935
156	0x3f2dd4dd	0.6790293
157	0xbdccdcc0	-0.10003042
158	0x3e7fabc6	0.2496787
159	0xbd56b8a2	-0.052422173
160	0xbeb17836	-0.34662026
161	0x3f1d26ef	0.6138753
162	0x3d6f4bc6	0.058421873
163	0x3e38dfb1	0.18054081
164	0x3ecf60dd	0.40503588
165	0xbea7490f	-0.32672927
166	0x3ee6fad2	0.45113236
167	0xbbf06518	-0.00733627
168	0xbdb54368	-0.08850747
169	0xbe2dd7bd	-0.16976829
170	0xbecff980	-0.4062004
171	0xbda4c79c	-0.08045885
172	0xbf3f4a96	-0.74723184
173	0x3f2fb7a9	0.6863962
174	0xbea3be5f	-0.3198118
175	0xbe876056	-0.26440686
176	0x3e0834d1	0.13301398
177	0xbd074265	-0.033022303
178	0xbf292bb1	-0.6608229
179	0xbe6eac43	-0.233079
180	0xbe4f4e48	-0.20244706
181	0x3e1b6d11	0.15178324
182	0xbf1cf75a	-0.6131493
183	0xbe482b74	-0.19547826
184	0xbdc95c2e	-0.09832035
185	0x3ec66519	0.38749006
186	0x3edb6757	0.4285228
187	0x3f1661d3	0.5874302
188	0x3e14b79b	0.14523165
189	0xbd7b761c	-0.061391935
190	0x3e8bd0a4	0.27307618
191	0x3c55a7c1	0.013040484
192	0xbeeecfde	-0.46642965
193	0x3f275b64	0.65373826
194	0x3ea4d7c0	0.32195854
195	0x3d9bc46a	0.076058224
196	0x3dee6f4c	0.11642322
197	0xbdbefa2a	-0.09325059
198	0x3e92d8da	0.2868107
199	0x3e9c268f	0.30498168
200	0xbf36e2bd	-0.71439725
201	0xbf0edf57	-0.5580954
202	0xbeb2e90b	-0.34943423
203	0xbf350f15	-0.7072614
204	0xbe6301f4	-0.22168714
205	0x3f39c3f0	0.725646
206	0xbf413822	-0.75476277
207	0xbe07ef66	-0.13274917
208	0x3ee3bdb6	0.44480675
209	0xbf4032f0	-0.75077724
210	0xbe450d5e	-0.1924338
211	0xbeb9dcc8	-0.36301255
212	0xbf1aa0c7	-0.60401577
213	0x3e93b991	0.28852513
214	0xbe6563c6	-0.22401342
215	0x3d0f1392	0.034930773
216	0x3ef5f3da	0.48037606
217	0x3f1babd2	0.6080905
218	0x3ed4176e	0.41424125
219	0x3dffe784	0.1249533
220	0xbd53ecfe	-0.051739685
221	0xbe7269f6	-0.23673233
222	0xbd6ce4c3	-0.05783535
223	0x3d0a949f	0.033833142
224	0xbf133be7	-0.5751328
225	0x3e1e1f06	0.15441522
226	0x3eedc585	0.46439758
227	0x3f375799	0.7161804
228	0x3ec41cba	0.38303167
229	0xbf3e4834	-0.74328923
230	0x3efe74d3	0.49698505
231	0x3e69effc	0.22845453
232	0xbd000069	-0.03125039
233	0xbef06e80	-0.46959305
234	0xbe1401df	-0.14453839
235	0xbe0a240c	-0.13490313
236	0xbf1eea63	-0.62076396
237	0x3ee86e1e	0.45396513
238	0xbcb9901f	-0.02265173
239	0xbeb349eb	-0.35017332
240	0x3f101b59	0.5629173
241	0xbeaf1d45	-0.34202018
242	0xbdcbfda4	-0.099604875
243	0xbee01bca	-0.437712
244	0xbedae9d1	-0.42756513
245	0x3efdd443	0.49576005
246	0x3d21a808	0.039466888
247	0xbf04fb42	-0.5194589
248	0x3f188146	0.59572256
249	0x3f16b3fd	0.5886839
250	0x3f0044d0	0.50105
251	0x3cd1518d	0.025551582
252	0x3f2d509b	0.6770112
253	0xbf16fc7f	-0.5897903
254	0x3cd6be67	0.026213838
255	0x3ef3cbc4	0.47616398

att_src f4 [1, 1, 16]
0	0xbf3ace78	-0.72971296
1	0x3f405d27	0.7514214
2	0xbe8f6ee8	-0.28014302
3	0x3dc0ac0e	0.09407817
4	0xbe265d76	-0.1624659
5	0x3e17bde5	0.14818533
6	0xbea7d1fc	-0.32777393
7	0x3f570f21	0.8400746
8	0xbe32002a	-0.17382875
9	0x3e4e2758	0.20132196
10	0x3cbc7786	0.023006212
11	0xbf3d9f13	-0.74070853
12	0xbf4b27be	-0.79357517
13	0x3d738dfe	0.059461586
14	0x3f4fb5b0	0.8113661
15	0xbe1e127a	-0.15436736

att_dst f4 [1, 1, 16]
0	0xbdee9ee5	-0.116514005
1	0xbf12dd0b	-0.57368535
2	0xbed66cca	-0.41879874
3	0x3d0437b2	0.032279678
4	0x3e4ad7f8	0.19808948
5	0xbe661b52	-0.2247136
6	0xbe397934	-0.18112642
7	0xbf0a92ec	-0.54130435
8	0x3ea01457	0.31265518
9	0xbf04a809	-0.518189
10	0xbe79d792	-0.2439864
11	0x3e828ec6	0.25499552
12	0x3e82b8e9	0.255317
13	0xbd8f1be2	-0.0698774
14	0x3ee6fc93	0.45114574
15	0xbc144ed6	-0.009051999

bias f4 [16]
0	0x3e828a1a	0.25495988
1	0xbdf3e33d	-0.11908577
2	0xbeaa0699	-0.3320816
3	0xbd16384b	-0.03667478
4	0x3e4d379c	0.20040745
5	0xbeb2d381	-0.3492699
6	0x3ea620d0	0.3244691
7	0x3edabcaa	0.42722064
8	0xbeaf9988	-0.34296823
9	0xbef91f00	-0.48656464
10	0xbe88baac	-0.2670492
11	0xbead4e90	-0.33849
12	0x3e9227c3	0.2854596
13	0x3eb97d07	0.362282
14	0x3ead7b62	0.33883196
15	0x3eb0c534	0.34525454
