mlartifacts/403163061964527456/c2bcf99d74eb418ea546c4ae4a97da05/artifacts/models/data/model.pth (torch, 122706 bytes, 130 tensors)

bias f4 [8]
000000 70 3d 97 61 0a 71 e4 bd b0 ec 97 37 96 38 db be
       3.4873567e+20 -0.11154373 1.8110819e-05 -0.4281661
000010 20 00 00 00 00 00 00 00 bc 6c 57 3f 00 00 00 00
       4.5e-44 0.0 0.8415029 0.0

weight f4 [8, 3]
000000 92 6e 0d bf 93 a3 dd be 4a 30 e4 3e 70 09 4f bd
       -0.5524684 -0.4328886 0.44568092 -0.05054611
000010 a6 43 1d bf e3 a5 93 bf 25 4b b2 be 31 b6 01 3f
       -0.6143135 -1.1535 -0.34822956 0.5066863
000020 14 03 8d 3e 18 a6 0f bd 70 f3 ed 3d 35 bf 1f bf
       0.2754141 -0.03507051 0.11618698 -0.62401134
000030 c7 ab ef be 10 91 ff 3e ef 4a b5 be 0c b2 b0 3e
       -0.46810743 0.4991536 -0.35408732 0.3451084
000040 cd cd 73 3d d1 bd e8 be 70 c6 59 3e a7 cb 6a 3f
       0.05952244 -0.45457318 0.21267104 0.91717
000050 4a 7a 7c be 9b 81 71 3e 4f 20 82 be 55 45 ed be
       -0.24656025 0.23584597 -0.25415275 -0.4634196

weight f4 [8, 3]
000000 b8 74 5d 3e 8a eb 00 3e b6 50 7b bd f1 a0 b3 3e
       0.21626556 0.12589851 -0.06135627 0.35083726
000010 ef 18 a8 be ca e9 25 3e 88 fc ac 3e 78 c6 05 bf
       -0.32831523 0.16202465 0.33786416 -0.52255964
000020 48 49 db be 12 bf 85 be e6 07 d4 be 6f ce 02 bf
       -0.42829347 -0.26122338 -0.41412276 -0.5109624
000030 fa 26 1a 3e 96 f5 65 3e cc 81 c9 3d 36 cb 1e 3e
       0.15053931 0.22456965 0.0983921 0.15507206
000040 c4 27 14 3e 8a 88 51 bf 01 ca 4b be 19 86 5b bf
       0.14468294 -0.8184897 -0.19901277 -0.8575149
000050 0c 60 ba be cf 84 a4 3e b5 08 86 be c4 e2 c3 3e
       -0.36401403 0.32132575 -0.26178518 0.38258946

bias f4 [8]
000000 8e ad 22 3f 42 61 30 3e 65 d0 ca be d0 45 0c bf
       0.63546073 0.17224601 -0.39612117 -0.54794025
000010 48 4d 3e bf 7a a1 24 be 32 57 a0 bf 06 2c dc 3c
       -0.7433667 -0.16077223 -1.252661 0.02687646

weight f4 [8, 1]
000000 02 68 6f 3d cf 5d af 3f f0 b9 97 be 04 1d b6 be
       0.0584488 1.3700503 -0.29634047 -0.35569012
000010 10 99 66 3e 00 1a 58 bc 21 8b de be 92 34 4b bf
       0.22519326 -0.013189793 -0.43465522 -0.7937709

weight f4 [8, 1]
000000 1c 00 10 3f 01 4b 82 3d a0 5d 3e 3d f4 3b 8e 3d
       0.56250167 0.06361962 0.046476007 0.06945029
000010 88 fe 37 be 20 21 a6 bd cb b6 b0 bf d8 f7 d1 3e
       -0.1796819 -0.08111787 -1.3805784 0.41009402

bias f4 [8]
000000 40 23 39 3d 37 ae 2f 3f 24 19 7e bf 24 2d 2a bf
       0.045199633 0.68625206 -0.9925711 -0.6647513
000010 10 c5 ce bd 86 9c 7a bf e7 53 b9 3e 14 82 1c bf
       -0.100961804 -0.97895086 0.36196825 -0.61135983

weight f4 [8, 3]
000000 3e 73 1f bd 60 08 d0 bd 5a f0 b4 3e 74 38 89 bf
       -0.038928263 -0.101578474 0.35339624 -1.0720353
000010 18 fb ee 3d 7a 58 09 bf de e8 77 bd 31 aa 7d 3d
       0.11668986 -0.5365063 -0.060524814 0.061929885
000020 16 6d d0 3d d8 7f 02 bf fa 91 0c 3e f8 c1 ad be
       0.101770565 -0.50976324 0.1372756 -0.3393705
000030 0f 1e 18 3d 87 1b 5c 3e 15 ea 4c be 74 61 6f 3e
       0.03713804 0.21494876 -0.2001117 0.23377019
000040 ab 8c 72 be 97 82 07 bf 1d 0b 09 3e 4b 9d 3e 3f
       -0.23686473 -0.5293364 0.13383146 0.7445876
000050 8f 91 d0 3e 47 b2 0a bf 5c 29 01 bf 0c b6 67 bd
       0.40736052 -0.5417828 -0.50453734 -0.056570098

weight f4 [8, 3]
000000 ec 51 69 bd 16 57 87 3f 6f ac a0 be 3a a4 b0 3e
       -0.056962892 1.0573452 -0.31381556 0.34500295
000010 65 57 8a be b6 f6 b3 bd 33 b6 29 bf 6d 02 8c bc
       -0.27019802 -0.08787291 -0.6629364 -0.017091
000020 a0 7b 09 bf f4 c6 be be cc 9f e1 be 8e 1f 79 be
       -0.5370426 -0.37261164 -0.44067228 -0.24328443
000030 9e fc 30 3f 37 30 71 be cd da 6a bf 2f 91 30 3f
       0.69135463 -0.23553549 -0.91740113 0.6897153
000040 f9 ee 04 be 2a 8d bb 3e d0 f2 18 be 7b fb 1f bf
       -0.12981786 0.36631137 -0.14936376 -0.62493104
000050 e9 81 8b bf 9f b5 51 bf 4e 2e d6 bd 94 e0 a7 3d
       -1.089902 -0.81917757 -0.10458051 0.08197132

bias f4 [8]
000000 f9 dc ba be b8 95 12 bf ad f6 3e 3f 3a 40 77 be
       -0.36496714 -0.572597 0.7459515 -0.24145594
000010 11 79 87 be c7 25 5b 3e cc 1b c3 bd 20 9a e9 be
       -0.26459554 0.2140113 -0.09526786 -0.456254

weight f4 [8, 1]
000000 4c e4 f2 be 43 0a 20 be 1a 64 72 bf 96 e7 74 bf
       -0.47439802 -0.15628915 -0.9468399 -0.9566587
000010 cc 97 bd 3e cc 66 f1 be 86 67 65 3f 80 48 ce 3c
       0.37029874 -0.4714874 0.8961109 0.025181055

bias f4 [8]
000000 38 a3 90 be 11 21 d1 3e dc 7b c0 be 74 16 dc 3d
       -0.28249526 0.4084554 -0.37594497 0.1074647
000010 ca 8b 1b bf ac d8 0e bf 33 ab fc 3e 80 52 aa bd
       -0.60760176 -0.55799365 0.49349365 -0.08316517

weight f4 [8, 3]
000000 55 9a 17 3e ea 93 03 bd f5 f0 aa be ab e3 41 bf
       0.14804967 -0.032123484 -0.3338696 -0.7573802
000010 4e 0d 55 bf d6 3c f4 be b1 b8 40 be 47 69 8c be
       -0.83223426 -0.47702664 -0.18820454 -0.2742407
000020 16 b9 6f bd 68 69 5b bd 78 3f 4b 3d de e8 5d bf
       -0.05852612 -0.05356732 0.049621075 -0.8668345
000030 a4 5b 83 be 46 23 4b be 97 1f 93 3d b1 a6 ae 3d
       -0.25655854 -0.19837674 0.0718376 0.085278876
000040 ca d8 01 3f 7e e2 a2 be 08 c6 72 3f 84 88 72 3f
       0.5072142 -0.31813425 0.9483342 0.94739556
000050 5a b1 00 3e 32 3c 6d 3d 54 92 de be 9f c2 e3 3e
       0.12567654 0.057918735 -0.43471014 0.44484422

weight f4 [8, 3]
000000 d8 59 97 3f 0a b2 4e bf 45 a3 c4 3e 7a 5a ab be
       1.1824293 -0.80740416 0.38405815 -0.33467466
000010 15 ad 70 be 76 4e 31 be dc 92 92 3d ce a1 84 be
       -0.23503526 -0.17315087 0.071569175 -0.25904697
000020 77 ff d2 be 8a 00 80 3e 46 1f 13 3f 97 9b 99 be
       -0.4121053 0.2500041 0.57469594 -0.30001518
000030 3a 35 65 bf eb 0a b4 be 20 72 f4 be a0 58 82 bd
       -0.8953434 -0.3516458 -0.4774332 -0.0636456
000040 82 d3 2a bf 8d e1 eb be da 18 91 3e d0 5f f7 3e
       -0.66728985 -0.4607052 0.28339273 0.48315287
000050 ec e6 97 be e9 7b c9 3c ce 70 07 3d 2a d9 39 3f
       -0.29668367 0.024595218 0.033066563 0.7259699

bias f4 [8]
000000 87 10 db 3e 1b 91 0b bf a5 6a de bd d0 69 a8 bc
       0.42786047 -0.5451829 -0.108601846 -0.020558268
000010 b2 ad 00 bf 5c 8b 16 bf 60 a5 15 bf 02 4b 17 3f
       -0.5026504 -0.58806396 -0.5845547 0.5909883

weight f4 [8, 1]
000000 8c 41 84 3f b9 4d 50 3f fe 6a 35 bf 34 11 58 bf
       1.0332503 0.81368595 -0.7086638 -0.8440125
000010 36 08 2c bf 44 d6 18 bf e0 48 2e 3f 4a dc 88 bf
       -0.6720003 -0.59701943 0.6807995 -1.0692227

weight f4 [8]
000000 a6 b2 02 40 00 00 80 3f 00 de a8 3f 00 00 80 3f
       2.0421538 1.0 1.3192749 1.0
000010 7b 50 7e 3f 41 66 87 3f bd c2 ba 3f 9f 6a 28 3f
       0.99341553 1.057808 1.459068 0.6578769

bias f4 [8]
000000 bb f2 e5 be 67 2d 8b be 83 8d f8 3e 01 03 bb 3d
       -0.4491175 -0.27183077 0.48545465 0.09131432
000010 04 72 45 3e 6f 97 b7 be f8 74 ef 3e ad 2c ab be
       0.19281775 -0.35857722 0.46768928 -0.33432522

running_mean f4 [8]
000000 04 75 e7 3a 00 00 00 00 1b aa a5 3e 00 00 00 00
       0.0017658775 0.0 0.32356343 0.0
000010 70 d6 cf 3a 9e 19 0e 3f 48 4a 4f 34 4f a0 71 2e
       0.0015856754 0.5550784 1.93054e-07 5.493944e-11

running_var f4 [8]
000000 aa 9a 74 39 73 c6 d2 34 ab 9a 4a 3d 73 c6 d2 34
       0.0002332727 3.925994e-07 0.04946391 3.925994e-07
000010 60 8b 13 39 a4 52 2f 3d 22 b7 da 34 02 c7 d2 34
       0.00014070934 0.04280342 4.073891e-07 3.9260345e-07

weight f4 [8]
000000 9d 48 38 3e ad ca 94 3f 00 00 80 3f 50 f9 a1 3e
       0.1799645 1.1624352 1.0 0.31635523
000010 00 00 80 3f 00 00 80 3f 90 c4 a8 3f 00 00 80 3f
       1.0 1.0 1.3184986 1.0

bias f4 [8]
000000 d9 ed 51 3f ac 28 69 3e 5d af ea bd bc 41 0d bf
       0.8200355 0.22769421 -0.11459229 -0.5517843
000010 20 9b cb 3e 94 39 25 be 8e d6 f3 3e c7 8a 05 3f
       0.39766788 -0.16135246 0.4762463 0.5216488

running_mean f4 [8]
000000 70 3d 97 61 77 a8 12 3f 00 00 00 00 97 8a 80 33
       3.4873567e+20 0.57288307 0.0 5.985674e-08
000010 00 00 00 00 00 00 00 00 36 90 07 40 00 00 00 00
       0.0 0.0 2.118177 0.0

running_var f4 [8]
000000 52 01 81 6f 89 b8 70 3e 73 c6 d2 34 5d b6 df 34
       7.9850325e+28 0.23507895 3.925994e-07 4.1669674e-07
000010 73 c6 d2 34 73 c6 d2 34 3e 99 18 3f 73 c6 d2 34
       3.925994e-07 3.925994e-07 0.5960883 3.925994e-07

weight f4 [8]
000000 67 67 d9 3f 7e 55 01 40 00 00 80 3f 5e 63 28 3f
       1.6984681 2.020843 1.0 0.6577662
000010 c5 63 28 3f 6d 63 28 3f 6f 06 93 3f 08 7a 4a 3f
       0.65777236 0.6577671 1.1486338 0.79092455

bias f4 [8]
000000 6f c5 5e bd 4c 4e 22 bc d2 ef b7 be 1c 1e 65 3c
       -0.054387506 -0.009906363 -0.35925156 0.013984229
000010 9d 0a 0b bf 4e e5 8d 3c 6b 0a cb 3e cc 79 a6 3e
       -0.5431307 0.017321255 0.39656386 0.325148

running_mean f4 [8]
000000 5a 5e d6 3f 25 f5 38 3e 00 00 00 00 f5 1d 98 2e
       1.6747544 0.18062265 0.0 6.917481e-11
000010 24 a9 18 2f 3d fe 3f 30 fb 54 23 32 90 51 9d 3f
       1.388441e-10 6.984669e-10 9.507171e-09 1.2290516

running_var f4 [8]
000000 5d 8c ff 3d 6a d3 9b 3e 73 c6 d2 34 93 c7 d2 34
       0.12477944 0.30434734 3.925994e-07 3.9260757e-07
000010 fd c8 d2 34 34 d8 d2 34 3a cb d3 34 ac 53 35 3e
       3.9261786e-07 3.9272857e-07 3.944968e-07 0.177077

weight f4 [8, 8]
000000 95 14 4e bf 36 d6 6e be 00 33 66 3f 48 36 39 3f
       -0.80500156 -0.23323902 0.8992157 0.7234845
000010 b5 37 22 3e 4c 73 8d 3e 38 81 a5 3d 59 05 2d bf
       0.15841563 0.27627027 0.08081287 -0.67586285
000020 ca 56 0b be 7f 5c 5a 3f 94 cd 18 bf 23 51 a0 be
       -0.13607326 0.8529739 -0.5968869 -0.31311902
000030 a8 26 82 3c 5c 51 68 be d9 29 d1 bd 3a ff 87 3f
       0.015887573 -0.22687286 -0.1021306 1.0624764
000040 23 5f da bd d4 94 f3 3e 55 a9 89 3f c2 16 68 be
       -0.10662677 0.47574484 1.0754801 -0.22664931
000050 67 10 d3 bd 3c 36 5e bf ab cd a9 3e 6c e2 17 3f
       -0.10305863 -0.86801505 0.33164725 0.5932987
000060 91 08 2b 3f cc 77 b4 3d f2 db 00 bf 09 1b f4 be
       0.66809946 0.08811912 -0.5033561 -0.47676876
000070 31 45 0c 3f e6 a5 14 bf f3 93 f6 3e 6b ea 04 bf
       0.5479308 -0.5806564 0.4815975 -0.51920193
000080 74 34 5d be e0 4d 5b be 9a ce b0 3e aa 84 d2 3e
       -0.2160204 -0.21416426 0.34532624 0.4111684
000090 38 cb 09 bd fa d4 02 3d 11 6b e9 3e 2e c0 87 be
       -0.03364107 0.03194139 0.45589498 -0.2651381
0000a0 0a a4 9b 3f 52 40 6f be e0 0a 99 bf 3a 2b 06 be
       1.2159436 -0.2336438 -1.1956444 -0.13102427
0000b0 c2 46 69 be 2e fa 08 be fe 3e 07 bf 42 a8 b4 3e
       -0.22780898 -0.13376686 -0.52830493 0.3528462
0000c0 8c 25 2d 3e ea 86 2c be 97 bc 67 be d4 c8 99 be
       0.16908854 -0.1684834 -0.22630535 -0.30036032
0000d0 40 3f 65 3d ef d8 6a 3e 07 87 9c bf f2 91 b4 be
       0.055968523 0.22934316 -1.2228707 -0.35267597
0000e0 50 8b 27 3f c6 b1 1c 3e 9d 7c 1c bf f9 28 4a bf
       0.6544695 0.1530219 -0.61127645 -0.7896877
0000f0 d2 79 a8 3e 92 70 98 be ec fc 58 bf bf 6e c1 be
       0.32905442 -0.29773384 -0.8476093 -0.37779805

bias f4 [8]
000000 db a8 80 be bd b7 43 bf 6e 7e 6d 3d 31 77 f6 3e
       -0.25128826 -0.7645224 0.0579819 0.4813781
000010 7c c4 b3 3d 2e 33 9c be 01 f3 80 3f c2 71 41 3f
       0.08777711 -0.30507797 1.0074159 0.75564206

weight f4 [8, 8]
000000 04 f7 2e 3f 22 e3 a4 3e c8 41 b1 3e 5e 0b 30 3f
       0.68345666 0.3220454 0.346205 0.68767345
000010 70 cd 11 3f 45 ae 64 be 13 61 e3 3e e2 e2 e2 be
       0.569541 -0.22332104 0.4441 -0.44313723
000020 4f 5b 71 be ed a5 36 3f cb db de 3e c3 c1 c7 3d
       -0.23569988 0.7134693 0.43527064 0.09753754
000030 42 55 88 bf 15 fa 79 3e ac 32 d9 3e 35 35 57 bf
       -1.0651019 0.24411805 0.42421472 -0.8406556
000040 40 2b a1 3e c8 83 65 bf 2b 9e ee 3d 33 ca 06 be
       0.3147831 -0.8965421 0.11651262 -0.1316307
000050 8e 97 01 bf 5b d2 f7 3e b1 66 72 be 99 a7 86 3e
       -0.5062188 0.48402676 -0.23671986 0.26299742
000060 0b 02 ae be 90 97 88 3e 5d 26 aa be 5c 94 fc be
       -0.33985934 0.26678133 -0.33232394 -0.4933194
000070 c3 97 96 be 12 23 15 3f 7c 03 c0 be d1 24 ac 3e
       -0.2941266 0.5825664 -0.37502658 0.3362184
000080 1f 23 a4 be 23 4c 35 3f 2a ba f1 3e 94 22 82 3e
       -0.32058045 0.708193 0.47212344 0.25417006
000090 1f 0f 87 3e e6 80 fa be 0e ca 6c bf 00 6a 36 bf
       0.26378724 -0.48926467 -0.9249581 -0.71255493
0000a0 be e3 15 3f 48 7b 52 bd 3a 23 83 3e 77 f7 ca be
       0.5855063 -0.0513871 0.25612813 -0.39641926
0000b0 ab e0 16 3f d9 88 a5 be 73 e9 5c be ca 9d ac 3b
       0.58936566 -0.3233097 -0.21573429 0.0052678334
0000c0 fd 26 00 3d ba 50 5b 3e b3 5c 32 bf e8 07 a5 bf
       0.031287182 0.21417513 -0.696727 -1.2893038
0000d0 79 fb 7e be 2c a8 89 3e ec 4a 5c 3f 1f 07 1d 3f
       -0.24900617 0.26886117 0.8605182 0.6133899
0000e0 ea cc 42 be 9a 56 33 be c2 a0 69 bf e5 a6 33 bf
       -0.19023481 -0.17513505 -0.9126092 -0.70176536
0000f0 73 28 b7 be e7 b2 34 3f 42 bb 64 3f f6 65 16 3f
       -0.35773048 0.70585483 0.8934823 0.5874933

weight f4 [8, 8]
000000 88 40 fe bd 32 5f 87 3f 12 e8 c1 be 30 f9 2b bc
       -0.12414652 1.0575926 -0.37872368 -0.010496423
000010 6f d8 86 bd 61 cd 2e 3f b4 d8 42 be 95 bb 07 3f
       -0.0658425 0.68282133 -0.19027978 0.530206
000020 57 5a 5e bd 91 79 fd be 24 9d 3f bd 00 a3 1d 3c
       -0.054285374 -0.4950681 -0.04678072 0.009621382
000030 02 97 27 bc 46 ac f9 bc 5d 75 48 be 3e 9b 52 3e
       -0.010228874 -0.030477654 -0.1957602 0.20567033
000040 4d f1 b6 bb 5a cf 64 3c bb f1 3d 3f 75 02 dc 3d
       -0.0055829645 0.013965452 0.74196976 0.10742656
000050 f5 ec e9 3e 06 c3 8d be cc 39 b5 be 2d ed bf be
       0.45688596 -0.27687854 -0.35395658 -0.37485638
000060 7c 09 b1 be ab 29 0e bd 4a cc 86 bf 78 81 0f 3f
       -0.34577549 -0.034707706 -1.0531094 0.5605693
000070 90 2f 13 3d 5b 32 40 3f c5 4e 70 be e2 0f 93 3f
       0.03593403 0.75076836 -0.23467548 1.1489222
000080 e5 5e 81 3f 63 9e 69 bf 8a de 4a 3e 8a 3c ad be
       1.0107085 -0.91257304 0.19811454 -0.3383525
000090 77 fe ae 3e 04 fa fb 3c 01 46 e8 be 4e 15 1c be
       0.34178516 0.030758865 -0.4536591 -0.15242502
0000a0 34 f8 d5 3e 20 4d 03 3f 8b 6c cc bd 02 c4 c1 be
       0.41790926 0.5128956 -0.099816404 -0.37844855
0000b0 ee be d0 bf 88 55 64 3f 50 c9 a5 3e 20 fe 0b 3e
       -1.6308267 0.8919301 0.32380152 0.1367116
0000c0 47 01 b6 3e 98 41 04 3e 81 b1 71 3e 9d f5 1f be
       0.3554785 0.12915647 0.23602869 -0.15621038
0000d0 d7 6a 15 3f 95 5b f9 be 41 d8 11 3f 25 1a fa 3e
       0.5836615 -0.48702684 0.569706 0.48848072
0000e0 fa 7d 6a be 44 2c af 3e 3a c9 7a 3f 4b 1d eb 3e
       -0.22899619 0.3421346 0.979633 0.45920786
0000f0 b8 78 fc 3e 07 93 b6 be e1 a0 d9 3e c3 75 37 bf
       0.4931085 -0.35659048 0.42505553 -0.71664065

bias f4 [8]
000000 f4 f3 28 3f 14 85 f5 be 8b 2d b8 3d 0f 5d 0e 3f
       0.6599724 -0.47953093 0.08993062 0.55610746
000010 1b 17 85 be 44 8b 8d be 68 27 e3 be f0 e5 5d bd
       -0.2599419 -0.27645314 -0.44366002 -0.054174364

weight f4 [8, 8]
000000 8a 29 48 bf 01 24 c6 be 81 4b 54 bf 02 a4 3d bf
       -0.78188384 -0.38699344 -0.8292771 -0.7407838
000010 0b dc a2 bf d9 d5 24 3e 3e a6 55 3f 4a 5d c4 bd
       -1.2723402 0.16097201 0.8345679 -0.09588106
000020 d9 e9 09 3f 8a 0c 4a 3f 2a 14 10 3e 2e 3e 43 bd
       0.5387245 0.78925383 0.14070192 -0.04766672
000030 e6 c1 fd 3d 28 5b 4b 3c f7 2b 05 3f 04 20 1d be
       0.12390499 0.01241187 0.5202021 -0.15344244
000040 c7 98 26 bd b6 6d 66 3f b3 f7 16 3f d2 7a 03 bf
       -0.040673044 0.90011156 0.5897171 -0.51359284
000050 97 8b 6b be 75 cd ce be b0 5c 5d be a2 28 2d be
       -0.23002468 -0.40391126 -0.21617389 -0.16910031
000060 86 97 0c bf e1 9b 04 bf a8 41 44 bf 20 ac c1 be
       -0.54918706 -0.5180035 -0.76662683 -0.37826633
000070 3d 33 a9 bf b7 70 61 be f1 2b e5 be 13 9f 87 3d
       -1.3218762 -0.22015654 -0.44760087 0.06622138
000080 af d0 40 bf c8 2d 01 bf 46 c4 18 be 27 8b 96 be
       -0.75318426 -0.5046048 -0.14918622 -0.2940304
000090 fc a0 9f be b2 ba 13 be 48 57 20 3e e2 cb 26 3d
       -0.3117751 -0.14426687 0.15658295 0.04072178
0000a0 ac 05 b0 3e 6b fc 9e 3e fc ef 8e 3d 41 51 92 3e
       0.34379327 0.31051955 0.06979367 0.28577617
0000b0 0e aa 08 bf 56 40 28 3f 91 45 1b 3f 46 3d 93 bd
       -0.5338448 0.6572317 0.60653025 -0.07189421
0000c0 de 16 05 3e 9f 64 45 bf 07 79 a5 bd 15 48 8a 3e
       0.12997004 -0.7710666 -0.08079725 0.2700812
0000d0 3c ad 86 be a7 75 db 3e 36 ae 0c 3f cd d0 9e 3f
       -0.26304042 0.428632 0.54953325 1.2407471
0000e0 91 93 82 3e 18 4e ae 3e 6a e1 9e 3f 6a 5e a7 bd
       0.2550321 0.34043956 1.2412541 -0.08172305
0000f0 f8 4a b4 3e e3 29 14 bf e7 4f 5d be 17 02 62 be
       0.35213447 -0.57876414 -0.21612512 -0.2207111

weight f4 [8, 8]
000000 1a 05 48 3f 30 66 2d 3e b2 91 95 3e 5c 5c 7a be
       0.78132784 0.16933513 0.2921272 -0.24449295
000010 a7 ed a7 be 41 34 af bc 88 ec 06 bf 04 c5 d3 3e
       -0.32798502 -0.021387221 -0.5270467 0.41361248
000020 43 37 35 bf 13 04 71 bd 16 6f 0f 3f d7 51 ab 3e
       -0.7078745 -0.058841776 0.5602888 0.33460876
000030 63 0f 5a 3f f1 b7 e6 be c8 42 0b bf ba fa 0f 3f
       0.8517973 -0.4506221 -0.54398775 0.56241953
000040 d7 fa 3c 3f 98 da ad 3f 40 f6 8d 3d 67 01 ff bc
       0.7382025 1.3582335 0.06931734 -0.031128598
000050 2e c2 82 be f4 f6 da 3e 77 1b 76 be 10 5f 18 bf
       -0.25538772 0.42766535 -0.24033915 -0.59520054
000060 e7 88 42 bf 17 74 bb bf 80 69 a3 be 97 67 c6 3e
       -0.75990146 -1.4644803 -0.31916428 0.38750908
000070 8b 8c b6 be f1 0a c2 3d 7d c9 13 be 28 bc c3 bc
       -0.356541 0.09474743 -0.1443233 -0.02389343
000080 93 1d ab 3f b6 61 55 3e 58 ba a9 3e 0e 10 53 be
       1.33684 0.20838055 0.33149981 -0.20611593
000090 c9 8a 86 3f 5b 7f 3c be 3c 26 27 be 06 f7 17 be
       1.0511104 -0.18407957 -0.16323179 -0.14840326
0000a0 c4 29 f3 3e 76 11 0c 3f 3a 9c e8 3e 04 d8 78 be
       0.47492802 0.54714143 0.4543169 -0.24301153
0000b0 75 e2 6e 3e 64 7f 47 3e 6e 13 8b 3e 0f 7c 09 bf
       0.23328574 0.1948219 0.2716326 -0.53704923
0000c0 d2 ba ef be 70 a9 4d bf ec a6 0e bf 77 5d 2a be
       -0.4682222 -0.80336666 -0.5572345 -0.16637217
0000d0 78 8d 39 bf 7c e8 ef be 5b 33 80 3e 49 79 8d bd
       -0.7248149 -0.4685706 0.2503918 -0.06907899
0000e0 1e bf 05 3f f3 73 f3 3c 07 b5 6a bf c2 38 5e be
       0.52244747 0.029718375 -0.91682476 -0.21701339
0000f0 ac a0 32 bf 63 a6 da be 53 bf 18 3f e7 75 5e bf
       -0.69776416 -0.42705068 0.5966694 -0.86898655

bias f4 [8]
000000 d4 ab 08 bf 8c 57 82 bf 72 5f 8a 3c 06 31 45 3f
       -0.5338719 -1.0182967 0.016891215 0.7702793
000010 ad b9 2b be 6e 28 86 be cd ab 30 3f ab ba b0 3e
       -0.16770048 -0.2620272 0.6901215 0.34517416

weight f4 [8, 8]
000000 df 40 26 3f 52 f3 21 be 63 61 17 3f 9d ab 06 3e
       0.64942735 -0.15815476 0.59132975 0.13151403
000010 3a ed 2f 3f 81 0d f0 be bc 07 16 3e 6d ed 0b bf
       0.68721354 -0.46885303 0.14651388 -0.5465916
000020 39 2b 5f bf 7d 89 3e 3f f3 d9 15 be 3d 34 fd 3e
       -0.8717533 0.7442854 -0.14633922 0.49453917
000030 24 27 3d bf 9a 10 4f 3f d0 0d e7 3e 1f 7d 65 bf
       -0.7388785 0.80884707 0.45127726 -0.89644045
000040 6a cd b6 3e e4 c7 05 bf ff e0 a4 be 46 d5 c3 3d
       0.35703593 -0.52258134 -0.32202908 0.09562163
000050 1e 2d b5 be 32 f6 74 3e bb 36 06 bf d7 01 8b 3e
       -0.35385984 0.23922041 -0.5242726 0.2714984
000060 2a 36 c7 bc 72 84 d9 3e bb 13 18 bf 0d 3f 24 bf
       -0.02431782 0.4248386 -0.59405106 -0.6415871
000070 9c a5 98 bd a1 7b 50 3e ba dc c1 be 17 23 ee 3e
       -0.074534625 0.2035966 -0.37863714 0.46511146
000080 5b 63 00 bf 84 c4 e8 3d 84 44 04 3f 06 dc d6 3e
       -0.50151604 0.113656074 0.51667047 0.4196474
000090 c0 ca f5 3d dd 72 40 bf f7 8a 8e bf 12 d7 5d bf
       0.12001562 -0.7517527 -1.1136159 -0.86656296
0000a0 47 64 dc 3e 6b d1 f2 be af 15 30 be 82 76 3b 3c
       0.43045256 -0.47425398 -0.17195772 0.011441829
0000b0 aa 12 1e 3f da 55 b6 be 86 26 84 be dc 7b 7c 3e
       0.6174723 -0.35612375 -0.2581064 0.24656624
0000c0 b8 59 5a 3d 42 f5 30 be 9b 60 8d be 3c ce 4e bf
       0.05330822 -0.17281058 -0.27612767 -0.8078344
0000d0 11 51 b4 be 47 77 0d 3f be 3a a5 3e 24 ea 3b 3f
       -0.352181 0.5526013 0.3227138 0.73404145
0000e0 d1 5c 40 bb b8 80 8e 3e 30 46 6b be 9f be 5a bf
       -0.0029352198 0.2783258 -0.22975993 -0.85447115
0000f0 5b cf f3 bd 8d 98 f1 3d 46 ec a6 3e 5c 34 7c 3f
       -0.11904784 0.11796675 0.32602137 0.98517394

weight f4 [8, 8]
000000 85 48 0b 3f d5 f2 a0 be e1 91 64 3f cd 6f 05 3f
       0.5440753 -0.31435266 0.89285094 0.5212372
000010 94 6a 83 3f 4a e1 75 bf fe 80 2c 3f 67 a7 5a bf
       1.02669 -0.9604689 0.67384326 -0.85411686
000020 b0 92 b0 be a5 70 b9 bc c1 2d ce be f4 0f de 3e
       -0.34486914 -0.02263672 -0.40269282 0.43371546
000030 cb 5c 1b 3e 07 cf 01 bf df a2 92 bb ca 46 ab 3e
       0.15172116 -0.50706524 -0.004474982 0.33452445
000040 84 05 63 3e d4 6a a2 be 1e 15 72 be 10 bf 87 be
       0.22170073 -0.31722128 -0.23640868 -0.26512957
000050 7d cb 68 be 2a 4d da 3e 95 92 f1 3d 55 9c a4 3e
       -0.22733875 0.42636997 0.117955364 0.32150522
000060 eb 38 95 3a 3b 27 cd be ea c4 08 3e 1e 97 65 bf
       0.0011384761 -0.40068993 0.13356367 -0.8968371
000070 ba b3 66 be 97 dd cd bc 52 73 1e bd e5 d9 97 3d
       -0.22529498 -0.025130076 -0.038684197 0.07414607
000080 40 01 01 bf ea 8b 36 3e 82 89 0b 3f ea 4a b9 bd
       -0.5039253 0.1782681 0.54506695 -0.09047492
000090 1b e8 cb be 9d b9 c6 bd d8 de d6 be 67 f4 fa be
       -0.3982552 -0.09703372 -0.4196689 -0.4901459
0000a0 24 fb 28 3f df b0 88 bf 59 f3 de 3e c9 96 91 3d
       0.6600821 -1.0678977 0.43545035 0.07108838
0000b0 f0 5f 14 3f c0 38 57 bf 4b ca 0a 3f 94 df 3d bf
       0.5795889 -0.8407097 0.54214925 -0.7416928
0000c0 ce c9 6f 3f 8d 72 09 3f 67 9a 6b bc f7 e7 c8 3e
       0.93667305 0.53690416 -0.014380074 0.39239475
0000d0 1d 50 1e 3f 00 d7 f9 be 9f fb 99 3f 53 fe 62 be
       0.61840993 -0.48796844 1.2029914 -0.2216733
0000e0 4e 8e 8f 3d d6 02 43 bf 48 c4 70 3e 3d d3 3e bf
       0.07009564 -0.761762 0.23512375 -0.74541074
0000f0 84 8d 4a be f9 c2 cc 3d d4 c9 6b 3f 4d 57 86 3e
       -0.19780546 0.099981256 0.9210484 0.2623848

bias f4 [8]
000000 66 cb 1c bf 62 c4 39 be c4 81 fe 3d 44 70 96 3e
       -0.6124786 -0.1814132 0.124270946 0.29382527
000010 09 fc 61 be 0f 4b 9d be 93 06 bd be 1f e3 0e bf
       -0.220688 -0.30721328 -0.36919078 -0.5581531

weight f4 [8, 8]
000000 b6 79 80 3d 84 d2 07 bf be ce ae bd 07 5a 68 3f
       0.062732145 -0.53055596 -0.08535527 0.9076237
000010 c6 7c 09 3e 72 92 b8 3d 1c 05 90 be e0 08 1f bf
       0.13426504 0.09012307 -0.28128898 -0.6212292
000020 f7 45 3a bf 0f b3 76 3e b0 92 1e 3f e7 c5 21 3e
       -0.7276301 0.24091743 0.6194258 0.1579815
000030 0d 1b 46 3f 56 54 9b be 8a c3 2c 3f c2 95 16 be
       0.77385026 -0.3033778 0.6748587 -0.14705566
000040 5c 9b 48 bf 7c d5 c4 3e b0 21 32 3f 54 9f 24 bf
       -0.7836206 0.38444126 0.69582653 -0.64305615
000050 10 1e 30 3f f0 b5 e3 bc 00 dd a2 3e 99 dd 96 3e
       0.6879587 -0.027796715 0.31809235 0.2946594
000060 e7 40 9a be 62 b4 8b 3e f1 a5 b3 3d 61 04 e2 3d
       -0.30127642 0.2728606 0.08771885 0.110359915
000070 85 cc 8d bf 2c 2c 8f bf b5 ca 19 3f 76 04 fb be
       -1.107804 -1.1185355 0.6007493 -0.4902684
000080 63 b6 79 3f 75 5d 51 be 41 5a 23 bf 8d c8 14 bd
       0.97543925 -0.20445807 -0.6380959 -0.036324073
000090 fe 16 de be d4 1b 2d bf 74 15 81 bd 81 7a a5 be
       -0.43376917 -0.6762059 -0.0630292 -0.32320026
0000a0 19 d6 dc 3d ed f8 06 bf 53 e6 31 be 45 6e 08 3f
       0.107830234 -0.5272358 -0.17373018 0.5329326
0000b0 3e 31 a8 3e 93 f5 25 3f 0b 70 14 3e c0 43 82 be
       0.3285007 0.6482784 0.14495866 -0.25442314
0000c0 10 27 d3 be af c9 62 bf f2 54 df 3e f8 58 ed 3e
       -0.4124074 -0.88588995 0.43619496 0.4635694
0000d0 9a 8e 23 be 8c cb 0b bf 92 a7 3e 3f c1 f2 94 be
       -0.15972367 -0.5460746 0.7447444 -0.29091457
0000e0 3e 62 21 3f 5b 29 0e 3e b8 49 c0 be df 55 7a be
       0.6304053 0.13882963 -0.37556243 -0.2444682
0000f0 82 84 3a 3e a4 af 3a bd dc d1 c3 be 7a b6 14 3f
       0.1821461 -0.04557766 -0.38246047 0.5809094

weight f4 [8, 8]
000000 02 e4 a3 bf d2 60 32 3d 7f c5 f3 3e 14 13 2f 3f
       -1.2803957 0.043549366 0.47611615 0.68388486
000010 bf 1f 24 3f 31 f0 ce be 3d 7e f5 3d f0 6e f8 3e
       0.6411094 -0.40417627 0.11986969 0.4852214
000020 ae e6 16 3f 7e df 67 3f e9 12 91 be 9a c3 8f be
       0.5894574 0.90575397 -0.2833474 -0.2807892
000030 48 4c 89 be 4c 4a 4e be c2 e4 08 3e aa 22 26 3e
       -0.2681601 -0.2014553 0.13368514 0.16224161
000040 57 bb ec be f5 a8 85 bf de a1 88 be 0b 2a 29 3f
       -0.4623668 -1.0442187 -0.26685995 0.6607978
000050 ee e7 b7 3e f7 dd 44 be 6c b1 02 be 9f 72 f9 3e
       0.35919136 -0.19225298 -0.12762994 0.4872026
000060 2b 12 d2 bc d4 79 a9 3d 6a 58 19 bf 6c d7 ac 3e
       -0.025643429 0.0827519 -0.59900534 0.33758104
000070 cc 77 66 bf 2e 84 66 bd 0b 63 53 3e aa fa ee bc
       -0.90026546 -0.0562784 0.2064325 -0.02917226
000080 a6 fe 54 bf 17 94 f3 3e 03 e4 e8 be fa dd 23 bf
       -0.8320106 0.4757392 -0.4548646 -0.64010584
000090 d8 76 89 be b7 1b cc be ee 93 08 3f 00 d5 05 3f
       -0.26848483 -0.39864895 0.5335072 0.5227814
0000a0 89 cf bc be d1 06 53 3e fe 94 08 3f e6 3a e1 3e
       -0.36877087 0.20608069 0.53352344 0.43990248
0000b0 c0 50 e0 bd 96 25 ea bd 9f 83 20 bf 35 2a b7 3e
       -0.10952902 -0.1143295 -0.6270084 0.3577439
0000c0 5c 47 9f be 56 f3 0c 3e 77 15 11 3f 5d c6 02 be
       -0.3110913 0.137647 0.5667338 -0.12770982
0000d0 e5 6d 3d 3e 1a 07 0b 3f 7f 5b 41 3e 74 56 64 bf
       0.18498953 0.5430771 0.18882559 -0.89194417
0000e0 60 f5 61 3d 2c b4 34 bf 3f ed 4c 3f 92 d6 43 bf
       0.05516565 -0.7058742 0.8004951 -0.76499283
0000f0 e2 3c 2b be d0 a6 2d 3e f1 fd a0 be a9 9c b1 be
       -0.16722444 0.16958165 -0.31443742 -0.34689835

bias f4 [8]
000000 66 0f b5 be b3 0c 74 bf 2b 1a c1 be 42 c3 0e 3f
       -0.3536331 -0.9533188 -0.37715277 0.5576669
000010 4d 67 38 be 20 ea 4d bf ef d8 93 3f 7f e1 85 3d
       -0.18008156 -0.8043537 1.1550578 0.065371506

weight f4 [8, 8]
000000 fd 99 89 3f 72 47 c6 bd 5c 83 2d 3e 7b b6 c4 3d
       1.0750118 -0.09681596 0.16944641 0.09605118
000010 8a 90 18 3f b1 a2 a2 be 67 38 e9 bd ce b1 eb be
       0.5959555 -0.3176475 -0.11387711 -0.46034092
000020 ae fb 07 bf a5 3a 77 3f 6e ae 80 3c 66 48 5c 3e
       -0.5311841 0.9657386 0.015708175 0.21511993
000030 59 ef 8c bf 3e 09 07 3f 3c 5e 34 3f bb 16 78 be
       -1.1010543 0.5274848 0.7045629 -0.24227421
000040 9c 33 84 3e ee 23 0c bf 53 c8 99 be 35 08 30 3e
       0.25820625 -0.54742324 -0.30035648 0.1719063
000050 56 50 24 bc 9f 41 10 3e 49 b6 06 bf af fa bc 3d
       -0.010028919 0.14087532 -0.52621895 0.092275016
000060 04 42 0f bf cd c6 34 3f 69 92 fb be 42 de bd be
       -0.55960107 0.70615846 -0.4913514 -0.37083632
000070 7c 14 be 3d 5a 74 ba 3d b9 af 8c bd b8 29 58 3f
       0.09281251 0.091042235 -0.06869454 0.8443866
000080 d5 22 a6 be c9 3c 1c 3e e0 db 89 3e 04 c7 ad 3e
       -0.3244845 0.15257563 0.26925564 0.339409
000090 d6 b5 89 3c 8f 83 59 be b1 17 8b bf 94 de 44 bf
       0.016810339 -0.21241592 -1.0866605 -0.7690213
0000a0 28 05 42 3f 87 bb fa be d1 7f a5 3c 0a cb 39 bd
       0.7578912 -0.48971197 0.02020255 -0.04535965
0000b0 5a 84 a2 3e bd 26 bf bc d6 67 10 3c b1 b0 ec 3d
       0.317416 -0.023333902 0.008813819 0.11557139
0000c0 cb 0b e6 be 49 9f 85 3c 38 de 13 bf b0 af 46 bf
       -0.44930872 0.016311305 -0.57760954 -0.7761183
0000d0 4f aa ab 3d ee af 61 3d ae c0 51 3f ab 0f 7d 3f
       0.08382093 0.05509942 0.8193463 0.9885203
0000e0 ee 86 8a be 20 25 dc 3e 32 cb 19 bf d9 c9 73 bf
       -0.27056068 0.42997074 -0.60075676 -0.9522987
0000f0 86 b3 2f bd e1 f2 2f 3f 24 3c f9 3e 1b 9a f1 3e
       -0.042895816 0.6872998 0.48678696 0.47187886

weight f4 [8, 8]
000000 38 ea 16 be ac 0c 1e 3f 98 b0 7f bf 18 53 8e 3e
       -0.14737785 0.61738086 -0.99878836 0.2779777
000010 51 a1 58 be 4e 0d a1 3c 71 91 fc 3e 95 05 86 3f
       -0.21155287 0.019659664 0.49329713 1.0470454
000020 0f 00 fb 3e 30 49 e4 3b 61 46 bb be 0a b4 96 3e
       0.49023482 0.0069667324 -0.36577132 0.29434234
000030 77 da 66 bd a9 fa 82 bb 40 7f 63 bf 83 0d 0b 3e
       -0.056360688 -0.003997166 -0.88866043 0.13579373
000040 30 04 bf b8 97 94 91 3f 66 ff 45 3f 11 1d 1f 3f
       -9.10837e-05 1.1373471 0.7734283 0.62153727
000050 ca 6c d9 3e 7c cd 96 be 7e 03 c6 3e bd cc 0f bf
       0.42465812 -0.29453647 0.3867454 -0.5617178
000060 c6 6f 0c be 19 69 8f 3f 3d 76 24 bf 39 f7 89 bf
       -0.13714513 1.1203948 -0.6424292 -1.0778571
000070 22 98 b0 be f6 35 85 3e 5c 8d 7c 3e 69 d0 5f 3f
       -0.34491068 0.2601773 0.246633 0.87427384
000080 f1 f1 4a 3f 40 c6 1e bd 16 de 9c 3e c0 fc 45 be
       0.79275423 -0.038763285 0.30638188 -0.19334698
000090 27 5b d3 3e f7 d9 2a be 5c ec cf 3e 75 6d 5f 3e
       0.4128048 -0.1668471 0.40610015 0.21819098
0000a0 bd 89 57 3d 26 52 b9 be cb 68 d1 bd 5e 70 08 3f
       0.05262159 -0.36195487 -0.10225066 0.5329646
0000b0 f2 57 b8 bf 99 c8 4c 3f 2d cc 38 bf 29 f9 53 3e
       -1.4401839 0.7999359 -0.7218655 0.20700516
0000c0 66 14 c2 3e 49 4c 5d bf 82 1e b6 3e 54 6a 69 bc
       0.37906188 -0.86444527 0.3557015 -0.014246542
0000d0 0b f1 36 3f dd 17 02 bf 48 c9 e2 3e e0 a0 87 3b
       0.7146155 -0.5081766 0.4429419 0.004139051
0000e0 ed f1 21 bf 5a df 36 be 1c ea 58 3f 0e d0 9c 3f
       -0.63259774 -0.1785864 0.8473222 1.2250993
0000f0 3d b9 c2 3e 6b 3f e9 be c0 f4 22 3f 9d b2 a8 bf
       0.3803195 -0.45556197 0.6365471 -1.3179508

bias f4 [8]
000000 54 e1 5d 3f 90 60 81 be 66 06 b3 3e ce b2 19 3f
       0.8667195 -0.25268984 0.3496582 0.6003846
000010 92 ac 8c be 97 d0 0e bf c1 33 0f bf d0 de f6 bd
       -0.2747541 -0.5578703 -0.55938345 -0.12054217

weight f4 [8, 8]
000000 74 52 16 bf 34 ff df bc ee 2c 0d bf 04 20 93 bf
       -0.58719563 -0.02734337 -0.5514668 -1.1494145
000010 ba e1 52 bf 71 a7 02 3f 81 1d 61 3e b5 19 da 3e
       -0.8237568 0.51036745 0.21983911 0.42597738
000020 a2 26 c1 3e c9 c2 03 3f b0 ad 24 3e 51 0e f7 3e
       0.37724787 0.51469094 0.16081882 0.4825311
000030 ea 0e e3 3e 95 b8 f8 3d 6a 1d 05 3f 8d 8c 71 3e
       0.44347316 0.12144581 0.5199801 0.23588772
000040 75 ef b7 3e 92 41 2b 3f 2b d3 7e 3e 9d 54 8f be
       0.3592488 0.6689693 0.24885242 -0.27994242
000050 bb 31 8e be 05 81 e0 be af 61 b9 be 48 53 03 bf
       -0.27772316 -0.43848434 -0.3620734 -0.5129895
000060 04 73 4e be 0c 2d 23 be d6 de 1d bf 80 63 f4 be
       -0.20161062 -0.15935153 -0.61668146 -0.47732162
000070 35 f9 94 bf a4 49 a6 be 3e a7 5a bd 52 21 e4 3e
       -1.1638552 -0.32478058 -0.05338215 0.4455667
000080 a3 db 83 bf f8 83 56 bf 2a 1a ab be b8 bc 62 3e
       -1.0301403 -0.8379512 -0.334184 0.22142303
000090 00 00 2d be f6 4a 85 3e bb 91 95 be b0 33 16 3f
       -0.16894531 0.26033753 -0.29212746 0.5867262
0000a0 f7 1b 4d 3e 36 8e 43 3f f8 c3 33 3d 6a ef f9 3d
       0.20030199 0.7638887 0.043888062 0.12203868
0000b0 88 e0 3e be cd 89 df 3e 50 fa c8 3e 53 2b 7b be
       -0.1864034 0.4365982 0.39253473 -0.24528246
0000c0 80 e8 7d bb 7b 1d 70 be de 7c 15 be 30 cb 0e 3f
       -0.0038743317 -0.23448746 -0.14598414 0.5577879
0000d0 f7 8c 5e be a0 4e 57 3e f8 1f eb 3e 68 37 6d 3f
       -0.21733461 0.21026087 0.45922828 0.9266267
0000e0 17 2e 37 3f 1b 8b 99 3c be 39 7f 3f 42 d3 5a 3e
       0.715547 0.018743088 0.9969748 0.21369651
0000f0 93 98 44 3e 51 f7 4e 3d 78 48 19 be 4a db 56 bf
       0.19198827 0.050528828 -0.14969051 -0.8392836

weight f4 [8]
000000 84 92 34 3f 1b eb c5 3f 55 33 43 3f 83 96 d3 3f
       0.70536065 1.5462373 0.762502 1.6530308
000010 84 55 6d 3f 3e 76 1c 3f d8 77 0d 40 15 77 8a 3f
       0.9270861 0.61117923 2.2104397 1.0817591

bias f4 [8]
000000 44 87 a2 3d 6c a2 6f be b8 a5 d7 be 5a 65 a0 3e
       0.07935956 -0.23401803 -0.4211862 0.31327325
000010 e1 1a 06 bf 87 4e 96 3e 8d 0e ab 3c b2 a7 3f bf
       -0.52384764 0.29356787 0.020880962 -0.7486526

running_mean f4 [8]
000000 e0 49 dd 3e b7 b1 84 3f 9c 6f b9 3f 3f 8e ce 3f
       0.43220425 1.0366734 1.4487185 1.613716
000010 09 f1 fb 3d 70 a2 9f 3f 45 7d 12 40 59 b4 37 3f
       0.12301833 1.2471447 2.2888958 0.71759564

running_var f4 [8]
000000 2b c7 eb 3e 27 20 c5 3f c1 4b 6f 3f 4f a2 93 3f
       0.4605039 1.5400437 0.93474966 1.1533908
000010 67 75 a0 3f 09 9d d4 3f 56 48 f4 3f 93 d4 01 40
       1.2535828 1.6610423 1.9084575 2.0285995

weight f4 [8]
000000 4f 82 1d 3f 18 0c d8 3f 94 1f b6 3f c9 ab 42 3f
       0.6152696 1.6878691 1.4228387 0.76043373
000010 a4 c4 d2 3f 22 20 24 3f 1b d7 ae 3f 0e d5 a1 3f
       1.646626 0.6411153 1.3659395 1.2643144

bias f4 [8]
000000 1f 56 1a be a5 f9 8d 3d c7 76 a4 be 59 32 ee 3e
       -0.15071915 0.069323815 -0.3212187 0.46522787
000010 9d f2 df be 0c d4 8d 3e e2 8a 9d 3f a0 3b 1c bc
       -0.43739787 0.2770084 1.2308009 -0.0095357

running_mean f4 [8]
000000 2a 67 28 40 1b 04 92 3e d0 8e 20 40 c6 25 83 40
       2.6312966 0.28518757 2.5087166 4.098361
000010 62 a6 40 3f a0 19 07 3f d3 8d a8 40 c1 dc 3f 40
       0.7525388 0.52773476 5.2673125 2.9978487

running_var f4 [8]
000000 92 33 93 40 2d db a6 3f 19 97 77 41 73 64 02 41
       4.600045 1.3035637 15.474389 8.149524
000010 d3 6e d4 3f 3e f9 01 40 64 08 08 41 23 a6 d0 40
       1.6596321 2.0308375 8.5020485 6.5202804

weight f4 [8]
000000 e1 d9 6c 3f 98 3b 6d 3f ba d0 dc 3f 1b db c4 3f
       0.92519957 0.9266906 1.7251198 1.5379366
000010 9a 88 9a 3f a4 87 4e 3f 62 3e 86 3f 57 54 58 3f
       1.2072937 0.8067572 1.0487788 0.8450369

bias f4 [8]
000000 36 0b fc 3d b9 6e 2a 3f c4 17 c7 be e3 66 74 be
       0.12306826 0.665752 -0.3888532 -0.23867373
000010 6b e5 81 3f 48 05 77 3f d0 8b 81 3f 27 3c ff 3e
       1.0148138 0.96492434 1.0120792 0.4985058

running_mean f4 [8]
000000 a1 e8 59 40 d4 a8 82 3f 27 5b 87 3f aa db 5e 40
       3.4048235 1.0207772 1.0574692 3.4821572
000010 ff 0f 78 40 75 57 43 3f f9 bc 6d 40 c5 c7 03 3f
       3.8759763 0.76305324 3.714659 0.514767

running_var f4 [8]
000000 f3 5c 85 40 55 01 1e 41 42 f2 26 41 0e 03 1d 40
       4.1675963 9.875325 10.434145 2.4533114
000010 30 3e a2 40 80 c3 b4 40 27 3e ff 3f 65 fa 1e 40
       5.0700912 5.6488647 1.9940842 2.4840329

weight f4 [8, 8]
000000 e8 00 e4 be 3e f3 64 be 80 6b b6 3d 43 38 c3 3e
       -0.4453194 -0.22358415 0.08907223 0.38128862
000010 7c 31 1b 3e 11 4e b9 be ee 3b 4c be e2 11 ab 3e
       0.15155596 -0.36192372 -0.19944736 0.3341208
000020 94 fc 0e 3f 08 b9 1f bf f4 40 c5 3d 59 8a 0e 3f
       0.55854154 -0.6239171 0.096315295 0.5567985
000030 d3 52 da bd ba 1d c6 3d 56 94 93 3f 85 64 11 bf
       -0.10660329 0.09673639 1.1529644 -0.56794006
000040 71 4b 41 bf 13 15 3e bd d2 96 ae be 5f 41 8e 3f
       -0.7550574 -0.046406817 -0.34099442 1.11137
000050 38 35 29 3e d5 57 54 be 6d 71 70 3f 61 1d 69 be
       0.16524208 -0.2073663 0.93923074 -0.22765113
000060 b4 1b f2 bd 95 c2 44 3f e7 46 69 be 4d a5 4c be
       -0.1182169 0.7685941 -0.22780953 -0.19984932
000070 82 7d 99 bd a6 7a a9 3e 90 0f 95 3d b4 6e c3 3e
       -0.07494642 0.33101386 0.07278359 0.38170397
000080 e8 83 10 bf 87 cd 0f 3f d5 3f 1e be 90 94 9a 3f
       -0.5645127 0.56172985 -0.15454037 1.2076588
000090 d0 75 41 3f 55 0a b5 be 89 d6 2b 3e 96 86 84 3e
       0.7557039 -0.35359445 0.16781057 0.2588393
0000a0 2a 15 0c be a0 b5 85 be c5 49 38 be 43 f4 7f 3f
       -0.13679948 -0.2611513 -0.17996891 0.9998209
0000b0 f8 c7 2f 3f 63 86 4a bf e0 fb 80 3e 93 ba 24 3f
       0.68664503 -0.7911131 0.25192165 0.6434719
0000c0 1b ac f7 3c f7 56 05 3e 96 69 f6 be 34 84 3b be
       0.030233433 0.13021456 -0.4812743 -0.1831215
0000d0 b6 d7 a5 3e f9 46 ed bd 35 61 10 bf 63 67 e8 be
       0.32391137 -0.115858026 -0.56398326 -0.45391378
0000e0 e4 a6 56 be 72 f2 0c 3f 59 27 e3 be 14 ab 43 3f
       -0.20962101 0.5505744 -0.44365957 0.7643292
0000f0 61 1e e9 3e 7a 9a c8 be ed 22 a2 3f fb db 23 bf
       0.4553099 -0.39180356 1.2666909 -0.6400754

bias f4 [8]
000000 9e c4 32 bf 18 e7 95 be 78 f3 d7 3e 23 d4 27 bf
       -0.69831264 -0.29277873 0.4217794 -0.6555807
000010 aa 37 51 3e 61 d5 49 bf ad c1 1c 3e 9b 8f 3e 3f
       0.2043139 -0.78841215 0.15308256 0.74437875

weight f4 [8, 8]
000000 a9 46 84 3e b4 f5 d3 3e f8 57 36 3f be e3 0b bf
       0.2583516 0.41398394 0.7122798 -0.5464438
000010 e6 7f 33 3f af 71 cb 3e 5c 0e 2b 3e 03 9d f5 3d
       0.7011703 0.3973517 0.16704696 0.11992838
000020 01 52 4e bf 24 b1 15 3f c3 a8 55 3d 4c 5b 01 be
       -0.8059388 0.5847342 0.052162897 -0.12632483
000030 cc 8f d2 bc 6b 44 0c 3f 41 4e da 3e 91 60 d1 3e
       -0.025703333 0.547919 0.42637828 0.40893987
000040 a2 fe 69 3e 5a ad 54 bf 03 29 6d 3f 1c 5f e5 3d
       0.22851041 -0.83077013 0.92640704 0.11199781
000050 79 37 32 bf e3 c1 44 bd f6 6a 39 bf d8 bc 33 3e
       -0.69615895 -0.048036467 -0.72428834 0.17552507
000060 81 ad 9b 3e fb d2 e1 bd b8 b4 98 3e 14 89 b2 be
       0.3040581 -0.110265695 0.29825377 -0.34870207
000070 f2 a2 60 3f 28 2b a5 3d 52 63 3f bf 62 a3 07 bf
       0.87748635 0.08064872 -0.74760926 -0.5298368
000080 d7 9f 69 3e b5 14 21 bf b5 0f 1e 3f 29 62 03 3f
       0.2281488 -0.6292222 0.6174272 0.51321656
000090 0a bd 90 3e 41 e5 68 be a2 33 aa 3c d5 0c 04 3e
       0.28269225 -0.22743703 0.020776574 0.1289552
0000a0 78 c3 5e 3c 16 5d 17 3d 9e 3b a3 3e 2d 61 04 3e
       0.013596408 0.036954008 0.31881422 0.12927695
0000b0 6d 0b d1 be 61 7d 21 3e 50 82 86 be 98 ff 28 3f
       -0.4082903 0.15770485 -0.26271296 0.66015005
0000c0 87 56 c2 3d f4 1f 39 bf e2 67 37 be a1 b7 99 3e
       0.0948916 -0.7231438 -0.17910722 0.3002291
0000d0 c7 59 0a bf ca 5a 20 bf 04 9c 23 3f 45 09 b8 3e
       -0.5404324 -0.62638533 0.63909936 0.35944572
0000e0 d3 89 1d bf ee 7e f8 be 18 8b 3b 3f c0 b2 cb be
       -0.6153843 -0.4853434 0.73259115 -0.39784813
0000f0 21 9b 3c be 6f 72 c9 be 43 50 84 be 0c e0 73 bf
       -0.18418552 -0.39345118 -0.25842485 -0.95263743

weight f4 [8, 8]
000000 fe a1 8a be 7a f2 30 bf 67 b5 de 3e dd 01 23 3f
       -0.27076715 -0.6911999 0.43497774 0.6367472
000010 6e bd 27 bf 86 4d c5 be 20 64 3b bf f9 40 60 bf
       -0.6552342 -0.38535708 -0.73199654 -0.8759914
000020 4d 61 f4 bd 88 24 e2 3e 36 81 87 be 8c 8e 40 3f
       -0.11932621 0.44168496 -0.26465768 0.7521751
000030 6b a0 8e bd a9 7d 78 3e 18 44 6b be 62 40 75 3e
       -0.06964191 0.24266686 -0.22975194 0.23950341
000040 da e3 7d 3e e6 34 52 bd f7 a0 af 3e a7 2b c1 be
       0.2479395 -0.05131998 0.34302494 -0.37728617
000050 31 e1 a7 3e d2 77 c0 3c 95 fa 58 3e d6 c1 52 bd
       0.32788995 0.023494635 0.2118934 -0.051454388
000060 b3 01 38 3e e2 13 27 3e d2 2f 16 3f a0 ae 0e be
       0.17969398 0.16316178 0.5866672 -0.13933802
000070 35 bc 4b 3e 0e 42 53 be 9a f0 4f be 78 aa 97 be
       0.19896014 -0.20630667 -0.20306626 -0.29622245
000080 01 3c 62 3d 5c ee 19 3f 84 47 d5 be dc dc 67 bf
       0.055233005 0.6012933 -0.41656125 -0.9057138
000090 26 88 3a 3f 94 c0 b2 bb 46 cf 5a bf 09 56 e4 be
       0.72863996 -0.005455086 -0.85472524 -0.4459689
0000a0 71 fa 07 bf cf 52 d8 3e a8 95 56 3e 08 c2 11 bf
       -0.5311652 0.42250678 0.20955527 -0.56936693
0000b0 ae 8a 08 3f b6 0b 27 3f c0 3b 48 be 2d 93 1b be
       0.5333661 0.65252244 -0.19554043 -0.15192862
0000c0 9d eb c2 be 6e 59 72 3f 49 de 70 bf 85 87 db bd
       -0.38070384 0.9466771 -0.9408918 -0.10719208
0000d0 62 6a 13 bf 3e ef 19 be 98 47 18 3f 55 78 4e bf
       -0.575842 -0.1503267 0.59484243 -0.8065236
0000e0 22 25 95 3e bf be c9 be 5b be 34 3e 28 79 4b 3f
       0.29129893 -0.3940334 0.1765074 0.79481745
0000f0 12 81 61 bf 98 17 ad be 30 49 20 bf a0 61 43 3f
       -0.8808757 -0.33807063 -0.62611675 0.7632084

bias f4 [8]
000000 8c b2 b8 be 07 98 14 be 82 5d 37 bf 0c 6a 58 bf
       -0.3607372 -0.14511119 -0.71627057 -0.84536815
000010 9d a8 7f be 9c 8e 05 3f de 87 92 bc 7d 34 00 3e
       -0.24966665 0.5217073 -0.017887052 0.12520023

weight f4 [8, 8]
000000 7e 93 05 bf d2 0b 0d bf ca 01 2c 3e ed c4 4c 3e
       -0.5217818 -0.5509616 0.16797557 0.19996996
000010 29 47 63 3e 38 13 39 be ab 6e 7d bf 20 a3 42 bf
       0.22195114 -0.18073738 -0.9899699 -0.7603016
000020 11 e8 91 be 20 9a 23 3d 86 0d e1 be 6e a3 f4 3e
       -0.28497365 0.039941907 -0.4395563 0.47780937
000030 4a ed bb 3e ca 8e 1f 3f c4 22 8c 3f 36 04 29 bf
       0.36704475 0.62327254 1.094811 -0.6602205
000040 9d 53 22 bf ab 45 d8 3e ef 67 6e 3f 0f 8c 1b bf
       -0.63408834 0.42240652 0.9312734 -0.6076059
000050 81 fe b5 3c ce 3e af 3e 04 df 87 bf 58 46 1c 3f
       0.022216083 0.34227604 -1.0614934 0.61044836
000060 4c 49 a7 3e bf a7 00 3f b5 28 3f 3f 72 4c 97 be
       0.3267311 0.5025596 0.7467149 -0.2955051
000070 17 9c 98 3e b0 fa 8b 3e 81 86 22 bf 81 01 e0 3d
       0.29806587 0.27339697 -0.63486487 0.10937787
000080 92 f0 98 be 5f 12 32 bf 0b 16 6c be d4 b6 ca be
       -0.2987104 -0.6955928 -0.23055284 -0.39592612
000090 fd 55 a1 be d2 23 cd bc 87 ac 3c 3e e5 ff 2d bf
       -0.31510916 -0.025041495 0.18425189 -0.6796859
0000a0 b0 27 ce bd 7a be b5 3d 27 3d a9 3e d4 9c 1e bf
       -0.100661635 0.08874221 0.33054468 -0.6195805
0000b0 56 77 cb 3e 20 b6 84 3f 39 8c 99 3f 33 99 df be
       0.39739484 1.036808 1.1995918 -0.4367157
0000c0 01 9b 11 bf 43 49 18 3f e9 c5 b0 be 11 42 e0 be
       -0.5687714 0.5948679 -0.34525993 -0.43800405
0000d0 56 dc 40 bf a7 97 6e 3f 1e 3c 19 be 13 cb d8 bc
       -0.75336206 0.93200153 -0.14964339 -0.02646402
0000e0 4a fe d6 be 62 8e 92 bf 28 24 3f be 7b 60 2f bf
       -0.41990882 -1.1449702 -0.18666136 -0.6850659
0000f0 f3 c6 2f bf 9c cb 82 be b1 bc 33 3f 85 0c a2 be
       -0.6866295 -0.25545967 0.70209795 -0.31650177

weight f4 [8, 8]
000000 ee 14 c5 be 69 1d 87 3e 05 62 96 3f 7a 62 4c bf
       -0.3849253 0.26389626 1.1748663 -0.79837763
000010 39 47 72 bf c4 3a 41 3f c4 58 25 be 92 ba 2c 3e
       -0.9463993 0.75480294 -0.16147143 0.16868046
000020 52 26 d1 3e 95 35 9a 3e 3d 69 03 bf de 29 bc be
       0.4084955 0.30119005 -0.51332456 -0.36750692
000030 ae cc 8d 3f 2e 87 63 3f 16 de fc be 12 b3 1d 3f
       1.1078088 0.8887814 -0.49388188 0.61601365
000040 5e 53 29 bf f6 bd 35 be 7e 93 7d 3e 15 fb d8 3e
       -0.66142833 -0.17748246 0.24763295 0.4237906
000050 6d 79 ab be 55 d3 97 bd 95 5e bc 3e 01 6a 03 3e
       -0.33491078 -0.07413355 0.3679091 0.12833406
000060 01 49 86 bf fb cc 55 3e d3 e5 00 bd 9c 22 87 be
       -1.0491029 0.20878975 -0.031469177 -0.26393592
000070 dd 10 9e 3e 4c 03 0a be 79 9c 7f bf eb 11 5a bf
       0.3087224 -0.1347782 -0.99848133 -0.8518359
000080 51 32 86 bf 73 b0 15 bf be 22 b2 3d 69 1b cb bf
       -1.0484105 -0.58472365 0.08698033 -1.586774
000090 61 55 c4 be df 81 bb be 5d d3 ec 3e f3 e0 9d be
       -0.3834639 -0.3662252 0.46255007 -0.30835685
0000a0 85 fc 9c be 80 f0 80 3e 94 f2 85 3f 65 cd 0e bf
       -0.30661407 0.25183487 1.0464654 -0.5578216
0000b0 45 16 84 bf b3 d3 eb 3c 5e 4c 27 bf 8c 98 ed 3e
       -1.0319296 0.02878747 -0.653509 0.46405447
0000c0 58 80 cd 3e b9 1a 56 3e d6 2f af be 50 71 93 3e
       0.4013698 0.20908631 -0.34216183 0.28797388
0000d0 02 d9 72 bd b3 51 f0 3c 45 e5 c8 bd f4 71 16 bf
       -0.059288986 0.029335832 -0.09809355 -0.5876763
0000e0 24 64 22 3f 2c d2 a0 3e ca 24 b2 3e 02 56 fe 3e
       0.6343405 0.31410348 0.34793693 0.49674994
0000f0 c5 10 ba 3f 28 a9 a3 3e 57 a1 cd be ff 56 bf 3e
       1.4536368 0.31964993 -0.40162155 0.3737106

bias f4 [8]
000000 b3 82 b3 be 32 a4 b6 3c 51 82 8e 3e 59 4b 1e be
       -0.35060653 0.022295091 0.278338 -0.1545843
000010 0b 1b 36 3c 02 3f cf be 31 bf 01 3e a7 79 64 3f
       0.011114846 -0.4047776 0.1267059 0.89248127

weight f4 [8, 8]
000000 b7 59 d1 3e 9e 47 80 3e 52 9e 1c 3f 34 2a 2b be
       0.4088876 0.2505464 0.6117908 -0.16715318
000010 c1 e9 16 3f 90 25 e2 3e 0f 38 90 be 24 95 af 3e
       0.5895043 0.44169283 -0.2816777 0.34293473
000020 a6 a9 52 bf 84 fd cf 3e 46 7f 7f be cb 1a b4 be
       -0.8229011 0.40623105 -0.24950895 -0.3517669
000030 83 7d 62 bd f3 bc de bc c5 b5 c1 3e 49 9e 4b 3f
       -0.05529548 -0.027189707 0.37833992 0.795384
000040 f8 6c 27 3f ef ed 8f be 3d fa 90 3f d1 8c 19 3e
       0.6540065 -0.28111216 1.1326367 0.14995123
000050 85 31 ec be 5c 88 7a be 6f b0 89 bf 54 4a b4 3e
       -0.4613153 -0.2446608 -1.0756968 0.35212958
000060 d4 f7 46 3e a5 cb 7e 3e 89 85 fd bd 85 9f 56 bd
       0.19430476 0.24882372 -0.123789854 -0.052398223
000070 d3 3a 97 3f 04 2e b1 3d 5e 7c 62 bf 32 e4 77 bf
       1.1814827 0.08651355 -0.8847102 -0.96832573
000080 6c b7 3d 3f 43 c8 cc be 8d 85 c8 3e 20 92 2d 3f
       0.74108005 -0.39996538 0.3916439 0.67801094
000090 a2 c6 3d 3f 6b 8b cc be df 58 79 3d c6 60 e8 bd
       0.74131215 -0.39950117 0.06087577 -0.11346583
0000a0 06 a5 83 3e 3d 2b f3 3e 38 ff e0 bb d8 d6 ad be
       0.2571184 0.47493926 -0.006866362 -0.33952975
0000b0 d5 c7 67 be a7 1f 2a 3e 4a 6b bb be 1a be 2e 3f
       -0.22634824 0.16613637 -0.36605293 0.6825882
0000c0 e9 3b 1c 3f 09 29 8e be 74 3c 5d bd 45 e3 10 3e
       0.61028916 -0.27765682 -0.05401273 0.14149196
0000d0 3f e1 be be 91 90 e6 be ce fa 0d 3f f8 3b 3a 3f
       -0.37281224 -0.4503217 0.5546082 0.72747755
0000e0 e3 9e 7b bf 98 79 32 bf f4 86 02 3f a3 e9 33 bf
       -0.98289317 -0.6971679 0.5098717 -0.70278376
0000f0 4e af c0 3e 2d 04 3f bf 34 13 13 be 78 f1 85 bf
       0.37633747 -0.74615747 -0.14362794 -1.0464315

weight f4 [8, 8]
000000 15 3c 2a 3e 74 2a ba be 45 f4 1a 3d 05 f5 2d 3f
       0.16624482 -0.36360514 0.03783061 0.67951995
000010 49 75 79 bf a4 4e 74 bc 75 28 2a bd b6 b5 71 3f
       -0.9744459 -0.0149113275 -0.04154249 0.94417894
000020 7f 60 a2 3e 99 5c 2a 3f 95 77 64 3e a6 bb 37 3f
       0.31714246 0.6654754 0.22311242 0.71770704
000030 9c 92 99 bf d1 70 c8 bd e6 cc 5f 3f 13 77 0c 3f
       -1.1997867 -0.09787143 0.87422025 0.5486919
000040 c2 bb 30 3f 12 4d a6 3e 2a e0 ba 3e ac 57 8f 3e
       0.69036496 0.32480675 0.3649915 0.27996576
000050 33 f0 a4 be 3f a9 4d be 7f f9 3a 3f 1e a3 4b 3f
       -0.32214507 -0.20084094 0.7303695 0.7954577
000060 ba 90 f7 be 10 fa 08 bf a3 ce 86 3f c7 c5 55 bd
       -0.48352605 -0.53506565 1.053181 -0.05219057
000070 ff 85 09 3f d6 91 9e be c2 80 3e bf bf ae 8a 3d
       0.53720087 -0.3097064 -0.7441522 0.067716114
000080 f2 dc 6f bf 4d a1 a0 bf d3 2c 9c bf 30 a2 28 3f
       -0.9369651 -1.2549225 -1.2201179 0.6587248
000090 46 8e 6e bf 67 4a 09 bf 45 ed 83 bf 3f 82 37 be
       -0.9318584 -0.53629154 -1.0306784 -0.17920779
0000a0 f9 db 0d 3f 2e 70 ec bd 39 07 0f bf a4 42 3c 3f
       0.55413777 -0.11544834 -0.55870396 0.73539186
0000b0 cd 36 fc be 83 de 7e be c3 dd 05 be d5 cf 67 3d
       -0.4926056 -0.24889569 -0.13072877 0.05659469
0000c0 5f e9 19 be 38 67 1c 3d cf 67 82 be a6 f9 7d be
       -0.1503043 0.038184375 -0.25469825 -0.24802265
0000d0 fd 7e 20 bb 56 39 87 3e ad 10 01 3f 40 7b b9 bd
       -0.0024489753 0.2641093 0.5041607 -0.09056711
0000e0 f1 3a ad 3e dc 9f 43 bf e7 27 e9 be 98 d1 10 3e
       0.3383403 -0.764158 -0.45538256 0.14142454
0000f0 b5 89 e6 bd 98 9d 5d bf 93 c0 bd 3e 2c 67 23 bf
       -0.11256734 -0.86568594 0.37060985 -0.638293

bias f4 [8]
000000 34 c4 41 be 22 e1 2a 3f 73 cf 08 bf 12 cc 42 be
       -0.18922502 0.66749775 -0.5344154 -0.19023159
000010 b5 0e 6e bd 4b 5f a9 bd b8 16 16 3f 51 df 5d 3e
       -0.058119494 -0.08270129 0.58628416 0.2166722

weight f4 [8, 8]
000000 26 a0 cd 3e ee cf fe 3e 7a 54 cf bc 0b 62 a0 be
       0.40161246 0.49768013 -0.025308836 -0.313248
000010 cf 6f f1 3e 8a a6 fd bd bc 73 61 3f 22 76 07 3f
       0.47155616 -0.123852804 0.8806722 0.5291463
000020 6e 74 92 3d 2b 6b 2d bf be 84 49 bf 78 88 30 bd
       0.071511135 -0.6774165 -0.78718174 -0.043098897
000030 bb 98 76 bf 2a ba 53 3e 5f 7b d9 be 24 01 13 bf
       -0.963268 0.20676485 -0.42476937 -0.57423615
000040 1e fe be bd 85 f0 28 be ac fd 69 3c 77 29 95 3e
       -0.09325813 -0.16498001 0.0142816715 0.29133198
000050 39 ee 82 3d 8e b4 17 3f a0 64 97 3e 0f 30 7a 3f
       0.063930936 0.5925988 0.29568958 0.9772958
000060 75 e5 14 3f 96 11 4d 3f 78 f6 6a 3f 63 40 d8 3d
       0.58162624 0.8010496 0.9178233 0.10559156
000070 4f 59 79 be 80 b0 88 3f 4e 4a 52 be 86 ff 16 3e
       -0.24350475 1.0678864 -0.20536157 0.14745912
000080 6b de 89 be 84 63 73 3f f8 34 e1 3e 41 e7 12 bf
       -0.26927504 0.95073724 0.43985724 -0.57384115
000090 f6 c9 2a 3e 13 d9 39 be 12 30 69 3f dc 00 ab be
       0.16678604 -0.18149213 0.91088974 -0.33399093
0000a0 3e 17 45 be 43 41 f4 be 20 f6 ea be e6 46 ec bd
       -0.19247147 -0.4770604 -0.45890903 -0.1153696
0000b0 19 53 ea 3e 30 60 1b bf c1 d5 47 bf 45 a4 28 3f
       0.45766523 -0.60693645 -0.7806054 0.65875655
0000c0 09 5f fd 3d bb 7b 67 bf 3b a1 6d bf 7f 09 1b bf
       0.12371642 -0.9042317 -0.92824143 -0.60561365
0000d0 fe 0d 09 be 44 8d f0 3d 5e 9c a5 bf c2 3c 06 bf
       -0.13384244 0.11745694 -1.2938344 -0.5243646
0000e0 93 5e 0b bf ca 09 4c 3d 35 74 87 be bf b7 fb be
       -0.54441184 0.049814023 -0.26455846 -0.49163625
0000f0 ad 28 3f 3e 5f 7d 78 bf db 47 96 bf ee 41 f8 be
       0.1866786 -0.970663 -1.1740679 -0.484878

weight f4 [8, 8]
000000 1e 98 f6 be 02 45 0c be bf 55 dc be f6 5a 23 3f
       -0.4816293 -0.136982 -0.4303417 0.6381067
000010 41 19 c6 be 64 fd 51 bf d1 d5 98 bd da ad b7 be
       -0.38691142 -0.8202727 -0.07462657 -0.35874826
000020 a4 c1 17 3f 80 44 c1 be cc 1a 45 bf ce f6 ca 3e
       0.5927985 -0.37747574 -0.76994014 0.39641422
000030 88 bb 42 bf c1 08 87 bf 53 78 99 3e b6 90 1f bf
       -0.760674 -1.0549546 0.29974613 -0.62330186
000040 81 5c 8b 3e da bd 1d 3f 5e f0 65 3e f9 cc 67 be
       0.27219012 0.61617815 0.22454974 -0.22636785
000050 a9 0d 55 3f 7d b8 bd 3e 91 b6 ed bd 79 bf 26 be
       0.8322397 0.37054816 -0.116070874 -0.16283979
000060 c6 3c 3f be c6 82 b5 be 96 6d 72 3f cb d3 2c bf
       -0.18675527 -0.35451335 0.94698465 -0.6751067
000070 ec 01 3b be e8 42 5e bf fd 28 8d be e2 2e 16 be
       -0.18262452 -0.8682084 -0.27570334 -0.14666322
000080 3a 94 6c be aa 22 c8 3c 44 03 92 3e 4c 55 40 be
       -0.23103419 0.024430592 0.28518116 -0.18782538
000090 75 dc 34 3f 9e 29 da 3e fa 07 0c be 81 48 93 3e
       0.7064889 0.42609876 -0.13674918 0.28766254
0000a0 26 3a 3e bd 13 4b 22 bf 1b 31 a7 be 37 ac 2e 3e
       -0.046442173 -0.63395804 -0.32654652 0.17057882
0000b0 38 71 09 be f4 c1 0a bf 79 72 31 bd f1 ab d2 be
       -0.13422096 -0.542022 -0.04332206 -0.41146806
0000c0 00 34 02 3e ad b7 81 bd 3b 1c c0 3e c6 99 9b be
       0.12715149 -0.063338615 0.37521538 -0.30390757
0000d0 be 4f fb be 92 41 f1 be 39 84 16 bf 3e d7 4a 3e
       -0.49084276 -0.4712034 -0.58795506 0.19808671
0000e0 a2 08 a7 be 42 d4 23 bf e5 26 ca be 39 ff ef 3e
       -0.32623774 -0.63995755 -0.394828 0.46874407
0000f0 f3 92 68 3f 1c ae e3 bd cb 06 43 bf c5 4c 11 be
       0.90849227 -0.11117193 -0.7618224 -0.14189442

bias f4 [8]
000000 5d 68 49 bf b4 87 85 3d 59 b7 94 3e da 65 72 bd
       -0.7867487 0.06520024 0.29046133 -0.059179164
000010 89 3a 87 3e 92 b7 ec be c2 24 f2 3e b1 b4 83 3f
       0.26411846 -0.46233803 0.4729367 1.0289518
