mlartifacts/403163061964527456/d8a871b7b87f4fe8a1c8500d4ef48150/artifacts/models/data/model.pth (torch, 106880 bytes, 46 tensors)

bias f4 [32]
00000000: 54ab 313f bbaf 743f 391a b33f 21a9 be3e
00000010: 8985 e9bf 5c2f ca3e d6ef f43e 691b 533f
00000020: a4b8 da3e ff2c a93f e3b4 0a3e e110 48bf
00000030: 8c8e 8bbf eb7c 4f3f bed5 4d3f 61ae 7dbf
00000040: 9b65 903f 7f0f 353f fb92 513f 4f7b 7c3f
00000050: 7e68 da3d 43a9 1cbf cbd3 663f 4e4f ce3f
00000060: 7ffb 09bf b798 34bf 9cac 313f 0e08 d1bf
00000070: c9e2 82bf 82d6 57bd aa5b 293f a6b6 c7bf
0.6940205 0.95580643 1.3992378 0.3723841 -1.8243877 0.39489257 0.4783923 0.824637
0.42718995 1.3216857 0.13545565 -0.78150755 -1.0902877 0.81049985 0.8040427 -0.99094206
1.1281008 0.7072677 0.818649 0.98625654 0.106644616 -0.6119577 0.9016692 1.6117952
-0.5389938 -0.70545524 0.69404006 -1.6330583 -1.0225459 -0.052694805 0.66155493 -1.5602615

weight f4 [32, 3]
00000000: a465 d3bd bea0 363f 8198 77bd 8563 4f3f
00000010: e64e 3e3f 490d c3be 87ea edbd acd8 cb3e
00000020: 44cf 493f 7143 d2bf 9f04 46c0 372b 2f3f
00000030: 4fb4 bcbf a626 243f 499e 473e eb57 08c0
00000040: d455 e3bf 04df 073f 80bc 3e3f c3e7 083f
00000050: 6291 ec3e f184 1340 23b8 efbf 4b3c f03d
00000060: 1bc5 0d3f c51b f03e 3feb f93d 3e82 e23e
00000070: 5352 dd3e 2a42 183f 76db 453f fa68 0ec0
00000080: 0538 54be a848 71bf 14d3 0040 8409 b8bf
00000090: 23ab 5f3d 44cb 58bf 7a27 88be ff85 1b3f
000000a0: 8487 853f bd9d 8b3e c7fa 8b3f 23a1 c7bf
000000b0: bc4f d4be beab c43d 2281 debf 660e 05c0
000000c0: 41a8 3d3f c6c9 babd ad8c ae3d 0a63 2440
000000d0: 40ff 23c0 3f69 933e 2696 c43e 2711 e2bd
000000e0: dd52 cbbe 532b 6d3f 6acc afbe e4d9 243f
000000f0: e4b9 f1bf 9aa2 dcbe af4d b5bd 08b8 0bbf
00000100: c8ad 64bf 36d9 df3d 5474 c63e c28a 7e3d
00000110: dfef c33e ccae bf3f 3001 2a3e f9b2 753f
00000120: 7f55 dd3f 6b04 1ec0 a72b 913f bf6b adbf
00000130: 0908 2f40 9d88 9abe 4ee5 613e 8197 4bc0
00000140: f07c 5b3f 0427 d5bc a9f8 59bf 1e65 d9be
00000150: 1e06 38bf 3e76 993e 17b7 fc3e 8880 0540
00000160: 3be0 29c0 3075 a53f fd1d 9dbe b146 cfbf
00000170: 82a1 1a40 666a 9ebe 5e24 9dbf 3713 3cbe
-0.10322121 0.71339023 -0.060448173 0.8101123 0.7433914 -0.38096073 -0.11616998 0.39813745
0.7883189 -1.6426831 -3.094032 0.68425316 -1.4742526 0.6412147 0.19493975 -2.130366
-1.7760568 0.5307467 0.7450638 0.5347864 0.46204668 2.304989 -1.8728069 0.1173025
0.55378884 0.46896186 0.12203073 0.44239992 0.4322687 0.5947596 0.77287996 -2.2251573
-0.20724495 -0.9425149 2.0128832 -1.4377904 0.054606568 -0.8468516 -0.26592618 0.60751337
1.0431981 0.27268782 1.0935906 -1.559605 -0.41467083 0.0960307 -1.7383158 -2.0790038
0.7408486 -0.091205165 0.085229255 2.5685449 -2.5624542 0.28791234 0.38395804 -0.11038428
-0.39711657 0.9264423 -0.34335643 0.64394975 -1.8884854 -0.43092805 -0.088527076 -0.54577684
-0.8932767 0.109301016 0.38760626 0.06214405 0.38268945 1.4975219 0.16602015 0.95976216
1.7291716 -2.4690197 1.1341447 -1.3548506 2.7348654 -0.30182353 0.22060129 -3.181122
0.85737514 -0.02601958 -0.8514505 -0.4245996 -0.71884334 0.29973024 0.49358436 2.08597
-2.654311 1.2926388 -0.30686942 -1.6193448 2.4161077 -0.3094055 -1.2276723 -0.18366705

weight f4 [32, 3]
00000000: c091 d63e 94fd 493f 57d8 333f 0e00 aa3e
00000010: 4b98 bb3e a3e0 ed3e 652e 9b3f b62e 003f
00000020: 4849 e43e a11c 9f3c e393 14bf 70ed bfbe
00000030: d292 683f 3cd3 b73e c65a 193e 4103 15bf
00000040: 76a9 203d 6641 9abe 3be2 38bb c66c 903e
00000050: 1145 2b3f c1cc 1e3f 49a8 093e 93c7 f83e
00000060: dcde 2fbe e8f4 4cbf d104 e9be 1433 9f3e
00000070: 8e07 e03b f5c9 033f 5329 0b3f 4686 95bd
00000080: 2206 f13d 4efa 973e 39a8 5d3f 9496 6e3f
00000090: 2752 9f3e 1205 093f f29a 733f d85d 32bf
000000a0: 6fb2 3d3e 7925 5bbf 0a5f 0b3f 2d1c f63e
000000b0: cd80 8e3e c5b5 cfbe 091f 1bbf 0f7d da3d
000000c0: 1c36 17be e8b4 40be d3c0 eb3e 85c5 a4be
000000d0: 5fd7 19bf c525 38be 865c 5c3e f0e7 bd3e
000000e0: 05f6 813f f8b6 eebd b792 b5bd c5c8 62bf
000000f0: 1113 45bf c3e5 8ebe 4f31 d1bc a208 6fbe
00000100: 8ed5 e13d dcd2 6fbf 3593 8c3e 4c14 0abe
00000110: 689f 1e3f 635f b8be 79f8 bcbe 9f2a 42bf
00000120: 0eae 1ebe 997e c93e c10c 943e 0890 01bf
00000130: 7363 42be a1b6 4cbf 4437 9c3f 71be 873f
00000140: 682b 653d 9e6c 043f 69ed d83e 9d96 2e3e
00000150: ab08 593f 9a28 373d 21a1 c23e 55d9 4ebd
00000160: 2ff5 693f 332a 513e 54ca 2d3f 53cb 17be
00000170: 7adb 163f 10ae 3a3f d415 b9bf 7c48 82bf
0.41908073 0.78902555 0.70251983 0.33203167 0.36639628 0.46460447 1.2123533 0.50071275
0.4458716 0.019422831 -0.5803816 -0.37485838 0.9084903 0.35903347 0.14976034 -0.5820809
0.03922411 -0.3012802 -0.0028211016 0.28207988 0.6690226 0.6203118 0.13443102 0.48589763
-0.17174858 -0.800612 -0.45511487 0.31093657 0.006836838 0.51480037 0.5435993 -0.07301001
0.11768748 0.29683155 0.8658481 0.93198514 0.31117365 0.5352336 0.951583 -0.69674444
0.18525098 -0.85604054 0.54441893 0.4806837 0.27832642 -0.40568367 -0.6059423 0.10668384
-0.14766735 -0.1881901 0.4604555 -0.32181945 -0.60094255 -0.17983158 0.2151967 0.37091017
1.0153204 -0.11655992 -0.08865874 -0.885876 -0.7698222 -0.2790967 -0.025536207 -0.23343137
0.110270604 -0.9368112 0.2745606 -0.13484305 0.61961985 -0.36010274 -0.3690832 -0.75846285
-0.15496084 0.393544 0.2891598 -0.506104 -0.1898325 -0.7996617 1.2204366 1.0604993
0.0559496 0.51728237 0.4236863 0.17049642 0.8477885 0.044716455 0.38013557 -0.050500233
0.91389745 0.20426254 0.67886853 -0.14823656 0.58928645 0.7292185 -1.4459786 -1.017837

bias f4 [32]
00000000: 2dd5 62bc c00c 89bd 4a55 193f c789 0dbe
00000010: c2cc 2b3f 7e01 073b e43d 063e 1b1d 093e
00000020: fb0a 84bf 5eb9 03be 1554 4a3d ba60 173f
00000030: 87a1 ab3e 71a3 a8be 58cb 403e 041c 23bf
00000040: 1a24 ef3d 6794 3cbf 3e7d f43c 12fc 11bf
00000050: 7af7 a9be 47b9 c8be 9caa 403f 5aa0 d4be
00000060: 820c c23e 3aaf d4be 300b 653f 5134 fcbe
00000070: 7c8b f13e 4e10 333e 2d2e c5bd 3081 47be
-0.01384477 -0.06691885 0.59895766 -0.13822089 0.6710931 0.0020600255 0.13109547 0.13390009
-1.0315851 -0.1286368 0.049396593 0.5913197 0.33521673 -0.32937196 0.1882757 -0.63714623
0.11676808 -0.73663944 0.029844876 -0.57025254 -0.33196622 -0.39203855 0.7526033 -0.4152859
0.37900168 -0.41539937 0.89470196 -0.49258664 0.4717673 0.17486688 -0.09627948 -0.19482875

weight f4 [32, 1]
00000000: dead f3be 2488 353f 2270 ed3d d942 0fbe
00000010: 3327 f33d f213 143f d384 2c3f 130f 0a3f
00000020: 1422 253e 80f2 1fc0 5210 cf3e 97d8 183f
00000030: 6bf1 0dbf e558 30bf 117c e5bf 335a 283f
00000040: 1929 8cbd 8080 0c3f 11c9 303f 6a34 2e3e
00000050: 8c54 bbbe c109 d23e 99ea 2d3e f356 843f
00000060: f93d 48c0 f3c5 53be 9a56 2ebf 7a8a 45c0
00000070: 240b 8fbf 42d0 a73f 56fe e33e ad52 9bbf
-0.47593588 0.7091086 0.11593653 -0.13990344 0.11872711 0.57842934 0.67390174 0.5392925
0.16126281 -2.499176 0.4044214 0.5970549 -0.554465 -0.6888564 -1.7928487 0.65762633
-0.06843776 0.54883575 0.69056803 0.17012182 -0.36587942 0.41023067 0.16984023 1.0339035
-3.1287825 -0.2068098 -0.68100893 -3.086577 -1.1175275 1.311043 0.4452998 -1.2134606

weight f4 [32, 1]
00000000: 77bb 6d3f 7002 753f feca 5cbf 13dc b73b
00000010: 1008 d9bf 5334 9cbe 5261 03bf e96c 973f
00000020: c4be bc3d 026d 963f 6c26 1940 9028 263f
00000030: 0033 2bbf 2db9 973f b114 9ebf a694 aebf
00000040: 3dbc e13e 5d2e 093f 35d3 513e 8695 8c3f
00000050: 7883 f73f ac60 9dbf 508f 583f 1ed0 873e
00000060: 2ca1 8ebf ef42 7b3f 2eb2 713e 7694 a0be
00000070: 936b c7bf 75ae 9a3d 48f1 fc3e fc3e 9ebf
0.92864174 0.95706844 -0.8624724 0.0056109517 -1.6955585 -0.3050867 -0.51320374 1.1830112
0.09216073 1.1752017 2.39297 0.64905643 -0.66874695 1.1853386 -1.2350065 -1.3639114
0.44088927 0.5358637 0.20490725 1.0983131 1.9336996 -1.2295127 0.8459368 0.26525968
-1.1142936 0.9814901 0.23603126 -0.31363267 -1.5579704 0.07552806 0.49402833 -1.2362971

bias f4 [32]
00000000: 5305 d83e 509b eb3f 6712 5e3f 6d92 a73f
00000010: 21c9 bebf f4cc 2c3f 9729 aa3f d85a d33f
00000020: 16eb a63f 9838 783f 4f8a 31bf 66cd 60bd
00000030: 0245 d7bf c777 193f 9492 1b3f de53 f2be
00000040: c16c 0540 de32 103f 46e3 c33f 6612 bd3f
00000050: 2bce 833f ff5f 12bf df69 d03f 3092 373f
00000060: e379 aebe f6b0 26bf 44f7 c43f 6354 01c0
00000070: ab3f b0bf 5a91 943e 5b41 a93f 3e71 87bf
0.42191562 1.8406773 0.8674683 1.3091561 -1.490513 0.67500234 1.3293942 1.6512098
1.3040493 0.96961355 -0.6935167 -0.054883383 -1.6817935 0.5994839 0.60770535 -0.4732961
2.0847628 0.5632762 1.5303733 1.477124 1.0297292 -0.5717773 1.6282309 0.7170744
-0.34077367 -0.6511377 1.538796 -2.0207756 -1.376943 0.29017144 1.322307 -1.0581434

weight f4 [32, 3]
00000000: 071e 3f3e 42ef 7b3f a99a 343f 927e 7f3f
00000010: dbc4 283f f5de 88bd 6d55 4d3f 53d0 22be
00000020: b9f3 dc3c b997 bdbf 17a5 01c0 f52f 5f3f
00000030: f638 8fbf f432 df3e 4f49 08be 92d6 03c0
00000040: 2661 bfbf f47b a03e 3a66 c83d 8ca4 103f
00000050: acf2 5f3f c0b0 f83f 4a57 20c0 676c 643e
00000060: fb9f 0a3f 5196 693f 59f7 443f 9a3a c43e
00000070: fe7e 323f e27b cf3e 2368 7b3f 9997 03c0
00000080: 5dbe 50be 06d9 20bf 553f 1a40 9720 54bf
00000090: a12e 36bf 2704 e93c dea5 18bf 75fe 593f
000000a0: 1243 c83e 322b 9e3c 0776 cd3f 0db4 8cbf
000000b0: 808f d1be e1c4 ea3e bf27 c4bf c4fa 9cbf
000000c0: f53b a83e 7976 213e 119b 07bd 4ba3 cc3f
000000d0: b2b5 24c0 7911 7d3f 15dc 5f3f cabb 243f
000000e0: 2c40 26be 2fdd dd3e d82f d73d 9df9 fd3e
000000f0: cc8c 96bf 91ad 75be c0f1 89be 035c f3be
00000100: 97d3 90be 5354 17bf 4e9a 173e b89f 2e3f
00000110: 38bb 5e3d c6cb 303f d9df 383e 2fcf 413f
00000120: 3e0f c63f 5d82 51c0 9613 b03f adaf 92bf
00000130: 3236 2940 2e0c 1dbf c6f7 553f d5e8 5cc0
00000140: 3f8b 03be 1e63 2dbf 74a9 9d3c d560 983d
00000150: 1efb c6be 164e 9d3e a632 45be d339 a43f
00000160: e4d7 18c0 d78b 0240 5d3e 48be 9156 ebbf
00000170: 290e 2540 f650 ebbe 10a3 73bf 5dd1 53be
0.18663798 0.98411953 0.7054849 0.99802506 0.6592538 -0.06683151 0.80208474 -0.15899782
0.026971685 -1.4811927 -2.0257013 0.8718255 -1.1189258 0.43593562 -0.13309215 -2.0599713
-1.4951522 0.3134457 0.09785123 0.5650108 0.8747966 1.942894 -2.5053277 0.22306977
0.5415036 0.9124499 0.7693992 0.3832596 0.69725025 0.40524203 0.98205775 -2.0561278
-0.20385118 -0.6283115 2.4101155 -0.8286223 -0.711649 0.028444363 -0.59628093 0.85153896
0.3911367 0.019307707 1.6051644 -1.0992447 -0.40929794 0.45853332 -1.532463 -1.2264028
0.32858244 0.1576785 -0.033106867 1.5987333 -2.5735898 0.98854786 0.87445194 0.64349043
-0.16235417 0.43332812 0.10507172 0.49604502 -1.1761718 -0.23991992 -0.26942253 -0.47531137
-0.2828643 -0.59113044 0.14804956 0.6821246 0.054377764 0.69060934 0.18054141 0.7570676
1.5473402 -3.2735817 1.3755977 -1.1459862 2.6439328 -0.6134671 0.835812 -3.451711
-0.12846087 -0.67729366 0.01924584 0.07440344 -0.38863462 0.30723637 -0.19257602 1.2830147
-2.388177 2.0397851 -0.1955504 -1.8385793 2.5789893 -0.45960206 -0.9517069 -0.20685335

weight f4 [32, 3]
00000000: af4d 313f 147b 5d3f de58 9f3f 8629 fe3e
00000010: 5da2 dc3d 82e4 c63d 4e24 e23b 701b 94bd
00000020: c663 a1bf d047 5ebf b1b9 30bf f819 25bf
00000030: 7626 4cbf 095e 75be 2247 633e b93c 36bf
00000040: 9203 41bf d25d 81bf c9e3 803f 55c6 a03e
00000050: 76e6 d03f 74c3 c3bf b454 c13e ebb9 473e
00000060: 26ab 9abe 0d7f 6fbf 6283 b7be ed9a 033f
00000070: 7347 893e f465 403f a7e7 633f 2efa f83e
00000080: 2b5c 7c3f 08ca 96bf 34c6 0bbf 264c 57be
00000090: a7a8 1ebf 6f60 a8be 1dd6 7bbf a0ba 8d3f
000000a0: e6ec 0940 5919 6d3f 7aa6 773e b1de 92be
000000b0: b41f 273f f10a 353f 0214 24bf 3ea6 4b3f
000000c0: ebbe 48bf 0a27 90bf f47b 2fbf aaae 403f
000000d0: 6065 e03f b121 483e 4391 883e 42b3 063f
000000e0: 63f3 9f3d a3ae e8bd ffb7 0240 e042 a53e
000000f0: 4051 dbbe b57a d1be 365f 16bd 2d61 f5be
00000100: c033 92bf 044f cebe 16fa 40bf 5abc 0ebf
00000110: 4532 63bf e5a8 bc3f 139f ab3b a2ab ce3f
00000120: b963 bbbd 3f4b 8e3e 51aa 4e3f 363e 6dbf
00000130: 6c65 50bf e043 62bf 1074 6cbf e0ef 34b8
00000140: 2ff5 07bf 4347 70bf 1e66 693d b74a 80bf
00000150: 8008 9b3f 45d1 60bf f3bf 413d e542 2a3e
00000160: f8f1 1f3f 462c 973f ad28 8fbf c138 18bf
00000170: e614 833e 461f a23f e8c7 113f 4a04 ab3d
0.6925916 0.8651593 1.2448995 0.49641055 0.10773156 0.09711553 0.0069013005 -0.07231796
-1.2608573 -0.8682833 -0.6903334 -0.6449275 -0.79746187 -0.23961653 0.22195104 -0.71186405
-0.7539607 -1.0106757 1.0069515 0.31401315 1.6320331 -1.5294023 0.37759936 0.19504516
-0.302087 -0.9355324 -0.35842425 0.51408273 0.26812324 0.7515557 0.8902535 0.48628372
0.9857814 -1.1780405 -0.5459931 -0.21025142 -0.61976093 -0.32886073 -0.98373586 1.1072578
2.1550841 0.926168 0.241846 -0.28685525 0.6528275 0.7071982 -0.6409303 0.7955054
-0.7841632 -1.1261914 -0.6854851 0.75266516 1.7530937 0.19544102 0.26673326 0.52617276
0.07810094 -0.11361434 2.0424802 0.32277584 -0.42835426 -0.4091393 -0.036711894 -0.47925702
-1.1422043 -0.4029466 -0.753816 -0.5575615 -0.8874858 1.4739043 0.005237469 1.6146128
-0.0914988 0.27791783 0.8072863 -0.9267305 -0.8140476 -0.8838482 -0.923646 -4.3138745e-05
-0.53108495 -0.93858737 0.056982152 -1.0022801 1.2111969 -0.8781932 0.047302198 0.1662708
0.6247859 1.1810386 -1.1184288 -0.594616 0.25601882 1.2665794 0.5694566 0.083504274

bias f4 [32]
00000000: cf06 6c3f dc12 943e 01d4 35bf 1376 3dbf
00000010: 2372 babe 5685 80bf 3e66 f03e f92f 8bbf
00000020: 89bf 8abf 2260 1d3f 15c7 973e d172 39bf
00000030: 2ac2 83bf 93c0 8b3f f920 383f 66ac 053c
00000040: c96a 5dbf ec5d 1e3f 75b5 3d3f ee47 13be
00000050: 3b0f 5cbe 220b 86bf a010 dabe eda5 7d3f
00000060: 81fd 403f 0332 53be a8fb 23bf 630e e2be
00000070: 7f84 bc3f 80cf 323f 1bae 6ebf b4fa 993e
0.9219789 0.2892064 -0.7102662 -0.7400829 -0.36415204 -1.0040691 0.46953005 -1.0874015
-1.0839702 0.6147481 0.29644075 -0.7244082 -1.0293629 1.0918144 0.7192531 0.008158779
-0.86491066 0.61862063 0.74105006 -0.14382908 -0.21490185 -1.0472147 -0.4259081 0.9908131
0.75386816 -0.20624547 -0.6405587 -0.441516 1.4727935 0.6984787 -0.93234414 0.30074084

weight f4 [32, 1]
00000000: f69e c73e 1156 523f eb08 6540 1462 333f
00000010: 8a69 edbf 8c4d 65be 3b50 92bd cee2 c63f
00000020: 814e 10be da74 0f3f 3cb3 bd3f dec9 03c0
00000030: fa7b 9fbf 6edb 593f d0ba 803f 9a5f 853f
00000040: d321 753e 10d4 0940 41c8 f93d 4b38 9f3f
00000050: 903e 37c0 5d70 8b3d dabb 993f e293 eb3f
00000060: d71d 7f40 9004 ebbf f763 c4be e204 98bf
00000070: f61c 1fc0 b185 5440 07eb aabe d9b6 8ebf
0.38988465 0.82162577 3.5786693 0.7007153 -1.8547833 -0.22392863 -0.07144209 1.5537965
-0.14092447 0.56037676 1.4820323 -2.059196 -1.245971 0.8510045 1.0057011 1.04198
0.23938684 2.1535683 0.121963985 1.2439054 -2.8631935 0.06808541 1.2010453 1.8404505
3.9861963 -1.8360767 -0.38357517 -1.187649 -2.4861426 3.3206599 -0.33382437 -1.1149551

bias f4 [32]
00000000: eade d63e 149d a23c 8985 ee3f 0164 833f
00000010: 452c 8bbf 491b 4f3f 3a49 113f 5d8d 263d
00000020: 9496 433f 48fc 693f 8181 07bf 4359 c0bf
00000030: ccbf 12be 01ba b53e bbe5 b63f 2aaf bebf
00000040: 1c5c 813f f2f5 653f a769 aabc e593 6f3f
00000050: d4b6 0d3f 21ef 77bf ddbd 8e3f 335d 543f
00000060: 4c10 2cbf 1312 2fbf 84ea 273f 457d 3cbf
00000070: db5c dcbe 0403 e53e 5583 7f3f 8d23 12bf
0.41966945 0.019850291 1.8634502 1.0264894 -1.0872885 0.8090101 0.5675236 0.04066216
0.7640164 0.91400576 -0.5293198 -1.502724 -0.14330977 0.35493472 1.4288858 -1.4897206
1.0106235 0.8982841 -0.020802332 0.93585044 0.553571 -0.96849257 1.1151692 0.8295471
-0.6721237 -0.68386954 0.6559222 -0.73628646 -0.43039593 0.44728863 0.9980977 -0.57085496

weight f4 [32, 3]
00000000: 7900 01bf 622b 353f 5f43 9c3d af15 ab3e
00000010: ac33 d2bb ffe1 89be f30d 903d 9a14 1abd
00000020: 2838 3dbc 33c4 c7bf 8515 29c0 da3f a03f
00000030: 1142 9dbf 4e58 6f3d a475 1ebf 142a f0bf
00000040: 004c d4bf 75ee f63e 47b4 6c3f ec87 653f
00000050: cfba 013e 8c8e d23f 1284 18c0 fbf5 c0be
00000060: d1cc 643f a017 393f dd5c cf3e 5675 4c3f
00000070: 3141 053f 3eba b93e 6bed 8b3f a301 abbf
00000080: 418d 19bf f5ee bebf 021b 0540 a43b 8ebf
00000090: 3b46 42bf ea61 25bf 28ad 29bf ff21 fe3e
000000a0: c135 9b3f 71f4 a2be d543 ca3f 06d2 86bf
000000b0: 2b22 6e3e f4bb bb3c c6a2 06c0 b0a0 d9bf
000000c0: d05f 42be cf71 7f3f 30f0 84be b3bf 0f40
000000d0: 48d2 2bc0 0ea9 743f b069 bb3e 9e95 453f
000000e0: d3f7 013f 2c54 25bd 6d4e 083f e1ad b63e
000000f0: 472a 0ec0 e599 dfbe 37d0 8cbf 9c3d 9a3d
00000100: db4e ffbd 8c1c 32bf a94f bf3e 6a0a 00bd
00000110: 1bb5 473f 9e50 5b3f 342d 06bf 80f4 1c3f
00000120: 551b 1140 e413 54c0 d669 c03f c97d a5bf
00000130: 9f2a 5340 2974 c5be a82f ca3d 51e0 43c0
00000140: 4466 123f 02e0 59bf b841 5ebf ce24 d5be
00000150: 00e2 9ebf c218 a43e 56cb 843e 19fb fc3f
00000160: 454d 2ec0 dbe6 de3f 2b42 70bd c519 f0bf
00000170: b7a1 3b40 2f4b 8ebf 58cb 2bbe db04 b5be
-0.50391346 0.7076932 0.076300375 0.3341498 -0.006414851 -0.26930234 0.070339106 -0.037617303
-0.011549033 -1.560675 -2.6419384 1.2519486 -1.2285787 0.058433823 -0.61898255 -1.8762841
-1.6585693 0.48228803 0.9246258 0.89660525 0.12668918 1.6449752 -2.383061 -0.37687668
0.89375025 0.72301674 0.40500537 0.7986654 0.520526 0.36274904 1.0931829 -1.3359874
-0.5998116 -1.4916674 2.0797734 -1.1111951 -0.75888413 -0.6460253 -0.6627984 0.49635312
1.2125779 -0.3182712 1.5801951 -1.0532844 0.23255222 0.022916771 -2.103685 -1.7002163
-0.18981862 0.99783033 -0.259645 2.2460754 -2.6847095 0.95570457 0.3660407 0.7718142
0.50768775 -0.040363476 0.5324467 0.35679534 -2.2213304 -0.436721 -1.1001042 0.07531282
-0.12466212 -0.6957481 0.37365463 -0.03125993 0.7801072 0.8566989 -0.52412724 0.6131058
2.2672932 -3.313714 1.5032299 -1.2929012 3.2994764 -0.38565186 0.09872371 -3.0605662
0.57187295 -0.85107434 -0.8681903 -0.41629642 -1.241272 0.3205014 0.25936383 1.9764129
-2.7234662 1.7414201 -0.058656853 -1.8757864 2.9317453 -1.1116694 -0.16776788 -0.35355267

weight f4 [32, 3]
00000000: 9511 373f 1817 0f3f 5a3e 753f 3f6f 3e3f
00000010: 03cf cabd c740 dc3d f293 393f 6869 003f
00000020: ccb7 4e3f 30ca 57bf 078d abbe 9053 31bf
00000030: 612f bb3e 9250 113e a406 e53d 69ee 07bf
00000040: 9de4 0abe 627f 73bf 636f 4d3f 22fd c83e
00000050: c59f 913e 8476 413f afd7 6f3f 9b1f 673f
00000060: 4f4a 41be cf57 4bbf db51 0cbf 9e21 71be
00000070: 1b90 2c3f 6b1e 303f 4cc9 003f 5624 213f
00000080: a67d 6e3f e27d 753f aecb 523f f0cd 883e
00000090: 04b4 7bbd aa09 203f c4bc 763e 62e1 98bd
000000a0: 45df 88be 9323 06bd 0be6 3d3f fe04 cf3e
000000b0: 68de 2a3f 337e 3fbf 36c9 5cbe fa18 31bf
000000c0: 8961 5b3f 1410 743f 3ce7 aa3e 6196 10bf
000000d0: 4dc4 26bf e6c9 64bf a838 083f 8461 ab3d
000000e0: ef48 bc3d cc31 7bbf 0a34 8c3d 453a 70bf
000000f0: 6c1e 49bf 24e4 f03d 4223 3ebf d29b 01bf
00000100: 478c 7bbf ef30 62bf 7d98 c2be 7a84 70bd
00000110: 502a 9c3f 8761 e3be 391a d13d 973d dcbe
00000120: b2f1 783f ba2c 3fbe 2db0 c73e b5ec f5be
00000130: cab0 d4be c5a8 f8be 9c8b 32be 430e 733f
00000140: e0f0 f93e bb13 293f 930f cf3e a72b 163f
00000150: 6187 023f 8740 b23e 4d3c 033e 99d3 11be
00000160: 3519 743f aeb3 6d3f 9d0d 503f 58ea 8bbe
00000170: 5ca1 a13d c928 83bb 0e96 9bbe b0cb 22bf
0.71511203 0.55894613 0.95798266 0.743885 -0.099027656 0.10754543 0.7249137 0.5016084
0.807492 -0.8429289 -0.33506033 -0.6926813 0.36559585 0.14190891 0.11182907 -0.5309816
-0.13563772 -0.95116246 0.8024809 0.39255625 0.28442207 0.75571465 0.9368848 0.902826
-0.18876003 -0.7943086 -0.548124 -0.2354798 0.6740739 0.68796414 0.50307155 0.6294607
0.93160474 0.95895207 0.8234204 0.26719618 -0.061450973 0.62514746 0.24095446 -0.07464863
-0.2673284 -0.03274877 0.7417914 0.40433496 0.66745615 -0.7480194 -0.21561131 -0.69178736
0.856957 0.95337033 0.33379543 -0.5647946 -0.6514328 -0.8937057 0.5321145 0.08368209
0.091935985 -0.9812286 0.06845863 -0.9383891 -0.78562045 0.11762264 -0.7427255 -0.5062839
-0.9826092 -0.88355917 -0.38006964 -0.05872009 1.2200413 -0.44410345 0.1021008 -0.4301574
0.972438 -0.18669406 0.390016 -0.48032156 -0.4154113 -0.4856626 -0.17436069 0.94943637
0.48816586 0.6604573 0.4044157 0.5866036 0.5098782 0.34814855 0.12815972 -0.14240874
0.9535096 0.92852294 0.8127077 -0.27327228 0.07892105 -0.0040026647 -0.3038792 -0.6359205

bias f4 [32]
00000000: fc5f 753f b632 5d3f 017b 2c3f 1475 18bf
00000010: 169f 6f3f a11c 05be c88f 813e e00e 09be
00000020: 0a9a 35bd 3db9 113f 767e 193e 752b ef3e
00000030: 91b4 cfbc e029 52bf 04f4 483f 3735 f73d
00000040: 9033 203f 8dbb 963d 582a 3abd 33fa 5ebf
00000050: ec4b 2dbf 17f9 febe 0be4 953f 0c9c c5be
00000060: 90e6 043f 7b9f 853c 7779 913f ddc8 e83e
00000070: c8cb 1a3f 0282 583f f7f0 963e 994d 8bbf
0.95849586 0.86405504 0.6737519 -0.5955365 0.9360212 -0.12999202 0.2530501 -0.1338458
-0.044336356 0.56923276 0.14989647 0.46712843 -0.025354655 -0.82095146 0.7849734 0.12070697
0.6257868 0.07359991 -0.04545054 -0.87100524 -0.6769397 -0.49799415 1.1710218 -0.38595617
0.5191431 0.016311398 1.1365193 0.45465747 0.60467196 0.84573376 0.29480717 -1.0883056

weight f4 [32, 1]
00000000: 176b 9cbf a888 e2be 87e1 a63e 7522 913f
00000010: 9e66 cb3e 0e90 3b3f aef7 a23f 0307 0abf
00000020: 079a 743d e8ca 22c0 13b1 d53e e7fe a63f
00000030: ce30 a13e be1b 75bf d7b0 5abf c578 6bbe
00000040: db22 0cbf 4a9e 4cbc 0d05 a23f dac7 62bf
00000050: d43c a6be aaa6 743e 2f22 753e 0d9c 1c3d
00000060: 113b 7ec0 3201 7bbf 36bb 38bf 3405 6dc0
00000070: 4f05 98bf 2140 9dbe 269a 4c3e 1647 0dbe
-1.2220181 -0.44244885 0.3259394 1.133864 0.39726728 0.73266685 1.2731836 -0.5391695
0.059717204 -2.5436344 0.4173666 1.304654 0.31482548 -0.95745456 -0.85426086 -0.22995289
-0.54740685 -0.012488911 1.2657791 -0.885862 -0.32468283 0.23891702 0.23938821 0.03823476
-3.9723551 -0.980487 -0.7216066 -3.7034426 -1.187662 -0.3071299 0.19980678 -0.13796648

weight f4 [32, 32]
00000000: 1747 a23e ab06 823e f197 02bf e750 91be
00000010: 1c35 913f 7f46 03bf c8ef 8bbc a65a d0be
00000020: 89c1 ce3e 290e a83e 0bf3 9c3e ef35 b0be
00000030: 7a3e 05bf 0fef 08bf b2e6 f73e c0c1 c43e
00000040: 5f62 b23f bc48 b7be d368 c2be a4da 88be
00000050: 820e 8fbe ff81 c23e dfb1 aa3e 17d8 ec3e
00000060: 1460 cabe 36df bbbe dc88 bdbe a373 f3be
00000070: 8490 eb3e 3538 5b3e ff73 8cbe 4be2 14bf
00000080: 7afa 3abf 23c7 9dbd f330 3bbe e09e 293f
00000090: 05d3 ad3e f293 323f 5a33 14bf dafb 1f3d
000000a0: 7b69 67be cab8 8fbd 7312 33bf fd51 2e3e
000000b0: 5f8e ac3e 4b4d 833d 7481 fbbd 1d81 f7bd
000000c0: 6ebd 82bf 0555 e53d 5e9c 993e 9ae4 743e
000000d0: 3d25 5b3d 127c d73f 77b8 6cbe 13fa f93e
000000e0: b97e 6f3e 2737 0d3f 28f9 073f 75f4 ec3e
000000f0: 8dd7 1ebe 6db1 1abf 7647 e93d 432b f33d
00000100: 0a1d 013e 4c41 483e ee0f 2abe 95a0 2ebd
00000110: 0907 8d3e 49fa 7bbd 3d71 4e3f 4a46 153f
00000120: 2675 063e 6d65 53be 025f 9e3d 8bea a43e
00000130: 4b1d 40bc 5300 2f3f 1b42 29bf d209 28bf
00000140: 85cb 8dbe 95ff dd3e c6db e33e 568f 473f
00000150: 681e e83e 5ec9 67be c73a 3dbf 3c96 c5be
00000160: cbf4 ff3e 81c8 f33d 72b5 34bd ba55 a43d
00000170: 2ee1 14bf 2586 19bd bf40 aa3e 68b8 073f
00000180: 0ec4 c7be e260 dc3f d2dd 233e 3716 a63e
00000190: 232f 903e fee6 163f ce1b b03e d790 4f3e
000001a0: aeee 3740 68c1 293e aa64 e6be 75e7 723e
000001b0: a25d 863e 4135 ab3e 2aca a3bf b6a0 81be
000001c0: c2c2 a1bf 677a bb3b 69f9 46be 18ca d23e
000001d0: 9d7f 4a3d dd76 0b3f 2ea3 41bf d4a2 643e
000001e0: 2da6 093f b62c a03e f63e 8b3e 56c5 943e
000001f0: dae9 01be 5fb1 abbe 34a8 4c3f bb58 fe3d
00000200: dbb8 8cbf 6adb 063f 1a28 b63f 36a7 7a3f
00000210: 72e7 743f dfd3 763f 20ea cdbf 1e05 d7be
00000220: a635 0d3f 32e6 a83d 1cad a4bf e7f4 abbe
00000230: dcbd 983f 0b92 3abe 8a68 5d3f 9721 113f
00000240: a751 c43f bbd9 55bf caaa 8dbe e409 b2be
00000250: 3014 c6be 2c4b 283f d6e4 2f3f 8358 39bf
00000260: f43d 15bf ee41 9c3f 4568 b43f 7f3e 9d3f
00000270: 4218 253f 9636 acbf 7e08 75bf 0e58 8fbe
00000280: 0497 85be 1141 b7be 5ef3 1e3d ae50 ca3e
00000290: 131a ba3e 1e1e b33e 40d8 713f 7389 063f
000002a0: f131 bfbe 3e94 03bf 1629 cdbe f3b3 803e
000002b0: d4a8 8e3e cfeb dd3e 8526 9ebe 58e0 b1be
000002c0: b0eb 6fbc 8960 db3e 09b3 0f3f 31b5 df3e
000002d0: 67d3 d73e c9a3 1bbf a7c8 92be fe57 00be
000002e0: 5365 b13e c016 ec3e cd56 8d3e efaf e43e
000002f0: 3a1b 10bf 0a81 c2be 9ebe e63e 50ea 053f
00000300: 5622 37bf 088a 50be d2a6 273f 4c41 503f
00000310: dfde 39bf d44d 253f d107 37bf fd13 f4bc
00000320: b8d9 08bf 790a 22bd 61b8 43bf 5c00 323e
00000330: fef8 563f b548 0a3f 6c85 373c 9881 0fbe
00000340: 4158 a2be 05a6 4e3f f2ff 7c3e 92c5 3b3f
00000350: 164d 87bd 5368 3ebf fdc6 173c 3b87 07bf
00000360: 0545 25bd f466 583f c8bc 3e3f 78e5 493f
00000370: 51b5 07bf e7b6 1ebf f9d1 2e3e d90a 0b3f
00000380: 7cd2 17bf 0601 45bf e6a2 8a3f fbd1 e43e
00000390: 036e 3a3f b044 083f f059 313d 68ee 5a3f
000003a0: ce87 85bd 5418 28bf dbe9 35bf 3e15 123f
000003b0: e692 153f 6082 f13c 7ca7 76bf 9e96 2abf
000003c0: 0eae 34bf 38e3 073d 0080 f63d b1a1 813e
000003d0: 4f23 163f a777 693e 08c7 123c 95b5 35bf
000003e0: ed8f 953d d3e6 623f e3ec 403f 1917 013f
000003f0: 53bf 4dbf cca1 80bf 4537 603f 20c1 8e3d
0.31694862 0.25395712 -0.51013094 -0.28382036 1.1344333 -0.51279444 -0.01708211 -0.4069416
0.4038203 0.32823303 0.30654177 -0.34416148 -0.52048457 -0.53489774 0.48418194 0.3842907
1.393627 -0.3579768 -0.379706 -0.2672931 -0.27940756 0.37989804 0.3333883 0.46258613
-0.39526427 -0.36693734 -0.37018478 -0.4754916 0.46008694 0.2140816 -0.27432248 -0.58157796
-0.73038447 -0.07703998 -0.18280391 0.6625805 0.33950058 0.69756997 -0.57890856 0.039058544
-0.22598831 -0.070176676 -0.69950026 0.17023464 0.3370237 0.06411227 -0.122805506 -0.12085173
-1.0214059 0.11197857 0.3000211 0.2391533 0.05350231 1.6834738 -0.23117243 0.48823604
0.23388185 0.5516228 0.5311456 0.46280256 -0.15511914 -0.6042698 0.11390583 0.11873486
0.12608734 0.19556159 -0.16607639 -0.04263361 0.2754443 -0.061517987 0.8064154 0.5831038
0.13130626 -0.2064416 0.07732965 0.32210192 -0.011725734 0.6835987 -0.66116494 -0.65639985
-0.27694336 0.43359056 0.4450361 0.7795309 0.45335698 -0.22635409 -0.7391781 -0.38591182
0.4999145 0.119034775 -0.044118352 0.080241635 -0.58156097 -0.037481446 0.33252522 0.53015757
-0.39016765 1.7217066 0.16002586 0.32438824 0.28160962 0.58946216 0.34396213 0.20270096
2.8739429 0.16577685 -0.44998676 0.23721106 0.2624331 0.33439067 -1.279607 -0.25317925
-1.263756 0.0057213786 -0.1943108 0.4116981 0.049438108 0.54478246 -0.7563962 0.22327739
0.5376919 0.31284112 0.27196473 0.29056805 -0.12686864 -0.3353376 0.7994416 0.12419268
-1.0993913 0.5267855 1.4230988 0.97911394 0.9566566 0.9641704 -1.6087074 -0.41996092
0.55159986 0.08247031 -1.2865329 -0.33585283 1.193294 -0.18219773 0.8648764 0.5669188
1.5337418 -0.83535355 -0.27669364 -0.3477317 -0.38687277 0.65739703 0.6870855 -0.72400683
-0.5829766 1.220762 1.409432 1.2284697 0.6449014 -1.3454158 -0.95716083 -0.27996868
-0.26091778 -0.3579183 0.03880631 0.3951468 0.36348018 0.34983915 0.94470596 0.5255348
-0.3734279 -0.51398075 -0.4007041 0.2513729 0.2786318 0.4334397 -0.30888763 -0.34741473
-0.014643595 0.42847088 0.5613256 0.43692926 0.42153475 -0.6079679 -0.2866871 -0.12533566
0.34647617 0.46111107 0.27605286 0.44665477 -0.56291544 -0.37989074 0.45067304 0.5231066
-0.7153677 -0.20365155 0.6548892 0.81349635 -0.726057 0.6457188 -0.714963 -0.029794687
-0.5345721 -0.03956077 -0.76453215 0.1738295 0.8397368 0.5401719 0.011201244 -0.1401428
-0.31707957 0.80722076 0.2470701 0.73348343 -0.066065 -0.74377936 0.009263751 -0.5294072
-0.040349025 0.84532094 0.7450681 0.78865767 -0.5301104 -0.61997837 0.17072286 0.5431343
-0.5930555 -0.76954687 1.0830963 0.44691452 0.72824115 0.5322981 0.04329866 0.8552003
-0.06520043 -0.6566212 -0.7105996 0.57063663 0.58427274 0.029481113 -0.9634931 -0.66636074
-0.70578086 0.033175677 0.12036133 0.25318673 0.58647627 0.2279955 0.008958586 -0.709802
0.07302842 0.8863346 0.7536146 0.5042587 -0.8037006 -1.0049376 0.87584335 0.069704294

bias f4 [32]
00000000: 92c5 573e d1af 26bf 7015 27be ce2f b4be
00000010: f7b5 47bf c48e 84be bbf0 2cbf 7f9d 30bf
00000020: 7129 d73f 47f7 67be 884b 0cbf 5f4f a63f
00000030: 8822 113f 14c7 5c3f eb32 edbe 480a fc3e
00000040: 1f28 7bbe 3daa 9f3e 697b 0a3f 74bb d73e
00000050: 29be b7be c5af f5be b98a 6ebe b650 cb3f
00000060: 25bb 843e 6e5b 303e 7619 1dbf ac33 1b3f
00000070: b80c 093f 9f40 08bf 1e55 08bf 4c1c 8d3e
0.21071461 -0.65112025 -0.16316772 -0.35192722 -0.7801203 -0.25890172 -0.67554826 -0.6899032
1.6809522 -0.22652923 -0.5480275 1.2992972 0.56693316 0.8624127 -0.4632791 0.49226594
-0.24527024 0.3118457 0.5409456 0.42135203 -0.35887268 -0.47985664 -0.23295106 1.5884006
0.2592403 0.17222378 -0.61366975 0.6062572 0.5353503 -0.53223604 -0.5325488 0.2756065

weight f4 [32, 32]
00000000: 8849 e1be 5eb3 eebe 35cb eebe e00e 033f
00000010: c6ce 1c3f 75d3 793e 227a a73e 974d 3f3f
00000020: f47b 573e 019e 4bbf 0395 9b3e d6d1 43bf
00000030: a801 aebe 325c 89be ac75 273f 9d9d 083e
00000040: db1c 9e3e 67c3 603f 65fa febe c401 ad3e
00000050: 6d8f 0f3e ff60 f0be ebc7 6c3e 55d8 0fbf
00000060: 0c19 a63f 6f86 9cbf 772b 903f 77f6 ec3e
00000070: e047 0ebe 216c 643f 87c3 643f 4adb a43e
00000080: 0267 4b3e 0735 0abf 3bbc 3e3e 3cb8 36bf
00000090: fe6d 7abe 6529 81bf b162 c2be 01a9 80c0
000000a0: cde3 08bf 6306 283e 9a58 f3bf 462a 1240
000000b0: afc1 323f b7ac 463e 02c0 c7be e7f4 873e
000000c0: fa5d 0abf 9704 cabf 30cd ae3e d178 c6be
000000d0: 9eb8 11be 3b13 853e ec79 f0be ccfa 843d
000000e0: 94a1 e3bf 55c6 5040 6136 8fc0 632b c7be
000000f0: 33a1 abbe 76f8 2ebf 8ec2 a5be dc83 0cbe
00000100: 4fbb 0dbc 793b 333f 0f8d c13f 2be6 0fc0
00000110: 9f1f 75bf d55f 14c0 2bf7 693f 258a e53e
00000120: 3b43 233d 82b2 d0be c520 5d3f 54e9 d2be
00000130: 3355 2ebf bdbe 6c3f 2a0d 863d ccb5 2f3f
00000140: 4e7d be3d 404c 913f aa6b 0f3f c353 12bc
00000150: 36bb 4cc0 043d 31bd 04f0 60be 022d 633f
00000160: 38a4 8e3f 41e3 53bf cd7f 00be 05f9 3abf
00000170: 4be0 6cbf 94ce 2a3e 5b55 f9be 5a1e 6bbf
00000180: 014b 1d3f eeb8 923f 1e33 b9bf 46ef eebe
00000190: 1d6d 1540 d891 5abe b856 2bbe ddbf 4abf
000001a0: 7715 9dbe cda1 8cbf f2b8 a5be 35e0 b13f
000001b0: db18 97bf f69c 16c0 8a21 3dbe 5fb4 47ba
000001c0: b7ab 8cbe b13a f03e 2b22 033f fbaf 6ebe
000001d0: 5428 eabe f31a 573e 0231 f8be 8507 83bf
000001e0: d32b b2bf 5264 be3f 7d88 f8bf 73c7 4c40
000001f0: d21d 4c40 edd1 81be 6437 0640 b53f 1f40
00000200: 6398 c6bf 7241 7abf 235f 15bf e9d9 21bd
00000210: f240 003f 656f 7abf e98b b3bf 5e4e 07bf
00000220: b308 60bf a4a5 26bf d380 8d3d 6aef a13e
00000230: 9545 633f 226f c0be ff5f 8ebf bcf4 c63f
00000240: 8475 72bf 01f9 ba3f ac43 cdbe d654 8bbf
00000250: e7f0 7cbf 9357 703f 5524 74bf 4620 a6be
00000260: 330b d63f b0ee 003f 5c9c 063f af86 0f3f
00000270: 6728 0a3f 3e65 2f3f 3386 133f ee5c e43e
00000280: 532f e1be cdab 89be 0250 773e 6400 8abe
00000290: 5518 ccbe 9e4e ccbe 61b5 c9be 3411 0e3f
000002a0: 968a 03bf a84b 0f3f 4870 243e e404 02bf
000002b0: c9f5 d1be 438f f13e 6be8 cabe 2ee4 963d
000002c0: aa1d f3be 513d 163f 0a11 a83e 16e5 d9be
000002d0: 6960 cbbe 17bc 9e3e 28e1 c3be 96e0 033f
000002e0: 3fe4 d6bf 910b 833f c108 71be 48ea 9abe
000002f0: 8783 c1be b5e3 75be d900 69be 341b 73be
00000300: 60d1 09bf 8938 5a3e d072 d43d d637 48bf
00000310: 8f81 60be 5914 0dbf e7a9 46bf 7561 383e
00000320: caab 56bf 3b11 a23c 9106 5e3e c833 08bf
00000330: e492 ebbc 45c5 c53d f862 0bbf 7c50 1c3c
00000340: 1130 31bf 36e0 13bd cd8f 133e b4f3 1dbf
00000350: 47df 77bf 86a6 583f 2af7 26bf 6007 6f3e
00000360: 6148 69bc 034e 95bf 4f89 16bf cdd2 d03b
00000370: b75d 40bf c5d6 24bf c311 05bf a2bf 54be
00000380: 7a7b 13bf af74 093e a051 923e e997 0dbf
00000390: b847 3d3f 5076 8cbf 54c4 cb3d 57c9 083e
000003a0: 943b dbbe eac7 09bf d06f 983f e467 a93e
000003b0: c435 5e3e 7ae1 d53d fe6a 05bf b6ae 3a3f
000003c0: 9157 12bf daac 66bd 820e 893e 929c 40bf
000003d0: 0bc4 09bf e03e 3d3f 312e 2bbf 0aa0 c33d
000003e0: e571 843e 38d8 0dbf b880 1a3f 2d57 b0bd
000003f0: c301 39bd 341f 93be f4ad 33bf e8a4 1bbd
-0.44001412 -0.4662122 -0.4663941 0.5119457 0.6125301 0.2439707 0.32710367 0.7472777
0.21043378 -0.7953797 0.30387124 -0.7649206 -0.3398564 -0.26828152 0.6541393 0.13341375
0.3088139 0.8779816 -0.4980041 0.3379041 0.14019556 -0.46949002 0.23123138 -0.5618947
1.2976394 -1.2228526 1.1263264 0.46281788 -0.13894606 0.8922749 0.8936085 0.32198554
0.19863513 -0.53987163 0.18626492 -0.7137487 -0.24456021 -1.0090758 -0.3796592 -4.0206304
-0.53472596 0.16408686 -1.9011414 2.2838302 0.6982679 0.19401823 -0.39013678 0.26554033
-0.54049647 -1.5782651 0.3414092 -0.3876405 -0.14230582 0.25991234 -0.4696802 0.06493148
-1.7783685 3.2621052 -4.475388 -0.3890029 -0.33521423 -0.6834787 -0.32374996 -0.13722175
-0.008650615 0.70012623 1.5121173 -2.2484233 -0.95751375 -2.3183491 0.91392773 0.44831958
0.039859038 -0.4076119 0.8637813 -0.4119364 -0.68098754 0.92478544 0.065454796 0.68636775
0.09301244 1.1351395 0.5602366 -0.008931103 -3.1989264 -0.04327108 -0.21966559 0.8874055
1.1143866 -0.82768637 -0.12548752 -0.73036224 -0.92529744 0.16680366 -0.48697934 -0.9184319
0.6144257 1.1462686 -1.4468725 -0.46666926 2.3347847 -0.21344697 -0.167323 -0.7919901
-0.3068044 -1.0986878 -0.32367665 1.3896548 -1.180446 -2.3533301 -0.18469825 -0.0007618125
-0.27474758 0.46919778 0.5122401 -0.23309319 -0.45733893 0.21006374 -0.4847489 -1.023667
-1.3919624 1.4874365 -1.9416653 3.1996734 3.18932 -0.25355473 2.0971308 2.4882634
-1.5515255 -0.9775611 -0.5834829 -0.039514456 0.500991 -0.97826225 -1.4027072 -0.52853954
-0.87513274 -0.650965 0.06909337 0.3162797 0.8877805 -0.37584788 -1.1123046 1.5543437
-0.94710565 1.460724 -0.40090692 -1.0885265 -0.9880509 0.9388363 -0.9536794 -0.32446498
1.6722168 0.5036421 0.52582335 0.56064886 0.539679 0.6851386 0.57626647 0.4460215
-0.43981418 -0.26888886 0.24151614 -0.26953423 -0.39862314 -0.3990373 -0.39396194 0.55495
-0.5138334 0.5597482 0.16058457 -0.5078871 -0.41007832 0.47179613 -0.39630446 0.073677406
-0.4748357 0.5868731 0.328255 -0.4255759 -0.39721993 0.31002876 -0.38257718 0.51514566
-1.6788405 1.0237905 -0.23538496 -0.30256867 -0.3779566 -0.24012645 -0.2275423 -0.23740846
-0.53835106 0.21310629 0.10373461 -0.782102 -0.21924423 -0.55109173 -0.77603 0.18005927
-0.8385588 0.019783607 0.21682192 -0.5320401 -0.028756566 0.09656767 -0.5444789 0.009540673
-0.6921397 -0.036102496 0.14410324 -0.61699986 -0.9682507 0.84629095 -0.6522089 0.23342657
-0.014238448 -1.1664432 -0.58803266 0.0063727857 -0.75143 -0.6439021 -0.5198023 -0.20776227
-0.57610285 0.13423418 0.285779 -0.5530992 0.7393756 -1.0973606 0.09949556 0.13358055
-0.42818892 -0.5382067 1.1909122 0.33087075 0.21700197 0.10443397 -0.5211638 0.7292284
-0.57164866 -0.056317188 0.2676888 -0.7523891 -0.5381476 0.73924065 -0.6686736 0.095520094
0.25868145 -0.5540805 0.6035266 -0.086103775 -0.045167696 -0.28734744 -0.70187306 -0.037999064

weight f4 [32, 32]
00000000: ff08 ab3e f0f7 db3e f7aa 06bf 7352 fe3e
00000010: 0da4 b1be 5e85 b83e a930 85be 3fa1 dfbe
00000020: 7048 7f3e 99c3 0d3f 9bec dd3e 624f 9bbe
00000030: 6911 cabe 28d1 e13e 3233 f03e 4108 02bf
00000040: e41b 833e a757 d33e 6de3 9abe 6cda 833e
00000050: b702 de3e a295 88be ddf4 0c3f 49d4 b7be
00000060: 6088 e83e ca79 f2be 508d c4be 9fd3 03bf
00000070: 333a b6be 8d64 d43e 56cd 81be 2ce6 d63e
00000080: d560 92be e904 0bbf 67de 0a3f f2ea 11bf
00000090: 33c8 983e ebca ccbe a283 b1be 0efb bb3e
000000a0: ed47 61be 100a 0ebf 23b5 b53e caa6 c43e
000000b0: 9724 d23e 447b d83e 75eb fabe e7e1 0b3f
000000c0: 0ff8 ecbe 2e42 09bf 12c6 d83e be3d 81be
000000d0: 3db1 72be 9e19 c53e 6e29 c8be 0fd7 003f
000000e0: ad3b d0be 7b14 ff3e 5832 0d3f 5ae9 bdbe
000000f0: 971c a53e 7bb2 9ebe f1fa 873e 9c81 00bf
00000100: 3bf1 05bf 9078 7ebe 73d9 0a3f 35ff acbe
00000110: 9968 c03e 3355 b5be a1ee 80be c6dc cd3e
00000120: ad9b c7be 73e3 a6be 585c 89bd 0767 8d3e
00000130: c31c 143f 9a42 82be a982 e3be 9823 123f
00000140: 6b1d fdbe 4d87 afbe ec03 d93e 85e4 f8be
00000150: cf01 ccbe ef50 f73e 38f1 0ebf 7887 e23e
00000160: 05f0 82be 25cb b13e f9bc 433e 7bf8 b33e
00000170: dabd 493e 443a e9be d9ac ae3d 7a9d b5be
00000180: d634 c43e 1250 033f f2e4 bfbe 3ee5 ad3e
00000190: e2f3 cabe 4dbb 0a3f 6bf1 16be ae78 0cbf
000001a0: b706 bd3e 45b0 843e ffd7 a93e b5b7 0ebf
000001b0: 3ece 0fbf 1d84 b43e 565e 853e 83cc f0be
000001c0: 6800 b23e be24 673e cc1f bdbe e762 f33e
000001d0: 3134 913e c21b cbbe 525e b83e 418f 06bf
000001e0: 7c5a b73e b11d 0bbf 482d 8bbe 2fbc efbe
000001f0: 2722 0dbf fb82 ce3e 9a9b 78be e920 ef3e
00000200: ba05 cfbe 8b0f fe3e 700a fc3e f907 67be
00000210: 0c11 923e dbca 10bf 121e c33e 200d f03e
00000220: 03de dfbe 709f 8dbe 250a bfbe 65f3 aa3e
00000230: c694 923e 598e 0d3f ae77 04bf ebc9 743e
00000240: 0f00 debe a6ab f6be f5f6 ea3e bb77 00bf
00000250: 3a04 c0be 61da e73e 3fc7 e3be 3596 bb3e
00000260: 2e01 c5be b9c9 f93e 4258 a33e 1ad5 01bf
00000270: 43c9 a93e edcd 05bf 77a2 e7be 5a33 64be
00000280: 5860 91be 59a1 90be e74e 093f 4641 fabe
00000290: 7436 8a3e 8345 05bf 4d76 db3e aea5 a13e
000002a0: 2c92 e7be 9af4 10bf 46ba a6be 5bd1 d43e
000002b0: 77c2 e13e 1549 983e 96a3 c2be 1d99 833e
000002c0: 69a1 c7be 7fef 97be c7ab ce3e 987c ccbe
000002d0: 150c cebe 7fc5 6f3e 853f 0fbf c6e5 043f
000002e0: cc6a 5ebe 1da9 de3e eb7f 093f ab61 83be
000002f0: a8a1 a23e e630 01bf 4783 80be 65e8 b8be
00000300: 70e0 95be 415c aebe 5208 f73e d673 61be
00000310: f539 673e 6fae 7bbe d73c 693e 9b0d e23e
00000320: c187 c1be 1985 fcbe c5f7 6dbe d28c 053f
00000330: 60b6 de3e ce83 f4be f499 80be 55d4 f03e
00000340: 98ab f7be d920 f6be 31a2 f83e 415e d3be
00000350: a0b6 86be 2853 ea3e e93b b6be cf5f c53e
00000360: c1b3 09bf bdae 8c3e 3198 963e 2b13 b53e
00000370: 8167 093f 7f1a e0be 671e e63e aefb aa3e
00000380: faaf a9be 5f10 95be c1fc 83be 5a33 fd3e
00000390: cdab 9a3e 471c d43e 866e e73e f0cc 6dbe
000003a0: fbff b93e 88ea b23e 8433 edbd 923f 04bf
000003b0: a072 cdbe d76e aabe a962 c93e e118 00bf
000003c0: c024 d53e 9862 ec3e 4c6a 9cbe cb71 ca3e
000003d0: 8342 9e3e 1e37 1dbf 8a44 903e d590 a7be
000003e0: deb4 a33e ee3f b9be f41c e6be ce85 ea3e
000003f0: d913 08be 57a2 ac3e 43a5 d63e 7a36 803e
0.334053 0.429626 -0.5260462 0.4967228 -0.34695473 0.3603925 -0.26013687 -0.43677709
0.24929976 0.55376583 0.43344578 -0.30334002 -0.39466408 0.44104886 0.4691406 -0.50793844
0.25607216 0.4127781 -0.30251637 0.2575258 0.43361446 -0.2667666 0.5506113 -0.35904148
0.45416546 -0.47358543 -0.38389063 -0.51494783 -0.35591277 0.41482964 -0.2535197 0.41972482
-0.28589502 -0.5430437 0.5424561 -0.56999123 0.2984024 -0.39998564 -0.3467074 0.36714977
-0.22000094 -0.55484104 0.3548976 0.384085 0.4104354 0.42281544 -0.49007764 0.54641575
-0.46283004 -0.5361661 0.42338616 -0.25242418 -0.23700424 0.38496107 -0.39094108 0.50328153
-0.4067053 0.49820313 0.55154943 -0.37092096 0.32248375 -0.30995545 0.2655864 -0.5019777
-0.52321213 -0.24850678 0.5423805 -0.33788458 0.37579802 -0.35416564 -0.2518206 0.402075
-0.3898596 -0.32595405 -0.06707066 0.27617666 0.57856387 -0.25441438 -0.44435623 0.5708556
-0.49436507 -0.34282914 0.42385805 -0.48611847 -0.3984513 0.48303935 -0.5583682 0.4424398
-0.25573745 0.347253 0.19115056 0.35150513 0.19701329 -0.45552266 0.08529062 -0.35471708
0.3832156 0.5129405 -0.3747936 0.3396396 -0.39639193 0.5419205 -0.14740531 -0.5487164
0.36919186 0.25915733 0.33172604 -0.55749065 -0.56174076 0.35257044 0.26048535 -0.4703103
0.34765935 0.2257261 -0.36938322 0.47536394 0.2836013 -0.39669615 0.3600946 -0.5256234
0.35811222 -0.5434218 -0.27182984 -0.4682326 -0.5513024 0.40334305 -0.24278107 0.46704796
-0.40434057 0.49621233 0.49226713 -0.22561635 0.2852863 -0.5655953 0.3810888 0.46885014
-0.4372407 -0.27660704 -0.37312427 0.3338882 0.2862913 0.5529533 -0.51745117 0.2390515
-0.4335942 -0.48177832 0.45891538 -0.50182694 -0.37503225 0.45283797 -0.4448795 0.36638036
-0.38477463 0.48786715 0.31903273 -0.5071579 0.33161363 -0.5226734 -0.45241138 -0.22285214
-0.28393817 -0.28248098 0.5363602 -0.48877925 0.2699467 -0.5205919 0.42863694 0.31571716
-0.45228708 -0.5662323 -0.3256399 0.41565976 0.44093677 0.29743257 -0.3801543 0.25702754
-0.38990334 -0.2967491 0.4036543 -0.39938807 -0.40243593 0.23415183 -0.559563 0.51913106
-0.21720427 0.43488398 0.5371081 -0.25660452 0.3176396 -0.5046524 -0.25100157 -0.36114803
-0.29272795 -0.3405476 0.48248535 -0.22016844 0.22580703 -0.2457826 0.22777115 0.44151005
-0.37798885 -0.49320295 -0.23239048 0.52168 0.43498516 -0.4775681 -0.25117457 0.47036996
-0.48373103 -0.48071936 0.48561242 -0.41282848 -0.26311207 0.45766568 -0.35592583 0.3854966
-0.5378991 0.27477065 0.29412988 0.35366186 0.5367356 -0.43770215 0.4494507 0.3339514
-0.33142072 -0.29114053 -0.25778773 0.4945324 0.302092 0.41427824 0.4520151 -0.23222709
0.3632811 0.34944558 -0.115820915 -0.516595 -0.40126514 -0.3328769 0.39333084 -0.5003796
0.416296 0.4616897 -0.30549848 0.39539942 0.3091012 -0.6141223 0.2817729 -0.32727686
0.31973928 -0.36181587 -0.44943964 0.4580521 -0.13288821 0.33717605 0.4192296 0.25041562

bias f4 [32]
00000000: d757 aa3e 564a 06bf 77b8 cbbe 7690 b43e
00000010: 4f4b dbbe a49e 07bf b21b 9cbe 6f70 823e
00000020: e693 1fbf 5ead 0e3f 8294 c63e 652b febe
00000030: aa75 5e3e 8b9b ce3e 6975 043f cc15 b13e
00000040: f7c6 8cbe 4189 e8be af66 f63e a5e6 9b3e
00000050: e2e9 8c3e a545 8c3e d476 b9be 27b8 fb3e
00000060: 7cab 9c3e b212 bc3e 6a3d 4abf 357f 95be
00000070: 6c01 8f3e e26c 06bf 1e6b ba3e fbdf 98be
0.3327014 -0.5245718 -0.39789173 0.35266465 -0.42830893 -0.5297644 -0.3048988 0.25476405
-0.6233505 0.5573329 0.38785177 -0.49642482 0.21724573 0.40353045 0.51741654 0.34586942
-0.27495548 -0.45417216 0.48125216 0.30449405 0.27522188 0.27396885 -0.3622347 0.49163935
0.30599582 0.36733013 -0.7899996 -0.29198614 0.27930772 -0.5250989 0.3640985 -0.29858384

weight f4 [32, 32]
00000000: 60e8 fd3e 06e1 89be 0809 a63e 3056 a5be
00000010: 039f 913e f14c 973e d9ae de3e 93a9 7e3e
00000020: c89e ff3e 2391 0c3f 9025 c7be 8a0e d13e
00000030: 0657 07bf 95d1 b6be 5892 9f3e 94aa 00bf
00000040: cfac 93be 6f18 bfbe 35c7 0bbf 1931 e3be
00000050: 07e5 f6be 404e 65be 6018 013f 4e9f abbe
00000060: 0ace cdbe 9979 dcbe b9c6 a4be f870 c83e
00000070: d03f 053f f352 d2be 6982 03bf 188f 7ebe
00000080: 5f57 e7be d9b8 dd3e c7de 65be a155 a63e
00000090: b9d9 bbbe 1b33 10bf ee33 e2be 947c a8be
000000a0: d136 e3be 25d7 07bf 4583 ed3e 6f6a 89be
000000b0: 7a4a de3e 27d0 a53e 6e25 9fbe 84d2 ec3e
000000c0: 0fa9 c23e 1b1a a43e 16cf d53e 7a52 053f
000000d0: 85fb 0a3f ad96 a23e 55b5 b0be 5506 863e
000000e0: 974f f0be bf92 d23e 8f0a b63e 9ff4 e5be
000000f0: 95ba 6ebe 97b5 cdbe 1629 e23e c6a9 8e3e
00000100: 7eb7 f5be 1903 323e 9bb5 d8be 061d bf3e
00000110: d6db 11bf 40c0 b13b e150 04bf c6f8 1abf
00000120: ba97 86be 3344 07bf 4db3 403e 3b96 c0be
00000130: 2b99 1b3f ceb1 6d3e f7cb f3be 8bf0 c13e
00000140: 949d 5d3e 9c4c 173f cfc4 983e 200a 113f
00000150: 53d7 053f 3f70 043f 50d0 ecbe d46a ba3e
00000160: 36c5 97bd 2f12 b53e 0a4d bd3e 7c28 c6be
00000170: d641 1bbf 6c04 263e ddc9 29bf 6da6 fe3e
00000180: 7653 943e df06 8cbe 5835 003f 2547 08bf
00000190: 26de 883e b6c4 a23e 886e 0b3f d09a cb3e
000001a0: 36b1 0b3f 59ef c03e cce6 96be b72f 953e
000001b0: 2bed c0be e01f 93be f853 f93e 45e2 79be
000001c0: f710 a3be 8903 acbe d558 d9be 5891 09bf
000001d0: d87f 83be da12 e2be 435b 0d3f e371 8bbe
000001e0: 4637 5fbe 02a2 91be f270 0dbf 6023 dc3e
000001f0: 020d 803e 31bd 053f 7a55 e1be 5c08 78be
00000200: 0782 02bf 39e0 043f 2b98 9fbe 0118 b23e
00000210: dfc6 843e 3cd5 cebe ea44 08bf dfce a5be
00000220: aea7 9dbe 27d7 babe 301a 613e 0b41 07bf
00000230: 5513 c63e d88b e13e a344 a7be 420e d63e
00000240: 8fad 0bbf bf04 123f 883c 883e b2d2 f23e
00000250: fb75 7a3e 70bd 083f 4c86 0ebf b928 033f
00000260: cdf9 8abe f997 cc3e 3e0a df3e 842b d6be
00000270: 3820 03bf 977f c9be 8fe1 dd3e be39 963e
00000280: eb24 95be ec01 023f cb43 67be 57ae e03e
00000290: cf2b b93e 74a5 b5be cb4b 99be 914d 0cbf
000002a0: 1d4b dcbe 9ba0 67be ea4e a53e 5a74 dabe
000002b0: d31b a63e 75a2 c13e 0c0d 8cbe abcf 793e
000002c0: 51ca 79be 15f7 0e3f e9b1 c23e 30c5 d03e
000002d0: e42b df3e 4f70 bf3e 66de 9cbe 1aa0 793e
000002e0: 16c2 01bf b70c 003f 9fbf 983e 7a4a edbe
000002f0: bbbd ffbe 46d0 8abe afb6 933e cf18 983e
00000300: bf0e 78be 6bc3 b83e f405 a1be 3075 e83e
00000310: e160 febe 0027 ecbe 32aa 64be e610 09bf
00000320: 0572 aebe d690 a6be aded c83e 6596 f4be
00000330: caa1 113f 2616 e53e 3614 6ebe 7ea8 fc3e
00000340: 92d2 9f3e d687 eb3e 873a b03e 7231 9b3e
00000350: 79b8 063f 0062 d03e fd29 0cbf bb7d a93e
00000360: d0f0 043f 03a3 033f 36fa 0e3f ea0f 88be
00000370: 0c62 99be eea7 d83e 9279 0cbf fd40 cd3e
00000380: 6d24 a63e 034c f5be d8b7 fb3e 7f35 03bf
00000390: fe5c c6be 8532 f83e 23d5 b63e 0929 ab3e
000003a0: 192b ea3e 206e db3e e89e fdbe 4243 843e
000003b0: 56f8 c2be 675a 4abe 52d3 b43e 60e0 ecbe
000003c0: bc0f ed3e 1fab 04bf 3b40 ebbe 6a2d 0ebf
000003d0: d5c1 00bf 4d7d c4be 0726 e53e f969 a63e
000003e0: 1ef6 013f 04bf f0be daf3 fcbe 37d1 873e
000003f0: 28b6 873e 1a18 b23e b137 e5be 3246 debe
0.4959135 -0.26929492 0.32428765 -0.32292318 0.2844163 0.2955089 0.43492773 0.24869375
0.49925828 0.5490896 -0.38895845 0.40831405 -0.5286716 -0.35706773 0.3116634 -0.5026028
-0.2884278 -0.3732333 -0.5460084 -0.44373396 -0.4822161 -0.22393131 0.5042782 -0.33519977
-0.40196258 -0.43061522 -0.32182863 0.39148688 0.52050495 -0.4107891 -0.51370865 -0.24859273
-0.45183846 0.4330509 -0.22448264 0.32487205 -0.36689547 -0.5632798 -0.44180244 -0.32907546
-0.4437776 -0.5306266 0.46389213 -0.26839015 0.43416196 0.3238537 -0.31083244 0.4625436
0.38019606 0.32051167 0.41759557 0.52078974 0.5429004 0.31755581 -0.34513345 0.26176706
-0.46935722 0.41127583 0.3555493 -0.44913194 -0.23313363 -0.40177605 0.4417197 0.27863902
-0.47991556 0.17383994 -0.42326054 0.3732683 -0.5697607 0.0054245293 -0.5168591 -0.6053585
-0.26287633 -0.5283844 0.18818398 -0.37614617 0.6078059 0.23212358 -0.4761655 0.37878832
0.21642143 0.5910127 0.29837653 0.56656075 0.52281684 0.51733774 -0.4625268 0.36409628
-0.07410662 0.35365435 0.3697284 -0.38702762 -0.6064733 0.16212624 -0.66323644 0.49736348
0.28969926 -0.27348992 0.50081396 -0.5323356 0.26731986 0.31790704 0.5446553 0.3976655
0.5456728 0.37682608 -0.2947296 0.29137966 -0.37680945 -0.28735256 0.48696876 -0.24402721
-0.3184888 -0.33596447 -0.42450586 -0.537374 -0.25683475 -0.44155008 0.5521738 -0.27235326
-0.21798429 -0.28443915 -0.55250466 0.4299574 0.25009924 0.5224181 -0.44010526 -0.24221939
-0.50979656 0.51904637 -0.31170782 0.3478394 0.25932977 -0.4039706 -0.53230155 -0.32384393
-0.30791992 -0.36492273 0.21982646 -0.5283362 0.38686624 0.44052005 -0.32669553 0.41807753
-0.54561704 0.5703849 0.26608682 0.47426373 0.24459068 0.5341406 -0.5567367 0.5123401
-0.27143708 0.39959696 0.43562502 -0.41830075 -0.51221037 -0.39355156 0.4333615 0.2934093
-0.2912973 0.5078418 -0.22584455 0.4388301 0.36166236 -0.35477793 -0.29940638 -0.54805857
-0.43026057 -0.2261986 0.3228677 -0.42666894 0.32443103 0.37819257 -0.27353704 0.24395625
-0.24393584 0.5584577 0.3802636 0.40775442 0.43588173 0.37390372 -0.30638427 0.2437748
-0.50686777 0.500194 0.29833695 -0.46345884 -0.4994944 -0.27112025 0.28850314 0.29706427
-0.24224375 0.36086592 -0.31449854 0.45401907 -0.49683288 -0.46123505 -0.2233055 -0.5354141
-0.34071365 -0.32532376 0.39243832 -0.47770992 0.56887496 0.4474346 -0.23249897 0.493473
0.3121534 0.46002072 0.34419653 0.3031116 0.5262523 0.40699768 -0.5475157 0.33103737
0.5192995 0.5142061 0.5585054 -0.2657464 -0.29957616 0.4231562 -0.54873 0.40088645
0.32449666 -0.47909555 0.491637 -0.51253504 -0.38742822 0.48476043 0.35709485 0.33429745
0.45736006 0.42857456 -0.49535298 0.25832564 -0.3808009 -0.19761048 0.35317475 -0.46264935
0.46301067 -0.5182361 -0.4594744 -0.55538046 -0.50295764 -0.38376847 0.44755575 0.32502726
0.5076617 -0.47020733 -0.49404794 0.26526806 0.26506162 0.34784013 -0.44769052 -0.4341293
