mlartifacts/403163061964527456/dbc750f7d8bd40c4b78c5824fd9077cf/artifacts/models/data/model.pth (torch, 145614 bytes, 160 tensors)

bias f4 [8]
00000000: 701d 8257 beda 03bf 08f5 19bf 3efb 393f
00000010: 63c6 cc3e 462b 963e 88bf 313f 5dcd 04be
2.861259e+14 -0.5150565 -0.60139513 0.7264899 0.39995107 0.2932989 0.6943288 -0.12968965

weight f4 [8, 3]
00000000: 769a 4bbd 1a55 d0be 556c 10bf 75df 833f
00000010: 5dcf 5cbf b52b 143e 063f f0be 1be3 173f
00000020: 88e0 04be ff4c b63e 3ed9 debe 3f69 93be
00000030: cf02 ad3e 2d4a 4cbf 3d99 36bf da2b 9ebe
00000040: e3b1 efbe d436 aa3d 7f2d c9be ff9e 213f
00000050: 54c6 74bc 0234 a03f fcdb 74bf a4f4 473e
-0.049707852 -0.40689927 -0.564153 1.0302569 -0.8625391 0.14469798 -0.46923083 0.5933091
-0.12976277 0.35605618 -0.43525118 -0.28791234 0.33791205 -0.79800683 -0.71327573 -0.3089283
-0.46815404 0.08311239 -0.39292523 0.63133234 -0.014939863 1.2515872 -0.9564817 0.19526917

weight f4 [8, 3]
00000000: 2845 b73e c98f 6dbf 41d9 b43e de31 f13d
00000010: e5cb 833f 7d07 99bd 7bf1 72bf 0199 993d
00000020: 82e0 ea3d dd93 3d3e 1151 0a3f 3938 a1be
00000030: 97d7 8abe 5a6b b23e c118 113f e558 0bbf
00000040: 48e3 41be d8c5 6b3e 90a4 03bd 123e 323f
00000050: 989d dbbe 075b c6be 6616 a83e 2563 973e
0.3579495 -0.92797524 0.35322002 0.117770895 1.0296599 -0.074721314 -0.9489972 0.07499886
0.11468603 0.18513437 0.5402995 -0.31488207 -0.27117607 0.34847528 0.56678396 -0.5443252
-0.18934357 0.2302469 -0.03213936 0.6962596 -0.42893672 -0.38741323 0.3282959 0.2956783

bias f4 [8]
00000000: b517 81be b50c 613f 3255 e7be c7f8 a1be
00000010: be72 063f 63cb 343f 6218 aabe a942 cdbe
-0.252134 0.87910014 -0.45182186 -0.31635115 0.5251883 0.70622844 -0.33221728 -0.4008992

weight f4 [8, 1]
00000000: 2077 a53e a7a9 3f3f edbb 4abd 91b0 abbd
00000010: 22dc 4cbf 393d 013f 74af 4dbf b443 e93f
0.32317448 0.74868244 -0.049495626 -0.08383287 -0.80023396 0.50484043 -0.80345845 1.8223786

weight f4 [8, 1]
00000000: 32c3 3cbf 09ee 80be ac97 833e 0f64 1cbf
00000010: 547d 5abf 1a9f fbbe 4179 fb3e dd55 aa3e
-0.73735344 -0.25181606 0.25701654 -0.6109018 -0.85347486 -0.49144822 0.49115947 0.33268633

bias f4 [8]
00000000: 2270 6d3f 12cf 993b f64d b6bf acf2 8ab9
00000010: b66c f23e d9d5 a9bd 1e3f 3d3f 866d 0a3f
0.92749226 0.004693874 -1.4242542 -0.00026502216 0.47348565 -0.08292741 0.73924434 0.5407337

weight f4 [8, 3]
00000000: 4b59 db3e 4f4a 10bf 5682 8c3e 5075 9e3f
00000010: 13eb f7be 0b34 b03d bc8c 54bf b34a 1f3f
00000020: 5d4e 29be 0959 6fbe 5e03 c5be a110 5bbe
00000030: 52c0 183e a26f 093d ea50 2cbf f7ad 38be
00000040: 4f68 a4be 7ccc ddbe 27b8 3fbf 0abd 153e
00000050: 29c8 d0be dedd 863f 80a0 19be bbb7 c4bc
0.42841563 -0.56363386 0.27443188 1.2379551 -0.48421535 0.086036764 -0.83027244 0.62223357
-0.165338 -0.23373808 -0.3847913 -0.21393062 0.14917114 0.033553727 -0.67310965 -0.18035112
-0.3211083 -0.43320072 -0.7489037 0.14622894 -0.4077771 1.0536458 -0.15002632 -0.02401339

weight f4 [8, 3]
00000000: c038 97bd 4077 ad3d efca e2be d51a 8b3f
00000010: 4461 0fbf fdbf 103f ee6b 163e 65fd c7be
00000020: 6ab5 da3e 929e b1bc 1e32 6a3f d2de 35be
00000030: d553 b53e c716 2e3f a379 8dbe 4a39 b2bb
00000040: 5de1 d63e 389c ed3e ba99 18bd 4f1f a23d
00000050: 9aae 313f 0dbd 8dbe e381 3f3f b5e6 93be
-0.07383871 0.08470011 -0.4429545 1.0867563 -0.5600779 0.5654295 0.1468961 -0.39060512
0.42716533 -0.021682058 0.9148272 -0.1776078 0.3541552 0.68003505 -0.27631864 -0.0054389583
0.41968814 0.46408248 -0.03725598 0.07916128 0.69407046 -0.27683297 0.74807566 -0.28886953

bias f4 [8]
00000000: 8d2d 43be a63d 843e b097 edbc 33cd 04be
00000010: 2d93 9d3e 5707 553e 3448 81bf 3f97 403e
-0.19060345 0.25828284 -0.029002994 -0.12968902 0.3077635 0.20803581 -1.010016 0.18807696

weight f4 [8, 1]
00000000: 7ce5 6d3f 0344 233d 6cdf 7abf 6cb4 39be
00000010: 49c5 9b3f fe1e 4f3f 5126 92bf ad9b c43e
0.9292829 0.039859783 -0.97997165 -0.18135232 1.2169582 0.80906665 -1.1417943 0.3840002

bias f4 [8]
00000000: 80b9 fabe 8fd8 b6be ef71 a7bd f386 c53e
00000010: fa83 d83e a97e fa3e 6b18 ba3e d1c9 293d
-0.4896965 -0.35712096 -0.08176028 0.3857952 0.4228819 0.4892476 0.36346754 0.041452233

weight f4 [8, 3]
00000000: 42a7 efbd 7a1c b93c 144d d83e 8c49 233e
00000010: 62c4 36bf 04be 963e 49f7 18bf 27dd f33d
00000020: 6e44 efbd d9e8 0c3f a350 7bbf 7d1c 893d
00000030: bacf 8b3e 467d 37be bb38 a6be 5b59 d1be
00000040: b0a4 52be b8ad 87be 83e0 58bf cd65 463f
00000050: 32ca 2dbe 23de 483f e6da 7abf 220f 343f
-0.11701824 0.022596586 0.42246306 0.15946025 -0.71393406 0.29441845 -0.5975233 0.11907416
-0.11682974 0.550428 -0.98169917 0.06694887 0.2730692 -0.17918882 -0.32465157 -0.40888485
-0.20570636 -0.26499724 -0.8471758 0.77499086 -0.16971663 0.78463954 -0.9799026 0.7033559

weight f4 [8, 3]
00000000: cf6e cebe 4ece 15bf 2730 843e 2f95 1c3f
00000010: 2239 4d3f eea8 863f 93e1 873f c96c 813d
00000020: 92c7 29bf b2d5 63be 9b1a b73d a0d8 853e
00000030: 23de bb3e ba9c e8be 5be8 403f 400c 493f
00000040: b3c1 9a3e 8826 e93e b9d1 7ebf acee e13d
00000050: e81d 95bd 9fe5 273f a46a 9ebc 5163 ac3e
-0.40318915 -0.5851792 0.25817987 0.61165136 0.801653 1.0520303 1.0615715 0.06319577
-0.66320145 -0.22249487 0.089406215 0.26141834 0.36692914 -0.45432073 0.75354546 0.78534317
0.30225906 0.4553721 -0.9953876 0.11031851 -0.07281095 0.6558475 -0.01933796 0.33669522

bias f4 [8]
00000000: 5963 d7be eb36 c93d 99a7 283e f734 a4bd
00000010: 473d ae3f 07b6 3c3f f95a b43b 61a3 a9be
-0.42067984 0.09824928 0.16470183 -0.08017915 1.361245 0.7371525 0.005504009 -0.3313246

weight f4 [8, 1]
00000000: 607e 09bf 3fff 3b3f dc50 6cbc 33c4 79bf
00000010: 23ba 9ebf efc6 ab3f 438f 17bf 8510 9b3e
-0.5370846 0.7343635 -0.014423575 -0.97565 -1.2400554 1.3420085 -0.59202975 0.3028604

weight f4 [8]
00000000: 1925 d23f b294 913f f6ba f43f ac36 da3f
00000010: d96b 913f 357d 5a3f 0eb2 633f 025b c33f
1.6417571 1.1373503 1.9119556 1.7047935 1.1361037 0.853473 0.88943565 1.5262148

bias f4 [8]
00000000: d1d3 8cbe 6ffb f3bd beb0 b63e fd8c 343f
00000010: f9ef b13e a070 283e 3e2c 453f faa5 4e3f
-0.27505353 -0.119131915 0.3568172 0.7052763 0.34753397 0.16449213 0.77020633 0.8072201

running_mean f4 [8]
00000000: a272 03bf dc2b 6b3f 5752 b33e 4e04 673e
00000010: 16b8 233f 6322 3a3f 0a96 f1bd a0b6 183e
-0.5134679 0.918638 0.35023758 0.22560236 0.6395277 0.7270872 -0.11796196 0.14913416

running_var f4 [8]
00000000: 7e92 f13c aff4 a03b fe2c 393d 6437 1b3e
00000010: fa2e f13c 4eca e33c f96d 0b3e 4fda d33d
0.029488798 0.004911981 0.045208924 0.15157849 0.029441345 0.027806427 0.1361617 0.103443734

weight f4 [8]
00000000: 0000 803f 123b 163f 7770 303f e80f 733f
00000010: 33e8 b13f 2bf7 a03f 2beb 773f 0b60 843f
1.0 0.58683884 0.6892161 0.94946146 1.3898987 1.257543 0.9684321 1.034181

bias f4 [8]
00000000: 6e30 cbbd 524d 1d3f a6c2 b93d cc74 07be
00000010: 002f 36be c6c8 bdbc 2edc 42bd 627f 19bf
-0.099213466 0.61446106 0.09070329 -0.13228148 -0.17791367 -0.023167025 -0.04757326 -0.59959996

running_mean f4 [8]
00000000: faff 7f3f 362e e8be 8adc 70bf d755 e43e
00000010: 088b 093f bc87 913e 84eb 293f 3a81 fb3e
0.99999964 -0.45347756 -0.94086516 0.4459674 0.5372777 0.2842387 0.66374993 0.4912203

running_var f4 [8]
00000000: 73c6 d234 3b97 ac3e 281a c03c c68e ba3e
00000010: 7583 9c3e 8c76 813e 8976 a73e 979f 5e3e
3.925994e-07 0.3370913 0.023449972 0.36437052 0.30569044 0.25285757 0.32707623 0.21740566

weight f4 [8]
00000000: 4b0d ea3f bf10 233f 56b6 b43f 16ec cb3f
00000010: ceaa 263f f220 573f c18c 7b3f 7d45 bc3f
1.8285307 0.6369743 1.4118145 1.5931423 0.6510438 0.84034646 0.9826165 1.4708706

bias f4 [8]
00000000: cd82 043e 2442 9e3e 23c2 67be c041 a6be
00000010: 2981 eb3e e4e7 043f ea7e 29bd 1641 cd3e
0.12940522 0.30909836 -0.22632651 -0.32472038 0.4599698 0.51916337 -0.0413808 0.4008872

running_mean f4 [8]
00000000: 4b0c 42be 19a4 7f3f de38 2dbe 13d5 1abf
00000010: c66e 7e3f a54b 7d3f b50f 77bf 2680 453f
-0.18950002 0.9985977 -0.16916224 -0.60481375 0.99387777 0.9894355 -0.9650834 0.77148664

running_var f4 [8]
00000000: 57dd 963e 29f4 2b38 1096 0c3f 6433 973d
00000010: cdec c53a 7b19 a73a edbb 033c 40d7 c43d
0.29465744 4.099697e-05 0.5491648 0.07382849 0.0015100479 0.0012748683 0.0080404105 0.09611368

weight f4 [8, 8]
00000000: f3b8 533e a9da 503d c8dc d53d a289 8f3e
00000010: bda0 bd3e a8ef 563e 1a04 22bd 7676 473e
00000020: 2199 7b3f e54d 983a 050d 04bf f902 59bf
00000030: a3fb 2ebf c440 febe 252b 35bf cee4 22bf
00000040: 8c4a 043f ddd7 f1be 0f75 54bb 99a2 e5be
00000050: 6fd7 d9be ecb0 243d 493c abbd 8361 83be
00000060: 505f fdbe 146c dc3e 5e04 2a3f 92fe ea3e
00000070: d446 b13e baef 173f 74d6 383f b795 d63e
00000080: f086 acbe 34b1 193c ac6a 17be 6fd1 293f
00000090: d7d7 143f 499e bc3e 9bf9 5d3f 1341 713f
000000a0: 23ef 6dbf 8ca4 613e e3cd 9d3f b77a 36be
000000b0: a7a2 c9be 99ec cdbe e7ee 1b3f 7242 46be
000000c0: bf7d 1bbf 38d8 c03e a834 b93e 9d62 b93e
000000d0: 084e 313e 6881 273f d193 863e e820 0c3f
000000e0: baf1 25be dda2 52bd 490c eb3e b2da 8bbe
000000f0: ec8a debe 92ff 8fbe c8a5 c0be 19e6 14bf
0.20676021 0.05098978 0.10442501 0.28034693 0.37036696 0.20989859 -0.039554693 0.19478783
0.9828053 0.0011619894 -0.51582366 -0.8477016 -0.6835272 -0.49658787 -0.7076896 -0.6363038
0.5167625 -0.47235003 -0.0032418405 -0.44850615 -0.42547175 0.04020779 -0.08361108 -0.25660333
-0.4948678 0.43051207 0.66412914 0.45897347 0.3462435 0.5935017 0.7220223 0.41911098
-0.336967 0.009380627 -0.14786786 0.66335195 0.58141845 0.36839512 0.8670899 0.9423992
-0.9294302 0.22035426 1.2328457 -0.1782025 -0.39381906 -0.40219572 0.6091141 -0.19361284
-0.6073875 0.37664962 0.36172986 0.36208048 0.17314923 0.65431833 0.2628465 0.5473771
-0.16205493 -0.05142485 0.4590781 -0.2731529 -0.43465364 -0.28124672 -0.3762648 -0.581636

bias f4 [8]
00000000: ed8b cc3d dd08 3ebf 862e ccbc c78f 883e
00000010: 613a e73e 8f6a 233f d12f ba3e f98e 92be
0.09987626 -0.74232274 -0.024924528 0.26672193 0.45161727 0.6383447 0.36364606 -0.28624704

weight f4 [8, 8]
00000000: d225 d5bd c52c b2be 3324 0c3f 6bfd 52be
00000010: 2583 90be 83d6 3b3f d9cf 2b3f 89bf 23be
00000020: 2d88 263f 1dd6 32be d0c3 153f 8adf 403e
00000030: fcc4 67be 9b13 d0be d916 883f 44ed e2be
00000040: bb5b b4be 291d a8bc 3938 bb3d 66c3 1cbf
00000050: f18a abbc 8c32 b8bd 4098 a9bf 118d 913f
00000060: 2002 bfbe 1072 c73e 8149 8bbf ced6 143f
00000070: cd41 523f beec 3a3e f500 12bf c216 1b3f
00000080: e860 adbd 0e92 42bf 7bff c53d d67b 1ebe
00000090: cf67 6abe e3dd 453f ccfc 2e3f 986d 8fbf
000000a0: e420 cabd 8080 983b daf8 2a3f 8847 fdbe
000000b0: 903d 72be 6bd9 dbbe 49e5 593f 5c80 163d
000000c0: 1c37 453e 691b 253f 014c 2bbe 1912 e3bd
000000d0: f507 97be 679f 07bf 5922 993d ecae 6a3e
000000e0: ae15 8d3f 7189 37bf 4bdf 52be 6925 023f
000000f0: 81be cc3e 749a 753d fbd8 5bbf 54d6 7f3f
-0.10407604 -0.3479978 0.54742736 -0.20604484 -0.28225055 0.73374194 0.67114025 -0.15991034
0.6505154 -0.1746449 0.5850191 0.18835273 -0.22633737 -0.40639958 1.0631973 -0.44321644
-0.35226235 -0.020521717 0.09141583 -0.61235654 -0.020940276 -0.08994016 -1.3249588 1.1371175
-0.3730631 0.3895421 -1.0881807 0.58140266 0.82131654 0.18254372 -0.5703271 0.605816
-0.08465749 -0.7600411 0.0966787 -0.15476927 -0.22891162 0.772917 0.6835449 -1.120532
-0.09869555 0.0046539903 0.6678597 -0.49468637 -0.23656297 -0.42939314 0.85115486 0.036743507
0.19259304 0.6449495 -0.16728212 -0.11087436 -0.29498258 -0.52977604 0.074772544 0.2291829
1.1022241 -0.71694094 -0.20592992 0.50838333 0.39989093 0.05996175 -0.8587796 0.99936414

weight f4 [8, 8]
00000000: c76d 44bf 84eb 45be 4bb6 ae3e c57a 8fbf
00000010: ad36 fcbe 6bf5 943e 413a 4abe 79c8 033f
00000020: a543 8cbc ecfa 3cbf c5e2 b93e 9b3e 2abf
00000030: 1f5c 703e 7ab0 c73e 9c9d b9be 5e21 b83d
00000040: 2655 32bf d394 643d 6dd8 1b3f 32e2 ddbd
00000050: 851e 34bf 1bfc e7be e9a0 cd3e 2abf c8be
00000060: 3624 e7bd a91a 843e aa4e d0bd e42f 5c3e
00000070: e7d7 b8be 9aa4 08be 1d43 70bf 15f6 06bf
00000080: 928c 533d 76d2 863e f43c fdbe 49ab 043f
00000090: e85e 2fbe b116 fbbe 27eb 02bf 4901 453c
000000a0: edee 873e 54dd 103e f560 96be 7e65 633f
000000b0: 422d 09bf 262e 2abf 77bb 66bc 8ad1 45bf
000000c0: 0d06 b53d 29b9 073f 66a6 56be 9083 7fbe
000000d0: 5e57 13bf 8dd2 b0be 69fb 98be 3000 0dbf
000000e0: 0489 0abf c021 96be 899b a33e d835 2abf
000000f0: 4714 26bf 2e47 5cbe 4062 9d3d 2491 d0bd
-0.76730007 -0.19328123 0.34123453 -1.1209341 -0.49260464 0.2909349 -0.19748785 0.5147777
-0.0171221 -0.73820376 0.36305824 -0.6650178 0.23472641 0.39001828 -0.3625306 0.08990739
-0.69661176 0.055805992 0.60877115 -0.10834159 -0.7035907 -0.4530953 0.40161827 -0.39208347
-0.112862036 0.2580159 -0.10171254 0.21502644 -0.3610222 -0.1334404 -0.93852407 -0.5271924
0.05164773 0.26332444 -0.49460566 0.5182386 -0.17126048 -0.4904075 -0.51140064 0.012024232
0.26549473 0.1414693 -0.29370847 0.8882674 -0.5358468 -0.66476667 -0.014082781 -0.77272856
0.08839045 0.53016907 -0.20961913 -0.24952531 -0.57555187 -0.34535637 -0.2987931 -0.5507841
-0.5411532 -0.29322624 0.319546 -0.6648841 -0.6487469 -0.21511528 0.07684755 -0.101839334

bias f4 [8]
00000000: 18e4 003e fa6a 093f 0475 82be 4e81 173f
00000010: 41c3 19bf dfc5 2fbf cf97 18be 42a5 21be
0.12587011 0.5367886 -0.254799 0.5918168 -0.6006356 -0.686613 -0.1490166 -0.15785697

weight f4 [8, 8]
00000000: 7b39 e6be bfc0 393f 02ec e9bc 3fe4 86bf
00000010: e77e f1bc c081 383f 3bea 9abe 8b8b 7f3f
00000020: b933 303e 3efd f13d 1fca 91bf 18a9 053f
00000030: 86ad 083f bc9f 1c3e 3cc6 683f 3987 00bf
00000040: 1025 5abf d850 b73e c652 7dbe 4b54 0e3f
00000050: 029c 483e d1e3 ad3d 3827 fe3e 391d 3fbe
00000060: 8ce4 7b3f 2895 b53d 0fad dcbe e86f d43e
00000070: dbc5 c03e 2bdf 11be fefb 523e 4997 10bf
00000080: 9be0 553f 58d0 37bd 4c63 92be 2116 7d3f
00000090: ff91 da3e 8137 f0be 00fe 463d f3c6 44bf
000000a0: c748 81be 396c f03d 175e a3be f44c 023f
000000b0: 5b55 e53e 8a99 92bd a305 073e f445 8abd
000000c0: ea05 cb3d d37c 02be f20a 59bf 0b46 043f
000000d0: 2934 0a3e ac4c bebe 101c 6e3f 327e 43bf
000000e0: 616e 4b3f 6d72 84be c537 6d3f 9ad4 8cbe
000000f0: ee1f 5dbe 738a 523f 1edd 43bf 1ced f13e
-0.4496573 0.7255973 -0.02855492 -1.0538405 -0.029479457 0.7207298 -0.3025683 0.998223
0.1720723 0.1181588 -1.1389807 0.5221114 0.53389776 0.15295309 0.9092748 -0.50206333
-0.852128 0.35803866 -0.24738607 0.5559737 0.19590762 0.08490718 0.49639297 -0.18663491
0.9839561 0.0886634 -0.43100783 0.41491628 0.37650952 -0.14245288 0.2060394 -0.5648084
0.83545846 -0.044876426 -0.28591383 0.9886189 0.4268951 -0.46917346 0.048582077 -0.7686607
-0.25250837 0.11739392 -0.31907722 0.5089867 0.44791684 -0.071581915 0.13185744 -0.06751624
0.099132374 -0.12742929 -0.84782326 0.5166938 0.1349646 -0.3716787 0.9301157 -0.76364434
0.794653 -0.2586855 0.9266322 -0.27505952 -0.21594211 0.82242507 -0.76509273 0.47251213

weight f4 [8, 8]
00000000: dd1d bcbe 7d75 0bbf b299 eb3e a13c 9bbe
00000010: 42c3 12bf 255c 813e 7960 c9be c1b2 81be
00000020: 5b95 f5be 4139 df3e 4104 db3e b6a7 b43d
00000030: 3598 d43e b441 d33e 5446 8dbe c5e1 d03e
00000040: 3f15 533f 300f d73e 6a4a d4be 85b9 773e
00000050: 5cfb e63e bddf a1be 2d13 f7bc 19ad 0d3c
00000060: a143 623f be80 823e aac4 bbbe 7f9f f9be
00000070: 1e6c e13e 16c6 bcbd 7837 d13e ee9a 913e
00000080: 10de ae3d 4125 8b3d 99a8 2dbf b43f da3e
00000090: 95c8 7e3d 686d e8be e874 883c 8166 19bf
000000a0: 9c35 1b3f aaf6 9fbe b2d9 153e a553 d7be
000000b0: e470 f7be cb14 7bbe 1197 e5be 5bb8 ce3e
000000c0: 66d1 b3bc b6c8 1b3d fa57 0b3f 37a8 3fbf
000000d0: a3a5 793d bcdb 563b 7629 c5be f6cc 1c3f
000000e0: 6183 39bf 8dab 143f 7b98 843e 81f8 d13e
000000f0: 2c63 23bf 79a6 553d 8938 413e 621b f83e
-0.36741534 -0.5447615 0.46015698 -0.30319694 -0.5732919 0.25265613 -0.39331415 -0.2533169
-0.47965512 0.4359837 0.42776683 0.08821051 0.41522375 0.41261065 -0.2759272 0.40797248
0.82454294 0.42003775 -0.41463023 0.24191864 0.45113647 -0.3161601 -0.03016051 0.008647227
0.88384444 0.25488847 -0.3667348 -0.48754498 0.440278 -0.092174694 0.40862632 0.28438514
0.08538449 0.06794215 -0.67835385 0.42626727 0.06220301 -0.4539597 0.016657308 -0.59922034
0.60628676 -0.31242877 0.14633825 -0.42056003 -0.48328316 -0.2451965 -0.44841817 0.40375027
-0.021950435 0.03803321 0.54431117 -0.7486605 0.06094898 0.003278478 -0.38508195 0.61250246
-0.72466093 0.58074266 0.25897583 0.41009906 -0.638232 0.052160714 0.18869223 0.4845839

bias f4 [8]
00000000: b7c9 253f 03de 81be 97d4 e03e 71a2 edbc
00000010: 4ad1 2b3f f942 173f 7dd9 cdbc 9d36 46bf
0.6476092 -0.25364694 0.43912193 -0.029008122 0.67116225 0.5908657 -0.02512812 -0.77427083

weight f4 [8, 8]
00000000: c220 71be aeaa 3e3c da15 b13e e22e 483d
00000010: ef36 01be 32ea 243f 40e1 e93e d1c9 2ebe
00000020: b630 943e 7e65 a5bd b9b2 823f 7ec3 43be
00000030: 2175 84bd 455f d8be c4aa 2d3f adf5 3cbe
00000040: 855c 37be 4fed 19bf a168 0fbd eecf 8cbe
00000050: d43c 6f3e 491d e93e 38b4 69bf 9278 613f
00000060: 5ed6 aabd d917 343f 549c 6bbf 6cb3 283f
00000070: 9eeb c93e 7a51 a73e 19f9 dfbe 56c8 ef3e
00000080: 111b 28be 6a50 5ebf 0ddf 0d3f 5f9f c6be
00000090: 2e19 0cbf 0dc8 383f 8adb dc3e 53ff 11bf
000000a0: af34 03bf b505 95be af27 793e 546e 9ebe
000000b0: 6d49 23bf 6c6f b83c 59e1 f23e d6ce dbbd
000000c0: aad9 e23e cb43 b73d 74ff acbc 1d3a 8ebd
000000d0: a71f d7be 3325 17bf e258 be3e c30b 7f3e
000000e0: ac30 b13f 8412 02bf 0ab0 70be faf7 263e
000000f0: e0fe da3e 49cb b93e 7a84 87bf 1c77 853f
-0.23547652 0.011637373 0.34586984 0.048872836 -0.12618612 0.64419854 0.45679665 -0.17069174
0.28943413 -0.08075999 1.0210792 -0.19117543 -0.06467653 -0.42260185 0.6783869 -0.18453093
-0.17906387 -0.6012773 -0.03501189 -0.27502388 0.23363048 0.45530155 -0.91290617 0.880746
-0.083416685 0.7034889 -0.9203541 0.65898776 0.39437574 0.3267935 -0.43744734 0.46832532
-0.16416575 -0.8684145 0.55418473 -0.38793465 -0.5472592 0.72180253 0.43136245 -0.5703022
-0.51252264 -0.29105917 0.24331544 -0.3094355 -0.63783914 0.022514068 0.47437552 -0.1073281
0.4430669 0.08948477 -0.021117903 -0.06944678 -0.42016336 -0.59041137 0.37177187 0.2490683
1.3842978 -0.508095 -0.23504654 0.16305533 0.4277258 0.36287907 -1.0587304 1.0426974

weight f4 [8, 8]
00000000: 664f 013f bd80 f5be 9213 223f 57e0 9f3d
00000010: 4509 ab3d fc1f f9bd 881c 4bbe 1492 423e
00000020: 9a21 4cbf c504 dabd 1d95 b53e 80c9 813f
00000030: bdd3 993e df50 cc3e 8e07 adbf 6b30 773e
00000040: 00a3 cbbe b5c8 d73e 2c36 4ebf 24c0 b6bd
00000050: bf41 353e 0f4b 05be 6c9f 8bbd 38cd 26bf
00000060: 6744 273e 9fca 2cbf 7574 d23e c395 f1be
00000070: c726 033f 8e23 21bf d5ee 023f 0141 3b3e
00000080: 5f73 90bf 5570 433f d13a 97be 9962 ae3e
00000090: c902 cf3e b07a 9e3d 9e09 abbe a5bb 43bf
000000a0: 3d16 e03e 07c2 883e 8cf5 50be 9109 063e
000000b0: 410c 27bf 0dd5 9dbf 6458 b5be 2dab d33d
000000c0: a9db 0e3e f635 30be db07 5a3e d398 fb3e
000000d0: 5ef4 9c3c 0fb1 26bf 5c62 bf3e 4b5c f03e
000000e0: 4e12 e23e fd01 153d 79c7 aabe d986 043f
000000f0: d0b6 d7be 4c20 ef3e db9d fd3d a2d9 923e
0.5051178 -0.47949782 0.6331111 0.07806461 0.083513774 -0.12164304 -0.19835103 0.19001037
-0.7973877 -0.10645441 0.35465327 1.0139618 0.30044356 0.3990545 -1.351793 0.24139564
-0.39772797 0.42145315 -0.8055141 -0.08923367 0.17700861 -0.13016914 -0.06817517 -0.6515689
0.16334687 -0.67496675 0.41104475 -0.47184572 0.51231045 -0.6294488 0.5114568 0.18286516
-1.1285208 0.7634328 -0.2953706 0.340596 0.40431812 0.077382445 -0.33405775 -0.764582
0.43766966 0.2671053 -0.20406169 0.13089587 -0.6525307 -1.2330643 -0.35419 0.103353836
0.13950981 -0.17208084 0.21292059 0.49140033 0.019159492 -0.6511392 0.3737973 0.46945414
0.4415459 0.03637885 -0.3335531 0.5176826 -0.42131662 0.46704328 0.12383624 0.28681666

bias f4 [8]
00000000: dfed e2be ff8d 283e eb19 96be 5b6a 89bf
00000010: dcbf 833f ce78 14bd da0d 87be dd56 43bf
-0.44322106 0.16460417 -0.2931665 -1.0735582 1.0292926 -0.03624802 -0.26377755 -0.7630442

weight f4 [8, 8]
00000000: 7abd 943f e24b 9cbf de50 a9bf 1277 dd3e
00000010: ef75 a63e 9e13 16bd 53d3 42bf ecea 193f
00000020: 59c5 0c3e 3825 d1be 0498 33be 9dea b63f
00000030: aa73 ca3e 4d3a 163f ca99 363e a1f6 8d3f
00000040: 22b4 38be 8049 ccbc 9589 aebd a440 5d3f
00000050: b7b9 4b3f 37a6 553e bfd8 0f3e ddb7 653f
00000060: c3d0 a2bd 9422 1e3f 15ed ee3d d022 4d39
00000070: 8c2e 473f 51cb 173e 9669 ae3e 1404 8e3e
00000080: f110 b8bd 0825 d5be 8cca 95be e68a 1e3f
00000090: f799 253e 797f 193f bcc1 473e 7316 053f
000000a0: 5429 f43e fce1 f3be 7fc8 b3be fec1 5ebe
000000b0: c330 0dbf 842f 66be 6224 6f3d 7c27 573d
000000c0: 4f1e f03e fbf1 59bf 7e7a 45bf 0391 f53b
000000d0: a3c3 5bbd 303d cbbe f851 a5be b3bc 953e
000000e0: 8034 a63e 0a41 213e 45b9 8ebc 8cdf 77bf
000000f0: f74d 4abf 84ee 5fbf ca11 2dbe f98e 46bf
1.1620324 -1.2210658 -1.3227804 0.43254906 0.3251185 -0.036639802 -0.76103705 0.6012409
0.13747157 -0.40848708 -0.17538458 1.4290348 0.3954137 0.5868271 0.17832103 1.109089
-0.18037465 -0.024937391 -0.085223354 0.8642676 0.79580253 0.20864187 0.14047526 0.8973368
-0.079499744 0.6177151 0.116663136 0.00019563292 0.778054 0.14823653 0.3406493 0.27737486
-0.08987606 -0.41629815 -0.29256094 0.6193069 0.16172014 0.5996013 0.19507498 0.5198738
0.4768778 -0.4763335 -0.35113904 -0.2175369 -0.5515253 -0.22479063 0.058384307 0.05252789
0.46898124 -0.8513486 -0.77140033 0.0074940934 -0.05365337 -0.3969512 -0.322891 0.2924553
0.3246193 0.15747467 -0.017422328 -0.9682548 -0.79025215 -0.8747332 -0.16901317 -0.7756191

weight f4 [8, 8]
00000000: 9755 aa3e 9d14 b43e ec56 013d 4689 79bf
00000010: ce97 863e c739 0c3f 2eeb ca3a 2201 7d3f
00000020: c562 723e d78d ed3d 2378 22bf ac0e 573f
00000030: 35d3 a03e 0091 18bf 850b 213f efd9 3bbe
00000040: f720 a5be 85e2 893e 53fc c83e 0511 76be
00000050: 61bf 53be 2dc0 4c3e bf38 38bf 65cc 243f
00000060: 1e95 e23e 3a10 8b3e ff85 84bf 78d5 5b3f
00000070: d16c 21bf 7dec babe 4797 5e3e f750 a5be
00000080: 2395 35be 52e5 303e af9a 913d e154 03be
00000090: 9d79 943f 84f1 313f 2b73 a6be 4f0c 7c3e
000000a0: fd4c 523f 20ff 2e3f 42d9 d8bd 9f63 a73e
000000b0: bc52 0f3f 00c9 d1ba 9e57 743e 808b d2bc
000000c0: db06 653f 69ff 0e3f 3502 2fbf 73af d03e
000000d0: 1fa7 18be 6adf 48be f43d 333f 933b 633e
000000e0: 8b33 103d 942f 323f 94ae 18bf b092 e23d
000000f0: 79d3 093e b852 c43e 1f18 053f 29a6 1b3f
0.33268425 0.35171977 0.031577036 -0.9747509 0.26287693 0.5477566 0.0015481466 0.98829854
0.2367049 0.115993194 -0.63464564 0.8400676 0.31411138 -0.5959625 0.629082 -0.18344854
-0.32251713 0.26930633 0.39255008 -0.2402993 -0.20678474 0.19995184 -0.7196159 0.6437438
0.44254392 0.27160817 -1.0353392 0.858726 -0.63056666 -0.3650855 0.21737395 -0.32288334
-0.17732672 0.17274979 0.07109582 -0.12825347 1.1599613 0.6950915 -0.3250974 0.2461407
0.82148725 0.6835804 -0.10588314 0.32693192 0.5598562 -0.0016005337 0.23861548 -0.025701284
0.89463586 0.55858475 -0.6836274 0.40758857 -0.14907502 -0.19616476 0.7001641 0.22190695
0.035205405 0.6960385 -0.59641385 0.11063135 0.13459577 0.3834436 0.5198993 0.60800415

bias f4 [8]
00000000: 7ef9 2d3f 3899 28bf aed7 ae3d 02d3 10bd
00000010: 8d30 c93e 49df 6e3f f03f 1f3d a757 04bf
0.6795882 -0.65858793 0.085372314 -0.035357483 0.39294854 0.93309456 0.038879335 -0.51696247

weight f4 [8, 8]
00000000: ceb8 9ebe 03f7 f8be caea 843e 0956 ab3e
00000010: 191a b6be 8822 273f be1c 303f 7d27 453e
00000020: a35d 853e bea3 febe 32a4 573f 5eb0 04be
00000030: 89f9 9cbe fbc9 9abe d277 433f 648f f4be
00000040: a2ce d03d 0cb0 d8be 44e1 c73e c73e 56bf
00000050: 473f e2bb 313a cf3e 1e36 93bf c23a 773f
00000060: 3225 a0bc 1f32 4a3f 1bbd 10bf 42fd c53e
00000070: fe64 4d3f aa89 573e f322 10bf ae33 203f
00000080: 51c2 1ebd cea3 91be 2083 053f d7f5 8e3e
00000090: e81d 8c3d cf94 193f cefb 9b3e afc2 f9be
000000a0: 8c1f 0fbe 7f32 893e aa3b 9e3d 26e3 81bc
000000b0: 8858 26bf 2088 19bf e654 d93e 8489 1ebd
000000c0: 7cab 043e e6d4 7ebc 9379 2c3e 5b28 a6be
000000d0: 79b6 9cbd 8d21 3bbf 2d75 073f 8831 a3be
000000e0: a679 8f3f e9c3 87be 66c5 a5be d94d a73e
000000f0: 633e d63e 81d1 da3e 835a 4ebf ad8d 3e3f
-0.3100037 -0.48625955 0.2596038 0.33464077 -0.35566786 0.65287066 0.6879386 0.19253345
0.26048002 -0.497343 0.8423492 -0.12957904 -0.3065913 -0.30232224 0.76354706 -0.47765648
0.10195662 -0.42321813 0.39039052 -0.8368954 -0.006904516 0.40474084 -1.150089 0.9657403
-0.019548986 0.7898273 -0.5653855 0.38669783 0.80232227 0.21048608 -0.5630333 0.62578857
-0.038759533 -0.28445286 0.52153206 0.27921936 0.06841642 0.5999269 0.3046555 -0.48781344
-0.13976878 0.26796338 0.07726224 -0.015855383 -0.6497884 -0.59973335 0.42447585 -0.038705364
0.12956041 -0.015553689 0.16843252 -0.32452664 -0.076519914 -0.7309807 0.5291317 -0.31873727
1.1208999 -0.26516655 -0.32377166 0.3267658 0.41844472 0.42737964 -0.8060686 0.7443493

weight f4 [8, 8]
00000000: 193a 3fbf dd72 013f 23c3 22be 51a6 2abe
00000010: 90f4 bfbe d0e0 5f3f 68ab 43bf c184 a33e
00000020: 88ed afbe e806 2ebe 5cf0 3e3f 99d5 63be
00000030: 188d 28bf 0b01 f9be c78a bf3b c666 a63e
00000040: 1b4a 2abe aff0 cc3e 1192 7bbe f7e0 123f
00000050: 3bfa 313e 4893 a1be 24a6 aabe 30fd e0be
00000060: 1bc8 d0bd deb1 23bf f2e0 dd3e 9e7c 10bf
00000070: 90b8 cabe 4c35 0dbd 7adb 68be fa42 71be
00000080: bde5 c4be 1d16 273e e0e7 c3bd 4112 753e
00000090: 276d 9b3e b632 0d3f fffe 78be afd5 0dbf
000000a0: 33fb 453e 77a5 b83e a06d bd3d efaa 013f
000000b0: 7ffb 3ebe 7fdb 2fbf 0716 983e cf9c bebe
000000c0: 587e 8a3d fa2f f43e 4128 823e 522f 6d3e
000000d0: 9223 e3be 97ca 31bf dd6a e03d 1749 403e
000000e0: 9c6b 8fbe 73b9 093f d1c8 69bf 9ddd ab3e
000000f0: 0ee1 aa3e 2043 a53e 8bd2 74bf 3530 903c
-0.74698025 0.5056589 -0.15894751 -0.16665007 -0.37491274 0.8745241 -0.7643342 0.3193722
-0.3436091 -0.16994822 0.7458551 -0.2224945 -0.6584029 -0.48633608 0.005845401 0.32500285
-0.16629831 0.40027377 -0.24567439 0.5737452 0.17380612 -0.3155768 -0.3332988 -0.43943167
-0.10194417 -0.6394328 0.43335682 -0.5644015 -0.39593935 -0.034474656 -0.22739974 -0.23560706
-0.38456526 0.1631703 -0.09565711 0.23932745 0.30356714 0.55155504 -0.24316023 -0.5540418
0.19334106 0.3606374 0.09249425 0.5065145 -0.18650626 -0.686943 0.29704306 -0.3722901
0.067623794 0.47692853 0.25421336 0.23162583 -0.44363075 -0.6944975 0.109578826 0.18777882
-0.28011787 0.537986 -0.91322047 0.33567515 0.33374828 0.32277775 -0.95633763 0.017601112

bias f4 [8]
00000000: a002 383e d26a 023f fd9d 20be 1a75 d63e
00000010: cafe 90be a057 63be c514 3dbe 698b b6be
0.17969751 0.50944245 -0.15685268 0.41886216 -0.2831939 -0.22201395 -0.18464954 -0.35653237

weight f4 [8, 8]
00000000: a382 4abe 895e 583f 11e6 ed3e 990e 95bf
00000010: 3f15 b7be 94c6 2e3f a7ce febd fde6 413f
00000020: 1d87 a93e 68e5 873d e35a 86bf 8771 763e
00000030: e9be 613f a539 b83e 33d7 af3e 03b9 19bf
00000040: aff9 5abf 71db 473e c8be cdbd 279c 233f
00000050: 750f e83e d99b d03e 6de6 213f 4426 16be
00000060: e3a1 083f a405 f63e 0c06 3dbe 7e00 163f
00000070: c4b4 db3e da5e c9bd bcee f93e a810 12bf
00000080: 9161 713f d1cb 9e3e e72e c9be 17ff 603f
00000090: dea1 ff3e 4c57 81bf e436 33bd 81e7 f9be
000000a0: 1f71 96be 174f 003f ebf5 28bf f797 383f
000000b0: 987f 533e 5581 e03e aa80 f23e e526 043e
000000c0: d278 c5bc edcc 9fbe 34b9 05bf 638e 873e
000000d0: 4e22 c23e 6f4d 38bf a00e 683f 1c3f 48bf
000000e0: ee3e 8a3f d5cf 27be b1e5 003f d14a e7be
000000f0: 62cc 86bd 690d 313f de48 0ebf 12cc 113f
-0.19776396 0.8451925 0.4646459 -1.164508 -0.35758397 0.68271756 -0.124417596 0.75743085
0.33110896 0.06635553 -1.0496486 0.24066745 0.8818193 0.3598148 0.3434387 -0.6004793
-0.85537237 0.19517304 -0.10046154 0.63910145 0.45324293 0.40743902 0.63242227 -0.14663035
0.5337202 0.48051178 -0.18459338 0.585945 0.4291135 -0.098325446 0.48814952 -0.57056665
0.942895 0.31014875 -0.39293596 0.87889236 0.49928182 -1.0104766 -0.04375352 -0.48809436
-0.2938318 0.5012068 -0.6600024 0.7210688 0.20654142 0.43848673 0.47363788 0.12905462
-0.024105463 -0.31211033 -0.5223572 0.2647582 0.37916797 -0.71993154 0.90647316 -0.782213
1.0800455 -0.16387875 0.5035048 -0.45174268 -0.06581952 0.6916109 -0.55579937 0.5695201

weight f4 [8]
00000000: b864 ae3f 02df bc3f 72db a63f 9646 013f
00000010: ef78 943f 1804 ab3f 2fea 893f 138e 463f
1.3624487 1.4755557 1.3035719 0.5049833 1.1599406 1.3360624 1.0774592 0.7756054

bias f4 [8]
00000000: ed26 19bf cd17 52bf 4c8f 833e a58e 86bd
00000010: c677 f53e 53f0 3bbf 90c0 7d3c faab 1abf
-0.5982502 -0.8206757 0.25695264 -0.06570176 0.47942942 -0.7341358 0.015487805 -0.60418665

running_mean f4 [8]
00000000: a956 dbbe de1b 3f3e 9117 4e3e f648 39bf
00000010: 6c13 af3e 46f1 7a3e 7637 1dbf a2d4 8ebe
-0.42839554 0.18662974 0.20126177 -0.72376955 0.34194505 0.24506101 -0.6141275 -0.278966

running_var f4 [8]
00000000: 3c03 473f 3f23 713f d2e2 723f cddd bd3e
00000010: 2798 393f 6b3a 653f 9307 0f3f 8b45 5a3f
0.7773931 0.94194406 0.9487735 0.37083283 0.7249779 0.89542264 0.5587093 0.85262364

weight f4 [8]
00000000: 9211 443f 2406 973f 9a62 183f bd1a 6f3f
00000010: 84d3 cc3f 0965 573f fc70 383f d740 1f3f
0.7658931 1.1798749 0.59525454 0.93400174 1.600205 0.8413854 0.720474 0.6220831

bias f4 [8]
00000000: 538d 84be 7871 dd3e 197d 08bf 9bc3 b93e
00000010: 153e ea3e 2430 01bf eb59 b33e 59c2 ad3d
-0.25889072 0.43250632 -0.53315884 0.36282048 0.4575049 -0.5046408 0.3502954 0.084843345

running_mean f4 [8]
00000000: 89df 1b3f f4fa f0be b89b ecbe c6dc 013f
00000010: b44b 263f 4c04 d93e 736c 213f 0ac9 1bbf
0.6088796 -0.47066462 -0.46212554 0.507275 0.64959264 0.4238609 0.63056105 -0.60853636

running_var f4 [8]
00000000: 4842 0b3f 137b 383f 8704 443f 3243 363f
00000010: 9c9f 113f 7dc6 3f3f 5ed6 0e3f 2fbd 1b3f
0.5439801 0.72062796 0.7656941 0.7119628 0.5688417 0.74912244 0.5579585 0.60835546

weight f4 [8]
00000000: 429d 713f c113 b13f 5163 773f de27 5f3f
00000010: c72a 913f 63f4 e63e a403 d03f 4482 803f
0.9438058 1.3834153 0.9663592 0.8717021 1.134118 0.45108327 1.6251111 1.0039754

bias f4 [8]
00000000: e007 54bf 65e6 24bf 5e2e 38bf 189b ef3d
00000010: e703 f23e 6570 fcbe 20c6 843d 6ad4 973e
-0.82824516 -0.64414054 -0.7194575 0.11699504 0.47268602 -0.493045 0.06483102 0.29654247

running_mean f4 [8]
00000000: 0b04 4f3f c418 c23e 92f2 46be db84 cf3e
00000010: 0477 21bf 329b 05bf 3877 7c3e df47 2d3d
0.80865544 0.3790952 -0.1942847 0.40531048 -0.6307223 -0.52189934 0.24654853 0.04230487

running_var f4 [8]
00000000: 477d a93e f1e2 4b3f ad62 5a3f 7367 313f
00000010: 0634 133f 4fbf 1b3f 85f1 5c3f ca31 703f
0.33103392 0.7964316 0.8530682 0.69298476 0.57501256 0.6083879 0.8630603 0.9382597

weight f4 [8, 8]
00000000: f202 09bf 6849 32bf a410 16be a221 c1bd
00000010: 8c3a c8be d88f 1abf 0508 03be 111d e7bb
00000020: d41e 32bf f670 5b3e c1d5 6fbe 66ab a73e
00000030: 8045 a73e 133d 0bbf bc62 0dbf 1423 ccbd
00000040: d305 4d3f f5c9 3a3f 18a3 43bf a8b7 19bf
00000050: 985d d4be 09d8 823e b808 30be 0fb2 523e
00000060: ddcb 6ebd 274a 80bf 30f5 933e c2dc 5cbe
00000070: c0e8 e4be 2f07 5d3f 0038 573f 3d92 a63e
00000080: 11c9 de3e 312d c43c 4e04 3dbd 4fc0 18be
00000090: d282 2bbf 87f3 643d 43f1 acbe fb9e 173f
000000a0: 0792 8ebe b552 4abe c5a8 593e 09d4 733e
000000b0: 3e4b 163f 6566 b3be 6514 d63e 604a 00bf
000000c0: 6025 bd3e b36b 363f 845e 04bf 591b 92be
000000d0: db29 82be 5064 0d3f a388 a1be 496c 3d3f
000000e0: bf35 37bf 02b9 16be a033 133f 5e91 793e
000000f0: f7ca b93e e61b 04bf 599a 073f 3d76 cebd
-0.5352012 -0.6964326 -0.14654785 -0.09430243 -0.39107168 -0.6037574 -0.12796028 -0.0070530255
-0.6957829 0.2142981 -0.23421384 0.32747954 0.32670212 -0.54390067 -0.5522878 -0.09967628
0.8008701 0.7296441 -0.76420736 -0.6004586 -0.41477656 0.25555447 -0.17190826 0.20575736
-0.058299888 -1.002263 0.28898 -0.21568587 -0.44708824 0.86339086 0.84069824 0.32533446
0.43512776 0.02394733 -0.046146683 -0.1491711 -0.6699649 0.05589631 -0.33777818 0.5922696
-0.27845785 -0.19758113 0.21255787 0.23811354 0.5870856 -0.35039058 0.41812435 -0.5011349
0.36942577 0.71258086 -0.5170672 -0.2853649 -0.25422558 0.5523119 -0.31549558 0.73993355
-0.71566385 -0.14719012 0.5750065 0.2437186 0.36287662 -0.5160507 0.5296989 -0.10081146

bias f4 [8]
00000000: 0068 483f 7f7e d83e 0145 31bf 2dc2 afbe
00000010: d6d9 91bd 5434 6f3f f05d ccbe 269c 4c3f
0.7828369 0.4228401 -0.69245917 -0.34327832 -0.07121627 0.9343922 -0.3991542 0.79925764

weight f4 [8, 8]
00000000: 3546 7a3e 5d7f e33e 141f 7bbf 4f1a 7bbf
00000010: 9098 2a3f 448f 223f a2d2 17bd 5f09 27bf
00000020: de3c 2dbf a578 1cbf 4950 94bd 5cf9 383f
00000030: afb3 c73d d8a9 45bf d5cd 56be 3ebd 623e
00000040: 20e9 8dbe 9815 89be 2a73 b63e 94c8 a33d
00000050: c115 0d3f ed11 1abf 1cc7 f3bd a710 983c
00000060: 845e e7be 43b2 873f 7954 963e def2 ebbe
00000070: bd61 913c 8c5c b33e 645c abbe 6c58 04bf
00000080: 74df 73bf b4f8 3b3f 7de0 b03d a779 563e
00000090: 820b d63e e471 903e 63d0 c7be 35a2 b03d
000000a0: a8fa 20be 2033 543e a65e 05bf 7326 b53e
000000b0: 23b4 32bd 1969 0d3e 7af1 013f f292 3a3e
000000c0: aaea c4bc 7d7c dc3d 1bcd d3bd ab29 50bf
000000d0: 7183 40be d5a1 253f f7e1 4b3f d85b 23bf
000000e0: e3dd debd e074 f63e 5407 343f b0ac dbbe
000000f0: a2c7 8d3f 1ccb 173f 2f45 e6be 7fa2 d63e
0.24440844 0.44433108 -0.98094296 -0.9808702 0.6663904 0.63499856 -0.03706611 -0.65248674
-0.67671 -0.6112159 -0.07241876 0.7225549 0.09751069 -0.77212286 -0.20976956 0.22142503
-0.27716923 -0.26774287 0.35634738 0.079972416 0.5511132 -0.601836 -0.119032115 0.018562628
-0.45189297 1.0601276 0.29361323 -0.4608373 0.0177468 0.35031545 -0.33468926 -0.5169742
-0.9526284 0.73426366 0.08636568 0.20944844 0.41805655 0.28211892 -0.39026174 0.086246885
-0.15720618 0.20722628 -0.5209755 0.35380897 -0.043628823 0.13809623 0.5075909 0.18220118
-0.024037678 0.10765932 -0.10341855 -0.8131358 -0.18800141 0.6470006 0.7964167 -0.6381202
-0.10882165 0.48136044 0.7032368 -0.42905188 1.1076548 0.59294295 -0.44974658 0.4192085

weight f4 [8, 8]
00000000: 63c5 233f 37b9 353e d518 0c3f 321d 43bf
00000010: 83df 16bd 5750 c5bd eb98 8a3e 61e2 c6be
00000020: f7e3 00bf 4417 3ebf d0f5 c43e e743 563d
00000030: 9863 c0be f03f 15bf 96a8 ac3e 9c4a 753f
00000040: 5b57 fb3e 67ec 12bf f508 d4bd 97e4 46be
00000050: a781 8cbe b4a4 4ebf c385 20be 182c a0be
00000060: fe20 37bf e652 273e 57bf 84bf 5116 023f
00000070: 3048 89bf 6581 9e3d 954b 913d 44a9 8e3e
00000080: 87b5 223f 8d4a c53e c00a d83e a8da 2dbe
00000090: 8efd 703f 9a52 3a3e 5d9e 7a3d 1b27 03be
000000a0: 9465 fa3c 79ba c43d e648 b6be 63e8 b43e
000000b0: 8f7c 8abf fefb c13e 89bf 013f 529c 023d
000000c0: 92a3 303e 0db9 0c3f 2841 bbbe e329 253e
000000d0: 6e24 7e3f b857 1b3f 3498 ffbe 3708 9a3e
000000e0: ecea bd3e b5dd 1f3f 8c17 22bf 10a9 233e
000000f0: 422c f33e b015 6a3e e38f d03d 4971 9dbd
0.63973063 0.17746435 0.5472539 -0.76216424 -0.03683425 -0.09634464 0.27069792 -0.38844588
-0.50347847 -0.7425425 0.3846879 0.05231085 -0.37575984 -0.58300686 0.3372237 0.9581697
0.49090084 -0.5739197 -0.10353271 -0.19423138 -0.27442667 -0.8072007 -0.15676026 -0.3128364
-0.7153472 0.16340217 -1.0370892 0.508153 -1.0725155 0.07739524 0.07094494 0.27863514
0.6355824 0.3853344 0.42195702 -0.16977942 0.94136894 0.18195572 0.061186183 -0.12807886
0.030566014 0.09605879 -0.35602492 0.35333547 -1.0819262 0.37887567 0.50682884 0.03188736
0.17249897 0.54969865 -0.36573148 0.1612926 0.9927434 0.60680723 -0.4992081 0.30084392
0.37093294 0.62447673 -0.6331718 0.15982461 0.47494704 0.22859836 0.10183694 -0.07687623

bias f4 [8]
00000000: de43 003e 36d2 f33e 7803 25bf ad9d 3d3e
00000010: 3b52 5a3d 85a8 f6be 8275 b13e bade 4e3e
0.1252589 0.47621316 -0.6445842 0.1851718 0.053301077 -0.48175445 0.34659964 0.20202151

weight f4 [8, 8]
00000000: cfcd a53b e95a 3dbf 0cfa 83bf d908 713e
00000010: 9e81 59bf cc03 c4be 8c89 13bf f150 32bf
00000020: d2e2 00bf 512f 10be 2192 843d 5ff8 34bf
00000030: 9a10 4cbf a4cb 85be e076 103f eb37 c43e
00000040: 693a da3e b36b 29be 2339 e7be ba6c e03e
00000050: 0da9 acbe f1f6 503f 6189 2bbe b626 9fbe
00000060: 1f33 4ebe 247c 0d3f ba83 96be 8419 f93e
00000070: d317 be3d c87c 93bd e0c8 d63e eeb7 3dbf
00000080: 55ee eb3e e993 5f3e feb9 5b3f 6696 92bd
00000090: 44b2 763e 8b2f a93e 3eb3 b03e be78 a3be
000000a0: 79c2 da3e 206d c23e 04c5 e43e 925a 743f
000000b0: 050c ebbe b438 c13e 7454 393f abfa 57bf
000000c0: fef6 133f 5d7d 003f d32d 22bf 33af e73e
000000d0: 3991 29bf b1a1 263f a8f1 06bf b19f 20be
000000e0: 6031 833e a1a7 9f3e 3661 6d3e 6897 a33e
000000f0: b4e1 0cbf 4742 353f a422 fabe 030b 11bf
0.0050599347 -0.7396684 -1.0310683 0.23538531 -0.84963405 -0.38284147 -0.57631755 -0.69654757
-0.503461 -0.1408055 0.064731844 -0.70691484 -0.7971283 -0.26131928 0.5643139 0.38323912
0.42622688 -0.1654499 -0.4516078 0.43832952 -0.33722726 0.816268 -0.16751625 -0.31084222
-0.20136689 0.5526755 -0.29397374 0.4865228 0.09281888 -0.072015345 0.4195013 -0.7410878
0.4608027 0.21833767 0.85830677 -0.071575925 0.2409144 0.33044085 0.3451175 -0.31928056
0.42726496 0.3797388 0.4468156 0.954507 -0.45907608 0.37738574 0.7239449 -0.84366864
0.57798755 0.5019129 -0.6335117 0.45250854 -0.6623722 0.6509047 -0.5271249 -0.15685917
0.25623608 0.31182578 0.23181614 0.3195145 -0.55031896 0.70804256 -0.48854554 -0.5665743

weight f4 [8, 8]
00000000: c19d 4abe d389 31bf 9197 7cbf f12f 083e
00000010: 0f23 e33e f62e e0be 6a98 85bd 4b59 123f
00000020: d979 ecbe 0a22 173f 9760 aabe 8d05 893d
00000030: 7fce cbbe 568b f43e c790 89be 96ae b53d
00000040: e70d 78bf 590d 093f 17bf dfbe a44d 903e
00000050: cbe1 823d 2745 c53d 4357 f63e eaaa 293d
00000060: 0f6f 32bf 0d76 28be c122 5cbe c221 99bd
00000070: d970 adbe 66c2 41bf e398 27be 7f87 853e
00000080: 7f61 323f 16f1 e4bc b7ed 833e a370 febe
00000090: 5322 863d 5eea ecbe dbe9 22bf 0991 2cbe
000000a0: 4d79 17bf 2df5 3f3e 8e6b c2be b62b 43bb
000000b0: 934a 1e3f 4711 04bf abeb 353f afec 11bd
000000c0: cb94 193e f71b 0b3f b4cd 173f 4c9b 67bd
000000d0: dfa9 86bf a5b9 e4bd 1c44 62bf b177 4dbe
000000e0: 8cc0 1e3f 8bc0 053f 85b4 ecbc 3a1d 0fbf
000000f0: f724 893d 2a83 b2be ec32 88be dc75 13bf
-0.19786741 -0.6935093 -0.9866877 0.13299538 0.44362685 -0.43785828 -0.06523211 0.571675
-0.46186712 0.59036314 -0.33276817 0.06690512 -0.39805982 0.47762555 -0.2686827 0.0887119
-0.96896213 0.5353599 -0.43700477 0.28184235 0.06390723 0.096323304 0.4811345 0.041422762
-0.6970071 -0.16451283 -0.21497633 -0.07477142 -0.33875158 -0.75687253 -0.16366915 0.26079938
0.6968002 -0.02794699 0.257673 -0.4969531 0.065495156 -0.46272558 -0.63638085 -0.16852202
-0.59169465 0.18745871 -0.37972683 -0.0029780692 0.6183254 -0.51588863 0.71062726 -0.03562611
0.14998166 0.54339546 0.59298253 -0.056544587 -1.052059 -0.111682214 -0.88385177 -0.2006519
0.62012553 0.5224692 -0.028894672 -0.5590397 0.066965036 -0.34865695 -0.2660135 -0.57601714

bias f4 [8]
00000000: a0a3 0d3f 5854 0d3f c4b5 eabe 96ab 5fbf
00000010: 6e3d 58be 7a6f 583f 50ca 2cbf 407c 393f
0.55327797 0.55206823 -0.458418 -0.87371194 -0.21117184 0.845451 -0.67496204 0.72455215

weight f4 [8, 8]
00000000: d4de a43e 15ad f33d 4fde a7bf 9e5b 6cbf
00000010: f0a6 0b3f d973 913e 22f0 babc d0ed 4cbf
00000020: 78aa 20be 4a01 09bd 6e83 1cbe 8801 5c3f
00000030: 6ab5 873d e073 49be 9b13 0ebf 3a83 88be
00000040: 5c4a a0be f72a a8be ecbc 7ebe 3741 f53d
00000050: 3d29 053f f0b4 30bf 594b 88bb a782 303f
00000060: 6e50 e93c fbb4 853f 38ab 383e 8bf8 54bf
00000070: f1de 52be 3fd8 323e e7cd 2fbf b633 5fbf
00000080: 732c 8ebe 9e88 203f d02e b3bd 5111 4fbe
00000090: c6cb 483c 7ce4 4c3f d493 b2be 9617 75be
000000a0: 9655 efbe 8d18 083f dddd 6abe 7580 1a3f
000000b0: dda3 cfbd 12de d93e 166e 8d3f 0887 f63e
000000c0: cf25 b13c 4b14 1b3e adcb 063c eddf 0fbf
000000d0: 7834 b83d a6e8 443f 257b 673f d350 32bf
000000e0: d736 9abe 58bc 9fbc 6033 113f 2538 44bf
000000f0: d11e 503f df0f 9d3e 9bb6 31be 2fbe 8c3e
0.32201254 0.11898247 -1.3114718 -0.92327297 0.545516 0.28408697 -0.022819582 -0.80050373
-0.15690029 -0.033448495 -0.15284511 0.85939837 0.06626399 -0.19673109 -0.55498666 -0.26662618
-0.31306732 -0.3284528 -0.24876755 0.11975329 0.5201605 -0.6902609 -0.0041593728 0.6894936
0.028480735 1.0445856 0.18034065 -0.83191746 -0.20592858 0.17465304 -0.6867356 -0.8718828
-0.27768287 0.6270846 -0.08749163 -0.2022145 0.012255615 0.8003614 -0.3487841 -0.23934779
-0.46744984 0.5316246 -0.22936197 0.6035226 -0.10138676 0.4255224 1.104922 0.48149896
0.021624474 0.1514446 0.008227271 -0.5620106 0.089943826 0.76917493 0.9042228 -0.6965458
-0.30119964 -0.019498989 0.5671902 -0.7664817 0.8129702 0.3067617 -0.17354815 0.2748885

weight f4 [8, 8]
00000000: ba94 0ebf 34d7 3c3e ed5e c1bd 29ed 9dbd
00000010: b895 0cbf 36d1 0c3f 7f6d 46be e0e7 153f
00000020: 95bf de3e c671 1abd 5855 993d d9cd 39bf
00000030: 2768 5bbe 0dc9 23be 5635 22bf c10d 23bf
00000040: eb0a 153e 2c7e 08bf b322 493f 2619 c4be
00000050: 78cf 60be 92ef 213f 1972 613e 5583 563f
00000060: c213 28be cb99 a9bd 8b42 60bf e777 073f
00000070: 83f4 0d3f 3e28 8abe 3c55 2b3f 56cc ab3e
00000080: 41e3 de3e a9d9 cb3e 4b4c a6bd 6b4a 753f
00000090: 7fea 853f 8530 36be 69de 31be b299 073d
000000a0: f3ab bbbe a24d 223f d2d6 aa3d 6cab 15bf
000000b0: 3fc1 04bf fee3 5d3d f714 8ebe 34b1 fb3e
000000c0: 7b06 16be 733f f33e dc2c ee3e 5130 53bf
000000d0: 2723 38bf 4d4b de3d 452c a7be 483a 1f3e
000000e0: 4eef 8f3e 754e 06bf 28ae 253d ee10 24bf
000000f0: cf8b 42bf f5d7 a43e 58ec 39be 58da 50bf
-0.5569569 0.18441468 -0.09441934 -0.0771125 -0.5491595 0.5500673 -0.19377707 0.5855694
0.4350554 -0.03770616 0.07486981 -0.72579724 -0.2142645 -0.15994664 -0.63362634 -0.6369286
0.14554946 -0.53317523 0.7856857 -0.38300437 -0.21954143 0.6325618 0.22016181 0.83794147
-0.16413787 -0.08281287 -0.87601537 0.5291733 0.5545122 -0.26983827 0.6692693 0.33554333
0.43532756 0.398145 -0.081200205 0.9581668 1.0462188 -0.17791946 -0.17369999 0.03310556
-0.36654624 0.6339971 0.08341755 -0.58464694 -0.5185737 0.05417251 -0.2775037 0.49158633
-0.1465091 0.47509345 0.465186 -0.824956 -0.7192864 0.10854206 -0.32650962 0.15549576
0.28112262 -0.52463466 0.04044929 -0.6408833 -0.7599458 0.32196012 -0.18156564 -0.81583166

bias f4 [8]
00000000: cb5f 87be 786d d8bd 92b1 a63e 9505 1cbd
00000010: 9c4a aa3e 889e 4abe c6ee f73d 5dae 243f
-0.26440272 -0.105677545 0.3255735 -0.03809126 0.33260047 -0.19787037 0.12106089 0.6432856

weight f4 [8, 8]
00000000: b4f2 a2bf 9cb9 6bbf 2b19 8bbe b03a 95bc
00000010: da5f 3b3e 0e98 33bf e76a e3bd 95d9 82be
00000020: b452 133d 6c13 253b b9ed 5bbe fabd 113d
00000030: 8edf 1f3f caee b1be aa5e cf3d e24f f23e
00000040: 744d 4dbe 1fcb 69bf 64d1 01bf 352d d8bd
00000050: 5cc3 debc bbdb 2b3f 2bff e2bd f569 d23e
00000060: 9dab 343f 11bb 4a3f 67b4 263f 4abd 773e
00000070: 6ff2 04be 67a1 383b 6e2c 06be 27fb 4cbe
00000080: d768 bd3e 931d 003f 7329 8e3f 3222 523f
00000090: 47a5 253f 5aa8 bcbe 0eba 47be 9791 dbbe
000000a0: 71fc 823f 3697 12bf 755c 21bf a9b9 8bbf
000000b0: 0af4 a03b 6cdb ea3e b58b 213f f043 1c3f
000000c0: 7a73 23bf 7f89 59bf fd6b 72bf 2759 34bf
000000d0: c156 2abf cd7f 843d 94f2 453e d260 db3e
000000e0: 7ddd 1fbd e1f8 10be 6af3 ccbe 3318 df3e
000000f0: 031b 423e ae3b 653e f62c 8a3f b660 01bf
-1.2730317 -0.9208009 -0.2716764 -0.018216461 0.18298283 -0.7015389 -0.111043744 -0.25556627
0.035967544 0.0025188578 -0.21477403 0.035581566 0.6245049 -0.34752494 0.101254776 0.4732657
-0.20049077 -0.91325563 -0.5071013 -0.105554976 -0.027192764 0.6713216 -0.11083826 0.41096464
0.7057436 0.7919169 0.6511902 0.24193302 -0.12983106 0.0028172375 -0.13102886 -0.20017682
0.3699405 0.50045127 1.1106399 0.8208343 0.6470532 -0.36847192 -0.19504568 -0.42884514
1.0233289 -0.5726198 -0.63031703 -1.0916034 0.004911904 0.4587053 0.631038 0.61041164
-0.6384808 -0.8497543 -0.9469603 -0.70448536 -0.66538626 0.064696886 0.19330817 0.42847306
-0.039029587 -0.1415744 -0.4002946 0.4357315 0.18955617 0.22386047 1.0794971 -0.50538194

weight f4 [8, 8]
00000000: 508d bbbe 2092 eaba 20aa b6be 0330 83be
00000010: 76fa 93be 2a15 61be f5bd a83d 1e31 41be
00000020: 2042 133f 3843 e43e 21cb 003f 4764 6cbd
00000030: 0bdc 8abe 325e 163f 3c39 3f3f 8e54 45bf
00000040: 11f4 85bd 1717 f3bd 0850 8bbe 791e 44bd
00000050: c6bf f3bd 3583 e23e 23cc eebe a953 343f
00000060: e25f 1cbf 1b28 48be 3f4f b5be 4fd2 983e
00000070: f6ca 0b3f 0481 3d3f 51d8 143e 1e3a 3cbd
00000080: f4c6 7ebf fb3b 9f3e c831 b3bf 527d 2e3f
00000090: baa3 f73e f373 b7be afc1 113e beaf aabe
000000a0: 95a8 94be 9e6c 26bf ee55 4fbf d5f0 80be
000000b0: 1f17 aa3e 7a72 17be f35d 1c3f 53ab 573f
000000c0: 0934 c6ba 2676 273f 613e 953e a612 0a3f
000000d0: 51f2 53be e8c3 06bf 32e1 10bf 81a4 1fbe
000000e0: f19b b5bd bc5b e23e fe7c 0b3f cdf5 21be
000000f0: 780b bfbe 50ca 63be ff69 833e de27 193f
-0.3663125 -0.0017896332 -0.3567667 -0.25622568 -0.28902024 -0.2198073 0.082393564 -0.18866393
0.57522774 0.44582534 0.5030995 -0.05771282 -0.27121004 0.5873748 0.7469671 -0.77082145
-0.065406926 -0.118696384 -0.27209496 -0.047880623 -0.11901812 0.44240728 -0.4664012 0.70440155
-0.61083806 -0.19546549 -0.35412022 0.29847953 0.5460657 0.7402499 0.14535643 -0.045953862
-0.9952233 0.3110045 -1.3999567 0.68159974 0.483671 -0.3583065 0.1423404 -0.33337206
-0.29034868 -0.65009487 -0.80990493 -0.2518374 0.33220765 -0.14789763 0.61080855 0.84245795
-0.0015121709 0.65414655 0.29149154 0.53934705 -0.20697905 -0.5264268 -0.5659362 -0.15590097
-0.08867634 0.44210613 0.544876 -0.15816422 -0.37313437 -0.22245145 0.25666806 0.5982646

bias f4 [8]
00000000: 982a 3b3f 2d7b 903e 89c5 06bf 39c0 d8be
00000010: b79a 34bf 66c6 543f f461 f8bd 0ccf 9e3e
0.7311187 0.28218976 -0.52645165 -0.42334154 -0.70548576 0.8311523 -0.12128058 0.3101734

weight f4 [8, 8]
00000000: 37b2 ab3e a530 ae3e 4aea 4dbf f374 54bf
00000010: 1c6c 273f a78c d23e 1c77 efbd c06d e4be
00000020: 5295 8bbe 6279 29bf e2d1 c33e 2c9e 543f
00000030: 7659 6e3e f05c 13bf b7ee f7be be58 7e3e
00000040: af04 84be cda9 bcbd d29e b43e 8093 523e
00000050: f0df 2f3e 8f10 9cbe b162 2c3e 4a4c f73e
00000060: e559 03bf b96b a33f dad0 933d aadb 28bf
00000070: 4b39 2d3e e602 493e a444 26bf 9632 86bf
00000080: 6eb1 37bf 2522 8a3f ca6a 27be 1806 d1be
00000090: c91a 1e3e b186 9b3e c449 c0bb 844f 143e
000000a0: d583 24bf 5758 96bc 91b4 d33c c033 b03e
000000b0: ce68 babe 56bb 343e 340c 263f ae65 993e
000000c0: 0afb 05be faf9 adbc 1be5 b6be e71f 05bf
000000d0: 4c57 a53d 5615 863f 1f8c 3f3f 4ebc 05bf
000000e0: 8eb0 9b3d 6ded 573e 943d 273f dd5e d5be
000000f0: cf0d 943f 6889 343f c319 48be a7ce d23e
0.33534405 0.34021488 -0.8043562 -0.8299095 0.65399337 0.41122934 -0.1169264 -0.44614983
-0.2726236 -0.6620084 0.38246065 0.8305385 0.23276314 -0.57563686 -0.48424312 0.2483854
-0.25784823 -0.092120744 0.3527742 0.2056408 0.17175269 -0.30481383 0.16834523 0.4830039
-0.51309043 1.2767249 0.0721757 -0.6596018 0.16916387 0.19630012 -0.6494849 -1.0484188
-0.7175511 1.079167 -0.1634933 -0.40824962 0.15439905 0.303762 -0.0058681685 0.14483458
-0.6426366 -0.01835267 0.025842937 0.34414482 -0.36408085 0.17649588 0.6486237 0.29960388
-0.13084045 -0.021237362 -0.3572167 -0.52001804 0.08073291 1.0475261 0.7482318 -0.52240455
0.076020345 0.21086664 0.65328336 -0.41673937 1.1566714 0.70522165 -0.19541077 0.41173288

weight f4 [8, 8]
00000000: c0d4 2e3d f760 45be 0ba1 353e 9e80 c83b
00000010: e697 32bf a915 81be c772 2b3f 2dc8 37bf
00000020: 9330 77be 342c 2f3f 8b6e 33be ab33 abbe
00000030: d919 e23e 6ee2 5a3f 411c 2abd 171a 05be
00000040: a4cd 773e 0fa2 c8be 5a5d 68bf b7f2 34bf
00000050: d4f4 0cbf ccfc cabe 82c9 303e a2e1 81be
00000060: a4e3 1a3e fe72 4cbb fa1c 643e 1086 7a3e
00000070: 1fa9 343f 1bb4 ff3e 977b 41bf deac 593e
00000080: cc4e 26bf 9a43 0b3f 8372 84be 7e00 b53e
00000090: e773 7cbf 86a4 c1be 3486 0d3f 7114 f3bd
000000a0: bf04 3a3f c5b1 143f 9868 c9be a239 b7be
000000b0: 23eb e33e 2edb 233d 4e64 1ebf ac14 733e
000000c0: 69d6 a6be f5ca 9fbe 2261 023f 5e7d 473f
000000d0: f9b7 9a3e fff5 5ebe 836a 093f 548d e73e
000000e0: ef5e a7be 2e1f 3cbf c288 1d3e 27e9 63bd
000000f0: 2307 443d 9b47 e8be 49eb 8f3d 631a 0ebf
0.042683363 -0.1927527 0.17737214 0.006118848 -0.6976303 -0.25211838 0.6697201 -0.7178982
-0.24139623 0.68426824 -0.17522638 -0.33437857 0.44160345 0.85501754 -0.04153085 -0.12998234
0.2419954 -0.3918614 -0.90767443 -0.70682853 -0.5506108 -0.39645994 0.17264369 -0.25367457
0.151259 -0.003119647 0.22276679 0.24465203 0.7057056 0.49942097 -0.7557921 0.2125735
-0.64963984 0.54400027 -0.25868616 0.35351938 -0.9861435 -0.37820834 0.552829 -0.11869133
0.7266349 0.58083755 -0.3933761 -0.35786158 0.44515333 0.040003948 -0.618718 0.23738354
-0.32585457 -0.3120953 0.5092946 0.7792567 0.30218485 -0.21773528 0.5367815 0.45225012
-0.32689616 -0.73485076 0.153842 -0.055642273 0.04785837 -0.4536713 0.07027299 -0.5550901

bias f4 [8]
00000000: 2277 903d e12b 773d c2ae 4fbf 243d c13e
00000010: ec98 a9be 72ce 17bf e809 243f 0e13 7a3e
0.07053973 0.06034458 -0.81126034 0.3774196 -0.33124483 -0.59299386 0.64077616 0.24421331

weight f4 [8, 8]
00000000: 34d0 dd3e 127e 92bd fd8d 1ebf efb2 263e
00000010: 1a58 06bf e061 b4be 9232 14bf 17cf 4ebf
00000020: 2c5e c3be 9896 c23b 70db 033f 988e 5bbe
00000030: ca01 18bf 9e98 2bbd b1ba c53e 99c7 ed3d
00000040: 3450 563e 6754 91bd 866c 0abe 4959 983e
00000050: d31d 84be 7446 563f 326d 15bf dad9 5ebf
00000060: 4a2e 81be 93fa 173f 8633 023e 2b07 443f
00000070: 1325 82be dd60 013e 9ef9 8e3e 66c0 44be
00000080: 9749 213f 016b 58bc 834e 613f 26ca 893c
00000090: 35e2 58be f3c6 cb3e e3db 023f 6366 983e
000000a0: 3774 ab3e 60c1 873f 269a a43e 72a5 243f
000000b0: dab9 08bf d9db 373e b0b1 4e3f e8a8 67bf
000000c0: c34c d43e 52c6 c03e 89e2 0bbe fda1 d03e
000000d0: afc8 28bf 4b0a e43d 9952 1abf c817 ecbe
000000e0: 1a42 1f3f 1e2a f73d fb91 453e 7840 8d3e
000000f0: b1ad 2abf 48e5 c53e 5e0a d0be 433b 8dbe
0.4332291 -0.07152952 -0.61935407 0.16279195 -0.5247818 -0.35230923 -0.57889664 -0.80784744
-0.38157785 0.0059383623 0.5150671 -0.21441114 -0.5937773 -0.041893594 0.38618997 0.11610336
0.20929033 -0.070961766 -0.13517961 0.2975562 -0.25804004 0.8370125 -0.58369744 -0.87051165
-0.25230628 0.5936672 0.12714967 0.7657344 -0.2541891 0.12634607 0.27924818 -0.19214019
0.63002914 -0.0132091055 0.88010424 0.016820025 -0.21180041 0.39800224 0.5111677 0.29765615
0.33487102 1.0605888 0.32148856 0.6431495 -0.53408587 0.17954959 0.8073988 -0.90492105
0.41464815 0.37651306 -0.13660635 0.40748587 -0.6593122 0.11134776 -0.60282284 -0.46111894
0.6221024 0.1206858 0.19293968 0.27588248 -0.6667128 0.3865149 -0.4063291 -0.27584276

weight f4 [8]
00000000: 09aa 813f b9ab f13e be17 2b3f 4f82 0c3f
00000010: 64a5 943f 7e4f a73f 0bc3 873f 3c5a 1f3f
1.0130016 0.47201326 0.668331 0.54886335 1.1612973 1.3071134 1.0606397 0.6224706

bias f4 [8]
00000000: c1b9 45bf ca2e fc3e b0e2 363e 220d 8bbe
00000010: bf78 4abd e080 cdbe 8d9c 0d3d 9db7 5f3f
-0.7723656 0.49254447 0.17859912 -0.27158457 -0.04943156 -0.40137386 0.034573127 0.87389547

running_mean f4 [8]
00000000: 8391 713d 7413 3ebf acf6 4cbe f425 383e
00000010: a02f 263e 73f8 3c3e 27d4 343d 5f42 00bf
0.05897666 -0.74248433 -0.20015973 0.17983228 0.16229105 0.18454151 0.044147637 -0.50101274

running_var f4 [8]
00000000: a5c0 5d3f ac77 9a3e 743a 6f3f bba4 6f3f
00000010: ed7f 713f d2e4 713f c0f7 733f 3a7f de3e
0.8662208 0.30169427 0.9344857 0.93610734 0.94335824 0.9448978 0.9529991 0.4345644

weight f4 [8]
00000000: 3de7 773f e1f0 8d3f 37ff 5b3f 8058 b23f
00000010: 9879 0e3f e712 a23f 36da a33f 85ed 0a3f
0.96837217 1.1089135 0.859363 1.3933258 0.5565429 1.2662019 1.2800968 0.54268676

bias f4 [8]
00000000: edda 8fbe cc28 cbbe 8f86 4f3d c029 b63e
00000010: 4641 f83e 6d4e 22bf d124 b03e 002e 81bd
-0.28096715 -0.39679563 0.050665434 0.35578728 0.484873 -0.6340092 0.3440309 -0.06307602

running_mean f4 [8]
00000000: f431 4f3f 45df d03e 8e67 f7be 6160 69be
00000010: 40e7 923d a4fb 7c3f 02b6 60bf 468b 4f3e
0.809356 0.4079534 -0.48321193 -0.22790672 0.07173014 0.98821473 -0.8777772 0.20267972

running_var f4 [8]
00000000: 8468 ac3e fc55 433f 7999 373f 29c9 6a3f
00000010: 21e5 533f ae34 443c 5faa 543e 51b4 5f3f
0.3367349 0.76303077 0.71718556 0.91713196 0.827715 0.01197545 0.20768116 0.87384516
