mlartifacts/403163061964527456/b64f0f85bb9241559f98feb7c5013a2d/artifacts/models/data/model.pth (torch, 333838 bytes, 160 tensors)

bias f4 [32]
0	0xbd987244	-0.074436694
1	0xbfb74c0b	-1.4320081
2	0xbf479444	-0.7796061
3	0x3fbdfea3	1.4843334
4	0xb7e9caa4	-2.7870126e-05
5	0xbe955e68	-0.2917359
6	0x6f59c3c0	6.7394894e+28
7	0x3e4d446c	0.20045632
8	0x40101bcb	2.2516963
9	0xbfeaba2a	-1.8338063
10	0xbc2213cd	-0.009892416
11	0xbf2fb65b	-0.6863763
12	0x3fc507cc	1.5393004
13	0xbe134c27	-0.14384519
14	0x3f46c67a	0.776466
15	0x401023ae	2.2521777
16	0xbfad6af8	-1.3548269
17	0x3fc38ca6	1.5277297
18	0x3ed91868	0.42401433
19	0x3e30a424	0.17250115
20	0x3c594231	0.01326041
21	0xbf2c1719	-0.67222744
22	0x3fcb27ae	1.5871484
23	0x3f44c2d9	0.76859814
24	0xbfc7deb4	-1.5614839
25	0xc011b2c1	-2.2765353
26	0x3fffecc9	1.9994136
27	0x3f89e2cc	1.0772338
28	0x3fc700ba	1.5547097
29	0xbf432b4e	-0.7623795
30	0x3f1a88c7	0.60364956
31	0x3ec1f69a	0.37883455

weight f4 [32, 3]
0	0x3fcfa8d3	1.6223396
1	0xbe89ca68	-0.26912236
2	0xbf8874a2	-1.0660594
3	0x40048b95	2.0710194
4	0xbfd66439	-1.6749336
5	0x3ed70fa1	0.4200411
6	0x3fc3c1c4	1.5293508
7	0x3f85dd0d	1.0458084
8	0x3eb693a6	0.35659522
9	0x3fb3dfc4	1.4052663
10	0xbfe43f02	-1.7831728
11	0x3f959554	1.1686196
12	0xbfb3c8e8	-1.4045687
13	0xbf90831f	-1.1290015
14	0xbffe595f	-1.9871024
15	0xbfaeafec	-1.3647437
16	0xbfacefe3	-1.3510708
17	0xbedd5f6f	-0.43236873
18	0x3eb677c5	0.35638252
19	0x3e5bebe1	0.214767
20	0x3d3471f0	0.04405397
21	0x3fcc5379	1.5962974
22	0x3f74a116	0.955583
23	0x3ff4a28d	1.9112107
24	0x3ee53d38	0.4477327
25	0xbf2c9a28	-0.67422724
26	0x3fd66a35	1.6751162
27	0xbeffc8f4	-0.49958003
28	0x3f76ff50	0.96483326
29	0xbe9cca8f	-0.3062329
30	0x3ec154c3	0.3775998
31	0xbd68d07a	-0.056839444
32	0xc000c4f3	-2.0120208
33	0xbf1a217b	-0.6020734
34	0x3e7ea585	0.24867828
35	0xbeb2e143	-0.34937486
36	0x3eae1a2b	0.3400434
37	0xbe3b6478	-0.18300045
38	0x3edc8fd4	0.43078482
39	0xbfec2a64	-1.8450437
40	0xbea1823a	-0.31544667
41	0xbf4e15d7	-0.80502075
42	0xbeacada7	-0.33726236
43	0xbe933330	-0.2874999
44	0x3f1e88ad	0.619273
45	0x3f592ce1	0.84834105
46	0x3fbfd5b3	1.4987091
47	0xbe33104c	-0.17486686
48	0xbf7158ca	-0.94276106
49	0xbf9497e8	-1.1608858
50	0xbeeaad7e	-0.4583549
51	0x4002f0af	2.0459402
52	0x3ec9a8de	0.39386648
53	0x3f06f7bc	0.5272176
54	0xbfcda32b	-1.606542
55	0x3f2557df	0.64587206
56	0x3f742e0f	0.9538278
57	0xc0021215	-2.0323536
58	0x3f0f3a60	0.5594845
59	0xbf1fd261	-0.6243039
60	0xbea9f72a	-0.33196384
61	0xbf415232	-0.75516045
62	0xbfc70751	-1.5549108
63	0x3ee7f167	0.45301363
64	0xc024b57e	-2.5735774
65	0xbf4ab1f2	-0.79177773
66	0x3f97cc81	1.1859285
67	0xbf817acb	-1.0115598
68	0x3f0cad52	0.54951966
69	0xbfe2abe7	-1.770871
70	0xbeb104ff	-0.34574124
71	0xbd139aca	-0.03603629
72	0x3e969a40	0.29414558
73	0xc000850c	-2.0081205
74	0xbfc21454	-1.5162454
75	0x3ed28b19	0.41121748
76	0x3fb83cbd	1.4393536
77	0xbfcf1a65	-1.617993
78	0xbec6da89	-0.38838604
79	0xbf699264	-0.91239
80	0x3eb028f3	0.34406242
81	0x3fa85eb3	1.31539
82	0xc0164290	-2.3478127
83	0xbe541104	-0.20709616
84	0x3fb31955	1.3992106
85	0x3fb849a2	1.4397471
86	0xbe80c89f	-0.25153062
87	0xc01445d2	-2.3167615
88	0x3ff249bc	1.8928752
89	0x3f8090a8	1.0044146
90	0x3ebe7c70	0.37204313
91	0x3fc67181	1.5503389
92	0x3e63996f	0.22226499
93	0xbf61542a	-0.8801905
94	0x3fd45699	1.6588928
95	0xbfcee301	-1.6163026

weight f4 [32, 3]
0	0x3f2e1cac	0.680125
1	0x3f42755a	0.75960314
2	0x3df8476c	0.12122998
3	0x3ef277e7	0.47357103
4	0x3d1dfa28	0.038568646
5	0xbe811176	-0.25208634
6	0x3f9b3174	1.2124467
7	0xbf8d7488	-1.1051188
8	0xbf494fd0	-0.7863741
9	0x3fd676ea	1.675504
10	0xbf054efa	-0.52073634
11	0xbf784d63	-0.9699308
12	0xbf636528	-0.8882623
13	0x3f000de4	0.50021195
14	0x3f7ad2a2	0.9797765
15	0xbfbffe6d	-1.499952
16	0xbed27264	-0.41102898
17	0xbec02572	-0.37528569
18	0x3ec6306d	0.3870882
19	0xbfce4c94	-1.611712
20	0x3e6a3982	0.228735
21	0x3fde59f1	1.7371198
22	0x3f978fca	1.1840756
23	0x3fc1003c	1.5078197
24	0x3fce0fbe	1.6098554
25	0xc00c50b6	-2.1924262
26	0x3f9a425c	1.2051501
27	0x3eda4f02	0.42638403
28	0x3f9b3317	1.2124966
29	0xbebc4f85	-0.3677942
30	0xbf7e6fb6	-0.9938921
31	0xbf193d26	-0.5985893
32	0x3f324dc1	0.69649893
33	0xbf917472	-1.1363661
34	0x3f9abf38	1.2089605
35	0x3fafb930	1.372839
36	0xbd8747f8	-0.06605524
37	0xbdf97225	-0.121799745
38	0x3de796f4	0.11308089
39	0x3f9ba26b	1.2158941
40	0x3f127ca6	0.5722145
41	0xbefa3fe5	-0.48876873
42	0xbee8d1a8	-0.45472455
43	0xbea5507a	-0.3228796
44	0x3e58c0be	0.21167275
45	0xc02c4ea8	-2.6923008
46	0xc0083bbb	-2.1286457
47	0xbc7630bd	-0.015026269
48	0xc0057791	-2.0854228
49	0xbeb9fb72	-0.3632465
50	0x3fd2a209	1.6455699
51	0xc002d731	-2.0443842
52	0x3f8867ab	1.0656637
53	0xbee8d703	-0.4547654
54	0x3e99ee2e	0.3006453
55	0x3fad9b24	1.356297
56	0xbfb19028	-1.3872118
57	0x3ecc4755	0.39898172
58	0x3f8e4680	1.1115265
59	0xbf004d7f	-0.5011825
60	0x3f6bfaee	0.92179763
61	0xbdccb689	-0.09995753
62	0x3e4789b0	0.19486117
63	0xbf81444e	-1.009897
64	0xbf8ec133	-1.115271
65	0x3fa8c112	1.318392
66	0x3f8038b5	1.0017306
67	0x3ec4924e	0.38392872
68	0x3fe40431	1.7813779
69	0xbfcfeacd	-1.624353
70	0xbff3cf80	-1.9047699
71	0x3fa02f3c	1.2514415
72	0xbdbb6faa	-0.091521576
73	0xbfc59040	-1.5434647
74	0xbec9d4c4	-0.3942014
75	0xbf2db786	-0.6785816
76	0x4011ff15	2.281194
77	0x3e80aae8	0.2513039
78	0xbeaad086	-0.33362216
79	0xbf9f5ff0	-1.2451153
80	0x3ff10475	1.8829485
81	0x3e65ac42	0.22428992
82	0xbff09a22	-1.8797038
83	0x3f8308ac	1.0237021
84	0x3f3d4ebd	0.7394827
85	0xbfdc4cad	-1.72109
86	0x3f320b5f	0.695486
87	0x3fc315d2	1.5241034
88	0x40009775	2.0092442
89	0xbfcfcddb	-1.6234697
90	0x3fa16e0e	1.2611711
91	0xbfa4dc12	-1.287966
92	0xbec6dd94	-0.38840926
93	0xbf322416	-0.6958631
94	0xbfeb9218	-1.8403959
95	0x3fd1a959	1.6379806

bias f4 [32]
0	0x3e292815	0.16519196
1	0xbf0228d1	-0.5084353
2	0xbf1817b4	-0.5941117
3	0xbfce3193	-1.6108879
4	0x3f44156e	0.765952
5	0xbfe4b532	-1.7867796
6	0x3dc1aab7	0.094563894
7	0x3fa4418b	1.2832502
8	0x3f309d5c	0.6899011
9	0xbfeb10b3	-1.8364471
10	0x4001ff2f	2.0312002
11	0x3eb980d7	0.3623111
12	0x3e1ad66b	0.15120856
13	0xbfa24749	-1.2678005
14	0x3f1dcba2	0.61638844
15	0xbf3d8f9f	-0.74047273
16	0xbf92fc21	-1.1483194
17	0xbe19a71a	-0.1500515
18	0xbfea21ac	-1.8291526
19	0x3fe3d358	1.7798872
20	0xbf4ac7cc	-0.79211116
21	0x3fefc522	1.8732035
22	0x3f8a36c6	1.0797966
23	0x3fe1871d	1.7619358
24	0x3c7fa540	0.0156033635
25	0x3ffd8e3a	1.9809029
26	0x3ffb6687	1.9640664
27	0x3fc7fbd0	1.5623722
28	0x3f80e59f	1.0070075
29	0xbfd7e34a	-1.6866238
30	0x4000b8da	2.0112824
31	0xbe8486e7	-0.25884172

weight f4 [32, 1]
0	0x3f859610	1.043642
1	0x3fe8c4d3	1.8185066
2	0x3eea2911	0.45734456
3	0xbffa80d8	-1.957057
4	0x3ff0621c	1.8779941
5	0xbcff9af2	-0.031201813
6	0x3f0264f9	0.5093532
7	0xbf0ff860	-0.56238365
8	0x3e5ebe7a	0.21752349
9	0x40056a3c	2.084609
10	0xbfc8195f	-1.5632743
11	0x3f6fa227	0.936068
12	0x3f9e90e8	1.2387972
13	0x40166621	2.3499835
14	0xbf843071	-1.0327283
15	0xbe933b4d	-0.2875618
16	0xbe7bb669	-0.24581303
17	0xbff82a3f	-1.9387892
18	0x3f9c1ca6	1.2196243
19	0x3f3e2c53	0.74286383
20	0x40411ad4	3.0172625
21	0x3f16cc15	0.58905154
22	0x40184871	2.3794215
23	0xbfa55593	-1.291674
24	0xbf92426a	-1.1426518
25	0xbf1a5ed2	-0.60300934
26	0x3edb95e7	0.42887804
27	0x3e039cd8	0.128528
28	0x400e5d87	2.2244585
29	0x3f0f7258	0.5603385
30	0x3fc6a2a7	1.5518388
31	0x3f49b923	0.7879812

weight f4 [32, 1]
0	0xc024673f	-2.5688016
1	0xbfb9d5f1	-1.4518415
2	0x3fc6db9d	1.5535771
3	0xbfb64165	-1.4238707
4	0xbf7aa551	-0.979085
5	0xbfbeb093	-1.4897636
6	0xbefb8694	-0.49126112
7	0x3f93ba81	1.1541291
8	0xbe8a79ce	-0.27046055
9	0x3f5b5ed0	0.8569155
10	0xbf954b7d	-1.1663662
11	0x3fc051ca	1.502496
12	0x3fff98d7	1.9968518
13	0xbf43e22e	-0.76517
14	0xc01fcc6a	-2.4968514
15	0xbf431c80	-0.7621536
16	0xbfffa98d	-1.9973618
17	0x400a0170	2.1563377
18	0xbf35595d	-0.7083948
19	0x3f5eba47	0.87002987
20	0xbf9ec5e7	-1.2404145
21	0xc035ad22	-2.8386922
22	0xbf133b83	-0.5751268
23	0xbe819e0a	-0.25315887
24	0xbf3230d0	-0.6960573
25	0x4007e093	2.123082
26	0x3fa1ab76	1.2630451
27	0xc02c8198	-2.6954098
28	0xbc771851	-0.015081481
29	0x3f8de5ee	1.1085794
30	0x3fa9f9b6	1.3279331
31	0xc02d71e7	-2.710077

bias f4 [32]
0	0x3f43fec1	0.765606
1	0xbf6174d3	-0.88068885
2	0xbe6e153d	-0.2325029
3	0x4008ee90	2.1395607
4	0x3f08a06d	0.5336979
5	0x3f050324	0.5195792
6	0x3ea8747c	0.3290137
7	0x3f2df519	0.67952114
8	0x4047e0f6	3.1231055
9	0xbf6e0578	-0.92977095
10	0xbf46c78d	-0.7764824
11	0xbf152477	-0.58258766
12	0x3fe26bc6	1.768914
13	0x3d3f86a9	0.04675928
14	0x3ece83fc	0.4033507
15	0x3fcfdd53	1.6239418
16	0xbf81fe9b	-1.0155824
17	0x40146593	2.3186996
18	0x3e2f2ba5	0.17106493
19	0x3f15f4a2	0.58576405
20	0x3d96f855	0.07371584
21	0x3e407ec5	0.18798359
22	0x3f5f4623	0.87216395
23	0x3f8a3974	1.0798783
24	0xbf355708	-0.70835924
25	0xc00ad9a6	-2.1695342
26	0x3ff413ee	1.9068582
27	0x3fcd87c3	1.6057056
28	0x3f24d709	0.6439062
29	0xbf6350f6	-0.8879541
30	0xbe3613d8	-0.17781007
31	0x3f4f2680	0.8091812

weight f4 [32, 3]
0	0x3f9e0b20	1.2347145
1	0xbe3c64c5	-0.18397816
2	0xbf3c14d7	-0.734693
3	0x40127441	2.2883456
4	0xbf8ddb69	-1.1082584
5	0x3f021e81	0.50827795
6	0x3fe54dad	1.791433
7	0x3fad2da8	1.3529558
8	0x3eea9346	0.45815486
9	0x3f5b206b	0.8559634
10	0xbfd0361e	-1.6266515
11	0x3fcee7a8	1.6164446
12	0xbfe32582	-1.7745821
13	0xbff58b2e	-1.9183099
14	0xbff23f0d	-1.8925492
15	0xbf68a7d1	-0.9088107
16	0xbfb2d5e9	-1.397153
17	0xbeb9509d	-0.36194316
18	0xbf0d4d65	-0.5519622
19	0xbed30781	-0.41216663
20	0xbedd7259	-0.43251303
21	0x3fa5bb87	1.2947854
22	0x3f278e08	0.654511
23	0x3f7fe911	0.99965006
24	0x3eb6d550	0.3570962
25	0xbf0d6e8b	-0.552468
26	0x3fc1a439	1.5128242
27	0x3e0f3e5d	0.13988633
28	0x3f3fc596	0.7491087
29	0x3c269326	0.010166919
30	0x3ec9dd03	0.3942643
31	0xbf979325	-1.184178
32	0xbfd720ac	-1.6806846
33	0xbe9d5d41	-0.3073521
34	0xbe27e5cb	-0.16396253
35	0xbf9f9045	-1.2465903
36	0xbe381ee4	-0.17980534
37	0xbe87f7ce	-0.26556247
38	0xbe8eb5ce	-0.2787308
39	0xbffc476c	-1.9709296
40	0xbea00f28	-0.31261563
41	0xbfa1619f	-1.2607917
42	0xbfa3203b	-1.2744211
43	0x3e15e421	0.14637806
44	0x3f4742df	0.7783641
45	0x3f24ce46	0.6437725
46	0x3ffbc320	1.9668922
47	0x3eb0357d	0.34415808
48	0xbed40a2b	-0.41414008
49	0xbf843dcb	-1.0331358
50	0xbeec5d19	-0.46164778
51	0x3ff21d62	1.8915217
52	0x3e1ff5b7	0.15621077
53	0xbe3d23ce	-0.1847069
54	0xbfe79b01	-1.8094178
55	0x3c912d58	0.017721817
56	0x3fa234d1	1.2672368
57	0xbf7a436b	-0.9775912
58	0x3f007db7	0.50191826
59	0xbf6b0542	-0.918049
60	0xbf43a345	-0.76421005
61	0xbf6c57bc	-0.9232137
62	0xbfbf0b09	-1.4925243
63	0x3e7ea9d3	0.2486947
64	0xc0050181	-2.0782168
65	0xbf951f99	-1.1650268
66	0x3fabe63c	1.3429637
67	0xbf83e263	-1.0303463
68	0xbe1e5fe1	-0.15466262
69	0xbff509c4	-1.9143605
70	0xbf091a0f	-0.5355539
71	0x3e94e82a	0.29083377
72	0xbe6cd02f	-0.2312629
73	0xbf88f2a2	-1.0699046
74	0xbf987efa	-1.191375
75	0x3f13a478	0.57672834
76	0x3f719bd0	0.94378376
77	0xbf89e457	-1.0772809
78	0xbfa7e292	-1.3116019
79	0xbf9f84ef	-1.2462443
80	0x3f29c7ac	0.663203
81	0x3fbec1e3	1.490292
82	0xbfe44505	-1.7833563
83	0xbf8439df	-1.0330161
84	0x3f7aac83	0.9791948
85	0x3fb75e80	1.4325714
86	0xbc28b187	-0.010296232
87	0xc0140961	-2.3130724
88	0x3fc2ca1f	1.5217932
89	0x3f7f92fd	0.9983366
90	0x3f6b7d8d	0.9198845
91	0x3ff899b2	1.9421904
92	0x3e9c8999	0.3057373
93	0xbf4d70fe	-0.8025054
94	0x3fab1ab4	1.3367524
95	0xc0052d70	-2.0808983

weight f4 [32, 3]
0	0x3f8d76d8	1.1051893
1	0xbfd74e13	-1.6820701
2	0xbf7436f7	-0.9539637
3	0x3f6b2853	0.91858405
4	0xbf339a1f	-0.70157045
5	0x3fd3688e	1.6516283
6	0xbdf38d90	-0.11892235
7	0xc00c19a5	-2.1890652
8	0xbf0f4aab	-0.5597331
9	0x3f26e2ef	0.65190023
10	0xbf053d80	-0.52046967
11	0x3f9865db	1.1906084
12	0x3f1b9c96	0.60785806
13	0x3e3e13e2	0.18562272
14	0x3fffa3a3	1.9971813
15	0xbf02ac0c	-0.5104377
16	0x3f0279ad	0.5096691
17	0xbfbcce7b	-1.4750513
18	0xbf0f4287	-0.5596089
19	0xbdb69bc5	-0.089164294
20	0xc0115f91	-2.271458
21	0xbf81ce87	-1.0141152
22	0xbf9cf93b	-1.2263559
23	0x3f7cbe15	0.9872754
24	0xbf7747e1	-0.96594054
25	0xbf4164ff	-0.7554473
26	0xbf1a2fb8	-0.60229063
27	0x3f32bab0	0.6981611
28	0xbeff64e9	-0.49881676
29	0xc0178443	-2.3674476
30	0x3fb94892	1.4475272
31	0xbfbdcaba	-1.4827492
32	0xbe97b5da	-0.2963093
33	0x3de021fe	0.109439835
34	0x3f8c3365	1.0953184
35	0xbf26fd20	-0.6522999
36	0xbef4222e	-0.47682327
37	0x4025fde7	2.593622
38	0xbfc5d7f3	-1.5456527
39	0xbffe87b8	-1.9885168
40	0xbe2d7ddf	-0.16942547
41	0x3f999a1f	1.2000159
42	0x3cb7c47c	0.022432558
43	0x3f7edb62	0.995535
44	0x3fd4ec7e	1.6634672
45	0xbe8e1f9f	-0.277585
46	0x3f1ebbef	0.62005514
47	0x3fd8a5c0	1.6925583
48	0x3fc10c25	1.5081831
49	0xbfb7da4d	-1.4363495
50	0x3e30c248	0.17261612
51	0xc00ad131	-2.169018
52	0x3ed15516	0.40885228
53	0xbecc827b	-0.399433
54	0xbf5b9b06	-0.8578342
55	0xbf9fbc1f	-1.2479285
56	0xbf1ab836	-0.60437334
57	0x40010ac2	2.0162816
58	0x3f67f594	0.906091
59	0x3f9cd3a5	1.2252089
60	0x3f14e40a	0.5816046
61	0x3f38c19e	0.72170436
62	0x400a2f66	2.159143
63	0x3f973650	1.181345
64	0x3e8d7727	0.2762997
65	0xc0104340	-2.2541046
66	0xbfdb603c	-1.7138743
67	0xbe03a4e9	-0.12855877
68	0x3f839400	1.0279541
69	0xbfe6f2f1	-1.804289
70	0xbe94925a	-0.29017907
71	0xbf5ea21a	-0.869661
72	0xbfc22b20	-1.5169411
73	0xbf6c06f4	-0.9219811
74	0x3a88f158	0.0010447903
75	0x401054a8	2.255167
76	0x3ee0ca71	0.4390445
77	0x3f04e12f	0.519061
78	0xbfd42ccd	-1.6576172
79	0x3f85d256	1.0454814
80	0xbf5dd4fa	-0.866531
81	0x3f390833	0.72278136
82	0x3f8c4139	1.0957404
83	0xbfa45d00	-1.2840881
84	0xc006d6f6	-2.1068702
85	0x3f0aadf1	0.54171664
86	0xbe677cf3	-0.22606258
87	0xbe9a0a1f	-0.30085847
88	0xbf99db96	-1.2020137
89	0x3f05df0f	0.52293485
90	0x3f521453	0.8206226
91	0x3f025a07	0.5091862
92	0xc006066f	-2.0941427
93	0xbff31527	-1.899083
94	0xbe77dde0	-0.24205732
95	0x3edff67c	0.4374274

bias f4 [32]
0	0x3efff761	0.49993423
1	0x4013eb00	2.3112183
2	0x3f6baae6	0.92057645
3	0x3f88db3c	1.0691905
4	0xbf3fa11b	-0.748552
5	0xc011cabb	-2.2779987
6	0xbe9f05ca	-0.31059104
7	0x3ff5b327	1.9195298
8	0x3ed4efeb	0.41589293
9	0xbf3891ff	-0.7209777
10	0xbe59ad76	-0.21257576
11	0xbfb9749a	-1.4488709
12	0x3ff30990	1.8987293
13	0xbf15cf50	-0.5851946
14	0x3f89ad6c	1.0756049
15	0xc01a9a6a	-2.4156747
16	0x40040468	2.062769
17	0xbf882702	-1.0636904
18	0xbc7ad7ae	-0.015310211
19	0x3fa7d18d	1.3110825
20	0x3f7a0492	0.97663224
21	0xbf853a8e	-1.0408494
22	0x3d80b209	0.062839575
23	0xbf98da1c	-1.1941562
24	0x3f833828	1.0251513
25	0xbf9c102e	-1.2192438
26	0x3fbbe5f4	1.4679551
27	0xbf953569	-1.1656924
28	0xbf3e4b80	-0.74333954
29	0x3ecbeee5	0.398307
30	0xc0300ce8	-2.7507877
31	0x3f092b80	0.53582

weight f4 [32, 1]
0	0x3fb2eb56	1.3978069
1	0x3e33912f	0.17535852
2	0x3e481a4c	0.19541281
3	0x3f785641	0.97006613
4	0xc007b6cf	-2.1205328
5	0xbfab6285	-1.3389441
6	0x3e2a5b38	0.1663636
7	0xbf4f2559	-0.80916363
8	0xbf6f98e6	-0.9359268
9	0xc002e082	-2.0449529
10	0xbcbe31fd	-0.023217196
11	0xbf17b459	-0.59259564
12	0x3fa70b87	1.3050393
13	0x3fe36389	1.7764751
14	0x3e80eb72	0.2517963
15	0x4005d35f	2.091026
16	0xc0184ce2	-2.3796926
17	0x3f1aa26e	0.604041
18	0xbf14a558	-0.58064795
19	0xc02d95b3	-2.712262
20	0xbfd6278f	-1.6730822
21	0x3f6baf6d	0.92064553
22	0x3f7acbd8	0.9796729
23	0x3e87dc19	0.2653511
24	0x4012a7e3	2.291497
25	0xbf6b65b6	-0.91952074
26	0xbff9d7f0	-1.9519024
27	0x3e8bf838	0.27337813
28	0x403ce0a7	2.9512117
29	0xbdf155b3	-0.11783924
30	0x3fde464d	1.7365204
31	0xbf8225c0	-1.016777

bias f4 [32]
0	0x3e6d82d6	0.23194441
1	0xbef8723e	-0.4852466
2	0xbf55f5f2	-0.8357841
3	0x3f2ee8d5	0.68324023
4	0x3e94db25	0.29073444
5	0x3e2a2548	0.16615784
6	0x3edba0c8	0.42896104
7	0xbf0bc09a	-0.5459076
8	0x403de7b2	2.9672666
9	0xbfcc07ce	-1.5939882
10	0x3f6a7bc7	0.9159512
11	0xbf2cb125	-0.674578
12	0x400f49ae	2.238872
13	0xbf8887b5	-1.0666414
14	0x3fa2acaf	1.2708949
15	0x403a79f2	2.913693
16	0xbf8ed7e9	-1.115964
17	0x3f8ab61c	1.0836825
18	0xbec91fbf	-0.39282033
19	0x3ea1fd1a	0.31638414
20	0xbf15156c	-0.5823581
21	0x3df3d6c8	0.11906201
22	0x401d421d	2.4571602
23	0x3fbee3cc	1.4913268
24	0xbfe01c5b	-1.7508653
25	0xc0315f7d	-2.7714531
26	0x4037f90f	2.8745763
27	0x3e934836	0.2876603
28	0x3f5a398f	0.8524408
29	0xbee1507c	-0.44006717
30	0x3e5862c8	0.21131432
31	0xbd2078d5	-0.039177734

weight f4 [32, 3]
0	0x3fad572b	1.3542227
1	0xbe0aa1d1	-0.1353829
2	0xbf1dfd90	-0.6171503
3	0x3fd26bd7	1.643916
4	0xbfcedc2f	-1.6160945
5	0x3f3a3138	0.7273135
6	0x3fce80b2	1.6133025
7	0x3f9c4a89	1.2210246
8	0x3f5519dd	0.8324259
9	0x3f9a5f88	1.2060404
10	0xbfa84d3c	-1.314857
11	0x3f5f6fc4	0.87279916
12	0xbf848d8c	-1.0355697
13	0xbff49bee	-1.9110086
14	0xbfbeee09	-1.4916393
15	0xbf83efa0	-1.0307503
16	0xbf20f901	-0.6287995
17	0xbf7802e5	-0.96879417
18	0x3dd02d66	0.10164909
19	0xbe5d1691	-0.2159064
20	0x3eb01959	0.3439434
21	0x3f9a1bfb	1.2039789
22	0x3f8f6f8a	1.1205914
23	0x3fced065	1.6157347
24	0xbd8da4b4	-0.0691618
25	0x3d3aa06f	0.045563158
26	0x3fd1c665	1.638867
27	0xbe09a8a5	-0.13443239
28	0x3fba4a0f	1.4553851
29	0xbf2e125e	-0.67996776
30	0x3f039e7a	0.5141369
31	0xbf241fca	-0.64111006
32	0xbfa916d0	-1.3210087
33	0xbf807f4c	-1.0038848
34	0x3dc525dd	0.096263625
35	0xbf192b2c	-0.598315
36	0x3ea65b26	0.32491416
37	0xbe0143c4	-0.12623507
38	0xbe827a00	-0.25483704
39	0xbf82dcab	-1.0223593
40	0x3d03334e	0.03203135
41	0xbfe80296	-1.8125789
42	0xbf895aed	-1.0730873
43	0xbe1f8acf	-0.15580295
44	0x3f9b9fcc	1.2158141
45	0x3f0ec308	0.55766344
46	0x3fd86120	1.690464
47	0x3df27764	0.11839178
48	0xbe8e8e88	-0.27843118
49	0xbea4cb0f	-0.3218617
50	0xbd5473e3	-0.05186833
51	0x3fb4f1d6	1.4136302
52	0x3e4a692f	0.19766687
53	0xbefc3007	-0.49255392
54	0xbfa0a604	-1.2550664
55	0x3db0af62	0.086272016
56	0x3fc846a7	1.5646561
57	0xc005501e	-2.083015
58	0x3ed638d9	0.41840246
59	0xbf48e77a	-0.78478205
60	0x3c8077ab	0.015682062
61	0xbf4f8fa8	-0.8107858
62	0xbfe83177	-1.8140095
63	0x3cd5511d	0.026039654
64	0xc0124f4c	-2.28609
65	0xbf18d38b	-0.5969779
66	0x3fa63c61	1.2987176
67	0xbfb2a51b	-1.3956636
68	0x3ec9e408	0.39431787
69	0xc004e4e4	-2.0764704
70	0xbf18844f	-0.59576887
71	0xbcf88bf2	-0.030340169
72	0xbec2bed5	-0.38036218
73	0xbffd28df	-1.9778098
74	0xbf840303	-1.0313419
75	0xbec7d0cf	-0.39026496
76	0x3fc68f55	1.5512491
77	0xbfdc147a	-1.7193749
78	0xbebc1b01	-0.36739352
79	0xbfaad1a0	-1.3345222
80	0x3eeeb9a3	0.46626005
81	0x3f91f1b3	1.1401886
82	0xc028c0ba	-2.636763
83	0xbf3cea00	-0.73794556
84	0x3fd079c3	1.6287159
85	0x3fd2b7e8	1.6462374
86	0xbf28900c	-0.658448
87	0xbfc24f3a	-1.5180428
88	0x3fb8705a	1.4409287
89	0x3f6f5a38	0.9349704
90	0x3ecdde2a	0.4020856
91	0x40064147	2.0977342
92	0x3e9713ed	0.2950739
93	0xbf03e290	-0.5151758
94	0x3faee2d9	1.3662978
95	0xbf9ea92d	-1.2395378

weight f4 [32, 3]
0	0xbc606a96	-0.013697287
1	0x3f2cacfb	0.6745145
2	0x3f15c3cb	0.5850188
3	0x3e8ea82b	0.27862677
4	0x3e2ea2cd	0.17054291
5	0xbfcd8733	-1.6056885
6	0xc00d3809	-2.206545
7	0xc0128b45	-2.2897503
8	0xbfcf1bf5	-1.6180407
9	0x3ed7995c	0.4210919
10	0xbf218ee8	-0.6310868
11	0x3ebb843a	0.36624318
12	0x3ebd5d06	0.36985034
13	0x3fccaac4	1.5989614
14	0x3f08fb38	0.5350833
15	0x3f601fe9	0.8754869
16	0xbf545b31	-0.8295165
17	0xbf91ccbf	-1.1390609
18	0x3f1bd2fa	0.608688
19	0x4005970c	2.0873442
20	0x3ef7224f	0.48268363
21	0xbfc423ea	-1.532346
22	0xbface46e	-1.3507211
23	0x3fc53186	1.5405738
24	0x3eb0f5c0	0.34562492
25	0xbf19cd66	-0.6007904
26	0x3f94cd48	1.1625147
27	0xbef5cf43	-0.4800969
28	0x3fca92de	1.582607
29	0xbf265a03	-0.64981097
30	0x3f804d59	1.0023605
31	0x3f50ced4	0.81565595
32	0x400f9f24	2.2440882
33	0x3fe2a4d2	1.7706549
34	0x3fd1507a	1.6352684
35	0x3fbcf3c8	1.4761896
36	0xbe264cc2	-0.16240218
37	0xbfa5c90c	-1.295198
38	0x3f9eb04c	1.2397552
39	0xbf25cc48	-0.64764833
40	0xbeab084b	-0.33404765
41	0xbf7c50b1	-0.98560625
42	0xbe07e7da	-0.13272038
43	0xbf6a457e	-0.91512287
44	0xbddeaf3f	-0.10873269
45	0x3bee9b7e	0.0072817197
46	0x3f45e96b	0.7730929
47	0xbf0bd82f	-0.54626745
48	0xbc93e3d5	-0.018052975
49	0xbe6dd26a	-0.23224798
50	0xbfd5cd87	-1.6703347
51	0xbf7abed7	-0.9794745
52	0x3e92d333	0.28676757
53	0x3f1366b0	0.57578564
54	0xbfe58ed6	-1.7934215
55	0xbf71ebe7	-0.94500583
56	0x3e9bcba9	0.30428818
57	0xbfdfc9e3	-1.7483486
58	0xbfe397c9	-1.7780696
59	0xbf5858ff	-0.845108
60	0xbee9717b	-0.4559439
61	0x3f70950e	0.9397744
62	0xbfa27fdb	-1.2695268
63	0x3fe50a28	1.7893724
64	0x3fc39aa3	1.5281566
65	0x3faa998c	1.3328109
66	0x3ffd4baf	1.9788722
67	0xbfc27180	-1.5190887
68	0x3ff671ee	1.9253519
69	0x3ff42243	1.9072956
70	0x3fee0c95	1.859759
71	0x3fa96125	1.3232771
72	0xbfe84ae5	-1.8147856
73	0x3f06a5f0	0.5259695
74	0xbf01492c	-0.50502276
75	0x3d918fed	0.0710753
76	0xbe35df13	-0.17760877
77	0x3f424b18	0.75895834
78	0x3e965148	0.29358888
79	0xbff4b6d6	-1.9118297
80	0x3ea94b17	0.33065102
81	0x3ffa29f7	1.9544057
82	0x3fdcbf58	1.7245893
83	0x3fd1909f	1.637226
84	0x3f8dab21	1.1067849
85	0xc0309344	-2.7589884
86	0x3f4c74e9	0.7986589
87	0xbfc90acb	-1.5706419
88	0xbfa5240a	-1.2901623
89	0xbe7f6d43	-0.24944024
90	0x3ef40ea8	0.47667432
91	0xbfab3a75	-1.3377215
92	0xbf5188fa	-0.81849635
93	0x3ec5f5e0	0.3866415
94	0x3fe967e8	1.8234835
95	0x3ea46f45	0.32116142

bias f4 [32]
0	0x3f2de7b1	0.6793166
1	0xbf681ec7	-0.9067196
2	0xbead786f	-0.33880946
3	0xbfd233f1	-1.6422101
4	0xbe2bd42f	-0.1678016
5	0xbfe5e5e2	-1.796078
6	0x3d9135a7	0.070903115
7	0x3f80292e	1.0012567
8	0x3f0b0240	0.5430031
9	0xbfc97671	-1.573927
10	0x401aa5c4	2.4163675
11	0xbed48fc4	-0.41515934
12	0x3ea44079	0.3208044
13	0xbf33df2a	-0.70262396
14	0x3e98b110	0.29822588
15	0xbf5eba86	-0.8700336
16	0xbfa1d51c	-1.2643161
17	0xbf22b6fb	-0.63560456
18	0xbf837953	-1.02714
19	0x3f875581	1.0572969
20	0xbf101fe2	-0.5629865
21	0x400ef850	2.2339058
22	0x3f7f4a65	0.9972289
23	0x3feb9939	1.8406135
24	0x3e5736e3	0.21017031
25	0x40328393	2.7892807
26	0x4006f531	2.1087153
27	0x3f9fef5a	1.2494919
28	0x3e9ec816	0.31012028
29	0xbff28854	-1.8947854
30	0x3fcd1fea	1.6025364
31	0xbf55ac76	-0.8346628

weight f4 [32, 1]
0	0x3f8b1836	1.0866764
1	0x3fee0a79	1.8596946
2	0xbeea500b	-0.45764193
3	0xbf203e6c	-0.6259525
4	0x3ffc86dc	1.9728656
5	0x3f356a65	0.7086547
6	0x400d7983	2.2105415
7	0x3f7766be	0.9664115
8	0x3f7132b6	0.94218004
9	0x3fd68e91	1.6762258
10	0xbf9f290d	-1.2434403
11	0x3e21ceaf	0.158015
12	0x3f8d47fa	1.103759
13	0x3ffa72f9	1.9566337
14	0xc005281f	-2.0805738
15	0xbdb60651	-0.088879235
16	0xbeeaf488	-0.45889688
17	0xbfb8119c	-1.4380374
18	0x3f8e646b	1.1124395
19	0x3dc4a9a8	0.09602672
20	0x4022ff53	2.5468338
21	0x3f124a61	0.57144743
22	0x3fbda1ce	1.4815004
23	0xbf31c878	-0.69446516
24	0xc0095dfb	-2.146361
25	0x3ecb0ac3	0.39656648
26	0x3dfe056d	0.12403379
27	0x3dbfb6c2	0.0936103
28	0x3fb691f4	1.4263291
29	0x3f9117dd	1.1335407
30	0x400a06d1	2.156666
31	0x3fa0683f	1.2531813

weight f4 [32]
0	0xbd0e120e	-0.034685187
1	0xbeaa75b8	-0.33292937
2	0xbbfbbc95	-0.007682393
3	0x4052a00e	3.291019
4	0xbeabde96	-0.33568257
5	0xbecc436a	-0.39895183
6	0x3fe21f6b	1.7665838
7	0xbdd306ef	-0.10304057
8	0x3eac578d	0.33660546
9	0x3fdf1007	1.7426766
10	0x3fce7595	1.6129633
11	0x401736b8	2.3627148
12	0xbfa3e71d	-1.2804905
13	0x3f6dcd23	0.9289114
14	0x3f93caf8	1.1546316
15	0x3eabc440	0.33548164
16	0x4048204c	3.1269712
17	0x3fd0759f	1.6285895
18	0x3ff83fbc	1.939445
19	0x4032bd38	2.792799
20	0x3fb13c38	1.3846502
21	0x3fea5619	1.8307525
22	0x3f50a2e4	0.8149855
23	0x3fe6fe7a	1.804641
24	0xbee8c14f	-0.45459983
25	0x3f5f7f75	0.8730386
26	0xbfa0c1f4	-1.255919
27	0x3e775725	0.24154337
28	0x3fe14837	1.7600163
29	0x3fec19f6	1.8445423
30	0x3ee8c2a6	0.45461005
31	0x401310b1	2.2978938

bias f4 [32]
0	0xbfe5983f	-1.7937087
1	0xbfc97494	-1.5738702
2	0xbe8b8624	-0.2725078
3	0x3e9b794b	0.30365977
4	0xbe705bd6	-0.23472533
5	0x3fcc9a74	1.5984635
6	0x3ff792d8	1.9341688
7	0x3fb0280e	1.3762224
8	0xbefbd990	-0.49189425
9	0x3eda253c	0.42606533
10	0xbf03b64d	-0.51450044
11	0x3e9c0f0a	0.30480224
12	0x3e4b27cf	0.19839405
13	0xbfc6c976	-1.5530231
14	0xbe1905fd	-0.1494369
15	0xbeb0181f	-0.34393403
16	0x3fc73338	1.5562506
17	0xbff9899e	-1.9495122
18	0x3f6fc401	0.93658453
19	0x3ee63e1f	0.4496927
20	0x3db332d5	0.0874993
21	0xbe4886a7	-0.19582616
22	0x3fba1e25	1.4540449
23	0xbe705325	-0.23469217
24	0x3f453f2e	0.7704953
25	0xbf96580c	-1.174562
26	0x3ff176e8	1.8864412
27	0x3eb44b17	0.3521354
28	0xbff37755	-1.9020792
29	0x3f76297e	0.9615706
30	0xbdaada89	-0.083424635
31	0xbfdacce1	-1.7093774

running_mean f4 [32]
0	0x3e9e6400	0.3093567
1	0x3f7e5f72	0.9936439
2	0x3ecc03fe	0.39846796
3	0x3f687a04	0.9081118
4	0x3dee9688	0.11649805
5	0xbf7debb6	-0.9918779
6	0xbf48cf16	-0.7844099
7	0x3f7085be	0.93954074
8	0xbe23b231	-0.15985943
9	0xbf58f1af	-0.8474378
10	0xbca74479	-0.020418392
11	0xbf66a510	-0.90095615
12	0x3f5ad1b5	0.8547624
13	0xbf281000	-0.65649414
14	0x3f6d9fcf	0.92821974
15	0xbf70e4f3	-0.9409935
16	0x3f7b0eef	0.9806966
17	0xbf6d0e81	-0.92600256
18	0xbf043dc4	-0.51656747
19	0x3f78d5ec	0.9720142
20	0x3f708143	0.9394724
21	0xbf5e1193	-0.86745566
22	0xbe0b3ef9	-0.13598241
23	0xbf73f1e0	-0.95290947
24	0x3ec2eef1	0.38072923
25	0xbe510d35	-0.20415194
26	0x3f0e6cb0	0.55634594
27	0xbf55ba4b	-0.83487386
28	0xbf59d6f0	-0.85093594
29	0x3ea6ea6f	0.32600734
30	0xbf7ed513	-0.99543875
31	0x3d49c016	0.049255453

running_var f4 [32]
0	0x3d8f5d9d	0.07000277
1	0x37ddeb41	2.6454802e-05
2	0x3de7c6f7	0.113172464
3	0x3b4e213d	0.0031452917
4	0x3e4b688f	0.19864105
5	0x38009705	3.0658226e-05
6	0x3d01ca6b	0.03168718
7	0x3af9feaa	0.0019073088
8	0x3db62f6b	0.08895763
9	0x3c4928e9	0.01227782
10	0x3dcde294	0.10052982
11	0x3aef8959	0.0018275186
12	0x3c8f061b	0.017458966
13	0x3c882168	0.016617492
14	0x3b047c5c	0.0020215726
15	0x3b5bb822	0.00335265
16	0x3906c1c2	0.00012851416
17	0x3b6f19fa	0.003648399
18	0x3d3b75ad	0.04576652
19	0x3a45e4fd	0.00075490755
20	0x3b35b9a8	0.0027729068
21	0x3c2c0c3b	0.010500963
22	0x3d24edbe	0.04026579
23	0x3ad6493c	0.001634873
24	0x3da32b9d	0.07967303
25	0x3e536720	0.20644808
26	0x3dc2a1ca	0.09503515
27	0x3c0cd677	0.008596054
28	0x3c482d26	0.0122177955
29	0x3d07ece8	0.033184916
30	0x378c7df0	1.6747945e-05
31	0x3dbc9078	0.09207243

weight f4 [32]
0	0x40338bbd	2.805404
1	0x4012a2f3	2.2911956
2	0x3f1f6b79	0.62273365
3	0x3f757558	0.9588218
4	0x3fb8e0d5	1.4443613
5	0xbebe1d5d	-0.37131777
6	0x3f800000	1.0
7	0xbe2e3454	-0.17012149
8	0x4021e7a9	2.5297644
9	0x405225e7	3.2835634
10	0x3e8b8814	0.27252257
11	0x3f80f4e5	1.0074736
12	0x3f7fbe35	0.9989961
13	0x3f8e6e25	1.1127363
14	0x3f37e3ba	0.7183186
15	0x3f3af30a	0.730271
16	0xbf0b6e3d	-0.54465085
17	0x3f808d99	1.0043212
18	0x3f00794d	0.5018509
19	0xbe8c662c	-0.274217
20	0x3f82aa6a	1.0208256
21	0x3e80c21b	0.2514809
22	0xbf9f53e4	-1.2447476
23	0x4044aed9	3.0731719
24	0x3f6cd2d6	0.9250921
25	0x40485a87	3.1305254
26	0x3ffa8a46	1.9573448
27	0xbe43e867	-0.19131623
28	0x4022249f	2.5334852
29	0xbe9fec70	-0.31235075
30	0x3e8802e1	0.26564696
31	0x4019a792	2.4008527

bias f4 [32]
0	0xbfcd27fc	-1.6027827
1	0xbff39b1e	-1.9031713
2	0x3e464a95	0.19364388
3	0x3f2efc5f	0.6835384
4	0xbf323665	-0.6961425
5	0x3f275788	0.6536794
6	0x401350a8	2.3017979
7	0x3ebdf11b	0.3709801
8	0xbe09d32b	-0.1345946
9	0x3fdb0950	1.7112217
10	0x3dd31c1e	0.10308097
11	0xbe4d6634	-0.20058519
12	0x3e268c89	0.16264547
13	0xbfea3fae	-1.8300683
14	0xc0118fa4	-2.2743921
15	0x3fe5aa3f	1.794258
16	0x3e30a77b	0.17251389
17	0x4011a410	2.2756386
18	0x3fbabb24	1.4588361
19	0x3fbe3d6d	1.4862496
20	0xbfc8a8c8	-1.5676508
21	0xbe95fc37	-0.29293987
22	0x3fd20437	1.6407536
23	0xbf214e86	-0.6301044
24	0x3f3addf3	0.7299492
25	0xbfc9557f	-1.5729216
26	0x3f993552	1.1969397
27	0x3fde4396	1.7364376
28	0x3fc58280	1.543045
29	0xbfe45c76	-1.7840717
30	0xbf00bc1e	-0.50287044
31	0xbe7f337f	-0.24921988

running_mean f4 [32]
0	0x3ebb47cc	0.36578214
1	0xbf291a26	-0.66055524
2	0xbea63598	-0.32462764
3	0x3f60e739	0.8785282
4	0xbbc70430	-0.0060734972
5	0xbe34bb4d	-0.17649575
6	0x3f7ffffc	0.99999976
7	0x3f19d0ca	0.6008421
8	0x3f7ffff2	0.99999917
9	0xbf74d4e4	-0.95637345
10	0xbdd6750a	-0.10471542
11	0xbf6df454	-0.9295094
12	0x3f7ffe76	0.9999765
13	0xbf64e13d	-0.89406186
14	0x3f408f68	0.7521882
15	0x3f7fffde	0.999998
16	0xbf7fb719	-0.9988876
17	0x3f7ffb03	0.9999239
18	0x3e1f622e	0.15564796
19	0x3e747b14	0.23875076
20	0xbf2dc66b	-0.67880887
21	0xbee231da	-0.4417866
22	0x3f7b58d6	0.9818243
23	0x3f2a38e5	0.66493064
24	0xbf7f603a	-0.99756205
25	0xbf7d3168	-0.9890351
26	0x3f7dedaa	0.9919077
27	0x3f41a4cf	0.756421
28	0x3f7e8f51	0.99437433
29	0xbf0a9764	-0.54137254
30	0x3f3b96bd	0.73276883
31	0x3e77d9d1	0.24204184

running_var f4 [32]
0	0x3f0c6f6e	0.5485753
1	0x3f00a518	0.50251913
2	0x3f2d639e	0.6773013
3	0x3e620045	0.22070415
4	0x3f2ad9fc	0.6673887
5	0x3ed965e5	0.42460552
6	0x00000004	6e-45
7	0x3ddd3283	0.1080065
8	0x2a89f64b	2.450699e-13
9	0x3cd9966a	0.02656098
10	0x3ebc1608	0.36735559
11	0x3cf5e8e3	0.030018276
12	0x2f30798b	1.6050287e-10
13	0x3bf05554	0.0073343907
14	0x3e7889ea	0.2427136
15	0x2ba6d789	1.1854832e-12
16	0x354d2fa3	7.643777e-07
17	0x310fb2fd	2.0910982e-09
18	0x3ea6aa16	0.3255164
19	0x3f2a8593	0.6661007
20	0x3d880900	0.066423416
21	0x3e5d086c	0.21585244
22	0x3b95dffc	0.00457382
23	0x3f09375c	0.53600097
24	0x3880aca0	6.1356695e-05
25	0x3af04ff8	0.001833438
26	0x3c302460	0.01075086
27	0x3ea59757	0.32342026
28	0x383af4ce	4.4573848e-05
29	0x3f17b53a	0.59260905
30	0x3d21be28	0.039487988
31	0x3f32c408	0.6983037

weight f4 [32]
0	0x3fac0c6d	1.3441292
1	0xbef81894	-0.48456252
2	0x3f3c988e	0.7367028
3	0xbf0d5fca	-0.5522429
4	0x4005a146	2.0879683
5	0x401abc85	2.4177563
6	0x40188e5a	2.3836884
7	0x3f82142f	1.016241
8	0x3ea1eaa8	0.3162434
9	0x3fe3663f	1.7765578
10	0x3fe1d5e1	1.7643396
11	0x40257599	2.5853026
12	0x3f8cfe4c	1.1015105
13	0x3fa22cf4	1.2669969
14	0x3fd7b6bd	1.6852642
15	0x3eaceab8	0.33772826
16	0xbf0f5fa5	-0.56005317
17	0x40043bef	2.066158
18	0xbeecf148	-0.46277833
19	0x3fe01301	1.75058
20	0x3f89384d	1.0720307
21	0xbeef5ca8	-0.4675038
22	0x3f7faa3d	0.9986914
23	0x3f854622	1.0412028
24	0x3e9fa963	0.3118392
25	0x3fe52b92	1.7903922
26	0xbf07fefd	-0.53123456
27	0xbf09c1ad	-0.5381115
28	0x3fe29791	1.7702504
29	0x3f825fb3	1.0185455
30	0x3ec95360	0.39321423
31	0x40294463	2.644799

bias f4 [32]
0	0x3e8a1912	0.26972252
1	0xbfbf91f7	-1.496642
2	0x3e46d5c7	0.19417487
3	0xbebed142	-0.37269026
4	0x3fd3beae	1.6542566
5	0x3e04b593	0.1295989
6	0xbb20e681	-0.0024551454
7	0xbcc2e493	-0.023790633
8	0xc0108ae3	-2.258477
9	0xbfd2b55c	-1.6461596
10	0x3fd81ce9	1.6883823
11	0x3fc9977c	1.5749354
12	0x3e68a909	0.22720732
13	0x3ea79a3a	0.32734853
14	0xbe768923	-0.24075751
15	0x3fcf88fa	1.6213677
16	0xbfabd5c7	-1.3424615
17	0x3c15bcae	0.009139223
18	0xbe16a922	-0.14712957
19	0x3dcf40cc	0.10119781
20	0xbfbeced2	-1.4906867
21	0x3e018349	0.12647738
22	0x3f987843	1.1911701
23	0xbff127e3	-1.8840297
24	0x3fda10cd	1.7036377
25	0xbff0a604	-1.8800664
26	0x3fbf4e4a	1.4945767
27	0xbe4cfdbe	-0.2001867
28	0xc012f470	-2.2961693
29	0x3fd2e137	1.647498
30	0xbe968c5b	-0.29403958
31	0x3d435a72	0.047693677

running_mean f4 [32]
0	0x3f694087	0.91114086
1	0xbf4b028e	-0.79300773
2	0xbf7bf479	-0.9841991
3	0xbf7f3514	-0.99690366
4	0x3f6c0150	0.921895
5	0xbf7fe9ab	-0.99965924
6	0x3f2d2d99	0.676477
7	0x3f7fb046	0.99878347
8	0x3f7e07f6	0.992309
9	0xbf64a180	-0.8930893
10	0x3f7fc735	0.9991334
11	0x3f742d97	0.95382065
12	0x3f47b14d	0.78004915
13	0xbf4f8c53	-0.8107349
14	0x3efac400	0.4897766
15	0xbf7b5b38	-0.98186064
16	0xbf7932e4	-0.9734328
17	0xbf6a1b0f	-0.9144754
18	0xbf7dbf11	-0.9911967
19	0x3f551cea	0.83247244
20	0xbf3dda75	-0.74161464
21	0x3f7ffe64	0.99997544
22	0x3f7ffbd2	0.9999362
23	0x3f7f29ab	0.99672955
24	0xbf4c338e	-0.79766166
25	0x3f7ffc1f	0.9999408
26	0x3f7ffc7a	0.99994624
27	0x3f7ff516	0.99983346
28	0x3f7b7e54	0.98239636
29	0xbf7f337f	-0.9968795
30	0x3f7ed8da	0.9954964
31	0x3e8e45bb	0.27787575

running_var f4 [32]
0	0x3b0227e1	0.0019860195
1	0x3e9c0703	0.304741
2	0x3aa33044	0.0012450297
3	0x3719e1ee	9.172114e-06
4	0x3bac2b97	0.0052542198
5	0x33f933e6	1.1604406e-07
6	0x3d879565	0.066202916
7	0x3853c94c	5.0493793e-05
8	0x3948e49a	0.00019158647
9	0x3de6e3a9	0.112738915
10	0x37fa2348	2.9818751e-05
11	0x3bd25a78	0.006419476
12	0x3c3f8638	0.011689715
13	0x3e9825a8	0.2971623
14	0x3e724110	0.23657632
15	0x39e3d8cd	0.00043458343
16	0x3a7556d7	0.00093589484
17	0x3bb70383	0.0055851354
18	0x3b095765	0.0020956632
19	0x3d24866f	0.04016727
20	0x3ea4c43e	0.3218097
21	0x319d9b1c	4.5869353e-09
22	0x32add9d1	2.0238902e-08
23	0x3a62a9b2	0.00086465024
24	0x3d05716b	0.032578867
25	0x311dbd83	2.2954232e-09
26	0x328451b3	1.5403975e-08
27	0x3453c14b	1.9721226e-07
28	0x3a2be85a	0.00065577554
29	0x3a3111b5	0.0006754653
30	0x37dc479b	2.6259388e-05
31	0x3e85694d	0.260569

weight f4 [32, 32]
0	0xbfd03548	-1.626626
1	0xbc9ea76f	-0.019366948
2	0xbd1c28e0	-0.03812492
3	0x3fc2cc20	1.5218544
4	0xbdd00a59	-0.10158224
5	0xbde28aa8	-0.11061603
6	0x3fb86cf2	1.4408247
7	0x3fb78d78	1.4340048
8	0x3d473ff6	0.048644982
9	0x3fbbc958	1.467082
10	0xbf874d9b	-1.0570558
11	0xbfcaf226	-1.5855148
12	0x3dde5987	0.1085692
13	0x3d0b5a87	0.03402188
14	0xbce91f42	-0.028457288
15	0x3daeea99	0.0854084
16	0x3fa2ddbd	1.2723919
17	0xbfb8efc3	-1.444817
18	0x3fb3487b	1.4006494
19	0x3fda7a1e	1.7068517
20	0x3e010c5c	0.12602371
21	0xbfd428d1	-1.6574956
22	0x3fd91dff	1.6962279
23	0xbfc0fac7	-1.5076531
24	0x3fd60a75	1.6721941
25	0xbccdf92f	-0.025143234
26	0x3fce2377	1.6104573
27	0xbd4f8ffb	-0.05067442
28	0xbfd07ed4	-1.6288705
29	0x3e01521b	0.12628977
30	0xbe376364	-0.17909008
31	0xbd437deb	-0.047727507
32	0xbcee8f80	-0.02912116
33	0xbfbafb9f	-1.4608039
34	0x3fb31ec8	1.3993769
35	0xbfec7460	-1.8473015
36	0xbfc3ce58	-1.5297346
37	0x3fbb607e	1.4638822
38	0x3e9e208c	0.30884206
39	0xbd086db0	-0.03330773
40	0xbfc40184	-1.5312963
41	0xbf98ac44	-1.1927571
42	0x3fb57c4f	1.4178561
43	0x3f966bdd	1.1751667
44	0xbfb44de4	-1.408627
45	0xbff65715	-1.9245325
46	0xbfc6e851	-1.5539647
47	0x3fac8858	1.3479109
48	0x3df42a8c	0.11922178
49	0x3db88941	0.09010554
50	0x3e665c8c	0.22496241
51	0x3fa159cb	1.2605528
52	0xbfc4af6c	-1.5366035
53	0x3fa6aa92	1.3020804
54	0x3e5713c0	0.21003628
55	0x3d86731a	0.06564923
56	0xbbd78fa0	-0.0065784007
57	0xbfe2b5e6	-1.7711761
58	0xbc636568	-0.013879158
59	0xbfc5708c	-1.5424972
60	0x3d8419c4	0.06450227
61	0x3fb2c603	1.3966678
62	0xbfa9d774	-1.3268876
63	0xbfa56466	-1.2921264
64	0x3fc71fd4	1.5556588
65	0x3fc1a096	1.5127132
66	0x3936b000	0.00017422438
67	0xbe1f2754	-0.15542346
68	0xbcdd43a0	-0.027009785
69	0xbfd088a2	-1.6291697
70	0xbdf62be8	-0.12020093
71	0xbfb8a4e4	-1.4425321
72	0x3def14b8	0.11673874
73	0x3e1949cc	0.14969558
74	0xbd349bd0	-0.044093907
75	0xbdab9ef0	-0.08379924
76	0x3cfcb9a0	0.030850232
77	0xbe050828	-0.12991393
78	0x3d7eae90	0.062178195
79	0x3db76638	0.089550436
80	0xbfcb91e4	-1.5903897
81	0x3fc5ed6e	1.5463083
82	0xbfba7188	-1.4565897
83	0x3e2f8b7c	0.17143053
84	0xbe19a25c	-0.15003341
85	0x3e29b848	0.16574204
86	0xbfc1a794	-1.5129266
87	0xbda92d48	-0.0826059
88	0xbfbedc58	-1.4910994
89	0x3faf8be8	1.3714571
90	0xbfd58a4a	-1.6682827
91	0xbdb05e80	-0.086117744
92	0x3fce0280	1.6094513
93	0xbfb89878	-1.442153
94	0x3db73580	0.08945751
95	0x3fc7a604	1.5597539
96	0x3b982780	0.0046433806
97	0x3fb20d00	1.3910217
98	0xbfb5adc0	-1.4193649
99	0xbe226738	-0.15859687
100	0x3fc6550f	1.5494708
101	0xbfba6ffe	-1.4565427
102	0x3e1d7888	0.1537801
103	0x3d8cc700	0.06873894
104	0x3da27bc8	0.07933766
105	0xbe178654	-0.14797336
106	0x3d01b170	0.03166336
107	0x3e2be30c	0.1678583
108	0x3fcca5a6	1.5988052
109	0x3fbd8616	1.4806545
110	0x3fc5ab75	1.544295
111	0xbd6bb730	-0.057547748
112	0xbd783b30	-0.06060332
113	0xbd308930	-0.043099582
114	0xbfcf05bc	-1.6173625
115	0x3fd420e0	1.6572533
116	0x3fbc772a	1.4723866
117	0xbfb3998c	-1.4031234
118	0x3e2fa78c	0.17153758
119	0x3cd10dc0	0.025519252
120	0x3de65648	0.112469256
121	0x3fb0a736	1.3801029
122	0xbfbde6d3	-1.4836067
123	0x3fc33e33	1.5253357
124	0x3e1f7f30	0.15575862
125	0x3d92bbf0	0.071647525
126	0x3fbcf173	1.4761184
127	0xbdba5030	-0.09097326
128	0x3fc0c372	1.5059645
129	0x3dcd471e	0.1002333
130	0xbc38b8bd	-0.011274514
131	0xbfaad75e	-1.3346975
132	0x3dde6914	0.10859886
133	0x3dd0c1eb	0.10193237
134	0xbfc61ae9	-1.5476962
135	0xbfc4eafc	-1.5384212
136	0xbe53112d	-0.20612021
137	0xbfccfc54	-1.6014504
138	0x3fb77d14	1.4335046
139	0x3fbf3357	1.4937543
140	0xbdb93ffc	-0.09045407
141	0xbfd17c2e	-1.6366022
142	0x3e033226	0.12812099
143	0x3fc82236	1.563544
144	0xbfba30f3	-1.4546188
145	0x3fc321fb	1.5244745
146	0xbfc6e259	-1.5537826
147	0x3fd925b5	1.6964632
148	0x3e0133a6	0.12617359
149	0xbd78e7a4	-0.060767785
150	0xbfb8a284	-1.4424596
151	0x3fb57468	1.4176149
152	0xbdee9667	-0.11649781
153	0x3e0ecd19	0.13945426
154	0xbfc9764d	-1.5739228
155	0x3e25996a	0.16171804
156	0x3fb28962	1.3948176
157	0x3fc7f6b5	1.5622164
158	0xbf1e9776	-0.6194986
159	0xbfd1c172	-1.638716
160	0xbf29d792	-0.6634456
161	0xc014f628	-2.3275242
162	0x3f6f7975	0.93544704
163	0xc013bf2f	-2.308544
164	0xbf40d180	-0.7531967
165	0x400ff997	2.2496088
166	0x3f36edb8	0.7145648
167	0x3f3c7a04	0.7362368
168	0xbf58e3e1	-0.84722716
169	0x3f4e8220	0.80667305
170	0xbf5e6dfa	-0.8688656
171	0xbf0d6376	-0.5522989
172	0xc002d176	-2.0440345
173	0xc016cd1c	-2.356269
174	0xbfde9fad	-1.7392479
175	0xbf467698	-0.7752471
176	0x3f4d651c	0.80232406
177	0xbf0c7c5f	-0.54877275
178	0x3f538c46	0.82635915
179	0xbf114288	-0.56742144
180	0xc010a1bd	-2.2598717
181	0x3f325bc0	0.6967125
182	0x3f1773ca	0.59161055
183	0x3fd585d4	1.6681466
184	0x3f17203b	0.59033555
185	0xc0109c9c	-2.2595587
186	0x3f310a7e	0.69156635
187	0xbf32cf0a	-0.69847167
188	0xbebd60ea	-0.36988002
189	0x3d97aa67	0.074055485
190	0x3ec1083e	0.377016
191	0x3f1aa95f	0.6041469
192	0x3ede2175	0.433849
193	0xbf12fb23	-0.57414454
194	0x3e2c913e	0.1685228
195	0xbfab4f63	-1.3383602
196	0xbe92df29	-0.28685883
197	0x3f43899e	0.7638186
198	0xbd3610e7	-0.044449713
199	0xbfec67fa	-1.8469231
200	0x3fb77e80	1.433548
201	0xbe82d974	-0.2555653
202	0x3da23caa	0.07921727
203	0xbfc7ac79	-1.559951
204	0x3ed78aa0	0.4209795
205	0x3e25e8d1	0.16202094
206	0xbfc76605	-1.5578009
207	0x3e2ac6ea	0.16677442
208	0xbe1dd3fa	-0.15412894
209	0xbfa75d8b	-1.3075422
210	0x3fabf426	1.3433883
211	0xbfb86b73	-1.4407791
212	0xbfb04f9d	-1.3774296
213	0x3fc8f480	1.5699615
214	0xc00fa801	-2.2446291
215	0x3fb2e596	1.3976314
216	0x3f90bdd1	1.1307927
217	0x3f1b9fb2	0.6079055
218	0xbe1da14d	-0.15393563
219	0xbfe5357d	-1.7906948
220	0x3e021d8c	0.12706584
221	0x3dff8f69	0.12478525
222	0x3d584fbb	0.052810412
223	0xbe18b935	-0.14914401
224	0x3f31bd76	0.6942972
225	0xbf857a37	-1.0427922
226	0x3f8b510c	1.0884109
227	0xbf3daf45	-0.74095565
228	0xbf8b5847	-1.0886315
229	0x3f9aa7a4	1.208241
230	0xbee0ae47	-0.43882963
231	0xbf11435d	-0.56743413
232	0xbfb14bda	-1.3851273
233	0xbf3e25e8	-0.7427659
234	0x3f185d0a	0.59516966
235	0x3f38665d	0.72031194
236	0xbf599b77	-0.85002846
237	0xbfcb98ff	-1.5906066
238	0xbf650657	-0.894628
239	0x3f2b4d10	0.66914463
240	0xbf03b85d	-0.5145319
241	0x3f2e1b03	0.68009967
242	0x3c55276a	0.013009885
243	0x3f48e17f	0.7846908
244	0xbf8c8bee	-1.0980203
245	0x3f42d875	0.7611154
246	0xbf1ccef1	-0.6125327
247	0x3e9c1eb9	0.3049219
248	0xbca7a5e0	-0.020464838
249	0xbfa9fde5	-1.3280607
250	0xbf0c0c6b	-0.5470645
251	0xbf6d876a	-0.9278475
252	0x3f1df1cd	0.61697084
253	0x3f1e9d62	0.619589
254	0xbf499ab3	-0.7875168
255	0xbf6a6568	-0.91560984

bias f4 [32]
0	0xbdbef408	-0.09323889
1	0x3fd9da07	1.7019662
2	0x3d8eb8e8	0.06968862
3	0x3e243260	0.16034842
4	0xbd99704c	-0.07492122
5	0x400812ce	2.1261477
6	0xbf0f8305	-0.56059295
7	0x3fb08d48	1.3793116
8	0x3e217783	0.15768246
9	0x3e05d4d0	0.13069463
10	0x3fc5d8ed	1.5456825
11	0xbd5cad2c	-0.053876087
12	0x3dd337c0	0.10313368
13	0xbde62c20	-0.11238885
14	0xbe7008fc	-0.23440927
15	0xbce2b551	-0.027674349
16	0x3fc6246e	1.5479867
17	0xbced9abe	-0.02900445
18	0xbd995b4f	-0.07488119
19	0xbfc84d5c	-1.5648608
20	0xbc3d4b00	-0.011553526
21	0x3dfbc378	0.12293142
22	0xbfac488a	-1.3459637
23	0xbf50544d	-0.8137863
24	0xbfb205e4	-1.3908048
25	0xbdc98658	-0.09840077
26	0xbf7db1f3	-0.99099654
27	0xbfd0333d	-1.6265637
28	0x3cb9f8cb	0.022701642
29	0x3f653542	0.8953439
30	0xbe7ffaa7	-0.2499796
31	0xbd843c39	-0.06456799

weight f4 [32, 32]
0	0x3d4c3596	0.04985579
1	0xbe0e750b	-0.13911836
2	0xbe059213	-0.13044004
3	0x3e2da925	0.16959055
4	0xbc8b28ce	-0.01698723
5	0x3fb902da	1.4453995
6	0x3f457c21	0.7714253
7	0x3fadcced	1.3578163
8	0x3e81cf7f	0.2535362
9	0xbfcf0d27	-1.6175889
10	0x3fb6e4f4	1.4288621
11	0xbfba54a4	-1.455708
12	0xbe0a1134	-0.13483125
13	0x3dc20e8f	0.09475433
14	0x3d8b463f	0.06800508
15	0x3e05e2ae	0.13074753
16	0x3dc72b07	0.09725004
17	0xbfc47cb3	-1.5350555
18	0x3b3903ab	0.0028230946
19	0x3fdb2e1a	1.7123444
20	0xbe418532	-0.18898466
21	0xbfccba44	-1.5994344
22	0xbdccf59d	-0.100077845
23	0x3c511f51	0.012763814
24	0x3fca9008	1.5825205
25	0xbfbea125	-1.4892927
26	0xbdeb7a2b	-0.11497911
27	0x3fb10d3f	1.3832167
28	0x3fc4a4fb	1.5362848
29	0x3dc14147	0.09436279
30	0xbfd319c4	-1.6492238
31	0xbeb22025	-0.3479015
32	0xbe56e3a4	-0.20985276
33	0xbfdffef7	-1.7499684
34	0x3e961e2d	0.29319897
35	0xbe85757f	-0.26066205
36	0xbfc76ce0	-1.5580101
37	0x3fc02e77	1.501418
38	0x3f451732	0.7698852
39	0x3dc15349	0.094397135
40	0x3e16359a	0.14668885
41	0x3ff65f77	1.9247884
42	0xbfb7a8b8	-1.4348364
43	0x3eca76f3	0.39543876
44	0x3d2857c4	0.041099325
45	0xbe863c04	-0.26217663
46	0xbdff4b7a	-0.12465568
47	0x3c96bc40	0.018400311
48	0xbe1ca666	-0.15297851
49	0x3df874ac	0.121316284
50	0x3fd293b2	1.6451323
51	0x3e829df8	0.25511146
52	0xbfefeddf	-1.8744467
53	0xbde8e03a	-0.11370893
54	0x3fd7252a	1.6808217
55	0xbe95b826	-0.29242057
56	0xbe20c887	-0.15701495
57	0x3dfcd9c6	0.123462245
58	0x3fc795e6	1.559262
59	0x3e4babac	0.19889706
60	0xbfa9f4ef	-1.3277873
61	0xbe0fa02e	-0.14025947
62	0xbfa1f4e4	-1.265286
63	0xbfc0cdf4	-1.5062852
64	0x3fb54007	1.4160165
65	0x3fd725c2	1.6808398
66	0xbfd1de64	-1.6395993
67	0xbb16b900	-0.0022998452
68	0xbba6ac80	-0.0050864816
69	0xbd921ae8	-0.07134038
70	0xbf445a4c	-0.7670028
71	0x3db663e0	0.089057684
72	0x3fcc47ee	1.5959451
73	0xbfbd76e6	-1.480191
74	0x3c05fdc0	0.0081781745
75	0x3e289650	0.1646359
76	0xbfc8e604	-1.5695195
77	0xbd127350	-0.0357545
78	0x3fc11e38	1.5087347
79	0xbfd5b885	-1.6696936
80	0xbfcc8c59	-1.5980331
81	0xbfcb9eec	-1.5907874
82	0xbfd60358	-1.671977
83	0xbfb7793c	-1.4333873
84	0x3ddd7008	0.10812384
85	0xbd17a630	-0.037023723
86	0x3d99ea40	0.07515383
87	0x3fbcc9b2	1.4749053
88	0xbd830d78	-0.06399053
89	0x3fb57b50	1.4178257
90	0x3de95e58	0.11394948
91	0xbfd7cf0e	-1.6860063
92	0xbfcd39ff	-1.6033324
93	0x3fd275d8	1.6442213
94	0x3dec3858	0.11534184
95	0xbcb3a900	-0.021931171
96	0xbdeefb90	-0.116690755
97	0xbfd592f5	-1.6685473
98	0xbfaf4c92	-1.3695242
99	0xbfc33d85	-1.5253149
100	0x3fbfdae6	1.4988678
101	0xbfb01e67	-1.3759278
102	0xbf5d0a56	-0.86343896
103	0xbfc901c6	-1.5703666
104	0x3fb34f68	1.4008608
105	0xbdf5b8f8	-0.119981706
106	0x3dfd8950	0.12379706
107	0x3d0df010	0.03465277
108	0xbfcef83e	-1.6169508
109	0x3fc3aa21	1.5286294
110	0x3fb7c5d6	1.435725
111	0xbfb1c9f9	-1.3889762
112	0xbfc1c9e6	-1.513974
113	0xbfae8853	-1.3635353
114	0x3e135598	0.1438812
115	0xbfb3b934	-1.4040895
116	0x3c95e540	0.018297791
117	0x3fd4d1ce	1.6626527
118	0x3e375740	0.17904377
119	0x3fc0bff8	1.5058584
120	0x3e19dbf0	0.15025306
121	0x3c519000	0.01279068
122	0x3e07f58c	0.13277262
123	0x3e0310bc	0.12799352
124	0x3e140068	0.1445328
125	0xbdc12d88	-0.094325125
126	0xbe2acc60	-0.16679525
127	0x3fd4baa0	1.6619453
128	0x3fcb3299	1.5874816
129	0x3fc41277	1.5318135
130	0xbd9fb971	-0.07799042
131	0xbe1b7ea4	-0.15185028
132	0x3fd5a426	1.6690719
133	0x3e7740df	0.2414584
134	0xbf474f4a	-0.7785536
135	0x3e08492a	0.1330916
136	0xbfbf4f7a	-1.4946129
137	0xbfbc6ceb	-1.4720739
138	0xbb122a7c	-0.0022303155
139	0xb9ca11c1	-0.0003854167
140	0xbfaf00b1	-1.3672086
141	0xbe2b876c	-0.16750878
142	0x3fcd4609	1.6036998
143	0xbfae5517	-1.3619717
144	0xbc423470	-0.011853322
145	0x3dc4bf96	0.096068546
146	0xbe475d82	-0.19469264
147	0x3e1e3042	0.15448096
148	0x3fda52c6	1.705651
149	0x3fcce4c8	1.6007318
150	0x3db9128c	0.09036741
151	0xbd89cdcf	-0.06728708
152	0xbda611df	-0.081088774
153	0xbfd47b29	-1.6600085
154	0xbfd0e345	-1.6319357
155	0x3d77e636	0.06052228
156	0xbfd3ebb7	-1.655631
157	0xbda82937	-0.08210986
158	0xbdd9c3f9	-0.10633082
159	0xbfce89dd	-1.6135823
160	0xc010aff6	-2.2607398
161	0x3f580ed2	0.84397614
162	0x3f425946	0.7591747
163	0x3f21bb0f	0.63176054
164	0xbf1d5e53	-0.6147205
165	0x3f6e8dc8	0.9318509
166	0x3fc04e40	1.502388
167	0x3e58c4a8	0.21168768
168	0x3f34a293	0.7056057
169	0xbfb44e1d	-1.4086338
170	0x3f5b2092	0.85596573
171	0xbf806e92	-1.0033743
172	0x3fabf68f	1.3434619
173	0xc00e7dac	-2.2264204
174	0xbfccc1a4	-1.5996594
175	0x3ec5cf18	0.38634562
176	0xbf9a1979	-1.2039024
177	0x3f673db9	0.90328556
178	0x3f1a77e0	0.60339165
179	0x4003c097	2.0586298
180	0xbef346c9	-0.47514942
181	0xbf79d76b	-0.97594327
182	0x3f12320a	0.57107604
183	0x3f0fdd5a	0.5619713
184	0x3f7f2c60	0.99677086
185	0xc00cb148	-2.1983204
186	0x3f218222	0.6308919
187	0x3f381426	0.71905744
188	0x3f6de680	0.9292984
189	0xbf5d0d11	-0.8634806
190	0xbf4850cc	-0.78248286
191	0xbf1991af	-0.5998792
192	0xbefec379	-0.4975851
193	0x400279bc	2.03868
194	0x3eec7670	0.4618411
195	0x3e99d2ae	0.30043548
196	0x3ed40adb	0.41414532
197	0xbfbb1c2a	-1.461797
198	0xbfd1b990	-1.6384754
199	0xbfe5c704	-1.795136
200	0xbf20bc16	-0.62786996
201	0x3f61a821	0.8814717
202	0xbff1d9ff	-1.8894652
203	0x3ed1c723	0.40972242
204	0x3fb140b4	1.3847871
205	0xbcfad588	-0.030619398
206	0x3e299e16	0.16564211
207	0x3f6b3950	0.91884327
208	0x3ed2790e	0.41107982
209	0x3ea377c4	0.3192731
210	0xbfc4327c	-1.5327907
211	0xbecb5174	-0.3971058
212	0x3fb7d2fa	1.436126
213	0x3f81b1ec	1.0132422
214	0xbff00cd6	-1.8753917
215	0xbf9df6c6	-1.2340934
216	0xbf878db0	-1.0590115
217	0x3f3f9bf7	0.7484736
218	0xbfef2f23	-1.868626
219	0xbecb317d	-0.39686194
220	0xbeaad39b	-0.33364567
221	0x3dc7c553	0.097544335
222	0x3f89a0bf	1.0752181
223	0xbd97fb83	-0.07421019
224	0xbfd34c83	-1.6507725
225	0xbf9328bd	-1.1496807
226	0xbe5e58f1	-0.21713616
227	0x3fa44783	1.2834324
228	0x3c9a03a1	0.018800559
229	0x3fc67535	1.5504519
230	0x3f6f6907	0.93519634
231	0xbf3abc43	-0.72943515
232	0xbeb220d9	-0.34790686
233	0x3f993947	1.1970605
234	0xbfa2c1fa	-1.2715447
235	0x3f436cbf	0.7633781
236	0x3fad7abe	1.3553083
237	0xbf96d449	-1.1783534
238	0xbf878d3d	-1.0589978
239	0xbee3d3ee	-0.44497627
240	0x3fd08794	1.6291375
241	0x3f9d8f05	1.2309271
242	0x3f881464	1.0631223
243	0xbf0b33ac	-0.5437572
244	0xbf518f99	-0.8185974
245	0x3ede54f8	0.434242
246	0x3f51acb0	0.81904125
247	0x3eb9175a	0.36150628
248	0x3fbc70d1	1.4721929
249	0x3f14cb38	0.5812259
250	0x3f9b5b89	1.2137309
251	0xbe97ba87	-0.29634497
252	0xbef3569e	-0.4752702
253	0x3e512f52	0.20428208
254	0xbf9fb057	-1.247569
255	0x3e8d7595	0.2762877
