mlartifacts/196996377989302197/0ea29be9a5f048adbfa79c91d910bac5/artifacts/models/data/model.pth (torch, 66278 bytes, 64 tensors)

bias f4 [4]
000000 25 09 04 bf 79 d9 07 3a 07 bc 30 3f 56 22 5f 3f
       -0.51576453 0.0005182247 0.69036907 0.8716177

weight f4 [4, 3]
000000 bf 61 21 bf a8 70 06 bf 87 8c 87 bf 7c d2 bd bf
       -0.63039774 -0.5251565 -1.058976 -1.482986
000010 c7 5a bd 3e 27 29 8c bf c3 66 3c 3e f3 46 95 3f
       0.3698332 -1.0950059 0.18398575 1.1662277
000020 fa 43 16 3f 07 84 e2 3e 1e 7b a8 3f 06 02 7d 3f
       0.58697474 0.44241354 1.3162572 0.9883121

weight f4 [4, 3]
000000 6e 2c 55 bf 80 50 99 bf dc 9e 9d bf 09 dc 86 3f
       -0.8327092 -1.1977692 -1.2314105 1.0535899
000010 18 4f 50 3f 99 fe 57 3e 28 eb 9e bf 84 71 66 bf
       0.8137069 0.21093215 -1.2415514 -0.9001696
000020 bc d1 39 bf e3 92 1f 3f 3c 35 13 bf 0b 2d 8d 3f
       -0.72585654 0.62333506 -0.57503104 1.1029371

bias f4 [4]
000000 51 77 3f bf f1 0a e1 3e a2 7f 4f be a5 5f 09 3f
       -0.7479144 0.4395366 -0.20263532 0.53661567

weight f4 [4, 1]
000000 8c b9 ae be d2 db 93 3e cd 97 a5 be 22 fb 9e 3f
       -0.34125936 0.28878647 -0.32342377 1.242039

weight f4 [4, 1]
000000 0f d6 ad bf e9 af 52 bf 03 b5 83 3f d9 93 20 3f
       -1.358095 -0.8229967 1.0289615 0.627256

bias f4 [4]
000000 d2 c9 a9 3c 71 61 35 3f ab a2 ca 3f 94 53 6a bc
       0.020726118 0.7085181 1.5830892 -0.014302153

weight f4 [4, 3]
000000 dc d6 40 bf 36 d3 90 bf 71 ed 99 bf 71 4d 02 c0
       -0.7532785 -1.1314456 -1.2025586 -2.0359766
000010 a1 e4 95 3f 1a a3 03 c0 10 40 32 3f a8 ea 87 3f
       1.1710397 -2.05683 0.69629 1.0618486
000020 37 80 80 3f 93 33 4f 3f f5 ee ae 3e a1 72 95 3f
       1.0039128 0.8093807 0.34166685 1.1675607

weight f4 [4, 3]
000000 24 65 00 c0 08 58 bd bf 64 cf 9a bf 47 83 fa 3f
       -2.0061731 -1.479249 -1.209454 1.9571313
000010 4b 1e c9 3f d2 83 01 40 c8 34 b9 3d 5d b9 1b bf
       1.571237 2.0236707 0.0904327 -0.60829717
000020 76 0a cd be 94 17 76 3f e4 d6 ee 3f 61 0b 88 3f
       -0.40047044 0.9612973 1.865933 1.0628473

bias f4 [4]
000000 31 b9 93 bf a0 3a 80 3f 8c a2 05 be 81 9c 84 3f
       -1.1540891 1.0017891 -0.13050288 1.0360261

weight f4 [4, 1]
000000 ab d6 09 3d c8 f0 8c bf 9e e3 29 3f 46 56 3e 3f
       0.03365199 -1.1010981 0.6636294 0.7435039

bias f4 [4]
000000 22 a1 a2 bf 21 d5 29 3f 8b 2e 62 3f 8a ec d7 3f
       -1.2705424 0.66340834 0.8835227 1.6869061

weight f4 [4, 3]
000000 be a4 82 bf 5d 02 41 bf 79 e4 25 bf e0 12 75 bf
       -1.0206525 -0.7539423 -0.64801747 -0.95731926
000010 33 6a 89 3f d5 b8 e9 bf 06 84 a0 3f 5e 5a 3d 3f
       1.0735534 -1.8259531 1.254029 0.73966014
000020 18 d9 31 3e 22 47 88 3e e0 ac 82 3f 2e e5 25 3f
       0.17367971 0.2661677 1.0209007 0.64802825

weight f4 [4, 3]
000000 1c 5a eb be f5 8a c8 be c0 66 96 bf 7f 2e f2 3e
       -0.45967185 -0.39168516 -1.1750107 0.473011
000010 2d ad de 3e 45 a8 92 3f 63 eb 92 be 77 79 a1 be
       0.43491498 1.1457602 -0.2869521 -0.31537983
000020 78 e5 c5 be 7f 0a 66 3e 32 af f1 3e 50 5b 91 3f
       -0.38651633 0.22464941 0.47203976 1.1355991

bias f4 [4]
000000 ca 1d c4 be 2e b2 f1 3e ed 47 3d bf 29 a5 89 3f
       -0.38303977 0.47206253 -0.73937875 1.0753528

weight f4 [4, 1]
000000 9c 11 c2 bf 1a e3 a2 3f c0 f9 5b ba 19 55 49 bd
       -1.5161624 1.2725556 -0.00083914027 -0.04915342

weight f4 [4, 4]
000000 fd 42 24 3e 29 df 36 be 86 14 91 bf 05 13 ac be
       0.16041179 -0.17858566 -1.1334388 -0.3360826
000010 99 fb 94 be b8 6b d6 3e 72 37 08 3f 2a 7f 36 3f
       -0.29098204 0.41879058 0.532096 0.71287787
000020 cf b3 16 3f b0 e9 05 bf 8c 70 58 bf 32 a2 25 bf
       0.58868116 -0.52309704 -0.8454673 -0.64700615
000030 ad 89 ee 3e 31 57 c8 be 1e b1 15 bf d3 85 53 bf
       0.46589413 -0.39129022 -0.58473384 -0.82626075

bias f4 [4]
000000 9e ef 00 3f 81 3b 85 bf 81 77 a8 3e 4d 7c 1e 3f
       0.50365627 -1.0408784 0.32903674 0.6190842

weight f4 [4, 4]
000000 f8 4d 48 bf c7 6c 86 3f 85 69 fe 3e 21 ae db bd
       -0.7824397 1.0501946 0.4968988 -0.10726572
000010 9b fe 2c 3f 21 c0 9b be 8f b0 55 bf b5 f4 0f bf
       0.67576 -0.3042002 -0.8347253 -0.5623277
000020 63 c9 7f bf dc 28 4e 3f db 6f 9a 3f 29 ba 76 3f
       -0.99916667 0.80531096 1.2065386 0.9637781
000030 8b 13 25 bf a7 e6 cf 3e 24 12 e5 3e c7 3d 81 3e
       -0.64482945 0.4060566 0.44740403 0.25242445

weight f4 [4, 4]
000000 c5 d0 82 be 21 0a 32 3f f7 e9 61 3f 52 48 80 3f
       -0.25549904 0.69546705 0.8824763 1.002207
000010 f3 50 c3 3e 1b 00 8a bf 48 3c e7 be 97 e9 b5 bf
       0.38147697 -1.0781282 -0.45163178 -1.4211911
000020 98 23 72 3f 9b ce 8d bf c6 4d 7c bf 29 81 9d bf
       0.9458556 -1.1078676 -0.9855617 -1.2305042
000030 38 70 94 3d fa d8 02 bf 1a 9d b3 be e3 ed 99 3f
       0.072479665 -0.5111233 -0.35080796 1.2025722

bias f4 [4]
000000 06 c3 43 3f 37 c5 1c bf 9a a0 5e bf 00 62 6d 3e
       0.7646946 -0.61238426 -0.8696381 0.23181915

weight f4 [4, 4]
000000 ee 52 5c bf 56 68 05 bf 75 b3 c5 3e b4 31 1c 3f
       -0.8606404 -0.5211233 0.38613477 0.6101334
000010 76 56 74 3f a5 0c 7a 3e e2 a4 cb be 59 3b 5b bf
       0.9544443 0.24418886 -0.39774233 -0.8563743
000020 71 24 8c 3f 4f 52 95 3e ee 1d 90 bf d6 ce f4 be
       1.0948621 0.2916436 -1.1259134 -0.47814053
000030 34 e6 f4 be 0b 39 9d 3f 4e 30 7c bf 55 99 fd 3f
       -0.4783188 1.2283033 -0.9851121 1.9812418

weight f4 [4, 4]
000000 02 cf a9 bf b6 3d 98 bf ae 7c 02 3f 10 6e a2 3f
       -1.3266299 -1.1893833 0.50971496 1.2689838
000010 f0 1d 7a 3f a2 c2 9c 3e dd 5f 98 bf 61 58 83 bf
       0.9770193 0.30617243 -1.1904255 -1.0261346
000020 a9 95 4e bf 40 cc 52 bf 40 e0 be 3e b8 20 20 3f
       -0.80697113 -0.8234291 0.37280464 0.62549925
000030 bc c5 41 bf 2b 33 93 be cd 20 9f 3f 8f 92 0d 3f
       -0.75692344 -0.28749976 1.2431885 0.55301756

bias f4 [4]
000000 a7 de d6 3e d8 c6 83 bf 62 e1 19 3f 26 ca 64 3f
       0.41966745 -1.0295057 0.6010953 0.89370954

weight f4 [4, 4]
000000 f8 ae a7 bf 0d 47 53 3f 04 00 3d 3f 49 cd f2 be
       -1.3100271 0.8253029 0.7382815 -0.47422245
000010 04 68 2f 3f 61 67 97 bf 92 39 8a bf b0 cd 8b bf
       0.6851809 -1.1828424 -1.0798819 -1.0922146
000020 9b 9f a5 be b1 4e 4d 3f b2 28 66 3f cc 3c 82 3f
       -0.32348332 0.801982 0.89905846 1.0174804
000030 a4 59 8d bf e1 12 cb 3e d4 bd 25 3f 58 de 3d 3f
       -1.1042981 0.3966284 0.6474278 0.74167395

weight f4 [4, 4]
000000 7d 23 fb 3e 46 fd 33 3e 51 20 b5 3c 32 30 b5 3f
       0.49050513 0.17577085 0.022110136 1.4155333
000010 2f 55 c8 be 59 43 24 3e 93 b1 aa 3e 56 51 e5 3f
       -0.3912749 0.16041316 0.33338603 1.7915447
000020 64 86 8e bd cb 6d d2 be 6d bb 98 be ef 2c 91 bf
       -0.06959227 -0.4109939 -0.29830495 -1.1341838
000030 3f 9a af 3d 21 67 21 3f cd 97 ea be 9f 26 84 bf
       0.08574342 0.6304799 -0.4581894 -1.0324286

bias f4 [4]
000000 d8 83 5f 3d 47 11 06 bd 2f 16 c5 be b2 c0 ce bb
       0.054569095 -0.03273132 -0.38493487 -0.006309592

weight f4 [4, 4]
000000 1b 65 eb bf 60 55 e6 3f d7 73 b3 be e9 9c b0 3f
       -1.839023 1.7994804 -0.35049316 1.3797885
000010 a0 d7 90 bf b9 c3 fc 3f fc a3 82 3e 5d 2e fc 3f
       -1.1315804 1.974723 0.25515735 1.9701649
000020 c9 e2 c2 3f 79 50 e5 bf 7b 4c fe 3e e8 61 cd bf
       1.5225459 -1.7915183 0.49667725 -1.6045504
000030 bd bf df 3f 4c 38 7f 3d ed 0c 44 3e aa 7a 9d bf
       1.7480389 0.06230955 0.19145556 -1.2303059

weight f4 [4, 4]
000000 cf c8 d3 be b3 10 d7 be f2 a1 95 3e d5 34 fb 3e
       -0.41364142 -0.42004928 0.29225117 0.49063745
000010 0d 0a f0 3e e6 8e ee 3e cb 9d d5 be 57 d6 26 bf
       0.46882668 0.46593398 -0.4172195 -0.65170807
000020 37 47 97 bf 24 e3 11 bf 98 a9 19 3f d7 0c 92 3e
       -1.1818608 -0.56987214 0.60024405 0.2852542
000030 2c f2 00 bf 5f d9 83 bf 9c 84 82 3e 9e 0b 0e 3f
       -0.50369525 -1.0300711 0.25491798 0.55486476

bias f4 [4]
000000 98 0a 67 3f 21 ae 7d bf f5 7c f7 3e 35 41 9a 3f
       0.9025054 -0.99093825 0.48337522 1.205115

weight f4 [4, 4]
000000 47 9e 93 bf c0 ae 13 3f c1 64 38 3f dd a0 50 bf
       -1.1532677 0.5768852 0.7202874 -0.8149546
000010 4c eb 3a 3f 86 f9 34 bf 79 e2 f7 be 72 1a 9f be
       0.73015285 -0.7069324 -0.48414972 -0.31074864
000020 cc bf 24 bf 3a 63 97 3f f2 52 9e 3e af b6 5b 3f
       -0.6435516 1.1827157 0.30922657 0.8582563
000030 16 fa 15 bf 38 e9 0e 3f 4b 92 7e 3f 6d 1f 8f 3f
       -0.58584726 0.55824614 0.99441975 1.1181465

weight f4 [4, 4]
000000 f8 7c 87 bf 3f 09 49 3f 39 b2 81 3f 7e f0 36 bf
       -1.0585012 0.78529733 1.0132514 -0.7146071
000010 9a 0d 1d 3f 1b 03 02 bf 84 88 15 bf ba 88 7e 3f
       0.6134888 -0.5078599 -0.5841143 0.9942738
000020 8e 5b 71 3f 00 55 e8 be ea 17 77 bf 02 27 3a 3f
       0.94280326 -0.4537735 -0.96520865 0.7271577
000030 3e d7 f9 3e 0e 15 d8 3e 0e 4c 88 3e d8 72 a7 bd
       0.4879703 0.42203563 0.26620525 -0.081762016

bias f4 [4]
000000 0d 42 2d 3f 48 2c 3a bf 69 aa 3e bf e0 b3 d7 bd
       0.6767891 -0.7272382 -0.74478775 -0.10532355

weight f4 [4, 4]
000000 e0 f0 4f bf 39 e7 7a bf fc 2d 60 3f 17 8b 95 3f
       -0.8122692 -0.9800907 0.87570167 1.1683072
000010 f8 05 86 3f dd c5 95 3e ec a5 a3 be 41 b3 c4 be
       1.0470572 0.2925252 -0.31962526 -0.3841801
000020 c7 4a a1 3e 57 55 b6 3e 4f 5a d4 be ba dc 99 bf
       0.31502363 0.35611984 -0.4147515 -1.2020485
000030 10 71 1d 3d 61 cb be 3f 89 1a 7b bf dd 9d f9 3f
       0.038437903 1.4905816 -0.98087364 1.9501301

weight f4 [4, 4]
000000 81 16 51 3f 7e 55 08 3f a5 52 74 bf 9c ad 1f bf
       0.81674963 0.5325545 -0.95438606 -0.6237428
000010 e8 c8 b6 be 33 98 2f 3f 43 ed fa be d5 65 32 be
       -0.35700154 0.6859161 -0.4900914 -0.17421658
000020 64 aa 23 be 67 61 b1 bf 08 a6 cd 3f 80 10 26 be
       -0.15982968 -1.385785 1.6066294 -0.16217232
000030 24 b3 1e 3e 3b 73 8c 3e a8 6d 88 3e 36 23 db 3e
       0.15498024 0.27431664 0.2664616 0.428003

bias f4 [4]
000000 21 04 48 3f 63 69 9a 3f 4a c2 b6 bf 74 f1 7b be
       0.781313 1.2063411 -1.4278042 -0.24603826

weight f4 [4, 4]
000000 c9 e6 dc 3e 24 67 66 bf 5f 5e 19 bf d6 1e 2a 3f
       0.43144825 -0.9000113 -0.59909624 0.664533
000010 28 34 2b bf 79 4d 74 bf 0b 21 3c bd 9a 31 b5 be
       -0.6687646 -0.95430714 -0.04592995 -0.35389405
000020 9c 7e 0c 3e 36 6f d4 3f 2c 6b f2 be 30 72 23 3d
       0.13720173 1.6596439 -0.4734739 0.03990382
000030 ee be 82 3f 95 c6 a8 bf a0 7f 64 3f 92 10 cc 3f
       1.0214517 -1.3185602 0.8925724 1.5942557

weight f4 [4, 4]
000000 4f 15 c9 bf ea 8e b3 be b3 e1 fe bf 0e b3 b2 bf
       -1.5709628 -0.35069972 -1.9912628 -1.3960893
000010 9d 9b 81 3f 52 11 b0 3e b5 3f de 3f 79 00 cf 3f
       1.0125614 0.34388214 1.7363192 1.6172019
000020 b8 67 a2 bd 46 b3 97 3f 5a 7c ad be 7c c9 93 3e
       -0.07929939 1.1851585 -0.33883935 0.28864658
000030 b4 fb 68 be fd fa bc bf 28 4e 87 be 78 4e 7e 3e
       -0.22752267 -1.4764096 -0.26426816 0.24834621

bias f4 [4]
000000 c5 44 fd 3e 8c 4d 16 be be 78 fa bf e8 07 b9 3f
       0.4946653 -0.1467802 -1.9568098 1.4455538

weight f4 [4, 4]
000000 da 27 fc 3e 0c 90 da 3f 47 eb 93 bb ff 88 95 3f
       0.49249154 1.707521 -0.004514131 1.1682433
000010 de 13 94 3e 0e 56 cc bf d8 d6 9b 3e 0f 36 b1 bf
       0.28921407 -1.5963762 0.3043735 -1.3844622
000020 03 34 fa bf c8 48 c5 3d a0 02 92 3f e0 99 91 be
       -1.9547123 0.096330225 1.1407051 -0.2843771
000030 42 74 86 3f 8c 5d 73 be d8 38 ee bf 6e 23 c3 be
       1.0504229 -0.23766154 -1.8611097 -0.38112968

weight f4 [4, 4]
000000 6a 3d a0 3e ee 84 12 3f 85 20 41 bf a0 49 6f 3f
       0.31296855 0.57234085 -0.75440246 0.9347172
000010 f6 79 b3 3f dc 54 5a 3f 0c 7e bb bf a8 5f c9 3e
       1.4021595 0.85285735 -1.4647841 0.39330792
000020 dc 98 da bf fa 77 fd 3e 69 43 ae 3f 46 2f 95 be
       -1.7077899 0.49505597 1.3614322 -0.2913763
000030 4a 84 84 be e4 0d 94 bf 80 df f1 bb 7c e5 00 bf
       -0.2588218 -1.1566739 -0.0073813796 -0.50350165

bias f4 [4]
000000 af 16 19 3f 5f d1 16 3f 8e fb b5 bf 0c f1 89 3d
       0.5980024 0.58913225 -1.4217393 0.06735429

weight f4 [4, 4]
000000 6c db 47 3f bc e5 80 bf b7 bc 36 bf 95 4a 8a 3e
       0.78069186 -1.0070109 -0.71381706 0.27010027
000010 5a da ce be 68 e2 89 bf bb df 69 be 6b 6f 0a bf
       -0.40400964 -1.0772219 -0.22839253 -0.5407626
000020 36 ea a5 be f5 95 b9 3f 70 f2 33 be d6 78 ee be
       -0.3240525 1.4498888 -0.17572951 -0.46576566
000030 1f d6 7a 3f 4c 89 a6 bf 72 7a 82 3f 2f 18 91 3f
       0.9798297 -1.301065 1.0193617 1.1335505

weight f4 [4, 4]
000000 e4 6c cb be 60 34 93 bc bc 68 d4 be 54 cf 05 be
       -0.39731514 -0.01796931 -0.41486156 -0.1306737
000010 7c 1e fc 3e 58 04 93 be 76 e9 bf be 80 44 b1 3b
       0.49242008 -0.28714252 -0.37482804 0.005409777
000020 78 54 8b be 68 46 33 be 84 7f 77 be 62 47 c0 3e
       -0.27212882 -0.17507327 -0.24169737 0.3755446
000030 50 55 27 3d e0 0f 48 3e 08 78 32 be 2c 98 1f 3e
       0.040852845 0.19537306 -0.17428601 0.15585393

bias f4 [4]
000000 bc 7f 5f 3e 88 dc ca bd 72 72 f0 3e 40 ee 29 3c
       0.2182607 -0.09905344 0.46962315 0.010371745

weight f4 [4, 4]
000000 04 e6 45 3e 4c f3 f6 be 84 23 2e 3e bc 15 d8 be
       0.19326025 -0.48232496 0.17005736 -0.42204082
000010 34 40 f0 be be be cb be 34 5a 23 be 00 ad d5 3d
       -0.46923983 -0.39793962 -0.15952379 0.10433388
000020 76 8c ed be a0 4f 7e 3d 1a b1 c4 be a4 f0 e3 be
       -0.46396226 0.062087655 -0.38416368 -0.44519532
000030 c0 b2 31 be 00 78 4c bd 72 9a e6 be 00 0f f2 bc
       -0.17353344 -0.04991913 -0.45039707 -0.029548168

weight f4 [4, 4]
000000 d7 28 4f bf 86 20 13 bf c3 90 89 3f 2f e2 8f bf
       -0.8092169 -0.574715 1.0747303 -1.1240901
000010 d0 c4 a1 3f 58 d2 3c 3f a7 00 e0 bf 16 c4 44 3f
       1.2638187 0.7375846 -1.7500199 0.76861703
000020 85 a4 c0 bf 5c a8 d6 be e2 2c b8 3f 46 71 b0 3e
       -1.5050207 -0.41925323 1.4388697 0.3446142
000030 49 2f 79 bf b1 e3 1a bf 59 67 a0 3f e5 3c 75 bf
       -0.97337776 -0.6050368 1.2531539 -0.9579604

bias f4 [4]
000000 3e 78 2d 3f 93 c8 dc 3e a6 c6 e2 bf a4 6c bc be
       0.677616 0.43121776 -1.7716873 -0.36801636

weight f4 [4, 4]
000000 b5 b6 95 3f 69 08 65 bf 85 55 ad bf e3 97 02 3f
       1.1696383 -0.8946596 -1.3541723 0.5101301
000010 3c 6e 9d bc 97 8a c0 bf 9c a7 59 bf 81 10 dc bd
       -0.019217603 -1.5042294 -0.85021377 -0.10745335
000020 2c d0 cb be 32 aa 91 3f 4c fc ca be 24 b8 40 be
       -0.3980726 1.1380064 -0.39645612 -0.18820244
000030 6c 54 8c 3f a6 f1 8c bf 1c 15 8a 3f 07 f8 92 3f
       1.0963264 -1.1011245 1.0787692 1.1481942

weight f4 [4, 4]
000000 b9 75 b2 bf 17 4b c6 be 78 b1 8b bf ba fa ec bf
       -1.3942176 -0.38729164 -1.0913534 -1.8514016
000010 de 03 f0 3f d8 a2 34 3e 36 77 a1 3f ef b3 be 3f
       1.875118 0.17640245 1.2614505 1.4898661
000020 78 8f de be dd f7 c0 3f a6 a2 91 be d0 4d f0 be
       -0.43468833 1.5075642 -0.28444403 -0.46934366
000030 c8 81 7a be 7a 5c 8b bf 52 71 96 3e cc de 92 3e
       -0.2446357 -1.0887597 0.29383332 0.28685606

bias f4 [4]
000000 c9 97 86 be ac c4 bd be 86 8c a1 bf 7e df 9d 3f
       -0.26287678 -0.3706411 -1.2621009 1.2333829

weight f4 [4, 4]
000000 29 e5 af 3d c8 e8 96 3f 79 14 f6 bd 26 ae aa 3f
       0.08588631 1.1789789 -0.120156236 1.3334396
000010 34 ff 43 3e 1b b1 b8 bf 7c a5 00 3e 14 00 d8 bf
       0.19140321 -1.4429048 0.12563127 -1.6875024
000020 2e 38 8f bf 84 2e f5 3e 98 5e b6 3f e0 1c 89 bd
       -1.118902 0.4788705 1.4247618 -0.066949606
000030 c0 40 d6 3f fe b8 91 be 9e 2d dd bf f0 64 88 3e
       1.673851 -0.2846145 -1.7279546 0.2663951

weight f4 [1, 4]
000000 48 60 8c 3d 08 11 af bd f8 b9 d4 bd 94 fe 57 3e
       0.06854302 -0.0854817 -0.10387033 0.21093208

weight f4 [1, 4]
000000 62 5b 8a 3e 78 c7 c2 bd c4 7e f6 be 58 fb bd 3e
       0.27022845 -0.09510702 -0.4814359 0.37105823

weight f4 [1, 4]
000000 58 9e 28 be 30 43 d8 3d 38 57 a3 bd 0a c8 5d bf
       -0.16466653 0.1055969 -0.0797562 -0.8663336

weight f4 [1, 4]
000000 19 45 29 bc 08 3b 8f bf 64 bd fd be 7b 20 bf 3e
       -0.010331416 -1.118989 -0.49558556 0.37329468

weight f4 [1, 4]
000000 c0 6a 1b 3c 54 5d 60 3e 90 e6 78 3e be 72 89 be
       0.0094859 0.21910602 0.24306703 -0.26845354

weight f4 [1, 4]
000000 f8 d3 62 3e 1a 0b 91 3e 2e 8a 9f be 50 ce 69 be
       0.22151172 0.28328782 -0.3116011 -0.22832608

weight f4 [1, 4]
000000 20 26 f9 3d ba 00 d3 be fc f0 ab 3e 8c 34 6a be
       0.12165475 -0.41211492 0.33582294 -0.22871608

weight f4 [1, 4]
000000 bc 7e b8 3e 10 89 e2 3e 9c fb d3 3e 46 f6 92 3e
       0.3603419 0.44245195 0.414029 0.28703517

weight f4 [1, 4]
000000 70 5f ea be bc d8 68 3e 24 ad 93 be 0e 7d b9 be
       -0.45775938 0.22738928 -0.28843033 -0.36228222

weight f4 [1, 4]
000000 5c 39 b2 be ae 7f bd 3e 50 74 18 3d 40 74 ac 3e
       -0.34809387 0.37011474 0.0372203 0.33682442

weight f4 [1, 4]
000000 c0 05 3b 3f df 30 16 3f 7c f4 8c be 7e 2a 2b bf
       0.7305565 0.5866832 -0.27530277 -0.6686171

weight f4 [1, 4]
000000 17 60 c7 be 64 ab 8a bf e1 53 6d 3d ac 85 74 3e
       -0.38940498 -1.0833554 0.05794132 0.23879117
