mlartifacts/403163061964527456/75437370fc434c23a1092a15527afab8/artifacts/models/data/model.pth (torch, 266962 bytes, 130 tensors)

att_src f4 [1, 1, 32]
000000 a3 83 bd bc 22 12 1b be 8c 56 d1 be 5b fa 10 bd
       -0.023134058 -0.15143636 -0.40886343 -0.035395008
000010 0b d5 b2 3e 40 81 0a be ce 70 ba 3e 24 ae 95 3c
       0.34928164 -0.13525867 0.36414188 0.018271513
000020 a8 16 9a be 71 a6 c6 be 3e e1 07 bd 18 3f 96 3e
       -0.3009541 -0.3879886 -0.033173792 0.29345012
000030 83 b5 ad 3d ce 6c 91 3e f0 b2 bb be 99 8d b7 be
       0.08481886 0.28403324 -0.36659956 -0.35850218
000040 90 a7 2f be 40 1d e4 bd eb 1d 81 3e 03 b5 8f be
       -0.17153764 -0.111383915 0.25218138 -0.28067788
000050 16 83 bf be 18 15 41 3c 62 0c a9 3e c8 73 af be
       -0.37404698 0.011784814 0.3301726 -0.34268022
000060 c6 59 21 bd fe f6 0c 3e 48 8a 7c 3e c0 5b 85 be
       -0.039392255 0.13766095 0.24662125 -0.26046562
000070 82 66 ce 3e 1f b0 b3 be b2 93 96 3e a5 b6 a3 3e
       0.40312582 -0.35095307 0.29409558 0.31975284

att_dst f4 [1, 1, 32]
000000 71 1c 13 be 15 a6 ce 3e ca b3 5a be da cb 11 be
       -0.14366318 0.40361086 -0.21357647 -0.1423792
000010 f5 72 54 be 7c 4e 51 be 0a 7b 87 bd ca 5b 47 3e
       -0.20746978 -0.20440096 -0.06615265 0.19468608
000020 e1 f2 d6 be ac 65 97 be e7 ed 17 3e 80 35 b5 3e
       -0.41982177 -0.29569757 0.14836846 0.3539238
000030 33 02 31 be 3b 88 cb 3e 7f b0 ed 3d 54 df 8a bd
       -0.17285995 0.39752373 0.116059296 -0.06780878
000040 95 99 2b 3b aa ff ba 3d d8 83 7e bc 53 d7 c9 bb
       0.0026184071 0.09130795 -0.015534364 -0.006159702
000050 4c df bb be 85 5b bb be e9 5b 6e 3e 12 7b b6 3e
       -0.366938 -0.3659326 0.23277248 0.3564077
000060 21 6d a3 be 35 53 84 3e 56 83 d7 3d 07 2f a8 be
       -0.31919196 0.25844732 0.10523097 -0.3284838
000070 52 82 d2 bb f9 c1 84 3e f3 7e 8f 3e bd f9 77 bd
       -0.006424227 0.2592924 0.28026542 -0.060540903

bias f4 [32]
000000 00 00 00 00 00 00 00 00 00 00 00 00 56 1b 6e 3f
       0.0 0.0 0.0 0.9301046
000010 7d 36 70 bf 00 00 00 00 00 00 00 00 72 50 70 bf
       -0.9383314 0.0 0.0 -0.9387275
000020 f6 19 70 bf 00 00 00 00 00 00 00 00 f8 48 70 bf
       -0.93789613 0.0 0.0 -0.9386134
000030 00 00 00 00 72 1e 70 3f 20 4a 70 3f 00 00 00 00
       0.0 0.93796456 0.93863106 0.0
000040 f3 f1 6f bf 00 00 00 00 a1 d4 5d 3f a7 74 6c bf
       -0.9372856 0.0 0.8665257 -0.923655
000050 83 56 70 bf 8b ed 6f 3f eb 32 70 bf da 06 70 bf
       -0.93882006 0.93721837 -0.93827695 -0.93760455
000060 c8 39 70 3f e7 de 6e bf db ff 6f 3f f3 ab 6e bf
       0.9383817 -0.9330887 0.9374978 -0.93231124
000070 00 00 00 00 00 00 00 00 ad 57 70 bf 00 00 00 00
       0.0 0.0 -0.9388378 0.0

weight f4 [32, 3]
000000 c3 fe 1c 3e 01 12 00 be 6c c7 b7 3d ab 1b 0b be
       0.15331559 -0.12506868 0.089735836 -0.13584773
000010 19 69 05 be 75 95 a6 be db c3 e1 3c af c4 95 be
       -0.13028373 -0.32535902 0.027559211 -0.2925162
000020 02 38 37 be 13 b0 9b 3e 0e e9 a4 be 9c 78 20 3e
       -0.17892459 0.3040777 -0.32209057 0.15671009
000030 2f c1 40 be 21 d7 9d be 0f 31 0c be d8 a0 bf 3e
       -0.18823694 -0.30828193 -0.1369059 0.37427402
000040 4b 33 7a 3e 6a af ab 3e ab 0d 10 be 61 ea 29 3e
       0.24433629 0.33532268 -0.14067714 0.16593315
000050 70 92 25 3e cb c2 d1 be 6b a8 a8 be 00 b4 1a 3d
       0.16169143 -0.40968928 -0.32940993 0.037769318
000060 2a 90 d0 3e 99 e3 87 be 60 8d a0 be 83 02 8e be
       0.40734988 -0.2654083 -0.3135786 -0.2773629
000070 29 a6 3f 3d 31 45 97 be 2e 3f 96 be e3 a7 98 be
       0.046789322 -0.29544976 -0.29345077 -0.29815587
000080 7c 10 96 3e 77 66 04 3e 9c 41 82 3e 16 f0 6b 3e
       0.29309452 0.12929712 0.2544068 0.23040804
000090 69 ea 90 3e b7 04 8b be 05 b3 9a 3e 63 8f a3 3c
       0.2830384 -0.27152035 0.30214706 0.019965833
0000a0 57 df 8a 3e 94 99 03 3e 73 a6 82 3e 73 0a f9 bd
       0.2712352 0.12851554 0.25517616 -0.12160196
0000b0 c7 e0 86 be 24 53 57 be 5d 02 f2 3b c4 28 0c be
       -0.26343367 -0.2102781 0.0073855356 -0.13687426
0000c0 4a 5a d1 bd 5e ea 62 3e 96 f8 15 be 3a 5d a6 bd
       -0.102222994 0.22159716 -0.1464561 -0.0812325
0000d0 3d fa 2b be d7 0e 4c 3e c7 14 21 3e 65 b6 cc be
       -0.16794677 0.19927536 0.15730582 -0.39982906
0000e0 ad be b3 ba 1a 3c 14 3e 9c fe 48 3e 63 bc cc be
       -0.0013713442 0.14476052 0.19628376 -0.39987478
0000f0 89 c5 4a 3e dd b4 0e be d7 7d 75 be af 2a 90 be
       0.19801916 -0.13936181 -0.23973785 -0.28157565
000100 2e 2b bd 3c 11 ed b3 be f5 95 79 be e3 91 a7 be
       0.023091879 -0.35141805 -0.2437361 -0.3272849
000110 65 47 e3 bc 9f fe c8 be 78 43 19 3e eb 62 c6 be
       -0.027744005 -0.3925676 0.14967144 -0.38747343
000120 3f b8 a9 be 69 fc 53 be 86 84 ab be 6a 3e 79 bd
       -0.3314838 -0.20701756 -0.33499545 -0.06085054
000130 68 05 1c 3e 00 49 b0 3e 32 f8 90 3e 71 7c c7 3b
       0.15236437 0.34430695 0.28314358 0.0060878326
000140 48 93 2f 3b c3 4e b7 be 09 d2 8d 3e d1 f5 99 3e
       0.0026790667 -0.35802278 0.27699307 0.30070356
000150 f6 ed 6f 3e df 5d b8 be 62 3d 9f bc 60 87 9a 3e
       0.23430619 -0.36009118 -0.01943845 0.30181408
000160 1f 52 b3 bd 73 47 1f 3e 01 e5 8b 3e 49 0f 93 be
       -0.08755898 0.155546 0.27323154 -0.287226
000170 f7 0b 57 3d f9 57 c6 3d b0 6e bc be 07 2a 61 3e
       0.052501645 0.09684748 -0.36803198 0.21988688

att_src f4 [1, 1, 32]
000000 87 23 90 bf 96 ca 86 bf d2 bd 8b 3f f0 b5 04 3f
       -1.1260842 -1.0530574 1.0917304 0.51840115
000010 e3 e7 56 bf 38 6f 6b bf 7e ea 93 bf cf 9e 69 3f
       -0.8394758 -0.9196658 -1.1555936 0.9125795
000020 e7 0b ad bf 4a 03 33 3f 50 3d 80 bf 99 d8 34 3f
       -1.3519257 0.69926894 -1.0018711 0.70643
000030 ea 19 9d bf 01 c8 62 3f f7 6c aa bf 09 c9 53 3f
       -1.2273533 0.8858643 -1.3314503 0.8272863
000040 3a 97 7c bf 7c 23 19 3f ab 13 6b bf 7a dc 8e 3f
       -0.98668253 0.5981977 -0.91826886 1.1161034
000050 a1 1f 0c 3f 23 79 5e bf 8c 00 29 3f 51 4d aa 3f
       0.5473576 -0.8690359 0.6601646 1.3304845
000060 c0 a1 1f 3f 94 85 a8 3f 69 9e 5e bf 08 03 2b bf
       0.62356186 1.3165765 -0.86960465 -0.668015
000070 fa 19 49 bf 56 88 2e 3f 05 ec 9c bf 27 54 09 bf
       -0.7855526 0.6817678 -1.2259527 -0.5364403

att_dst f4 [1, 1, 32]
000000 a4 16 09 be 38 7e 0b 3e 04 48 4b be 96 1f c4 be
       -0.13387543 0.13622367 -0.1985169 -0.38305348
000010 ea 39 a6 3e 85 9d 43 be 53 56 89 be 49 4f c2 3e
       0.3246606 -0.19103058 -0.26823673 0.37951115
000020 7a 87 a8 3e 0a fd 5d be a9 10 49 3d 84 18 a5 3e
       0.3291586 -0.21678558 0.049088154 0.32245266
000030 af 5f 04 3e c9 a5 14 be 66 88 51 3e 17 7f 22 3e
       0.12927125 -0.14516367 0.20462188 0.15868793
000040 6a ba b4 be b6 7d 1c be f8 df d6 3e 63 c9 df bd
       -0.35298473 -0.1528233 0.4196775 -0.10927083
000050 70 51 1d be e7 cd ec bd 04 aa 2c bc 3d b4 9e 3e
       -0.15363097 -0.1156271 -0.010538582 0.30996886
000060 2a 5a 1d 3c 93 f7 9d 3e 27 1b cf 3e 1e 13 07 bd
       0.009604016 0.30852947 0.40450403 -0.032977216
000070 2f f3 d8 3e 78 7a 2f 3e a4 94 9e be 70 30 2a 3e
       0.42373034 0.17136562 -0.3097278 0.1662004

bias f4 [32]
000000 09 61 70 bf 90 73 70 3f 53 76 70 3f 2e 60 70 3f
       -0.93898064 0.93926334 0.9393055 0.9389676
000010 75 71 70 3f cc 70 70 bf e0 43 70 bf 65 76 70 3f
       0.9392312 -0.93922114 -0.9385357 0.93930656
000020 fd 6e 70 3f 01 76 70 3f 6c 74 70 bf 30 69 70 3f
       0.93919355 0.9393006 -0.93927646 0.93910503
000030 be 70 70 bf 87 76 70 3f 00 00 00 00 d7 75 70 3f
       -0.9392203 0.9393086 0.0 0.9392981
000040 32 70 70 bf b5 2d 70 bf 0d 6c 70 bf ff 75 70 bf
       -0.93921196 -0.93819743 -0.9391487 -0.9393005
000050 53 75 70 bf 00 00 00 00 fb 49 70 3f e0 76 70 3f
       -0.9392902 0.0 0.93862885 0.9393139
000060 9a 75 70 bf 62 76 70 3f 64 75 70 3f 66 6c 70 3f
       -0.93929446 0.9393064 0.93929124 0.939154
000070 00 00 00 00 d4 73 70 3f 46 c6 6e 3f 00 00 00 00
       0.0 0.9392674 0.9327129 0.0

weight f4 [32, 3]
000000 5c 93 aa 3f 70 2b 1b bf fc a9 91 bf 20 ef 83 3f
       1.332622 -0.60613155 -1.138 1.030735
000010 0b 56 58 bf e5 aa 6b 3f 0a 7a 29 3f b2 9d 63 bf
       -0.8450629 0.9205764 0.6620184 -0.889125
000020 91 b1 84 3f cd fe 7c bf 96 9f 28 bf ba 7d a8 3f
       1.0366689 -0.98826295 -0.6586851 1.3163369
000030 63 8f 42 bf 72 f1 8c bf 94 ac 38 3f d4 81 54 3f
       -0.7600004 -1.1011183 0.72138333 0.830106
000040 d1 cb 65 bf ce d9 81 bf 25 d4 4f bf cb 91 8b bf
       -0.89764124 -1.0144594 -0.8118308 -1.0903867
000050 62 98 87 bf b0 ad 0b 3f d7 e5 35 bf 83 f9 8c 3f
       -1.0593379 0.545619 -0.7105383 1.1013645
000060 67 4c 94 3f 7c 80 a6 3f 67 39 7a bf 1b 7e 60 3f
       1.1585816 1.300796 -0.9774384 0.8769242
000070 94 b2 8b 3f 1d 60 83 3f df 9f 25 3f 83 ba 8e 3f
       1.0913873 1.0263706 0.6469707 1.1150669
000080 73 c3 8c bf c6 a4 aa 3f 0c 0e 4f bf 76 d3 92 3f
       -1.0997146 1.3331535 -0.8088081 1.1470783
000090 4a bd aa bf 27 c8 5d 3f b3 13 92 bf bf 72 7d bf
       -1.3339016 0.86633533 -1.1412262 -0.99003214
0000a0 3c 86 45 bf c4 91 90 3f 4d af 73 bf cc c7 4c 3f
       -0.7715795 1.1294484 -0.9518936 0.79992366
0000b0 d1 ec a4 bf 55 3a 4b 3f 47 53 a3 3f 40 ff 99 3f
       -1.2884771 0.7938588 1.2759789 1.2031021
0000c0 54 e7 9d bf de c7 46 3f 7e a0 82 bf b8 ff 9c bf
       -1.2336221 0.77648723 -1.0205228 -1.2265539
0000d0 30 8a 3e 3f cc 2f 7c 3f e0 70 5b 3f a6 8f a6 3f
       0.7442961 0.9851043 0.8571911 1.3012588
0000e0 2f 1e 94 bf 04 36 a5 bf 7f 13 10 3f 44 fb 1d bf
       -1.1571711 -1.2907109 0.5627975 -0.61711526
0000f0 d0 6a 67 3f 72 e3 8d bf de 0e 17 bf 7f 31 49 3f
       0.9039736 -1.1085036 -0.5900706 0.7859115
000100 50 11 82 bf 63 83 22 3f 40 35 16 bf c2 c4 98 3f
       -1.0161533 0.6348173 -0.58675003 1.1935046
000110 4b 17 8e 3f 2b 88 71 3f 59 34 a1 3f c0 60 ac 3f
       1.1100858 0.943484 1.25941 1.3467026
000120 cc b1 8f 3f 5e fb 99 3f e6 2a 41 bf 78 be 1e 3f
       1.1226134 1.2029836 -0.7545608 0.6200938
000130 be 78 4d bf 0e 65 a8 3f b8 c6 a6 bf a2 ed 63 3f
       -0.8026236 1.315584 -1.3029394 0.89034474
000140 34 b9 42 3f 14 24 11 3f 40 e5 87 bf fb a7 48 3f
       0.7606385 0.56695676 -1.0616837 0.7838132
000150 c2 74 3d 3f f1 3a 35 bf 41 ce 34 3f ae 76 7f 3f
       0.74006283 -0.7079306 0.7062722 0.99790466
000160 1b 39 71 3f 3f 51 81 3f 08 6b 4d 3f e1 f0 a9 3f
       0.9422776 1.0102919 0.8024144 1.3276635
000170 17 83 98 bf 78 73 0e 3f 7b b1 72 bf e7 ed 52 3f
       -1.1915005 0.5564494 -0.94802064 0.8239426

weight f4 [32, 1]
000000 69 01 25 3e 1a e7 c3 3e fa 5d 61 3e 7d 19 57 bd
       0.16113819 0.38262254 0.22008505 -0.052514542
000010 b6 03 13 3e 8f e9 20 bd 1e 7c 8f 3e 96 c3 4c be
       0.14356884 -0.03928524 0.2802438 -0.19996485
000020 04 73 8d 3e 21 3b 27 3e c1 fe 35 be 30 5c 2a bd
       0.27626812 0.1633115 -0.17772962 -0.041591823
000030 21 86 aa 3e e4 3b 8a 3e c1 64 a1 be 4b a1 a8 be
       0.33305457 0.26998818 -0.31522182 -0.32935557
000040 4f 2f 4b be 0c 27 a1 3e 54 3f 81 be c9 a5 b5 3c
       -0.19842266 0.31475103 -0.25243628 0.02217378
000050 81 3a 5a 3e 0a a5 49 be 97 d7 be 3e 2c 2e 99 be
       0.2131138 -0.19691864 0.37273857 -0.2991804
000060 32 4d 3f be e6 0e 86 be 5f 4f 43 be c6 74 65 3e
       -0.18681791 -0.26183242 -0.19073246 0.22407827
000070 e2 d9 cf 3d 45 16 27 bd c9 2c d8 3e a7 99 04 bd
       0.1014898 -0.040792722 0.42221668 -0.032373097

att_src f4 [1, 1, 32]
000000 cb 0a 05 be 55 f9 02 bf 96 9f 48 bf 36 ff f0 3e
       -0.12992398 -0.511617 -0.7836851 0.4706971
000010 41 d5 ba be 6b 1a 41 bf 5b b8 10 bf f1 7b 3f 3f
       -0.36490825 -0.75430936 -0.56531304 0.74798495
000020 ac 7d 72 3e e0 38 55 3c 93 64 66 bf 6e 7e 0f 3e
       0.23680753 0.013014048 -0.89997214 0.14013073
000030 0e 56 2a bf 47 a4 79 3f 08 16 7b 3f bd dd 3a bf
       -0.6653756 0.9751629 0.9808049 -0.72994596
000040 0b 72 2a 3f f8 00 58 3d 96 35 82 bf 30 c4 05 bf
       0.66580266 0.0527353 -1.0172603 -0.52252483
000050 92 a2 0e 3f 80 d7 3b 3f ac fd 70 3f a0 c7 2d 3f
       0.5571681 0.733757 0.9413707 0.6788273
000060 7e 40 5e 3f 3d c4 8d 3f 71 21 62 3f bc 0c 0a bf
       0.8681716 1.1075512 0.8833228 -0.5392568
000070 02 65 7b bf a1 5f 28 bf e0 46 16 3f d2 e3 20 be
       -0.98201 -0.6577092 0.58701897 -0.15711907

att_dst f4 [1, 1, 32]
000000 6c 4e 63 bf ff 33 67 bf 42 b3 3a bf ee 91 90 bf
       -0.8879154 -0.90313715 -0.72929776 -1.1294534
000010 d7 c3 0a bf 5c af 0b 3f af bd 60 3f a2 51 09 3f
       -0.5420508 0.5456445 0.87789434 0.53640187
000020 9a 62 5e bf 83 df 73 3f 43 07 27 3f 39 1d 5a 3f
       -0.86869204 0.95262927 0.65245456 0.8520084
000030 4a e6 9f 3f 40 27 6c bf 64 be 95 bf 1b c2 53 3f
       1.2492154 -0.9224739 -1.1698728 0.82718056
000040 79 7f 11 bf 6f ea 29 bf 24 c9 6f bf 13 e2 76 bf
       -0.5683513 -0.6637334 -0.9366629 -0.9643871
000050 f0 33 fb 3e 36 62 20 3f f7 10 62 3f d9 b9 2a 3f
       0.49063063 0.6264986 0.88307136 0.6668983
000060 29 85 32 3f c6 09 61 bf 9c f2 8a 3c 01 15 f9 be
       0.69734436 -0.8790554 0.016961388 -0.48648837
000070 54 f6 95 3f a9 8f bb be b7 a3 4e 3f 23 a8 a1 3f
       1.1715798 -0.36633042 0.8071856 1.2629436

bias f4 [32]
000000 00 00 00 00 00 00 00 00 00 00 00 00 56 1b 6e 3f
       0.0 0.0 0.0 0.9301046
000010 7d 36 70 bf 00 00 00 00 00 00 00 00 72 50 70 bf
       -0.9383314 0.0 0.0 -0.9387275
000020 f6 19 70 bf 00 00 00 00 00 00 00 00 f8 48 70 bf
       -0.93789613 0.0 0.0 -0.9386134
000030 00 00 00 00 72 1e 70 3f 20 4a 70 3f 00 00 00 00
       0.0 0.93796456 0.93863106 0.0
000040 f3 f1 6f bf 00 00 00 00 a1 d4 5d 3f a7 74 6c bf
       -0.9372856 0.0 0.8665257 -0.923655
000050 83 56 70 bf 8b ed 6f 3f eb 32 70 bf da 06 70 bf
       -0.93882006 0.93721837 -0.93827695 -0.93760455
000060 c8 39 70 3f e7 de 6e bf db ff 6f 3f f3 ab 6e bf
       0.9383817 -0.9330887 0.9374978 -0.93231124
000070 00 00 00 00 00 00 00 00 ad 57 70 bf 00 00 00 00
       0.0 0.0 -0.9388378 0.0

weight f4 [32, 1]
000000 98 12 f2 3d 70 88 55 3e 18 b8 41 bf e7 d5 85 3f
       0.11819953 0.20852828 -0.7567153 1.0455903
000010 6f 06 8c bf 2f ef 3f bf 3c 39 de 3d 9a 92 37 bf
       -1.0939463 -0.7497434 0.1085076 -0.7170807
000020 ae b2 1f bf a1 e2 1b 3f 80 90 5f bf b1 d8 78 bf
       -0.6238202 0.60892683 -0.87329865 -0.97205645
000030 e1 b1 e1 be cc de 9d 3f 90 e2 a7 3f ed 71 0f bf
       -0.44081023 1.2333617 1.3116016 -0.5603321
000040 37 11 2e bf 46 47 24 3f e0 e2 97 3e 1e 7f 43 3e
       -0.6799502 0.64171255 0.2966528 0.1909146
000050 36 12 5a bf 52 a6 9e 3f 28 97 20 bf ae c7 44 bf
       -0.8518404 1.2394507 -0.62730646 -0.7686719
000060 e4 94 87 3f a0 06 fe be 5d d7 a4 3f 1a 9c 9a bf
       1.0592313 -0.4961443 1.2878224 -1.2078888
000070 c5 d9 80 bf 11 5e 2b be 31 80 46 bf 50 33 0a 3f
       -1.0066458 -0.16735102 -0.77539355 0.53984547

weight f4 [32, 3]
000000 36 f1 d0 3e d1 8e b8 be 19 fd 62 3f fa 35 38 bc
       0.4080903 -0.3604646 0.88667446 -0.011243338
000010 5e f6 ce be fc f1 65 3f aa cf 31 3e a9 cb 1e 3e
       -0.40422338 0.89822364 0.17364374 0.15507378
000020 70 cf e3 be a6 dd 12 be 68 f4 9f 3e 49 f0 91 3f
       -0.444942 -0.14342365 0.31241155 1.1401454
000030 0f 6e c6 be 2e 44 a5 bd 49 f9 5b 3f b5 1c 95 be
       -0.38755843 -0.08069645 0.85927254 -0.29123464
000040 bd 64 6a be 80 50 2b 3f e7 2c 93 be 7b 50 20 be
       -0.22889991 0.6691971 -0.28745195 -0.15655701
000050 5a ef 65 bf 54 2c bd bc 15 a7 ae 3e a1 fa 27 3f
       -0.89818347 -0.023092426 0.34111848 0.65616804
000060 4f a9 16 be b9 39 91 3e 8d 43 61 3f 61 7b af 3e
       -0.14713024 0.2836435 0.879937 0.34273818
000070 a6 b3 50 3e 6a 1b 87 bf e7 d6 b1 be 42 71 de bd
       0.2038103 -1.0555241 -0.3473427 -0.10861446
000080 00 0b 11 3f 03 4c 83 3e d4 d3 9a 3c 37 b4 3e bf
       0.5665741 0.2564393 0.018899836 -0.74493736
000090 2d 24 e8 3d d1 8a 7f 3e 2c e2 9a bf f6 c3 cb 3e
       0.11335025 0.24955298 -1.2100272 0.39797944
0000a0 f7 74 8d bc cc f9 68 3f 96 a3 a4 3e b9 35 d1 be
       -0.017267687 0.9100616 0.32156056 -0.408613
0000b0 c8 a2 86 3f 2b c8 0d 3e 54 07 fe 3d bf 97 41 bf
       1.0518427 0.1384589 0.124037415 -0.7562217
0000c0 d7 a0 3e 3e 6f 86 aa be ce 36 27 3f 13 2b 53 3e
       0.18616043 -0.3330569 0.65318 0.206219
0000d0 16 64 29 be ed e9 3f 3f b2 ce 19 3e 99 af ac bd
       -0.16542086 0.7496632 0.15020254 -0.0843193
0000e0 bb ca 6a 3f 9b 1a ee bd 7b fd 52 be 1c d3 79 3f
       0.9171559 -0.11626168 -0.20604508 0.9758775
0000f0 f5 1d 46 be 29 d8 91 3d 46 ef 01 3f 23 21 2f be
       -0.19347365 0.071213074 0.5075573 -0.17102484
000100 e6 9b 83 3e dd 1b f9 3e 8b ad 4e 3d 4a ff 56 3e
       0.2570488 0.4865407 0.050458472 0.20995823
000110 f3 4e 66 bf 55 83 2c 3e a4 23 c2 3e 8f 7f 5d bf
       -0.89964217 0.16846974 0.37917817 -0.86522764
000120 f4 60 c4 3e 00 f2 4d 3e 4d 6c 30 bf 2d 39 77 be
       0.3835522 0.20111847 -0.68915254 -0.24142905
000130 ab f8 c4 be 40 80 62 3f 64 50 cf be 1d 61 74 be
       -0.3847097 0.88476944 -0.4049102 -0.23865171
000140 89 27 29 3f de 1e bf 3d e6 c9 88 bd 61 2c 12 bf
       0.6607595 0.09332059 -0.06679134 -0.57098967
000150 23 bc 9b 3e 4a db 75 3e f2 5f 81 bf 5d ca 27 3e
       0.30416974 0.24009433 -1.0107405 0.16385789
000160 2b 3c 89 be bb f0 3c bf 56 30 85 bc 1a ec db 3d
       -0.26803717 -0.73804826 -0.0162584 0.10738392
000170 cc 5b 4c 3e 1d 9c 03 be d1 89 76 3e c8 95 97 bf
       0.19956893 -0.12852521 0.2407601 -1.1842585

att_src f4 [1, 1, 32]
000000 66 27 06 bf 5a 8f 50 bf 1e 11 1a 3f da dd 3c 3f
       -0.5240387 -0.8146874 0.6018237 0.7377602
000010 ea b1 9b 3f d9 e7 a2 3f dc c1 24 3f a9 11 41 bf
       1.216367 1.2727004 0.64358306 -0.7541757
000020 33 a6 86 3f f2 a8 9c 3f 47 bd 8c 3f 7e 21 3c bf
       1.051947 1.2239058 1.0995263 -0.73488605
000030 c6 54 99 3f ce 52 28 3f f2 dc 9a 3f 95 2f 67 bf
       1.1978996 0.6575135 1.2098677 -0.9030698
000040 84 2d 39 bf e8 08 8c bf ce 65 04 3f 3e f5 0b bf
       -0.72335076 -1.0940218 0.5171784 -0.54671085
000050 84 db ab bf da c7 4a bf 16 ec 53 bf f3 1a 56 3f
       -1.3426366 -0.792112 -0.82782114 0.8363487
000060 bc d8 2c 3f ac 3f 39 bf 4b b2 44 bf ea 2a 53 3f
       0.6751821 -0.7236278 -0.76834553 0.82487357
000070 7f 4a 38 3f 54 18 9c bf 23 be 8e bf 92 c3 05 bf
       0.7198867 -1.2194924 -1.1151775 -0.5225154

att_dst f4 [1, 1, 32]
000000 6d 5c 98 3e 12 89 3d 38 68 5e 60 bc 1a 91 6c bd
       0.29758015 4.5188768e-05 -0.013694383 -0.057755567
000010 1d 60 cb 3e 14 46 d6 be 26 d1 f2 3d 8f be cd 3e
       0.39721766 -0.4185034 0.11856298 0.40184447
000020 4f b1 7c 3e ea ea 94 3e 78 41 a1 3d 3a f8 98 3d
       0.24677013 0.29085475 0.07873815 0.074692205
000030 9c b2 8b 3d 51 03 bc bd b6 eb 25 bd 24 3a 45 bd
       0.068211764 -0.0918032 -0.040507995 -0.04815115
000040 c0 ad 89 3e de 80 97 be 17 d6 70 be b4 60 a0 3c
       0.26890373 -0.29590505 -0.23519169 0.019577362
000050 76 30 b3 be 7c 47 5b 3e af 7e c4 3c ce c0 b7 be
       -0.3499791 0.21413988 0.023986189 -0.35889286
000060 9a 29 31 3e fc 71 ca be 8e d2 a7 3e c3 23 f2 bd
       0.17301026 -0.39540088 0.32777828 -0.11823227
000070 be 07 c1 3d dd 75 85 3e 18 f0 79 3d 19 26 41 3d
       0.09425305 0.26066485 0.061019987 0.047155473

bias f4 [32]
000000 b0 76 70 3f 3b 76 70 3f 4d 71 70 bf 36 26 70 bf
       0.939311 0.93930405 -0.93922883 -0.93808305
000010 00 00 00 00 40 72 70 3f 0d 15 70 bf 9d 76 70 bf
       0.0 0.9392433 -0.9378212 -0.9393099
000020 36 47 70 3f 00 00 00 00 be 5a 70 3f 0c 76 70 bf
       0.9385866 0.0 0.9388846 -0.93930125
000030 00 00 00 00 00 00 00 00 17 60 70 3f ff 74 70 bf
       0.0 0.0 0.9389662 -0.9392852
000040 56 65 70 bf d4 74 70 3f b4 74 70 bf 98 76 70 bf
       -0.93904626 0.93928266 -0.93928075 -0.9393096
000050 87 76 70 3f f3 72 70 bf 86 75 70 bf 99 75 70 bf
       0.9393086 -0.939254 -0.93929327 -0.9392944
000060 41 03 70 bf 8b 74 70 bf 5a 70 70 bf b6 74 70 bf
       -0.93754965 -0.9392783 -0.93921435 -0.93928087
000070 a8 72 6f 3f b8 48 70 bf eb 75 70 bf 79 71 70 3f
       0.93534327 -0.9386096 -0.9392993 0.93923146

weight f4 [32, 3]
000000 a3 02 0e 3f 25 4c 97 3f 00 36 a2 3f 8a e9 a0 3f
       0.55472773 1.1820112 1.267273 1.257127
000010 bc ef 06 3f f5 be 62 3f 37 09 4d bf 12 7b 8f bf
       0.52709556 0.8857263 -0.80092186 -1.1209433
000020 ba 5f 43 3f eb b8 5f 3f 56 e8 46 bf 48 91 33 3f
       0.7631794 0.8739154 -0.77698267 0.70143557
000030 76 31 9c bf 9f 71 41 3f 14 71 9d bf cb 9d 97 3f
       -1.2202594 0.75564 -1.2300134 1.184503
000040 7e 9e 51 bf d3 a6 4a 3f af 68 5f 3f de 18 3f bf
       -0.81882465 0.79160804 0.8726911 -0.7464732
000050 ff 24 1d 3f 74 80 46 bf 50 fb 37 3f 46 a7 33 bf
       0.61384577 -0.77539754 0.7186785 -0.70177114
000060 18 22 65 3f 04 5d 93 3f 28 8d a1 bf 30 29 90 bf
       0.8950515 1.1512761 -1.2621202 -1.126257
000070 3b 66 78 3f 85 0c a4 bf 19 7a 9e 3f f0 c5 17 bf
       0.9703099 -1.2816321 1.2381011 -0.59286404
000080 70 75 a6 bf 86 d2 89 bf ed 36 79 3f 20 b9 06 bf
       -1.3004589 -1.0767372 0.97349435 -0.5262623
000090 e0 c6 a2 bf 29 db 35 3f 32 23 8e bf 36 c2 4b 3f
       -1.2716942 0.71037537 -1.1104491 0.7959322
0000a0 02 1e 9c bf 2f 6f 71 3f 9f 16 46 3f 85 32 93 3f
       -1.2196658 0.9431028 0.7737827 1.1499792
0000b0 20 9a ac bf 84 f5 24 bf 2a 3a 75 bf 61 d8 83 bf
       -1.3484535 -0.6443713 -0.95791876 -1.0300409
0000c0 ab af 14 bf 03 86 8c 3f b1 6c 1b bf c4 8d a6 3f
       -0.5808055 1.0978397 -0.60712725 1.3012013
0000d0 84 5a 32 3f f6 dd 53 3f d9 cb 1e bf 94 da 48 bf
       0.69669366 0.8276056 -0.62029797 -0.78458524
0000e0 78 78 a7 bf f7 0f 89 bf 8a e8 9f bf fb d3 35 bf
       -1.3083639 -1.0707997 -1.249284 -0.7102658
0000f0 6b 55 6c 3f b8 38 85 3f 5d 5d 9e 3f 9b 8c 81 bf
       0.9231784 1.0407934 1.2372242 -1.0121034
000100 34 72 2a 3f 44 2d 39 bf e6 87 21 bf d4 5a 74 bf
       0.6658051 -0.72334695 -0.6309799 -0.9545109
000110 60 76 5d bf 9b 3d 34 bf 70 91 35 bf 3c 45 88 bf
       -0.8650875 -0.704065 -0.70925045 -1.0646129
000120 60 f9 0c 3f 3c 6a 0b bf 0f 3b 3d 3f a8 b6 7c bf
       0.55068016 -0.54458976 0.7391824 -0.9871621
000130 19 85 a4 3f 11 01 4c bf f0 62 9f bf 10 25 8d bf
       1.2853118 -0.7968913 -1.2452068 -1.1026936
000140 f1 3f 14 bf df 86 9c bf df 12 a0 3f 60 ff 57 bf
       -0.57910067 -1.2228659 1.2505759 -0.84374046
000150 64 8e 6f 3f 8a 9c 30 bf cc ab 2f 3f ce e8 0d 3f
       0.93576646 -0.6898886 0.68621516 0.55433357
000160 cd 74 97 bf b4 ac a2 3f 1e 70 46 bf 4b 14 65 bf
       -1.183252 1.2708955 -0.7751483 -0.8948409
000170 b6 66 59 bf 9c 6c 45 bf 3c a8 55 3f a2 7c 94 3f
       -0.8492235 -0.7711885 0.8345983 1.1600535

att_src f4 [1, 1, 32]
000000 f7 4e fd 3e 1f 65 3b 3f 3e b1 2c 3f d4 f7 3c 3f
       0.49474308 0.73201174 0.6745795 0.73815656
000010 83 a6 78 bf b0 d4 9e 3f a0 f2 41 3f 3e 7d 25 bf
       -0.97129077 1.2408657 0.7576084 -0.6464423
000020 0d 23 62 bf 25 66 56 3f e0 7a 41 3f 18 87 07 bf
       -0.88334733 0.8374961 0.7557812 -0.5294051
000030 b3 2a 50 3f 21 d8 7f bf a4 3d 3b bf 01 3e 7f 3f
       0.81315154 -0.9993916 -0.7314093 0.99703985
000040 f3 ca 87 bf 30 82 72 3f 7d 80 a4 bf 5f ec fc be
       -1.060881 0.947299 -1.2851712 -0.49399087
000050 d4 60 a8 bf ca 7c fc be 3c 0f 95 3f 3a 82 7a bf
       -1.315455 -0.49313956 1.1645274 -0.9785496
000060 73 ae 7e bf a6 6e 99 bf 36 ed ab 3f ec ff 06 bf
       -0.9948494 -1.1986892 1.3431766 -0.52734256
000070 b1 cf a6 3f 7c 00 11 3f a2 51 95 bf 32 6b 42 3f
       1.3032132 0.56641364 -1.1665537 0.7594482

att_dst f4 [1, 1, 32]
000000 8e 00 73 3e 70 b1 6d be 63 66 06 3e d1 c5 3c 3e
       0.2373068 -0.23212218 0.13124995 0.18434836
000010 73 f1 c2 3e 47 26 d4 3e 9a c8 37 be 01 b8 85 3e
       0.38074836 0.41435453 -0.17947617 0.26116946
000020 0c 32 e3 3c 0c cd c3 3e f1 c2 14 bc 3d 2d 90 be
       0.027733825 0.38242376 -0.009079681 -0.28159514
000030 8b 1d d6 be 39 8c a6 3e 1e a7 bb be b2 f8 34 bd
       -0.41819414 0.32528856 -0.36650938 -0.044182487
000040 12 11 89 bd f8 85 6e be 5f 81 14 bc 51 c1 8b 3e
       -0.06692709 -0.23293293 -0.009064048 0.27295926
000050 4f 14 65 3e 75 83 c6 be 6c b9 c6 bd 95 46 a5 be
       0.22371028 -0.3877217 -0.09703335 -0.32280412
000060 45 ce c5 3d 2f 16 cf be d4 ba 1c 3e e0 6d de 3d
       0.096584834 -0.40446612 0.15305644 0.10860801
000070 7e 59 c8 be 16 8d 82 be 18 10 b5 be 58 35 19 3e
       -0.39130777 -0.25498265 -0.3536384 0.14961755

bias f4 [32]
000000 00 00 00 00 00 00 00 00 00 00 00 00 56 1b 6e 3f
       0.0 0.0 0.0 0.9301046
000010 7d 36 70 bf 00 00 00 00 00 00 00 00 72 50 70 bf
       -0.9383314 0.0 0.0 -0.9387275
000020 f6 19 70 bf 00 00 00 00 00 00 00 00 f8 48 70 bf
       -0.93789613 0.0 0.0 -0.9386134
000030 00 00 00 00 72 1e 70 3f 20 4a 70 3f 00 00 00 00
       0.0 0.93796456 0.93863106 0.0
000040 f3 f1 6f bf 00 00 00 00 a1 d4 5d 3f a7 74 6c bf
       -0.9372856 0.0 0.8665257 -0.923655
000050 83 56 70 bf 8b ed 6f 3f eb 32 70 bf da 06 70 bf
       -0.93882006 0.93721837 -0.93827695 -0.93760455
000060 c8 39 70 3f e7 de 6e bf db ff 6f 3f f3 ab 6e bf
       0.9383817 -0.9330887 0.9374978 -0.93231124
000070 00 00 00 00 00 00 00 00 ad 57 70 bf 00 00 00 00
       0.0 0.0 -0.9388378 0.0

weight f4 [32, 1]
000000 87 bd 51 3f c5 ae 5e 3f e6 d4 0c 3f 43 13 00 3f
       0.8192982 0.8698543 0.5501236 0.5002939
000010 7b 91 29 bf 49 24 98 bf 36 fc 4f 3f ff 4f 16 bf
       -0.6623761 -1.1886073 0.8124422 -0.58715814
000020 c6 42 29 bf 1f ba 6d bf 2a cf 04 3f 0e c6 54 bf
       -0.66117513 -0.92862123 0.5187861 -0.8311471
000030 a7 f5 0e 3f 4b bc 8c 3f 27 5c 97 3f cc 86 94 bf
       0.55843586 1.0994962 1.1824998 -1.1603637
000040 20 25 5b bf 1a 4e 7b bf c9 8a a9 3f f8 94 59 bf
       -0.85603523 -0.9816605 1.3245479 -0.84992933
000050 8a 66 13 bf 65 1c 40 bf 2b cb 85 bf d0 b7 fe be
       -0.5757834 -0.75043327 -1.0452627 -0.49749613
000060 f9 b4 74 3f 7c 52 a2 3f ba 85 8e bf 82 51 12 bf
       0.9558864 1.2681422 -1.113456 -0.5715562
000070 85 35 8b bf de cc 0e 3f 98 8b 1e bf f2 c2 1d 3f
       -1.0875708 0.5578135 -0.61931753 0.6162559

weight f4 [32, 3]
000000 b3 25 fd 3d fd 55 c0 3e 02 72 a1 3e b1 dc 35 bd
       0.12360706 0.37565604 0.31532294 -0.04439992
000010 3f a0 aa be 42 00 96 be 02 ac d1 be 97 b0 e5 3d
       -0.33325383 -0.29297072 -0.40951544 0.112153225
000020 16 94 8a be f5 bf d3 3e 1a 4a 11 be 25 a2 d1 be
       -0.27066106 0.4135739 -0.14188424 -0.4094402
000030 6a 78 87 3d ff 11 8a 3d d9 24 cf 3e 67 bd bf 3e
       0.06614764 0.06741714 0.404578 0.3744919
000040 79 d3 95 3e 56 c5 9f 3e 48 1c 3f be 38 3c be 3e
       0.29262903 0.31205243 -0.18663132 0.37155318
000050 1b 53 90 3d cc 77 d2 3e a7 b4 6e 3e a5 bf 26 be
       0.07047101 0.41107023 0.23311101 -0.16284044
000060 21 da 4a be a7 55 b5 3d cc 56 81 be d0 6c a7 3e
       -0.19809772 0.088542275 -0.25261533 0.32700205
000070 ab fa 08 3c 4c 44 98 3e eb 5d aa 3c e2 48 06 3e
       0.008360545 0.29739606 0.020796737 0.1311374
000080 7c e2 ca be 74 c4 e3 bd 05 4f 62 3e 39 89 42 bd
       -0.3962592 -0.11121455 0.22100456 -0.047494147
000090 04 cf a8 3e fe 3d a4 be ec 43 0c 3e b4 c1 c5 be
       0.3297044 -0.32078546 0.13697785 -0.38624346
0000a0 45 a0 3e bd 2e e4 4c 3e 52 c9 81 3d ff cc 8b 3e
       -0.046539564 0.20008919 0.06337227 0.27304837
0000b0 6e fb 64 be 61 8b b9 be 94 2e d3 3e 81 5e f1 3d
       -0.22361538 -0.3623915 0.41246474 0.11785603
0000c0 28 4e f1 3c ba 45 97 be fe 5e a3 be f8 db 79 3e
       0.029456213 -0.29545385 -0.3190841 0.24400318
0000d0 95 22 d1 3e f8 89 59 bd 93 b0 93 3e 0a 7c 05 3e
       0.40846696 -0.053110093 0.28845653 0.13035598
0000e0 6c 88 d0 be 1b f4 58 3e eb 40 c9 3e 3b 8f 7a bd
       -0.40729082 0.21186869 0.3930734 -0.06117175
0000f0 a2 ba 42 be 0a d9 a1 be 2f ec 19 be e6 88 7b be
       -0.19016507 -0.316109 -0.15031503 -0.24563941
000100 98 2a 31 be c8 dc b8 3e d7 29 55 be dc 83 0e bc
       -0.17301404 0.36105943 -0.20816742 -0.00869843
000110 e6 ad c9 3e 7d 08 98 be 2e bc 60 be 55 b8 8a 3e
       0.39390486 -0.29693976 -0.21946785 0.2709376
000120 a9 13 bb 3e 37 04 95 3e 5c 7a 6f be f7 dd 46 be
       0.36538437 0.29104778 -0.2338652 -0.1942061
000130 e8 fa bb 3e 6d fb a4 be c2 28 b0 3c 26 e8 6b 3e
       0.36714864 -0.32223073 0.02150381 0.23037776
000140 7d 6f f5 bc a1 1e bb 3e 85 fd 04 3e 9b 7f bb bd
       -0.029960388 0.36546806 0.12987335 -0.09155198
000150 ad 5c 30 be 8d 04 85 3e 86 5d a6 3e 66 09 3f be
       -0.17222853 0.25980034 0.32493228 -0.18655929
000160 85 66 91 be 90 86 b4 be 84 0f ba be 9b 77 a5 bb
       -0.2839853 -0.35258913 -0.36339962 -0.0050496585
000170 76 91 ec bd cf df 51 3d 19 ec 83 3e a8 36 97 bc
       -0.11551182 0.05123883 0.25766066 -0.01845868

att_src f4 [1, 1, 32]
000000 56 80 6c bf 13 11 8f 3f 77 32 84 3f 7f 6f 8f 3f
       -0.92383325 1.1177086 1.0327901 1.1205901
000010 90 fe 3f 3f 0d cf 6c 3f 80 26 2a bf 2a 37 27 3f
       0.74997807 0.92503434 -0.66464996 0.6531855
000020 e4 20 28 3f 1c c8 25 3f ca ed 20 3f 5c 32 08 bf
       0.6567519 0.6475847 0.6286284 -0.5320184
000030 5f c9 5d 3f aa da 4f 3f 86 16 84 bf 33 af 0b 3f
       0.8663539 0.8119303 -1.0319374 0.5456421
000040 92 21 3b bf 82 13 7e 3f 0c c9 a1 3f d5 3c 48 3f
       -0.730981 0.99248517 1.263948 0.7821782
000050 02 34 a5 3f 77 9b 13 bf 67 16 9b 3f f0 9a 85 3f
       1.2906497 -0.57659096 1.2116212 1.0437908
000060 af e7 06 bf 8a ab a5 bf 0a a8 70 3f 1c 09 41 3f
       -0.5269727 -1.2942975 0.9400641 0.75404525
000070 4b 16 ad bf 26 08 aa bf 12 db 6b bf 56 ad 3f bf
       -1.3522428 -1.3283737 -0.9213115 -0.74873865

att_dst f4 [1, 1, 32]
000000 e1 7e 85 bf cd 6c a0 bf 0a 89 05 bf 7e 43 74 bf
       -1.0429345 -1.2533203 -0.5216223 -0.95415485
000010 db 4a 99 3f 3f 21 a6 bf f3 80 0f 3f e8 f1 96 3f
       1.1975969 -1.2978896 0.56056136 1.1792574
000020 38 44 7f 3f ee 17 16 3f e5 21 6b bf 3c 17 3f 3f
       0.9971347 0.58630264 -0.91848594 0.7464483
000030 02 8a 8e bf 9e 8e 7b 3f 1e e7 9e bf 27 0d 89 3f
       -1.1135867 0.9826449 -1.2414281 1.0707139
000040 3a 54 99 bf 17 0b 8e 3f 10 ef 01 3f 02 e4 ab bf
       -1.1978829 1.1097134 0.50755405 -1.3428957
000050 c0 03 0f bf 06 c4 30 3f 34 cf 75 bf bd fc 9c bf
       -0.558651 0.6904911 -0.9601929 -1.226463
000060 1e 74 48 3f b0 ed 0b bf a6 d1 98 bf 8c 9d 44 3f
       0.7830218 -0.5465956 -1.193898 0.768029
000070 f8 5f 42 3f d2 4f 03 3f b5 0c a1 3f 42 15 8a 3f
       0.75927687 0.5129367 1.2582003 1.0787737

bias f4 [32]
000000 09 61 70 bf 90 73 70 3f 53 76 70 3f 2e 60 70 3f
       -0.93898064 0.93926334 0.9393055 0.9389676
000010 75 71 70 3f cc 70 70 bf e0 43 70 bf 65 76 70 3f
       0.9392312 -0.93922114 -0.9385357 0.93930656
000020 fd 6e 70 3f 01 76 70 3f 6c 74 70 bf 30 69 70 3f
       0.93919355 0.9393006 -0.93927646 0.93910503
000030 be 70 70 bf 87 76 70 3f 00 00 00 00 d7 75 70 3f
       -0.9392203 0.9393086 0.0 0.9392981
000040 32 70 70 bf b5 2d 70 bf 0d 6c 70 bf ff 75 70 bf
       -0.93921196 -0.93819743 -0.9391487 -0.9393005
000050 53 75 70 bf 00 00 00 00 fb 49 70 3f e0 76 70 3f
       -0.9392902 0.0 0.93862885 0.9393139
000060 9a 75 70 bf 62 76 70 3f 64 75 70 3f 66 6c 70 3f
       -0.93929446 0.9393064 0.93929124 0.939154
000070 00 00 00 00 d4 73 70 3f 46 c6 6e 3f 00 00 00 00
       0.0 0.9392674 0.9327129 0.0

weight f4 [32, 3]
000000 f4 3b 68 bf b2 d1 3e 3f 2c 59 9f bf 0f 40 80 bf
       -0.9071648 0.7453872 -1.2449088 -1.0019549
000010 d6 ba a2 3f 9c c3 84 3f cc 10 71 3f 6f a7 a9 3f
       1.2713268 1.0372195 0.94166255 1.3254222
000020 bd 91 76 3f df dc a5 3f dc f7 50 3f 4e e3 90 3f
       0.9631613 1.295803 0.81628203 1.1319368
000030 ce 2a 38 3f 75 49 82 bf 28 ce a7 3f b7 28 6a bf
       0.71940315 -1.0178667 1.3109789 -0.91468376
000040 fa d9 25 bf e5 6f 73 bf ae 86 06 3f 9c 61 51 3f
       -0.6478573 -0.9509261 0.52549255 0.81789565
000050 c0 19 66 3f 09 6d 86 3f 18 b2 a8 bf d0 88 91 3f
       0.8988304 1.0502025 -1.317935 1.1369877
000060 ee 6f 54 bf cb 35 17 3f 20 7a ab 3f be 6c 4a 3f
       -0.8298329 0.59066457 1.3396645 0.7907218
000070 db 11 75 bf f3 ce aa 3f dd aa 50 bf 20 d0 0e 3f
       -0.9573037 1.3344406 -0.81510717 0.55786324
000080 db e9 35 bf 05 9f 93 3f 82 4b 83 bf 52 46 53 3f
       -0.7105996 1.1532904 -1.0257418 0.82529175
000090 48 52 88 bf 98 35 51 bf 20 e3 12 bf 2c aa 93 3f
       -1.065011 -0.817224 -0.57377815 1.1536307
0000a0 63 bc 0c 3f 8d 82 99 3f 70 7a 57 bf 47 86 65 bf
       0.54974955 1.1992966 -0.841712 -0.89658016
0000b0 ec aa 8b bf da 7f 16 3f cf ce 8f bf 00 1e 90 3f
       -1.0911536 0.58788836 -1.1234988 1.1259155
0000c0 94 9a 3f bf 06 c8 a9 3f 58 07 8e bf 62 6c 47 bf
       -0.7484524 1.3264167 -1.1095991 -0.77899754
0000d0 a9 21 a0 3f 9a a7 93 3f 46 ad 6f 3f a8 63 53 bf
       1.2510272 1.1535523 0.9362377 -0.8257394
0000e0 47 7a 2a bf b4 e8 a0 bf dc 17 94 bf ab f8 31 bf
       -0.6659283 -1.2571015 -1.1569781 -0.6952006
0000f0 6c 7c 0f bf 9a 13 a1 3f 95 48 81 bf 7e 72 7c 3f
       -0.5604923 1.2584107 -1.0100275 0.986122
000100 18 25 94 3f 2e 20 31 3f 2c 5a a2 3f b7 af 99 bf
       1.157382 0.6918973 1.2683768 -1.2006749
000110 bb 5e 91 3f 16 a8 9e 3f d1 5b 84 3f b5 fe 88 3f
       1.1357034 1.2395046 1.034052 1.070273
000120 c7 68 16 bf e4 6c 4a bf 2c cd a1 bf e7 79 61 3f
       -0.5875363 -0.79072404 -1.2640738 0.88076633
000130 dd a0 3f bf 7c dd 28 3f 4f 5b 81 3f 04 61 95 3f
       -0.7485483 0.6596296 1.010599 1.1670232
000140 b1 62 9c 3f ae dc 55 3f 78 fd aa 3f 44 fa 25 bf
       1.2217618 0.83539855 1.3358603 -0.64835
000150 00 be 92 bf 11 f1 0e bf 5d 05 81 bf 4b e5 99 bf
       -1.1464233 -0.5583659 -1.0079762 -1.20231
000160 3c 5a 84 bf 51 42 47 3f c3 89 2b 3f 2b 41 42 3f
       -1.0340037 0.77835566 0.6700708 0.7588069
000170 d7 cc 58 3f 72 7f 73 3f 2f f2 3e 3f 00 8a 09 3f
       0.8468756 0.9511634 0.7458829 0.53726196

weight f4 [32, 1]
000000 7c be 7a 3f bc 04 7a 3f ce 21 36 bf 02 e6 8b 3f
       0.97946906 0.97663474 -0.7114533 1.0929568
000010 23 27 78 bf ea e5 a2 3f 9e 40 42 3f ec dc 99 bf
       -0.9693472 1.2726414 0.7587985 -1.2020545
000020 cb 92 9a bf a4 2b 14 3f 1c 1c 22 bf 8c 71 09 3f
       -1.2076048 0.5787909 -0.6332414 0.53688884
000030 ec ac 94 3f d9 f1 9a bf ba 22 a3 3f a0 c7 a1 bf
       1.1615272 -1.2105056 1.2744973 -1.2639046
000040 94 d4 91 3f 01 c9 a8 bf cc 72 48 3f e6 27 ae 3f
       1.1392999 -1.3186342 0.78300166 1.3605926
000050 ba 79 59 bf ef 20 6d 3f 6c 19 96 3f e8 d9 8d 3f
       -0.84951365 0.9262838 1.1726508 1.1082125
000060 26 87 38 3f 29 b7 28 bf e8 8d a2 3f 38 ca 09 3f
       0.7208122 -0.6590448 1.2699556 0.53824186
000070 4b b6 6a 3f f7 1e 6b 3f c0 d1 92 bf 99 76 82 bf
       0.91684407 0.91844124 -1.1470261 -1.0192443

att_src f4 [1, 1, 32]
000000 cc b2 b3 3d 3f 93 7a 3d 74 79 cb be c8 3c 14 be
       0.08774337 0.06117558 -0.397411 -0.14476311
000010 59 37 a7 be 3f 35 52 bd a3 75 35 3e 6b b4 8f be
       -0.32659414 -0.05132031 0.17720656 -0.28067335
000020 fa 1b 06 3d e8 e8 2c 3e ed a1 f6 bd 7a 06 66 3e
       0.032741524 0.16885722 -0.12042604 0.22463408
000030 fc ca 98 be 28 10 15 bd 38 a3 62 bd 47 1f a2 be
       -0.29842365 -0.03639236 -0.05533144 -0.31664488
000040 78 09 17 3e e7 09 9e 3e 0a 6f 1f 3e f0 ab c6 3e
       0.14749706 0.3086693 0.15569702 0.38803053
000050 91 1d 9b 3e 83 33 73 be 31 05 29 3d 05 91 9f bd
       0.30295995 -0.23750119 0.041264717 -0.07791332
000060 d5 4b be 3d 03 8f 17 bd 01 a7 a6 be 6c 9c 82 3e
       0.092918076 -0.03700162 -0.3254929 0.25509965
000070 37 df 04 bd 32 b7 b4 3e ef 93 75 3d 0f 29 c8 bd
       -0.032439437 0.35296017 0.059955534 -0.09773456

att_dst f4 [1, 1, 32]
000000 c2 b4 68 3c 18 4d 27 3d 37 ea 31 be cf 3b a3 3e
       0.014203252 0.040845007 -0.17374502 0.31881568
000010 d0 e2 28 3d a3 f3 0c bd 71 b1 b7 3d ae a6 d4 be
       0.04123193 -0.034412038 0.08969391 -0.41533417
000020 03 cc 94 3e ce af 4b 3e 4b c0 1d 3e 23 fe b8 be
       0.290619 0.19891283 0.15405385 -0.3613139
000030 0f c4 38 3e 91 b5 0c be 88 94 2d 3e 80 10 d9 3d
       0.1804354 -0.13741137 0.16951191 0.1059885
000040 9c f1 ac bd 24 fa 10 bd a7 61 5b 3e 47 27 06 bd
       -0.08444521 -0.035394803 0.2142397 -0.0327523
000050 72 07 bd 3b bd e2 1c be 85 49 26 3e 1e 27 06 3e
       0.00576871 -0.15320869 0.16238983 0.1310086
000060 c7 8d a6 be 1d 5e 4f 3e 39 d1 9c be 67 1c 6c 3e
       -0.32530043 0.20250745 -0.30628374 0.2305771
000070 52 e8 83 be 88 31 d6 be a6 ff c8 be c5 63 8b be
       -0.25763184 -0.41834664 -0.39257544 -0.27224556

bias f4 [32]
000000 17 52 70 3f 96 76 70 3f 00 00 00 00 c1 76 70 3f
       0.9387526 0.9393095 0.0 0.93931204
000010 d7 72 70 3f 4f 5b 70 bf a2 74 70 3f 00 00 00 00
       0.9392523 -0.93889326 0.9392797 0.0
000020 6d 76 70 3f 00 00 00 00 3b 73 70 3f 96 76 70 3f
       0.93930703 0.0 0.9392583 0.9393095
000030 00 00 00 00 64 65 70 bf a1 62 70 3f a1 76 70 bf
       0.0 -0.9390471 0.93900496 -0.93931013
000040 df 76 70 3f 1f 65 70 3f 99 76 70 3f 69 76 70 3f
       0.9393138 0.939043 0.93930966 0.9393068
000050 04 75 70 3f 00 00 00 00 c8 76 70 bf 9b 76 70 3f
       0.9392855 0.0 -0.93931246 0.9393098
000060 eb 72 70 3f 8b 75 70 3f b8 76 70 bf a9 5c 70 3f
       0.9392535 0.93929356 -0.9393115 0.9389139
000070 98 76 70 bf 00 00 00 00 07 76 70 3f 51 66 70 bf
       -0.9393096 0.0 0.93930095 -0.9390612

weight f4 [32, 32]
000000 8d cf 52 3f 12 73 2f bf 0f ea 4f 3f ec 88 36 3f
       0.8234795 -0.6853496 0.8121652 0.71302676
000010 a4 a6 70 3e f7 ab 92 bf d2 f1 88 3f 41 ad 37 bf
       0.23501068 -1.145873 1.0698798 -0.7174874
000020 bc b6 23 3f f6 2c 87 3e 65 e8 7f bf f6 dc 29 bf
       0.63950706 0.2640149 -0.9996398 -0.66352785
000030 de c1 1b 3c a0 fb bc 3d 22 10 7a 3f 4e 44 4d bf
       0.009506671 0.09227681 0.97680867 -0.8018235
000040 8e 2d 61 bf 4c 8e 32 bf 2b 1f 83 3f 25 a7 83 bf
       -0.87960136 -0.6974838 1.0243887 -1.0285383
000050 74 aa 50 bf de be 7d bf 96 6b 2b bf 2a 03 29 bf
       -0.8151009 -0.99119365 -0.6696104 -0.6602045
000060 3b c3 54 3f af e8 6b bf 19 b6 9a 3f 1b 85 79 3f
       0.831104 -0.9215192 1.2086822 0.9746873
000070 b4 7b 8b 3f 93 25 67 3f 12 65 8f bf 08 a7 99 bf
       1.0897126 0.9029171 -1.1202719 -1.2004099
000080 d8 86 5a 3f 06 f8 76 3f 75 75 45 bf a7 7e ef bc
       0.85362005 0.96472204 -0.7713235 -0.029235197
000090 63 47 23 3e 7e e8 2b bf 49 88 1c be 56 18 5f 3f
       0.159452 -0.6715163 -0.15286364 0.8714651
0000a0 e2 db 7f be 0e ec 81 bd b0 eb 8d bf eb cf 6a 3f
       -0.24986222 -0.06343852 -1.1087551 0.9172351
0000b0 e2 55 8e 3e b6 dd e2 bd 6d bf 7c 3d b8 69 42 3f
       0.27799898 -0.11077444 0.061705995 0.75942564
0000c0 fe 4e 3a 3f 6c d1 54 3f 54 79 86 bf 4b 33 58 3f
       0.7277678 0.8313205 -1.0505776 0.84453267
0000d0 1f 85 7b 3f 40 78 27 3f 43 da 99 3f a2 6d 5e bf
       0.9825 0.6541786 1.2019733 -0.86886036
0000e0 ec 2f 50 bd 0a 16 40 3f f9 a3 50 3f c4 97 8e 3f
       -0.05082695 0.7503363 0.815002 1.1140065
0000f0 e7 58 8b 3e be 29 43 3f 4a 8b 4b 3f 68 a5 36 3f
       0.27216265 0.7623557 0.79509413 0.7134614
000100 a5 5c 09 bd 30 23 9c 3e 5b 78 4e be 0a 43 4a 3e
       -0.03353562 0.30495596 -0.201631 0.19752136
000110 a7 8b 7a be e2 e8 3f 3d f4 bd 7a 3e 06 82 2b be
       -0.24467336 0.046852954 0.24486524 -0.16748819
000120 59 53 72 3e cb 5d 8f be 9c 11 9c bd c2 ea 75 3e
       0.23664607 -0.28001246 -0.07620546 0.24015334
000130 b0 c3 0d be 1e 62 9a be 8f 82 57 be 61 aa 8b be
       -0.1384418 -0.30152982 -0.21045898 -0.27278426
000140 94 96 e0 bd a0 f8 1b be 75 ac 9c 3e a1 71 fd bc
       -0.109662205 -0.15231562 0.30600324 -0.030937972
000150 48 9c 14 3e bf 72 89 3e 9d 6b d4 3d 76 19 91 3d
       0.14512742 0.26845357 0.10372088 0.070849344
000160 df fe c3 3d 56 5c 7a be 15 1d b8 3b e2 a7 6b be
       0.09570097 -0.24449286 0.005618701 -0.23013261
000170 c7 88 54 3e 59 90 40 be b8 bb d6 bd f6 be 6c 3d
       0.20755301 -0.18805064 -0.10485023 0.057799302
000180 66 ae 7e 3f e8 70 97 3f 15 5d 57 bf ba e9 7b 3f
       0.9948486 1.1831331 -0.84126407 0.98403513
000190 6b 42 22 3e d4 eb 32 3f b8 5f 40 3f c8 51 32 3f
       0.15845649 0.69891095 0.75146055 0.6965604
0001a0 f5 0e 85 3f 45 6c b4 3c 8b 83 8d bf 64 b2 24 3f
       1.039519 0.022024283 -1.1055769 0.643347
0001b0 71 df 2b 3e a1 2c 9a 3d 80 bc 56 3f 68 7d 83 3f
       0.16784455 0.075280435 0.8388138 1.0272646
0001c0 3d 68 8c 3f 61 09 80 3f bc b0 82 bf ca 13 77 3f
       1.0969311 1.0002862 -1.0210185 0.9651457
0001d0 40 5d 8a 3f ef f7 5f 3f ae 50 95 3f 5c 6a 60 3f
       1.0809708 0.8748769 1.1665246 0.8766229
0001e0 d6 b7 2f 3f 94 b3 87 3f 66 21 8e 3f ae bd 38 3f
       0.68639886 1.0601678 1.1103942 0.7216443
0001f0 3d 39 66 3f 2a 72 57 3f 57 67 51 3f f0 e4 57 3f
       0.8993109 0.84158576 0.8179831 0.84333706
000200 8a 68 3f 3f 0c 3d 77 3e 35 6e 93 be af c5 fa bc
       0.7476889 0.24144381 -0.2879502 -0.030611841
000210 51 e4 3e be be 9d 93 3f d0 de b3 3c 4f 59 6b 3f
       -0.18641783 1.1532514 0.021956831 0.9193315
000220 31 c2 4b 3c 55 c6 59 3e 3f a7 9c 3f ae 1d 98 3f
       0.012436436 0.21267064 1.223854 1.1884058
000230 66 92 9b 3e 54 dc 0a be d8 c2 19 bc 11 f6 75 3f
       0.3038513 -0.13560611 -0.009384833 0.9607859
000240 2e 85 67 3f 80 ec 13 3d 48 b7 26 be 32 ed 32 3f
       0.9043759 0.036114216 -0.16280854 0.6989318
000250 ce ad 88 3f 04 25 46 3f 50 dc 35 3f 4d e4 6d 3f
       1.0678041 0.7740023 0.71039295 0.92926484
000260 e2 39 62 be 20 3e 75 3f 38 41 98 3f df 16 6c 3f
       -0.22092393 0.9579792 1.1894903 0.922224
000270 43 e6 82 be 19 23 57 3f ed e2 97 3f 52 f1 5c 3f
       -0.255663 0.8403793 1.1866127 0.86305726
000280 78 14 88 bf e2 fd 6d 3e 2c 71 3e 3e 85 d0 55 be
       -1.0631247 0.2324138 0.18597859 -0.20880325
000290 8e ad 82 be ec b2 77 bf db d5 17 3e f4 97 93 bf
       -0.25523037 -0.9675739 0.14827673 -1.1530747
0002a0 05 ac dd bd fd 01 12 3b 11 af 78 bf c1 45 8e bf
       -0.10823826 0.0022279017 -0.9714213 -1.1115037
0002b0 cf 73 cb 3d c4 c4 30 be 13 0f ba 3d 45 42 8b bf
       0.09934198 -0.1726256 0.090849064 -1.0879599
0002c0 d8 b7 4f bf 95 a1 fd bd ab ff 85 be f8 40 9b bf
       -0.811399 -0.12384335 -0.26171622 -1.2129202
0002d0 72 e0 97 bf 76 09 54 bf c6 34 34 bf cb 4b 7d bf
       -1.186537 -0.82826936 -0.70393026 -0.98943776
0002e0 0d 49 d2 bc c7 1b 95 bf ef c8 39 bf fd 2e 6f bf
       -0.025669599 -1.1649102 -0.72572225 -0.93431073
0002f0 7f d9 28 3e de 0d 87 bf 3a 1e 99 bf da c1 70 bf
       0.16489218 -1.0551107 -1.196235 -0.94045794
000300 f3 bc 39 3f c3 ba 92 bf bb 30 8d bf 83 ad 30 3f
       0.7255394 -1.1463245 -1.1030496 0.6901476
000310 32 18 a0 3d fd ca 85 bf 33 76 9c 3f e4 4b 5d 3f
       0.07817115 -1.0452572 1.2223572 0.86443925
000320 46 21 3a 3f 05 c5 9a 3e 63 8a 8a bf 3b 3f 9b 3f
       0.7270702 0.3022844 -1.0823482 1.2128671
000330 8c 00 44 be 4a 95 d2 3d 77 e5 5b 3f 1f fe 8b bf
       -0.19140834 0.10282381 0.8589701 -1.0936927
000340 73 25 67 3f a9 0f 2b bf 9a 29 67 bf 03 19 3c 3f
       0.9029152 -0.6682077 -0.90297854 0.73475665
000350 06 e8 5c 3f a5 df 43 3f f4 0e 6c 3f 2b 90 8f bf
       0.8629154 0.7651313 0.92210317 -1.1215872
000360 5c 5a 4c 3f c7 b5 8b 3f 7c a2 28 3f fc 7d 3e 3f
       0.7982538 1.0914849 0.6587293 0.74410987
000370 30 b6 28 3f 43 ca 92 3f f4 80 5d 3f eb 25 97 3f
       0.65902996 1.1467975 0.8652489 1.1808447
000380 a7 f2 df 3d c4 39 15 be aa 4e 9b bc ec 3d 3b be
       0.10934954 -0.14572817 -0.018958408 -0.1828534
000390 40 7c 4d be 0a 6a 01 be ed 75 26 3d 72 a1 2a bd
       -0.20066929 -0.12638107 0.040639807 -0.041657872
0003a0 fd 49 bf bd bf 8a 22 3d 5d 55 9a 3e f6 5e 87 3d
       -0.09340284 0.0396831 0.30143252 0.06609909
0003b0 78 7e 68 bc 60 31 85 bd b4 0e 38 be bf 03 04 3e
       -0.014190309 -0.06503558 -0.17974359 0.12892054
0003c0 dd 5c 76 be 57 43 89 3e 12 45 56 bd 2c 21 75 3d
       -0.24058862 0.2680919 -0.052311964 0.05984609
0003d0 37 ca 92 bd 2b a6 7f be e9 98 93 bc 9c be 93 3e
       -0.07167476 -0.24965732 -0.01801725 0.2885636
0003e0 fd e0 92 bd 8a 81 96 3e 81 5e 3c 3e 4e fb 8b 3e
       -0.07171819 0.29395705 0.18395425 0.27340168
0003f0 2b 07 99 be 70 a1 95 be 99 22 8a be 48 c7 32 3e
       -0.2988828 -0.2922473 -0.2697952 0.17458832

weight f4 [32, 32]
000000 d4 56 0b 3e d9 8e e4 bd 5b 89 77 3e 7d c5 9a 3e
       0.13607341 -0.111600585 0.2417349 0.30228797
000010 cc 27 8e be 6b 29 25 be 32 44 13 3e ae 67 22 3e
       -0.27764738 -0.16129081 0.14381483 0.15859863
000020 cf 37 54 be 8b 53 7d bd 90 4a 54 be ae d2 19 3e
       -0.20724414 -0.06184725 -0.20731568 0.15021774
000030 17 30 42 3d 99 75 8c 3e 51 fd 20 be b7 46 7e 3e
       0.047409143 0.2743347 -0.15721633 0.24831663
000040 4c 2d 45 be c6 2c 4c 3e 03 a5 87 3e 9d 45 7c 3e
       -0.1925556 0.19938955 0.2649308 0.2463593
000050 5c c9 cc 3c 16 3a 3f 3d ba 6d 21 3e 1f b5 97 bd
       0.02499836 0.046686254 0.15764514 -0.07407593
000060 cd 4a ea bd 1e 0e 81 be c4 11 71 3e dd 38 0d bd
       -0.11440048 -0.25206083 0.23541933 -0.034478057
000070 ee c2 4e 3e fd a8 64 be 68 3d 0c bd d0 be c2 bd
       0.20191547 -0.22330089 -0.03423825 -0.09509051
000080 47 6a 62 bd c6 8c 8e 3e 17 ed 1f 3e 64 0f 9a bc
       -0.055277135 0.27841777 0.15617786 -0.018806167
000090 0c 9b 78 be f7 6d 24 be 6e ec 36 3c dd 64 00 be
       -0.24277896 -0.16057573 0.011164768 -0.12538476
0000a0 cf 4d a9 bd 6e 8c 8b 3d bb 6b c3 3d b4 3a de 3c
       -0.08266794 0.06813894 0.09542032 0.027127601
0000b0 8c 9c ac 3d a0 32 12 3e d8 2b 4a 3d 13 10 72 bd
       0.084282964 0.14277124 0.04935822 -0.05909736
0000c0 19 18 7e be a8 09 78 be 90 72 47 be cd 51 86 be
       -0.2481388 -0.24222434 -0.19477296 -0.26234284
0000d0 64 b5 9f 3d f9 57 98 3e c0 d6 40 3d e5 5f 2e 3e
       0.077982694 0.29754618 0.0470798 0.17028768
0000e0 5e aa 1c be a9 f2 6f 3d f9 52 d5 3d 12 cf 64 be
       -0.15299365 0.058581028 0.104162164 -0.22344616
0000f0 9b 1a a4 3d 1c e1 1f 3e 18 df f2 3b 71 8d ce 3c
       0.08012887 0.15613216 0.0074118488 0.025213929
000100 84 cd 26 be a7 6f 5c bc a8 4e 39 bc a4 ac 94 3e
       -0.16289335 -0.013454354 -0.011310257 0.29037964
000110 92 5a 70 3c f9 22 11 be 1d 1c f8 3c d2 4c 54 3d
       0.014670031 -0.14173497 0.030286843 0.051831074
000120 fb 2f ce bc 66 6a 90 bd b3 d0 1b be 70 ad 82 be
       -0.025169363 -0.07051544 -0.15216331 -0.25522947
000130 35 1c 2e 3e 33 05 91 3e f1 85 4a be 3e d3 e6 bd
       0.17002948 0.2832428 -0.19777657 -0.1127076
000140 53 1d 8d be e0 a8 36 be e8 8f 10 be 20 78 87 be
       -0.27561435 -0.17837858 -0.14117396 -0.26458836
000150 cf bf 5f 3e 46 6b 80 3d e6 73 0e 3e 18 d8 b5 3c
       0.21850513 0.06270461 0.13911399 0.022197768
000160 c8 d8 99 be d0 00 42 3e 42 ba 42 bd 42 e6 39 bd
       -0.30048203 0.18945622 -0.04754091 -0.045385607
000170 49 d7 6b be f1 c0 ed bd 52 50 9e bd ff b6 dc 3d
       -0.23031344 -0.11609066 -0.07730164 0.10777091
000180 15 06 06 be 74 37 33 be 3c f4 86 3e 1b ae 13 3e
       -0.13088258 -0.17501622 0.2635821 0.14421885
000190 52 0b 61 3e 30 2a 28 3e 05 11 0a be e7 7f 61 be
       0.21976975 0.16422343 -0.13483055 -0.22021447
0001a0 d7 1f 4f 3d da f4 0b be 99 09 c1 bd b8 e7 82 bd
       0.050567474 -0.13667622 -0.09425659 -0.06391853
0001b0 ea cd 4a 3e 8e 0d 56 3e a0 24 25 bd b2 4a 52 bd
       0.19805112 0.20903608 -0.04031813 -0.051340766
0001c0 ad 9b 15 be 1f f1 94 3d f0 dd 8b 3e 56 fd 85 3e
       -0.14610167 0.07272553 0.27317762 0.26169842
0001d0 ca 94 5d be 46 8d b9 bc 75 d4 03 be 3c 6f e0 bc
       -0.2163879 -0.022650372 -0.12874015 -0.02739679
0001e0 0b fc a1 3d 27 8c 92 be 12 37 ec 3d 99 67 9a be
       0.079094015 -0.28622553 0.11533941 -0.30157164
0001f0 d0 f0 93 3e 6d 07 f4 3d 29 ba 70 3e ab c9 3e 3e
       0.28894663 0.11915479 0.23508514 0.18631618
000200 22 ee 94 3e 23 08 8e be 9f d4 8d 3e 47 91 c5 3d
       0.2908793 -0.27740583 0.2770128 0.0964685
000210 50 26 11 3e 95 63 39 be 7f 70 17 3e 55 20 71 3e
       0.14174771 -0.18104394 0.14789008 0.2354749
000220 ef 60 52 ba 94 50 7d be 39 ee d8 bc 1a aa 84 be
       -0.00080253085 -0.2473777 -0.02648078 -0.25911027
000230 3c e6 45 be 60 32 8f 3c fa 6d f4 bd 61 73 06 be
       -0.19326109 0.017480075 -0.11935039 -0.13129951
000240 60 41 87 3c 80 2c 24 bc f5 d9 15 be c6 c4 31 be
       0.016510665 -0.010020375 -0.14633925 -0.1736022
000250 b9 45 71 bd 82 90 09 3e 56 0d 94 be d1 03 aa bd
       -0.058904383 0.13434032 -0.28916425 -0.08301509
000260 5f 04 bf 3d aa ec 78 bd a6 51 64 3d 3e da 71 be
       0.093270056 -0.060772575 0.05574193 -0.23618409
000270 9d 70 1b bd 03 9b 95 3e e5 13 82 3c 30 4a 09 3e
       -0.037949193 0.29219827 0.015878627 0.13407207
000280 41 44 99 bd 0a 0e 95 3d 48 79 62 3e 49 79 0f 3e
       -0.074837215 0.07278068 0.22116578 0.1401111
000290 76 71 d9 3d df fe 89 be 31 3e 38 be 6b a0 1b 3d
       0.10617344 -0.26952264 -0.17992474 0.037994783
0002a0 55 3e 65 be d5 6b 96 3e b0 f6 0b be 1c 0a 7e bd
       -0.22387059 0.29379144 -0.13668323 -0.06202136
0002b0 06 26 92 3e c2 69 d6 3d 2a 6e 87 3e 8b 79 85 be
       0.28544635 0.104693905 0.26451236 -0.26069292
0002c0 13 27 0a bd a5 c1 2e 3e 3f 4e 56 3e 20 89 91 3e
       -0.03372867 0.17066057 0.20928286 0.2842493
0002d0 c7 b6 33 3c d6 86 9b be 4c 4e ac 3d 7b a3 96 3e
       0.0109688705 -0.3037631 0.084133714 0.294216
0002e0 ac 81 96 bd fb 93 27 bd 5e 06 9b be 55 1a 73 be
       -0.07348952 -0.04091261 -0.30278295 -0.23740514
0002f0 27 ab fb 3d 2b 99 90 3d 17 f3 97 3e 9c 10 57 be
       0.12288504 0.070604645 0.2967765 -0.2100243
000300 1b d3 c5 bd 6e 6c 14 3e e0 60 03 3c 28 cb 43 3e
       -0.09659406 0.14494488 0.008018702 0.19120467
000310 22 46 80 3e fe 1f 07 be 84 90 7d 3e cf c9 47 3c
       0.25053507 -0.13195798 0.2476216 0.012194111
000320 a5 de c1 3d 5d c9 d8 3d 46 85 1e be 3c f1 d3 3d
       0.09466294 0.10585282 -0.15480527 0.10348746
000330 ce 9f 91 3e a4 3c 3e 3d 03 52 4a be 5f dd 12 3e
       0.28442234 0.04644455 -0.19757847 0.14342259
000340 21 83 b7 bd 0c 5f b6 bc db 7c 53 3e 12 8a 5a be
       -0.08960558 -0.022262119 0.20653097 -0.21341732
000350 22 a3 1d 3e 28 dc 87 3e a5 f6 83 be f7 85 57 be
       0.15394261 0.26535153 -0.25774112 -0.21047197
000360 d4 e8 95 3e 3e e3 49 3d 40 27 ab 3b 51 6b 53 3d
       0.29279196 0.04928898 0.005223185 0.051616017
000370 9a 85 a6 bd 69 a8 82 3e 21 bd 16 be e6 c0 89 3e
       -0.08130951 0.25519112 -0.14720584 0.26904982
000380 41 cd 79 3e de 1b fe bc 70 58 8d be d6 78 8e be
       0.24394704 -0.031019147 -0.27606535 -0.27826566
000390 e5 d2 99 be db 57 9c be 5c cb b2 3d 04 2b 4f bd
       -0.30043712 -0.30535778 0.08730194 -0.050578132
0003a0 16 b7 05 bd e2 ae 62 be ec 5c 02 be 6e 16 8c be
       -0.032645307 -0.22137025 -0.1273076 -0.27360862
0003b0 a5 b0 8d 3e cb 2b f3 3d 7b 9f 4f ba 72 77 31 3e
       0.27673832 0.11873587 -0.0007920188 0.17330721
0003c0 97 86 1a 3e 1b 9b 46 3d d7 84 4e 3e b4 cf 08 3e
       0.15090404 0.048487764 0.20167862 0.13360482
0003d0 1e 7a 07 3e 91 24 38 be 20 21 d9 bc 79 3c c4 3d
       0.13230178 -0.17982699 -0.026505053 0.09581847
0003e0 79 48 1b 3e a6 8f a8 3d b5 f1 30 3e 24 3e 95 be
       0.15164365 0.08230524 0.17279704 -0.29148972
0003f0 41 8d 89 bc e6 81 c0 bc 71 a6 e0 bd 7d 3a 22 3c
       -0.016790988 -0.02349944 -0.10969246 0.00990164
