mlartifacts/403163061964527456/fc863555d84e45a183947a2bf2bf0647/artifacts/models/data/model.pth (torch, 145806 bytes, 160 tensors)

bias f4 [8]
000000 f3 86 f2 bd 52 ae 10 3e 43 9e 3e bf 50 a2 16 be
       -0.11842146 0.14128998 -0.7446024 -0.14710355
000010 32 bf 30 bf e1 f4 5a be 07 3a 6c 3e c4 fd e0 bd
       -0.6904174 -0.21382476 0.2306901 -0.10985902

weight f4 [8, 3]
000000 ba ce af be 01 b1 1d 3e d2 82 74 3f 8a 2b b6 3e
       -0.34337407 0.15399553 0.95512116 0.35580093
000010 96 96 59 be ab 83 12 3f c0 0f ba bf c3 e6 f9 be
       -0.2124885 0.5723216 -1.4536057 -0.4880887
000020 92 71 30 bf ae 6e e2 3e d5 25 60 3f fb 4e 28 bf
       -0.68923295 0.44225067 0.8755773 -0.65745515
000030 1d af c6 bf ac 64 c7 be 1b 39 6b bf a3 4b 16 3f
       -1.552219 -0.38943994 -0.9188401 0.5870916
000040 79 e1 f0 3e 5b a7 3e 3f 99 ca 52 bd cf 1d 96 be
       0.47047022 0.74474114 -0.051462743 -0.29319617
000050 21 85 f4 be ed a6 c5 bf 2c bf c1 bf d2 3c 64 3e
       -0.4775782 -1.5441567 -1.5136466 0.22288826

weight f4 [8, 3]
000000 db 7c 48 be df b6 34 3f de ec 85 3e 10 c7 85 3f
       -0.19578879 0.7059154 0.26157278 1.0451374
000010 a0 46 d4 3e 26 a5 07 bd 03 63 f9 3d 9f 40 09 3f
       0.41460133 -0.033116482 0.12177088 0.5361423
000020 54 65 38 3f ec bb d3 3e b4 33 7c be 1e 8c 1a bf
       0.72029614 0.4135431 -0.24629098 -0.6037005
000030 ef 88 12 be ef 3e 33 bf 23 be 01 bf 3d 46 5e 3f
       -0.14310049 -0.70017904 -0.5068075 0.86825925
000040 e6 c8 3a 3d 5c 24 bc bd bc d9 98 bf 9f 50 79 3d
       0.045601748 -0.091866225 -1.1941447 0.060867902
000050 39 60 9b bf 9f 9a d1 3d 0e 48 79 be 51 22 76 be
       -1.213874 0.1023457 -0.24343893 -0.24036528

bias f4 [8]
000000 c8 b4 9f 3e 08 91 61 be 28 59 14 bf db bf 14 bf
       0.31192613 -0.22027981 -0.5794854 -0.5810525
000010 aa ff 81 bf e6 76 7b be db de 4e be 24 c6 70 bf
       -1.0156147 -0.24557075 -0.202022 -0.9405234

weight f4 [8, 1]
000000 f9 19 63 3f 08 1a 75 be dc 9a c6 3f 3f a9 0e 40
       0.88711506 -0.23935711 1.5516009 2.22908
000010 a5 e9 ad 3f e1 e5 2c 3e e0 a6 0f 3e 20 1a cd bd
       1.3586928 0.16884567 0.14028502 -0.100147486

weight f4 [8, 1]
000000 c1 b1 a7 3e 68 cc 83 3e 72 9f 51 bf 0b 26 8a 3e
       0.32752803 0.25741887 -0.8188392 0.2698215
000010 ec ee 5f bf 40 77 e9 bf 03 1f d4 be e0 b9 3c bf
       -0.8747394 -1.8239517 -0.4142991 -0.7372112

bias f4 [8]
000000 ab 9c 35 bd ab bd 3c 3f b4 ff 5e 3e c5 0c ca 3e
       -0.044338863 0.7372691 0.2177723 0.39462867
000010 d4 dd 70 bf 3d 14 81 bf 95 22 9a 3f 51 62 4a 3f
       -0.9408848 -1.0084301 1.2041804 0.7905627

weight f4 [8, 3]
000000 a2 38 16 be ae c7 84 3e e5 07 fe 3e fa 66 92 3e
       -0.14670041 0.25933594 0.49615398 0.2859419
000010 2c 07 7b bf 59 59 4e 3e aa 2a 4c bf e1 1a bb be
       -0.9805782 0.20151271 -0.797526 -0.36543944
000020 58 45 33 bf cf c3 03 3f 8f e3 14 3f 0f 1a 15 bf
       -0.70027685 0.51470655 0.58159727 -0.5824289
000030 ed d6 38 bf 08 46 4f be 12 ad 81 3d c3 33 00 bc
       -0.7220295 -0.20241559 0.06331839 -0.007824841
000040 d5 ad ae 3e 61 f6 22 3f 1d 56 97 be e0 12 66 bf
       0.34116998 0.63657194 -0.29557887 -0.8987255
000050 e4 a8 5b 3d 24 6d 14 c0 f6 56 91 bf 9d d3 39 3f
       0.053627864 -2.3191614 -1.1354663 0.7258852

weight f4 [8, 3]
000000 b4 11 32 bf ef f8 c6 3e 0d 05 02 bf 47 3c 49 bf
       -0.6955826 0.38861796 -0.50788957 -0.786076
000010 9f 72 db 3e fe 8c 1f bf 1d d6 3b bf e9 ae e0 3e
       0.42860886 -0.6232451 -0.73373586 0.43883446
000020 7a 7a 02 bf ee 76 8f bf e5 b6 8d be 8c 8d 5c bf
       -0.50968134 -1.120817 -0.276786 -0.86153483
000030 dc 58 5a 3f 19 8a 61 bf 54 31 8d 3e 89 5c ca 3f
       0.8529184 -0.88101345 0.27576697 1.580949
000040 72 20 92 3f 6e db a5 bd 66 b6 38 bf 85 24 90 bf
       1.1416152 -0.080984935 -0.7215332 -1.1261145
000050 6c 83 8a 3e 7b 4a ee 3d af 78 e2 3e 4c e6 35 bf
       0.27053392 0.116353 0.442327 -0.7105453

bias f4 [8]
000000 ac ba f7 be 61 63 99 be 0b 39 72 bf ec 26 92 bf
       -0.48384607 -0.29958633 -0.9461829 -1.1418128
000010 94 44 61 3e a0 a3 90 3f 1f 59 68 bf 7a db fa be
       0.21998817 1.1299934 -0.9076099 -0.48995572

weight f4 [8, 1]
000000 54 8e 18 bf fd 76 78 bf 3a 8c 5b 3f e7 44 dd bf
       -0.59592175 -0.9705656 0.85760844 -1.7286652
000010 f5 12 8c bf bf 1a d6 3e 29 7c a3 3f b1 e4 f6 be
       -1.0943285 0.4181728 1.2772266 -0.48221353

bias f4 [8]
000000 84 9c 37 bf d1 36 27 3f e1 95 a7 bf 46 23 7e bf
       -0.717232 0.6531802 -1.3092614 -0.99272573
000010 b0 da 65 be 01 5e b4 bc e9 4f 91 3f 19 5d 56 bf
       -0.22446704 -0.02201748 1.1352512 -0.83735806

weight f4 [8, 3]
000000 b0 b0 c5 be 12 64 a8 be db d6 dc 3e 3c 91 c2 3e
       -0.38611364 -0.32888848 0.43132672 0.3800143
000010 20 7e 14 bf 6c 72 19 3c 28 4f d8 be d4 57 19 bf
       -0.5800495 0.009365659 -0.4224789 -0.5989964
000020 34 6d e3 be d0 bf e1 3d 13 76 6c 3e f6 cc cd 3c
       -0.44419253 0.110229135 0.23091917 0.025122147
000030 c3 e6 4a bf 62 73 63 3e 5e 55 02 bf 7e bf 2b be
       -0.79258364 0.22211984 -0.5091151 -0.16772267
000040 fb 29 82 3f bf b2 01 3d d9 1e 21 3f b1 ae ef be
       1.0169061 0.031664606 0.62937695 -0.46812966
000050 f8 4b e9 bd 43 58 0d c0 e8 15 c2 bf 79 69 27 3f
       -0.11391443 -2.208512 -1.5162935 0.65395314

weight f4 [8, 3]
000000 46 8a 4c 3f 99 01 03 3e 26 5b e9 3d 92 84 1d bf
       0.7989849 0.12793578 0.11394338 -0.6153041
000010 d2 dc 44 be d9 28 73 bf 6a 55 9d be a7 ef d6 3e
       -0.19224861 -0.94984204 -0.30729228 0.41979715
000020 21 c8 82 3f 94 e6 80 3e 96 b4 ba be 67 2f 7d be
       1.0217324 0.25175917 -0.364659 -0.24725114
000030 60 c4 4f bf 14 6f 15 bf f6 b9 76 3e 26 80 73 3f
       -0.8115902 -0.58372617 0.24094376 0.95117414
000040 24 88 86 be bf c8 f9 3c dc ce 11 bf 7d ce 96 be
       -0.26275742 0.030491231 -0.5695627 -0.29454413
000050 98 8c 61 3d 5e 3e 00 3f a6 c5 cd bf 78 f4 8d 3e
       0.05506572 0.50095165 -1.6075943 0.27725577

bias f4 [8]
000000 4e 4c 9c 3c 68 0c d9 be 6e c6 3d be 6d e7 16 bf
       0.019079354 -0.42392278 -0.18532726 -0.5894688
000010 7e c8 da be 84 ed 2a bf 7f 43 a2 be 71 e4 81 bf
       -0.42731088 -0.6676867 -0.3169212 -1.014784

weight f4 [8, 1]
000000 cd 12 a1 be 95 30 1a 3f 23 5e 93 3d 06 a7 09 40
       -0.31459656 0.6023038 0.071956895 2.1508193
000010 f3 af 8d 3f 37 2b 06 3f c1 a0 bf bd 45 64 4e be
       1.106932 0.5240969 -0.09356833 -0.20155437

weight f4 [8]
000000 3d b0 b3 3f e8 39 16 3f ea e1 00 3e 8c fe 90 3e
       1.4038159 0.5868211 0.1258618 0.28319204
000010 fe ad 64 3e 6c 0d ee 3e e0 2a 49 3f 89 29 1e 3f
       0.22331998 0.46494615 0.7858105 0.6178213

bias f4 [8]
000000 4a f1 a4 3e 0e 4d 94 3e 76 4c 25 3e 67 7e 00 3f
       0.3221534 0.28965038 0.16142449 0.50192875
000010 17 2e 87 3e cc a7 0a be e6 3c 39 3e 1e 8a 14 3f
       0.2640235 -0.13540572 0.18089637 0.5802325

running_mean f4 [8]
000000 43 df 31 3e 68 7a 2c 3e 9c fe ee 3d 4a d2 04 3d
       0.17370324 0.1684357 0.11669657 0.03242711
000010 7d 0a 36 3f 54 a9 75 3f f6 cf 03 3e 77 8a 8b 3e
       0.71109754 0.959615 0.128723 0.27254078

running_var f4 [8]
000000 ab f0 ec 3a 6f ac 2d 3b b8 6d 8d 3a 76 67 97 39
       0.0018077096 0.0026500484 0.0010790145 0.0002887805
000010 29 91 c6 3b 8f 3c ef 39 b7 2d 56 3b c6 56 c3 3b
       0.006059785 0.00045630752 0.0032681057 0.005961272

weight f4 [8]
000000 87 73 83 3f 33 d9 8c 3f 2b 11 76 3f 39 5a 8b 3f
       1.0269631 1.1003784 0.96119946 1.0886909
000010 8b 77 86 3f f9 31 81 3f 15 97 a0 3f c3 9c 95 3f
       1.0505232 1.0093375 1.2546107 1.1688465

bias f4 [8]
000000 30 d8 f9 3d ac f0 56 be 2e 4a de bd c4 9a 5d bd
       0.121994376 -0.20990247 -0.108539924 -0.054102674
000010 fd f3 71 be 60 70 cd 3c a0 85 f2 3d 49 64 63 be
       -0.2362823 0.025077999 0.11841893 -0.22206225

running_mean f4 [8]
000000 3d 7e b8 3e 5c c5 4c 3f 6b da b0 3d 3b 65 a3 3e
       0.36033812 0.79988647 0.0863541 0.3191317
000010 38 15 a8 3d ee db 7d 3e fb 56 66 3f 6d f6 ae 3e
       0.08207172 0.24790928 0.8997647 0.34172383

running_var f4 [8]
000000 c8 f6 04 3d 03 d2 73 3c 2c 9f 7b 3b ba 48 2b 3d
       0.03246191 0.014881614 0.0038394434 0.041817404
000010 cb 04 82 3b 33 54 af 3c 3a df 3c 3c 31 96 56 3d
       0.0039678565 0.021402454 0.011527831 0.052389327

weight f4 [8]
000000 27 52 4a 3f b8 5d 8a 3f b6 26 a5 3f 42 92 a6 3f
       0.79031605 1.0809851 1.2902439 1.3013384
000010 41 f0 9d 3f 74 c4 bb 3f 02 f4 9f 3f e9 ee a9 3f
       1.2338945 1.4669328 1.249634 1.3276035

bias f4 [8]
000000 b0 d2 aa 3c 90 da b3 3c a9 b2 28 3e 86 8a 6c be
       0.020852417 0.021954805 0.16474403 -0.23099717
000010 81 c8 a6 3e 7c c2 9f bd e4 98 23 3e f0 f5 33 3e
       0.32574847 -0.07800767 0.15976292 0.17574286

running_mean f4 [8]
000000 77 fb 65 3f 9d 9d 05 3e af 23 68 3f 79 51 38 3e
       0.8983683 0.13048406 0.9067945 0.1799983
000010 9b 0e 5b 3d b6 1d 3a 3f cb 2a 72 3c 9f 89 49 3e
       0.053480726 0.72701585 0.01478071 0.19681405

running_var f4 [8]
000000 6a 5b b1 3b 7e c0 e1 3c ae 9b 8b 3b d8 a6 6a 3d
       0.0054125087 0.027557608 0.004260502 0.05728802
000010 af 8d c9 3b 60 92 18 3c b9 4e d5 39 72 7d 4a 3c
       0.006150923 0.009312242 0.0004068518 0.01235901

weight f4 [8, 8]
000000 b5 4f 00 bf f5 ed 4f 3b 52 ab 43 be 7a a5 95 be
       -0.50121623 0.0031727527 -0.19108322 -0.2922781
000010 cc e7 c4 be c2 0a d7 3d a2 a5 b1 3e 79 3d 94 be
       -0.38458097 0.10500099 0.3469668 -0.2895315
000020 40 1e 4f bf c2 cb e6 be 44 65 37 be d6 86 9e bd
       -0.8090553 -0.4507733 -0.17909724 -0.07740562
000030 af fd 6f ba a2 1b e6 3e 36 e8 26 be c4 e3 16 bf
       -0.0009154928 0.44942957 -0.16299519 -0.5894129
000040 7d bc 36 3f 0b 78 9a 3e a7 6d 95 3e 0d 76 7e 3e
       0.7138136 0.3016971 0.2918522 0.2484972
000050 91 32 f3 3c db e8 c3 3d c1 45 c1 be 1b a1 1e 3f
       0.029687198 0.09565898 -0.3774853 0.6196458
000060 25 26 12 3e d9 89 de 3e 3f 81 62 3e 77 ad 31 3f
       0.14272363 0.43464544 0.22119616 0.6940531
000070 8a b9 40 3d 82 3f 0c bd 4d 60 bc 3e de 74 da 3e
       0.047051944 -0.034240253 0.36792222 0.42667288
000080 7f 7a 13 3d 7c 59 f7 3d 0c 2e 6b 3d 0f c4 d0 bd
       0.036005493 0.12077615 0.05741696 -0.10193645
000090 2e 80 00 bd 8a 03 11 3e 04 0b 31 be 12 a1 22 be
       -0.03137224 0.14161506 -0.17289358 -0.15881756
0000a0 7b 08 aa 3e 36 f4 52 3e 16 82 fe 3d 34 a1 15 bd
       0.33209595 0.20600972 0.12427156 -0.03653069
0000b0 d4 8b b0 be 77 24 63 be ec a2 bf bd a9 d0 fe bd
       -0.3448168 -0.22181879 -0.09357247 -0.124421425
0000c0 7e 25 61 bf fa 4f 24 bf b5 f9 2a bf df 80 ea be
       -0.87947834 -0.64184535 -0.6678727 -0.45801446
0000d0 38 80 6d be 3e f9 a4 3e 12 80 a1 be 0a 67 20 bf
       -0.23193443 0.32221407 -0.31543022 -0.62657225
0000e0 b6 2f c9 be 68 9a 84 be 75 c1 76 be 54 39 07 be
       -0.39294213 -0.25899053 -0.24097236 -0.13205463
0000f0 f3 22 46 3e 20 ea bf be 26 46 43 3e f7 00 fe bd
       0.1934927 -0.3748331 0.19069728 -0.12402528

bias f4 [8]
000000 71 02 f3 be 76 cd ae 3e db 03 07 3f 1b 17 1c 3e
       -0.474628 0.3414113 0.5274026 0.15243189
000010 03 5c f6 3c 8a 98 66 bf 72 0b c5 3e a6 24 82 3d
       0.030073171 -0.90076506 0.38485295 0.063546464

weight f4 [8, 8]
000000 49 41 07 3f b5 fa 77 3e 50 ba f7 be 75 f3 63 3f
       0.5283399 0.24216731 -0.48384333 0.8904336
000010 18 83 66 bc 9a 20 30 be 02 81 9a bf cb fc 00 bf
       -0.014069341 -0.17199937 -1.207062 -0.5038573
000020 e1 19 a5 bf 25 5e a3 3e fc 6f 94 3e 06 f1 6e 3f
       -1.2898523 0.31907764 0.28991687 0.9333652
000030 2f d7 14 3d 1b 72 e6 3e 51 a8 37 bf f1 6b 87 bf
       0.036338028 0.4500893 -0.71741205 -1.0579816
000040 53 70 8f be dd 53 23 3f fe ac 27 3e 2d db 13 bf
       -0.28015384 0.6379984 0.16374585 -0.5775631
000050 ef b0 9e be ef 6a ea be 1a f6 11 3e ff 3a 5d be
       -0.30994365 -0.4578471 0.14254037 -0.21604536
000060 3e 22 2e bf 46 1e c0 be 4f 08 b8 3d 0e a4 f4 be
       -0.68021 -0.37523097 0.0898596 -0.47781414
000070 cc f6 13 3e 00 6f 91 3b 39 97 2a 3f 38 9c a0 bd
       0.14449614 0.004438281 0.66637 -0.07842296
000080 45 08 9a be ca 42 3c bd 37 93 2b be 84 58 c7 3e
       -0.30084434 -0.045962133 -0.16755377 0.3893472
000090 45 cf 05 3e 23 8b cb be 29 97 04 be 1a c9 69 be
       0.13067348 -0.3975459 -0.12948288 -0.2283062
0000a0 9a ff 7f bf 5c fa 18 3f 16 1d d1 be 82 be e0 be
       -0.9999939 0.5975702 -0.40842503 -0.43895346
0000b0 61 25 72 bf b0 0e 07 bf 46 8f 07 3e f9 e5 75 bd
       -0.94588286 -0.52756786 0.13238248 -0.060033772
0000c0 9b ca 35 bf ee f8 1a 3f 30 5c bd 3e 65 17 ed 3e
       -0.71012276 0.60536087 0.36984396 0.4630691
0000d0 2a 8b 12 3f c5 47 1d 3e 17 01 af 3d 6a 78 34 3d
       0.572436 0.15359409 0.0854513 0.04406015
0000e0 32 1a 8f 3e f3 b7 ad be a5 48 14 bf 7a f3 be be
       0.27949673 -0.33929405 -0.57923347 -0.37295133
0000f0 8a ed f9 be 70 1c 14 3f 93 d7 73 bd 3e e6 ec be
       -0.4881404 0.5785589 -0.05953176 -0.4626941

weight f4 [8, 8]
000000 ef 2c 9d be 5d ef fd 3e ea f7 8a 3e 8c 0d de be
       -0.30698344 0.49596682 0.27142268 -0.4336971
000010 39 bf c2 bd fc 08 c0 3d 56 e5 ca 3e 21 65 a2 bd
       -0.09509129 0.09376714 0.39628094 -0.07929445
000020 f0 e4 cf be ee c1 43 be f7 6d 25 bf 58 a0 a8 3e
       -0.40604353 -0.19116947 -0.6462092 0.32934833
000030 40 50 c8 be 1e 0c ed 3e 30 6f e0 be 29 5d a3 bd
       -0.39123726 0.46298307 -0.4383483 -0.07976753
000040 f0 d1 7d 3e 04 76 df 3d d5 c9 4a 3d cf 51 8e bf
       0.24787116 0.109111816 0.04950889 -1.1118716
000050 5e 25 2f bf a9 dd bd bf 6f a6 a2 3e 9b 2f ef bd
       -0.6841639 -1.483327 0.31767604 -0.11679002
000060 7d c7 b3 3f 6c 62 f1 bd 90 7c 10 bf 37 f4 69 be
       1.4045254 -0.117863506 -0.5644007 -0.22847067
000070 bd a5 8d be 74 c0 2c 3e 50 a0 40 bf cb fc cb be
       -0.2766551 0.1687029 -0.7524462 -0.39841303
000080 94 2d e5 bd 1b 8b bb 3d 92 8b db bc 82 f8 07 3e
       -0.11190334 0.09157392 -0.02679995 0.13278392
000090 58 40 1f be 0d d2 2a bd c2 fb 0b 3c bf c2 3d 3e
       -0.15551889 -0.041704226 0.00854391 0.18531321
0000a0 28 bb 11 3d 09 25 50 be a4 62 c7 be 02 38 36 bd
       0.035578877 -0.20326628 -0.38942444 -0.044487007
0000b0 b6 ae 6e be b5 14 25 3e 12 1e e7 3d e7 6f 1c be
       -0.23308834 0.1612118 0.11285032 -0.15277062
0000c0 39 27 50 be a6 9c 01 bf be 36 cd be 9e 7f 1c be
       -0.20327462 -0.5062965 -0.40080827 -0.15283057
0000d0 aa 60 8f be 42 ce 16 be 62 20 98 be 69 54 f1 3d
       -0.28003436 -0.14727119 -0.29712206 0.11783678
0000e0 82 8a 87 bd 87 37 b2 3e 5d ea 82 3d 90 62 10 3f
       -0.06618215 0.3480799 0.063923575 0.56400394
0000f0 d0 e9 01 3d 2b 34 42 bf a3 67 96 bd 87 df e4 3e
       0.03171712 -0.7586085 -0.07343986 0.44701788

bias f4 [8]
000000 a2 6f 72 bd 9c 6c ba bd 34 05 a6 3e 82 51 1a 3e
       -0.059188493 -0.09102747 0.32425845 0.15070155
000010 48 c8 24 bf bf 3c fe 3e 43 cc 01 3f 1d 3e 8f be
       -0.64368105 0.4965572 0.50702304 -0.27977076

weight f4 [8, 8]
000000 8d 51 fc be 61 3c a5 bd 5d 4e 2c 3e a7 06 30 3f
       -0.49280968 -0.08068157 0.16826768 0.6876015
000010 e1 9f 78 3f 36 fa 99 bf 37 2e e3 3f 36 7b e1 3e
       0.97118956 -1.2029483 1.7748479 0.44039315
000020 06 1d b5 3e 07 19 61 3f 0e d4 24 3f f5 1b bb be
       0.35373706 0.87928814 0.6438607 -0.36544767
000030 c1 3f 00 bf d1 c8 eb 3e fb 1d 81 bf d9 a3 38 3e
       -0.5009728 0.46051648 -1.0087274 0.18031253
000040 51 1f 02 bf 8b c8 fc be ad 71 08 3f 01 c0 11 3e
       -0.50829035 -0.49371752 0.53298455 0.142334
000050 96 39 4c 3e fa 62 9f be 38 11 d3 bd b8 29 28 3e
       0.19943842 -0.311302 -0.103060186 0.16422164
000060 4f bc a1 3e b2 d9 d1 3e 7c fc b4 3d a7 bc ff 3e
       0.3158898 0.409864 0.0883722 0.49948618
000070 11 6e 84 bc 04 05 85 3e ee 77 7e be 9c a0 49 3f
       -0.016165765 0.2598039 -0.24850437 0.78760695
000080 42 5a 7d 3e bf db 17 bf de 38 36 3e df 2d 87 bf
       0.24741462 -0.5931968 0.1779513 -1.0560874
000090 ae 2e 99 bf 2e 8f 8f bc fd 2d 60 3c c3 5a 5a 3f
       -1.196737 -0.017524328 0.013682839 0.8529474
0000a0 14 d0 d8 bc ff 21 9e 3d 22 f4 d6 3e 98 c2 02 3f
       -0.026466407 0.07721328 0.41983134 0.51078176
0000b0 c6 38 92 3d 5a 13 2a 3f 29 b8 e3 bd 4b 7a 82 3e
       0.07139735 0.6643578 -0.1111911 0.25483927
0000c0 96 e8 e3 3d a1 ae eb be 97 d4 09 3e 37 47 b9 bf
       0.111283466 -0.4603167 0.13460003 -1.4474858
0000d0 3c 0d 2a bf 8e 30 bf be 04 35 57 3d 82 75 e5 3e
       -0.66426444 -0.37341732 0.052540794 0.44816214
0000e0 c2 a7 0e bc e5 b7 41 be a5 d8 45 be e4 87 c2 bc
       -0.008706989 -0.18917806 -0.19320925 -0.023746438
0000f0 7f 18 8c be 15 b8 47 be 1c 74 4f 3b c3 4a 47 be
       -0.2736244 -0.19503815 0.00316549 -0.19462113

weight f4 [8, 8]
000000 76 92 38 3f 59 78 f3 be 88 3d eb 3d c4 42 a1 be
       0.7209848 -0.47552755 0.114863455 -0.3149625
000010 7a d0 d9 be 06 b9 dd 3e 73 56 af 3d f8 6d a3 3d
       -0.42541867 0.43305224 0.08561411 0.07979959
000020 ec 2f 7d bf f6 1f ca 3e bb 0f 1b bf 64 8b 39 3e
       -0.9890125 0.3947751 -0.6057088 0.1811958
000030 8b b1 18 3d ed 87 eb be 3e 39 63 3e 9f 7f 06 bf
       0.037278693 -0.4600214 0.22189805 -0.52538484
000040 36 b3 12 be 4d ad 2a be f3 6c 99 3f 59 fc 69 be
       -0.14326176 -0.16667672 1.1986374 -0.22850169
000050 ce c9 c6 3e 9d f0 d5 be a7 06 d7 3c eb 55 67 3e
       0.3882584 -0.41785136 0.02624829 0.22591369
000060 0e 98 f9 bd 05 6d d9 be e1 74 23 3d b6 23 17 3e
       -0.12187205 -0.42465988 0.039906386 0.14759716
000070 a2 14 95 3e bd 14 c4 3d 5a bb 75 3f 57 df 44 3f
       0.29117304 0.09574268 0.95989 0.7690329
000080 67 5a 6c 3e 09 3e 47 3e 56 ab 8f 3f 99 61 24 3d
       0.23081361 0.19457258 1.1224163 0.04013214
000090 f6 d0 be be 6a 8d 2f 3f 9d 9d 81 bf 13 18 1c bf
       -0.372688 0.68575156 -1.0126225 -0.60974234
0000a0 5f 1f 37 3f b8 98 10 bf bd 7a 2e bf 04 2d 82 be
       0.71532243 -0.5648303 -0.68156034 -0.2542497
0000b0 53 3a e7 be 69 5c 99 bb 41 fd cf 3c 50 31 29 3e
       -0.45161685 -0.0046802056 0.025389316 0.16522717
0000c0 fe 1d 17 3e ac 70 37 3e a9 67 9b be a7 7f 27 3f
       0.14757535 0.17914075 -0.30352524 0.65429157
0000d0 14 ef 37 bf 58 2e 87 3f a7 34 3e bf 3b 02 24 bf
       -0.7184918 1.0561018 -0.7429909 -0.64065903
0000e0 f9 0a e5 3e 5c d6 f6 be e7 84 a0 be c4 cb 86 be
       0.44734934 -0.48210418 -0.31351396 -0.26327336
0000f0 f2 81 c1 3d 0e bd 2e bf f5 e3 87 3f c9 0a 17 3d
       0.09448613 -0.68257225 1.0616442 0.03687552

bias f4 [8]
000000 b7 05 1a bf 61 f5 dc bd f3 13 a5 3e bc 12 fe 3d
       -0.6016497 -0.1078899 0.32241783 0.12405917
000010 a4 31 f4 3d 1e 52 2d bf c6 0e 16 bd cc 9e b9 be
       0.11923531 -0.67703426 -0.036635183 -0.36253965

weight f4 [8, 8]
000000 3c ec f4 3e 65 16 16 3e 7b 2f 48 bf 92 c0 1e 3f
       0.47836483 0.1465698 -0.7819745 0.6201259
000010 07 c1 0a bd b6 71 6f be 68 ef b6 bf 36 d3 ba be
       -0.03387549 -0.23383221 -1.4291811 -0.36489266
000020 25 8e 52 bf 52 e9 0a 3f af bf c6 3d 3d f3 92 3f
       -0.82248145 0.5426227 0.097045295 1.148048
000030 cb b2 19 be 36 5e 37 3e c9 4d 39 bf 24 76 9a bf
       -0.1500961 0.17907032 -0.72384316 -1.2067304
000040 61 83 d6 bd 59 c2 73 3f dc 74 db be db bf 09 bf
       -0.10474277 0.95218426 -0.42862594 -0.53808373
000050 ca 90 39 bf 1f 4b 7b be d8 7b 60 3e c8 0f 99 be
       -0.72486556 -0.24540375 0.21922243 -0.29894853
000060 82 4c ed be a1 cf c2 be 84 35 14 3f bd e0 96 be
       -0.46347433 -0.38049033 0.5789416 -0.29468337
000070 30 59 b2 be 4d 3f ad 3e b5 fc 7c 3f ec ee eb 3e
       -0.3483367 0.33837357 0.988231 0.4608072
000080 46 e4 ae bd ed a1 81 3e 4b d8 82 3d da 59 cb 3e
       -0.085396335 0.25318852 0.06388911 0.3971699
000090 87 e6 1b 3e ca a6 fb be c1 a6 94 be ba 37 40 3e
       0.15224658 -0.49150687 -0.29033473 0.18771258
0000a0 dd 5c 1a bf c4 fb e8 3e 9a 2d 34 bf 94 8b 60 be
       -0.6029795 0.45504582 -0.7038208 -0.21928245
0000b0 c1 ca 6d bf 2b ca 9f be a6 0a 34 3e 01 62 f4 be
       -0.928875 -0.3120893 0.17582187 -0.4773102
0000c0 49 9d 34 bf 78 39 36 3f 08 2a 8f 3e b3 c3 05 3e
       -0.705525 0.7118144 0.27961755 0.13062935
0000d0 b2 10 50 3e 12 d8 f5 3e 4d 6d 19 3f e1 cf 31 3e
       0.20318869 0.4801641 0.59932405 0.17364456
0000e0 f9 82 dd 3e 6b 15 8a 3e 43 43 87 bf 8e 0d 78 be
       0.43263987 0.26969466 -1.0567402 -0.2422392
0000f0 7d 41 55 bf 8d 18 c0 3e bf cd 0c be 4a 27 e1 be
       -0.8330305 0.3751873 -0.13750361 -0.43975288

weight f4 [8, 8]
000000 dd 55 41 be 5a 8d 10 bf c3 b5 c7 3f f8 b4 fa 3e
       -0.1888041 -0.56465685 1.5602344 0.48966193
000010 4f c2 93 3f e4 63 0b be 11 3b c4 3f 5a 33 4b 3f
       1.1543673 -0.13612324 1.5330526 0.7937523
000020 3e 78 4a be f3 df de 3f 95 4f 14 be 95 45 98 3e
       -0.19772431 1.7412094 -0.14483483 0.29740587
000030 1d 21 75 3e ce 6b 46 bd db ac a8 be 1b 72 d9 be
       0.23938413 -0.048442654 -0.32944378 -0.42469868
000040 d7 51 9e be 3b a3 de 3e 75 49 f1 be 2d dd 16 3f
       -0.30921814 0.4348391 -0.47126356 0.5893124
000050 f7 11 89 bd 15 dd f0 be f6 3e 10 bd 85 6c cd bd
       -0.0669288 -0.47043672 -0.035216294 -0.10030464
000060 e8 c2 50 bf 0d c5 ec 3f 3e 36 86 3d 36 71 87 3f
       -0.81547403 1.8497635 0.065533146 1.0581424
000070 e8 f0 22 3f 05 0b 22 3f 12 25 70 bf 54 be f2 3d
       0.63648844 0.63298064 -0.93806565 0.118527085
000080 cd 59 0c be be f3 d8 3e b4 c8 4e 3c 1e 2b d8 bd
       -0.13706131 0.4237346 0.012621094 -0.10555099
000090 2a 62 0c be 3c fd 2f bf c1 2c 56 3e 1f c1 00 3e
       -0.13709322 -0.6874578 0.2091551 0.1257367
0000a0 dc 2a 74 3f 44 16 d3 bd 63 79 e7 bf d8 9e 01 bf
       0.953779 -0.10306981 -1.8083919 -0.50633
0000b0 0f b5 a0 bf 93 f4 7f 3f f9 b0 55 bf 79 3e 12 3f
       -1.2555255 0.99982566 -0.83473164 0.57126576
0000c0 e3 2d d4 3e 34 1f 49 bb 83 4a bc be 95 96 f3 be
       0.4144126 -0.0030688765 -0.36775598 -0.47575822
0000d0 dc c4 a1 bd f4 82 75 be f0 1d 58 be a2 d2 1e be
       -0.07898876 -0.23975736 -0.2110517 -0.15510038
0000e0 b0 d1 c6 be cb 8c 21 3f 9f af 40 3f fb 03 d2 3f
       -0.38831854 0.6310546 0.75267977 1.6407465
0000f0 58 78 24 3f 4d ff 1e 3c 35 43 8b be fc ef 5e 3d
       0.6424613 0.009704423 -0.27199712 0.054428086

bias f4 [8]
000000 f8 8c 02 3e 11 43 5e bf 5f 16 84 bf 9c c6 b3 bf
       0.12749088 -0.86821085 -1.0319327 -1.4044986
000010 d8 25 72 be f1 57 14 3f 21 20 0b 3e 68 00 06 bf
       -0.23647249 0.5794669 0.13586475 -0.5234437

weight f4 [8, 8]
000000 a0 4b a6 3f b1 35 8c 3f 7d 77 3e 3f 78 4a 8f 3d
       1.2991829 1.0953885 0.74401075 0.06996626
000010 ba bc 79 bf 32 6d 4e 3f b0 0d c2 bf 9f b4 63 3f
       -0.975536 0.8063537 -1.5160427 0.8894748
000020 3d 3b da be ef 5d e5 bd 73 3c 0f 3e 2e af a5 3e
       -0.4262332 -0.11199557 0.13987903 0.32360214
000030 66 70 c6 bc 94 4e 8f be 7b a2 47 3f 06 27 a9 3e
       -0.024223518 -0.27989638 0.779823 0.33037585
000040 d4 c1 ae be 7c 01 16 3e 56 49 43 be c4 17 88 bd
       -0.34132254 0.14649004 -0.19070944 -0.06645158
000050 db a0 d4 3e 51 06 4b bf d4 35 6e 3f cb 48 79 3e
       0.41528973 -0.79306513 0.93050885 0.24344175
000060 a8 0e 4c bd 01 07 d7 3d c9 77 66 3e b0 77 d4 be
       -0.049818665 0.10499383 0.22506632 -0.41497564
000070 2c 13 fc bd 19 c7 fd be 45 a8 c7 3d 83 3b f3 be
       -0.12308344 -0.49565962 0.09748892 -0.4750634
000080 9a ee 38 bf b3 7e 05 bd 24 e3 8c be f9 cd 2a 3f
       -0.7223908 -0.032591533 -0.27517045 0.6672054
000090 09 fa b5 3f b2 a3 35 bf 4b 0f 72 3f cd e3 5d 3e
       1.421693 -0.70952904 0.94554585 0.2166893
0000a0 92 fe d5 be a0 d3 32 be e8 12 be bd af d1 21 bf
       -0.41795784 -0.17463541 -0.0928095 -0.63210577
0000b0 7e 52 25 bc ee 02 c0 3e 04 5b 45 3e e1 b4 6d be
       -0.010090468 0.37502235 0.19273001 -0.23213531
0000c0 8b 65 9b bf c8 31 3c bf cc b3 49 be 34 87 24 3e
       -1.2140363 -0.7351346 -0.19697493 0.16067201
0000d0 c1 64 75 3f a6 e8 15 be ba b3 5e 3f c9 35 f5 be
       0.95856863 -0.1463953 0.8699299 -0.47892597
0000e0 0a 65 5e 3e 2b 15 04 3f 02 d5 3b 3f 7d a9 a2 be
       0.21718231 0.515948 0.733719 -0.31769934
0000f0 01 2b 57 be d3 b2 dc 3e ba 65 d4 be 52 95 81 3e
       -0.21012498 0.43105182 -0.4148386 0.25309235

weight f4 [8, 8]
000000 2a 4d bc be 1d 94 33 3f ea 5f 1b 3f b3 f8 8e bf
       -0.36777622 0.7014788 0.6069323 -1.1169647
000010 42 5a 81 3d ab 25 d9 be 38 b2 1d 3e 11 c4 73 bf
       0.063160434 -0.4241155 0.15400016 -0.9522105
000020 f8 26 92 3e 30 76 9d 3e 82 76 07 bd 3b 3b 4f 3f
       0.28545356 0.30754232 -0.033072002 0.80949754
000030 cd ff 08 bf 95 43 eb 3e 53 5b e5 3e 21 dd 35 3f
       -0.5351532 0.45949998 0.44796237 0.7104054
000040 17 1d 49 3e af 11 30 bf b1 5b 39 3f 58 cc 0c 3e
       0.19640003 -0.68776983 0.72405535 0.13749826
000050 1c 0a a3 3f 38 d5 7f bf 81 ff d2 3e 4c 3b 02 bf
       1.273746 -0.9993472 0.4121056 -0.5087173
000060 ba e8 37 3e 3e 32 7c 3c dd 07 23 3e ee 0e 3a 3f
       0.17959872 0.015392838 0.15920968 0.7267903
000070 3f 77 20 3f d5 6f 85 3f 2c 38 d6 bd c5 38 3c 3f
       0.62681955 1.0424753 -0.10459933 0.73524123
000080 30 39 06 3f 7a 04 1a bf f1 33 11 3f 41 8a 23 be
       0.5243101 -0.6016308 0.5671988 -0.15970708
000090 03 88 01 bf bc d9 02 bf 74 7c d6 39 e1 1c 09 bf
       -0.5059816 -0.51113486 0.00040909986 -0.5355969
0000a0 34 89 de bc 98 31 05 bf 8f 7d 4e 3e 15 37 ab 3e
       -0.027165033 -0.520288 0.20165084 0.33440462
0000b0 11 4e f5 3e d5 7f 46 bf 5a 76 9f 3f 35 94 51 3e
       0.47911122 -0.77538806 1.2457993 0.20466693
0000c0 80 6a 09 be a3 61 14 3b a6 69 43 3f dd 79 97 3e
       -0.13419533 0.0022641204 0.7633308 0.29585162
0000d0 ad 58 08 be d0 7b cf bc d1 5b aa bd b7 8f e1 be
       -0.13315077 -0.025327593 -0.08318294 -0.44054958
0000e0 56 80 96 be 2a 9c 1c 3f 9e 0b fb be ce 1e a5 3e
       -0.29394788 0.6117579 -0.490323 0.32250065
0000f0 10 62 db 3e d7 12 82 3d 4a 43 ec be 91 27 f2 bc
       0.42848253 0.0635125 -0.46145087 -0.029559882

bias f4 [8]
000000 f1 f8 d8 be fd f2 34 3d 1a 5b 0e 3f 29 3c 27 3f
       -0.42377427 0.044177044 0.5560776 0.6532617
000010 d6 ec 35 be 3c e6 96 be be 83 17 3f bc 18 9d be
       -0.17766127 -0.2947253 0.591854 -0.30682933

weight f4 [8, 8]
000000 30 7d e0 3e 21 80 4c 3e f0 44 cd be 8a 81 07 3f
       0.4384551 0.19970752 -0.40091658 0.52932036
000010 ed d1 25 bf 32 17 82 be 7e 12 a1 bf c7 82 39 bf
       -0.64773446 -0.25408322 -1.2583768 -0.72465175
000020 63 e4 a1 bf b3 14 48 3f 36 a0 24 3e 54 b6 62 3f
       -1.2647823 0.78156585 0.1607674 0.8855946
000030 43 19 70 3e d2 89 01 3f d8 8a bc be 2a cc 88 bf
       0.23447137 0.5060092 -0.3682468 -1.0687306
000040 4a cd 1b bf 3b e1 0b 3f 02 65 10 be 59 a4 e7 be
       -0.6086012 0.5464055 -0.14101031 -0.45242575
000050 0b 57 29 be eb 33 0e be c2 5f f4 3d 7e 88 f9 be
       -0.1653711 -0.13886993 0.11932327 -0.48736948
000060 5a 70 1f bf 15 d9 08 bf 55 1f bf 3e 43 dd db be
       -0.6228081 -0.5345624 0.37328592 -0.42942247
000070 bf 1e 07 3e cf 54 cb 3e 5f 43 2b 3f e8 09 57 bc
       0.13195322 0.3971314 0.66899675 -0.01312492
000080 c5 52 61 3e d9 1a cd bd 34 3f 87 3e da 8f 05 3f
       0.2200423 -0.100148864 0.26415408 0.52172625
000090 84 f4 b3 3e 40 e6 10 be 76 71 7c 3c ac bf 37 3e
       0.35147488 -0.14150333 0.015407911 0.17944211
0000a0 5b 7f a1 be 00 7b 5f 3f 92 1d cf be 84 f2 58 be
       -0.31542477 0.8729706 -0.40452248 -0.21186262
0000b0 79 29 c0 be 45 29 82 bd 4b 70 0e 3f 14 70 33 bf
       -0.3753164 -0.06355528 0.55640095 -0.7009289
0000c0 ab d3 18 bf 24 23 32 3f cf 1f 38 3f c8 5d a6 3e
       -0.5969798 0.6958487 0.71923536 0.32493424
0000d0 99 48 ea 3e 45 b1 45 3e f7 85 b0 3e 23 75 c6 be
       0.45758513 0.19305904 0.34477207 -0.38761243
0000e0 be 3b 5a bd 8b e7 cd be 11 d4 6b bf 06 13 5e bd
       -0.05327963 -0.40215716 -0.9212046 -0.05421736
0000f0 1b 9e 3c bf 2e 9d 2b 3f 4b d4 ff be 46 bf 9c be
       -0.7367875 0.6703671 -0.49966654 -0.3061468

weight f4 [8, 8]
000000 3f c6 88 3c d3 13 0b bd e1 a1 c9 be 25 42 9e be
       0.016696094 -0.033954453 -0.39381316 -0.3090984
000010 cc 8a e7 be 1b 14 60 bf b5 c1 88 3d 2b 78 a2 be
       -0.4522308 -0.8753068 0.06677572 -0.31732306
000020 fb 55 54 3f 0f a3 fd 3e 41 20 e0 be 96 d7 c5 bd
       0.82943696 0.49538466 -0.43774608 -0.096602604
000030 81 4d 92 3e fe 72 89 be bc fe fd be 06 b0 cb 3e
       0.28574756 -0.26845545 -0.4960841 0.39782733
000040 64 94 d0 bc c7 f4 8b bf bf cb 8a be 5d 5c 9b bd
       -0.025461383 -1.0934075 -0.2710857 -0.07585976
000050 40 b5 32 bf f0 52 ea be c0 49 9e be 08 db e6 be
       -0.69807816 -0.457664 -0.30915642 -0.45088983
000060 75 c2 96 be a8 a2 d2 bd 78 6e 99 be 3e ab 89 be
       -0.29445234 -0.102849305 -0.29967093 -0.2688846
000070 88 99 dd 3d fb a5 ad bd 8c 4a 06 3f be 53 2d be
       0.108202994 -0.08478924 0.524575 -0.16926476
000080 5e 8c a0 be 89 2b 69 bf 54 ec 93 3d 62 af e9 3c
       -0.31357092 -0.91082054 0.072228104 0.028526012
000090 82 87 53 3e c0 ce af bd a0 1d a3 3e f6 0f 3c 3e
       0.20657161 -0.08584356 0.3185854 0.18365464
0000a0 e8 4a 4d 3e c0 f4 06 3e aa 4a 56 bf 7c 94 0b 3f
       0.20048106 0.13179302 -0.8370768 0.54523444
0000b0 f3 bd 40 bf d8 6b 5e be 72 8e db be 2d 39 19 bf
       -0.7528984 -0.21720827 -0.42882115 -0.5985287
0000c0 b6 76 7d bd 0b b0 6e bd 19 61 78 be 23 ba 45 bd
       -0.06188079 -0.058273356 -0.2425579 -0.048273217
0000d0 c8 d2 27 bf 19 6c 28 3e 4e 98 11 3d 3d d1 72 be
       -0.65556 0.16447486 0.03554564 -0.2371263
0000e0 f6 76 cd be 46 f7 fc be 6b d0 d8 3e ff 2f 2b bf
       -0.40129822 -0.49407405 0.4234651 -0.6687011
0000f0 a6 fd dc 3e bb 46 35 3f 71 06 e2 3e 44 4e 5c 3f
       0.43162268 0.7081105 0.4414554 0.86056924

bias f4 [8]
000000 8e 44 03 3e e1 08 86 be 98 e1 14 3e c1 43 42 bd
       0.1281912 -0.2617865 0.14539182 -0.047427896
000010 f3 54 f6 be c0 12 24 3e 5f e6 3c 3e 43 df ee bd
       -0.48111686 0.16022778 0.18447255 -0.116636775

weight f4 [8, 8]
000000 c2 5f 27 bf 18 1b 0d bf 3f f9 32 3e c3 97 1d 3f
       -0.6538049 -0.55119467 0.17477892 0.61559695
000010 55 8a 8d 3f 12 29 4f bf f9 e8 f2 3f 36 b4 4f 3f
       1.105784 -0.80922043 1.8977348 0.81134355
000020 f1 b9 0a 3f 9b 9e 7f 3f f4 c3 59 3f d3 5d 42 bf
       0.54189974 0.9985139 0.85064626 -0.75924414
000030 4f ea e7 bd 03 47 4a 3f 43 31 12 bf 1a c7 e3 bd
       -0.11323988 0.79014605 -0.5710642 -0.1112196
000040 e8 fb c4 be 05 82 10 bf 83 e7 20 3f 4a 83 ff bd
       -0.3847344 -0.56448394 0.6285326 -0.12476213
000050 46 08 3b 3f ec ed ad 3e 5b f0 bf be 1e d5 30 3e
       0.730595 0.33970582 -0.37488064 0.17268798
000060 2e 0e 74 3f 25 8f d3 3d ad de ee 3d f5 bc 16 3f
       0.95334136 0.10330037 0.11663566 0.58882076
000070 e4 9d 47 3e ed f4 8a 3e 87 d6 c2 bc bc fe 0b 3f
       0.19493824 0.2713999 -0.023783935 0.5468557
000080 2b 43 a9 3d 64 45 c0 be 68 40 08 3f a1 67 36 bf
       0.082647644 -0.3755294 0.53223276 -0.71251875
000090 2c 88 2f bf 82 34 ba 3e 3e e9 ab be a6 c4 1b 3f
       -0.68567157 0.36368185 -0.33576387 0.60846937
0000a0 24 e9 8f 3d c3 e8 d7 3e c8 cf 67 bd 9a 73 e8 3e
       0.0702689 0.4216977 -0.05659464 0.45400697
0000b0 7a 1f a3 bd 80 b0 52 3f 31 99 d9 bd 8d 9c 9c 3e
       -0.07964988 0.8230057 -0.10624922 0.3058819
0000c0 c5 f1 72 be f8 a9 50 bf c9 cd 62 be f7 c0 99 bf
       -0.2372504 -0.8150935 -0.22148813 -1.2012013
0000d0 1d bf 8f bf 0f c8 4a 3e 20 8d de 3d 12 18 69 3f
       -1.1230198 0.19802879 0.10866761 0.91052353
0000e0 38 7f 29 3e 56 74 5d be eb af 3b 3d d9 85 17 be
       0.16552436 -0.2162641 0.045822065 -0.14797153
0000f0 c6 fc 2d 3e 8b e6 40 be cf 66 2a be 2b c7 39 3e
       0.16990957 -0.18837945 -0.16640781 0.18142383

weight f4 [8]
000000 cf 8e 82 3f 54 35 5f 3f d2 a6 8b 3e 19 b0 22 40
       1.0199832 0.8719075 0.2727571 2.5419981
000010 b8 29 5a 3f 8a 03 9c 3f 7a 01 62 3f df 87 71 3e
       0.8521991 1.218858 0.88283503 0.23586987

bias f4 [8]
000000 8a 53 79 bf bf e9 26 3f 12 42 37 bf bc de 16 3e
       -0.97393095 0.6520042 -0.7158519 0.14733404
000010 2c 0b 35 3f 3b 29 29 be f4 f8 2c 3f c6 15 98 bc
       0.7072017 -0.16519634 0.6756737 -0.01856507

running_mean f4 [8]
000000 e6 c1 c6 3e a1 c2 a2 3e 50 33 d1 3e 7c 42 53 3d
       0.38819808 0.31789115 0.4085946 0.051577076
000010 32 30 e0 3e 3a 8a 37 3f 74 57 0f 3f 5e 08 32 3e
       0.4378677 0.7169529 0.5599282 0.17386004

running_var f4 [8]
000000 59 a2 68 3e 72 95 1e 3e 78 aa 40 3e 69 16 1c 3d
       0.2271818 0.15486696 0.18815029 0.03810731
000010 71 f4 3d 3e 6a d7 31 3e 85 14 31 3e f9 d7 c9 3d
       0.18550278 0.1736733 0.17292984 0.09855647

weight f4 [8]
000000 82 ec 8a 3f ce 77 9f 3f 6f d0 84 3f 9b 60 83 3f
       1.0853426 1.2458436 1.0376109 1.0263857
000010 16 eb a7 3f 19 14 7b 3f ad c6 7f 3f 4f a9 a8 3f
       1.3118618 0.9807754 0.9991253 1.3176669

bias f4 [8]
000000 8e e3 a0 be 1f d8 58 3e d1 5d 63 3e 40 3e 83 be
       -0.3142361 0.21176194 0.22203757 -0.2563343
000010 d2 f9 8e 3d 81 c8 13 bd 2e 94 19 bd 68 68 c5 3e
       0.06981243 -0.036079887 -0.03749483 0.38556218

running_mean f4 [8]
000000 af 3a 93 3e de a3 c1 3e 2c a3 39 3f 07 58 40 3f
       0.2875571 0.37820333 0.72514606 0.7513432
000010 86 c1 d6 3e d4 f8 9a 3e 21 a6 03 3f 4a 45 ca 3e
       0.41944522 0.30267966 0.5142537 0.39505988

running_var f4 [8]
000000 94 be 28 3e 0f 13 3d 3e fc da 04 3e b7 54 11 3e
       0.1647895 0.18464302 0.12974161 0.14192472
000010 1f fb 2f 3e 3c c2 29 3e 5b e4 4e 3e 93 b8 63 3e
       0.17185639 0.16578001 0.20204298 0.22238378

weight f4 [8]
000000 b5 bf ed 3e d4 10 96 3f 15 5c ae 3f 8f a2 03 3f
       0.46435323 1.1723886 1.3621851 0.5141992
000010 9b c0 5b 3f 4f bd 1c 40 fe 53 e6 3f b5 27 ea 3f
       0.8584077 2.4490545 1.7994382 1.8293368

bias f4 [8]
000000 0b ad 5e be f2 a9 88 3e 6c ea 02 be 15 02 08 3e
       -0.21745698 0.26692158 -0.12784737 0.13282044
000010 84 4d a4 3a 6b 72 f8 bd e2 49 6e be 0b 37 17 be
       0.0012535308 -0.121311985 -0.23270372 -0.14767091

running_mean f4 [8]
000000 8a 0f 55 3f ee cf 05 3f 71 cf 7c 3f 0a 06 2f 3f
       0.83226836 0.522704 0.9875403 0.6836859
000010 b2 ad d9 3e 02 46 79 3f 0e 9c 65 3f 79 46 d8 3c
       0.42515332 0.9737245 0.89691246 0.026400791

running_var f4 [8]
000000 a8 7d cf 3d 54 94 70 3e e1 4b 1e 3c 61 18 3a 3e
       0.10131389 0.23494083 0.009661646 0.18173362
000010 e4 25 70 3e a0 fe bd 3c 97 6c b8 3d 3c 82 7f 3c
       0.23451954 0.023192704 0.09005087 0.015595015

weight f4 [8, 8]
000000 a3 99 bd be 45 56 f2 3e 03 92 b2 3e 3d 74 b5 bf
       -0.37031278 0.47331443 0.34877023 -1.4176098
000010 ac 03 17 3f 04 35 a4 3e 0f 6c 3d 3d 0a 14 bf 3d
       0.5898998 0.32071698 0.04624563 0.09329994
000020 91 b2 1f bf 80 74 47 3d da 33 38 bf bf 5c be be
       -0.62381846 0.048695087 -0.7195412 -0.37180135
000030 ad ff 8c 3e 74 1d 2f 3f f1 9b 92 3d 7d 7e cf be
       0.27538815 0.68404317 0.0715865 -0.4052619
000040 2e b7 b7 bf 87 3c eb 3e d8 64 5a bd 1f 2b b8 3f
       -1.4352777 0.45944616 -0.05331883 1.438816
000050 d0 97 89 be 0f d1 54 bf 2d d5 ab bd bb b5 85 3e
       -0.26873636 -0.831315 -0.083902694 0.26115212
000060 c1 b3 33 3f de c3 96 bf 4c 86 31 3e 19 9f 32 bd
       0.7019616 -1.1778524 0.17336386 -0.04360876
000070 a5 a8 96 bf 49 13 26 3f 5a e4 11 be bd 0e ad bd
       -1.1770216 0.64873177 -0.14247265 -0.08450077
000080 90 0d 17 3f 9b 1d 17 be 67 db 03 bf a9 dc e9 3e
       0.5900507 -0.14757387 -0.51506656 0.45676163
000090 3e 3d b6 be 51 7d dd be 72 dc 83 bf 3f a9 9f 3e
       -0.355936 -0.4325967 -1.030165 0.31183812
0000a0 ec 8b 62 3e ff 5f 3f bf f8 22 36 bf b6 d5 d2 bf
       0.22123688 -0.74755853 -0.7114711 -1.6471469
0000b0 13 16 c1 be a9 db 1e 3e 4d 2d 48 be 4a 18 14 be
       -0.37712154 0.15513481 -0.19548531 -0.1446239
0000c0 e3 48 54 bf 34 e2 11 3f 23 1f a9 bd 20 df 82 3f
       -0.82923716 0.56985784 -0.08257892 1.0224342
0000d0 4a 5e 3c 3e 24 94 90 be 5a 4c b7 3e 7a 39 d9 bd
       0.18395343 -0.28238022 0.3580044 -0.10606666
0000e0 f6 ce f9 be 56 f6 45 3e a8 21 c0 be a1 37 de bd
       -0.4879071 0.19332251 -0.37525678 -0.10850454
0000f0 61 13 84 be 48 85 fd 3d 1d 46 ee 3e 86 db 20 be
       -0.25796035 0.12378937 0.46537867 -0.15708742

bias f4 [8]
000000 99 b5 a5 be e4 c8 3f 3f c4 38 96 3e ab df 99 bf
       -0.3236511 0.7491591 0.29340184 -1.2021383
000010 a0 8c d2 3d d7 12 27 3e 7e a4 db 3e 9d 5c 0a 3f
       0.10280728 0.1631578 0.42898935 0.54047567

weight f4 [8, 8]
000000 21 8e 4b be f5 3e b7 bd 56 24 b7 be e0 51 1c 3f
       -0.19878437 -0.08947555 -0.3576991 0.6106243
000010 1f 9a 00 bf 59 86 96 3f 86 e0 79 be 71 94 66 3e
       -0.5023517 1.175975 -0.24402055 0.22517563
000020 cc 3c a7 be 0d e3 e2 be 6b 6c 6f 3e 7b 3d e0 3e
       -0.32663572 -0.4431385 0.23381202 0.43796906
000030 ee e2 9d 3d 55 92 14 3f a8 5f e6 bd 3f f4 8e bf
       0.07709299 0.58035785 -0.11248714 -1.1168288
000040 34 e1 3c 3f 68 e8 ff be f0 8d 3c be 50 08 0e bf
       0.7378113 -0.49982 -0.1841352 -0.55481434
000050 e6 0f 15 be 7f cc 15 bf 34 85 40 bf 49 3a e8 3e
       -0.14556846 -0.5851516 -0.7520325 0.45356968
000060 66 6e 7b 3e ce e0 1e 3f e5 e9 d9 be 51 f1 98 3d
       0.24553832 0.62061775 -0.4256126 0.074679025
000070 c1 db 2c bf 60 43 a1 be 5c 3a 10 bf 9c 08 7b 3f
       -0.6752282 -0.31496716 -0.5633905 0.9806001
000080 2b 8d 81 3f 8d 94 21 3f 6f 5e ed 3e df f9 22 bf
       1.0121206 0.63117296 0.4636111 -0.63662523
000090 a1 e0 6d 3e 45 6b d2 be 8a 55 03 be 6e ca 3e 3f
       0.2323022 -0.41097465 -0.128256 0.74527633
0000a0 83 51 34 be 9a 58 d2 be 99 88 2e 3e 6c 17 4d 3c
       -0.17609219 -0.41083223 0.17044295 0.012517791
0000b0 d4 f1 39 3f 38 77 96 3e f9 5d 1b 3f 4c 9c 48 bf
       0.72634625 0.29387832 0.60690266 -0.7836349
0000c0 cb ea e9 3d e7 43 7b be 48 bf f6 bc 1d aa 7e 3e
       0.11421736 -0.24537621 -0.030120507 0.2486958
0000d0 3a ee bc be f3 69 3e 3e f6 ed 15 be 02 8f 74 bf
       -0.36900502 0.18595104 -0.14641556 -0.9553071
0000e0 31 cb fd be 85 d9 81 bf f7 a6 06 3f 29 21 da 3e
       -0.49569085 -1.0144507 0.5259852 0.42603424
0000f0 e3 a4 0a bd e0 bb 1e 3f 3e 97 04 3e da e0 79 bd
       -0.033848654 0.62005424 0.1294832 -0.06100545

weight f4 [8, 8]
000000 c9 d1 f8 be 89 b7 d3 3f 0e 5f 94 be 40 f2 22 bf
       -0.48597553 1.6540385 -0.2897877 -0.63650894
000010 e6 cf 04 3e fa b7 d5 3e e3 45 13 3e dc 04 b0 3b
       0.12969932 0.41741925 0.14382128 0.005371673
000020 89 77 bd be f3 d4 a8 3c 52 c2 bd 3e 25 c8 01 bf
       -0.3700526 0.020609355 0.37062317 -0.5069602
000030 6b 20 08 be 74 eb 1c 3f b3 88 ce bd 76 30 c0 bd
       -0.13293616 0.6129677 -0.10084667 -0.09384243
000040 54 de 13 bf 8f 6e 0b be 43 4b 16 bf be ea 4b 3e
       -0.5776112 -0.13616394 -0.5870859 0.19913766
000050 71 42 58 3f fa 85 59 be 81 04 06 3f 39 dc a3 bd
       0.8447638 -0.21242514 0.5235062 -0.080009885
000060 84 29 c0 3e e0 39 f2 bb d9 0f c3 be a5 03 b9 3e
       0.37531674 -0.007392153 -0.38098028 0.36135593
000070 ec 1a 9b 3e 8d 7c 30 3e 7e f4 90 3e 21 e2 0b bf
       0.30293977 0.17235012 0.28311533 -0.5464192
000080 51 3f 30 bc 5e eb e3 3e 9f 84 6c bd b3 1b 18 3d
       -0.010757283 0.44515508 -0.057743665 0.03713579
000090 2e 32 16 3f e2 69 7c bb e5 a0 8d bb f4 15 a1 be
       0.5867032 -0.003851526 -0.0043221586 -0.3146206
0000a0 c6 f9 74 3e 21 eb 9a 3d 6e 0d aa 3d df 78 17 3e
       0.23923406 0.075643785 0.08303343 0.14792202
0000b0 df dc 42 be 36 0f 4e bf b8 82 65 3e 57 29 f8 be
       -0.19029568 -0.8049196 0.22413146 -0.4846904
0000c0 7f 7c 5f bf 99 99 eb be 3d 9e 1f 3f 08 22 08 3f
       -0.8729934 -0.46015623 0.6235083 0.5317693
0000d0 a5 fa e2 be ec 48 ad be 5c 65 2d bf 9c 55 0d bf
       -0.44331852 -0.33844697 -0.6773279 -0.55208755
0000e0 47 ec 55 be cb 52 a1 be 9c 8c cc 3e 3e fd 31 3f
       -0.20890914 -0.3150848 0.39951026 0.6952704
0000f0 a0 51 dd be 99 74 53 3d dc 89 25 bc 4e f5 df bd
       -0.43226337 0.051624868 -0.010103669 -0.1093546

bias f4 [8]
000000 fb 27 15 3e 26 b2 6f 3e 20 a7 07 3e 24 1c fa 3e
       0.14566033 0.23407802 0.13247347 0.48849595
000010 05 58 10 bf 4d aa a3 be fe e5 80 bf 1c 1a a6 3e
       -0.5638431 -0.31965867 -1.0070188 0.32441795

weight f4 [8, 8]
000000 6f 91 a5 bd 89 29 f3 3e 68 38 0b 3f 0c a5 f7 3d
       -0.0808438 0.47492626 0.54382944 0.12092027
000010 ad 83 b5 be 9b e1 94 3e 40 76 77 be fd 8f 4f bf
       -0.35452023 0.29078373 -0.24166203 -0.81079084
000020 7c 14 28 3a 66 7a 9e be db 01 1e 3e 5c 12 17 bf
       0.0006411744 -0.30952758 0.15430395 -0.5901239
000030 ad fb 94 3e 54 a7 77 be 09 39 12 be 43 19 36 3e
       0.29098263 -0.24184924 -0.1427957 0.17783074
000040 55 b2 2a 3e 8a fa 27 3e 76 f1 fe be 52 8d f4 be
       0.16669591 0.16404167 -0.49793595 -0.4776407
000050 0f 05 73 3d ab fa ce bf 5b 7a 92 bf dd 83 8b 3f
       0.059330996 -1.6170248 -1.144359 1.0899616
000060 23 45 c5 be 01 41 75 3f 14 01 00 bf 14 97 27 be
       -0.3852931 0.95802313 -0.50001645 -0.16366225
000070 2a b3 b5 bd ff 0d 03 be 3a e6 ac 3f f0 f6 18 be
       -0.088720635 -0.12798308 1.350776 -0.14937949
000080 aa 1c 5c 3e c1 e6 11 bf 21 3a 2e 3f 45 e3 0f 3f
       0.2149531 -0.5699273 0.6805745 0.5620616
000090 f1 c7 a5 3f e6 d3 0f bf 36 65 94 3d e5 de 62 3e
       1.2951642 -0.56182706 0.07245867 0.2215534
0000a0 aa 45 76 3e c0 0d b3 3e ed c2 bf be ac 57 6b 3d
       0.24050012 0.34971428 -0.37453404 0.057456657
0000b0 0e c0 e4 be aa 66 94 3d bb c7 c0 3d d3 a4 a5 bd
       -0.44677776 0.07246144 0.094130956 -0.08088078
0000c0 7f 92 81 be 0c c5 7e 3d 43 35 95 bf c7 6e 8a 3e
       -0.2530708 0.062199637 -1.1656879 0.2703764
0000d0 76 89 21 be 14 e4 24 3d 84 ac d9 3e 4f b3 7c be
       -0.15775093 0.040256575 0.4251443 -0.24677776
0000e0 25 6c 22 3f 84 80 b1 3e 75 cf 2c bf cb c7 5b be
       0.63446265 0.34668362 -0.67504054 -0.21462934
0000f0 9f 5a d0 bf 86 f9 a4 bf d7 02 a4 bf c1 e3 d3 be
       -1.6277655 -1.2888649 -1.2813367 -0.413847

weight f4 [8, 8]
000000 02 b1 bc bd de b8 60 3f ab 8d af be 5a fe 8c 3e
       -0.09213449 0.87782085 -0.34287772 0.27537805
000010 e8 af ef be b5 4c 64 bf d7 b1 94 be b7 e4 68 3e
       -0.46813893 -0.89179546 -0.2904193 0.22743498
000020 a7 14 4a be b6 39 4f 3e a2 94 a0 3d ea c4 11 be
       -0.1973444 0.20236859 0.078408495 -0.14235273
000030 79 49 62 3e 6e 56 0e bd f1 b0 16 bf 9d 55 9e 3b
       0.2209834 -0.034750395 -0.5886374 0.0048319832
000040 32 b4 82 3e b0 af e3 be 79 bc 9d be d1 ec 2e 3e
       0.25528103 -0.44469976 -0.30807856 0.17082526
000050 95 29 ab 3c 9c ac c5 bd b3 1e 85 be ed f3 0e bf
       0.020893851 -0.09652063 -0.25999984 -0.5584095
000060 21 d1 08 3f db 1d 0c bf 6a 20 07 bf 67 2a 0e bf
       0.53444105 -0.54733056 -0.52783835 -0.5553345
000070 6c db be be ec 0a f0 3d cd 8c 26 be 08 33 b3 bd
       -0.3727678 0.11720833 -0.16264649 -0.08749968
000080 81 d7 8d be 97 f5 19 be 3a 4b b4 3d aa b9 74 bf
       -0.2770348 -0.15035091 0.08803411 -0.955958
000090 0f 1b a0 be d6 15 33 be b4 8d 46 be 25 38 0b bf
       -0.31270644 -0.17488798 -0.19389993 -0.54382545
0000a0 c8 f2 22 3e ea 1c 4e be 6c 14 15 3f d8 61 52 3f
       0.15912926 -0.20128217 0.58234286 0.8218055
0000b0 bf 95 64 3e 1b 69 af bf f8 a8 02 3f 54 dd 3c 3f
       0.22322749 -1.3703951 0.51039076 0.7377522
0000c0 d9 f9 02 3f 62 36 21 bf c0 53 9f be 67 82 92 3e
       0.5116249 -0.62973607 -0.31118584 0.28615114
0000d0 a6 b6 af 3b fc 7c 13 bf 5b d7 7d bf 0a 5a 5a bf
       0.0053623496 -0.57612586 -0.9915673 -0.8529364
0000e0 88 42 ea 3e f2 52 c3 be 25 40 08 bf 60 b6 29 3e
       0.45753884 -0.3814922 -0.53222877 0.16573477
0000f0 27 76 b5 3d 56 cc 80 3f f7 b7 1f be cd 7c 90 be
       0.088604264 1.0062358 -0.15597521 -0.28220215

bias f4 [8]
000000 a4 b9 b9 3d d0 4f 40 3f 5e 4f d8 3e c7 ca b0 bf
       0.09068611 0.75121784 0.42248052 -1.3811883
000010 cc 04 05 3f cc c4 45 3f 2f 90 36 3f ff 7e a8 3e
       0.51960444 0.77253413 0.71313757 0.3290939

weight f4 [8, 8]
000000 a2 d9 ee 3b a8 b5 37 bd ab 4b 3a bf 1d 1a ea 3d
       0.0072891274 -0.044850975 -0.7277171 0.11430762
000010 f9 78 aa be 0b 14 84 3f 88 4b 4e be 43 06 15 3f
       -0.3329542 1.0318617 -0.20146 0.5821268
000020 b9 23 22 3e 09 1c ee 3d 80 6d 85 3e f5 79 b8 3e
       0.1583394 0.11626441 0.26060104 0.36030546
000030 b6 ca aa 3e 0d 90 22 3f ff 1d 0c be a0 51 e3 be
       0.3335778 0.63501054 -0.13683318 -0.44398212
000040 f6 7b 74 3f 83 e4 d2 bd 64 90 5d 3e 11 c7 d9 bd
       0.9550165 -0.102974914 0.21637112 -0.10633672
000050 c5 38 86 3e 9f 74 ff 3c 16 76 46 bf f7 a6 64 3e
       0.26215187 0.031183539 -0.77523935 0.22329317
000060 24 5a fc 3c 9c f6 29 3f 1c 49 4a be 89 43 af 3e
       0.030804701 0.6639192 -0.19754452 0.34231213
000070 f1 f8 2e bf 45 f7 ca bd c8 1f 54 bf 26 96 0b 3f
       -0.68348604 -0.09910444 -0.82860994 0.54525983
000080 28 2b 84 3f 5c 80 97 3e e2 29 34 3f 56 e7 59 bf
       1.032567 0.29590118 0.7037641 -0.85118616
000090 71 8d 3c 3e 49 91 cd be 4a 4b 03 3f 76 d5 42 3f
       0.1841333 -0.40149906 0.51286757 0.76106966
0000a0 a1 d4 33 bd 16 14 22 bf 2a 55 87 3d 8c c4 e7 be
       -0.04390395 -0.633119 0.06608041 -0.4526714
0000b0 d6 75 88 3f 27 be 66 bd aa 11 9c 3e 8c a6 15 bf
       1.0660961 -0.056333687 0.30482227 -0.58457255
0000c0 86 9a 34 be 9e 72 35 be 23 cc 89 3e 89 f0 af be
       -0.17637071 -0.17719504 0.26913556 -0.343632
0000d0 ee a1 cf be 77 f0 a9 3e 44 ad 75 be 54 2c 19 bf
       -0.4055323 0.33191273 -0.23991877 -0.59833264
0000e0 8a db 37 bf 9e e5 59 bf 55 0c 64 3f 20 ea 0b 3f
       -0.71819365 -0.85115993 0.8908132 0.5465412
0000f0 a3 d0 07 3f 01 c5 f8 3d 8a 1e 12 3f b6 e0 1a bf
       0.5305273 0.121469505 0.5707785 -0.6049913

weight f4 [8, 8]
000000 89 48 17 3c 99 9e 15 3e 5d eb bc bf bf ef 0f 3f
       0.009233602 0.14611281 -1.4759327 0.562252
000010 61 06 34 bf 7a 57 03 be 18 e8 91 be c6 64 5d bd
       -0.70322233 -0.12826338 -0.28497386 -0.054051183
000020 e2 07 76 3e e2 11 81 bf 3a 74 a0 3d dd 34 22 bf
       0.24026445 -1.0083582 0.078346685 -0.6336191
000030 c1 83 4b 3f 62 fc d0 3e 42 3e 25 3f a8 5f 26 be
       0.79497916 0.40817553 0.6454812 -0.16247427
000040 b0 95 d8 3e b7 c0 14 bf 54 cc 91 be 07 93 73 3e
       0.42301702 -0.5810656 -0.28476202 0.23786555
000050 ef 68 32 3f fd 6a e4 be 96 fe bf 3f 4b 52 2e bf
       0.69691366 -0.44612876 1.4999568 -0.6809432
000060 fc 9e 12 3f 86 31 82 be 7a e4 43 3f 0a c0 1f 3e
       0.5727384 -0.25428408 0.765205 0.15600601
000070 cf a4 fb 3e 28 20 e9 3e b3 dc e2 3d dc 0c bc bf
       0.49149176 0.45532346 0.11077251 -1.4691424
000080 b8 09 b7 be a4 d8 13 3e e2 8d 7b bf 35 ed 10 3f
       -0.35749602 0.1443811 -0.9826337 0.5661195
000090 d2 2f fc be c8 cf 46 3f 4b 82 48 bf 0c dc c0 bd
       -0.49255234 0.776608 -0.7832381 -0.094169706
0000a0 30 c3 8d bf b2 48 b1 3e ed b8 45 3e 7c 4d 36 be
       -1.1075191 0.34625775 0.19308825 -0.17802995
0000b0 11 c7 ee bd 8c 69 88 be 5f 3a 24 bf ba 11 71 bf
       -0.11659063 -0.26643026 -0.6415157 -0.94167674
0000c0 ed e2 f5 3e 3b d3 a1 3f c2 91 73 bf 1f ad 8d 3e
       0.48024693 1.2642587 -0.95144284 0.27671143
0000d0 a5 97 61 3e 8e 29 2f bf e9 85 a6 3e 3d 70 bb be
       0.22030504 -0.6842278 0.3252404 -0.3660907
0000e0 c3 98 a8 be a6 84 69 3f 9a 46 15 bf 3b 71 45 bf
       -0.32929048 0.9121803 -0.58310854 -0.771259
0000f0 a7 d7 0b 3f 84 0c 61 be 82 42 5b 3f 35 16 fb 3e
       0.54625934 -0.2197743 0.8564836 0.4904038

bias f4 [8]
000000 db fe af bf 1b 03 27 bf a0 e3 29 be b2 d9 bd be
       -1.3749651 -0.65239114 -0.16590738 -0.3708015
000010 36 ff 26 3d 60 56 ba 3e 3a 6c 50 bd a4 e0 e5 3e
       0.040770732 0.36394024 -0.050884463 0.4489795

weight f4 [8, 8]
000000 cd 86 f6 3e d0 25 66 3b 9c 04 39 3f 06 95 6b 3e
       0.4814972 0.0035117753 0.7227266 0.23006067
000010 c7 af 1f 3d f4 ca 50 3f f6 91 10 be 71 79 35 be
       0.038985994 0.8155968 -0.1411818 -0.17722107
000020 04 e6 28 bf 48 f8 6b 3c ca 7a f3 3e ac a3 60 3e
       -0.65975976 0.014402457 0.47554618 0.21937436
000030 5c db ba bd 43 99 5c 3f 8b ad 20 be 39 a7 f6 3d
       -0.09123871 0.8617136 -0.15691201 0.12043614
000040 9e 25 e1 3d d9 ab 3f be 14 d7 b4 3e 98 52 3f 3f
       0.10993503 -0.18717898 0.35320342 0.74735403
000050 80 91 2c bf 49 40 28 3f d2 c3 f6 be 8b 02 12 3e
       -0.67409515 0.6572309 -0.48196274 0.14258783
000060 2c f4 1e bd a2 c3 4c 3e c3 07 c4 3e 0b 14 03 3e
       -0.03880708 0.19996503 0.38287172 0.12800615
000070 72 b3 52 be 6f 4b 6b 3f 29 0b af be e4 37 5e 3f
       -0.20576265 0.9191198 -0.34188202 0.8680403
000080 8c f0 ed bd 18 c4 11 be b7 40 7d 3f 1f 35 2c 3f
       -0.11618146 -0.1423496 0.9892687 0.67268556
000090 99 30 4d 3e c0 eb e7 3b 01 dd f4 3e a0 db cc be
       0.2003807 0.007077664 0.47824863 -0.4001131
0000a0 35 92 6e 3f 15 73 42 bf e0 82 0e bf ac 27 b0 be
       0.93191844 -0.7595685 -0.5566845 -0.34405267
0000b0 25 c3 3b bf 8b 41 08 bf 76 c8 c5 bf c8 2d 43 3e
       -0.7334464 -0.5322501 -1.5451801 0.19060433
0000c0 35 cd d9 3e 81 aa c5 be 5e 9d 9c 3d f6 07 90 bf
       0.42539373 -0.38606647 0.07647203 -1.125243
0000d0 c4 73 22 3f 87 72 06 be 4c fd 1c bf 04 ea 8f 3e
       0.63457894 -0.13129626 -0.61324 0.28108227
0000e0 9c 0f 38 3d df 21 9e 3e 70 31 d1 be f7 3f 0e 3f
       0.04493676 0.30885217 -0.4085803 0.5556635
0000f0 6f 8f 2b 3f 6d c1 4a bf f9 cd 8e be 12 8a 31 bf
       0.6701574 -0.79201394 -0.2789152 -0.69351304

weight f4 [8, 8]
000000 b2 d4 ca 3e d0 2d 01 bf c8 a5 5c 3e b9 a6 94 be
       0.396154 -0.5046053 0.21547616 -0.2903345
000010 c8 10 5e bb 8b bb 78 be 9c d8 48 bf 89 90 4c 3f
       -0.0033884514 -0.24290292 -0.7845552 0.79908043
000020 26 75 4c 3e 73 d2 06 3f ba 3e b6 be e7 b2 6e be
       0.19966564 0.5266487 -0.35594732 -0.23310433
000030 8b 62 75 3e e1 0b d9 3f 92 3b 64 be 34 ca a8 bf
       0.23963372 1.695675 -0.2228835 -1.3186707
000040 d2 f0 a5 3d d7 e9 e9 3e 4b 12 d6 bd c2 70 ed bb
       0.081025735 0.45686218 -0.10452708 -0.007246108
000050 77 82 88 3d 06 30 c1 3e 82 b5 28 3f 67 66 14 be
       0.06665509 0.3773195 0.6590196 -0.14492188
000060 81 f3 7f 3e 87 1d c6 be 13 60 a7 3d 6f ca 3c be
       0.24995233 -0.38694403 0.081726216 -0.18436597
000070 dc 7c 83 be 55 6d 8c be 61 88 8b be c3 ad 31 3f
       -0.25681198 -0.27427164 -0.27252486 0.69405764
000080 c8 19 69 ba 0b 8e 70 be 6c 2a b7 3e 6d 11 c6 3e
       -0.00088920863 -0.23491685 0.35774553 0.3868517
000090 de 39 52 3f 10 e7 4b be 02 1c ab bd 96 84 63 3f
       0.8211955 -0.19912362 -0.083549514 0.88874185
0000a0 cb 74 3d be be 0f ab 3e a9 83 f3 be 88 8f a7 3c
       -0.18501584 0.33410448 -0.47561386 0.020454183
0000b0 81 d0 9e be 55 b7 f9 be 9f 3e 54 3d bf 99 65 be
       -0.3101845 -0.48772684 0.051817533 -0.2242193
0000c0 c8 9b 95 bc 4c f1 65 be ef d0 d5 bc b0 0a 7a 3e
       -0.018262759 -0.22455329 -0.026100604 0.2441814
0000d0 47 07 21 bd 7c 1e a5 3f 10 9e 77 3d 09 b0 dd be
       -0.03931358 1.2899928 0.060453475 -0.43298367
0000e0 39 cd 38 bf 44 18 4a 3f 08 3f fa be 03 da c7 3e
       -0.72188145 0.78943276 -0.48876214 0.39033517
0000f0 1b 37 ab be 1b 8d f4 be 7f d7 cf be 2b 3c 0e bf
       -0.3344048 -0.47763905 -0.40594098 -0.5556056

bias f4 [8]
000000 84 5f c9 bb ae da 8c 3f ce 86 be 3e dd 8c 8c bf
       -0.0061454196 1.1004236 0.37212223 -1.0980488
000010 e9 67 8d 3e d1 42 49 3e fb c3 b8 3d d7 36 a4 3c
       0.2761834 0.19654395 0.09021755 0.02004568
