mlartifacts/403163061964527456/f1e5db5ab1b34a51bce6a3b479c7a310/artifacts/models/data/model.pth (torch, 151610 bytes, 100 tensors)

bias f4 [16]
1.424452e-14 4.5769e-41 -1.0433732e-37 3.0872e-41 1e-45 0.0 -9.3941973e-38 3.0872e-41
0.0 0.0 0.0 0.0 -9.1209957e-38 3.0872e-41 6.7394894e+28 3.0872e-41
00000000: a04d 8028 967f 0000 4004 0e82 0f56 0000
00000010: 0100 0000 0000 0000 00bc ff81 0f56 0000
00000020: 0000 0000 0000 0000 0000 0000 0000 0000
00000030: 104c f881 0f56 0000 c0c3 596f 0f56 0000

weight f4 [16, 3]
0.014899485 -0.37883505 0.101334214 0.031794496 0.35373032 0.09559162 -0.13215303 0.5208672
0.4181073 -0.053917978 0.17038265 0.0443588 0.43735695 -0.3758966 0.17232347 -0.23512454
-0.33729264 0.024281848 -0.29528445 -0.530457 0.56420547 0.27755052 0.14679436 -0.3035958
0.19849525 0.43281558 0.2390933 -0.37844148 -0.24281387 0.29866838 -0.5318784 -0.44410083
0.5500725 -0.16449077 -0.3439601 0.5369658 -0.5577572 -0.16688363 -0.1234535 -0.24895571
-0.4128948 -0.24543509 0.37724367 -0.2986946 0.22299418 -0.18083243 -0.4204998 0.22593999
00000000: f81c 743c abf6 c1be 5088 cf3d f23a 023d
00000010: 241c b53e 8ac5 c33d 2053 07be 8e57 053f
00000020: 2912 d63e 19d9 5cbd ca78 2e3e 93b1 353d
00000030: 40ed df3e 8575 c0be 9075 303e 7dc4 70be
00000040: 9fb1 acbe baea c63c 862f 97be 08cc 07bf
00000050: c56f 103f 1a1b 8e3e 4351 163e e970 9bbe
00000060: 5742 4b3e 019a dd3e e0d4 743e 15c3 c1be
00000070: 33a4 78be 10eb 983e 2f29 08bf 2f61 e3be
00000080: 8dd1 0c3f 4570 28be 8a1b b0be 9776 093f
00000090: 2dc9 0ebf 8be3 2abe 30d5 fcbd 3fee 7ebe
000000a0: f266 d3be 5653 7bbe 1526 c13e 80ee 98be
000000b0: 9658 643e 232c 39be c04b d7be d05c 673e

weight f4 [16, 3]
-0.35351014 -0.29174206 -0.31389114 -0.04516757 -0.13738826 -0.031179335 0.42497388 0.15710257
-0.1464044 0.54954463 0.54028153 -0.5561582 -0.3203833 0.028887238 0.26886618 0.356141
-0.22341175 0.44405735 0.27122986 -0.24798322 0.5742293 0.5048973 0.47112814 0.11996797
0.5082721 0.054050397 0.18979193 0.16122259 0.33435655 -0.033207484 -0.3278597 -0.53310114
-0.038369674 -0.4526429 -0.18766543 0.44892707 0.5765 -0.009800616 0.31953773 -0.3326854
0.0076646158 -0.091613434 0.49297065 -0.043634687 0.45981836 -0.09006493 0.059369303 -0.23018019
00000000: 48ff b4be 375f 95be 57b6 a0be a101 39bd
00000010: 82af 0cbe ce6b ffbc 2d96 d93e 7fdf 203e
00000020: 09eb 15be f5ae 0c3f e44f 0a3f 6260 0ebf
00000030: 4809 a4be eea4 ec3c d4a8 893e 1d58 b63e
00000040: 0dc6 64be 7c5b e33e a4de 8a3e 50ef 7dbe
00000050: b100 133f f340 013f b537 f13e c4b1 f53d
00000060: 1f1e 023f f363 5d3d d158 423e 8917 253e
00000070: c830 ab3e 9204 08bd 3add a7be 5179 08bf
00000080: 8529 1dbd cfc0 e7be 5e2b 40be c5d9 e53e
00000090: 8195 133f c392 20bc 739a a33e be55 aabe
000000a0: 7527 fb3b d39f bbbd a666 fc3e 49ba 32bd
000000b0: 506d eb3e f673 b8bd 3a2d 733d 5bb4 6bbe

bias f4 [16]
-0.33624807 0.017276581 0.56266433 0.51263446 -0.22147988 0.32721266 -0.36586702 -0.1752866
0.32130903 -0.00028294168 -0.46619195 -0.03270919 0.45709956 -0.13061926 -0.2125919 -0.28719792
00000000: b528 acbe 9e87 8d3c c50a 103f 033c 033f
00000010: 9fcb 62be 6b88 a73e ec52 bbbe 557e 33be
00000020: 9e82 a43e ca57 94b9 b6b0 eebe 12fa 05bd
00000030: f408 ea3e 0ec1 05be b1b1 59be 9b0b 93be

weight f4 [16, 1]
-0.55129945 -0.34255707 0.6324215 0.701645 0.29222512 0.47227383 0.62872016 -0.84967995
0.13588285 -0.08823013 0.38854766 -0.84616566 -0.26063347 -0.5699339 -0.6857414 0.6003891
00000000: f621 0dbf a463 afbe 60e6 213f 029f 333f
00000010: 889e 953e e0cd f13e cef3 203f a084 59bf
00000020: e024 0b3e 00b2 b4bd b8ef c63e 509e 58bf
00000030: c071 85be 30e7 11bf c08c 2fbf 1ab3 193f

weight f4 [16, 1]
0.857805 -0.76927495 -0.15770936 0.6509541 -0.11471367 -0.84256876 0.45440722 -0.31336188
0.87831295 -0.5508946 0.06736326 -0.6787654 -0.21470904 -0.45162988 -0.03913212 0.88619506
00000000: 1c99 5b3f 34ef 44bf 907e 21be eea4 263f
00000010: 00ef eabd 96b2 57bf 10a8 e83e f870 a0be
00000020: 1ed9 603f 6e07 0dbf c0f5 893d 92c3 2dbf
00000030: b0dc 5bbe 083c e7be 0049 20bd aedd 623f

bias f4 [16]
0.18744886 0.7801012 -0.8090538 -0.49559605 -0.4757074 0.49842513 -0.58710825 0.21333694
-0.58183897 -0.35442698 -0.62591445 -0.8423519 0.13315904 0.26788688 -0.3215257 -0.24279499
00000000: 98f2 3f3e b6b4 473f 261e 4fbf c4be fdbe
00000010: ec8f f3be 9431 ff3e ba4c 16bf 0075 5a3e
00000020: 66f3 14bf 7477 b5be ee3b 20bf 60a4 57bf
00000030: d85a 083e 7828 893e 049f a4be 409f 78be

weight f4 [16, 3]
0.03270162 0.07107343 -0.0043817763 0.15045616 -0.3818408 -0.0819906 0.062066574 -0.45631748
-0.25291726 0.4940795 -0.14882396 -0.17361814 0.5577473 -0.36849746 0.08383003 0.42305267
0.4651549 -0.46097505 -0.12273069 0.20682776 0.17217907 -0.31294122 -0.18055953 -0.060806654
-0.33750772 -0.028111575 0.25359154 -0.008187965 0.09283591 0.46678984 -0.27087465 -0.51581466
0.14083695 -0.33623424 0.54972804 0.3624676 -0.1551217 -0.21000887 0.4996119 0.0057780393
-0.24416967 -0.3473272 -0.0043473635 -0.20568746 0.07772527 0.28133646 0.18595257 0.3061045
00000000: 22f2 053d f28e 913d 0195 8fbb 2e11 1a3e
00000010: a380 c3be b0ea a7bd 8539 7e3d 72a2 e9be
00000020: 5f7e 81be fdf7 fc3e 4f65 18be f4c8 31be
00000030: 87c8 0e3f b3ab bcbe 14af ab3d 5c9a d83e
00000040: c828 ee3e ec04 ecbe 3a5a fbbd a8ca 533e
00000050: b64f 303e d539 a0be 99e4 38be 6610 79bd
00000060: d0cd acbe 3f4a e6bc c0d6 813e d026 06bc
00000070: c120 be3d 14ff ee3e 15b0 8abe 6e0c 04bf
00000080: 9037 103e e526 acbe faba 0c3f 5a95 b93e
00000090: 39d8 1ebe 910c 57be 22cd ff3e b555 bd3b
000000a0: 9d07 7abe dfd4 b1be 5474 8ebb bc9f 52be
000000b0: 6d2e 9f3d 550b 903e 5a6a 3e3e bbb9 9c3e

weight f4 [16, 3]
-0.0932872 0.38277364 0.4564032 -0.39312893 -0.33568418 0.18587962 0.4149939 -0.17013337
0.062213447 -2.7186077e-05 -0.30117193 0.4643511 -0.20750776 -0.5265922 0.5764031 0.2595192
0.48956496 -0.32989082 -0.08595034 -0.14920297 0.09556691 0.5399018 0.020104345 -0.54713476
0.19182353 0.5024209 0.19505027 -0.4317474 0.19495529 0.40765214 -0.36435017 -0.24254215
-0.38350636 -0.5635891 0.5771939 0.26276514 -0.37395388 0.005688016 0.5242373 -0.36995688
-0.059658714 -0.19310829 -0.48255184 -0.5641232 0.22478785 -0.16011024 0.13163699 -0.4161722
00000000: 5c0d bfbd e8fa c33e aead e93e 3248 c9be
00000010: ccde abbe 3a57 3e3e 157a d43e 7137 2ebe
00000020: 87d3 7e3d a80d e4b7 3533 9abe 6dbf ed3e
00000030: ea7c 54be bfce 06bf 278f 133f b3df 843e
00000040: 42a8 fa3e 73e7 a8be bb06 b0bd aac8 18be
00000050: 96b8 c33d 0137 0a3f deb1 a43c 0611 0cbf
00000060: 636d 443e a89e 003f 42bb 473e ff0d ddbe
00000070: 5ca2 473e c8b7 d03e 1b8c babe f85c 78be
00000080: f25a c4be 6047 10bf fbc2 133f 2789 863e
00000090: e276 bfbe 8962 ba3b 6a34 063f fd6a bdbe
000000a0: b25c 74bd 2ebe 45be 0911 f7be 616a 10bf
000000b0: c92e 663e f0f3 23be d9cb 063e 8614 d5be

bias f4 [16]
0.5508661 0.21600503 0.43864173 -0.2284345 0.34218636 -0.36604822 0.434111 0.1482324
0.08227058 0.28867272 -0.18224755 0.14634548 0.33449882 -0.0424162 0.20336956 -0.5702693
00000000: 9005 0d3f 6c30 5d3e a695 e03e bcea 69be
00000010: 0d33 af3e ac6a bbbe cc43 de3e 3cca 173e
00000020: 7a7d a83d e9cc 933e 1a9f 3abe 97db 153e
00000030: 6e43 ab3e 9cbc 2dbd 1c40 503e 2bfd 11bf

weight f4 [16, 1]
-0.15497744 -0.761999 -0.28664267 -0.21578526 0.30772722 0.666613 0.9486526 -0.84125185
-0.6909915 -0.26123774 -0.4799205 0.9134351 -0.40682602 -0.9698459 -0.7374642 0.44024634
00000000: 68b2 1ebe 5e12 43bf d4c2 92be d0f6 5cbe
00000010: 6c8e 9d3e 26a7 2a3f e6da 723f 485c 57bf
00000020: d2e4 30bf f4c0 85be 24b8 f5be e2d6 693f
00000030: 804b d0be d247 78bf 74ca 3cbf f867 e13e

bias f4 [16]
0.24764097 -0.9740486 0.6385685 -0.379081 0.355942 0.69228244 0.09432447 0.46316612
-0.503592 -0.69295335 0.31945837 0.8795624 0.8465506 -0.5514116 -0.8388305 -0.96486425
00000000: 9895 7d3e 405b 79bf 3a79 233f e816 c2be
00000010: 083e b63e 6c39 313f 302d c13d 1c24 ed3e
00000020: 68eb 00bf 6465 31bf 0c90 a33e 002b 613f
00000030: 8ab7 583f 5029 0dbf 98bd 56bf 5801 77bf

weight f4 [16, 3]
-0.446206 0.38405758 -0.049165092 -0.270845 0.389097 -0.41188532 0.16127649 0.31227112
0.04559656 0.11151358 0.24664366 0.043961264 -0.32202452 -0.1919649 -0.22109674 -0.3100491
0.56935877 -0.47438645 -0.15331922 0.019905783 0.51395506 0.5442721 0.28204346 -0.14462237
-0.38318193 -0.09104521 -0.40010068 0.02231977 -0.038297683 -0.17115866 -0.5256459 -0.047122765
-0.4437256 -0.2936753 0.5010045 -0.029430134 0.043403365 0.046363827 -0.21471076 0.5502013
-0.4880495 0.15979598 0.2007321 0.2263294 0.43697938 -0.0431823 -0.5151372 -0.4377046
00000000: 1d75 e4be 32a3 c43e 5661 49bd 32ac 8abe
00000010: b937 c73e a2e2 d2be aa25 253e 00e2 9f3e
00000020: 75c3 3a3d 3b61 e43d 2890 7c3e ba10 343d
00000030: 66e0 a4be 7292 44be 2f67 62be c1be 9ebe
00000040: 7fc1 113f c8e2 f2be b7ff 1cbe 7411 a33c
00000050: 8f92 033f 6b55 0b3f 0068 903e e317 14be
00000060: 6c30 c4be e975 babd ffd9 ccbe f3d7 b63c
00000070: 08de 1cbd 3744 2fbe bb90 06bf cd03 41bd
00000080: 0030 e3be 9c5c 96be d541 003f 7717 f1bc
00000090: bac7 313d ffe7 3d3d 23dd 5bbe fed9 0c3f
000000a0: a0e1 f9be 8fa1 233e b78c 4d3e e5c2 673e
000000b0: c3bb df3e ecdf 30bd 08e0 03bf d11a e0be

weight f4 [16, 3]
0.07689152 -0.32201338 0.34746945 -0.19582236 0.014547718 0.55575997 -0.39081246 -0.36618918
0.03830601 0.19689348 -0.19761664 0.4107303 -0.5544661 -0.48958465 0.5182665 0.20004576
-0.56700546 -0.046904795 -0.5543443 -0.563518 -0.4661515 -0.33501095 0.46329385 0.5339088
-0.38611335 0.041688163 0.27896178 -0.19188353 0.4181377 0.4799204 -0.48447856 0.2204188
0.50768673 0.4156384 -0.2675402 -0.08874775 0.19991052 -0.21094993 0.53973866 0.2660297
-0.24269164 0.3412323 -0.33992314 0.38634816 0.3416674 -0.19631907 -0.05009926 -0.2651479
00000000: 4d79 9d3d f0de a4be 84e7 b13e a885 48be
00000010: 8d59 6e3c 4946 0e3f 9218 c8be 267d bbbe
00000020: c3e6 1c3d 729e 493e 045c 4abe 3e4b d23e
00000030: 7ef1 0dbf d7aa fabe 1dad 043f ccd8 4c3e
00000040: 4527 11bf 3e1f 40bd 82e9 0dbf b742 10bf
00000050: 69ab eebe 8e86 abbe da34 ed3e 3fae 083f
00000060: a6b0 c5be 35c1 2a3d 14d4 8e3e 1e7d 44be
00000070: 2516 d63e 20b8 f53e 930d f8be 77b5 613e
00000080: c2f7 013f 8ece d43e 07fb 88be 61c1 b5bd
00000090: 58b5 4c3e 4203 58be 502c 0a3f 0b35 883e
000000a0: 2884 78be 00b6 ae3e 680a aebe 6dcf c53e
000000b0: 08ef ae3e de07 49be e234 4dbd 77c1 87be

bias f4 [16]
0.122685954 -0.2362221 0.5197382 -0.055785764 0.15223509 -0.57423365 0.40019876 0.23893018
0.5177633 -0.43173447 0.43500018 0.37783337 -0.119075365 -0.41324237 -0.06944701 0.36268374
00000000: c642 fb3d 35e4 71be 900d 053f 9d7f 64bd
00000010: 84e3 1b3e fa00 13bf dae6 cc3e 1daa 743e
00000020: 238c 043f 4d0c ddbe 58b8 de3e 6073 c13e
00000030: c9dd f3bd 8194 d3be 3c3a 8ebd afb1 b93e

weight f4 [16, 1]
-0.77300465 -0.81825185 -0.026736736 -0.9429226 -0.34389877 0.011674643 0.07798672 -0.011224508
0.16565013 -0.9228338 -0.68055487 0.15786362 -0.33702505 0.5748373 0.639717 -0.91194296
00000000: a2e3 45bf f478 51bf 0007 dbbc 6063 71bf
00000010: 8013 b0be 0047 3f3c 80b7 9f3d 00e7 37bc
00000020: 30a0 293e d63e 6cbf d838 2ebf 00a7 213e
00000030: 8c8e acbe 8a28 133f 7ec4 233f 1875 69bf

weight f4 [16, 16]
0.06565881 -0.08595845 0.16148695 0.23176047 -0.09611082 0.0044541657 0.028482407 0.09320885
0.13249585 -0.0423657 -0.04307455 0.10964313 0.16497114 -0.22376263 0.10178846 -0.18749073
0.22949937 -0.17283177 -0.113177925 -0.08927286 -0.2291154 0.018763602 0.13494441 0.1148389
-0.056841224 -0.20579273 0.18891552 0.051977932 -0.21469274 0.09072381 0.24535573 0.027549684
-0.12506264 0.16867623 0.036483437 0.24848771 0.13367757 0.19356585 0.2252571 0.07800567
-0.24165761 -0.09198454 -0.061007768 0.14548615 -0.1750102 0.23138613 0.16984761 -0.17262238
0.22503361 0.17604646 0.22284901 -0.18356797 -0.24713618 -0.1671086 0.14687493 -0.1873217
0.059134126 -0.12232831 -0.14471346 -0.15404037 0.22059718 -0.09396362 0.20590863 -0.081955016
0.1172854 0.20044866 0.11963248 -0.1286577 0.06691092 -0.22057426 -0.21775723 0.019521683
0.20144069 0.048615098 -0.060717404 0.08413553 -0.05792603 0.011983752 -0.18012032 0.14123157
0.21395326 0.23550996 -0.060573936 -0.18056875 -0.049578726 0.13354695 0.1014075 -0.053296417
0.10176557 0.13081679 0.19380966 0.17488196 -0.04792893 -0.23053142 0.1959185 0.06859437
-0.075909555 -0.20009169 -0.1478771 -0.207425 -0.14306614 0.13849643 -0.20780864 0.2249504
0.1506992 0.08964118 -0.19906518 -0.18068427 0.17291099 -0.23366827 -0.081804305 -0.13327152
0.11467633 -0.014395297 -0.04787323 -0.03229311 -0.11473796 0.09637958 -0.21104693 0.11371824
-0.1498343 0.153532 0.17813563 0.031742692 -0.09446639 0.13663307 0.117734015 0.1784839
0.041921973 0.2346589 -0.07567319 0.05832997 -0.08478966 0.18941918 -0.041069686 -0.2015971
0.105679005 -0.049258888 -0.18980744 0.004010886 0.058980584 -0.0330154 0.10907486 -0.12595344
-0.23704576 -0.044093788 -0.16969115 -0.24380177 0.15956339 0.065731734 0.030084044 0.055377275
0.08878037 0.094020694 0.23855487 -0.054022342 -0.22943696 -0.1661475 -0.22410676 0.044601142
-0.14224812 0.021465987 -0.0687986 0.02479285 0.15834796 0.20645234 -0.23532045 0.24881154
0.015494823 -0.05520633 -0.21324012 -0.22571522 0.14567164 -0.21879128 -0.026825637 0.12228793
0.15590581 0.06371689 0.086233795 -0.21606678 0.10397315 0.123654604 -0.20492092 0.082730055
-0.17252237 -0.10617334 -0.058115304 0.10163912 0.1206592 0.113649935 -0.03408134 0.1558215
0.1582892 0.16752094 0.14138669 0.15146449 0.176406 0.0854547 -0.10745296 0.114943564
-0.029709995 -0.079347074 -0.02972576 -0.15464127 0.24898744 0.02395475 0.15386868 -0.11980274
-0.22471148 -0.033314377 0.1557262 0.027392596 0.04625222 -0.15753588 0.12454715 -0.08031207
-0.23444092 0.18455514 -0.23897007 -0.06367257 0.14047551 -0.2232258 -0.15782109 -0.07386652
0.103648454 -0.10698512 -0.18421957 -0.23272324 -0.22514427 0.08076635 -0.09767392 -0.2179676
0.20130515 -0.026659071 -0.15509939 -0.19525999 0.15252003 -0.24671522 0.030939162 0.22894764
0.0612469 0.17892954 0.17989689 0.024787873 -0.025658816 0.17932314 0.02329734 -0.21055919
0.20504865 0.20614466 0.23799017 0.10449669 -0.055758953 0.082677394 -0.21248811 0.22666886
00000000: 2078 863d fc0a b0bd d65c 253e 9e52 6d3e
00000010: c0d5 c4bd 40f4 913b f053 e93c 48e4 be3d
00000020: feac 073e a887 2dbd f06e 30bd 948c e03d
00000030: 32ee 283e 0822 65be 7876 d03d 92fd 3fbe
00000040: e201 6b3e d0fa 30be d4c9 e7bd b0d4 b6bd
00000050: 3a9d 6abe 20b6 993c de2e 0a3e a830 eb3d
00000060: 58d2 68bd 54bb 52be 1273 413e d0e6 543d
00000070: 6ad8 5bbe 68cd b93d 883e 7b3e e0af e13c
00000080: 6c10 00be 76b9 2c3e a86f 153d 9073 7e3e
00000090: c6e2 083e 2036 463e cca9 663e 70c1 9f3d
000000a0: 1875 77be 6462 bcbd 48e3 79bd 52fa 143e
000000b0: e035 33be 7cf0 6c3e 88ec 2d3e ecc3 30be
000000c0: 366f 663e 8645 343e 8832 643e 3ef9 3bbe
000000d0: 4411 7dbe 841e 2bbe 6266 163e 42d1 3fbe
000000e0: a036 723d 4487 fabd c42f 14be c2bc 1dbe
000000f0: 3ae4 613e 0070 c0bd b6d9 523e 08d8 a7bd
00000100: 5433 f03d 6a42 4d3e e001 f53d d8be 03be
00000110: 9808 893d 38de 61be c0fb 5ebe f0eb 9f3c
00000120: 7846 4e3e a020 473d d0b2 78bd 404f ac3d
00000130: d843 6dbd 8057 443c 7671 38be 029f 103e
00000140: 9016 5b3e 8629 713e 601c 78bd 04e7 38be
00000150: 1013 4bbd 88c0 083e bcae cf3d 584d 5abd
00000160: 786a d03d d6f4 053e 0a76 463e 4214 333e
00000170: 2051 44bd 6e10 6cbe dc9e 483e 347b 8c3d
00000180: 7876 9bbd d6e4 4cbe 186d 17be 3867 54be
00000190: ee7f 12be 02d2 0d3e cacb 54be 6659 663e
000001a0: e450 1a3e cc95 b73d bed7 4bbe 4c05 39be
000001b0: 940f 313e bc46 6fbe 0489 a7bd 5478 08be
000001c0: 6cdb ea3d 40da 6bbc b816 44bd c845 04bd
000001d0: bcfb eabd a862 c53d b01c 58be 1ce5 e83d
000001e0: 2a6e 19be 7e37 1d3e 3069 363e a004 023d
000001f0: 9877 c1bd 8ae9 0b3e 881e f13d 7cc4 363e
00000200: 60b6 2b3d 6c4a 703e 8cfa 9abd 68eb 6e3d
00000210: 34a6 adbd 1af7 413e b038 28bd 786f 4ebe
00000220: 3c6e d83d b0c3 49bd e25c 42be c06d 833b
00000230: a095 713d 283b 07bd a462 df3d f0f9 00be
00000240: 20bc 72be b09b 34bd 84c3 2dbe 2ca7 79be
00000250: 9664 233e 5c9e 863d d072 f63c 48d3 623d
00000260: 7cd2 b53d ec8d c03d ba47 743e 8846 5dbd
00000270: 86f1 6abe 9222 2abe 3e7c 65be b0af 363d
00000280: 7ea9 11be 70d9 af3c 48e6 8cbd 601a cb3c
00000290: f825 223e 3e68 533e d8f7 70be 74c8 7e3e
000002a0: 00de 7d3c 0820 62bd 9e5b 5abe e421 67be
000002b0: f22a 153e d20a 60be 70c1 dbbc 1872 fa3d
000002c0: c6a5 1f3e 007e 823d 589b b03d 9c40 5dbe
000002d0: e0ef d43d a03e fd3d cad6 51be 606e a93d
000002e0: b4a9 30be 6871 d9bd 500a 6ebd 2c28 d03d
000002f0: 2c1c f73d 4cc1 e83d e098 0bbd ac8f 1f3e
00000300: 9016 223e 9c8a 2b3e acc7 103e 8219 1b3e
00000310: c6a3 343e e002 af3d 4c10 dcbd 8867 eb3d
00000320: 6062 f3bc b880 a2bd 7083 f3bc 485a 1ebe
00000330: 90f6 7e3e c03c c43c c08f 1d3e 245b f5bd
00000340: c41a 66be a874 08bd b076 1f3e 7066 e03c
00000350: f872 3d3d 1651 21be 9412 ff3d a87a a4bd
00000360: 4811 70be 06fc 3c3e 92b4 74be c466 82bd
00000370: d0d8 0f3e 4e95 64be da9b 21be 5447 97bd
00000380: a445 d43d 041b dbbd 0ea4 3cbe 004f 6ebe
00000390: 388c 66be d468 a53d 4409 c8bd e632 5fbe
000003a0: f022 4e3e 2064 dabc 60d2 1ebe 3cf2 47be
000003b0: 362e 1c3e eaa2 7cbe 2074 fd3c 4071 6a3e
000003c0: 08de 7a3d 4e39 373e e436 383e f00f cb3c
000003d0: 7032 d2bc 7ca0 373e 10da be3c d49c 57be
000003e0: 46f8 513e 9617 533e b2b3 733e 5c02 d63d
000003f0: 8063 64bd c452 a93d 7c96 59be e21b 683e

bias f4 [16]
-0.036887348 0.1573174 0.19397941 -0.031250745 -0.23539865 0.14792338 -0.1694651 -0.15880603
-0.11351973 0.13899589 0.098249555 0.122832835 -0.1634981 -0.102579206 -0.24606416 -0.16423526
00000000: 3017 17bd d017 213e 8aa2 463e c800 00bd
00000010: 580c 71be 3a79 173e 4288 2dbe 0c9e 22be
00000020: 087d e8bd f054 0e3e 1037 c93d c88f fb3d
00000030: 0c6c 27be 0c15 d2bd 3ef8 7bbe 4a2d 28be

weight f4 [16, 16]
0.15214336 -0.06567791 0.15526348 0.06034565 -0.02373007 0.16164625 -0.18778262 0.074267834
-0.22365761 0.040410995 -0.0048698783 -0.09483704 0.2315875 -0.045968086 0.016082257 0.23097515
0.010192037 0.17688462 0.0034328997 0.15339723 0.041380048 -0.020018995 -0.16649911 -0.15629172
0.23810333 -0.17149386 0.2216191 0.21780524 0.009531796 -0.24556899 0.19860104 -0.18543264
0.20004764 0.18641236 0.24146527 0.18858072 -0.08645719 0.19385684 0.09215185 0.11331621
0.16962692 0.02245903 -0.124745786 0.23399174 0.21882215 -0.2012718 0.14240819 -0.21225399
-0.13011014 0.14347047 0.005054593 0.18175542 -0.20342594 0.028636158 -0.06044048 -0.24443349
-0.14266327 -0.19630009 0.2354655 -0.24363065 -0.030772388 -0.034680873 -0.23821977 0.1443404
-0.24168512 0.10917649 -0.025068223 0.054020405 -0.10441166 -0.144324 0.19969222 0.23409644
0.1855815 0.17884594 0.114572644 0.07180074 0.13060018 0.10984197 -0.19826251 -0.07051256
-0.001306057 -0.18308437 -0.13037324 -0.21522668 -0.05497378 0.13782957 -0.05798483 -0.030233175
-0.12747106 0.17703661 -0.08708355 0.2476413 -0.018236995 0.14217961 0.23203784 0.058834076
-0.24041945 -0.2182413 -0.00037041306 0.05766365 0.21751633 -0.20673054 -0.11370602 0.11962643
-0.015004694 0.07573888 0.22195673 -0.15591267 -0.03345424 0.18720698 -0.20411983 0.17636833
0.19463792 0.18284824 -0.1349014 -0.09509835 -0.14934468 -0.08401957 -0.042674333 -0.088944286
-0.19747573 -0.2017349 0.20561078 0.1495721 -0.044950843 -0.2089341 0.23478597 0.06526357
-0.070046365 -0.19179416 0.05720672 -0.24082646 -0.24688089 0.06297028 0.18215138 0.2236017
0.23999345 0.21942478 0.056892157 0.01948601 -0.18790188 0.0783743 -0.10508564 0.049794197
-0.1426011 0.068285525 -0.15106547 -0.028505147 0.08511388 0.20277122 -0.11172989 0.022358388
-0.008624524 -0.14124915 -0.16600505 -0.21218604 0.14751878 -0.16997662 -0.113342285 0.17866728
-0.102605134 -0.007996231 -0.03949976 0.11838749 -0.19349372 0.12866992 -0.11094102 -0.2444194
-0.033484876 -0.22762477 0.032672763 0.09206399 -0.012486964 -0.12053585 -0.067037195 0.048745602
-0.19014338 -0.21422327 -0.06408468 -0.029926062 0.012676984 0.030089736 -0.13237217 0.07512754
-0.17722875 0.09970793 0.041192144 0.043453097 -0.22214228 0.05489713 0.22538856 -0.06664747
0.22726023 0.041755974 0.019942284 -0.14235607 0.20739722 -0.14819792 0.09928787 -0.18033758
-0.022761643 -0.112659216 -0.08363056 0.01783377 -0.2132161 0.00028514862 0.16034362 0.05545461
0.10091135 0.18437707 -0.05303386 -0.24643835 0.0062891543 0.08060786 -0.16066235 -0.09245491
0.013346791 0.21352273 -0.0386115 -0.013346463 -0.22089574 -0.13221458 0.055240422 -0.006536752
-0.12258491 0.08126572 -0.07568681 -0.063601255 0.042059094 -0.069120795 0.09500125 0.08130023
0.19375789 -0.06977254 -0.10148209 0.11808652 0.18382427 0.016912282 -0.11427134 -0.017356485
-0.08465013 0.19768146 0.11116338 -0.020123601 0.11174768 0.0014919043 -0.122891724 0.24707708
-0.05269313 0.19766566 0.0028465092 -0.14175504 0.016785622 -0.030721545 0.12061766 0.0018142462
00000000: 78cb 1b3e 2482 86bd 64fd 1e3e 002d 773d
00000010: 9065 c2bc 9886 253e 164a 40be bc19 983d
00000020: 8006 65be 0086 253d 8093 9fbb ec39 c2bd
00000030: 4625 6d3e 0849 3cbd f0be 833c c084 6c3e
00000040: 80fc 263c 3e21 353e 80fa 603b 2a14 1d3e
00000050: 207e 293d e0fe a3bc be7e 2abe f00a 20be
00000060: 5cd1 733e 169c 2fbe 1ef0 623e 5608 5f3e
00000070: 402b 1c3c 7076 7bbe 125e 4b3e 0ee2 3dbe
00000080: 4ad9 4c3e e2e2 3e3e ac42 773e 4e1b 413e
00000090: 7810 b1bd 6882 463e 1cba bc3d 5412 e83d
000000a0: aeb2 2d3e 00fc b73c b87a ffbd 889b 6f3e
000000b0: ea12 603e 321a 4ebe 74d3 113e 1c59 59be
000000c0: 983b 05be ece9 123e 00a1 a53b 181e 3a3e
000000d0: e44e 50be 6096 ea3c 7090 77bd c64c 7abe
000000e0: 5216 12be e402 49be de1d 713e 507a 79be
000000f0: 6016 fcbc 880d 0ebd e2ef 73be f8cd 133e
00000100: 4e7c 77be ec97 df3d e05b cdbc 8044 5d3d
00000110: c8d5 d5bd acc9 13be 1e7c 4c3e fab6 6f3e
00000120: 1409 3e3e 6423 373e 10a5 ea3d 440c 933d
00000130: 0ebc 053e d4f4 e03d 5405 4bbe e468 90bd
00000140: 0030 abba 787a 3bbe 9080 05be 6264 5cbe
00000150: 302c 61bd 3223 0d3e 8081 6dbd 90ab f7bc
00000160: c687 02be 1649 353e dc58 b2bd ae95 7d3e
00000170: c065 95bc 8897 113e 549b 6d3e 00fc 703d
00000180: 8430 76be a67a 5fbe 0034 c2b9 b830 6c3d
00000190: 9abc 5e3e 2cb1 53be b4de e8bd b4fe f43d
000001a0: 40d6 75bc fc1c 9b3d a048 633e 92a7 1fbe
000001b0: 5007 09bd 30b3 3f3e ca04 51be e699 343e
000001c0: 2a4f 473e 923c 3b3e 9823 0abe ecc2 c2bd
000001d0: d0ed 18be 7412 acbd 48cb 2ebd 6c28 b6bd
000001e0: 1437 4abe 9893 4ebe a28b 523e 6e29 193e
000001f0: 601e 38bd d2f2 55be bc6b 703e e8a8 853d
00000200: 7874 8fbd b065 44be 9851 6a3d 369b 76be
00000210: 58ce 7cbe 90f6 803d e485 3a3e d8f7 643e
00000220: d8c0 753e e4b0 603e c007 693d 20a1 9f3c
00000230: 5a69 40be b482 a03d 2437 d7bd 00f5 4b3d
00000240: 0606 12be 48d9 8b3d e8b0 1abe a083 e9bc
00000250: 3050 ae3d 42a3 4f3e a4d2 e4bd f028 b73c
00000260: e04d 0dbc 9ea3 10be 3afd 29be 4c47 59be
00000270: 2a0f 173e 5a0e 2ebe 0020 e8bd 8ef4 363e
00000280: a422 d2bd a002 03bc 80ca 21bd 2475 f23d
00000290: 3823 46be 0cc2 033e 0c35 e3bd 1449 7abe
000002a0: 7027 09bd 7816 69be e0d3 053d 0c8c bc3d
000002b0: 2096 4cbc 80db f6bd cc4a 89bd 78a9 473d
000002c0: f2b4 42be 585d 5bbe d43e 83bd 8027 f5bc
000002d0: 20b3 4f3c c07e f63c 928c 07be 78dc 993d
000002e0: 747b 35be ac33 cc3d 18b9 283d e0fb 313d
000002f0: 4479 63be d0db 603d 42cc 663e 787e 88bd
00000300: e8b6 683e 5008 2b3d 005e a33c cac5 11be
00000310: f05f 543e 32c1 17be 7057 cb3d 6aaa 38be
00000320: a076 babc e0b9 e6bd 8046 abbd 2018 923c
00000330: 5255 5abe 0080 9539 1e31 243e 6024 633d
00000340: 9caa ce3d 58cd 3c3e 083a 59bd 565a 7cbe
00000350: 4015 ce3b bc15 a53d ac84 24be 0059 bdbd
00000360: 80ac 5a3c b4a5 5a3e 1827 1ebd 20ab 5abc
00000370: 7e32 62be 4263 07be c843 623d 4032 d6bb
00000380: cc0d fbbd a46e a63d b001 9bbd 6041 82bd
00000390: 2846 2c3d 348f 8dbd 0490 c23d bc80 a63d
000003a0: 7868 463e e8e4 8ebd d8d5 cfbd 58d7 f13d
000003b0: 6e3c 3c3e a08b 8a3c 1807 eabd 302f 8ebc
000003c0: 0c5d adbd 026d 4a3e a0a9 e33d 40da a4bc
000003d0: f8db e43d 008c c33a a8ae fbbd c601 7d3e
000003e0: c0d4 57bd de68 4a3e 808c 3a3b 3c28 11be
000003f0: 0082 893c c0ab fbbc 6406 f73d 00cc ed3a

weight f4 [16, 16]
-0.15002465 -0.15043834 0.04795018 -0.10119137 -0.23836106 0.1969218 -0.18969443 -0.2377072
-0.044330418 -0.13055962 0.20947424 -0.0014517009 -0.049990475 -0.19559291 -0.2404184 -0.117185414
-0.005003035 0.2246407 -0.17282951 -0.14954963 -0.07006487 -0.102892965 -0.17149055 -0.06928998
-0.12003124 0.031082362 0.07050714 0.15511268 0.15427119 0.23439535 0.022892118 0.12752074
0.14359069 -0.19292843 -0.019110829 -0.21960527 0.08872548 -0.05911821 -0.10588831 -0.24253795
0.039387584 0.060191065 -0.061348766 -0.2416504 -0.041645795 -0.039491087 0.10672581 -0.14410052
-0.24324358 0.08508107 -0.14578253 -0.18378115 0.016875565 0.082574934 -0.21682054 -0.1759975
-0.06595373 0.16934401 -0.21000844 -0.05831158 -0.20186001 -0.23504299 0.064670056 -0.0960893
-0.24576005 -0.06859684 -0.20353109 0.09850103 0.17216533 0.04373038 -0.16724628 0.111168
0.045075655 -0.17743802 -0.11654663 0.061612844 -0.23783636 0.010210723 -0.07075 0.15550146
-0.15264669 -0.108058214 -0.035171807 -0.005322218 0.21027929 -0.20384994 -0.06927019 -0.12718669
-0.16625506 0.09620899 0.060287386 -0.13887137 -0.2319428 0.16400224 0.10132486 -0.22289217
-0.24157763 0.14836276 0.012645066 -0.21242857 0.22927102 0.20898178 -0.036374956 -0.1740326
0.068970084 -0.06286675 0.24298984 -0.24241912 -0.20651254 0.049632072 -0.05980116 0.16398475
0.011513174 -0.15778723 0.026785254 -0.19497448 -0.097210616 -0.13944983 -0.23322812 -0.17535543
-0.22053257 -0.24446589 0.24733081 0.08128363 -0.122733206 0.038603306 -0.013227046 0.15066785
0.048202276 0.057187766 0.23788512 0.19276705 -0.15188941 0.24639297 0.22347832 -0.17990252
0.12464237 -0.19076979 0.008710474 0.2001349 0.062244684 -0.035452038 0.20545274 -0.040380716
-0.17235535 0.010236204 0.02739212 0.13134 -0.1713953 0.20853922 -0.2388497 0.014575958
-0.04108876 -0.02544269 -0.07313895 -0.020934999 0.21314609 -0.07094383 -0.029439181 0.10088554
0.17553437 -0.076660156 -0.15856305 0.22716197 -0.023767471 -0.21599424 -0.024479479 0.092152655
0.008334696 -0.019984663 -0.1721955 0.23861107 -0.14487019 -0.12402886 0.02843818 0.046962142
0.1276173 -0.0025340617 0.20500213 -0.066042244 -0.20546779 -0.11991888 -0.16666052 -0.19748774
-0.1637086 -0.008871049 0.21676579 0.11749005 0.070381284 -0.11222395 -0.17501226 -0.13867858
0.2436201 -0.24946779 0.2417731 0.17455032 0.24322903 -0.20109648 0.24918959 0.247832
-0.24125835 0.18136147 0.18434128 -0.1294595 -0.10890904 0.061095566 -0.23379141 -0.16892359
-0.23546767 0.1776754 -0.03027597 -0.012064964 -0.03719139 -0.19191748 -0.15749958 0.13343701
-0.05587116 0.16702569 -0.12651056 0.18187651 0.06108004 0.12843245 0.21751955 0.1830895
0.10220769 0.231909 -0.22576398 -0.066789836 -0.031790197 -0.19557986 -0.15574184 -0.17817345
-0.17493632 -0.22204334 -0.12537235 -0.030497283 0.07667366 -0.23071244 0.038106948 0.13821122
-0.13773921 -0.15733191 -0.22327802 -0.09510124 0.12734321 -0.20567971 0.058672637 0.020449251
0.19483438 0.048632145 -0.22749877 0.045534343 0.014789432 -0.010447353 0.23409843 -0.12139088
00000000: 10a0 19be 820c 1abe 6867 443d 6c3d cfbd
00000010: ec14 74be dea5 493e 423f 42be 8469 73be
00000020: d093 35bd 6cb1 05be 6a80 563e 0047 beba
00000030: d0c2 4cbd 8249 48be 3e30 76be e8fe efbd
00000040: 80f0 a3bb 3608 663e 38fa 30be 8a23 19be
00000050: 2c7e 8fbd 8cb9 d2bd 389b 2fbe e8e7 8dbd
00000060: f0d2 f5bd 70a0 fe3c 0c66 903d dcd5 1e3e
00000070: 44f9 1d3e 5605 703e 4088 bb3c cc94 023e
00000080: 7009 133e 088f 45be 508e 9cbc 34e0 60be
00000090: b4b5 b53d f025 72bd f8db d8bd de5b 78be
000000a0: e054 213d e88a 763d d848 7bbd 3473 77be
000000b0: c894 2abd 68c1 21bd 1093 da3d 168f 13be
000000c0: d814 79be fc3e ae3d 0448 15be 2031 3cbe
000000d0: a03e 8a3c 0c1d a93d 3406 5ebe b038 34be
000000e0: c012 87bd 8468 2d3e 740c 57be 20d8 6ebd
000000f0: 64b4 4ebe 1caf 70be bc71 843d 78ca c4bd
00000100: 86a8 7bbe 807c 8cbd 746a 50be e8ba c93d
00000110: 1c4c 303e a01e 333d 9c42 2bbe 0cac e33d
00000120: 40a1 383d 50b2 35be 00b0 eebd c05d 7c3d
00000130: 608b 73be e04a 273c 60e5 90bd c63b 1f3e
00000140: 6a4f 1cbe a04d ddbd 5010 10bd 0066 aebb
00000150: 7453 573e 0abe 50be 88dd 8dbd 3a3d 02be
00000160: c43e 2abe 3809 c53d e8ef 763d 4c34 0ebe
00000170: 6a82 6dbe 34f0 273e 6883 cf3d d83d 64be
00000180: 2060 77be 68ec 173e 402d 4f3c e086 59be
00000190: 06c6 6a3e 52ff 553e e8fd 14bd 9a35 32be
000001a0: 3040 8d3d 48c0 80bd 54d2 783e b83c 78be
000001b0: 0678 53be 004b 4b3d 10f2 74bd 9eeb 273e
000001c0: c0a1 3c3c fa92 21be c06c db3c 64a7 47be
000001d0: 5c16 c7bd f0cb 0ebe 5ad3 6ebe 6090 33be
000001e0: 4ad3 61be 4455 7abe 4a44 7d3e 0878 a63d
000001f0: 8c5b fbbd 801e 1e3d 40b6 58bc ac48 1a3e
00000200: c06f 453d b83d 6a3d 2898 733e ba64 453e
00000210: e688 1bbe 704e 7c3e 80d7 643e 5e38 38be
00000220: 8044 ff3d 2859 43be 60b6 0e3c 2af0 4c3e
00000230: 48f4 7e3d 2836 11bd 3462 523e 4066 25bd
00000240: ec7d 30be c0b5 273c 7065 e03c fe7d 063e
00000250: 4082 2fbe 4e8b 553e 0495 74be 00d0 6e3c
00000260: b04c 28bd 306d d0bc e0c9 95bd e07f abbc
00000270: f842 5a3e 004b 91bd 702a f1bc 149d ce3d
00000280: 48bf 333e 0000 9dbd 5a5e 22be 269d 683e
00000290: 00b4 c2bc 982d 5dbe 3089 c8bc 88ba bc3d
000002a0: 408e 083c e0b6 a3bc 0454 30be 7656 743e
000002b0: da58 14be d802 febd 30f7 e83c 605b 403d
000002c0: 1cae 023e 8012 26bb 14ec 513e 2841 87bd
000002d0: 2666 52be 0898 f5bd 0ea9 2abe 3a3a 4abe
000002e0: 3aa3 27be e057 11bc daf7 5d3e a09e f03d
000002f0: 1024 903d acd5 e5bd 6a36 33be c201 0ebe
00000300: 8c77 793e 7c74 7fbe 5e93 773e 52bd 323e
00000310: 0811 793e 3cec 4dbe 8e2b 7f3e acc7 7d3e
00000320: 6e0c 77be d2b6 393e f6c3 3c3e 0891 04be
00000330: b40b dfbd 583f 7a3d 0467 6fbe 4efa 2cbe
00000340: 701e 71be 8af0 353e 5005 f8bc 20ac 45bc
00000350: 0056 18bd 0486 44be 9247 21be b6a3 083e
00000360: 28d9 64bd c808 2b3e fc8b 01be d63d 3a3e
00000370: 102f 7a3d cc83 033e 72bd 5e3e d07b 3b3e
00000380: 4452 d13d 8e79 6d3e ac2e 67be 1cc9 88bd
00000390: 7036 02bd 1646 48be ca7a 1fbe 1a73 36be
000003a0: 8222 33be 545f 63be 9c61 00be 70d5 f9bc
000003b0: 1407 9d3d e23f 6cbe 0816 1c3d 3e87 0d3e
000003c0: 820b 0dbe 9e1b 21be fea2 64be 70c4 c2bd
000003d0: 4266 023e b49d 52be b852 703d 3085 a73c
000003e0: aa82 473e 8032 473d 70f5 68be 3882 3a3d
000003f0: 604f 723c 602b 2bbc 80b7 6f3e c89b f8bd

bias f4 [16]
-0.21881565 0.11628497 -0.14763281 0.10695964 0.13517049 0.22063589 0.14698473 0.16662842
0.06527522 -0.031713933 0.028404832 0.09114069 0.08603653 0.22485024 -0.022318631 0.04056433
00000000: 3611 60be d026 ee3d 0e2d 17be a80d db3d
00000010: 226a 0a3e 60ee 613e 2a83 163e a4a0 2a3e
00000020: 04af 853d 78e6 01bd 40b1 e83c f8a7 ba3d
00000030: ec33 b03d 243f 663e 90d5 b6bc c826 263d

weight f4 [16, 16]
0.065846115 -0.11401826 -0.11686435 0.162716 -0.18171147 0.12843549 0.07954821 -0.1103237
-0.14833096 -0.09893468 0.068651766 -0.1794456 0.11541313 -0.06580511 -0.20549813 -0.041902393
0.09968001 0.18388563 0.15302739 0.19145343 0.20504513 0.21239015 -0.10225645 -0.16938064
-0.0602521 0.08375314 -0.1587587 -0.1604062 0.12018585 0.2044042 0.15602395 -0.13500428
0.12135318 -0.11676425 -0.15965796 0.022731334 -0.14017215 0.21439725 -0.21501842 -0.045121282
0.20253268 0.0406608 0.013787299 -0.029594988 -0.097180694 0.032657474 0.056890607 0.17747298
0.16464844 0.0995315 0.18380857 0.13095146 -0.04266587 -0.14041084 -0.21630037 -0.15337005
0.0038719773 0.17197323 -0.17549014 0.16356888 -0.22896889 0.08516833 0.1476045 -0.24871126
0.18194151 0.023026913 0.021178931 -0.1565836 -0.079526424 0.027231336 -0.011122763 -0.16329774
-0.0790233 -0.24841085 -0.18243945 0.07206884 -0.21565655 0.023778737 0.23330194 -0.011148632
0.16521975 -0.23834375 0.17233956 0.018679589 -0.17550924 -0.06677157 0.22219089 -0.028014839
0.06643301 0.0020639896 -0.04321441 0.07797712 0.22372437 -0.15460184 -0.06661549 0.047222584
-0.09204757 0.118775815 0.18942213 -0.011460304 0.24564567 -0.004384458 -0.1153177 0.16975111
-0.22238049 0.089573234 -0.057915837 0.20987642 -0.019845545 -0.23857328 -0.2275671 -0.18509758
-0.1689739 0.045384705 0.12462202 -0.20921189 0.04486838 -0.11628088 -0.17577508 -0.13770026
0.20339838 0.14012316 0.20903164 -0.2192334 0.14683485 -0.008892506 -0.02233696 -0.0031145215
-0.0878247 -0.0911603 0.056939185 -0.14479613 -0.14912012 0.07002851 0.22458199 0.10472262
-0.07958859 -0.123809755 -0.114605665 0.2108402 0.12635487 0.11056697 -0.045725644 -0.02164802
0.09650546 0.22750416 0.07358301 0.0414522 -0.11255023 0.0022794008 -0.041193902 -0.23764426
0.06877616 0.1247749 0.14976308 0.20844626 -0.11840019 0.0031462312 -0.16705996 -0.011817157
0.07113859 -0.017876208 -0.17474532 -0.12601161 -0.23628974 -0.09001395 0.004777938 0.0976181
0.13844594 0.07909116 -0.14114422 0.14174089 -0.051125377 0.0038598776 0.12722626 0.17908251
0.21490866 -0.20926297 -0.1259931 0.15165418 -0.12572572 -0.17286766 -0.16460583 0.07608059
0.13187876 0.04090011 -0.07039094 -0.22083378 0.016920239 -0.23766142 -0.028086096 -0.07864621
-0.24276659 -0.1389736 -0.2430897 -0.14357907 -0.11481488 0.12655336 -0.1014725 -0.076087505
-0.22913331 -0.093289524 -0.019422024 0.18827516 0.059527576 -0.068285406 -0.033516347 -0.088457555
-0.025204897 -0.16269746 0.11190495 0.07524049 -0.10669726 -0.23854655 -0.1680778 -0.09740606
0.04877624 -0.11342898 -0.20303336 -0.050664693 0.103435725 0.13008854 0.0109449625 -0.13882503
0.09656131 0.016724437 -0.20297429 -0.12852311 0.018278897 -0.14403498 -0.21183819 0.081424594
-0.001550287 0.0060552955 -0.126605 -0.14675531 0.19908378 0.005138397 -0.22715577 0.0030160248
0.16589728 0.07747361 -0.1644263 -0.2345277 0.027735323 -0.24281973 -0.22755498 -0.17965433
-0.062297046 0.13357818 0.15610811 0.14023855 0.048740894 0.06335178 -0.040026754 -0.21599743
00000000: 54da 863d 6882 e9bd 9456 efbd 069f 263e
00000010: 9212 3abe 9884 033e 2cea a23d 64f1 e1bd
00000020: 12e4 17be 449e cabd 4c99 8c3d 96c0 37be
00000030: b85d ec3d d4c4 86bd 1a6e 52be d8a1 2bbd
00000040: 0825 cc3d 844c 3c3e 36b3 1c3e 5e0c 443e
00000050: 5af7 513e ce7c 593e d46b d1bd 1e72 2dbe
00000060: e8ca 76bd c486 ab3d a491 22be 8641 24be
00000070: 0024 f63d 564f 513e bec4 1f3e 903e 0abe
00000080: 0488 f83d 1822 efbd 607d 23be 1037 ba3c
00000090: 4a89 0fbe f48a 5b3e ca2d 5cbe 18d1 38bd
000000a0: ba64 4f3e f08b 263d 20e4 613c 3071 f2bc
000000b0: ac06 c7bd d8c3 053d 2006 693d 7abb 353e
000000c0: 9a99 283e 2cd7 cb3d 5038 3c3e 2418 063e
000000d0: 68c2 2ebd dcc7 0fbe d87d 5dbe 0a0d 1dbe
000000e0: 00c1 7d3b c019 303e b0b3 33be 9a7e 273e
000000f0: d276 6abe bc6c ae3d a225 173e 2aae 7ebe
00000100: e04e 3a3e f0a2 bc3c 707f ad3c 7457 20be
00000110: c0de a2bd 4014 df3c 403c 36bc 8637 27be
00000120: f8d6 a1bd 6a5f 7ebe 68d1 3abe d498 933d
00000130: 12d5 5cbe a0cb c23c b4e6 6e3e c0a8 36bc
00000140: 5e2f 293e 6210 74be c879 303e f005 993c
00000150: b2b8 33be 88bf 88bd 0286 633e 607f e5bc
00000160: 080e 883d 0044 073b 9801 31bd 78b2 9f3d
00000170: 0018 653e f24f 1ebe b46d 88bd 786c 413d
00000180: 7083 bcbd bc40 f33d e0f7 413e 00c4 3bbc
00000190: 8a8a 7b3e 80ab 8fbb b02b ecbd 3cd3 2d3e
000001a0: b6b7 63be 2c72 b73d 2839 6dbd d8e9 563e
000001b0: 2093 a2bc 8e4c 74be 5a07 69be 388a 3dbe
000001c0: 7e07 2dbe 50e5 393d d439 ff3d a43b 56be
000001d0: e8c7 373d ac24 eebd 62fe 33be 4c01 0dbe
000001e0: aa47 503e 727c 0f3e 640c 563e b87e 60be
000001f0: e05b 163e e0b1 11bc 00fc b6bc 001d 4cbb
00000200: 70dd b3bd 40b2 babd 1039 693d 7045 14be
00000210: f2b2 18be 1c6b 8f3d d2f8 653e d078 d63d
00000220: 58ff a2bd f88f fdbd 60b6 eabd 7ee6 573e
00000230: 2c63 013e f070 e23d d04a 3bbd 3057 b1bc
00000240: a8a4 c53d daf6 683e b0b2 963d c8c9 293d
00000250: bc80 e6bd 0062 153b f0ba 28bd 0459 73be
00000260: 84da 8c3d fc89 ff3d 7e5b 193e f072 553e
00000270: cc7b f2bd 0031 4e3b c411 2bbe c09c 41bc
00000280: 1cb1 913d 2071 92bc 70f0 32be 3009 01be
00000290: f0f5 71be 3c59 b8bd 4090 9c3b 00ec c73d
000002a0: c6c4 0d3e 8cfa a13d 1c88 10be 8624 113e
000002b0: d868 51bd 00f6 7c3b 9a47 023e 6861 373e
000002c0: 0411 5c3e 0849 56be 5604 01be 3c4b 1b3e
000002d0: 3ebe 00be 3804 31be 6e8e 28be 24d0 9b3d
000002e0: 3a0b 073e e086 273d 2029 90bd 4022 62be
000002f0: 509c 8a3c 845d 73be d014 e6bc 4411 a1bd
00000300: ce97 78be 184f 0ebe 82ec 78be 6406 13be
00000310: 1024 ebbd 3497 013e d0d0 cfbd c4d3 9bbd
00000320: eca1 6abe 940e bfbd f01a 9fbc 34cb 403e
00000330: 30d3 733d 38d9 8bbd 7048 09bd 3c29 b5bd
00000340: 807a cebc 2a9a 26be 6c2e e53d b017 9a3d
00000350: 1884 dabd 8c45 74be 961c 2cbe d47c c7bd
00000360: 98c9 473d 744d e8bd fae7 4fbe c885 4fbd
00000370: 1cd6 d33d ee35 053e 8052 333c 2628 0ebe
00000380: f0c1 c53d b001 893c 7ed8 4fbe 909b 03be
00000390: a0bd 953c e87d 13be 1cec 58be f0c1 a63d
000003a0: 0033 cbba 806b c63b bea4 01be 0647 16be
000003b0: 9edc 4b3e 0060 a83b 869b 68be 80a8 453b
000003c0: fae0 293e 7caa 9e3d 5e5f 28be 0828 70be
000003d0: 3035 e33c bca5 78be 2c04 69be 4ef7 37be
000003e0: 302b 7fbd b8c8 083e ceda 1f3e b29a 0f3e
000003f0: 88a4 473d 94be 813d 18f3 23bd 6e2e 5dbe

weight f4 [16, 16]
0.19861302 0.01649651 -0.22303945 0.1553022 0.17910117 -0.21234322 -0.01648745 -0.13485652
0.022452354 0.24581468 0.10839456 0.12679544 -0.17987028 0.1609683 -0.24319375 -0.096533895
-0.16767442 -0.21472263 0.1921792 -0.22783548 -0.12829545 -0.003034711 -0.063667834 -0.13352585
0.114771396 0.029674321 0.16844696 0.03943348 -0.17455888 0.16169056 0.136237 -0.02945003
-0.23923606 0.17847243 0.21097454 -0.1133185 -0.0030904412 0.23845369 -0.0399895 0.00518921
-0.1825799 0.15155151 0.20452487 -0.22894967 0.23974004 -0.2299189 0.10351792 0.057733297
-0.15813354 0.1061714 -0.10910067 -0.20381129 -0.10984552 -0.02218631 0.118486166 -0.08649203
0.02452907 -0.1271033 0.19363075 -0.03301382 -0.24405384 -0.026093364 -0.17521754 -0.04586312
0.07125482 0.0025159419 -0.010565519 -0.13616902 -0.16405058 -0.22696126 -0.15700749 0.06388739
0.1870094 0.20962316 -0.22153509 0.17470407 0.23426297 0.11464572 0.14705577 0.24590182
-0.08047223 0.0032585561 -0.22624475 0.1684942 0.22633779 0.22636354 0.19418967 -0.1763277
-0.053982764 0.22907776 0.19052586 0.13298318 -0.071072996 -0.06776008 0.17417854 0.21943894
0.024395615 0.18644923 0.09506151 0.116996616 -0.050584137 -0.21019042 -0.012200236 -0.18345222
-0.15960199 -0.08620122 0.17477691 0.03713429 -0.075884104 0.24814862 0.11545113 -0.074349135
-0.23911735 0.21791148 0.12413064 -0.048627436 -0.18196586 -0.079451144 -0.1704953 -0.031757593
-0.09296194 -0.051880926 -0.10261506 -0.0048334897 -0.053046137 0.20349708 -0.033090055 -0.09368977
0.20947662 0.18767115 -0.099128574 -0.22586992 0.035538495 0.11754626 0.123452455 -0.09632543
0.19257069 0.119430065 -0.11947873 -0.060355276 0.120654166 -0.013329625 0.14521378 0.14707005
-0.0020661354 -0.233789 -0.041302294 -0.18834248 0.22186998 0.15508819 -0.061140656 -0.08529803
0.044804394 -0.09064704 0.017724782 -0.10888046 0.20516664 -0.04238251 -0.2177785 0.07134771
-0.016959399 0.031308472 -0.07082918 0.15308377 0.16051194 -0.15520242 -0.00938192 0.09308624
0.13341293 -0.11368039 0.22723967 -0.14024618 0.23489198 -0.2436611 -0.13235533 0.21888325
0.053427875 0.2365742 -0.18546611 0.11134538 0.23506072 0.0010983944 -0.1507664 -0.060061634
0.06760344 0.03635758 0.21700028 -0.21157277 -0.013988912 -0.21258393 0.036103964 -0.24507946
-0.05056104 -0.16597405 -0.19576722 -0.24788266 0.08555585 -0.2050722 0.23174661 -0.024404824
-0.21951014 -0.005525291 -0.24024832 0.23002797 0.11210567 0.18106204 0.005957991 0.2106834
-0.17334995 0.008476526 -0.15148497 0.015288949 -0.11085376 0.023802549 -0.24434897 0.010844141
-0.077792585 0.035274535 0.19250381 -0.11630452 0.061179906 0.244629 -0.1397556 0.11325234
0.2398623 0.23563877 0.24726418 -0.06925425 -0.17525807 -0.018866092 0.23512089 -0.026316583
-0.028208613 -0.043899685 0.20419466 0.031138122 0.23698798 -0.02368167 -0.20839736 0.18813878
0.22243497 0.12714642 0.19483927 0.21051097 -0.014672637 0.04592091 0.19782555 -0.23538896
-0.056375414 0.057194263 -0.018580556 -0.1351234 -0.0936352 -0.08861625 -0.11421871 0.08197865
00000000: 3661 4b3e b023 873c 7464 64be 8a07 1f3e
00000010: 4c66 373e 8070 59be b010 87bc d417 0abe
00000020: 00ee b73c d8b6 7b3e f8fd dd3d aad6 013e
00000030: ea2f 38be e0d4 243e c807 79be 90b3 c5bd
00000040: d8b2 2bbe 40e0 5bbe a0ca 443e b44d 69be
00000050: e25f 03be 00e2 46bb 4864 82bd 00bb 08be
00000060: 440d eb3d 9017 f33c 5c7d 2c3e 0085 213d
00000070: 90bf 32be 3692 253e b681 0b3e 3041 f1bc
00000080: 4cfa 74be 7ac1 363e b609 583e 8813 e8bd
00000090: 0089 4abb 342d 743e 08cc 23bd 400a aa3b
000000a0: 3af6 3abe 5230 1b3e f86e 513e c871 6abe
000000b0: 6a7e 753e dc6f 6bbe 3401 d43d c079 6c3d
000000c0: c2ed 21be 6470 d93d 2c70 dfbd e8b3 50be
000000d0: b0f6 e0bd 10c0 b5bc e0a8 f23d bc22 b1bd
000000e0: 30f1 c83c 5e27 02be 2447 463e 8039 07bd
000000f0: 40e9 79be c0c1 d5bc 3a6c 33be f8da 3bbd
00000100: 0cee 913d 80e2 243b 001b 2dbc e46f 0bbe
00000110: e0fc 27be 8868 68be 92c6 20be 64d7 823d
00000120: 647f 3f3e 74a7 563e 18da 62be a0e5 323e
00000130: a2e2 6f3e 60cb ea3d ca95 163e b0cd 7b3e
00000140: a0ce a4bd 808d 553b b4ac 67be be89 2c3e
00000150: 18c5 673e d8cb 673e a8d9 463e 408f 34be
00000160: 081d 5dbd 5c93 6a3e 3619 433e be2c 083e
00000170: b88e 91bd ccc5 8abd dc5b 323e 9ab4 603e
00000180: 50d9 c73c 8cec 3e3e 9caf c23d ec9b ef3d
00000190: 5031 4fbd 283c 57be 80e3 47bc e6da 3bbe
000001a0: b46e 23be 448a b0bd b8f8 323e 201a 183d
000001b0: 2069 9bbd ac1a 7e3e a471 ec3d 5c44 98bd
000001c0: 2edb 74be 3024 5f3e 3438 fe3d 902d 47bd
000001d0: 4255 3abe 48b7 a2bd 5296 2ebe 4014 02bd
000001e0: d462 bebd 1881 54bd d827 d2bd 4062 9ebb
000001f0: e846 59bd 8a61 503e 7089 07bd 6ce0 bfbd
00000200: 0a81 563e de2c 403e ec03 cbbd 724a 67be
00000210: d090 113d 18bc f03d a4d4 fc3d 4446 c5bd
00000220: 4031 453e c097 f43d 44b1 f4bd 1837 77bd
00000230: 8819 f73d 8064 5abc ecb2 143e 8899 163e
00000240: 0068 07bb 6266 6fbe 982c 29bd dadc 40be
00000250: e231 633e 70cf 1e3e a06e 7abd bcb0 aebd
00000260: d084 373d 28a5 b9bd 9033 913c b8fc debd
00000270: 3417 523e 4899 2dbd 5401 5fbe c01e 923d
00000280: 70ee 8abc 503d 003d e40e 91bd fec1 1c3e
00000290: 3e5d 243e 62ed 1ebe a0b6 19bc 00a4 be3d
000002a0: 669d 083e 44d1 e8bd 84b1 683e b29c 0fbe
000002b0: 8687 703e 4c82 79be 2888 07be ee22 603e
000002c0: 30d7 5a3d 8240 723e d4ea 3dbe 0c09 e43d
000002d0: c2b3 703e 00f8 8f3a 8262 1abe 3003 76bd
000002e0: ac73 8a3d b0eb 143d 5235 5e3e 88a6 58be
000002f0: c031 65bc 9aaf 59be c0e1 133d 1cf6 7abe
00000300: 1819 4fbd 1af5 29be 3477 48be f4d4 7dbe
00000310: e837 af3d 72fe 51be fc4e 6d3e a0ec c7bc
00000320: 44c7 60be 800d b5bb a803 76be 748c 6b3e
00000330: a897 e53d 5468 393e 403b c33b 64bd 573e
00000340: a682 31be 20e1 0a3c e01e 1bbe 807e 7a3c
00000350: 4c07 e3bd 90fd c23c 9e36 7abe a0ab 313c
00000360: b851 9fbd 087c 103d b81f 453e 1031 eebd
00000370: c897 7a3d 0680 7a3e 181c 0fbe d8f0 e73d
00000380: 769e 753e 4a4b 713e d232 7d3e 2cd5 8dbd
00000390: da76 33be 108d 9abc 88c3 703e e095 d7bc
000003a0: c015 e7bc 28d0 33bd 6818 513e 6015 ff3c
000003b0: faac 723e 1000 c2bc 1e66 55be 74a7 403e
000003c0: fec5 633e ac32 023e f283 473e 3090 573e
000003d0: 8065 70bc 9017 3c3d c892 4a3e ce09 71be
000003e0: e8e9 66bd 8844 6a3d 4036 98bc ca5d 0abe
000003f0: d0c3 bfbd 707c b5bd 80eb e9bd 6ce4 a73d

bias f4 [16]
-0.17535293 0.1810098 0.19476503 0.060518116 0.15612125 -0.090572 -0.23364326 -0.027320743
-0.18390623 0.0052210987 0.22470087 -0.04186371 0.018847138 0.0076155066 -0.23668689 0.20812437
00000000: b88f 33be a25a 393e 7c70 473e d8e1 773d
00000010: 40de 1f3e d07d b9bd 2e40 6fbe c0cf dfbc
00000020: ea51 3cbe c015 ab3b fc17 663e 4879 2bbd
00000030: 5065 9a3c 808b f93b 0c5e 72be 8e1e 553e

weight f4 [16, 16]
0.02319315 -0.017116398 -0.16681466 -0.14850888 -0.058796346 0.08424342 -0.22711489 0.24634573
-0.18003428 0.028432816 -0.05289367 -0.04213366 0.033827335 0.015341848 -0.06801355 0.24090582
-0.14174852 0.15673634 -0.04972446 -0.17561251 -0.20069432 0.0846262 0.19819298 -0.1286931
-0.21349081 0.19119173 -0.031739414 -0.116381735 0.06285688 -0.18770558 -0.23076686 -0.0036118329
0.0034546554 -0.1798645 -0.006615132 -0.14296779 -0.13866493 0.10340375 0.24186921 -0.22971287
-0.15454873 -0.026715308 -0.07421899 0.029344022 -0.09234011 -0.05561009 0.2193495 0.07595691
-0.032009453 -0.026120394 -0.1877937 0.022994041 0.08077368 0.217985 0.23848149 -0.17171103
0.074389756 0.14335507 -0.22870481 -0.03754139 -0.08667183 0.050745904 -0.15333763 0.22265178
-0.16956833 0.18344072 0.099965334 0.14697224 -0.17849556 0.24386802 -0.22703445 -0.082380384
-0.05002901 -0.09265408 0.16398475 -0.09364942 0.022841036 0.04240045 -0.21873751 0.0359644
-0.019195378 -0.046316832 0.2302286 -0.15246001 -0.24041292 -0.11327848 4.6670437e-05 0.12671071
-0.11772406 -0.21973139 -0.20982972 -0.1615929 0.05082056 -0.2059162 0.059455752 -0.073399395
0.018425524 0.08216128 -0.046963096 -0.15119278 -0.014900088 -0.21591157 0.19028637 0.11421749
-0.002587974 -0.10832924 0.18477738 0.16951475 0.15290326 -0.01753053 0.042939276 0.23826817
-0.12578055 -0.03709039 0.092488766 0.24141097 0.24052519 -0.03558305 -0.2480166 0.12235525
-0.1525945 0.22039276 0.21052656 0.22713473 0.067068785 -0.2353563 0.15163732 0.22640511
0.19674394 -0.05222729 -0.11793178 -0.16763306 0.0006491542 0.20588022 -0.06575224 -0.21367905
-0.22790343 0.21230605 -0.0056827962 -0.04436055 0.11003286 -0.024046928 -0.16284877 0.10712519
0.012707114 0.120437294 -0.13117108 -0.03791231 0.07803413 -0.21331963 -0.03805238 0.028854698
-0.21136081 0.15168953 -0.2466326 -0.16016972 -0.19538924 0.009300828 0.035787553 0.037429154
-0.2072623 0.2055377 -0.06375715 -0.23850515 -0.23767796 -0.15776661 -0.04071912 -0.22575673
-0.008033514 0.09929845 0.15814608 -0.23160297 0.21448311 -0.04235801 -0.057750493 -0.16957304
0.06465608 -0.19827017 0.21923143 -0.1302036 0.1748085 -0.24071121 0.09608951 0.04841423
-0.2251595 0.012360364 -0.086897135 -0.2490888 -0.14806175 0.2047033 -0.10084167 0.21775913
-0.24931306 -0.07968888 0.015574127 0.197061 0.21274933 0.13956532 -0.020885378 0.069817305
0.13139507 -0.14877626 -0.13985288 -0.12982377 -0.19976771 0.14031863 0.122528225 -0.14654016
-0.0629451 0.19983783 -0.05022466 -0.091133446 0.21890691 0.0077354014 -0.17737678 0.23286772
-0.23857248 0.2498231 0.071536124 0.012504667 0.14863643 0.24294338 0.17575714 0.07509154
0.08952707 -0.08746204 -0.044724315 -0.08898896 -0.016469419 0.14941663 -0.079191685 0.013794541
0.14632642 0.11037636 0.025688648 0.079945475 0.008876443 -0.01629433 -0.12145716 0.025722384
-0.054910123 -0.19710022 -0.2214522 0.06596807 -0.12807658 0.1454323 0.23423183 0.24482954
0.14187956 0.12042773 0.028669953 0.049942493 0.16583177 0.23887908 0.21151912 0.02535683
00000000: 90ff bd3c b037 8cbc 76d1 2abe b612 18be
00000010: 70d4 70bd d087 ac3d ce90 68be 0e42 7c3e
00000020: e85a 38be f0eb e83c 08a7 58bd 5894 2cbd
00000030: 888e 0a3d 605c 7b3c b04a 8bbd 04b0 763e
00000040: 8626 11be 7e7f 203e e0ab 4bbd c4d3 33be
00000050: d082 4dbe 8050 ad3d 1af3 4a3e 20c8 03be
00000060: 569d 5abe c4c7 433e 3001 02bd 8c59 eebd
00000070: 1cbb 803d e435 40be 264e 6cbe 80b4 6cbb
00000080: 8067 623b 662e 38be c0c3 d8bb 2666 12be
00000090: 2efe 0dbe 58c5 d33d 90ac 773e da39 6bbe
000000a0: 0642 1ebe 10da dabc 2000 98bd e062 f03c
000000b0: d01c bdbd 68c7 63bd 289d 603e 4c8f 9b3d
000000c0: 581c 03bd 70fa d5bc fe4c 40be 005e bc3c
000000d0: ac6c a53d 7637 5f3e 7e34 743e 04d5 2fbe
000000e0: a859 983d accb 123e 9831 6abe 00c5 19bd
000000f0: 0081 b1bd f0da 4f3d 8a04 1dbe d4fe 633e
00000100: 52a3 2dbe e2d7 3b3e a0ba cc3d e47f 163e
00000110: 8ac7 36be 8ab8 793e b87b 68be 0cb7 a8bd
00000120: 38eb 4cbd 6cc1 bdbd 9eeb 273e 44cb bfbd
00000130: 201d bb3c 18ac 2d3d bafc 5fbe 684f 133d
00000140: a03f 9dbc b8b6 3dbd 0cc1 6b3e 7a1e 1cbe
00000150: ce2e 76be 8cfe e7bd 00c0 4338 74c0 013e
00000160: 5019 f1bd 4401 61be 9add 56be 9c78 25be
00000170: 3829 503d b2db 52be e087 733d 6c52 96bd
00000180: 20f1 963c 2c44 a83d 605c 40bd 48d2 1abe
00000190: 801f 74bc ec17 5dbe 6eda 423e dcea e93d
000001a0: 009b 29bb b8db ddbd 4836 3d3e 4695 2d3e
000001b0: ac92 1c3e 309c 8fbc 18e1 2f3d 92fc 733e
000001c0: 9ecc 00be 18ec 17bd c06a bd3d 7034 773e
000001d0: 3c4c 763e 88bf 11bd 10f8 7dbe 6495 fa3d
000001e0: bc41 1cbe a4ae 613e 4694 573e 0296 683e
000001f0: 5c5b 893d 3e01 71be d046 1b3e bed6 673e
00000200: 3e77 493e 48ec 55bd 3886 f1bd 00a8 2bbe
00000210: 002c 2a3a 44d2 523e 1ca9 86bd aece 5abe
00000220: 845f 69be c266 593e c036 babb 68b3 35bd
00000230: e858 e13d 10fe c4bc d4c1 26be 7464 db3d
00000240: 8031 503c d4a7 f63d b651 06be f049 1bbd
00000250: 5cd0 9f3d 7670 5abe d0dc 1bbd b060 ec3c
00000260: f86e 58be 8054 1b3e 428d 7cbe 8803 24be
00000270: 1e14 48be 8062 183c f895 123d 504f 193d
00000280: 923c 54be 7a78 523e 1c93 82bd b23a 74be
00000290: da61 73be 928d 21be 18c9 26bd c62c 67be
000002a0: 009f 03bc fc5c cb3d 0cf1 213e 5429 6dbe
000002b0: 76a1 5b3e 987f 2dbd c88b 6cbd 8ea4 2dbe
000002c0: 686a 843d 5607 4bbe 347e 603e 1854 05be
000002d0: 0001 333e 007d 76be 94ca c43d 004e 463d
000002e0: 3690 66be 2083 4a3c 20f7 b1bd 2211 7fbe
000002f0: 809d 17be be9d 513e 1486 cebd 40fc 5e3e
00000300: ec4b 7fbe ec33 a3bd a02a 7f3c 5cca 493e
00000310: f6da 593e 36ea 0e3e d017 abbc 60fc 8e3d
00000320: 6e8c 063e ce58 18be 9835 0fbe 86f0 04be
00000330: e88f 4cbe b0af 0f3e 14f0 fa3d a00e 16be
00000340: 5ce9 80bd 4aa2 4c3e 60b8 4dbd 2ca4 babd
00000350: 2229 603e 4079 fd3b 42a2 35be e074 6e3e
00000360: 584c 74be a0d1 7f3e 8881 923d 60e0 4c3c
00000370: 2634 183e 26c6 783e aef9 333e 98c9 993d
00000380: f859 b73d 4c1f b3bd d830 37bd d83f b6bd
00000390: e0ea 86bc ac00 193e 402f a2bd 8002 623c
000003a0: 98d6 153e 000d e23d 0071 d23c 74ba a33d
000003b0: 806e 113c b07b 85bc 88be f8bd c0b7 d23c
000003c0: 70e9 60bd a4d4 49be 5ec4 62be 441a 873d
000003d0: 8226 03be 34ec 143e 78da 6f3e 98b4 7a3e
000003e0: e048 113e d0a2 f63d 40dd ea3c 8090 4c3d
000003f0: cecf 293e b89c 743e 7898 583e 20b9 cf3c
