mlartifacts/196996377989302197/7f02586f83db44e9b90285dd955722d4/artifacts/models/data/model.pth (torch, 89548 bytes, 82 tensors)

bias f4 [8]
000000 e2 65 29 bf 8b 7e 29 bf 78 7a a9 bf 90 7f 29 bf
       -0.66171086 -0.66208714 -1.32405 -0.6621027
000010 00 c0 c7 38 00 00 00 00 16 32 29 bf 3b 77 29 bf
       9.524822e-05 0.0 -0.6609205 -0.66197556

weight f4 [8, 3]
000000 c8 14 c6 bd 15 37 b0 be fa de 95 bf e2 bc 4f bf
       -0.096719325 -0.34417024 -1.1708672 -0.8114759
000010 79 00 1e bf 60 7a 15 bf 72 e5 7c bf 94 52 8f 3e
       -0.6171947 -0.58389854 -0.98787606 0.2799269
000020 f6 5c bc bf 6a 54 bc be c4 85 26 3f 07 28 ca be
       -1.471587 -0.36783153 0.6504786 -0.39483663
000030 c2 31 be 3f 34 43 88 bf 02 10 03 bf 80 8b 02 3f
       1.4858935 -1.0645509 -0.511963 0.5099411
000040 3a a8 17 be 61 d9 d1 3e 69 30 94 bf 5d e3 5f bf
       -0.14810267 0.4098616 -1.1577274 -0.87456304
000050 5d 28 e6 bd 0c 6e 7f bf 2c e5 10 be 36 2d 7a be
       -0.112381674 -0.99777293 -0.14149922 -0.24431309

weight f4 [8, 3]
000000 59 86 d0 3d 95 d0 ea be 41 26 9f be 53 0d b2 be
       0.10181875 -0.4586226 -0.31083873 -0.3477579
000010 47 fb 51 3f 50 20 88 3f c8 20 4e bf e8 d4 6d bf
       0.82024044 1.0634861 -0.8051877 -0.92902994
000020 e7 fe 51 bf 20 1a f9 bc 25 a7 e4 be 3e 5e bb 3f
       -0.82029575 -0.030407965 -0.4465877 1.4638135
000030 18 33 ad bd c0 8f 42 bd 66 a3 f9 3e e5 1d 93 3f
       -0.08457011 -0.047500372 0.48757476 1.1493498
000040 cf 27 ae bf 76 af 7f 3f 48 93 e3 3d 6d be bf be
       -1.3605899 0.9987711 0.11112076 -0.3744997
000050 a4 eb 1a be c0 04 a6 bf e4 6a d8 be fa d3 89 3f
       -0.15128952 -1.29702 -0.4226905 1.0767815

bias f4 [8]
000000 27 d6 58 be bb c6 3a 3f 1b 1d 8a bf b6 52 b7 3f
       -0.21175443 0.7295949 -1.0790132 1.4322116
000010 c8 73 f0 bd e2 93 c3 3f 8e 0f 4e be 34 54 06 3e
       -0.117408335 1.5279505 -0.20123121 0.13118058

weight f4 [8, 1]
000000 c8 d2 ca be c0 1d 3c be 28 01 f5 be 9a 98 b6 bf
       -0.39613938 -0.18370724 -0.47852445 -1.426532
000010 90 58 57 be 47 f2 a9 bf aa f5 62 3f 22 ba 8a bf
       -0.21029878 -1.3277062 0.88656104 -1.0838053

weight f4 [8, 1]
000000 82 22 1e bf d4 34 3f bf d7 04 28 3f b6 eb 80 bf
       -0.61771405 -0.74689984 0.65632385 -1.0071933
000010 d0 38 98 bd 1c 47 ac be d2 56 a2 3e 30 e5 b5 3e
       -0.07432711 -0.33648002 0.31706864 0.3552642

bias f4 [8]
000000 9d 07 ac bf ec 40 35 3e 76 cc dd be dd ea ad bf
       -1.3439823 0.17700547 -0.43320054 -1.35873
000010 90 cc 69 3f 5a c5 1d bf 80 88 35 3e 26 25 be bf
       0.9132776 -0.6162926 0.17727852 -1.4855087

weight f4 [8, 3]
000000 70 57 e7 bd 3c af f1 bd 64 20 86 be e6 20 81 bf
       -0.11295974 -0.118010014 -0.26196587 -1.0088165
000010 6a f7 33 bf fe f4 7e bf 51 71 cf bf 0e 8c 12 3f
       -0.702994 -0.9959258 -1.6206456 0.57244956
000020 a4 0f 86 bf 17 15 89 bf 20 d6 38 3e c2 d8 ba be
       -1.0473523 -1.0709561 0.18050432 -0.36493498
000030 30 23 7d 3f b4 23 d2 be 44 8f b1 be 63 0c 0a 3e
       0.98881817 -0.41042864 -0.34679615 0.13481288
000040 bd b9 41 3e ac c4 26 3d 9b d7 2d bf 80 b4 e6 bd
       0.1891851 0.040714905 -0.6790711 -0.112648964
000050 72 d8 5a be 86 d3 db be 58 c8 a8 be ea 3d 29 bf
       -0.2137163 -0.42934817 -0.3296535 -0.661101

weight f4 [8, 3]
000000 29 7f 00 bf 04 c7 71 bf 2a 14 f9 be f2 5e cc bf
       -0.5019403 -0.944443 -0.48648196 -1.5966475
000010 6e d0 91 3f 73 5b 0a bf fa 02 bd be 53 64 fd 3e
       1.1391733 -0.5404579 -0.36916333 0.49490604
000020 2c 88 20 3e 85 2d c9 bd 8e 4f 21 3b 35 1b a5 be
       0.15676945 -0.09823135 0.0024614069 -0.3224732
000030 0a c8 9e be 45 bd c5 be 7d 91 eb 3e c0 26 48 3d
       -0.31011993 -0.38620964 0.46009436 0.04886508
000040 de ca ed 3e 64 90 0d 3e 1a a0 bc 3f 52 43 ae 3f
       0.46443838 0.13824612 1.4736359 1.3614295
000050 bf 92 4d 3f b2 71 04 3f 36 f6 bd 3e 3c d1 01 bf
       0.8030204 0.51735985 0.37101907 -0.5070989

bias f4 [8]
000000 be 42 da be 3e 3c d9 3e 40 fa 00 bf df 0a 41 be
       -0.42629045 0.42428774 -0.5038185 -0.18851803
000010 e9 96 c5 be 60 6d d9 bd 94 d0 ad 3f 18 dd e2 bd
       -0.38591698 -0.10616565 1.3579278 -0.110773265

weight f4 [8, 1]
000000 3c 2e 9e 3e 93 d3 47 bf 74 aa 03 c0 85 b4 a8 bf
       0.3089465 -0.7805721 -2.0572786 -1.318009
000010 60 b7 1f be 00 e8 2f bc dc 79 73 bf 8b 5f 3a bf
       -0.15597296 -0.010736465 -0.9510782 -0.72802037

bias f4 [8]
000000 f0 36 d1 bf 3f 6c 31 bf 06 c8 e5 be 00 75 01 3e
       -1.634489 -0.69305795 -0.44879168 0.12642288
000010 a8 43 29 be 30 71 b1 be 0c 7f d4 bf 04 8b 3c be
       -0.16529715 -0.34656668 -1.6601272 -0.18412405

weight f4 [8, 3]
000000 a2 4e 95 bf 10 13 06 bf 88 6e b1 bd ca e5 8b bf
       -1.1664622 -0.5237284 -0.0866366 -1.0929501
000010 3c fd 2f bf 0c b9 87 be 62 72 85 bf 80 97 98 bb
       -0.6874578 -0.26508367 -1.0425532 -0.004656732
000020 03 cb 84 bf 88 10 c8 bd 92 2c 0c 3f 35 fd 2f bf
       -1.0374454 -0.09768778 0.5475551 -0.6874574
000030 16 ab d6 3f 75 3f 20 bf b0 2d df be 51 ca 12 bf
       1.6770961 -0.6259683 -0.43589544 -0.5733996
000040 b6 ef cb 3e 18 56 a1 be b5 02 bf be ce a4 16 bf
       0.39831322 -0.31510997 -0.37306753 -0.5884522
000050 9e ee 8d be 35 8f 3b bf 75 9a 7a bf f4 d6 74 bf
       -0.27721113 -0.7326539 -0.9789193 -0.9564049

weight f4 [8, 3]
000000 60 b5 ee be c7 72 57 3d 32 4d 82 be c1 ff 40 3f
       -0.46622753 0.052599695 -0.2544952 0.7539025
000010 f5 0b f5 be 98 4d 49 3e fb 66 01 bf e2 df 40 be
       -0.47860685 0.19658506 -0.5054776 -0.18835405
000020 f5 f7 ac be 12 4c 4e 3f d0 75 05 3d 60 39 de 3f
       -0.33782926 0.80584824 0.032583058 1.736126
000030 b8 d1 fb 3e 44 a8 ac 3e 32 c1 f4 be ac 96 87 3f
       0.4918344 0.33722126 -0.47803646 1.0592856
000040 60 8a bd 3f a7 33 ed 3f 64 2a 44 be 70 c0 63 be
       1.4807854 1.8531388 -0.19156796 -0.22241378
000050 fa 23 f5 be 74 99 b2 3f b2 89 cb bf 20 d1 57 3e
       -0.4787901 1.395308 -1.5901396 0.21075869

bias f4 [8]
000000 89 ba 61 3e e0 1a 15 3e f2 fd ed be 1b 7b c0 3f
       0.22043814 0.14561033 -0.46482807 1.5037569
000010 76 fb 72 be 77 be ab 3f d1 06 87 be 18 84 f6 3d
       -0.23728737 1.34175 -0.26372388 0.12036914

weight f4 [8, 1]
000000 f6 19 55 bf 58 56 61 be b4 b2 91 3e 03 b3 66 bf
       -0.8324274 -0.22005594 0.28456652 -0.901169
000010 e4 4b ce 3e 68 19 b0 bf a6 e1 79 3f e2 d1 a6 bf
       0.40292275 -1.3757753 0.9760994 -1.3032801

weight f4 [8, 8]
000000 bb 3d 0d 3f c8 91 b2 3f 96 1a 43 be 2d 79 60 be
       0.5517232 1.3950739 -0.1905311 -0.21921225
000010 b7 84 28 3e 28 89 13 be 90 a4 d2 3f 1c 95 9c 3e
       0.16456877 -0.1440779 1.645647 0.3058251
000020 68 b6 b7 be 70 8b 9d be 97 e4 fd bd 9b 20 0d bd
       -0.35881352 -0.30770445 -0.12397116 -0.034454923
000030 77 1b 7d 3d 5d 87 d6 3f 0b dd c8 3f 00 18 c0 3f
       0.06179377 1.676006 1.5692457 1.5007324
000040 19 8d 90 3e 50 66 62 bf a0 27 73 be 0f 6b 82 3e
       0.2823265 -0.88437366 -0.23745584 0.25472304
000050 70 b4 69 be 3c 97 e6 be c4 bc a5 be 30 6f a3 be
       -0.22822738 -0.45037258 -0.3237058 -0.31920767
000060 18 1f 9d 3e a8 39 a1 3f 04 c5 a2 be b1 94 8f 3e
       0.30687785 1.259572 -0.31790936 0.2804313
000070 81 f3 12 be aa d5 b6 3e 5a 0d 5e 3f 20 26 bf 3e
       -0.14350702 0.35709888 0.8673912 0.37333775
000080 0d 1e b5 bc dc eb 75 bf b3 75 9a be 96 ad 94 be
       -0.022109056 -0.9606302 -0.30167922 -0.29038686
000090 1e 0a 81 be 11 22 3e 3f 9e 27 b1 be 92 3f 67 3f
       -0.2520303 0.7427073 -0.34600538 0.90331376
0000a0 71 7b 36 3f 08 c0 f7 bd 74 46 9b 3e 9c 98 01 bd
       0.71282107 -0.12097174 0.3032719 -0.03163968
0000b0 5f 45 ff bd 38 e8 ae 3d fe c3 96 be 00 8b f4 bd
       -0.12464403 0.08540386 -0.29446405 -0.11940575
0000c0 a9 40 2b bf 9d 86 81 bf 2b 8d 8a be 05 69 58 be
       -0.6689554 -1.0119206 -0.27060828 -0.21133812
0000d0 5f 4e a3 3e aa 7f 77 bf cc ff 07 bf dc ed f1 be
       0.3189573 -0.96679175 -0.5312469 -0.47251785
0000e0 85 25 33 bf 8b 15 fb be d1 62 5f be 13 71 99 3e
       -0.69979125 -0.49039873 -0.21815039 0.2996908
0000f0 ae b8 9e 3e 01 a5 a4 be d0 69 51 bf 0a c8 4c bf
       0.31000274 -0.32157138 -0.8180208 -0.79992735

bias f4 [8]
000000 9a 6a 9c 3f e8 c3 bf bd 8e 1a 6d bf d1 1e b4 3f
       1.2220032 -0.09363538 -0.92618644 1.4071904
000010 ef e7 36 bf 20 c5 fa 3d 70 52 e4 be 63 7b da be
       -0.7144765 0.1224463 -0.44594145 -0.42672262

weight f4 [8, 8]
000000 ee a7 51 3f c4 3e 14 3f 06 ce a8 3e 2d fe e8 3e
       0.81896865 0.5790827 0.32969683 0.4550642
000010 f8 e8 95 3f 8d 81 49 be f0 3b 5e 3f af ff b0 be
       1.1711721 -0.19678326 0.8681021 -0.3457007
000020 3a ba aa be fc 7f 63 3f ac 4d ab 3e 69 72 f8 be
       -0.33345205 0.88867164 0.33457696 -0.48524788
000030 33 34 b3 3e ee d3 a9 bd e7 92 3b 3f 6c 65 7a 3f
       0.35000762 -0.082923755 0.7327103 0.9781101
000040 74 5a 44 3c d8 68 b3 be 99 0c f4 be 27 9e 9f 3d
       0.011984456 -0.35040927 -0.4766586 0.07793837
000050 df ce a0 3e 8f fc 9d be 98 e3 8f be db 5b db 3c
       0.3140783 -0.3085675 -0.28103328 0.026777199
000060 d9 2b 4d 3d e8 61 18 3f 7f 81 91 be 15 91 49 3e
       0.050090645 0.59524393 -0.2841911 0.1968425
000070 1b 55 80 3f a7 35 a6 3e 0d 82 b3 3d 92 d6 b8 bd
       1.0025972 0.32462808 0.087650396 -0.09025301
000080 0f 10 0e be dc 7e 4e 3d d7 1b 79 bf c2 f6 af 3e
       -0.13873313 0.05041395 -0.97308105 0.3436795
000090 30 b0 e8 3e 2e 23 95 be c0 e8 e3 3d 96 1e 9a 3e
       0.4544692 -0.29128402 0.11128378 0.3010146
0000a0 60 ff ad bd a1 31 61 3f 48 19 95 3f 1a ae da 3e
       -0.084959745 0.8796635 1.164834 0.42710954
0000b0 f0 9e c2 bd fb ab 6a be a4 fb 0f be 16 33 af 3e
       -0.09502971 -0.22917168 -0.14060837 0.34218663
0000c0 e3 d5 3f bf 38 fd e7 be 30 f0 6f bf 1c c7 aa be
       -0.7493574 -0.45310378 -0.9372587 -0.33355033
0000d0 4d 90 12 bf c7 b7 21 3d eb d0 4f bf d8 07 b4 be
       -0.57251436 0.039481904 -0.8117816 -0.35162234
0000e0 39 92 35 bf 55 e6 57 bf 52 20 dd be 68 8e de be
       -0.70926243 -0.84335834 -0.4318872 -0.43468022
0000f0 c7 3b 58 bf 1a 5c a8 be e1 2c 4b 3f fc 8a 43 bf
       -0.84466213 -0.32882768 0.79365355 -0.7638395

weight f4 [8, 8]
000000 2c c3 4e 3e 2c fe 24 3e 19 cf 84 be bc 97 b2 3d
       0.2019164 0.16112584 -0.25939253 0.08720347
000010 f8 17 a5 be 02 75 a1 be c0 bc 84 3e ee 3f b4 bc
       -0.3224485 -0.31534582 0.25925255 -0.02200314
000020 02 41 4e bf eb 26 6b 3f 4a b8 69 3f de 08 54 3f
       -0.80567944 0.9185626 0.9129683 0.8282603
000030 81 5f 3b 3f c5 3d 27 3d d7 88 1a 3f 15 9d e4 3e
       0.731926 0.040830392 0.6036505 0.44651094
000040 64 78 a9 be 9a 4b 1e 3f 96 0c 6b 3f d2 d3 61 3f
       -0.33099663 0.6183411 0.9181608 0.8821384
000050 68 88 ac 3f 16 88 28 3e 1b 93 47 3e 1a f9 f4 3e
       1.3479128 0.16458163 0.1948971 0.478463
000060 1e c8 ab bd f6 aa 4f be 9f d6 41 be b0 c2 4c 3e
       -0.08387779 -0.2028006 -0.18929528 0.19996142
000070 a5 00 b4 bc 72 9f 47 bd a8 15 3d bd d1 0e bb 3d
       -0.021972964 -0.048736043 -0.04616323 0.091336854
000080 cb 7d b2 3e bd 9e fd 3e c8 79 75 3e 57 b1 c0 3e
       0.34861597 0.4953517 0.23972237 0.376353
000090 2b a6 a5 3f 78 a8 4a 3d 27 af 12 bf 92 79 60 3f
       1.2941335 0.04947707 -0.5729851 0.876855
0000a0 4f cc 6c be 6c f7 81 3f b3 8b b7 3e 68 51 ec 3e
       -0.23124813 1.0153632 0.3584877 0.46155858
0000b0 2e c1 30 3f e7 a7 48 3d a8 46 28 3e 34 90 04 3f
       0.6904477 0.04898825 0.16433203 0.51782537
0000c0 98 11 18 3f 3d 74 25 3f 0c e4 4d 3f 86 49 0d 3f
       0.59401846 0.6463049 0.80426097 0.5519031
0000d0 f0 b4 a6 3e ee 81 7d be 71 36 f9 3d 30 94 cf 3e
       0.3255992 -0.24756595 0.12168587 0.40542746
0000e0 16 1b 4a 3f 6e 3a 57 bf 96 23 e6 be 83 af 80 bf
       0.7894758 -0.8407353 -0.44949025 -1.0053562
0000f0 37 f0 5c bf f7 54 a2 3e 76 89 03 bf 8e 03 58 bf
       -0.8630404 0.31705448 -0.51381624 -0.84380424

bias f4 [8]
000000 37 4f 7d bd 4e ee ea 3e 08 57 a4 3f 18 d0 12 be
       -0.061843123 0.45884937 1.283906 -0.14337194
000010 40 8b 50 3d f2 e8 2a 3f 14 5a a2 3e c7 15 b3 bf
       0.05091405 0.66761696 0.3170935 -1.3991021

weight f4 [8, 8]
000000 37 af 40 be 30 df 40 bd da 06 84 be ed 2b 18 3e
       -0.18816839 -0.04708785 -0.25786477 0.14860506
000010 09 a1 ae bd 9b db 73 be 40 d1 4c be 5f 51 2b be
       -0.08526809 -0.23814242 -0.20001698 -0.1673026
000020 db 04 3a 3e 40 df 0a be 45 16 a6 be a0 d8 3a bf
       0.18165915 -0.13561726 -0.32438865 -0.72986794
000030 7e 7c 71 bf 52 bf 38 3f a7 44 0d bf ca 5f d7 be
       -0.94330585 0.7216693 -0.5518288 -0.4206527
000040 d6 80 91 be bd cf 1a 3f e4 55 35 3f 2c 1d b3 3f
       -0.28418607 0.60473233 0.70834184 1.3993278
000050 43 ac 7f 3f e0 79 cc 3f 13 35 09 3f 46 bd a8 3f
       0.99872226 1.5974693 0.5359661 1.3182762
000060 e8 b6 bc 3d 20 a9 a5 be 02 fb 75 3e a6 61 22 be
       0.09214574 -0.32355595 0.24021533 -0.15857562
000070 c8 9e 99 3d c2 27 0a 3e e7 c0 62 be 37 1d da bd
       0.07500988 0.13491729 -0.22143899 -0.106501035
000080 db ad 4f 3d 9a 68 1c bf 52 24 2c 3f d8 a4 0d 3e
       0.05070291 -0.6109711 0.6724292 0.13832414
000090 f0 64 00 bd 32 ee 80 bf a5 f3 b0 be fc 0b 04 be
       -0.03134626 -1.0072691 -0.34560886 -0.12895197
0000a0 b4 7f 85 be fd 05 0b 3e 8b 92 35 bf c2 18 4e bf
       -0.26073992 0.13576503 -0.7092673 -0.8050653
0000b0 7c 33 65 bf 2a d5 55 3f c7 19 26 bf b1 12 ff be
       -0.89531684 0.8352839 -0.64883083 -0.49818948
0000c0 8e 33 4e 3e 1e 0e cf be fc 9f a0 3e ec 4d 15 3e
       0.20136854 -0.40440458 0.31372058 0.14580506
0000d0 d8 4d ff 3d 1a 66 c7 bf a8 73 6e 3e 76 43 40 be
       0.124660194 -1.5578034 0.23286307 -0.18775734
0000e0 14 f8 08 3e 5f 36 a3 be 36 97 32 3f a4 cc bf bf
       0.13375884 -0.3187742 0.6976198 -1.4984326
0000f0 60 8b 4f be d2 0d 94 bf 8a 2e b0 3e 3d 44 ce bf
       -0.20268011 -1.1566718 0.34410506 -1.6114575

weight f4 [8, 8]
000000 a8 d7 92 be dd ce 58 3f c2 65 b5 be c9 0c b5 3f
       -0.28680158 0.8469065 -0.35429198 1.4144527
000010 fa 1a 96 3f 02 04 8d 3f 16 e7 9a 3f 92 3b c8 3f
       1.1726983 1.1016848 1.2101772 1.564318
000020 58 f4 e0 3d 74 0c ce 3e 12 e3 28 3f 28 db 91 3f
       0.10984105 0.40243876 0.6597148 1.1395006
000030 68 6a 3a 3e 50 66 9e 3f 66 9f d0 3f 40 e2 30 3d
       0.18204653 1.2374973 1.6298645 0.04318452
000040 29 77 95 3d 54 66 3d 3f f0 60 b2 be 43 77 16 bf
       0.072981186 0.73984265 -0.34839582 -0.5877573
000050 b8 d4 29 bf d2 da 3f bf 1e 8c 65 bf 12 92 16 bf
       -0.6634021 -0.7494327 -0.89666927 -0.58816636
000060 52 05 75 3e 3e 87 be 3e 88 1f 5e 3f bf 3c ce 3f
       0.23927811 0.37212557 0.8676686 1.6112288
000070 60 2c c3 3f 5a 20 c4 3e 47 00 ac 3f 3a d1 d1 3f
       1.5247917 0.38305932 1.3437585 1.6391976
000080 86 db 8b 3e 78 33 a7 3e 3e 41 11 3e ec d6 d0 be
       0.2731592 0.32656455 0.14185044 -0.40788972
000090 04 e0 68 3f 43 24 36 bf a9 a4 2c bf 4e 76 32 3f
       0.9096682 -0.7114908 -0.6743875 0.6971177
0000a0 56 e8 0e 3d 46 a9 56 bf f4 e0 9d 3e c8 14 69 be
       0.03488954 -0.8385204 0.30835688 -0.22761834
0000b0 10 e8 10 bd f0 57 48 be 00 46 82 bb fc 32 71 3e
       -0.035377562 -0.19564795 -0.00397563 0.23554605
0000c0 f1 66 00 3e 5d d6 b9 bd dd c6 0f bf 2b a0 5a bf
       0.12539269 -0.0907409 -0.56162816 -0.85400647
0000d0 01 57 53 bf d9 22 01 bf 30 16 7e bf b2 7a 69 bf
       -0.8255463 -0.504438 -0.99252605 -0.91202843
0000e0 6f 66 b2 3c 1f e4 28 be e0 9f b8 3e d0 20 d8 be
       0.02177736 -0.16493271 0.36059475 -0.42212534
0000f0 e3 58 24 bf d7 68 fb be 1c 93 d9 3e fa 0b 0b bf
       -0.6419813 -0.49103424 0.42495048 -0.5431515

bias f4 [8]
000000 eb b4 c9 3f a0 55 bc 3d 2e fc 77 bf dd b1 c5 3f
       1.5758337 0.09196019 -0.9686917 1.5444905
000010 d4 75 1a bf 30 92 ff 3d 62 88 4e bf 7c d9 c0 be
       -0.6033604 0.12479055 -0.80676854 -0.37665927

weight f4 [8, 8]
000000 58 62 68 3f 66 a7 37 3f 64 f8 3d 3e 4c 88 f3 3e
       0.9077506 0.71739805 0.18551785 0.47564924
000010 00 a7 c1 3f cd 2f 12 3e bc fd 68 3f ae 59 d9 be
       1.5129089 0.14276047 0.9101217 -0.42451233
000020 bd a0 a0 be 4a 23 6f 3f dc 5d a7 be d1 01 c2 be
       -0.31372634 0.9341322 -0.32688797 -0.3789201
000030 d0 d6 d2 3d 88 c7 1f be a0 b0 d3 3e aa 70 6b 3f
       0.102948785 -0.15603459 0.41345692 0.91968787
000040 18 c5 0b be bc 42 a1 be 04 ea 70 bf 7c ef 57 3c
       -0.13649404 -0.31496227 -0.9410708 0.013179656
000050 ea 53 36 3f eb eb 72 bb 35 79 ef 3d 5a ac 8d be
       0.7122179 -0.0037066888 0.1169304 -0.27670556
000060 ce 63 2a 3e 79 f9 30 3f 20 51 17 3d e9 3e 9c be
       0.16639635 0.69130665 0.0369426 -0.30516747
000070 ce ca 86 3f dc bc 27 be 50 cd 14 be 7d b4 b1 be
       1.0530641 -0.16380638 -0.14531446 -0.34708014
000080 3d 92 8f 3e 04 3d 3c 3e f4 65 77 bf 99 cb 9f 3e
       0.28041258 0.1838265 -0.96639943 0.3121002
000090 12 dd 73 3f 43 9e 30 3e f4 c9 44 be 62 0d 7e 3c
       0.952592 0.17247872 -0.19217664 0.01550612
0000a0 8d 55 3d 3e b3 a5 44 3f 02 02 9b 3f 6e f2 ae 3e
       0.18489666 0.76815337 1.2109988 0.34169334
0000b0 00 d7 03 3e c2 a4 81 3e 42 ff a8 be f2 87 b3 3e
       0.12874985 0.25321013 -0.33007246 0.35064656
0000c0 78 0d 55 bf 9b 3e c8 be 9d a1 ae be bc 5f dd be
       -0.83223677 -0.39110264 -0.34107676 -0.43237102
0000d0 3e dd 16 bf 54 d3 7c 3e 28 0d d9 be b6 f6 16 bf
       -0.5893134 0.2468999 -0.4239285 -0.589702
0000e0 d2 77 09 bf 74 1e 2f bf 62 02 bd be 43 68 4a bf
       -0.53698456 -0.6840584 -0.3691588 -0.7906534
0000f0 a3 80 33 bf 7f ca 6e be 2a 88 64 3f 72 91 dd be
       -0.7011816 -0.23319434 0.8927027 -0.43275028

weight f4 [8, 8]
000000 68 36 8a be 8d 1c eb 3d 4a b3 9e 3e 38 20 67 3e
       -0.26994634 0.11480055 0.30996162 0.22570884
000010 0d 78 33 bf 9b 83 3a bd 45 0f 24 bd 60 23 68 bc
       -0.7010506 -0.045535665 -0.040053625 -0.01416859
000020 63 49 ff be 73 a4 5b 3f 85 59 8c 3f 6c 83 e8 3e
       -0.49860677 0.85797805 1.0964819 0.45412767
000030 d6 25 b0 3f 8e 60 94 be 14 e2 b7 3e a9 64 65 3f
       1.3761547 -0.28979915 0.3591467 0.8960672
000040 04 41 3c be 85 15 bc 3e 28 fe a4 3f e2 4a 45 3f
       -0.18384176 0.36735168 1.2890062 0.7706739
000050 5a 0a 8c 3f 87 38 ac bd 4f d6 5a 3f 19 1a 49 3f
       1.0940659 -0.08409219 0.8548326 0.78555447
000060 83 20 5d 3f 2c 33 e0 be 0e 13 f8 be 76 3b 26 bf
       0.86377734 -0.4378904 -0.48452038 -0.6493448
000070 22 70 7e bf 30 43 2e be 3d 6b 57 bf 72 84 4f bf
       -0.9938985 -0.17017817 -0.8414801 -0.8106147
000080 93 a9 a0 bb 9e 5f 71 be 07 4a c0 3e ef b6 9f be
       -0.0049030273 -0.23571631 0.37556478 -0.31194255
000090 fb 7c 10 3f 53 ed b9 3d 51 6b ac 3e 16 54 3c be
       0.56440705 0.09078469 0.33675626 -0.18391451
0000a0 fc 4a 05 be 05 52 81 bf ea 05 ff be a7 ac d4 be
       -0.13016886 -1.0103155 -0.498092 -0.41537973
0000b0 bd bc fb bd 0c f0 96 bd 72 85 b4 be 93 e2 45 bf
       -0.12291858 -0.07370004 -0.3525806 -0.7729885
0000c0 7f 18 8d 3e 1e 2b 7b 3d 2d 42 54 bf 34 45 91 be
       0.27557752 0.061320417 -0.82913476 -0.2837311
0000d0 b4 c6 f2 3e 1a f9 65 be 02 36 e7 bd b3 06 b0 3d
       0.47417223 -0.22458306 -0.11289598 0.08595028
0000e0 9a c5 ea bb 0e bf 47 be b5 d6 51 bf b8 e2 8a 3d
       -0.007164669 -0.19506475 -0.8196824 0.067815244
0000f0 24 ed 68 bf fe fd 27 3e e8 66 26 3e 7e 32 00 3e
       -0.9098685 0.16405484 0.16250193 0.12519261

bias f4 [8]
000000 54 a0 05 bf e5 fb d5 3f 00 c7 81 3f 78 47 42 bf
       -0.52197766 1.6717497 1.0138855 -0.758903
000010 7a 7b 36 3f ff 1e 5f bf 63 44 63 3f 08 91 49 bf
       0.7128216 -0.8715667 0.88776225 -0.78736925

weight f4 [8, 8]
000000 0b a4 49 3e ec af 02 bf de b8 8a 3e d5 6b a1 be
       0.19691484 -0.51049685 0.27094167 -0.31527582
000010 f1 b1 f1 3d ea 9c e4 be 36 ef d0 be c0 cd 11 bf
       0.11801518 -0.44650966 -0.40807503 -0.56954575
000020 c6 57 24 3f dc a9 a4 3f 85 bd 5a be 4d db b2 be
       0.6419643 1.2864337 -0.21361358 -0.34932938
000030 7e 82 2f be 24 5c 5c 3e 28 80 cb 3f 4a a8 b4 3f
       -0.17139623 0.21519524 1.5898485 1.4113858
000040 40 4f 12 3f b8 3b dc bd aa 56 8f bd 85 bb 5c be
       0.57152176 -0.10753578 -0.06998952 -0.21555908
000050 e2 37 87 bd 5a ba b4 3f cc 07 d4 3f 52 bd c6 3f
       -0.06602456 1.411937 1.656488 1.5526526
000060 51 0b cc be bf c9 a7 be df 40 93 3e d1 4e 75 3e
       -0.39852384 -0.32771108 0.2876043 0.23955847
000070 31 ce c1 3d 30 02 78 bf e7 ec fb be a2 62 56 bf
       0.09463156 -0.9687834 -0.4920418 -0.8374425
000080 84 a0 5a be 2f 92 02 3f ed 4e 97 be 20 f1 86 3d
       -0.21350294 0.5100431 -0.29552403 0.0658896
000090 4a 34 cd bc 88 7e 2e 3f b6 79 79 3f 5c 76 44 3f
       -0.025049347 0.6816182 0.9745134 0.767431
0000a0 04 48 78 bf 9a db f4 3a cf b9 e4 3d 8c 24 ad bc
       -0.9698489 0.0018681169 0.11168253 -0.021135591
0000b0 ca 6a ae bc 2c 6e 4d bf 81 e4 84 3e b0 a2 ea bd
       -0.021291155 -0.80246234 0.25955585 -0.114568114
0000c0 ab 46 ac 3d 00 b8 49 3f f8 df 54 3e 0c 25 11 3e
       0.08411916 0.78796387 0.20788562 0.14174289
0000d0 4d dd 8d 3e 76 79 7a 3f 8c f2 ee 3e c0 9c 00 3f
       0.27707902 0.97841585 0.46669424 0.5023918
0000e0 76 b9 91 3e 1e 94 24 bf 95 f3 5a be 13 ca e8 bd
       0.28461808 -0.6428851 -0.21381982 -0.113666676
0000f0 c3 01 b5 be f0 72 0c bf f2 aa e7 be 83 4a 9e be
       -0.35352907 -0.5486288 -0.45247608 -0.30916223

weight f4 [8, 8]
000000 42 56 f6 3d 38 92 1e bf b2 5a 4d 3f be 40 9b 3f
       0.12028171 -0.6194186 0.80216515 1.2129133
000010 a6 66 b2 3f 44 c9 d2 3f c3 f6 bb 3f 53 43 9c 3f
       1.3937576 1.6467671 1.4684681 1.2208046
000020 0c 70 99 3c 8e a2 46 3f 3b cd b6 be 30 7e ac bf
       0.018730186 0.7759179 -0.35703453 -1.3476009
000030 b8 cb b1 bf 20 5a b7 bc de 8b be bf fe 46 92 bf
       -1.3890295 -0.022381842 -1.4886434 -1.1427915
000040 7b 4f 6c be c6 81 b8 be 8a ea 13 3e df da 1d bf
       -0.23077194 -0.3603651 0.14444938 -0.61662096
000050 e7 f4 ac be a8 9a 07 bf 1e c8 6e bf a7 8b 01 bf
       -0.33780596 -0.5297036 -0.93274105 -0.5060372
000060 6a ac 28 be 80 33 60 bf 65 44 56 3b d0 c3 8b be
       -0.16472021 -0.8757858 0.0032694575 -0.2729783
000070 fb d9 55 3f 44 c9 44 3e a1 db b7 3e 3f 4c ab 3e
       0.83535737 0.19217402 0.3590975 0.3345661
000080 e2 8f 9b be b9 8b 2b bf 3b 54 27 3e 94 46 1b bf
       -0.3038321 -0.67010075 0.16340725 -0.6065457
000090 9b 67 e3 be a4 04 74 bf 88 b9 5c bf ff 71 46 bf
       -0.44414982 -0.9531958 -0.862206 -0.77517694
0000a0 b5 50 53 be dc 1d 68 bf 35 53 29 3f 20 bd 0b bd
       -0.20636256 -0.9067056 0.6614259 -0.03411591
0000b0 74 65 aa be 00 e6 fe 3a 08 40 30 3e d6 57 92 be
       -0.33280528 0.0019447207 0.17211926 -0.28582639
0000c0 97 f0 2f be 6e 97 ab 3e db 30 46 bf 36 af 63 bf
       -0.17181621 0.3351397 -0.774183 -0.88939226
0000d0 d6 27 11 bf f3 65 56 bf 43 3c 3d bf 78 10 37 bf
       -0.5670141 -0.8374931 -0.7392008 -0.71509504
0000e0 e5 24 ac 3e b4 be 92 3e b9 67 66 bf 2e 4d 42 bf
       0.33621898 0.2866112 -0.9000202 -0.75899017
0000f0 f5 c3 58 bf 0b e2 55 bf a3 ff 81 bf 05 25 d2 be
       -0.84674007 -0.8354804 -1.0156139 -0.4104387

bias f4 [8]
000000 f6 ce d2 3f d6 71 94 be a8 8b db be 18 43 a1 3f
       1.646941 -0.289931 -0.42879987 1.25986
000010 62 b3 6d bf 84 6c 7d 3e 28 2d 0f bf b4 50 16 bf
       -0.9285184 0.24748427 -0.5592828 -0.58716893

weight f4 [8, 8]
000000 73 d6 58 3f 8c 1b 29 3f f8 47 85 3d f2 77 7f 3f
       0.84702224 0.6605766 0.065078676 0.997924
000010 97 94 8d 3f 9e 01 c1 3d c4 eb 2a 3f 02 8a 66 bf
       1.1060971 0.094241366 0.66766 -0.90054333
000020 0f 37 a0 be 4f f1 05 3f 1a c6 ae 3e d6 13 5d bf
       -0.31292006 0.5232133 0.34135514 -0.8635839
000030 5a 8c 68 3e 08 dc 2f be cf f6 4c 3f c1 5c 77 3f
       0.2270979 -0.17173779 0.800641 0.96625906
000040 bc 7e 81 bd f0 77 10 3d 4e 99 7c bf 56 83 7e 3d
       -0.06323001 0.03527063 -0.98671424 0.06213697
000050 07 ff ae 3e 22 e5 3c be af 04 2d 3e 8d fd 9a 3e
       0.34178945 -0.18446782 0.16896318 0.3027157
000060 b7 68 4d 3e 7a 86 db 3e 30 26 cd 3d a2 6f 20 be
       0.20059477 0.42876035 0.10017049 -0.15667585
000070 b4 c6 ca 3f 81 dc 97 be cd eb a9 3e 63 d2 11 be
       1.5841889 -0.2966042 0.33187714 -0.14240412
000080 da ce a0 3d 89 61 5f be ed 46 1f bf 1e be ed 3d
       0.07851954 -0.2181455 -0.622176 0.116085276
000090 9f 77 34 3f 36 bd a5 be 1f d4 90 3e 87 c3 41 be
       0.7049503 -0.3237092 0.28286836 -0.18922244
0000a0 45 a0 af 3e f7 b9 0a 3f 0c b7 ac 3f 46 e3 47 3f
       0.34301963 0.5419001 1.3493361 0.78081167
0000b0 c0 48 df bd fc 41 06 bd 74 ef 5d be 95 3a 81 be
       -0.10902548 -0.03277777 -0.21673375 -0.25240007
0000c0 e3 af b4 be f2 16 0c bf 2d f5 1b bf b2 f0 b4 be
       -0.3529044 -0.5472251 -0.60920984 -0.35339886
0000d0 2e c6 51 bf 6c fa 3e be 21 40 33 bf 21 5b 0b bf
       -0.81943023 -0.18650216 -0.7001973 -0.54435927
0000e0 e7 81 f3 be 26 70 45 bf 32 67 03 bf e9 71 56 bf
       -0.47560045 -0.7712425 -0.5132934 -0.83767563
0000f0 22 60 54 bf 3a ce a1 bd db 49 71 3f 0e d0 db be
       -0.8295919 -0.07900663 0.9425332 -0.4293217

weight f4 [8, 8]
000000 73 72 d5 bd a6 59 ca 3d b9 1b 58 be 3f 50 78 be
       -0.1042222 0.0988038 -0.21104325 -0.24249361
000010 85 a5 8e 3e 4a 3f b2 3e da 06 bd bd 75 35 1f 3e
       0.27860656 0.3481391 -0.092298225 0.15547736
000020 82 8b f2 3e 35 23 7c 3f ac 13 ea 3e 9a f4 cb 3e
       0.4737206 0.9849122 0.45718133 0.39835054
000030 28 13 1e 3f aa 73 83 be 5e 6d c7 3e cb bb 68 bf
       0.6174798 -0.25674182 0.38950628 -0.9091155
000040 7f 6c 7a 3f bf 63 1c 3f 2b e8 51 3f c0 24 09 3f
       0.978218 0.610897 0.81994885 0.535717
000050 8f 4c 87 3f 7a 91 37 bd 1d 4c 0e 3f 2a 49 6e 3f
       1.0570239 -0.04481647 0.5558489 0.9308039
000060 40 95 03 3e 2c 60 de 3d 61 8a 4f be ab e5 2a bd
       0.12849903 0.10858187 -0.20267631 -0.041722935
000070 c0 00 9c 3d c8 19 b2 3d ed bc a4 be 56 6a 77 3d
       0.076173306 0.08696324 -0.3217539 0.060404144
000080 25 f2 b6 3e 65 9a a4 3e 14 33 94 3f cc c0 72 3f
       0.35731617 0.32149044 1.1578088 0.94825435
000090 58 60 75 3e 48 ce c9 bb ad 2b 3f bf 0c 25 0c 3f
       0.23962533 -0.006158624 -0.7467602 0.5474403
0000a0 fe 0a 6b bf 61 f3 0d 3f 84 7d 75 3f 4c d1 6c 3f
       -0.9181365 0.5544949 0.95894647 0.9250686
0000b0 e7 c8 5f 3f 1b f0 2f 3e c0 6c af 3e 2e 59 06 3f
       0.8741593 0.17181437 0.34262657 0.5247983
0000c0 57 92 84 3d 04 df 51 3f 30 65 94 3c 75 dd 6a 3f
       0.064732246 0.8198092 0.018114656 0.91744167
0000d0 b8 ad ab be d9 94 8e be 2f a1 3a 3f 91 fd c2 3e
       -0.33530974 -0.27847937 0.72902197 0.3808408
0000e0 6b 03 08 3e c2 20 a7 be 03 b3 bb bf 76 eb 7d bf
       0.13282554 -0.3264218 -1.4664005 -0.9918741
0000f0 7a fe 7c bf a4 1c 43 be 98 3e 55 3f 50 ac 1f bf
       -0.988258 -0.19053894 0.83298635 -0.62372303

bias f4 [8]
000000 dc 54 0e 3d 61 e7 5d 3f 44 db 9a 3f c2 3a 39 bd
       0.034748897 0.8668118 1.2098165 -0.04522205
000010 a2 1d 8b 3e f8 46 d8 3e 44 7b 53 3e 10 8d 87 bf
       0.27171046 0.42241645 0.20652491 -1.0589924

weight f4 [8, 8]
000000 49 da b0 3e 6e 33 a1 be 5d 58 c6 3c 79 ac 85 be
       0.34541538 -0.3148455 0.024212057 -0.2610815
000010 d6 40 7e 3e f5 76 80 3e fc d1 21 3e 65 de ae be
       0.2482942 0.25090757 0.15802759 -0.3415405
000020 61 1e ba 3d 59 88 68 3e 7e 1f 6c bf ac 11 02 bf
       0.090878256 0.22708263 -0.92235553 -0.50808215
000030 31 bd 10 bf 2b 56 f8 3e 9d f4 28 bf 48 e2 58 bf
       -0.56538683 0.4850324 -0.6599825 -0.8472028
000040 c1 eb 15 3e a0 d7 56 3f 0f f9 0f 3f 08 97 c6 3f
       0.14640714 0.8392277 0.5623941 1.5514841
000050 d6 f6 bd 3f c5 4b b8 3f 56 a6 e2 3e 62 94 af 3f
       1.4840953 1.4398123 0.4426753 1.3717158
000060 de 2c 84 be 0d 03 a7 be 85 c2 ca 3d 15 ea d1 bc
       -0.2581548 -0.32619515 0.09900383 -0.025624314
000070 e3 60 91 3d dc a7 0d be 69 21 b1 be 9e 8a 45 3e
       0.07098558 -0.13833565 -0.34595802 0.1929116
000080 27 97 89 be f3 f6 20 bf ac 01 e6 3e 80 17 5b 3e
       -0.26873133 -0.62876815 0.4492315 0.21395683
000090 04 7f 10 3e fe 8e b5 bf 0a a3 b2 be 5e cd 38 be
       0.14110953 -1.4184263 -0.34890014 -0.18047091
0000a0 c7 a8 89 3e 6a d7 54 3e a8 80 f4 be 76 3a d1 be
       0.2688658 0.20785299 -0.47754407 -0.40864915
0000b0 ce fb b0 be 4f c0 34 3f e3 99 60 bf 6b 57 c0 be
       -0.34567112 0.7060594 -0.8773481 -0.37566695
0000c0 de 57 af bd d4 ca d4 be 60 3c 71 3f 9a f3 55 be
       -0.08561681 -0.41560996 0.9423275 -0.20893708
0000d0 d8 0b 96 3e b0 6c 83 bf 78 e6 ea 3d a0 f3 a3 3d
       0.2930591 -1.0267544 0.1146974 0.08005452
0000e0 53 69 05 be 10 a2 0a 3e d6 b3 66 3f e2 a6 af bf
       -0.13028459 0.13538384 0.9011816 -1.3722804
0000f0 16 08 92 3e 80 d0 ac bf 9a 6c 98 be 4e 0c 9a bf
       0.28521794 -1.3501129 -0.29770356 -1.2035005

weight f4 [8, 8]
000000 12 95 ae be 1e f5 23 bf 78 05 75 bf c9 e3 08 bf
       -0.34098107 -0.64045894 -0.9571147 -0.5347257
000010 29 e6 87 bd be c0 13 bf a4 08 7a 3e 40 1e 84 be
       -0.066356964 -0.57715976 0.24417359 -0.2580433
000020 06 14 00 bf 60 25 28 3d 10 f0 88 be 6a 8a 3a 3f
       -0.50030553 0.04105127 -0.26745653 0.72867453
000030 9d 72 30 bf 1d 55 ac be 3e 4b 78 bf cc 98 60 bf
       -0.68924886 -0.33658686 -0.9698981 -0.8773315
000040 31 1a 12 bd 66 d5 39 bf 3c 36 80 bf c9 2f a4 be
       -0.03566951 -0.72591245 -1.0016551 -0.32067707
000050 68 72 40 be 12 91 04 3f c3 f1 94 3e 34 e8 c0 bd
       -0.18793643 0.5178386 0.290907 -0.09419289
000060 71 5f 5c bf 82 e2 15 bf 00 79 1a 3c 82 2a 24 3f
       -0.8608313 -0.5854875 0.009428263 0.6412736
000070 0c 7d 3b bf 66 88 90 bd a4 18 c4 be a9 5a f4 be
       -0.7323768 -0.07057266 -0.3830005 -0.47725418
000080 40 41 c2 bd 0c ba e5 bd f6 b3 99 be 54 1f 75 be
       -0.09485102 -0.11217126 -0.30020112 -0.23937732
000090 f9 c8 db 3d 29 81 83 be 31 04 e0 3d e8 e3 4f bd
       0.10731692 -0.2568448 0.109382994 -0.050754458
0000a0 19 8e 3f 3f a8 d2 99 3f 2b 3d 5a 3f 96 1c 48 3f
       0.748262 1.2017412 0.85249585 0.7816862
0000b0 12 34 04 3f 0a 10 94 3e 28 97 71 3f ca de a4 3e
       0.51641953 0.28918487 0.9437127 0.32201225
0000c0 e4 74 ec be af a1 40 bf 7f ea 05 bf 0f 81 b2 3e
       -0.4618293 -0.7524671 -0.5231094 0.3486409
0000d0 61 1b 48 bf 16 d5 43 3e 65 2c 59 bf 35 66 a8 be
       -0.78166777 0.19124255 -0.84833366 -0.32890478
0000e0 97 dd 38 3f ec 1b ba 3f 1e e5 b8 3f 24 71 f4 3e
       0.7221312 1.4539771 1.4444921 0.4774257
0000f0 ee b3 69 3f 4a 98 9a 3e 31 9b 13 3f be d8 3b 3f
       0.91290176 0.30194312 0.5765868 0.733776

bias f4 [8]
000000 5d 2f 23 bf 40 77 4e bd f6 2f 6c bf 04 6a 22 be
       -0.63744146 -0.050406694 -0.9226068 -0.15860754
000010 d5 49 8a 3e bc 83 cf 3f 17 2d 60 bf ee 84 9b 3f
       0.27009454 1.6212077 -0.875688 1.2149942

weight f4 [8, 8]
000000 ac fc ad be 35 4f 71 bf 29 cd 9e 3d a4 c9 a5 be
       -0.33981836 -0.94261485 0.07753975 -0.32380402
000010 d5 f9 84 be 8c 59 82 3e 86 e3 43 bf c7 1f 30 bf
       -0.25971857 0.25458944 -0.7651905 -0.6879849
000020 f0 c4 0a 3d 28 ce 6a 3f b4 7e a9 be 0b 3b 32 bf
       0.03387922 0.9172082 -0.3310448 -0.6962134
000030 a8 78 11 bf 68 3f 75 3e 7b db d3 3e 82 10 21 3f
       -0.5682473 0.23949969 0.41378388 0.62915814
000040 41 2f 20 bf af 5b a2 be 1f 80 41 3e 0b 30 b0 3e
       -0.62572104 -0.31710574 0.1889653 0.34411654
000050 fa 21 c3 bd b2 91 81 bf 4a 0b 6d bf d3 07 3e bf
       -0.09527965 -1.0122588 -0.9259535 -0.7423069
000060 c8 c8 96 3e b0 c4 bd 3d 99 a5 20 3f 0a 63 62 bf
       0.2945006 0.09266031 0.6275268 -0.8843237
000070 7a 7e 53 bf 4a ac 4c bf 7f de d9 3e c0 0c 52 3f
       -0.8261486 -0.7995039 0.42552564 0.82050705
000080 f8 c9 15 3e 9d 67 13 be 6b d6 c4 3d de d2 a8 3e
       0.14627826 -0.14394994 0.096112095 0.3297338
000090 8a 02 46 bc 25 28 a1 bd 9c f8 8c 3c 5f d5 92 be
       -0.012085566 -0.07868985 0.01720839 -0.28678414
0000a0 e2 17 96 3f 96 7a 8f 3f 7c 4e 56 3f ea 3b b7 3e
       1.1726038 1.1209285 0.8371351 0.35787898
0000b0 17 aa 1b 3f 5d fc 72 3f 16 40 a2 3e f9 56 4f 3f
       0.6080641 0.94916326 0.3168952 0.80992085
0000c0 36 64 d7 be 3d 44 75 bf a1 94 4a bf a8 98 ef be
       -0.42068642 -0.9580725 -0.7913304 -0.46796155
0000d0 7d 2e 21 bf 24 13 14 bf 9e d1 86 bc 7b 6a 08 3e
       -0.6296156 -0.57841706 -0.016457375 0.13321869
0000e0 42 34 a0 3f 33 5e be 3f 54 ad 17 3f 31 11 d4 3f
       1.2515948 1.4872497 0.5924885 1.6567746
0000f0 8b 88 79 3f 1e 73 96 be a8 e9 f4 3e c7 33 09 3f
       0.97473973 -0.29384702 0.47834516 0.5359463

weight f4 [8, 8]
000000 2a fd 79 bf 40 4c 6e bf 74 b3 92 be 82 46 4d bf
       -0.9765192 -0.930851 -0.28652537 -0.8018571
000010 92 39 3a 3e 36 bb f5 3e 22 1f ee be 2f 44 c3 be
       0.18186024 0.47994393 -0.46508127 -0.38137957
000020 98 bd 82 bd fd e7 a6 bb 1c 9b 9a 3e 41 69 1f bd
       -0.063838184 -0.005093573 0.30196464 -0.038918737
000030 b0 e6 b2 bc 2b 7d 05 be d5 dc 2e 3e 12 2d c3 3d
       -0.021838516 -0.13036029 0.17076428 0.09530081
000040 ac 49 59 bf 59 de c1 be cf 77 83 bc c0 32 f6 bd
       -0.8487804 -0.3786495 -0.01604834 -0.120213985
000050 f6 fb 8d 3d b2 d1 70 3f 42 de 1a bf eb f6 51 bf
       0.06932823 0.9406997 -0.6049539 -0.8201739
000060 ce d4 28 bf 76 87 55 bf b7 15 1f be 02 ae ab be
       -0.65949714 -0.8340982 -0.15535627 -0.33531195
000070 cf 4c 9c bd fd 96 b3 3e a6 39 e2 be 0e 71 7d bf
       -0.076318376 0.35076132 -0.44184607 -0.9900063
000080 30 29 85 3e 2e b2 5a bf e6 e9 7e 3f 10 63 ed bd
       0.26007986 -0.8542813 0.9957565 -0.1159116
000090 06 37 46 3f 3a 8c be 3f 5a 79 78 bf c4 17 ec be
       0.7742771 1.4886544 -0.9706017 -0.46111882
0000a0 e3 1b 54 bf 3f db b5 be d5 4a dd 3d 04 d6 b1 be
       -0.8285505 -0.35518834 0.10805289 -0.34733593
0000b0 b4 c7 ac 3e 73 4e 73 3f 28 96 ef be 61 a2 3d bf
       0.3374611 0.9504158 -0.46794248 -0.74075896
0000c0 71 27 b5 be 63 29 17 bf 98 05 82 be 1e dc 2c bf
       -0.35381654 -0.59047526 -0.25394893 -0.6752337
0000d0 42 46 63 be 1e b8 ff 3e 80 fb ea be 6b 4f 78 bf
       -0.2219477 0.49945158 -0.45895004 -0.9699618
0000e0 0e 64 a0 bd 87 d5 97 be 5d 8f e8 3d 15 df 67 3e
       -0.07831584 -0.29655096 0.113554694 0.22643693
0000f0 a3 7f 49 3e 53 e6 47 be b5 63 06 3e 12 33 a3 be
       0.19677596 -0.19521455 0.13123973 -0.318749

bias f4 [8]
000000 9c 67 f4 be 64 92 16 be 60 b7 a8 be 09 5e 1c bf
       -0.47735298 -0.14704281 -0.32952404 -0.61080986
000010 5f 6e 49 bf fa f2 bf be 94 01 3b bf 70 d4 2d bd
       -0.7868404 -0.37490064 -0.73049283 -0.042438924

weight f4 [8, 8]
000000 65 b4 9f 3e 2a 65 30 bf 50 44 81 bf 11 2a 36 3e
       0.31192318 -0.68904364 -1.0098972 0.17789485
000010 ee af 36 bf 58 a9 cc 3e be ff 59 3f e9 64 c1 3e
       -0.713622 0.3997295 0.85155857 0.377723
000020 b8 59 6f be 3c 02 b1 be d5 fa 81 bd d9 0e 6c 3e
       -0.23374069 -0.34572017 -0.063466705 0.23052539
000030 10 5a a5 3c 53 95 dc bd 05 88 bf 3d 7d 46 2f be
       0.020184547 -0.10770669 0.093521155 -0.17116733
000040 83 2a 12 be 4c 39 23 bf 68 94 60 bf 5c ad 18 3e
       -0.1427403 -0.63759303 -0.8772645 0.14909881
000050 36 22 1a bf 05 e1 43 bf 84 f0 4e 3f 47 46 28 3f
       -0.6020845 -0.7651523 0.8083575 0.65732235
000060 c2 2a a4 be c6 b2 70 bf 7f 32 59 bf d2 d1 86 3e
       -0.32063872 -0.94022787 -0.84842676 0.26331955
000070 da d1 13 bf 7d b9 4e bf 04 70 70 3f 4e 0b 7f 3f
       -0.57742083 -0.8075178 0.9392092 0.99626625
000080 6d 95 4d 3c 46 2f 80 bf 70 e4 87 3d 50 62 d2 bd
       0.012547833 -1.0014427 0.06635368 -0.10272658
000090 f0 eb 00 be 2b a4 07 3f c6 ff af 3f a8 25 ca 3f
       -0.12590003 0.52984875 1.3749931 1.5792742
0000a0 6b c0 b1 be 41 49 fa be 80 ac 44 bf 70 b5 d7 3d
       -0.34717116 -0.48884013 -0.76825714 0.10532653
0000b0 f3 83 cb be cc 84 b4 be 9b 35 54 3f 44 97 0f 3f
       -0.39749107 -0.35257566 0.82894295 0.5609019
0000c0 a9 a1 9c 3d 95 09 72 bf 20 d2 22 bf 15 87 78 bd
       0.07648022 -0.9454587 -0.63601875 -0.0606757
0000d0 39 9c 10 bf 00 8e 57 bf 6e 30 e9 3e 3c 0d 09 3f
       -0.56488377 -0.8420105 0.4554476 0.5353582
0000e0 12 f5 99 3c f0 80 24 3e 57 27 0e be 20 0c 30 be
       0.018793616 0.16064811 -0.13882194 -0.17192125
0000f0 bf e6 40 bc 76 48 4d be 3a 76 ea 3c bd 82 4c 3e
       -0.011773764 -0.20047173 0.028620828 0.19971748

weight f4 [8, 8]
000000 d2 88 40 3e b2 73 b6 be 68 34 d4 be 73 33 ff 3d
       0.18802193 -0.35635144 -0.41446233 0.12460985
000010 7a 17 7a bf 20 ec 62 bf b8 4d 70 bf 89 19 12 3f
       -0.9769207 -0.8864155 -0.9386859 0.57070214
000020 d8 41 a5 3d 58 a9 45 3f 00 9e 2a bc 9d 23 45 3e
       0.08069199 0.77211523 -0.010413647 0.19251867
000030 7c de 4e 3e a4 cd d2 3e b2 e7 2d bf 30 74 0c 3d
       0.20202059 0.41172516 -0.67931664 0.034290493
000040 3e 1b a3 3e a6 19 07 bf 2e b7 81 bf 8f ee 8b 3e
       0.31856722 -0.5277351 -1.0134027 0.27330443
000050 56 5d 7a bf db a6 72 bf 28 aa 4a bf e1 1e fb be
       -0.9779867 -0.9478585 -0.7916589 -0.49046996
000060 8e ad 0c be b6 59 62 3f 48 df ff bd e0 96 42 3e
       -0.13738081 0.8841814 -0.124937594 0.19002867
000070 b8 35 a5 bd ac eb 0b 3f 80 a1 a1 3c 51 90 ae 3f
       -0.08066887 0.5465648 0.01973033 1.3637792
000080 bc d4 8c 3e 76 a7 9f 3e ed 96 da 3d 64 fc 87 bd
       0.27506053 0.3118245 0.10673318 -0.066399366
000090 a8 7e a9 be f8 2b 93 3e 48 07 4a 3e 21 bd 09 be
       -0.33104444 0.28744483 0.1972934 -0.13451053
0000a0 90 30 c7 bc 82 7a 6c 3f ab bf af 3f 49 73 92 3d
       -0.024315149 0.9237443 1.3730367 0.07150895
0000b0 7c 0f c0 3f 69 f3 4c be dc 2c ba 3e 31 18 cd 3f
       1.5004725 -0.20014729 0.3636235 1.6023008
0000c0 37 c8 75 3d 03 68 8b 3d 24 11 d8 be b6 69 9c 3e
       0.060005393 0.06806948 -0.42200577 0.305494
0000d0 ba 5c 65 bf 39 0a af 3e c4 f9 06 bf e5 ab 5e bf
       -0.89594615 0.34187487 -0.5272486 -0.8698104
0000e0 96 36 9e 3e a7 8c 58 3f fe bd a1 3f 89 cf a0 be
       0.3090102 0.8458962 1.2636106 -0.31408337
0000f0 88 46 7b be 2c cd 4d 3f 38 29 c4 3f fc 40 56 be
       -0.24538624 0.8039119 1.5325079 -0.20923227

bias f4 [8]
000000 4e 11 32 bf c7 0e 94 be d7 b0 e0 be 80 bd c3 bd
       -0.69557655 -0.28917524 -0.43884918 -0.09557629
000010 08 54 4b 3d e2 39 96 3f 2f 21 45 bf a5 52 c9 3f
       0.049640685 1.1736414 -0.7700376 1.5728346

weight f4 [8, 8]
000000 57 dc 1a bf e8 9d c0 be fa 08 12 3e 8c cd 36 bf
       -0.6049246 -0.37620473 0.14261237 -0.7140739
000010 29 1c ea 3d 80 ba e7 bd 9e a1 28 bf 0e 48 1a bf
       0.114311524 -0.11314869 -0.6587161 -0.60266197
000020 3c 09 32 3e 79 ff 91 3f d3 b8 c1 be 68 ec e7 be
       0.17386335 1.1406089 -0.37836322 -0.4529755
000030 de ca e2 be 70 bb 97 bd 32 59 35 3f 25 d7 19 3f
       -0.442954 -0.07408798 0.70839226 0.6009391
000040 83 e4 21 bf 2c d6 03 bf c7 90 86 3e d9 36 e6 3e
       -0.63239306 -0.51498675 0.2628233 0.4496372
000050 77 bc 61 3e 3f 6b 1c bf 9a dc b2 be 3f 4c c7 be
       0.2204455 -0.61101145 -0.3493393 -0.3892536
000060 b0 d2 17 3d 8a af 3b be f5 97 49 3f 42 fd 5a bf
       0.03706616 -0.18328682 0.78747493 -0.8554269
000070 4d a8 19 bf e7 12 82 bf ca 6d 44 3f 49 71 a3 3e
       -0.6002243 -1.0162019 0.76730025 0.31922367
000080 17 a7 fa bd a2 ba 4a bd ac 5f 08 3e 72 b6 54 3e
       -0.12238901 -0.049494393 0.13317746 0.20772722
000090 b4 2e 80 be f1 9a 7f be d1 67 69 be 8c 6e 3e 3e
       -0.25035632 -0.24961449 -0.22793509 0.18596858
0000a0 2a ea 7d 3f e1 85 91 3f 19 d7 54 3f f0 cd 81 3f
       0.9918543 1.1368982 0.8314071 1.0140972
0000b0 43 99 04 3f 8c 8f 69 3f a0 32 cf 3e f7 e9 6a 3f
       0.5179636 0.9123466 0.4046831 0.9176325
0000c0 eb 18 7b bf 68 f1 7f bf bb 32 f7 be 29 d8 31 bf
       -0.98084897 -0.9997773 -0.48280892 -0.6947046
0000d0 c2 ca 7f bf 81 49 1d bf 33 19 b0 be 92 16 22 be
       -0.9991876 -0.61440283 -0.34394225 -0.15828922
0000e0 64 e4 a1 3f be 77 96 3f 5e 63 0f 3f fc 4d 97 3f
       1.2647824 1.1755292 0.56011 1.1820674
0000f0 1c 2b d5 3e c0 59 44 3e 16 a0 dd 3e 39 23 3d 3f
       0.41634452 0.19174862 0.43286198 0.7388187

weight f4 [8, 8]
000000 57 12 0b bf b8 ae 61 bf f9 0f 3a 3e c0 a5 0a bf
       -0.5432486 -0.88157225 0.18170156 -0.54159164
000010 6d 22 22 be d0 aa a5 be 84 70 5e bf 6e ec 22 bf
       -0.15833445 -0.32356882 -0.86890435 -0.63642013
000020 c9 15 a8 be d7 9f b3 be 37 85 6d be d5 17 b2 3e
       -0.3282912 -0.35082886 -0.23195349 0.34783807
000030 f8 e8 85 be 54 80 7b bf dc bf 15 bf af 7c 48 bf
       -0.26154304 -0.9824269 -0.5849588 -0.7831525
000040 58 09 e7 be 20 06 11 bf c9 16 1d be 24 66 19 3f
       -0.45124316 -0.5664997 -0.15340723 0.5992148
000050 3b 2a b4 3d bc 3a 70 bf 1d df 1e bf 4d 41 f7 be
       0.08797117 -0.9383962 -0.62059194 -0.48292008
000060 0e b9 52 be cc 5b 6f bd f0 43 65 3d 1f e8 90 3e
       -0.20578405 -0.058437154 0.055972993 0.28302094
000070 c4 16 fb bd b4 e5 d6 bc 1c 76 a9 3e b9 79 7e be
       -0.122602016 -0.026232578 0.33097923 -0.24851121
000080 9e 53 c5 3f 89 fc cf 3f 6d 54 01 3f a4 12 9d 3e
       1.5416143 1.6248943 0.5051945 0.30678284
000090 5b 2c 74 3f 72 69 d2 3f a8 60 5a 3f 75 fe dd 3e
       0.9538018 1.6438429 0.85303736 0.43358198
0000a0 eb 24 b6 3d b2 45 3f be eb 0c 94 3e b1 21 8c be
       0.0889376 -0.1867893 0.28916106 -0.27369455
0000b0 3a c4 c9 3d 16 27 75 be 64 21 a4 3d 1b 5a b2 bd
       0.0985188 -0.23940691 0.08014181 -0.087085925
0000c0 34 51 07 bd 53 7e ab be f8 49 86 3e fa 58 a9 be
       -0.033036426 -0.33494815 0.2622831 -0.33075696
0000d0 99 4f 9d 3e 72 8c ad be cf d3 57 be 8d 6e 86 3e
       0.3072479 -0.33896214 -0.21076892 0.2625622
0000e0 22 d6 65 bd 75 1a 94 be 0c 50 a5 3e fa f3 f8 3d
       -0.056112416 -0.28926435 0.32287633 0.1215591
0000f0 89 ce 99 3b f0 af 94 be 6a 1b ae bc 0c 9a 6e bd
       0.0046938104 -0.2904048 -0.021253306 -0.05825238

bias f4 [8]
000000 3a 1c a5 be 6f fc 42 bf d2 7c 65 bf 2a f1 a8 3e
       -0.32248098 -0.76166433 -0.89643586 0.32996494
000010 75 3c d3 3f b1 48 32 3e 9d b9 83 be dd 3d 2e be
       1.6502825 0.17410542 -0.2572755 -0.17015786

weight f4 [8, 8]
000000 df 56 92 3b cd cb ce be e2 ab 0a bf 20 4e 05 bf
       0.0044659222 -0.40389863 -0.5416852 -0.52072334
000010 a7 26 c1 3d 6c b2 e9 3e 35 7f c7 3d 17 3e 03 bd
       0.094312005 0.45643938 0.0974106 -0.032041635
000020 e5 b2 42 be 23 2b 45 3f ba 2d 2f bf c6 69 d7 be
       -0.19013555 0.77018946 -0.6842915 -0.42072886
000030 80 7a 30 be 02 47 a7 3e ea 4a 92 3e d4 33 50 be
       -0.1723423 0.32671362 0.2857278 -0.20332271
000040 59 3c 37 be dc c6 7f bf ef a7 81 bf 1f d4 74 bf
       -0.17894115 -0.9991281 -1.0129374 -0.9563617
000050 a2 f4 2f 3e 07 8c 00 bf af b8 0e 3e 56 fe 8d be
       0.17183164 -0.50213665 0.13937639 -0.27733105
000060 fc ef b7 3d 8e 66 45 be bc 10 fb bc cb 3c 97 bd
       0.0898132 -0.19277403 -0.030647628 -0.07384642
000070 0e aa ac be e6 de de bd cc a6 ab 3b 43 77 8a bb
       -0.3372349 -0.10882358 0.0052383896 -0.004225643
000080 d4 cb b5 3e 35 93 ae 3f 0e 0b 97 3f 45 96 ce 3e
       0.3550707 1.3638674 1.1800249 0.40349022
000090 d5 38 10 3f 12 cf 42 bf dd 26 10 3f e8 7f 6a 3f
       0.5633672 -0.76097214 0.563093 0.9160142
0000a0 8f 53 99 be 68 10 8d 3d ea 0d 08 3d 6d 9e 17 be
       -0.29946563 0.06887895 0.033216394 -0.14806528
0000b0 9a a1 9f 3d 90 e7 73 bd ca b6 06 bd 27 5c 51 be
       0.07794495 -0.059547007 -0.032889165 -0.2044531
0000c0 77 7e ac bc f7 4e f6 3d fe d7 1d 3e 85 67 cb 3c
       -0.021056397 0.1202678 0.15414426 0.024829635
0000d0 78 29 d8 bc 1b db e9 bc 9c 96 8c be ba 88 dd 3d
       -0.026386961 -0.02854686 -0.27458656 0.10817094
0000e0 9f 84 9c 3e 46 35 e4 3d d8 1d 54 3e 6d 17 54 be
       0.30569932 0.111429736 0.2071451 -0.20712061
0000f0 1e fa b9 3c 3f 7b c4 bd 4f ec d6 3d f1 b9 75 3d
       0.022702273 -0.0959382 0.10494291 0.05999178

weight f4 [8, 8]
000000 b2 8d ea 3d da c4 30 bf ce 96 61 bf 61 1f 81 be
       0.114528075 -0.6905037 -0.88120735 -0.25219253
000010 53 2d 4c bf d9 57 a6 3e 0f 27 57 3f a1 b0 79 bf
       -0.7975666 0.32488897 0.84043974 -0.9753514
000020 c4 26 59 be 50 86 22 3f 42 84 a4 bf 32 db 2a 3e
       -0.21206194 0.63486195 -1.2852862 0.16685179
000030 78 07 0d 3e 2b b7 da 3e f0 b6 58 be 20 8f fe 3d
       0.1377238 0.4271787 -0.21163535 0.12429643
000040 9e 2c 21 be cb c0 c4 be 5c 14 5d bf 83 f0 81 bc
       -0.15739676 -0.3842834 -0.8635919 -0.015861755
000050 b6 54 a1 be b2 e0 d3 be 92 17 d3 be 02 da a9 be
       -0.31509942 -0.41382366 -0.4122892 -0.3317414
000060 29 56 eb bd 40 0a 42 3d b8 c1 dd 3e a9 e8 4e 3b
       -0.11491043 0.047373056 0.43311858 0.0031571782
000070 60 d3 a3 3e 26 fa 1e bd f4 7a 4b 3f fc d1 81 bf
       0.31997204 -0.03881278 0.79484487 -1.0142207
000080 ea a3 46 3e 54 a8 ab be db 47 91 3e f1 d2 93 bb
       0.19398466 -0.33526862 0.28375134 -0.00451123
000090 57 71 5c be 58 42 31 3e 1a 14 84 bd a9 05 69 3e
       -0.2152761 0.17310464 -0.064491466 0.22756065
0000a0 5b 07 94 3c b6 01 1e 3f 54 ca 7f 3f 9d bd a1 be
       0.018069914 0.6172136 0.99918103 -0.31589976
0000b0 90 1c c0 3f d6 a1 57 3f 69 20 31 3f 30 ad b4 3e
       1.5008717 0.8423132 0.6919008 0.35288382
0000c0 80 cc 7a be ea 74 72 be a4 c5 4b bf 1e 8d 9b bd
       -0.24492073 -0.23677412 -0.7959845 -0.07595275
0000d0 f8 5f 01 bf 64 22 18 be 8e 11 17 bf c1 1b 0d bf
       -0.5053706 -0.14856869 -0.5901116 -0.55120474
0000e0 86 18 a4 be 6d 98 74 3f cc 54 c1 3f fd 03 78 3e
       -0.3204996 0.95545083 1.5104003 0.24220271
0000f0 ac a6 ae 3f e0 51 78 3f 00 b9 3c bb d8 ab 59 3e
       1.3644614 0.9699993 -0.0028796792 0.2125696

bias f4 [8]
000000 de a7 7c bf 38 9e 39 3e c6 0d db be 44 4e 40 3e
       -0.98693645 0.18126762 -0.42783946 0.18779856
000010 e2 4f 26 be 6b af 91 3f 91 76 27 bf 69 90 92 3f
       -0.1624141 1.1381658 -0.6541529 1.145032

weight f4 [8, 8]
000000 08 b4 a7 be fc f7 6e bf f7 3b 25 bd 9b 75 53 bf
       -0.3275454 -0.93347144 -0.04034039 -0.82601327
000010 5b 30 92 3d 4b a4 d2 3d 82 7e 47 bf 35 42 3d bf
       0.07138129 0.10285243 -0.7792741 -0.7392915
000020 80 74 53 3c 7d 1f af 3f fb c0 ad be ac 75 2d bf
       0.012906194 1.3681484 -0.33936295 -0.6775768
000030 15 20 61 bf 60 6c d9 bc 27 24 d5 3e 75 75 36 3f
       -0.8793958 -0.026540935 0.41629145 0.71272975
000040 7a 28 33 bf 9c e3 5f bf 08 7d a8 be be 2d 69 3f
       -0.6998364 -0.8745668 -0.3290789 0.9108542
000050 6f 3c 9f be 2e 5e 05 bf 79 d2 5c bf f7 91 a5 be
       -0.31100795 -0.5209683 -0.86258656 -0.32337925
000060 dc ad 72 be 6c 05 80 3e 3a 10 4b 3f 52 aa 3e bf
       -0.23699135 0.25004137 0.79321635 -0.7447864
000070 c0 1d 80 bf 1a ff 41 bf e2 ea e7 3e 97 e5 48 3f
       -1.0009079 -0.7577988 0.4529639 0.78475326
000080 20 23 a6 be b8 3e 0e bd f2 6f 2a be b4 cc 57 bd
       -0.32448673 -0.034727782 -0.16644266 -0.052685454
000090 fb 6c af be 67 16 5e 3e 89 8a 1e be cb a3 09 3e
       -0.34262833 0.21688233 -0.15482534 0.13441388
0000a0 62 8e a9 3f 84 fa d0 3f 9e 0b 75 3f 7c ec c6 3e
       1.3246577 1.6326451 0.9572085 0.38852298
0000b0 e5 f8 4e 3f 89 0e a4 3e b7 93 7a 3f b9 66 e7 3e
       0.8084853 0.3204234 0.97881645 0.4519556
0000c0 e3 59 2e bf 60 51 47 bf 07 d4 1a bf 49 6f af be
       -0.68105906 -0.77858543 -0.6047978 -0.3426459
0000d0 23 92 3a bf c9 e2 2a bf 10 7c 6c be e0 27 3b be
       -0.72879237 -0.66752297 -0.23094201 -0.1827693
0000e0 fb 9b be 3f a8 00 af 3f bf 7e 7d 3f 5c fd 7e 3f
       1.4891351 1.3672075 0.99021524 0.99605346
0000f0 7a f1 02 3f 00 34 ff 3c 67 99 58 3f a6 92 65 3f
       0.51149714 0.031152725 0.84609073 0.8967689

weight f4 [8, 8]
000000 f0 6b 28 bf dc 69 49 bf c7 5f 96 3c aa 44 7b 3f
       -0.657897 -0.78677154 0.018356217 0.9815165
000010 70 76 77 be e2 7b 2e bf 99 62 06 bf b0 2e d2 be
       -0.24166274 -0.6815778 -0.524942 -0.41051245
000020 6a 91 97 be 0a f3 d8 3d 17 8e b0 bc 9a 1f d2 3d
       -0.2960313 0.10593231 -0.021552129 0.10259934
000030 ab f1 49 3e a1 84 eb 3d 23 b7 af be 88 ec da 3d
       0.19721095 0.11499906 -0.3431941 0.10689646
000040 37 18 12 bf 6a 09 c4 be b1 ba 88 bd 40 ec bb 3e
       -0.570682 -0.38288432 -0.066762336 0.36703682
000050 d3 fe 0d be 47 de 34 bf 05 2d 22 bf 05 ef 53 bf
       -0.13866739 -0.7065167 -0.63349944 -0.8278659
000060 f8 fb 1d bf f7 42 cb be 89 f3 32 3e bf aa bd 3e
       -0.617126 -0.39699528 0.17475714 0.3704433
000070 e2 2a 67 be be 12 7b bf 9a 65 da be b0 dd c8 be
       -0.22574952 -0.98075473 -0.4265564 -0.39231634
000080 14 03 33 3e 5f 2a 2f bf 08 0e 21 3f af 86 c9 3f
       0.17481643 -0.6842403 0.62912035 1.5744227
000090 43 a3 4a 3f 58 d0 51 3e 64 5c 67 bf ed 13 0e bf
       0.7915537 0.20489633 -0.9037535 -0.55499154
0000a0 d0 0f 73 bf bb 15 7b bf 36 55 9a be e6 61 5f 3f
       -0.94946 -0.98080033 -0.30143136 0.87258756
0000b0 e5 76 5d be 1b 74 13 bf 3d 33 c4 be 2f a8 9f be
       -0.21627386 -0.5759904 -0.38320342 -0.31183
0000c0 90 ca 21 bf a9 91 27 bf 81 1c 6c 3d b2 9c 2d 3f
       -0.6319971 -0.65456635 0.05764437 0.67817223
0000d0 22 89 7f be 50 96 61 bf ce 7b ff be 4e 88 25 bf
       -0.24954656 -0.88119984 -0.49899143 -0.6466111
0000e0 c4 71 98 be 75 d5 57 bd 70 9f 05 3d 09 51 a3 3e
       -0.29774296 -0.052693803 0.032622755 0.31897762
0000f0 02 a9 ea bd 18 7b 0f 3e aa 0c 98 3e f2 6e a5 be
       -0.11458017 0.140118 0.29697162 -0.32311207

bias f4 [8]
000000 64 f2 2b bf 2d b3 2e 3d 6f a0 f6 be d7 c3 e1 be
       -0.67166734 0.042651344 -0.48169276 -0.44094726
000010 a8 75 4b be 55 70 58 bf bf 15 d9 be 40 40 00 be
       -0.19869101 -0.84546405 -0.42399403 -0.1252451

weight f4 [8, 8]
000000 b8 ca bd 3a c1 11 7b bf 6c b4 51 bf c3 e3 1a be
       0.001447997 -0.98073965 -0.81915927 -0.15125947
000010 b5 32 07 bf 7a 4d f3 3e 16 82 6a 3f 9e 17 44 3f
       -0.5281175 0.47520047 0.91604745 0.76598537
000020 ba d3 80 3d e1 6f ce bd da ec 30 be 6a 3a 8c 3e
       0.06290384 -0.10079933 -0.17277852 0.27388316
000030 6b 60 53 3e d4 77 a4 be c0 bc 89 be 86 a9 29 3e
       0.2064225 -0.32122672 -0.26901817 0.16568574
000040 35 1b 3c 3e 6f 75 13 bf b8 9f 7b bf e9 d2 f1 3d
       0.18369754 -0.57601064 -0.98290586 0.11807806
000050 ee 8c 74 bf c4 16 d6 be 2d f4 27 3f f3 c2 07 3f
       -0.9552754 -0.41814244 0.6560696 0.53031844
000060 81 d8 81 be 84 9b 6a bf fa 60 05 bf e2 b2 aa be
       -0.25360492 -0.9164355 -0.521011 -0.33339602
000070 7c 87 6f bf 19 87 50 bf ff cc b2 3e 1d 91 68 3f
       -0.9356611 -0.8145614 0.34922025 0.90846425
000080 6c 2b 80 be f1 d3 6f bf 6e 98 7b 3e e8 8e 91 be
       -0.25033128 -0.9368277 0.24569866 -0.2842934
000090 c0 e5 ae 3c 8d 65 01 3f a4 33 b0 3f a2 fb bd 3f
       0.021349788 0.5054558 1.376576 1.4842417
0000a0 c4 87 8d 3e 7e 2b ea be 13 ce 9f be ed bc 95 3e
       0.27642643 -0.45736307 -0.3121191 0.292457
0000b0 6e eb 36 bf 6f eb 7c bf 9b ce 3d 3f a9 be 7e 3f
       -0.7145299 -0.98796743 0.7414338 0.99509674
0000c0 be a6 8b 3e 96 4b 46 bf 16 a6 7c bf c8 f2 8d be
       0.27275652 -0.77459085 -0.9869093 -0.2772429
0000d0 68 21 f4 be b9 10 e4 be 6a 95 cd 3e 88 e4 dd 3e
       -0.47681737 -0.44544008 0.40153056 0.43338418
0000e0 4a 0f 8b 3c 2c 02 80 3e 51 f1 75 3c 2e 36 be 3d
       0.016975064 0.25001657 0.015011148 0.09287678
0000f0 89 73 65 bc 8b 64 3d 3c e0 68 06 be c3 88 93 3e
       -0.0140045965 0.011559616 -0.13125944 0.28815278
