mlartifacts/403163061964527456/158292fb2dc1470faba326ac4c2f9d66/artifacts/models/data/model.pth (torch, 37978 bytes, 28 tensors)

bias f4 [4]
00000000: b045 fd5b 56ac f53d 004b da5b ca7f b5bd
1.4257958e+17 0.11995761 1.2288802e+17 -0.088622645

weight f4 [4, 3]
00000000: f8cc d93e 5e68 71be 3633 d2bc b92c 27bd
00000010: 0e84 f83d b8af 043f ec1e abbd 1651 133f
00000020: 3faa af3c b200 d5bd 1501 0d3f a91d 3b3e
0.4253919 -0.23574969 -0.025659185 -0.040814135 0.121345624 0.51830626 -0.08355507 0.575456
0.021443484 -0.10400523 0.55079776 0.18273033

weight f4 [4, 3]
00000000: 2a3c adbd 6102 8ebe fa74 8ebd e202 7dbe
00000010: 1cb9 34be 098a bcbd a551 943e f9f7 1f3f
00000020: 4457 a53d 24b3 c73d 5bb8 76be d209 f33b
-0.08458741 -0.2773619 -0.06955905 -0.24708131 -0.17648739 -0.092060156 0.2896854 0.6248775
0.08073285 0.09750965 -0.24093764 0.007416942

bias f4 [4]
00000000: 0bc5 0abf f0ee fe3c cecc 82bd 3725 043c
-0.54206914 0.031119794 -0.0638672 0.008065513

weight f4 [4, 1]
00000000: 1df8 d53e 5ccf 0a40 a4c2 6ebf 8707 6dbf
0.41790858 2.1689062 -0.9326575 -0.9258961

weight f4 [4, 1]
00000000: 3c0b 0c3f 3a99 4d3e 6ca8 f43e 2755 313e
0.5470464 0.20077983 0.47784746 0.1731764

bias f4 [4]
00000000: 2033 11be 460e e3be 401f e63c ae71 0cbf
-0.14179659 -0.44346827 0.028091073 -0.5486096

weight f4 [4, 3]
00000000: 3e06 18bd 7d4c a33c a084 ea3e aa79 7fbe
00000010: 0950 47bf d326 00bf a74d 983d ef85 ae3e
00000020: f1ae 82be 0771 15be ef5f 853f 6db7 d73e
-0.037115328 0.019933933 0.4580431 -0.24948755 -0.778565 -0.5005924 0.07436686 0.34086558
-0.25524095 -0.14593898 1.0419902 0.4213213

weight f4 [4, 3]
00000000: 8b70 f63d 221b c6be 2779 e3be daf7 f9be
00000010: 8a37 213e 3fbe 0bbe 1ff9 ea3e a7e5 75ba
00000020: 27d4 dabc 154b 243e b180 d33e 2486 babe
0.120331846 -0.38692576 -0.4442837 -0.48821908 0.15743843 -0.13646792 0.4589319 -0.0009380229
-0.02671249 0.16044267 0.4130912 -0.36430466

bias f4 [4]
00000000: fbd3 8dbe b73c 05bf 3e7e 80bc cb8d 173d
-0.2770079 -0.5204577 -0.015685197 0.03700046

weight f4 [4, 1]
00000000: 54f1 f2be 6292 35bf 3c41 32bf 30f2 b83e
-0.47449744 -0.7092649 -0.6963079 0.36122274

bias f4 [4]
00000000: 60ba 4b3e c161 9c3d 00b1 4abd af85 ca3e
0.19895315 0.076358326 -0.049485207 0.39555117

weight f4 [4, 3]
00000000: 0c77 d2bc 84be 883d 8f76 013e 0862 3bbf
00000010: 1dc4 5f3e 657b ff3e 2f2d 53be 065a d7b7
00000020: ee13 ce3e 6864 053f a6c4 8b3e 7b36 b33e
-0.025691532 0.06676963 0.12642883 -0.7319646 0.21852155 0.4989883 -0.20622705 -2.5671918e-05
0.4024958 0.5210633 0.27298468 0.35002503

weight f4 [4, 3]
00000000: 2b83 94be a362 7b3f 76b2 b43d 34e8 d1be
00000010: a2ab c53e 0277 b3be ab3d 2d3e 383e fabe
00000020: bdf6 e6bd 4595 0c3f c031 85bc 8d0e fbbe
-0.29006323 0.9819738 0.08823101 -0.4099747 0.38607508 -0.35051733 0.16918056 -0.48875594
-0.1127753 0.5491527 -0.016259074 -0.4903454

bias f4 [4]
00000000: 62a3 31bd c15d b93d 65e7 c13e c006 5fbe
-0.043368705 0.09051085 0.37871853 -0.21779919

weight f4 [4, 1]
00000000: d6f1 b73f 5cb7 863f 3a74 8bbf 675f 813e
1.4370677 1.0524707 -1.0894845 0.252681

weight f4 [1, 4]
00000000: a43e 323e c623 f3be 00f7 05bd 88e4 bebe
0.17406708 -0.4748823 -0.03270626 -0.3728373

weight f4 [1, 4]
00000000: c0b9 19bd d053 a1be 804b ce3e c284 8f3e
-0.03753066 -0.31509256 0.40291977 0.28030974

weight f4 [1, 4]
00000000: 2175 bc3d be42 21bf fc69 033e 81ec b23e
0.09202028 -0.62992465 0.12833399 0.34946063

weight f4 [1, 4]
00000000: 22c6 e03e 6be8 123f 83b2 cebd 8e40 263c
0.43901163 0.5738589 -0.10092642 0.010147227

weight f4 [1, 4]
00000000: 08a7 f23e b03c cdbe de4a a63e e8b0 c0bd
0.4739306 -0.40085363 0.32478994 -0.09408742

weight f4 [1, 4]
00000000: 903c f5bd c03e 373c 1c01 a5be a068 273e
-0.11974442 0.011184394 -0.3222741 0.16348505

weight f4 [1, 4]
00000000: 5c70 803e c26f 90be f082 983d 80f9 d1bc
0.25085723 -0.28210264 0.07446849 -0.025631666

weight f4 [1, 4]
00000000: d2f2 e4be 8cbe 89be 6a5a e7be 045d 613e
-0.44716507 -0.26903188 -0.45186168 0.22008139

weight f4 [1, 4]
00000000: 40a5 ef3d a0f0 523e 0ed4 8ebe c88d 70be
0.11701441 0.20599604 -0.2789616 -0.23491585

weight f4 [1, 4]
00000000: b84c 8e3e 64b5 5dbe fab0 d73e 4865 9dbd
0.27792907 -0.21651226 0.4212721 -0.076853335

weight f4 [1, 4]
00000000: 5ed2 f7be 307f a2be 9e7b a1be 2b5f d93e
-0.48402685 -0.3173766 -0.31539625 0.4245542

weight f4 [1, 4]
00000000: 7c14 663f 1ece f83e 1ed8 51bf faba 1cbe
0.89875007 0.48594755 -0.81970394 -0.15305701
