mlartifacts/196996377989302197/356ba9b80e2d4a7db6342c798fe9b4ef/artifacts/models/data/model.pth (torch, 116074 bytes, 70 tensors)

bias f4 [32]
000000 17 1c 04 3b 30 b1 cd bc 51 56 bb 3e b0 87 8b 3c
       0.0020158344 -0.025108904 0.36589292 0.017032474
000010 b7 d4 27 3d 22 16 42 be c7 6c 6b bd 33 68 a5 3d
       0.040974345 -0.18953755 -0.057476785 0.08076515
000020 32 5a f3 bd 88 1c 87 3d 77 8d f2 bd 3b 8c 35 be
       -0.11882438 0.06597239 -0.118433885 -0.17729275
000030 a5 45 87 bd 36 37 aa 3c 74 b8 8a be b2 16 ae 3d
       -0.066050805 0.02077828 -0.27093852 0.085004225
000040 50 ec 32 be 30 bf 4c 3c e4 27 1e be 75 2b 62 bd
       -0.17472959 0.0124967545 -0.15444905 -0.055217225
000050 21 3b 1d 3e 96 68 22 be 65 1e 01 be 5a e5 79 3d
       0.15354587 -0.15860209 -0.12609251 0.061009742
000060 aa f0 16 3e ac e6 a9 3d 87 d5 99 3d ac 3d fe bd
       0.14740244 0.0829595 0.0751143 -0.12414107
000070 d4 20 13 3d e4 10 c8 3c 6f 53 1d be 22 c3 37 3d
       0.03591998 0.024422117 -0.15363859 0.044863828

weight f4 [32, 3]
000000 e9 06 9f bd 6a 91 89 3d 2e 5f 85 3e 19 30 29 3e
       -0.0776499 0.06717189 0.2604918 0.16522254
000010 0a 5c c8 3d fc 4d ef 3e e2 44 01 3f f8 da dc be
       0.0978318 0.46739185 0.5049573 -0.4313581
000020 39 ec 34 be 2b a4 b0 be 91 77 89 3e e5 60 06 3f
       -0.17668237 -0.3450025 0.26849034 0.524916
000030 7d db 3d bd 29 76 93 3d ae 6a 3e be eb 50 69 3e
       -0.0463519 0.07200272 -0.18595383 0.22784774
000040 f5 60 29 3f f3 31 08 3f 05 c9 8f bb b6 98 1a 3f
       0.6616357 0.53201216 -0.004387977 0.6038927
000050 ee 22 e3 3e 95 34 0d bf f1 e1 10 3e 21 cc d7 3e
       0.44362587 -0.5515836 0.1414869 0.42147925
000060 15 55 a3 be cd 86 9d 3e b7 ca 13 3e c7 df 8f 3e
       -0.3190085 0.30766907 0.14432798 0.28100416
000070 e6 f6 4f bd 54 c2 a6 3e 88 f9 99 be 38 6a d8 bd
       -0.05077257 0.32570136 -0.3007319 -0.105671346
000080 3e 5f 92 be 96 bd 68 3e ca 00 05 bf ed 56 b5 3e
       -0.2858829 0.22728571 -0.5195433 0.35417882
000090 4b d1 01 bf 63 f7 16 bf 04 fd d5 be d0 78 ed be
       -0.5070998 -0.5897123 -0.41794598 -0.46381235
0000a0 d8 31 dd 3c b8 13 1f 3f 54 01 0d 3f 81 68 88 3e
       0.027001306 0.62139463 0.5508015 0.2664223
0000b0 2a 3d f8 3d df b3 9d 3d 5a 6a 58 be 0e 33 ba 3e
       0.12121041 0.07700323 -0.2113432 0.36367077
0000c0 a0 0b 5f bd b8 41 d5 3e b5 20 12 3e fa 50 14 3d
       -0.054454446 0.41651702 0.14270289 0.036210038
0000d0 f7 45 b3 bd db 69 be be 67 6b 00 bf 38 46 1c 3f
       -0.08753579 -0.37190136 -0.5016388 0.61044645
0000e0 21 9e 48 be 99 9a 8c 3e a8 f2 a2 3e 19 dc 5e be
       -0.19591571 0.274617 0.31825757 -0.21763648
0000f0 4c ab 97 3e 79 c8 f8 be 91 08 11 3f 8b 9e 16 3f
       0.29622877 -0.48590448 0.56653696 0.5883567
000100 3a af c7 3e e2 de bc 3e 57 6f ce 3e 3a cb fa bd
       0.39000875 0.36888796 0.4031932 -0.12245794
000110 c1 b7 7b 3e 3d 05 0e be 0f 33 06 3e e4 b5 21 3c
       0.24581815 -0.13869186 0.13105415 0.009870026
000120 c8 1d 83 3e a0 1c 5e be 83 df ed be 25 b7 5e 3d
       0.2560866 -0.21690607 -0.46459588 0.05437388
000130 54 cf 22 bf ea 23 e3 be ce 5e a2 3e 65 4c 3e be
       -0.6359761 -0.44363338 0.31712955 -0.1858383
000140 a7 55 72 be de 24 b7 be 6d d0 17 bf 40 cf 03 bf
       -0.23665486 -0.35770315 -0.5930241 -0.51488113
000150 72 3e 89 3d 10 63 c1 be 62 6a e7 be 4e 83 20 3f
       0.067013636 -0.3777089 -0.4519835 0.62700355
000160 26 c6 cd be 6e c2 18 bf 6a 78 13 bf 68 0d 09 bf
       -0.40190238 -0.59671676 -0.5760561 -0.5353608
000170 a7 14 a2 3e 01 bb ef 3e 6c c3 0f 3f 4c d3 1d bf
       0.3165638 0.4682236 0.56157565 -0.6165054

weight f4 [32, 3]
000000 fa 75 b0 be 7b 67 f1 be 10 6b db 3e b4 ba 0d bf
       -0.3446501 -0.47149262 0.4285512 -0.5536301
000010 09 0e c8 3e 22 dd 37 be 79 a0 8e be d2 d5 9c be
       0.39073208 -0.17955449 -0.27856806 -0.30631882
000020 a5 85 df be 09 e7 51 3e d3 96 f7 3e 3d af 4d 3e
       -0.4365665 0.20498289 0.48357257 0.2008638
000030 ee 39 38 be d9 e8 c6 be 17 f4 99 3e 65 24 fe be
       -0.17990848 -0.38849524 0.30069038 -0.49637142
000040 ca 8f 9b 3d 7e 72 82 3d b7 ea c2 3e d7 bf f3 bd
       0.07595785 0.06369494 0.38069698 -0.11901825
000050 b8 1f e8 be 5a 88 b6 3e fe 48 c9 3e 12 7a 1f bf
       -0.453367 0.35650903 0.393135 -0.6229564
000060 aa 4c 03 3f 49 df 5d 3e 0d 41 90 be 61 23 62 be
       0.51288855 0.21667208 -0.2817463 -0.22083808
000070 ca 9c e0 3e b0 d7 ee 3e 58 03 72 3e 50 69 80 3e
       0.4386962 0.46648932 0.23634088 0.25080347
000080 23 d4 a1 3d 1f 4d 03 bf 04 65 a9 3e 44 82 33 3d
       0.0790179 -0.5128955 0.3308488 0.043825403
000090 49 0e df be f4 47 c3 be 81 90 03 be 04 95 fa be
       -0.43565586 -0.38140833 -0.12848093 -0.48941815
0000a0 a5 c0 21 3e b5 28 9b 3e e7 c0 3a bc 28 8f a9 bd
       0.15796144 0.30304495 -0.011398531 -0.08279258
0000b0 d7 e0 7d 3e 73 02 bb be da bd aa be 38 f2 0c bf
       0.24792801 -0.36525306 -0.3334797 -0.55057096
0000c0 e0 1b c8 be 36 a1 69 3e f6 b9 df ba 6f bb 8b 3e
       -0.39083767 0.22815403 -0.001706897 0.27291438
0000d0 f3 0f 6b be 4f ef c2 be 50 d0 04 bd b6 99 70 3e
       -0.22955303 -0.38073203 -0.032425225 0.23496136
0000e0 dd 8b 1a 3e fc e0 a3 3d 72 81 86 3d ee 12 09 bf
       0.15092416 0.08001897 0.065676585 -0.5354451
0000f0 50 b8 5b bc 33 5a 82 be d0 c3 b2 be df 3d 00 3c
       -0.013410643 -0.25459442 -0.34915018 0.007827251
000100 88 f1 bf bd ce cf b8 bd b9 d6 fa bd 41 08 a3 be
       -0.0937224 -0.090240106 -0.12247986 -0.31842235
000110 e3 2b 01 3f 95 75 de 3c 84 1e c8 3e 9d 2e b5 be
       0.5045759 0.027155677 0.39085782 -0.35387126
000120 6a ec e7 3d 00 ed 53 be bb 1d 15 bf 28 40 6e bd
       0.11324389 -0.20695877 -0.5824849 -0.058166653
000130 e8 45 f9 be fc 8b 11 be 21 f3 d4 bd 2f 57 3c bd
       -0.48686147 -0.14213556 -0.10397936 -0.045981582
000140 64 d2 f5 be 6a f5 a9 3d 8d 0a 49 be e6 f7 02 3f
       -0.48012078 0.08298762 -0.19632931 0.51159513
000150 6d 1c c0 be 05 c4 c1 be 00 fd 1e 3f 41 71 ba 3e
       -0.37521687 -0.37844864 0.621048 0.3641453
000160 ed 2f 0a bf e6 ab 03 3f 35 c3 21 be c3 a6 a3 3e
       -0.5397938 0.5143417 -0.15797122 0.31963167
000170 67 4d c5 be 49 bb d5 3e 6f 34 f3 3d 37 e1 ad bb
       -0.38535616 0.4174445 0.11875235 -0.0053063887

bias f4 [32]
000000 18 e2 f5 3e 53 d6 d7 bd d5 d4 27 3d 77 00 5a 3e
       0.48024058 -0.10538926 0.040974457 0.2128924
000010 03 ae 80 be e6 d2 d8 bd 0b aa 10 bf 40 68 18 be
       -0.2513276 -0.10587101 -0.56509465 -0.14883518
000020 52 e2 94 be 08 d2 1f 3e 75 40 a1 be ad 86 b3 3d
       -0.2907892 0.15607464 -0.3149449 0.08765922
000030 fc 3e dd 3b 43 a2 19 3f 14 85 0b be ec ba db bd
       0.006751893 0.60013217 -0.13624984 -0.10729012
000040 ea bd ee 3e 1d 4b af 3e d3 b0 fb 3e b7 1b 0d bf
       0.46629268 0.34236994 0.49158344 -0.55120414
000050 ac 1d 73 bc 90 ef d3 be 1f b1 25 bf 55 a0 25 3d
       -0.014838617 -0.4139371 -0.6472339 0.040436108
000060 67 6f 1c bf 1c 36 eb be 05 7c e6 be b1 5e bb 3e
       -0.61107486 -0.4593972 -0.45016494 0.3659568
000070 86 a7 cc 3e 3e 06 4d 3e bc ff ec 3e 00 de 19 be
       0.3997156 0.20021912 0.4628886 -0.15026093

weight f4 [32, 1]
000000 81 37 dd be 0d f8 b4 be 30 c8 6b 3e 30 7b cf 3e
       -0.4320641 -0.35345498 0.23025584 0.40523672
000010 a8 de df bd ce f8 f6 be bc a4 35 3f 32 b1 2e bf
       -0.1093114 -0.48236698 0.7095449 -0.6823913
000020 2a a2 03 bf 28 8b 2a 3f f7 33 73 be 4f 7a 97 3c
       -0.5141932 0.66618586 -0.23750292 0.018490938
000030 a4 33 a2 3e a0 fa 85 bf d7 e4 7e 3e e5 ed 77 3f
       0.31680024 -1.046711 0.24891983 0.96847373
000040 3a 84 08 3f 3d d9 18 3f c0 81 7f bf 7c 90 76 be
       0.5332676 0.5970648 -0.9980736 -0.24078554
000050 f2 78 b2 3e 9b a2 0c bf 43 6d 41 3f 89 6a 69 bf
       0.348579 -0.54935616 0.75557345 -0.91178185
000060 54 8e 46 3f 05 19 10 3f b1 48 c8 bb 47 a6 55 bf
       0.77560925 0.56288177 -0.006112181 -0.83456844
000070 ba 63 4f bf 17 10 1e 3f 40 3e 85 3f f6 3e 45 3e
       -0.81011546 0.617433 1.0409622 0.19262299

weight f4 [32, 1]
000000 c6 d6 a1 be aa dc 0b be 41 31 6a 3f 73 2b 1c 3f
       -0.31609172 -0.13658395 0.91481405 0.610038
000010 5f 6e fa 3e 59 19 73 bf 3e 7f 80 be 58 b4 3d 3f
       0.4891233 -0.9496055 -0.25097078 0.7410331
000020 e3 4f 1d be 26 88 35 bf cd ed 3e bf 03 04 8f bf
       -0.15362506 -0.7091087 -0.74581605 -1.1173099
000030 c8 51 19 bf 9a 56 82 be f5 7e 87 bf 11 2c 00 be
       -0.59890413 -0.25456697 -1.0585619 -0.1251681
000040 f7 4f ff be af a0 97 3e 4b 67 b7 3d ea 70 d2 3e
       -0.49865696 0.2961478 0.089552484 0.41101772
000050 1f b0 a6 3e 5e 5f be bd e1 1b 80 bf a6 48 fa bd
       0.32556245 -0.092955336 -1.0008508 -0.12220888
000060 1a d4 4e 3f a6 db 41 3f c3 d5 74 3f f7 be 7e bf
       0.8079239 0.7572578 0.95638674 -0.9951014
000070 f7 fd 7b bd 79 82 f7 3e 56 07 7a bf 65 ad e5 3e
       -0.061521497 0.4834173 -0.97667444 0.44858852

bias f4 [32]
000000 04 ff e9 3c f0 b6 c6 bc a5 0d ff be f0 e0 c2 be
       0.028563984 -0.024257153 -0.49815097 -0.3806224
000010 06 46 d2 3e 78 87 2e 3e cd fa bf be 7a ab d7 3e
       0.4106905 0.17043865 -0.37496033 0.42123014
000020 db de 0f bf c2 94 14 3f 44 61 c2 3e ee 54 32 bd
       -0.56199425 0.58039486 0.37964833 -0.043538027
000030 32 fa f3 be 96 8d be bd 40 63 6c 3e c6 7f 0a 3d
       -0.4765182 -0.09304349 0.23084736 0.03381326
000040 fe ad 61 bf ce 06 27 3f 0a 42 57 3d df 44 81 3e
       -0.88156116 0.6524476 0.052553214 0.25247857
000050 4d b5 a3 be 43 b8 59 bf f6 5c 0b bd c0 59 85 3f
       -0.3197426 -0.85046786 -0.0340242 1.0418015
000060 4d b3 3e 3f bf 19 3b bf 51 b1 34 be 0a e9 25 3f
       0.7449234 -0.7308616 -0.17645766 0.64808714
000070 af c9 89 be a6 a6 d5 be 0a d8 34 bd 05 5e e3 3e
       -0.26911685 -0.41728705 -0.044151343 0.4440767

weight f4 [32, 3]
000000 60 e0 1b 3e 77 89 0a bf 8d d4 28 3f 06 11 ae 3d
       0.15222311 -0.54116005 0.65949327 0.08499341
000010 32 b9 f3 3d 1c 82 bb 3e f2 68 01 3f d7 55 c0 3e
       0.119005576 0.36622703 0.5055076 0.3756549
000020 0a 20 27 bc f4 c0 60 be d5 35 17 bf 2c c3 48 3e
       -0.01020051 -0.21948606 -0.59066516 0.19605702
000030 1e d4 9e bd 23 7a ac 3d 8f fb 6f 3e 1c 02 29 be
       -0.07755302 0.08421733 0.23435806 -0.16504711
000040 19 4e 9f be ff b1 9d 3d fd d8 04 be de 16 f0 bc
       -0.3111427 0.07699966 -0.129734 -0.029307779
000050 4b a3 f4 be 89 5a cc bd 5c 5f ff be 32 d9 fa 3e
       -0.47780833 -0.09978206 -0.4987744 0.48993832
000060 58 d3 9f be 01 96 22 bf 76 5a 71 bd 3b c5 7b be
       -0.3121593 -0.6351014 -0.05892416 -0.24586956
000070 57 50 9a 3e dc 7f d1 3e e5 65 a6 3e f4 b8 7b 3e
       0.3013942 0.4091786 0.32499614 0.24582273
000080 5d 76 02 bf ab 45 05 3f e1 67 ab bd 50 f9 34 be
       -0.5096186 0.5205943 -0.08369423 -0.1767323
000090 78 26 b0 3d 13 bb 9f be 4a de d2 3e b0 db 9a bd
       0.08601087 -0.31197414 0.41185218 -0.07561433
0000a0 96 e4 dc 3e f7 71 9d 3e 22 26 81 3c aa 09 37 3d
       0.43143147 0.3075101 0.015765253 0.04468695
0000b0 47 5f 03 bf 01 27 ce 3e a6 e4 e5 3e 54 64 17 bf
       -0.51317257 0.40264133 0.44901007 -0.59137464
0000c0 19 6f 8a 3e 2a 6b ff 3c a3 51 d4 bd ad 2b d1 3e
       0.27037886 0.03117903 -0.103671335 0.40853634
0000d0 08 c3 09 bf 64 d0 8a 3d 3e 61 81 bd 7a 50 1f 3f
       -0.5381322 0.067780286 -0.063173756 0.6223217
0000e0 5e 92 0f 3f 76 86 4a bd 23 b3 f7 bc a3 df 29 be
       0.56082714 -0.04944464 -0.030236786 -0.16589217
0000f0 2c f4 a8 be 5c f7 bc bd 95 c2 fd 3d 9c 81 69 bd
       -0.32998788 -0.092268676 0.12390629 -0.05700837
000100 82 76 d0 3e e0 86 d5 be f5 a6 0c 3e 3c 28 8b 3e
       0.40715414 -0.41704464 0.13735564 0.27179134
000110 e5 fa 18 bf c2 43 17 be 17 7f 87 3e cd c6 57 3d
       -0.59757835 -0.14771941 0.2646415 0.052679826
000120 20 fc 1c 3f dc b0 f1 be a2 c9 0a bb 4c b6 79 be
       0.6132221 -0.47205245 -0.0021177311 -0.24385947
000130 c2 48 66 3b 18 ce a8 3d 52 4a 03 3f 2d d5 18 be
       0.0035138582 0.08242434 0.5128528 -0.1492507
000140 6c f6 b4 be 49 f0 e0 3e fb 41 fa bd 60 8d b5 be
       -0.35344255 0.43933323 -0.12219616 -0.35459423
000150 8d fa 8c 3e c7 f7 19 3f 3a 4b 6f be ad 6e c9 bd
       0.27534905 0.60143703 -0.2336854 -0.09835563
000160 e8 95 bb 3d 10 dc d0 3e 0e 61 49 bd 87 f1 18 be
       0.09159452 0.40792894 -0.049164824 -0.14935885
000170 d7 3d 1d bf cd 98 dd bc 65 70 02 3f ca 82 b7 3e
       -0.61422485 -0.0270504 0.5095275 0.35841972

weight f4 [32, 3]
000000 cc c6 6c be 37 7f ac be 74 59 3e 3e 77 e4 af be
       -0.2312271 -0.33690807 0.18588811 -0.34353992
000010 e1 47 51 3e 9c 79 b2 be d8 a1 60 be 08 09 d6 bc
       0.20437576 -0.34858406 -0.21936738 -0.026127353
000020 a4 78 76 be 4d fa a3 3e db 78 58 3d e1 1e 98 be
       -0.24069458 0.32026902 0.05284963 -0.2971106
000030 7f dd c7 3d 34 35 81 3d 5a 62 58 be 6e 81 24 3f
       0.09759044 0.06308976 -0.21131268 0.64259994
000040 89 de fd 3c bd e6 dc bd 76 37 d3 be be 5d 48 3e
       0.030989902 -0.10786197 -0.4125325 0.1956701
000050 03 ba 5d be d3 40 f3 3d f7 25 75 be b6 af e0 be
       -0.21652989 0.118775986 -0.23940264 -0.43884057
000060 6c 2b 0a 3e ee 40 cb 3e 62 f7 14 bf a9 ab b9 bd
       0.13493127 0.39697975 -0.58189976 -0.09065945
000070 91 74 9a 3e 33 e4 c3 bd b4 83 09 3f 7d 08 4a 3c
       0.30167058 -0.0956501 0.5371659 0.012331125
000080 15 45 dd 3e 40 79 8f 3c 9c d4 90 3e e6 05 a8 3e
       0.43216768 0.017513871 0.28287208 0.32817
000090 6a 4b ad 3d e4 eb 58 3e bd 34 a7 be 32 b6 ca 3d
       0.0846165 0.21183735 -0.32657424 0.09898032
0000a0 bf 73 12 be d2 89 c4 be 8c 74 a3 be 09 ef eb 3e
       -0.14301966 -0.383864 -0.31924856 0.46080807
0000b0 1a 12 74 3c 3c 5e 22 3f 02 9c 17 3f 5d 92 98 be
       0.014896894 0.6342504 0.59222424 -0.29799166
0000c0 e4 20 d4 3e c0 ad 0f be d3 a3 04 bf 70 22 9e 3e
       0.41431344 -0.14031124 -0.51812476 0.3088565
0000d0 53 a9 ac 3d c6 bc 0f be c0 23 9f be 22 de 04 ba
       0.084307335 -0.14036855 -0.31081963 -0.0005068501
0000e0 02 8f 07 be 6c 8c e9 be bd b8 f0 bc 98 ab f5 be
       -0.13238147 -0.45614946 -0.029384965 -0.47982478
0000f0 80 03 f0 3e 7d d9 d9 be 54 86 1a 3e 69 51 0c 3e
       0.4687767 -0.42548743 0.15090305 0.1370293
000100 0d 80 0c bf 12 0c 21 3e 64 51 6f be d5 24 87 3e
       -0.5488289 0.1572726 -0.23370892 0.26395288
000110 d6 a1 8a 3e 4f fa f9 be ab 98 ad be 68 88 a8 3e
       0.27076596 -0.48823783 -0.3390554 0.3291657
000120 03 b5 ca 3e 85 3a 09 bf 36 58 35 bc f0 6e 4f ba
       0.39591226 -0.5360492 -0.011068394 -0.00079129543
000130 aa 04 f9 3e 88 e2 95 be 14 20 bb 3e 2e 13 0b bf
       0.4863637 -0.29274392 0.3654791 -0.5432614
000140 72 79 b5 be 77 68 c0 be a6 49 e2 be cc 7a 04 3f
       -0.35444218 -0.375797 -0.44196814 0.51749873
000150 64 e6 e0 bd 52 15 0d 3e 56 54 80 3d 29 18 c2 3e
       -0.109814435 0.13777664 0.06266086 0.37909058
000160 53 bc eb 3d 5b e6 1c 3f 58 b4 f7 be 3b 21 21 bf
       0.11510529 0.61288995 -0.4837978 -0.6294133
000170 4c 2b 23 3e d2 c4 6d be 95 eb 48 3e a2 dc 48 be
       0.15934485 -0.23219612 0.19621117 -0.19615415

bias f4 [32]
000000 62 a0 11 3f 3d 7a cd 3e 27 a8 07 3f fa b4 5f be
       0.5688535 0.40132323 0.52990955 -0.21846381
000010 23 79 8e 3c ad fd 1a 3f da b3 19 be ac b9 8e 3e
       0.017391747 0.6054333 -0.15010014 0.2787603
000020 ea 60 78 be d5 d7 e4 bd f8 7a 33 be 03 6f a8 3e
       -0.2425572 -0.11173979 -0.17527378 0.32897195
000030 94 78 8b be 29 2c f1 bd 97 69 de 3e b2 b8 8a 3e
       -0.2724043 -0.11776001 0.43439934 0.27094036
000040 44 c1 b5 bd af 6a 14 bf 0a 90 93 be 8c 75 47 be
       -0.08874753 -0.57975286 -0.2882083 -0.19478434
000050 48 62 10 bf 90 7b a9 be 5b 2e 90 be 71 c8 2b bf
       -0.56399965 -0.33102083 -0.28160366 -0.67102724
000060 64 cb b6 3d d0 08 3d be 91 d8 f6 3d 8d 8b 04 bc
       0.089255124 -0.18460393 0.120530255 -0.008089912
000070 62 52 18 3e 12 5b dd be 34 1d d4 3e 4f 01 94 3d
       0.14875177 -0.43233544 0.4142853 0.07226812

weight f4 [32, 1]
000000 75 75 5f bd 54 2a 04 be ea a1 65 bf fd 5c 6e be
       -0.054555375 -0.12906772 -0.89700186 -0.2327766
000010 65 2e 86 bf e1 2c c5 3e a4 04 48 3f 19 76 07 bf
       -1.0482908 0.38510802 0.7813208 -0.5291458
000020 75 9b 34 bf fa 58 c0 3e 7d ee 39 3f f5 43 2b bf
       -0.7054971 0.37567884 0.7262953 -0.6690057
000030 66 87 ad 3e b4 97 68 3f c1 01 34 ba 8b c0 9e bd
       0.33892363 0.9085648 -0.00068667164 -0.077515684
000040 04 22 f1 3e 34 ca f5 3e 6c 6a 62 be 5c 24 1e bf
       0.47096264 0.4800583 -0.22110909 -0.6177423
000050 29 ef cc 3d a0 5d 5c 3d 1e fe ca 3d 3f 3e 60 3e
       0.10006554 0.053800225 0.0991175 0.21898745
000060 e6 8b e6 3d bc 42 6e 3e f8 5f 28 bf 39 55 07 3f
       0.11257152 0.23267645 -0.65771437 0.52864414
000070 d0 da 34 3f 84 91 c4 3e f5 d5 29 3f f0 b1 6b be
       0.7064638 0.3839227 0.663421 -0.23017097

bias f4 [32]
000000 26 94 df 3a d5 bd 52 bc e1 3d a4 3f 4d 17 92 bc
       0.0017057701 -0.012862642 1.2831384 -0.017833376
000010 fa 53 df be 51 92 4b be cb e0 2e bf 64 1a 56 bf
       -0.43618757 -0.19880034 -0.68311757 -0.8363402
000020 c1 b6 9e 3e 37 68 d8 3d 95 e8 82 3e ac 7d dd 3d
       0.30998805 0.105667524 0.2556807 0.10814986
000030 ba d4 2c bf bf c4 13 3f 66 43 89 bf 30 35 ab 3e
       -0.67512095 0.57722086 -1.0723693 0.33439016
000040 d4 89 81 3e 58 e1 45 bf 09 c9 a1 3e 89 94 29 3e
       0.25300467 -0.7729697 0.3159869 0.16560568
000050 18 b8 af 3d 1c a0 c3 be 63 aa 8a bf 6c 0d 85 3f
       0.08580035 -0.3820809 -1.0833248 1.0394721
000060 27 df 2e 3f a7 bc 28 3f fb d7 89 be b0 81 e9 3e
       0.68309253 0.6591286 -0.26922593 0.45606756
000070 c9 6c 4e 3f 9b 76 17 3f 35 57 42 3f a5 60 36 3f
       0.8063474 0.5916535 0.7591432 0.7124122

weight f4 [32, 3]
000000 b3 90 35 3e c7 a2 7c be c6 ac b5 3e 01 16 3d be
       0.1773098 -0.2467147 0.35483378 -0.18465425
000010 ec 6a b9 be 10 18 81 3e 51 31 c2 3e 86 ff b1 3e
       -0.36214387 0.2521367 0.3792825 0.3476526
000020 fb 16 09 3f c9 8b b4 bd d1 b4 10 3c 59 8e cc be
       0.5355069 -0.088157244 0.0088321725 -0.39952353
000030 1e a2 b4 3e 07 81 b6 be 90 56 26 be 05 7d b6 be
       0.35279936 -0.35645315 -0.16243958 -0.35642257
000040 24 bd 6d 3e a2 37 96 be 78 93 eb be 2c c0 1a be
       0.23216683 -0.2933932 -0.46010947 -0.1511237
000050 5b ae 05 bf d9 1a e1 bd 24 bf 16 3f 39 7b be be
       -0.5221917 -0.10991449 0.5888541 -0.37203386
000060 80 6e 13 bf 67 2e 01 bf cb a4 cf be 63 21 1f bf
       -0.57590485 -0.5046143 -0.40555415 -0.6216032
000070 7f a6 95 3e 54 2a a9 3e ea 1c 6c bd 8e 0d 4d be
       0.2922859 0.33040106 -0.057644762 -0.20024702
000080 0e bc 8f 3e 34 15 94 be 8c 45 fc 3d e2 c2 c5 3e
       0.28073162 -0.28922427 0.123179525 0.38625246
000090 dd a3 9a 3e eb 2c e5 be cc 31 1e bf ee aa a8 3e
       0.30203143 -0.44760832 -0.61794734 0.3294291
0000a0 b1 43 af 3d 80 fb 70 bd a8 e6 e5 3e 8d 23 00 bf
       0.08557833 -0.0588336 0.4490254 -0.50054246
0000b0 51 0e 44 be 3f 58 ad be 35 e2 13 bf ac bb 01 3f
       -0.19146086 -0.3385639 -0.5776704 0.5067699
0000c0 2a 50 5f be 31 a5 c8 3e a6 b3 1b be fc 42 c2 be
       -0.21807924 0.3918853 -0.15205249 -0.3794173
0000d0 3b 2c 96 be a6 10 f4 be db 64 04 bf cf 77 9c bc
       -0.2933062 -0.47668952 -0.51716393 -0.019100098
0000e0 d3 50 c0 bd 2f 4a 32 3e 70 48 45 3e 68 82 f1 3e
       -0.09390416 0.17411111 0.19265914 0.47169805
0000f0 5c 05 e0 be 69 ba 4f be 15 b8 21 3e f5 0c e0 be
       -0.4375409 -0.20285954 0.15792878 -0.43759885
000100 74 ff e0 3d 5c 72 c4 be 8d 1d 71 3e ce 34 c9 3d
       0.10986224 -0.383685 0.23546429 0.09824525
000110 0d 62 58 3e 62 d1 c6 be a8 e1 42 be 6b 6c de 3e
       0.21131153 -0.3883162 -0.19031394 0.4344209
000120 b8 c5 ad 3e 81 71 a5 3e 34 8b 97 be 8a 3a f3 3e
       0.3393991 0.3231316 -0.2959839 0.475056
000130 93 bb ff be 50 e7 08 3f 5d 91 e7 3e c1 9c 2f 3e
       -0.49947795 0.53477955 0.4522809 0.1714964
000140 41 56 00 be 38 30 d9 3d c8 a1 25 bf 86 17 11 3f
       -0.12532903 0.106049 -0.64699984 0.5667652
000150 6c 82 fd be 64 34 ec be 09 77 ad be f6 dc 13 3f
       -0.49513566 -0.4613372 -0.3387988 0.57759035
000160 40 4d db 3c 8a 2e b1 be 4d 2c a1 bc 71 93 25 bf
       0.026770234 -0.3460582 -0.019674445 -0.646781
000170 9a 60 c2 bc 3c b4 08 bf 5e ec b0 be c3 59 85 3d
       -0.023727704 -0.53400016 -0.34555334 0.06511261

weight f4 [32, 3]
000000 be 89 e5 3d f4 cc 06 3f d2 75 08 be 6b 1f 3d be
       0.11207913 0.52656484 -0.13326195 -0.18469016
000010 20 81 e6 be 54 8e 59 bd b8 5a 09 3f 9c 89 67 3b
       -0.4502039 -0.05311425 0.5365405 0.0035329824
000020 7d 7d f8 3d 5b 20 0e 3d 19 6d 90 bd 11 4a c4 be
       0.1213331 0.034698825 -0.07052059 -0.38337758
000030 5c 72 de 3e 31 79 37 3d d7 94 85 be a0 85 0a be
       0.43446624 0.04479331 -0.26090118 -0.13527536
000040 ee b9 e8 be 40 11 b2 be ab 0e 12 3e 3e 3f 12 be
       -0.45454353 -0.34778786 0.14263408 -0.14281937
000050 11 6c 0a bc c1 05 cc 3d f1 ab 4b be c5 ae 10 be
       -0.008448617 0.09962035 -0.19889809 -0.1412917
000060 e5 2a 2f bb be e1 0c 3f 56 34 a3 3d 69 65 16 3f
       -0.0026728448 0.55031955 0.07968967 0.5874849
000070 ed 93 52 be 40 3b 7c 3b 3a 71 3f 3c c3 7b a1 be
       -0.20564242 0.0038487464 0.01168471 -0.31539735
000080 43 45 55 3e 98 23 a1 3e b0 19 24 bf 95 d4 2d 3e
       0.20827202 0.31472468 -0.64101696 0.16975625
000090 ec 97 18 bf 77 6e 95 bc 51 a2 86 3d e1 a3 d9 3e
       -0.59606814 -0.01824115 0.06573928 0.42507842
0000a0 df 55 c4 bd f7 25 87 3e e3 19 8f be 88 f4 e4 3e
       -0.09586691 0.26396152 -0.27949437 0.44717813
0000b0 60 74 13 3f 61 fb be 3e a4 09 b9 be 06 e2 9b bc
       0.5759945 0.37301162 -0.36140168 -0.019028675
0000c0 4d d3 93 3d 22 ec ec 3e 5f e0 6c 3e 26 47 6b bd
       0.07218037 0.46273905 0.23132466 -0.0574409
0000d0 24 7e 22 3f d2 8a 7b be 60 ad 03 3f bd c9 d5 3e
       0.63473725 -0.24564674 0.51436424 0.41755477
0000e0 90 89 c5 3e 44 12 71 3e 9c 9f 29 3e bb ee 10 bf
       0.38581514 0.23542124 0.16564792 -0.56614274
0000f0 03 3a ee be 93 67 d9 3e 6e bc c3 3e 5d 40 0e bf
       -0.46528634 0.42461833 0.38229698 -0.5556696
000100 47 92 c1 be 78 21 5e 3e f7 62 af 3e 7a 36 ca be
       -0.37806913 0.21692455 0.34255192 -0.39494687
000110 b7 09 1f bf 0f 8f fb bd 10 7e 73 be 0c ef 9e 3e
       -0.621242 -0.12283146 -0.23778558 0.31041753
000120 92 bf 90 be 43 67 99 be 93 63 97 3d 24 fd 08 bf
       -0.28271157 -0.29961595 0.07392039 -0.5351126
000130 e7 1c 92 bd 9b 35 03 bf 1e 1d 39 be b3 4b 87 3e
       -0.07134419 -0.5125367 -0.18077514 0.2642494
000140 41 59 8d 3e e6 4b a9 3e f6 6e c2 3e 7d 21 9b be
       0.27607158 0.33065718 0.3797528 -0.30298987
000150 c4 9c 32 3e 64 f4 d4 be 93 8d 59 be a4 c4 68 3e
       0.17442614 -0.41592705 -0.21245413 0.22731262
000160 93 f0 57 3d b1 dd 16 3f c2 b3 75 be 7c f2 d0 3e
       0.052719664 0.58932024 -0.23994353 0.4081
000170 25 72 fa bd 91 0b f2 be 5c 53 ca 3e 21 ff d3 3e
       -0.122288026 -0.4727445 0.39516723 0.41405585

bias f4 [32]
000000 30 54 a1 3e 44 c0 1b bf 80 c8 ca be 3a cb 94 bb
       0.31509542 -0.6084025 -0.39606094 -0.004540828
000010 72 d9 c2 be bd 45 f4 be e1 d9 ad be fd 4f af 3e
       -0.38056523 -0.47709456 -0.3395529 0.34240714
000020 d1 96 c6 3e dc 94 ce 3d ff c4 8f bc a5 88 1a bf
       0.3878694 0.100869864 -0.01754999 -0.60364753
000030 93 94 9d be 68 bd 62 be b1 0b c8 bd 57 d3 28 be
       -0.30777416 -0.22142565 -0.09767855 -0.1648687
000040 e4 cc ba 3e 44 f7 80 3e 0e 99 ea be bc e6 9e bc
       0.36484444 0.2518865 -0.45819896 -0.019397132
000050 77 5b eb be 34 ad 01 bf 40 b1 85 be d5 d4 f7 be
       -0.4596822 -0.5065491 -0.26111794 -0.48404565
000060 d9 70 e1 3e e4 df 37 be 1a 1f 13 be a9 b5 25 3d
       0.44031408 -0.17956501 -0.14367333 0.040456448
000070 20 bd f8 3d 2c f6 f6 3e e8 52 f9 bd 17 be e6 3e
       0.12145448 0.4823469 -0.12174016 0.45066902

weight f4 [32, 1]
000000 41 ad 2b 3f f1 7b 4f bf 12 5f c2 3e e4 16 ed bd
       0.6706124 -0.81048495 0.37963158 -0.11576632
000010 c8 29 2f bf 8f 7f 5b 3f ea 12 92 3d 5b ce 5e 3e
       -0.6842313 0.85741514 0.07132514 0.21758406
000020 ca 86 6c bf d7 71 c3 3e 6f 50 3f 3f c8 b2 13 3d
       -0.9239317 0.3817279 0.74732107 0.03605917
000030 95 82 dd 3d d8 60 ea be ca 4d b9 3c 3b 77 23 3f
       0.10815922 -0.4577701 0.0226201 0.63853806
000040 63 69 0d bd 79 4d 51 3f f4 84 43 3f 2d 2d e5 3d
       -0.034524333 0.8175884 0.76374745 0.11190257
000050 ee 59 36 3e c7 7d 88 3e 8f ee 45 3f 5d d9 24 3f
       0.17807743 0.2665846 0.77317137 0.6439417
000060 0d 0a 16 be 2d c7 4d 3f b9 b6 a1 be 7f 4e 1a bf
       -0.14652272 0.80382043 -0.3158472 -0.60276026
000070 d5 03 50 be d9 9a 1f bf 26 51 2c bf 68 17 48 3f
       -0.20313962 -0.62345654 -0.6731132 0.78160715

weight f4 [32]
000000 09 4d 6f 3f e2 09 86 3f af ea 84 3f ee c4 86 3f
       0.9347692 1.0471766 1.038412 1.0528848
000010 15 af 72 3f a8 15 6f 3f 3e c2 88 3f a3 4f 85 3f
       0.94798404 0.9339242 1.0684278 1.0414928
000020 ed 2f 92 3f 29 3a 7f 3f 57 fd 7c 3f c5 99 83 3f
       1.1420876 0.9969812 0.98824066 1.0281302
000030 20 47 83 3f 6d 4d 82 3f 19 34 71 3f 2c 0b 7c 3f
       1.0256081 1.0179878 0.9422012 0.98454547
000040 67 88 6a 3f bd 06 8f 3f f0 8f 6a 3f 2c 36 71 3f
       0.91614383 1.1173931 0.9162588 0.94223285
000050 bf ff 73 3f f3 e1 81 3f 4f 16 73 3f 28 03 8f 3f
       0.9531211 1.0147079 0.94955915 1.1172838
000060 a7 94 81 3f 1c a2 6c 3f f7 43 70 3f 6b 13 8e 3f
       1.012349 0.9243486 0.93853706 1.1099676
000070 99 6f 84 3f ba 31 82 3f 83 48 7f 3f 5b 3a 89 3f
       1.0346557 1.0171425 0.9972002 1.0720934

bias f4 [32]
000000 9c a8 af 3d 6e 8b 9d 3d 32 85 96 3c 6b e5 74 bb
       0.085770816 0.0769261 0.01837406 -0.003736819
000010 97 95 0b 3d b4 a0 1b 3d b0 3b 12 bd d3 70 5a bb
       0.034078207 0.037995055 -0.035701454 -0.0033331409
000020 21 6f da bc 64 77 8e 3b 47 27 1a bd ba 9f cf bd
       -0.026664319 0.0043477286 -0.037635114 -0.10137887
000030 95 d2 00 bd 7f 28 83 bd ac 96 e8 bd bf 3d a0 3b
       -0.031450827 -0.064042084 -0.113568634 0.004890173
000040 67 76 b6 3d 50 fe 2a bc 7b 73 b1 3d f4 4e ca 3d
       0.08909302 -0.010436609 0.08664604 0.0987834
000050 3e fd 32 3d 26 7a 23 3d e4 96 73 bd 01 96 3a 3a
       0.04369854 0.03991141 -0.059470072 0.0007117689
000060 27 3c 3b bb 0e 2f a7 bd 25 b7 41 3d 5f e1 95 bd
       -0.002856979 -0.08163272 0.0472938 -0.07318377
000070 ef ea bd 3c da c4 51 bd 2e 4d 3c bc af 57 3a 3c
       0.023183314 -0.051213123 -0.01149301 0.011373444

running_mean f4 [32]
000000 57 02 ad 3e d6 6a 88 be 6a 71 e1 bc fc 33 7f be
       0.33790848 -0.2664401 -0.0275199 -0.24922174
000010 64 49 01 be a5 c8 4e 3f b0 8c 1e bf d9 cc 91 be
       -0.12625653 0.8077491 -0.6193342 -0.284766
000020 e6 7a 09 bf a7 00 16 be 1f 9c 36 3f 88 f0 36 3f
       -0.53703153 -0.14648686 0.7133197 0.7146077
000030 df 42 e6 be d1 9f 04 bf 17 7c bb 3e 11 84 2d 3f
       -0.44972894 -0.5180636 0.3661811 0.6777964
000040 2f 30 c4 be c3 b1 c1 be 4d 2a 28 bf b2 9b 58 bf
       -0.3831801 -0.37830934 -0.65689546 -0.8461257
000050 eb 54 0b be 41 67 8f be 95 b8 86 bc 9b 7b 35 bf
       -0.13606612 -0.28008464 -0.016445437 -0.7089173
000060 1c c8 15 3e 64 6b 8a be 70 03 7c be e1 56 16 3d
       0.14627117 -0.27035058 -0.24610686 0.036703948
000070 c5 74 51 3e 8c e0 1e 3f 52 68 54 be 24 1e 92 be
       0.204547 0.6206138 -0.2074292 -0.2853862

running_var f4 [32]
000000 91 f8 93 3c 39 42 c6 3c c9 0a 98 3c 7c 64 a4 3c
       0.018062862 0.0242015 0.01855983 0.020067446
000010 b9 41 30 3c eb b5 aa 39 fd ac b1 3b c9 31 95 3d
       0.010757857 0.00032560466 0.005422233 0.072848864
000020 19 63 43 3d 2f ee 85 3c 64 2b 55 3c b1 79 81 3c
       0.04770193 0.016348926 0.013010833 0.015805097
000030 3e 93 8e 3c 6d 2b f5 3c a1 57 27 3d 23 9c 7e 3c
       0.017404195 0.029927934 0.040855054 0.015540156
000040 e9 8c 82 3d ac 60 6a 3b 73 64 e0 3a 50 a6 b9 3b
       0.06374533 0.0035763187 0.001711978 0.005665578
000050 24 6f 00 3d 7f 3c 41 3d 9b e5 61 3d ff 4a ac 3b
       0.031355992 0.047176834 0.05515061 0.0052579637
000060 e4 fe 82 3d f2 47 20 3d 9a c4 fc 3d d5 f9 65 3d
       0.06396273 0.039131112 0.12342186 0.05614646
000070 1f 2e f6 3b a3 74 24 3d e0 c1 8a 3d 31 5c 1a 3c
       0.0075128223 0.040150296 0.0677526 0.009421394

weight f4 [32]
000000 21 14 86 3f eb cc 6c 3f 40 70 7f 3f 9d 7b 6c 3f
       1.0474893 0.9250018 0.99780655 0.9237612
000010 28 24 86 3f f1 d4 70 3f e1 02 8f 3f 58 3d 60 3f
       1.0479784 0.9407492 1.1172754 0.87593603
000020 ea 01 6a 3f ac 01 81 3f 35 3d 87 3f c1 c0 73 3f
       0.9140917 1.0078635 1.0565554 0.95215994
000030 e8 35 66 3f 33 11 6b 3f 91 68 8c 3f 48 f6 80 3f
       0.89926004 0.9182312 1.0969411 1.0075159
000040 59 30 76 3f c1 73 84 3f 03 bc 7e 3f a4 e6 84 3f
       0.9616752 1.0347825 0.99505633 1.0382886
000050 71 de 6b 3f 15 a6 76 3f d4 1f 73 3f e8 19 7e 3f
       0.92136294 0.9634717 0.9497044 0.9925828
000060 c2 9c 74 3f e5 c8 7d 3f 02 19 5b 3f 89 07 66 3f
       0.95551693 0.99134666 0.85585034 0.8985525
000070 a1 6d 7b 3f c7 4a 6c 3f 34 6f 5f 3f 69 b4 81 3f
       0.98214155 0.923016 0.8727906 1.0133182

bias f4 [32]
000000 35 8a 48 3c 68 78 be 3d 5f 29 1f 3d 2a 1c 32 bd
       0.012239982 0.093003094 0.038857814 -0.04348389
000010 e9 2b c2 3b b9 5c e2 3c 2d 3b 4c 3c e2 9c 82 bd
       0.0059256447 0.027632104 0.0124652805 -0.06377579
000020 a9 d5 40 bc 62 73 fc 3c 16 96 ce bd 14 77 e2 3c
       -0.011769691 0.030816738 -0.1008722 0.027644671
000030 2d 19 97 3d 63 c8 c0 3c 80 3d 8d bc 5a f4 86 3c
       0.07377849 0.023533052 -0.01724124 0.016473938
000040 23 97 b9 bd a4 7c f1 bb 53 e9 ee bc 03 de 56 bd
       -0.0906203 -0.0073695946 -0.029163992 -0.05245782
000050 bb fb 5d bd 85 71 35 bc 04 64 16 bd f2 b4 1f 3c
       -0.054195147 -0.011074428 -0.036716476 0.009747731
000060 1f 08 aa bd 97 c5 05 bd b4 23 fc bc 2c a3 a9 3c
       -0.0830233 -0.03265914 -0.030778743 0.02070769
000070 26 84 f7 3d a8 55 1c 3d e2 7e f6 bd 91 5a 4f 3d
       0.12085752 0.038167626 -0.1203592 0.05062348

running_mean f4 [32]
000000 ca 06 a9 3d fb d2 ca ba dd 6f 5d 3f e4 81 59 be
       0.08253248 -0.0015474254 0.86498815 -0.21240956
000010 fa 43 8b bd dc 13 91 be b7 43 46 bf 65 df cf bd
       -0.06800075 -0.28335464 -0.77447075 -0.10150031
000020 df 5a 18 bf cc aa 08 3f 35 d2 69 3e 6a 7a af be
       -0.5951366 0.53385615 0.22834094 -0.34273082
000030 78 3c 63 bf 81 e4 10 3f ba 01 4d bf 4e a7 b4 3e
       -0.88764143 0.5659867 -0.8008076 0.35283893
000040 b6 a8 21 bf ff b0 76 bd eb 85 25 3e f8 78 cf 3e
       -0.6314806 -0.06022739 0.16164367 0.4052198
000050 85 68 48 3d 01 7c 5c bf 49 1c 58 bf 40 19 77 3f
       0.048927803 -0.86126715 -0.8441816 0.96522903
000060 67 52 6d 3f 52 26 67 3e c3 f7 20 be 50 0b ce 3e
       0.9270386 0.22573212 -0.15719514 0.40243006
000070 af 15 ce 3e 18 eb c1 3e 50 d8 fd 3d 99 97 58 3f
       0.40250918 0.37874675 0.12394774 0.8460632

running_var f4 [32]
000000 73 45 2c 3e 3a 2e ef 3d 46 38 ce 3b a7 13 1a 3e
       0.16823368 0.11678739 0.0062933294 0.1504656
000010 b7 f8 28 3e bd 42 b3 3d 81 ba 04 3d 25 65 5e 3e
       0.16501127 0.08752964 0.032404426 0.21718271
000020 37 c9 9f 3d e6 de 37 3e 3d 7e 3e 3e 4b 82 34 3e
       0.078020506 0.17956123 0.18602844 0.17627828
000030 d1 17 b4 3b 33 9c bd 3d b9 cf 54 3d 31 2a 11 3d
       0.005496003 0.09258308 0.051955912 0.035440627
000040 b1 fd f7 3c ec 4e 08 3e 5b d0 3e 3e 3d 53 87 3d
       0.030272337 0.13311356 0.18634169 0.06607673
000050 16 67 37 3e c1 00 54 3c b0 81 de 3c b1 a2 d3 3a
       0.17910418 0.012939633 0.02716145 0.0016146508
000060 eb 8d a5 3b fc c5 2b 3e db be 5d 3e 60 03 ba 3e
       0.0050523183 0.16774744 0.21654837 0.363307
000070 eb 7a b7 3d fc c5 f4 3d 74 f8 a3 3e 1e c8 bb 3b
       0.089589916 0.11951825 0.32025492 0.005730643

weight f4 [32]
000000 79 55 71 3f 1f 46 5e 3f ed 4c 88 3f 92 02 88 3f
       0.94271046 0.86825746 1.0648476 1.0625784
000010 f6 20 88 3f a3 8b 89 3f 45 d8 84 3f 6a a4 71 3f
       1.0635059 1.0745739 1.03785 0.943915
000020 3b 5f 87 3f 8e 63 7e 3f cc 0f 88 3f 13 56 78 3f
       1.0575937 0.9937066 1.0629821 0.9700634
000030 b0 42 83 3f bf ee 86 3f de 13 5f 3f aa 74 82 3f
       1.0254726 1.054161 0.8713969 1.0191853
000040 a5 b3 87 3f 30 ae 76 3f 44 2a 89 3f 0d 67 83 3f
       1.0601698 0.9635954 1.0716023 1.0265824
000050 8b c1 71 3f ef 61 89 3f 51 cf 7b 3f 53 31 80 3f
       0.9443595 1.0733012 0.98363215 1.0015053
000060 89 8f 73 3f 20 81 8c 3f ca 47 90 3f 93 1c 86 3f
       0.9514089 1.0976906 1.1271908 1.047747
000070 1b ec 6e 3f 41 16 7b 3f c2 4c 70 3f e8 39 81 3f
       0.9332902 0.9808083 0.93867123 1.0095797

bias f4 [32]
000000 cd cb 28 3d ec 51 94 bd ca e3 63 bd cb 12 8b 3d
       0.041209985 -0.07242188 -0.05563716 0.06790694
000010 e7 4d 22 3d 94 e5 95 bd e5 19 e0 3d 2e 6d 3b bd
       0.039625075 -0.07319179 0.10942439 -0.04575842
000020 9e 74 85 bd d2 2e a8 3d 52 8e 97 bd 55 70 9b 3c
       -0.065163836 0.08212055 -0.07400192 0.018974463
000030 19 0f 79 3d 16 c8 e0 bc 14 53 84 bb fa fb 3c 3d
       0.060805414 -0.027439158 -0.004038224 0.04613874
000040 5b dd 7f bd 73 84 3c bc 81 ad de bc b0 c7 20 bd
       -0.06246696 -0.011506188 -0.027182342 -0.039252937
000050 9c 34 76 3d 5e 63 29 3d e8 8a 5d bd aa 85 40 bd
       0.060108766 0.04135453 -0.05408755 -0.047002472
000060 a0 8f 4c bd 26 9a b1 ba e2 a4 8c bd 3f 15 54 3d
       -0.04994166 -0.0013549968 -0.068673864 0.051778074
000070 b5 d9 88 3d 61 00 d7 bc 63 a4 85 3d 82 cd 33 bd
       0.06682149 -0.026245298 0.06525495 -0.04389716

running_mean f4 [32]
000000 03 0e 4d 3f e5 ab 70 bf ed ea 7c be 64 c4 35 3e
       0.80099505 -0.9401229 -0.24698992 0.17750698
000010 b8 21 25 be 3b 56 6f bf 87 43 52 bf ea a2 22 bf
       -0.16126144 -0.9349095 -0.8213429 -0.6352984
000020 6d 4a 0d 3e bd 9d 6d 3f a2 5f c6 3e f4 05 79 bd
       0.13797922 0.92818815 0.38744837 -0.060796693
000030 24 82 6b bf b0 5b 49 3f e2 f0 3b 3f db ad 29 bf
       -0.91995454 0.7865553 0.73414433 -0.6628091
000040 c4 ec 52 3f 22 ff 7c be cf 17 6f 3f 6d 29 78 bf
       0.82392526 -0.247067 0.93395704 -0.9693821
000050 dc 06 2f bf 41 bc 65 bf c4 64 0c bf 49 b9 0c bf
       -0.6836984 -0.8974038 -0.54841256 -0.5497022
000060 3e 87 61 bf 50 59 78 bf 7f cd 56 bf 55 6b 47 3f
       -0.8809699 -0.9701128 -0.8390731 0.7789815
000070 20 cb 20 3f 66 d6 7e 3f 5a c1 28 bf b3 27 17 3f
       0.62809944 0.99545896 -0.6592003 0.5904495

running_var f4 [32]
000000 4e 65 05 3d d5 fe 1a 3b 03 70 8c 3e 96 1e d0 3d
       0.032567315 0.0023650427 0.27429208 0.10162084
000010 dc 31 3c 3e 08 c6 aa 3a 80 37 07 3d 25 ff 4b 3d
       0.18378395 0.0013028989 0.033011913 0.04980387
000020 88 3f 1b 3e 08 92 16 3c 00 6d 52 3d 4f 74 89 3e
       0.15160954 0.00919009 0.05137348 0.2684655
000030 86 75 83 3b 61 fa 18 3e c4 74 00 3d 82 74 0f 3e
       0.0040118126 0.14939262 0.031361356 0.14009288
000040 e5 00 a6 3c 25 6b 70 3e fd c2 dd 3b f2 b9 ba 3a
       0.020264098 0.23478372 0.006767629 0.001424609
000050 44 62 a6 3d 1a db 07 3c 12 c0 15 3e 63 90 33 3d
       0.081242114 0.008291984 0.1462405 0.04383887
000060 68 22 70 3c fc 2a e1 3b 41 1a 3b 3c b6 19 99 3d
       0.014656641 0.006871579 0.011419834 0.07475607
000070 00 23 1b 3e 84 82 97 38 e5 6e 3b 3d 87 f7 0c 3e
       0.1515007 7.2245515e-05 0.045760054 0.13766299

weight f4 [32, 32]
000000 a8 cf d2 bd 8c db 28 3c 3b 29 30 3d 8c c9 88 bd
       -0.102935135 0.01030625 0.04300807 -0.06679067
000010 43 15 a9 3b 20 e6 8f bd 35 38 31 3e 98 a2 31 be
       0.0051600053 -0.07026315 0.17306598 -0.17347181
000020 52 01 04 3e 0e d6 14 3e a2 dc fd bd 62 a5 94 bd
       0.12891129 0.1453478 -0.12395598 -0.07258107
000030 83 5d 11 3e 16 b8 08 be b7 8f 30 3e a9 40 16 3e
       0.14195828 -0.13351473 0.17242323 0.14673103
000040 2d 15 0d be af fc a3 bd bd d0 3f bd 84 de 4d bd
       -0.13777609 -0.0800718 -0.046829928 -0.050261036
000050 b0 1c ba bd 42 18 a8 bd 21 45 50 3e 12 88 ac 3c
       -0.09087503 -0.08207752 0.2033887 0.021060977
000060 c4 bd b6 bd f7 58 8c 3d e2 58 86 3c 7e 43 19 be
       -0.08922914 0.06852906 0.016399805 -0.14967152
000070 86 99 b0 bd c3 ca 83 3d 78 83 36 be 45 be 6a bc
       -0.08623032 0.06435158 -0.17823589 -0.01432759
000080 3a ac b4 3d 8c 2a c8 bd 28 7c 80 3c 97 4c 79 bd
       0.08821912 -0.0977374 0.015684202 -0.060864057
000090 6c 3c 27 be a6 e0 2e 3d db e9 48 3d 8b 1b 69 be
       -0.16331643 0.04269471 0.049051147 -0.22764413
0000a0 46 4e 54 be 75 c3 92 3d 1b 1c 82 3e 75 6f 6e bd
       -0.20732984 0.07166187 0.25412068 -0.058211762
0000b0 df 46 65 be d3 1c be bd e0 03 7c bd 05 ca c0 3d
       -0.22390316 -0.092828415 -0.061527133 0.09413532
0000c0 e4 14 82 bd a7 a3 3b be 0e c8 54 3d 6f e9 d1 bd
       -0.06351641 -0.18324147 0.0519486 -0.10249602
0000d0 89 bf e6 bd c8 8a 79 bd 1a 90 40 3e 3f 0d 4f 3e
       -0.11267001 -0.060923368 0.1880497 0.20219897
0000e0 a9 fe 28 be 23 47 fa bd fd bc 3c bd 80 eb 19 3e
       -0.16503395 -0.122205995 -0.04607867 0.15031242
0000f0 c3 02 23 3e 1c 91 5e 3e 30 b0 fc bd db 8a 6d bd
       0.15919022 0.21735042 -0.123382926 -0.05799375
000100 73 b7 dd 3d 85 fb be bd 73 f8 4c 3e 7a 95 d9 3d
       0.10826006 -0.09325317 0.20016651 0.106242135
000110 42 8c b2 bd 0d 5f 50 3e c5 a6 9f bc cc d0 62 39
       -0.08718158 0.20348759 -0.019488702 0.00021630822
000120 4f ef 1f bd 0c 3e 3e be 76 82 0f 3e e0 5a 0c be
       -0.03904658 -0.18578357 0.1401461 -0.13706541
000130 44 2b aa 3d 2a 1e f3 3d fc 7e d0 3d 4d 89 53 bd
       0.083090335 0.11870988 0.1018047 -0.051644612
000140 0d d4 d4 3d 87 b4 cc bd 26 a3 67 3c 7a 12 07 be
       0.10392008 -0.0999537 0.014138019 -0.13190642
000150 7f e5 d3 bd ed a4 2a 3e a9 ef 68 3d 22 69 a7 bc
       -0.10346507 0.16664477 0.056869183 -0.020435873
000160 7c 51 0e bd a6 7b b7 3d 6d 91 1b 3e 71 9f a9 3d
       -0.03474568 0.08959131 0.15192194 0.08282364
000170 44 d4 c2 3c f4 d7 0e 3e 00 a6 02 3e 10 fd b1 3d
       0.023782857 0.13949567 0.12758636 0.08690846
000180 87 7f 02 be f3 8c 97 bd e8 26 35 3d 1a b1 66 3d
       -0.1274396 -0.07399931 0.044226557 0.05632124
000190 0f 40 a9 bc a9 ee ae 3d 73 cb 12 3e f4 55 0e 3e
       -0.020660428 0.085416146 0.14335422 0.13899976
0001a0 08 1d 8f bc 64 aa 33 3e 6a e4 08 be cf 79 bc 3d
       -0.017469898 0.17545468 -0.13368383 0.09202921
0001b0 68 bf 0d bd c0 49 7c 3d e3 8c ab bd b6 fb 90 bd
       -0.034606367 0.06159377 -0.083764814 -0.0707926
0001c0 4f 64 43 3e 20 01 6b 3e ea 1e 0e 3e 3b 3a 2e 3e
       0.19081233 0.22949648 0.1387898 0.170144
0001d0 f8 81 93 bd f7 56 ad bd 5d 7b 1a be db 1d 71 be
       -0.07202524 -0.08463853 -0.15086122 -0.23546545
0001e0 71 5f 04 bd 44 a1 b8 3b 34 cc ff 3c e2 40 8e be
       -0.032317583 0.0056344587 0.031225301 -0.27783877
0001f0 96 cb 0b 3e c1 d1 37 3d 3a 27 04 3d 02 73 92 3d
       0.1365188 0.04487777 0.032263972 0.07150842
000200 15 5d 06 bc 79 f4 cb 3d e3 63 4e bd df cb e2 3c
       -0.008200903 0.09958739 -0.05038823 0.027685104
000210 ee 1c 9b 3d bd 1b e1 3d 6a db d8 bd 2e ac 43 bd
       0.07573877 0.10991619 -0.10588725 -0.047771625
000220 3e 84 a9 bd 8d 1a c5 3d e6 01 04 be e5 de fe bd
       -0.08277176 0.09624205 -0.12891349 -0.124448575
000230 46 1b 26 be 29 83 9d bd f0 65 52 3e b1 b9 66 3d
       -0.16221341 -0.076910324 0.20546699 0.056329433
000240 bd 9a 91 3d 00 46 17 bd 19 af db 3c f9 87 dc 3d
       0.07109592 -0.03693199 0.026816892 0.10768122
000250 c1 59 07 3d e7 00 46 bc b0 f2 c2 bd a4 19 f1 bd
       0.03304458 -0.012085176 -0.09518945 -0.11772469
000260 6d ad 76 bd c3 ac 84 bd 19 89 a0 3d 76 83 05 3e
       -0.060223985 -0.06478264 0.07838649 0.1303843
000270 76 81 ee 3d 13 d2 e0 bd fd 46 91 bb 92 2e 75 3e
       0.116457865 -0.109775685 -0.0044335113 0.23943546
000280 6e 55 99 3d 3b 5b 1c 3d 0c 36 05 bd c2 3b 77 ba
       0.074869975 0.03817294 -0.032522246 -0.0009431207
000290 e8 e4 89 3c c5 e6 08 3e e1 1f 7e 3d e8 20 13 3e
       0.016832784 0.13369282 0.06204212 0.14368021
0002a0 65 c5 0c be 70 9d a2 3d aa c3 f2 3b 3d ed 8f 3d
       -0.13747175 0.07940185 0.007408579 0.070276715
0002b0 79 bc 0e be e0 2b fe bd 4b f5 16 3e 02 42 1f bc
       -0.13939084 -0.12410712 0.1474201 -0.009720327
0002c0 39 b9 e5 bd 52 cb 44 3d ac 51 0c be b1 87 f8 3d
       -0.11216969 0.048045464 -0.1370303 0.12135256
0002d0 1f e5 9e 3d f6 35 2f 3e 5a 4e 90 bd 43 fd 33 3e
       0.07758545 0.17110428 -0.070461944 0.1757708
0002e0 4d 93 d8 3d 71 6c 07 be 68 71 89 3c ea 3d 1d be
       0.105749704 -0.13224961 0.01677771 -0.1535565
0002f0 29 65 89 bd 22 60 1d 3e 6b 61 06 bc 90 98 17 3e
       -0.06708748 0.15368703 -0.008201937 0.14804292
000300 73 5b 42 bd 21 e2 ac bd 82 42 cd bd 6d 9d 0a 3e
       -0.047450494 -0.08441568 -0.10022451 0.13536616
000310 94 a9 25 3e 96 42 fb 3d b4 9e 5e 3e d7 6a 4f 3e
       0.1617797 0.1226856 0.21740228 0.202556
000320 1a 7a 6e 3c 62 23 bb 3d c0 a5 47 bd 12 cc 23 be
       0.0145554785 0.09137608 -0.048742056 -0.15995815
000330 31 8a 0b 3e 22 ab d5 bb d3 71 81 bd 59 2a a3 bd
       0.13626935 -0.0065206448 -0.06320538 -0.079670615
000340 d9 d8 32 bd 76 20 23 bc 49 48 a3 3d f4 3e 79 3e
       -0.043663833 -0.00995647 0.07972772 0.24340421
000350 b1 57 83 bd 00 95 d7 3d 37 74 d3 3d f8 73 f1 bd
       -0.0641321 0.10526466 0.103249006 -0.117896974
000360 84 0e bb bd a0 58 29 3e 75 61 c6 3d 32 0b 1a bc
       -0.09133628 0.16537714 0.09686557 -0.009402083
000370 a0 16 37 3d 3f 97 d5 3d 41 1e 85 3c a0 6c 2c 3e
       0.04469931 0.104292385 0.016249778 0.16838312
000380 9f 49 9b bd 7f c5 e1 bc 8a d8 2f 3e 38 46 14 3d
       -0.075824015 -0.027559994 0.17172447 0.03619978
000390 96 e6 c6 bd d3 e3 a6 bb b6 d8 5d 3e 01 83 fe 3d
       -0.097119495 -0.0050930767 0.216647 0.12427331
0003a0 8b f9 4e 3e 96 6e f0 3d 3c 9b c4 3d 04 a9 e8 bd
       0.2021238 0.117398426 0.09599921 -0.11360362
0003b0 9b 3c 57 3e 5c 31 3d bd d0 7f 0a be df 81 c8 bc
       0.21019213 -0.04618965 -0.13525319 -0.02447599
0003c0 12 d1 20 3e da 9e 0b 3e fb dd 24 3d cc ec 46 bc
       0.15704754 0.13634816 0.04025076 -0.012141418
0003d0 c6 10 3f 3d b6 11 4a 3e 4b 2d 94 3d 81 6f 66 be
       0.046646856 0.19733319 0.072352014 -0.22503473
0003e0 38 82 60 3e 5c 9e 13 be 71 e7 3c 3c 89 98 1c bc
       0.21924675 -0.14415878 0.011529789 -0.009557852
0003f0 be ae 56 be 08 80 31 be 41 58 1d bd fc 37 18 3e
       -0.20965096 -0.17333996 -0.038414244 0.14865106

bias f4 [32]
000000 67 c9 0c 3e 8a 34 01 3e 52 93 4f bb fd d5 1b be
       0.13748704 0.12617698 -0.0031673503 -0.15218349
000010 5d 3a 4f 3e f4 ca 11 bd 32 46 53 3d 28 04 08 3e
       0.20237108 -0.03559394 0.051580615 0.13282835
000020 2f e1 31 3c bb 90 dc bb 92 8b 56 bd 29 42 49 3e
       0.010856911 -0.0067311204 -0.0523792 0.19654144
000030 45 df 83 3e cb 01 1d be 3d 90 35 be 60 46 0d be
       0.2575628 -0.15332715 -0.17730804 -0.13796377
000040 ec 89 bf 3d a1 18 04 be 61 af 52 3d f1 7a 0d be
       0.093524784 -0.1290002 0.051436786 -0.1381643
000050 68 12 ec bd 2f 0c c6 3c a4 62 4e 3e f1 13 0d bc
       -0.11526948 0.024175731 0.20154816 -0.008610711
000060 02 41 3d be c0 e5 03 be 7e 2d 30 bd 9f ef 47 3d
       -0.1848183 -0.12880611 -0.043012135 0.048812505
000070 55 24 8d bd 75 58 18 3e e4 25 0e 3e 72 fb 79 3d
       -0.068916954 0.14877494 0.13881642 0.061030813

weight f4 [32, 32]
000000 41 d4 cc bd fe 7d 4b bd 28 ce f5 bd f5 f6 fb bd
       -0.10001422 -0.049680702 -0.12002212 -0.12302963
000010 03 c1 ee 3d 37 fe 49 bd df 22 f3 bd 91 1a cc 3c
       0.11657908 -0.049314704 -0.118718855 0.024915012
000020 a6 a1 cc 3d 44 a4 4c be f0 95 6f 3e 1a d6 ea bb
       0.099917695 -0.19984537 0.2339704 -0.007166636
000030 8f 24 39 3d e0 9e fb 3d 94 49 a6 bc 0e d7 d6 3d
       0.04520088 0.122861624 -0.020298757 0.10490237
000040 19 69 00 3c 38 02 46 bd bb 92 18 be 61 71 42 bd
       0.007837557 -0.04834196 -0.14899723 -0.047471408
000050 a4 ee 1f bc 58 f8 bc 3d 73 f9 62 3e be fa 76 bd
       -0.009761486 0.09227055 0.2216547 -0.06029772
000060 b4 60 1d 3d cc 29 39 be ed 4e 14 3e ee 1f 6b 3e
       0.0384223 -0.1808235 0.14483233 0.22961399
000070 fc fe 03 3e 81 da 01 be 66 78 23 3d 83 57 b2 bd
       0.12890238 -0.12681009 0.039909743 -0.08708098
000080 23 82 52 3c 17 20 45 3d d1 96 5a bd da 6c e5 3d
       0.01284841 0.048126306 -0.053366486 0.112024024
000090 c0 43 2d be 78 c0 15 be 8a b8 fa 3d 38 46 1c bd
       -0.16920376 -0.14624202 0.12242229 -0.038152903
0000a0 44 a5 5c 3d e4 27 60 3d cc 85 be 3d dc 76 c9 bb
       0.053868547 0.054725543 0.093028635 -0.0061482023
0000b0 ad 6f c3 bd 24 5d 17 3e cb b0 16 3e 17 06 3a bc
       -0.09542785 0.14781624 0.14715879 -0.011353991
0000c0 25 67 03 3e ec 60 21 3d 98 53 12 3e df dd 1e be
       0.12832315 0.039399073 0.14289701 -0.15514325
0000d0 b9 af f7 3c 04 a1 27 3e d4 d0 ab 3d 2b b1 67 3e
       0.030235158 0.16370016 0.0838944 0.22626178
0000e0 78 1a e5 bd 70 f3 12 be 77 48 b5 bd 3d ea e7 3d
       -0.11186689 -0.14350677 -0.08851712 0.11323974
0000f0 b2 d9 1d 3d c8 3c 48 3d cb be fb 3d 99 1e d5 3d
       0.03853769 0.04888609 0.1229225 0.10406227
000100 02 85 84 3e f2 71 82 3d 4d 9b 35 bd 29 34 3c be
       0.25882727 0.063693896 -0.04433756 -0.18379273
000110 30 ba b5 bc dc d5 3e bb f3 12 b9 bd d1 4c 32 3d
       -0.022183508 -0.002911917 -0.090368174 0.04353029
000120 7a 97 12 3e aa 11 f2 3d 70 a6 44 3d c7 86 7e 3d
       0.14315596 0.118197754 0.04801029 0.062140252
000130 46 c1 4c 3e 43 50 af 3d 10 82 8b 3e 50 aa 66 3e
       0.19995603 0.085602306 0.27247667 0.22525907
000140 30 72 5c be 0a a8 ed 3d 55 1e b3 3d 06 f6 8c 3d
       -0.21527934 0.116043165 0.0874602 0.06882863
000150 22 54 0f be 8f fd a5 bd ba 3d 5c bd e6 ef 23 be
       -0.13996938 -0.08105003 -0.053769805 -0.16009483
000160 a3 4b 3e bd 31 22 ab 3d fa eb bd 3d 37 d1 02 3c
       -0.04645885 0.08356131 0.092735246 0.007984451
000170 81 f1 60 3e 99 b3 06 3d 75 92 7a 3d b8 b1 33 3d
       0.21967126 0.03288612 0.06117483 0.043870658
000180 38 5d 52 bd b3 46 1f be 6a 06 1d 3d 18 b4 96 3d
       -0.05135843 -0.15554313 0.038336195 0.07358569
000190 9b 96 d7 bd f6 bf c6 3d a6 f9 f6 3c 66 6c d5 3d
       -0.105267726 0.097045824 0.030148339 0.10421066
0001a0 40 31 85 bd 8d 6a ea 3d 72 bc 03 bd ac 64 05 be
       -0.06503534 0.11446104 -0.032162137 -0.13026685
0001b0 9a e7 32 bd 04 55 59 3e 0f ed ff 3b 8f 71 4e be
       -0.043677904 0.21223837 0.007810242 -0.20160507
0001c0 10 21 35 3e 70 ff 5c bd 80 dd da bd 62 7d 18 be
       0.17688394 -0.05395454 -0.10686779 -0.1489158
0001d0 ae 72 94 bd e2 36 24 bd 8e 68 1b be d9 ea 8e bd
       -0.07248436 -0.040091403 -0.15176603 -0.069783874
0001e0 64 e1 61 3e bc 34 47 bd b0 c8 e5 3d 3e fc 19 be
       0.22058636 -0.048634276 0.11219919 -0.15037629
0001f0 a3 77 66 3d 5f 8b 3d bd 95 a9 9e bd f7 ae c2 bd
       0.05626644 -0.046275493 -0.07747189 -0.09506028
000200 ce e1 2b be 99 11 5e be 97 02 d7 bd 5c 4f e8 bc
       -0.16785356 -0.216864 -0.10498541 -0.028358154
000210 ee c8 3a 3e 61 00 16 be e7 cc 89 bd 2c d1 4b bb
       0.18240711 -0.14648582 -0.06728535 -0.0031100018
000220 c1 87 22 3e 77 96 4a 3d 53 a5 1d 3d 92 2d 0b bd
       0.15872099 0.0494599 0.038487744 -0.033979006
000230 1f d0 b3 3d 3c 28 19 3d c4 80 77 3b 67 2f 1f 3d
       0.0877993 0.037391886 0.003776596 0.038863566
000240 3e 19 10 3d 58 02 9f bd 5d 7f 67 3e 80 c8 28 3e
       0.035180323 -0.07764119 0.22607179 0.16482735
000250 a7 66 41 be 04 22 fd bb dd e2 06 3d e2 f3 3a 3e
       -0.18886815 -0.0077250022 0.032931197 0.18257096
000260 6a 53 d0 bd 76 fe 9b bd 23 88 82 3d c5 c4 6e 3d
       -0.1017216 -0.07616894 0.06373622 0.058293123
000270 e7 b3 86 bd 4a c8 4e be d1 69 a5 bd 60 00 b7 bc
       -0.065772824 -0.20193592 -0.080768235 -0.022339046
000280 68 60 49 be aa 0a 22 bd 25 5b 0d 3e 40 35 4c bc
       -0.19665682 -0.03956095 0.138043 -0.012463868
000290 86 b6 0b 3e 69 ed 65 3c 53 1a 3c bd aa bf 26 be
       0.13643846 0.014033654 -0.045923542 -0.16284052
0002a0 c2 ed cc bd b0 39 b2 3d 5b b5 09 be 6f 68 1f be
       -0.10006286 0.08702409 -0.13448088 -0.15567182
0002b0 62 b5 46 3d fc e8 37 3d 9a 9a 1e 3e c5 a1 f8 3d
       0.048512824 0.044899926 0.15488663 0.1214023
0002c0 65 07 8b 3d dc a7 07 3e 81 91 22 3e f4 df 36 3c
       0.0678852 0.13247627 0.15875818 0.011161793
0002d0 10 65 28 3e 20 5e 7e bc 96 18 71 bb fe 15 51 3d
       0.16444802 -0.015525371 -0.0036788336 0.051046364
0002e0 24 f9 29 3e a4 82 cd 3d 56 1d 73 3d 74 53 30 3d
       0.16598946 0.10034683 0.05935415 0.043048337
0002f0 7a a8 05 3e 2b 0d 15 3d d0 ac c9 3d 28 58 e4 bd
       0.1305255 0.03638951 0.098474145 -0.11149627
000300 f7 ca 49 3c a5 41 d1 bc 0c ef 23 3e e8 b1 71 bd
       0.012316457 -0.025543997 0.16009158 -0.059007555
000310 b9 7a c7 3d 84 ac b6 3c 6c 3c 4b 3e 1d e9 cd bd
       0.09740204 0.022299059 0.19847268 -0.100542285
000320 72 a5 17 bc 32 4c 41 bc cb fd 11 3e d7 8d 5c be
       -0.009255754 -0.011797952 0.1425697 -0.21538483
000330 ae b6 f2 bc 8f 69 fd 3d f3 fa 84 be 81 62 0b be
       -0.029628124 0.12373649 -0.2597271 -0.13611795
000340 f1 36 30 3e d6 bb 12 be d6 4e 25 3b 00 1f 13 bd
       0.17208458 -0.14329466 0.0025223992 -0.035918236
000350 31 e1 8a bb f2 7a 01 3e 46 9d 0a be 21 ee 14 bd
       -0.0042382707 0.12644556 -0.13536558 -0.03635991
000360 aa 0f cf bd 68 72 07 3e 10 ac 8f bd 4b 7a e2 bd
       -0.101104096 0.13227236 -0.0701524 -0.11058482
000370 a7 8d 2f bd 06 07 da bd c8 8d c1 3b c9 58 91 bd
       -0.0428597 -0.10645871 0.005906794 -0.070970125
000380 c3 20 c0 3d 1c ae 86 3d ce cc 04 3d 80 a7 13 3e
       0.09381249 0.065761775 0.03242188 0.14419365
000390 89 05 bf bc 81 d4 19 3c 2c 70 b7 bd f1 83 80 bd
       -0.023318069 0.009389044 -0.08956942 -0.06275166
0003a0 af 6d 4a be 01 e9 a5 3c 2c 05 5d be af c4 2f 3d
       -0.19768403 0.020252706 -0.21584004 0.04291218
0003b0 a8 f6 b8 3d ad 3d 4d 3e db fb 08 3d 6e cf 92 3b
       0.09031421 0.20043059 0.033443313 0.004480294
0003c0 70 45 61 bd 38 c6 83 bd 53 8b 17 3e 92 0c 06 bd
       -0.05499786 -0.064342916 0.14799242 -0.03272683
0003d0 cc e5 45 3e b4 cc 3f be 16 93 38 be 6e a6 2f 3e
       0.19325942 -0.18730432 -0.18024859 0.17153332
0003e0 a4 85 32 3e 1d 06 78 3d 97 1d 99 3d d8 6a 0c 3d
       0.17433792 0.060552705 0.07476347 0.03428158
0003f0 e5 6f a7 bd 81 cc da 3d 8d 36 21 3c c3 c6 3b 3d
       -0.08175639 0.10683537 0.009839666 0.04584385
