mlartifacts/196996377989302197/d095bc89053d43b3959cb37e9f48e35a/artifacts/models/data/model.pth (torch, 74986 bytes, 70 tensors)

bias f4 [16]
0	0x3f35de4e	0.71042335
1	0x3f00f87e	0.5037917
2	0x3e0dec23	0.1385961
3	0x3e39ce42	0.18145087
4	0xbeda27bd	-0.42608443
5	0x3edb63e6	0.42849654
6	0x3ec4de71	0.3845096
7	0x3e9c256a	0.30497295
8	0x3e30197b	0.1719722
9	0xbda0e25c	-0.078556746
10	0xbd4ba0dc	-0.049713954
11	0xbe5b577e	-0.21420094
12	0xbe5d3676	-0.21602806
13	0x3d4ba4c9	0.0497177
14	0xbe02f7b1	-0.127898
15	0xbe44fc11	-0.1923678

weight f4 [16, 3]
0	0x3ef2b38e	0.47402614
1	0xbeb81d85	-0.35960022
2	0xbef09189	-0.46986035
3	0xbf079ced	-0.52973825
4	0x3d924ccb	0.07143553
5	0x3f1eb070	0.6198797
6	0xbe9cfea9	-0.3066304
7	0xbf51369b	-0.81723946
8	0xbef18c41	-0.47177318
9	0xbf1db587	-0.61605114
10	0xbe847cb0	-0.2587638
11	0x3ee9a863	0.4563628
12	0xbd060eec	-0.032729074
13	0x3e9e3151	0.30897
14	0xbe45be19	-0.19310798
15	0xbd25b950	-0.04045993
16	0xbdac115e	-0.0840175
17	0x3e3ec0ce	0.18628237
18	0xbd3a4ee7	-0.045485403
19	0xbe9941e3	-0.2993308
20	0x3f0abf64	0.5419829
21	0x3f32e205	0.6987613
22	0xbf14eb31	-0.58171374
23	0x3db8a83c	0.09016463
24	0xbeacb752	-0.33733612
25	0x3edfc042	0.4370137
26	0x3f345a45	0.7045024
27	0xbf0f53f4	-0.5598748
28	0xbf6008f4	-0.8751366
29	0x3e905a19	0.2819374
30	0x3f031ad3	0.51212806
31	0x3d04e48f	0.032444533
32	0x3f4be321	0.79643446
33	0xbf72f68c	-0.9490745
34	0xbe9a4203	-0.30128488
35	0xbc78f2ba	-0.015194589
36	0xbd8c1fb4	-0.068419844
37	0x3e7ecf29	0.24883713
38	0x3d4c6525	0.049901146
39	0x3cf2695d	0.029591257
40	0xbf06a787	-0.52599376
41	0xbe499e56	-0.19689307
42	0x3e36480b	0.1780092
43	0xbe98726c	-0.29774797
44	0xbea9360f	-0.33049056
45	0xbe38cf3a	-0.180478
46	0xbeb47b02	-0.35250098
47	0x3f432dc5	0.76241714

weight f4 [16, 3]
0	0xbcef3054	-0.02919785
1	0x3e019308	0.12653744
2	0x3f4e5378	0.80596113
3	0xbf0d0fa2	-0.5510198
4	0x3eb106f4	0.34575617
5	0x3ec3fcce	0.38278812
6	0x3e8454ea	0.25846034
7	0x3f5de25d	0.8667353
8	0x3dbdb851	0.09263671
9	0x3e332524	0.17494637
10	0xbec87726	-0.39153403
11	0x3e9eb636	0.3099839
12	0xbec4fe0f	-0.3847508
13	0xbf5dbdfc	-0.8661802
14	0xbe22d8a0	-0.15902948
15	0xbccb30bc	-0.024803512
16	0x3d456d39	0.048199866
17	0xbeb797a7	-0.3585789
18	0x3f29ec12	0.6637584
19	0xbee89fd9	-0.45434454
20	0xbe14e828	-0.14541686
21	0x3f29fcfd	0.66401654
22	0xbec8e866	-0.39239806
23	0x3e944045	0.28955284
24	0xbf17a4c9	-0.5923582
25	0xbf139643	-0.57651156
26	0xbeb4e182	-0.353283
27	0x3ed4849f	0.41507432
28	0xbe87e0a2	-0.2653857
29	0x3ddc4728	0.107557595
30	0x3eed01bb	0.46290383
31	0xbdcb001d	-0.09912131
32	0x3f1eb24e	0.6199082
33	0xbdbafe57	-0.09130543
34	0x3e4c4b86	0.19950685
35	0xbe3fd8b0	-0.18735003
36	0xbea69491	-0.32535222
37	0x3dddb35a	0.10825224
38	0x3e966d0f	0.2938008
39	0x3f06d4d3	0.52668494
40	0x3d90aa2b	0.07063707
41	0x3f507fe8	0.8144517
42	0xbeb9fd29	-0.36325958
43	0x3e7b2960	0.24527502
44	0x3f299211	0.66238505
45	0xbebf831b	-0.37404713
46	0x3f03e679	0.5152355
47	0x3f2aa68e	0.6666039

bias f4 [16]
0	0x3e8b830d	0.2724842
1	0x3f5c7c0f	0.861268
2	0xbea77466	-0.32705992
3	0xbe1fc123	-0.1560102
4	0xbe50ebe8	-0.20402491
5	0xbedcc6e5	-0.43120494
6	0x3f008be1	0.5021344
7	0x3ecada3b	0.39619622
8	0x3e74efcf	0.23919605
9	0x3f0ee55f	0.5581874
10	0x3e801fff	0.2502441
11	0x3f111e07	0.56686443
12	0x3e702900	0.2345314
13	0xbdbb628f	-0.09149658
14	0x3e82bdbf	0.2553539
15	0x3f5285e9	0.8223558

weight f4 [16, 1]
0	0x3f688fed	0.90844613
1	0xbf5af279	-0.85526234
2	0x3f4f796e	0.8104466
3	0x3e7da7fa	0.24771109
4	0x3ec00529	0.37503937
5	0x3f906543	1.1280903
6	0xbec62c53	-0.38705692
7	0xbf01e425	-0.50738746
8	0x3f323628	0.69613886
9	0xbf083dc0	-0.53219223
10	0xbf564888	-0.83704424
11	0x3f93e7a2	1.1555064
12	0x3d3afb8a	0.045650043
13	0x3f16888f	0.5880212
14	0x3fa1ea99	1.2649719
15	0xbf206362	-0.62651646

weight f4 [16, 1]
0	0x3e9ee08d	0.31030694
1	0x3f667630	0.9002409
2	0xbf5a023d	-0.85159665
3	0x3efc43e6	0.49270552
4	0xbeb9d94a	-0.3629859
5	0xbd019687	-0.031637695
6	0x3f31f008	0.69506884
7	0xbf0f0902	-0.5587312
8	0x3e83e14a	0.2575782
9	0x3f8f634a	1.1202176
10	0x3eb3cc3b	0.35116753
11	0xbf454354	-0.7705586
12	0xbf24c88b	-0.64368504
13	0xbfa533f3	-1.2906479
14	0x3f5a96a9	0.8538614
15	0xbf7a5908	-0.977921

bias f4 [16]
0	0xbce6e6f9	-0.028186308
1	0xbe1fc50e	-0.15602514
2	0x3f7da01d	0.9907244
3	0xbe90d9e0	-0.28291225
4	0x3d44b75f	0.04802644
5	0x3f680db7	0.9064593
6	0xbf09c14a	-0.5381056
7	0xbeadfe9c	-0.33983314
8	0x3f5a27dd	0.85217077
9	0xbe357a81	-0.17722513
10	0xbe9ea0c3	-0.30982026
11	0xbf3c6e00	-0.73605347
12	0xbf937116	-1.1518886
13	0x3e283239	0.16425408
14	0xbf6dab42	-0.92839444
15	0x3f26a707	0.65098614

weight f4 [16, 3]
0	0xbe21f54b	-0.15816228
1	0xbf0019da	-0.50039446
2	0xbf622652	-0.8833972
3	0xbf71365c	-0.9422357
4	0x3f2680a2	0.6504003
5	0x3f262b04	0.64909387
6	0xbf172e1b	-0.59054726
7	0xbebb80d9	-0.3662174
8	0xbe90409a	-0.28174287
9	0xbd244bb2	-0.04011125
10	0x3e125c18	0.14292943
11	0x3f21e7bb	0.6324422
12	0x3f03c77d	0.5147627
13	0x3f3f7796	0.7479185
14	0xbf2abac5	-0.6669124
15	0xbd34393e	-0.043999903
16	0x3ec26266	0.37965697
17	0x3f83cbc6	1.0296562
18	0xbee3b82f	-0.44476458
19	0xbeb5a0f1	-0.3547435
20	0x3f06b7d7	0.5262427
21	0x3f58a0bf	0.8462028
22	0xbf24c27b	-0.64359254
23	0x3ef62047	0.480715
24	0x3eb5b738	0.35491347
25	0x3e3566b4	0.1771496
26	0xbd009233	-0.031389426
27	0xbf043ab8	-0.516521
28	0x3e14fb0b	0.1454889
29	0xbeae7ff5	-0.34081998
30	0x3ef41718	0.4767387
31	0x3e51d5ef	0.20491765
32	0xbe2418a8	-0.1602503
33	0xbf86fe56	-1.0546367
34	0xbf2101f4	-0.62893605
35	0x3d8c4a77	0.068501405
36	0x3c135207	0.008991725
37	0xbe95548e	-0.29166073
38	0xbee79d9a	-0.45237428
39	0x3dd834ab	0.105569206
40	0xbeb4c98f	-0.35310027
41	0xbefe0bbf	-0.49618337
42	0x3f009a65	0.5023559
43	0xbc6747ec	-0.014116269
44	0xbf19e1ce	-0.60110176
45	0xbede8a05	-0.43464676
46	0xbedeb91e	-0.43500608
47	0x3f70ac53	0.94012946

weight f4 [16, 3]
0	0x3e427d21	0.18993045
1	0x3f6fda3c	0.93692374
2	0xbc8703ee	-0.016481366
3	0xbedbd2cd	-0.42934266
4	0x3dfabf1d	0.12243483
5	0x3e27c327	0.16383038
6	0x3ebd01a9	0.3691533
7	0x3f23ac48	0.63934755
8	0x3e9be45e	0.30447668
9	0x3f16dad8	0.5892768
10	0xbf33360f	-0.7000436
11	0xbe285bc5	-0.16441257
12	0x3c6ca265	0.014443015
13	0xbeeb587c	-0.45965946
14	0x3e3ace3e	0.18242738
15	0x3e6ce39a	0.23133698
16	0xbea2b215	-0.3177649
17	0xbe513f2d	-0.20434256
18	0xbf415e98	-0.75534964
19	0x3e9293a2	0.2862826
20	0xbf0ba7f1	-0.54553133
21	0xbf15be6e	-0.584937
22	0x3e5512b9	0.20807923
23	0x3d343d2c	0.04400365
24	0xbeb8ebc2	-0.3611737
25	0xbf202209	-0.62551934
26	0xbde25344	-0.11051038
27	0x3f311546	0.69173086
28	0xbefb0b7e	-0.49032205
29	0xbe11a247	-0.1422206
30	0x3f0533b5	0.52032024
31	0x3f21546f	0.6301946
32	0x3eb494f3	0.3526989
33	0xbf4c33b7	-0.7976641
34	0xbe33f4d4	-0.17573863
35	0x3db1b3d2	0.08676876
36	0x3e57ad29	0.21062149
37	0xbe33f84c	-0.17575186
38	0x3bd7646a	0.0065732496
39	0x3ee960db	0.45581707
40	0x3efda22e	0.49537796
41	0x3e2266cf	0.15859531
42	0x3f1dd207	0.616486
43	0x3ef14c24	0.47128403
44	0x3e78ddd7	0.24303375
45	0x3ea670d4	0.32507956
46	0xbebbd6bf	-0.36687276
47	0xbe5f3e0d	-0.21801014

bias f4 [16]
0	0x3e973c52	0.29538208
1	0xbf84ff13	-1.0390342
2	0xbdc73cdb	-0.09728404
3	0x3f0b9415	0.5452283
4	0x3f4fed24	0.8122122
5	0x3f1ab2e3	0.6042921
6	0x3e582e97	0.21111523
7	0xbf0107f2	-0.5040275
8	0xbeb4ede0	-0.35337734
9	0x3e03b049	0.12860216
10	0x3cec6428	0.028856352
11	0xbeab6a90	-0.33479738
12	0xbe95189c	-0.29120338
13	0x3e7c50d6	0.24640211
14	0xbe3aa3d3	-0.18226556
15	0xbf1eae97	-0.6198515

weight f4 [16, 1]
0	0xbf03f623	-0.5154745
1	0xbd81fecd	-0.063474275
2	0x3f58ae50	0.8464098
3	0x3f676324	0.9038565
4	0xbedbd19d	-0.4293336
5	0xbf97eedc	-1.1869769
6	0xbc5e5145	-0.013569181
7	0x3f4b0e7e	0.7931899
8	0x3fa1b482	1.2633212
9	0xbeb0873f	-0.34478185
10	0x3f3d7f0f	0.74022
11	0x3e23ed53	0.16008501
12	0x3ea185a1	0.31547263
13	0x3f6346a6	0.88779676
14	0xbeba177b	-0.3634604
15	0xbefefe42	-0.49803358

bias f4 [16]
0	0x3ef412df	0.47670648
1	0xbd8ca580	-0.06867504
2	0xbf28118c	-0.65651774
3	0x3f538de4	0.8263838
4	0x3dd78fec	0.10525498
5	0x3f1fe8d6	0.62464654
6	0x3f9ca9fa	1.2239373
7	0x3e207f68	0.15673602
8	0xbf0dad09	-0.55342156
9	0x3f5432d5	0.82890064
10	0x3f54f321	0.83183485
11	0x3e8cec2b	0.27523932
12	0xbf8902d1	-1.0703984
13	0x3e24327f	0.16034888
14	0x3f0a11b8	0.53933287
15	0x3f242dcb	0.64132375

weight f4 [16, 3]
0	0x3eaf25af	0.34208438
1	0xbebbadc9	-0.36656025
2	0xbf86a0ce	-1.0517824
3	0xbf26ea66	-0.65201414
4	0x3ec02bc2	0.37533385
5	0x3ef7cc42	0.48398024
6	0xbebc344b	-0.36758646
7	0x3d674c81	0.056469444
8	0x3ea1e136	0.31617135
9	0x3edf8388	0.43655038
10	0x3df8c901	0.121477135
11	0xbe0e57f9	-0.13900746
12	0xbea5c7a4	-0.32378876
13	0x3f5b8540	0.857502
14	0xbf60aa1e	-0.8775958
15	0x3f5855f7	0.8450617
16	0x3f16101f	0.5861835
17	0x3f183fc4	0.594723
18	0x3e5041c4	0.20337588
19	0xbdfbb647	-0.12290626
20	0x3e4ec09e	0.20190665
21	0x3f2e09cf	0.67983717
22	0xbf32015c	-0.69533324
23	0x3e3db277	0.1852511
24	0xbe8c2129	-0.2736905
25	0x3f7b8609	0.98251396
26	0x3f300138	0.6875186
27	0xbf007f22	-0.5019399
28	0xbf71812a	-0.94337714
29	0x3f03fb58	0.51555395
30	0x3f02a034	0.510257
31	0x3e5ad03b	0.21368496
32	0x3f038a46	0.51382864
33	0xbf6a94e0	-0.91633415
34	0xbf7286ec	-0.94737124
35	0xbe7e786a	-0.24850622
36	0xbe6918eb	-0.22763412
37	0x3e536821	0.20645191
38	0xbf24801b	-0.64257973
39	0x3e622e6b	0.2208802
40	0xbf565f7a	-0.83739436
41	0xbf1ca8d0	-0.6119509
42	0x3ec5c46e	0.38626426
43	0x3e26af54	0.1627782
44	0xbde75ce5	-0.11297015
45	0xbf45f0a6	-0.77320325
46	0xbead12e2	-0.3380347
47	0x3ecac5c1	0.39604

weight f4 [16, 3]
0	0xbe648bbf	-0.22318934
1	0x3f3602a7	0.710978
2	0xbdb47358	-0.088110626
3	0x3c9a788d	0.018856311
4	0x3cbf4004	0.023345955
5	0x3f388e56	0.7209219
6	0x3f13648d	0.57575303
7	0xbcf7016e	-0.030152049
8	0xbe83b835	-0.25726476
9	0xbe8ea871	-0.27862886
10	0x3e5a417f	0.21314047
11	0x3f2532ad	0.6453045
12	0x3f0c5a1d	0.54825
13	0x3e7aae5e	0.24480578
14	0xbe9e0b7d	-0.3086814
15	0xbe680fd3	-0.22662286
16	0x3f055363	0.52080363
17	0x3e5e637d	0.2171764
18	0xbecb7cdd	-0.397437
19	0x3eb93cc9	0.36179188
20	0xbea991f5	-0.3311917
21	0xbedb4148	-0.42823243
22	0x3dda37ee	0.10655199
23	0x3e3819c0	0.17978573
24	0xbe75c925	-0.24002512
25	0xbee6d8b9	-0.4508722
26	0xbf0a42b1	-0.54008013
27	0x3f16397a	0.5868145
28	0x3eb7088c	0.35748708
29	0x3f36eab7	0.71451896
30	0xbea73738	-0.32659316
31	0xbec25b79	-0.37960413
32	0xbdb3f903	-0.087877296
33	0xbb895fae	-0.004192314
34	0x3ece03c3	0.40237245
35	0x3e330ab2	0.17484549
36	0x3f309b17	0.6898665
37	0x3eaeebea	0.34164363
38	0x3ce825fb	0.028338423
39	0xbeaed974	-0.3415028
40	0x3d791af2	0.060816713
41	0x3ec9112f	0.39270923
42	0xbc4dc15a	-0.012558306
43	0x3d2cbbed	0.042171407
44	0x3e729cef	0.23692678
45	0x3f14903e	0.58032596
46	0x3e9540c8	0.29150987
47	0xbd83a2ed	-0.0642756

bias f4 [16]
0	0xbe6fd808	-0.23422253
1	0x3ee1badb	0.44087872
2	0x3eab5bc6	0.33468455
3	0x3ec266fc	0.37969196
4	0xbed6a202	-0.41920477
5	0xbea0af1b	-0.31383595
6	0x3edd1461	0.4317961
7	0x3ef55c73	0.47922096
8	0xbeb0bbd0	-0.3451829
9	0x3f438b14	0.7638409
10	0x3dbdc237	0.09265559
11	0x3ed39495	0.41324297
12	0xbefae900	-0.4900589
13	0x3e1d7e62	0.15380242
14	0x3e47b5b5	0.1950291
15	0x3e631f98	0.22180021

weight f4 [16, 1]
0	0x3e83a470	0.25711393
1	0xbf679d0d	-0.90474015
2	0x3f884421	1.0645791
3	0x3f982f50	1.1889439
4	0x3f301221	0.6877766
5	0x3eb05f4d	0.3444771
6	0x3db9a092	0.090638295
7	0x3f3c33e1	0.7351666
8	0xbeb21678	-0.34782767
9	0xbf90ecf1	-1.1322309
10	0xbd89735c	-0.06711456
11	0x3f3e2bde	0.74285686
12	0x3f0001ab	0.50002545
13	0x3f3adad1	0.7299014
14	0x3f952d4b	1.1654447
15	0xbf8d320d	-1.1030899

weight f4 [16]
0	0x3f2307c7	0.6368374
1	0x3f84a7e7	1.036374
2	0x3f8097f0	1.0046368
3	0x3f8dc96e	1.1077096
4	0x3f9d417a	1.2285607
5	0x3f7e273e	0.9927863
6	0x3f8d753b	1.1051401
7	0x3f4813d4	0.78155255
8	0x3f1afea4	0.605448
9	0x3f980cae	1.187887
10	0x3fb60932	1.4221556
11	0x3f91b934	1.1384645
12	0x3f800000	1.0
13	0x3f552bdf	0.83270067
14	0x3fba136a	1.4537175
15	0x3f66ec9c	0.9020479

bias f4 [16]
0	0xbec97430	-0.39346457
1	0xbe381585	-0.17976959
2	0xbd705f2c	-0.058684513
3	0xbe2b9168	-0.16754687
4	0xbe2ec4f9	-0.17067327
5	0xbebfd7c2	-0.37469298
6	0xbe109dd5	-0.14122708
7	0xbe537554	-0.20650226
8	0x3eaf0b4a	0.341883
9	0xbe066aa5	-0.13126619
10	0xbe971bfc	-0.29513538
11	0x3da1c681	0.0789919
12	0xbd4a18c3	-0.04934002
13	0xbece302c	-0.40271127
14	0x3ed70e6d	0.42003193
15	0xbde477cb	-0.11155661

running_mean f4 [16]
0	0x3f820ac8	1.015954
1	0x379e506a	1.8872513e-05
2	0x3f85989a	1.0437195
3	0x3f03906e	0.5139226
4	0x3f463001	0.77417
5	0x3ec378a1	0.3817797
6	0x33b8b29d	8.600657e-08
7	0x32498a37	1.1731166e-08
8	0x32097b24	8.0024485e-09
9	0x3eb28963	0.34870443
10	0x3fb29030	1.3950253
11	0x317e82ca	3.703621e-09
12	0x00000000	0.0
13	0x3f9b64b9	1.2140113
14	0x3f83015c	1.023479
15	0x34032c81	1.2216516e-07

running_var f4 [16]
0	0x3e572a08	0.21012127
1	0x36917947	4.3354553e-06
2	0x3e354ddd	0.17705484
3	0x3e21b99f	0.15793465
4	0x3d1d8600	0.03845787
5	0x3d62ebb5	0.05540057
6	0x34dd726e	4.1247716e-07
7	0x34d3cd71	3.945129e-07
8	0x34d306c5	3.9306738e-07
9	0x3daa016e	0.08301054
10	0x3e48d0dc	0.19610924
11	0x34d3177f	3.9318908e-07
12	0x34d2c673	3.925994e-07
13	0x3dbb45ef	0.09144198
14	0x3dd22f4b	0.10262927
15	0x34d79803	4.0157474e-07

weight f4 [16]
0	0x3f6ab3ce	0.9168061
1	0x3f2a7437	0.6658358
2	0x3fc3677f	1.526596
3	0x3f08b709	0.5340429
4	0x3fdca486	1.7237709
5	0x3f9f0b6c	1.2425361
6	0x3f1dfca4	0.61713624
7	0x3f212eb6	0.629619
8	0x3eddd5e5	0.4332725
9	0x3f8ee34b	1.1163114
10	0x3f1a7d42	0.6034738
11	0x3f8d287f	1.1027983
12	0x3f48b261	0.78397185
13	0x3f4cc64f	0.79990095
14	0x3f563605	0.8367618
15	0x3f96f1b8	1.1792517

bias f4 [16]
0	0x3eaa18e8	0.33222127
1	0xbdd47ee6	-0.103757665
2	0xbef4e1b3	-0.47828445
3	0xbddb369c	-0.10703775
4	0xbf7a92d1	-0.97880274
5	0xbdf6700e	-0.120330915
6	0x3e961d94	0.2931944
7	0x3f5db012	0.86596787
8	0x3e5aba84	0.21360213
9	0xbe8b186f	-0.2716708
10	0x3f0a8aec	0.5411823
11	0xbe419e22	-0.18907979
12	0xbf42d409	-0.7610479
13	0x3d49d973	0.04927964
14	0xbf6fa966	-0.93617857
15	0x3eabdc29	0.33566406

running_mean f4 [16]
0	0x3f55d68c	0.835305
1	0x3f7ff507	0.9998326
2	0x3ebbb148	0.36658692
3	0x3fba5f0e	1.4560258
4	0x3df3dee5	0.11907748
5	0x4004ea22	2.0767903
6	0x3fc9fcf1	1.5780317
7	0x3f2eb816	0.6824964
8	0x3fb8f1ba	1.4448769
9	0x3f512f8d	0.8171318
10	0x3fb96f83	1.4487156
11	0x3ac13ef0	0.0014743488
12	0x2d08268c	7.739264e-12
13	0x3eb0fe6f	0.34569117
14	0x3e923155	0.28553262
15	0x3f8131a0	1.0093269

running_var f4 [16]
0	0x3ed4b56a	0.41544658
1	0x4006dcd6	2.1072288
2	0x3da9ff2a	0.08300622
3	0x4012c640	2.2933502
4	0x3e100680	0.1406498
5	0x3ee620b6	0.4494683
6	0x3f9fbf11	1.2480184
7	0x3f9a9ed5	1.2079722
8	0x404f2f8e	3.2372775
9	0x3fb71c6a	1.4305546
10	0x401a8b8c	2.4147673
11	0x3a5bce42	0.0008384922
12	0x34d2c682	3.9259982e-07
13	0x3e1a630e	0.15076849
14	0x3f581f34	0.8442261
15	0x3f197f99	0.59960324

weight f4 [16]
0	0x3f5a01ba	0.85158885
1	0x3fb31a94	1.3992486
2	0x3f4feb75	0.81218654
3	0x3f378390	0.71685123
4	0x3f42b13c	0.7605169
5	0x3f44afee	0.7683095
6	0x3fa53b16	1.2908657
7	0x3fa5a3c3	1.2940601
8	0x3f47a528	0.77986383
9	0x3fcede56	1.6161602
10	0x3f9bd29e	1.217365
11	0x3f952ffc	1.1655269
12	0x3fa209cc	1.265924
13	0x3fb6716f	1.4253367
14	0x3f9b1290	1.211504
15	0x3fa5e68d	1.2960984

bias f4 [16]
0	0xbe7c479f	-0.24636696
1	0xbec463c3	-0.38357362
2	0x3e0d37e0	0.13790846
3	0xbe3a8aa9	-0.18216957
4	0x3e470dd2	0.19438866
5	0xbdf1b5e2	-0.118022695
6	0x3e6ed592	0.23323658
7	0x3eb6437b	0.3559836
8	0xbea2a9a1	-0.31770042
9	0x3ec19dfd	0.37815848
10	0xbb0be015	-0.002134328
11	0x3e1d645e	0.15370318
12	0x3df59db6	0.119929716
13	0xbb5ee1be	-0.0034009065
14	0x3dbb8517	0.09156244
15	0x3d728370	0.05920738

running_mean f4 [16]
0	0x3f9d46a6	1.2287185
1	0x40403f64	3.003869
2	0x3f97b32b	1.1851553
3	0x3febc937	1.8420781
4	0x3d4674cd	0.048451234
5	0x3d627134	0.05528374
6	0x3e65dc54	0.2244733
7	0x3fc674d5	1.5504404
8	0x2d3feb53	1.09093455e-11
9	0x407f26be	3.9867396
10	0x3f8a2cd0	1.0794926
11	0x3f948333	1.1602539
12	0x3fa66894	1.3000665
13	0x4017a652	2.3695264
14	0x400a921f	2.1651685
15	0x4035923e	2.837051

running_var f4 [16]
0	0x3ed5b16b	0.41736922
1	0x3f357226	0.708773
2	0x3f13540e	0.5755013
3	0x3ef25042	0.47326857
4	0x3d1520a7	0.036408093
5	0x3d38b926	0.045098446
6	0x3e2037bf	0.15646265
7	0x3f337e35	0.7011445
8	0x34d2c698	3.9260044e-07
9	0x3ef0f207	0.47059652
10	0x3eeae96c	0.45881212
11	0x3edab2ba	0.42714483
12	0x3f15e547	0.58552974
13	0x3f537fe3	0.82617015
14	0x3f0a0d20	0.5392628
15	0x3f651fc8	0.8950162

weight f4 [16, 16]
0	0xbe2130f8	-0.15741336
1	0xbbc76205	-0.006084683
2	0xbd489c2d	-0.048977066
3	0xbdc13e0e	-0.09435664
4	0xbd308c07	-0.04310229
5	0xbe0a83be	-0.13526818
6	0xbe1efc21	-0.15525867
7	0xbc5ac0c9	-0.013351628
8	0xbb3ee3a0	-0.0029127374
9	0x3caa2a2f	0.020772068
10	0xbde095bd	-0.1096606
11	0x3e6332d7	0.22187363
12	0xbf19e414	-0.60113645
13	0xbe677d45	-0.2260638
14	0x3e5fb155	0.2184499
15	0x3e912f21	0.2835627
16	0xbec10a5e	-0.37703222
17	0xbe6de05a	-0.23230115
18	0xbc787c8f	-0.015166416
19	0x3ec5dad4	0.38643515
20	0x3cb3f021	0.021965088
21	0x3eed1608	0.4630587
22	0xbe43efd0	-0.1913445
23	0x3d0c5a9f	0.03426611
24	0x3e1956a7	0.14974461
25	0xbd00d1a2	-0.03144992
26	0xbe8a4023	-0.27002057
27	0xbe2d9ba0	-0.16953897
28	0xbe18faf3	-0.1493948
29	0xbdbb692f	-0.091509216
30	0xbe712a03	-0.23551182
31	0xbef351e4	-0.47523415
32	0xbb304519	-0.0026896654
33	0xbd8a1893	-0.067429684
34	0xbcc2d698	-0.023783967
35	0xbe9bd2ea	-0.30434352
36	0xbd551abb	-0.052027445
37	0x3e545de4	0.20738941
38	0x3e6175e0	0.22017622
39	0xbdd72e33	-0.10506859
40	0xbeb142fb	-0.34621415
41	0xbe0ae2ab	-0.1356303
42	0xbcaf5acc	-0.0214056
43	0x3e8d5e68	0.2761109
44	0xbdee1360	-0.11624789
45	0x3e517780	0.20455742
46	0x3d88ba41	0.0667615
47	0x3e4a03f6	0.19728073
48	0xbeb248c4	-0.3482114
49	0xbec80a37	-0.39070293
50	0xbe1ace9e	-0.1511788
51	0x3ec76d6b	0.38950667
52	0x3cf59183	0.029976612
53	0x3dae7fbb	0.085204564
54	0xbe9bebef	-0.3045344
55	0xbebb1d15	-0.36545625
56	0x3e2dd877	0.16977106
57	0x3de190f1	0.110139735
58	0xbeeac228	-0.45851254
59	0xbdfdb81b	-0.12388631
60	0x3f128467	0.5723328
61	0xbeb315e6	-0.34977645
62	0xbedaaafa	-0.4270857
63	0xbe60fe8d	-0.21972103
64	0xbdd4ae0b	-0.103847586
65	0xbe84b3c5	-0.25918403
66	0xbe12d06c	-0.14337319
67	0x3e29379c	0.1652512
68	0x3dbd6aa7	0.09248858
69	0x3e7771c2	0.24164489
70	0xbe6cb08a	-0.2311422
71	0xbedbdd60	-0.42942333
72	0x3e9faa5b	0.31184658
73	0x3ed948c0	0.42438316
74	0xbe6a8fbe	-0.22906396
75	0x3eaf705c	0.3426541
76	0xbe339ca8	-0.17540228
77	0xbec87fa8	-0.39159894
78	0xbeeb9fe1	-0.46020415
79	0xbd92272c	-0.07136378
80	0xbd194e9f	-0.037428495
81	0xbe019b9f	-0.12657021
82	0xbebffc7b	-0.37497315
83	0x3e4f5576	0.20247445
84	0x3e335a5b	0.17514937
85	0x3eb1738f	0.34658477
86	0x3d97c00d	0.07409678
87	0xbd882a13	-0.0664865
88	0x3ead59f1	0.33857682
89	0x3df7d3ab	0.12100919
90	0xbee2cd09	-0.44297054
91	0xbdd96bca	-0.10616262
92	0x3ec65203	0.38734445
93	0xbc3b86e3	-0.011445734
94	0xbeb8cf80	-0.3609581
95	0xbc737343	-0.0148590235
96	0xbc8a8d2b	-0.016913017
97	0x3ea717f6	0.32635468
98	0x3ee7a4a4	0.45242798
99	0xbe14fd34	-0.14549714
100	0xbee6c566	-0.45072478
101	0x3e1a8767	0.15090714
102	0x3efff0b8	0.4998834
103	0x3c9cca5c	0.019139461
104	0xbe0a62ce	-0.13514253
105	0xbee613bf	-0.4493694
106	0x3c9a252c	0.018816553
107	0x3e3bcb70	0.18339324
108	0x3f005491	0.5012904
109	0x3d1ec4ed	0.03876202
110	0x3e618c2e	0.2202613
111	0x3ece2a72	0.40266758
112	0x3dcedb7a	0.101004556
113	0xbdbf4622	-0.09339549
114	0x3d8287a8	0.063735306
115	0x3d8b32d8	0.06796807
116	0xbeb73263	-0.3578063
117	0x3e242ed5	0.1603349
118	0x3e903a19	0.28169325
119	0xbdc19e01	-0.09453965
120	0xbe5f90ec	-0.21832627
121	0xbe94f300	-0.29091644
122	0x3e0d0d2c	0.13774556
123	0xbe4c46d6	-0.19948897
124	0xbe322608	-0.1739732
125	0x3db9fd18	0.09081477
126	0xbdd36a2a	-0.103229836
127	0x3e83bf53	0.25731906
128	0x3e5d3f14	0.21606094
129	0x3ed34773	0.4126545
130	0x3eab6a68	0.3347962
131	0xbeab10c6	-0.33411235
132	0xbf07c45f	-0.53034014
133	0xbe964f40	-0.29357338
134	0x3e80bfed	0.25146428
135	0x3e431199	0.19049682
136	0xbdfb2ed3	-0.122647904
137	0xbeff42c6	-0.49855632
138	0x3ed0f437	0.4081132
139	0x3dfca84d	0.12336788
140	0x3e3f58f2	0.18686274
141	0x3eb5042a	0.3535474
142	0x3eb68c96	0.35654134
143	0x3ebbd508	0.36685967
144	0xbec0fbc2	-0.37692076
145	0xbe4b0d7e	-0.19829366
146	0xbe067b11	-0.13132884
147	0x3eae8f15	0.34093538
148	0xbe877d5d	-0.26462832
149	0x3e4c325b	0.19941084
150	0x3e72e5d7	0.2372049
151	0xbdf1e737	-0.11811679
152	0x3c75c342	0.015000166
153	0x3e99c15a	0.30030328
154	0xbb66524f	-0.0035144275
155	0x3f1045a1	0.56356245
156	0x3e3f75db	0.18697302
157	0xbd65393f	-0.055962797
158	0xbd717338	-0.05894777
159	0xbedf818f	-0.43653533
160	0xbd397942	-0.045281656
161	0xbe2cdb8b	-0.16880624
162	0xbed92b26	-0.42415732
163	0x3ed661a3	0.41871366
164	0x3dee40dd	0.116334654
165	0x3ef4df7a	0.4782675
166	0xbc0e2f61	-0.008678288
167	0xbd8b62b8	-0.068059385
168	0xbc2e87af	-0.010652467
169	0x3e8865ce	0.2664017
170	0xbd048611	-0.03235442
171	0xbe11ef69	-0.14251484
172	0xbdde620c	-0.10858545
173	0xbe9a531f	-0.3014154
174	0xbea533e9	-0.32266167
175	0xbe20d0ae	-0.15704605
176	0x3d6dfeeb	0.058104437
177	0xbc3db677	-0.011579148
178	0xbc3b8b63	-0.011446807
179	0x3d4fc69e	0.050726525
180	0xbe3e67ff	-0.18594359
181	0x3e4dcf22	0.20098546
182	0x3ee14dd0	0.4400468
183	0xbe4dfb4d	-0.20115395
184	0x3e394ad5	0.18094952
185	0xbc46619c	-0.012108233
186	0xbe2831f9	-0.16425313
187	0xbeab9ec3	-0.33519563
188	0xbe302419	-0.1720127
189	0xbd8d32f8	-0.06894487
190	0xbe9b2d1a	-0.30307847
191	0xbe9d5db6	-0.30735558
192	0x3cf3c7e8	0.029758409
193	0xbe97cc70	-0.2964816
194	0xbe189a67	-0.1490265
195	0x3d923e43	0.07140782
196	0xbe8ab9f8	-0.27095008
197	0x3e30f673	0.17281513
198	0x3ddcd1c7	0.10782199
199	0x3b7e0bc0	0.0038764328
200	0x3db1ed73	0.08687868
201	0x3e50fccd	0.20408936
202	0xbde7ad08	-0.113123
203	0xbdcf18fa	-0.10112186
204	0x3e90ad60	0.28257275
205	0xbdd61926	-0.104540154
206	0xbe92e7cf	-0.2869248
207	0xbef64e2d	-0.48106518
208	0x3e3b0c18	0.18266332
209	0x3db3576c	0.08756909
210	0x3c85fab0	0.016354889
211	0xbedaf786	-0.4276697
212	0xbedd8ce2	-0.43271548
213	0x3dc30d34	0.09524003
214	0xbda96b98	-0.08272475
215	0xbea52f79	-0.3226278
216	0xbc021b25	-0.007941042
217	0xbeab9ff7	-0.3352048
218	0xbd0ec7b5	-0.034858424
219	0x3e75355c	0.23946136
220	0xbf014dd8	-0.50509405
221	0x3d657001	0.05601502
222	0x3e2a2af7	0.16617952
223	0xbe55ec74	-0.20890981
224	0x3e8b217a	0.27173978
225	0x3e65fbeb	0.2245938
226	0xbe44e1f1	-0.19226815
227	0xbc0e4657	-0.0086837625
228	0x3e8947a0	0.26812458
229	0x3e6cb7db	0.2311701
230	0xbe3b9d9c	-0.18321842
231	0xbc9fd326	-0.019509863
232	0xbe5be78f	-0.21475051
233	0xbd658545	-0.0560353
234	0xbd1d2d3a	-0.03837321
235	0x3d14fdc7	0.036374833
236	0xbe04f17a	-0.12982741
237	0x3cb58351	0.022157343
238	0xbe916bf9	-0.2840269
239	0x3e92d61a	0.28678972
240	0xbeb4a7de	-0.35284323
241	0xbe692891	-0.22769381
242	0xbeea510f	-0.45764968
243	0x3eca1ba9	0.39474228
244	0x3f059da1	0.5219365
245	0x3ea40ffc	0.32043445
246	0xbe1aba18	-0.15110052
247	0xbdc93083	-0.09823706
248	0x3ec0d1be	0.3766002
249	0x3e6c592b	0.2308089
250	0xbdd2e90d	-0.10298357
251	0x3cf7a17a	0.030228365
252	0x3da12aee	0.07869516
253	0xbdeac082	-0.11462499
254	0xbefde302	-0.49587256
255	0xbea3fd2b	-0.3202909

bias f4 [16]
0	0x3e4d8978	0.20071971
1	0x3da5abb5	0.08089391
2	0x3ddf0c76	0.108910486
3	0x3efca2b6	0.4934289
4	0xbe5037bb	-0.2033376
5	0xbeee01ed	-0.46485844
6	0x3ddd8b65	0.10817603
7	0xbeb0f9ca	-0.34565574
8	0x3b0e10d0	0.0021677501
9	0xbe3afc51	-0.18260314
10	0xbed25fec	-0.41088808
11	0xbeea85bd	-0.4580516
12	0xbe0b6a5e	-0.13614795
13	0x3e653047	0.22381698
14	0xbe5416ca	-0.20711818
15	0xbe2f391c	-0.17111629

weight f4 [16, 16]
0	0xbe4defe0	-0.20111036
1	0xbc13ee0c	-0.009028923
2	0x3e479c92	0.1949332
3	0x3e47a24a	0.19495502
4	0xbf093bf8	-0.5360713
5	0xbeba959b	-0.36442265
6	0x3e52695e	0.20548007
7	0x3f294a5f	0.66129106
8	0x3e372a5c	0.17887253
9	0xbe0837fe	-0.1330261
10	0x3e26376f	0.16232084
11	0x3ebb3144	0.36561024
12	0xbe645c5c	-0.22300857
13	0xbdeffa19	-0.11717624
14	0xbe76eb4d	-0.24113198
15	0xbed7a4f6	-0.42118043
16	0xbed2c866	-0.41168517
17	0xbb7253ff	-0.0036976335
18	0xbf3bcf4d	-0.7336319
19	0x3e6e10a8	0.23248541
20	0xbe870d0c	-0.2637714
21	0xbe88e259	-0.2673519
22	0x3c441d66	0.0119699
23	0xbe3c2380	-0.18372917
24	0x3ea1e477	0.31619617
25	0xbe4a1e05	-0.19738014
26	0x3e875472	0.26431614
27	0x3e445045	0.19171245
28	0x3f448f30	0.76780987
29	0xbd8e9a73	-0.069630526
30	0xbe03b5c4	-0.12862307
31	0xbe8598c2	-0.26093107
32	0xbe07337c	-0.13203233
33	0xbf144c8a	-0.5792929
34	0x3cbbe406	0.022935878
35	0xbec98786	-0.3936121
36	0x3edb92ff	0.42885587
37	0x3e3e6efd	0.18597026
38	0x3d0f82d5	0.03503688
39	0x3d66523a	0.05623076
40	0x3e94abfe	0.2903747
41	0xbee7f140	-0.45301247
42	0x3e081c70	0.13292098
43	0xbd651226	-0.05592551
44	0x3e8231c8	0.25428605
45	0xbe355e4e	-0.17711756
46	0xbe00337d	-0.12519641
47	0xbb9e267d	-0.0048263655
48	0x3ed4c611	0.41557363
49	0x3e8c47b3	0.27398452
50	0x3d0e01cd	0.034669686
51	0x3d0c5c4b	0.034267705
52	0xbe4ca7cb	-0.19985883
53	0xbf208d65	-0.6271575
54	0x3d73aaa4	0.059488907
55	0x3ee6d92f	0.45087573
56	0x3eeb8374	0.45998728
57	0x3d9f8de8	0.07790738
58	0x3ec785a3	0.38969144
59	0x3db9c081	0.0906992
60	0xbe64517f	-0.22296713
61	0xbddf0bb6	-0.108909056
62	0x3df4ad33	0.11947098
63	0xbe47ec0d	-0.1952364
64	0xb8d60138	-0.00010204542
65	0x3df66db0	0.1203264
66	0xbf04f8a8	-0.5194192
67	0xbe4a8643	-0.1977778
68	0xbec786a8	-0.38969922
69	0xbeb50a47	-0.35359403
70	0x3e81bb51	0.25338224
71	0xbe838042	-0.2568379
72	0xbe402e6f	-0.18767713
73	0x3e43347c	0.1906299
74	0xbe02cbc2	-0.1277304
75	0xbe460799	-0.19338836
76	0xbe72ed5d	-0.2372336
77	0xbeae52e3	-0.34047613
78	0xbce91a32	-0.028454874
79	0xbe314559	-0.1731161
80	0x3cffa796	0.03120784
81	0x3e53fbd7	0.20701538
82	0xbcf06cad	-0.029348696
83	0x3ba8b16d	0.005148104
84	0x3e8e8061	0.2783232
85	0x3dbe2741	0.09284831
86	0x3e79ec60	0.24406576
87	0x3e23774a	0.15963474
88	0x3d27ce35	0.04096814
89	0x3ee4bcbe	0.4467525
90	0x3da08008	0.0783692
91	0xbca3af9e	-0.019981202
92	0x3f4113de	0.7542094
93	0xbe77e358	-0.24207819
94	0x3ed9b9cd	0.42524567
95	0xbe63f646	-0.22261915
96	0xbdf3c8ce	-0.11903535
97	0xbef71718	-0.48259807
98	0x3e632008	0.22180188
99	0x3db27537	0.08713763
100	0xbedae8b5	-0.42755666
101	0xbed0270c	-0.4065479
102	0x3c27a9d2	0.010233359
103	0x3edce11c	0.43140495
104	0x3da3c6c2	0.079968944
105	0xbec38139	-0.38184527
106	0x3eac64c4	0.33670628
107	0x3c85a9bf	0.016316293
108	0xbc3a13a4	-0.011357222
109	0xbef17985	-0.47163025
110	0xbeaf3180	-0.34217453
111	0xbebfb657	-0.37443802
112	0x3e7ab24e	0.2448208
113	0xbe9c2484	-0.3049661
114	0x3ea61380	0.32436752
115	0xbe8310b4	-0.2559868
116	0x3e8e245b	0.27762112
117	0x3d442467	0.04788628
118	0xbd3f1a88	-0.04665616
119	0x3eb41318	0.35170817
120	0x3df36434	0.118843466
121	0x3dd64220	0.10461831
122	0x3d5a8c32	0.053356357
123	0x3d9dbee2	0.07702424
124	0x3e313670	0.17305923
125	0x3d779a3c	0.060449824
126	0xbd96e0be	-0.07367085
127	0x3dae4116	0.08508508
128	0xbcc3c6d7	-0.023898525
129	0xbe84383c	-0.25824153
130	0x3bf0b0d2	0.0073452974
131	0xbeef5d38	-0.46750808
132	0x3eea41bc	0.45753276
133	0x3ec73f5c	0.38915527
134	0xbeee314d	-0.4652199
135	0xbe898e93	-0.26866588
136	0xbe85d17d	-0.2613639
137	0xbe8c6960	-0.27424145
138	0xbeaa30c1	-0.3324032
139	0xbe1edbe5	-0.1551357
140	0x3e0be520	0.13661623
141	0x3e180dd3	0.14849024
142	0xbed9a5b0	-0.42509222
143	0x3ea3d79b	0.3200043
144	0x3e97101b	0.29504475
145	0x3e5d4526	0.2160841
146	0xbef2a1a9	-0.47388962
147	0x3ee1a5ec	0.440719
148	0x3f3b045c	0.73053527
149	0x3eabb3c3	0.33535585
150	0x3d84f22e	0.064915046
151	0x3d80c189	0.06286914
152	0x3ecc6b1f	0.39925477
153	0x3ea29090	0.31750917
154	0xbc85bc2e	-0.016325083
155	0x3ea75e4d	0.32689133
156	0xbe398a25	-0.18119104
157	0xbebeb8e6	-0.3725044
158	0x3e100724	0.14065224
159	0x3df24f3d	0.1183152
160	0xbcf1e520	-0.0295282
161	0x3d574c00	0.052562714
162	0xbd99ec4b	-0.075157724
163	0x3e4d0a2e	0.20023414
164	0xbd817648	-0.063213885
165	0xbd9bda06	-0.07609944
166	0x3e5d7bb2	0.21629217
167	0x3dd2df88	0.102965415
168	0x3ef8dc7d	0.4860572
169	0xbe1222ff	-0.14271162
170	0x3e9c98d8	0.3058536
171	0x3d687637	0.056753363
172	0x3f17a608	0.5923772
173	0x3de35dd1	0.111018784
174	0x3d0bffa8	0.03417936
175	0xbdc49b78	-0.09599966
176	0xbd61cd4d	-0.05512743
177	0x3d98fa3e	0.07469605
178	0x3ca2c924	0.019871302
179	0x3c26496a	0.010149339
180	0xbe033d66	-0.1281639
181	0xbe2454e5	-0.1604801
182	0xbc2daa31	-0.010599659
183	0x3eccce0b	0.40000948
184	0x3d6ab187	0.05729821
185	0xbed51b5c	-0.41622436
186	0x3d66429c	0.056215867
187	0x3e133ceb	0.14378707
188	0x3d6b9751	0.057517353
189	0xbe332cad	-0.17497511
190	0x3e1c2b36	0.15250859
191	0x3c9584aa	0.018251736
192	0xbe70336c	-0.23457116
193	0xbe24ee92	-0.16106632
194	0xbf558007	-0.8339848
195	0x3e1da8e3	0.15396456
196	0xbe94f48c	-0.29092824
197	0xbe07d9be	-0.13266656
198	0x3d3cfc76	0.046139203
199	0xbd05e9cc	-0.03269367
200	0x3d03491d	0.032052148
201	0xbedf5835	-0.43621984
202	0xbe40815a	-0.18799344
203	0x3e4aa058	0.19787729
204	0xbebef768	-0.3729813
205	0xbdcaa33c	-0.09894416
206	0xbe472248	-0.19446671
207	0xbeba7f06	-0.36425036
208	0xbebed33f	-0.37270543
209	0xbd514e6e	-0.051100187
210	0x3ecf6cf1	0.40512803
211	0xbe86a68b	-0.26298937
212	0xbe8168af	-0.2527518
213	0xbeb569b0	-0.35432196
214	0xbd8c5958	-0.068529785
215	0xbd5cbbd2	-0.053890057
216	0xbda65568	-0.08121759
217	0x3ee5bd2c	0.4487089
218	0xbdcbf148	-0.0995813
219	0xbe1ad223	-0.15119223
220	0x3f41979e	0.75621974
221	0xbd765eb2	-0.060148902
222	0xbc1341d9	-0.008987867
223	0xbe2ddbfc	-0.16978449
224	0x3d17d738	0.037070483
225	0x3eb74647	0.35795805
226	0x3e16c1d1	0.14722373
227	0x3d32ea89	0.0436807
228	0x3d8965c3	0.06708863
229	0xbe4c1082	-0.19928172
230	0x3e09f5d6	0.13472685
231	0x3e500b5c	0.20316833
232	0x3e8e83d8	0.27834964
233	0xbe12b70e	-0.14327642
234	0x3defe653	0.11713853
235	0x3e514a71	0.20438553
236	0x3d80bd5f	0.0628612
237	0x3d9902d8	0.074712455
238	0x3e985822	0.2975474
239	0xbe2be690	-0.16787171
240	0x3de9048d	0.11377821
241	0x3ecb59e2	0.39717013
242	0xbd3d5ca5	-0.04623093
243	0x3c8aa392	0.0169237
244	0xbed2977f	-0.41131207
245	0xbe1ea879	-0.15493955
246	0x3e980c2f	0.29696795
247	0x3d913ab2	0.07091273
248	0x3d4628a9	0.04837862
249	0xbd101bb2	-0.035182662
250	0x3eb3953f	0.35074803
251	0x3ed479cc	0.41499174
252	0x3ec585e7	0.38578722
253	0x3c6b78ed	0.014372093
254	0xbe0330b2	-0.12811545
255	0xbd2757fa	-0.040855385

weight f4 [16, 16]
0	0xbe7d2fa2	-0.24725202
1	0xbe6637e2	-0.22482255
2	0x3e8279a2	0.25483423
3	0xbf0b6690	-0.5445337
4	0x3e04eb09	0.12980284
5	0x3f4c6f62	0.79857457
6	0xbe85dba8	-0.26144147
7	0x3da5e54c	0.081003755
8	0xbf088718	-0.53331137
9	0xbed27695	-0.41106096
10	0xbe9b221b	-0.30299458
11	0xbf3aeb3c	-0.7301519
12	0xbdc6d2da	-0.097081855
13	0x3e7e9e08	0.24864972
14	0xbf61911c	-0.88112044
15	0x3f0f0cae	0.5587872
16	0xbe924b8f	-0.28573272
17	0xbcef6020	-0.02922064
18	0xbea761d4	-0.32691824
19	0xbe454ee3	-0.19268374
20	0x3ec78551	0.389689
21	0x3dbd6d61	0.09249378
22	0xbe80b54d	-0.25138322
23	0xbe7730a6	-0.24139652
24	0xbe700feb	-0.23443572
25	0xbe54957c	-0.20760149
26	0x3daeca45	0.085346736
27	0xbe84353c	-0.25821865
28	0xbdce9f5a	-0.10088988
29	0xbed50bc9	-0.41610554
30	0xbedc0839	-0.42975023
31	0x3e559545	0.20857723
32	0x3f0a93ac	0.5413158
33	0xbe79c849	-0.24392809
34	0x3ef5f421	0.48037818
35	0xbe8ff9bc	-0.2812022
36	0x3eb622c2	0.35573393
37	0x3e2e667d	0.17031284
38	0xbddaa48c	-0.10675916
39	0x3e71064d	0.2353756
40	0xbde59e9e	-0.112118945
41	0xbc5f5d2c	-0.013633054
42	0xbe88b424	-0.26699936
43	0xbead27c5	-0.33819404
44	0x3f16f35e	0.589651
45	0x3e3ededc	0.18639702
46	0x3f01d83d	0.5072058
47	0x3cd9c9ed	0.026585544
48	0xbef1673e	-0.4714908
49	0xbe794a68	-0.2434479
50	0xbed9a7df	-0.42510888
51	0xbbf861b8	-0.0075800084
52	0x3cb75de0	0.02238363
53	0x3e386b64	0.18009716
54	0xbec590f7	-0.38587162
55	0xbdbf65e4	-0.09345606
56	0xbcb46503	-0.022020822
57	0x3e2af0e0	0.16693449
58	0xbd03b90d	-0.0321589
59	0x3eb2d473	0.3492771
60	0xbf9caeca	-1.2240841
61	0xbf001435	-0.50030833
62	0xbeb289d4	-0.3487078
63	0x3dd39a4c	0.10332164
64	0x3eb82c94	0.3597151
65	0xbeabf8f0	-0.33588362
66	0x3ea949f5	0.33064237
67	0xbee39e2f	-0.44456622
68	0x3ec60564	0.38675988
69	0x3ecc76c2	0.39934355
70	0xbe8e8c3a	-0.2784136
71	0xbe38a410	-0.18031335
72	0xbef1ba65	-0.4721252
73	0x3ee84517	0.4536521
74	0xbdce914d	-0.10086308
75	0xbe26a571	-0.16274048
76	0x3e374239	0.17896356
77	0x3ec71c20	0.38888645
78	0x3ef2e2a7	0.47438547
79	0x3e54e3c6	0.20790014
80	0xbedf67d0	-0.4363389
81	0xbf486122	-0.7827321
82	0xbe3049c2	-0.17215636
83	0xbf2066de	-0.6265696
84	0xbe0b6d15	-0.1361583
85	0x3eaeb35e	0.3412122
86	0xbedca813	-0.4309698
87	0x3e84978c	0.2589687
88	0xbeeda02c	-0.46411264
89	0xbfcdd44b	-1.6080412
90	0xbe964105	-0.2934648
91	0xbea4192d	-0.32050458
92	0xbe8f3bd1	-0.27975324
93	0xbdbe4f3e	-0.09292458
94	0xbf49341f	-0.78595155
95	0x3f7b5aa6	0.98185194
96	0xbf0bb729	-0.54576355
97	0xbe78ef99	-0.24310149
98	0xbea7f1e5	-0.32801738
99	0xbc7c27e7	-0.015390373
100	0xbe4b1bbb	-0.19834797
101	0x3db0ec70	0.08638847
102	0xbd53d9bd	-0.051721323
103	0xbf01b854	-0.5067189
104	0x3a91cb91	0.001112329
105	0xbc3de4ef	-0.011590227
106	0xbe86ad40	-0.26304054
107	0xbea52e2e	-0.32261795
108	0xbf28818e	-0.65822685
109	0xbed3b231	-0.41346887
110	0xbecbdc53	-0.39816532
111	0xbdbb717e	-0.09152506
112	0x3e0086ee	0.12551472
113	0xbde9ea8e	-0.11421691
114	0x3e31ae2c	0.17351598
115	0x3dd8cbcb	0.105857454
116	0x3f4b025f	0.79300493
117	0x3f21e34e	0.63237464
118	0xbe9800c1	-0.29688075
119	0xbe90fe91	-0.2831922
120	0x3cc7b14c	0.024376534
121	0xbe919f48	-0.28441834
122	0xbebbe3e8	-0.36697316
123	0x3e44e2c7	0.19227134
124	0x3e4d1293	0.20026617
125	0x3e8fb89a	0.28070527
126	0x3e0f6452	0.14003113
127	0xbe15445a	-0.14576855
128	0x3e5628a3	0.20913939
129	0x3e1f7a58	0.15574014
130	0xbf2fda8e	-0.68692863
131	0x3f062f2e	0.5241574
132	0x3f058bee	0.5216664
133	0xbf0f3b56	-0.55949914
134	0x3e38b7af	0.1803882
135	0x3f026031	0.50928026
136	0x3e864782	0.2622643
137	0x3becf37c	0.007231174
138	0x3e832791	0.25616124
139	0x3e4ad2ef	0.19807027
140	0xbb22b232	-0.002482545
141	0xbf290b1b	-0.6603257
142	0x3e23b11d	0.15985532
143	0xbed9b409	-0.42520168
144	0x3e9b4b09	0.30330685
145	0x3eb1f682	0.34758383
146	0x3f3439ab	0.70400494
147	0x3eb3fccc	0.35153806
148	0xbef79fa0	-0.48363972
149	0xbd9a8104	-0.07544139
150	0xbb4543a1	-0.0030100124
151	0x3d3eef97	0.04661521
152	0x3e5355c7	0.2063819
153	0x3e657483	0.22407727
154	0x3ea0840b	0.3135074
155	0x3dc45bd5	0.09587828
156	0x3e10fa85	0.14158066
157	0xbd772b99	-0.060344312
158	0x3c9a713c	0.018852822
159	0xbd7f5e1a	-0.0623456
160	0x3e998a9b	0.2998856
161	0xbe3b9bcb	-0.18321149
162	0x3f2fb816	0.6864027
163	0xbf4c2ef3	-0.7975914
164	0x3e6def29	0.23235764
165	0x3f90648a	1.1280682
166	0xbf2f4e6e	-0.6847905
167	0x3e42acd0	0.19011235
168	0xbec5922b	-0.3858808
169	0xbfc8cd0d	-1.5687577
170	0xbf043111	-0.5163737
171	0xbf2e6ef3	-0.68138045
172	0xbe9909da	-0.2989033
173	0x3e8cf93c	0.275339
174	0xbcedc23c	-0.029023282
175	0x3fa458bd	1.2839581
176	0x3ec685f4	0.38774073
177	0x3d3eda46	0.04659488
178	0x3eee93be	0.46597093
179	0xbf1430a1	-0.578867
180	0x3ec612af	0.3868613
181	0x3ec101fc	0.37696826
182	0xbf0c8630	-0.54892254
183	0xbef607d0	-0.48052835
184	0xbf191cc1	-0.598095
185	0x3e7014c9	0.23445429
186	0xbf1d39e7	-0.61416477
187	0xbce41225	-0.027840683
188	0x3ea3fbaa	0.32027942
189	0x3e46f587	0.19429599
190	0x3be635bd	0.007025449
191	0x3edafc2a	0.4277051
192	0x3dec6caa	0.115441635
193	0x3d51aedb	0.051192146
194	0xbef1cea6	-0.47227973
195	0x3e37f2bc	0.1796369
196	0x3ef9cf42	0.48790938
197	0xbe85f9ec	-0.26167238
198	0x3eb1f18f	0.34754607
199	0x3d05ae6f	0.032637056
200	0x3cebfa4e	0.028805878
201	0x3e68f98b	0.22751443
202	0x3e51dac5	0.2049361
203	0x3e8b495e	0.27204412
204	0xbe0a5ea2	-0.13512662
205	0xbf1c9173	-0.6115944
206	0x3df5ba02	0.11998369
207	0xbea82651	-0.32841733
208	0xbd365529	-0.04451481
209	0x3e280be8	0.16410792
210	0x3f26e2fb	0.65190095
211	0x3c491f88	0.012275584
212	0xbf7a5a34	-0.9779389
213	0xbf84cb1c	-1.0374484
214	0x3ea607eb	0.32427916
215	0x3e48f1a8	0.19623435
216	0x37c50100	2.3484696e-05
217	0x3e3f227a	0.18665496
218	0x3e46c2b9	0.19410218
219	0x3eec6ed0	0.46178293
220	0x3ddb4875	0.107071795
221	0x3f21798e	0.630761
222	0x3e0a10b5	0.13482936
223	0x3e7b2164	0.24524456
224	0xbe808086	-0.25098056
225	0xbc257a31	-0.0100999335
226	0xbe039435	-0.12849505
227	0xbeeb71de	-0.4598531
228	0x3ecf935c	0.40542114
229	0x3e192f14	0.14959365
230	0xbe66eddc	-0.22551674
231	0xbe9da8ca	-0.30792838
232	0xbebdfda0	-0.37107563
233	0xbed640ef	-0.41846415
234	0xbe97e231	-0.29664758
235	0xbecf349e	-0.4046983
236	0xbdcbc318	-0.099493206
237	0x3efe20db	0.49634442
238	0xbd134494	-0.035954073
239	0x3e3647c3	0.17800812
240	0x3e30cd38	0.17265785
241	0x3dd3cf2f	0.103422515
242	0x3ede72cd	0.4344696
243	0x3ed85e95	0.4225966
244	0xbf09b5c4	-0.5379298
245	0xbe825d5c	-0.25461853
246	0xbc96d48d	-0.018411899
247	0x3ea3cecd	0.31993714
248	0x3bea32e9	0.0071471822
249	0x3e89bc5a	0.26901513
250	0x3e0ce20c	0.13758105
251	0x3e8fe5bf	0.2810497
252	0xbd232d5d	-0.039838184
253	0x3e8e3036	0.27771157
254	0x3e47813b	0.19482891
255	0xbc288540	-0.0102856755

bias f4 [16]
0	0x3df7fc8f	0.121087186
1	0xbcc48cd0	-0.023992926
2	0xbea2a5df	-0.31767175
3	0x3eda6e1f	0.4266214
4	0xbec837ae	-0.3910498
5	0x3e54a92b	0.20767657
6	0x3ded7ab5	0.1159567
7	0xbe92e5d4	-0.2869097
8	0x3ea31e08	0.3185885
9	0x3e7299e7	0.23691522
10	0xbe925bb5	-0.28585592
11	0xbef5ebea	-0.4803155
12	0x3f4c4d27	0.79805225
13	0xbe50f2d5	-0.20405133
14	0xbee9dd77	-0.45676777
15	0x3e887422	0.26651102

weight f4 [16, 16]
0	0xbccc3c50	-0.024931103
1	0xbda43127	-0.080171876
2	0xbf2e2f19	-0.68040615
3	0xbe879387	-0.26479742
4	0xbf0569d4	-0.52114606
5	0xbe9560be	-0.2917537
6	0xbdee5092	-0.11636461
7	0x3de40987	0.1113463
8	0xbe04031b	-0.1289181
9	0xbe3d6794	-0.18496543
10	0xbe831b71	-0.25606874
11	0x3e41f783	0.18942074
12	0x3dff9729	0.124800034
13	0xbe6202e8	-0.22071421
14	0xbebd5934	-0.3698212
15	0x3dc51596	0.09623258
16	0x3d6707f3	0.056404065
17	0x3cfbe737	0.0307499
18	0xbdb62d06	-0.08895306
19	0xbe746403	-0.23866276
20	0x3d0dcdff	0.03462028
21	0xbed8a529	-0.42313507
22	0x3e90287a	0.2815588
23	0xbf02bd04	-0.51069665
24	0x3df2ca9e	0.118550524
25	0x3f477009	0.7790533
26	0x3eff77f5	0.49896207
27	0xbf0e2075	-0.55518275
28	0xbe59c5a1	-0.21266796
29	0xbed95373	-0.4244648
30	0xbefdbba4	-0.4955722
31	0x3f158ed6	0.58421075
32	0x3dea9c2d	0.114555694
33	0x3f248910	0.6427164
34	0xbe5ee3c1	-0.21766569
35	0x3e989c4e	0.2980675
36	0xbeae0073	-0.33984718
37	0x3eaab33d	0.33339873
38	0xbec3cd38	-0.38242507
39	0x3c8bd81f	0.017070828
40	0x3effb927	0.49945948
41	0x3db4bbc5	0.08824877
42	0x3e1720f7	0.14758669
43	0xbd0c5d92	-0.034268923
44	0xbdec79bc	-0.115466565
45	0x3e2cacaa	0.16862741
46	0x3e36a54a	0.1783649
47	0x3e9855d5	0.29752985
48	0xbe3235aa	-0.17403284
49	0x3e88e762	0.2673903
50	0x3e2989e4	0.16556507
51	0xbf0a6743	-0.54063815
52	0x3e9d5022	0.307252
53	0xbec80c7b	-0.39072022
54	0xbe552cee	-0.2081792
55	0xbec112a7	-0.37709543
56	0xbf0f2fe0	-0.55932426
57	0x3ec3cafe	0.38240808
58	0x3e5b3f25	0.21410806
59	0xbeb59323	-0.3546382
60	0xbe0230e0	-0.12713957
61	0xbdb9a939	-0.0906548
62	0xbed6cef9	-0.41954783
63	0x3f455c28	0.77093744
64	0xbe985fc5	-0.29760566
65	0xbd917f3d	-0.07104347
66	0xbe414cd1	-0.1887696
67	0x3e4f4bec	0.20243806
68	0xbe6b49fa	-0.22977439
69	0x3d74ff9f	0.05981409
70	0x3da7684e	0.081741914
71	0x3eb9a378	0.3625753
72	0x3e04925f	0.12946461
73	0xbe014647	-0.12624465
74	0xbe5b082c	-0.21389836
75	0x3e20931f	0.15681122
76	0xbe54fa65	-0.20798643
77	0x3dc9e5c3	0.09858277
78	0x3e23bab3	0.15989189
79	0xbe1317cf	-0.14364551
80	0xbe40be33	-0.18822555
81	0xbe8a3a3f	-0.26997563
82	0xbe407864	-0.18795925
83	0xbe889fab	-0.26684317
84	0x3dd5c821	0.10438562
85	0xbf368214	-0.71292233
86	0x3f55e462	0.8355161
87	0x3ef057a1	0.46941856
88	0xbf4e1500	-0.80500793
89	0x3f26a276	0.65091646
90	0x3ea3a840	0.31964302
91	0x3dd9a9d5	0.10628096
92	0xbf0c1377	-0.547172
93	0xbd9bed02	-0.07613565
94	0xbe88da87	-0.26729223
95	0x38aacc80	8.144323e-05
96	0xbeaa7c01	-0.33297732
97	0x3ed4708a	0.4149211
98	0x3d784c75	0.06061979
99	0xbf0eb3d9	-0.55743176
100	0x3de9d12e	0.11416851
101	0xbeed0f3a	-0.4630068
102	0xbd3b59b6	-0.045739852
103	0xbf075536	-0.52864397
104	0xbf051219	-0.5198074
105	0x3f23dfbb	0.6401326
106	0x3e4773b9	0.19477738
107	0xbf006fb3	-0.5017044
108	0xbe1dfc6f	-0.15428327
109	0xbf08ec97	-0.5348601
110	0xbf0e3dcf	-0.5556306
111	0x3f171cf5	0.5902856
112	0x3c9e6507	0.019335283
113	0x3e925ea9	0.28587845
114	0x3f12fdbf	0.57418436
115	0xbd381f90	-0.044951975
116	0x3deb1adf	0.11479735
117	0xbdfa7ced	-0.12230859
118	0xbdf2177e	-0.11820887
119	0xbebda0cb	-0.37036738
120	0x3f1764e7	0.5913834
121	0x3eb20f62	0.3477736
122	0x3ad054ba	0.0015894391
123	0x3cf22696	0.029559415
124	0x3eae2a01	0.3401642
125	0x3e53eddb	0.20696203
126	0x3e331e21	0.17491962
127	0xbd3f77bf	-0.04674506
128	0xbcbb289c	-0.022846512
129	0x3f0dcce7	0.5539078
130	0xbd705f51	-0.05868465
131	0xbdec2f0b	-0.1153241
132	0xbeec2704	-0.46123517
133	0xbf47c124	-0.78029084
134	0xbcbceba8	-0.023061588
135	0xbeb26be5	-0.34847942
136	0xbe0fc8cb	-0.1404144
137	0x3e9a318a	0.3011592
138	0x3f038a4a	0.5138289
139	0xbee5ab1a	-0.44857103
140	0x3d839ecc	0.064267725
141	0xbd8a9547	-0.06766754
142	0xbf1b14fa	-0.6057888
143	0x3ec4a2d6	0.38405484
144	0xbea2355e	-0.3168134
145	0xbf44f810	-0.76941013
146	0x3e9d86fc	0.30767047
147	0x3eb378ee	0.350532
148	0x3cbda4a2	0.023149792
149	0x3f6fe125	0.9370292
150	0x3ed9b43c	0.4252032
151	0x3ea9f403	0.3319398
152	0xbe92b916	-0.28656834
153	0xbf352045	-0.70752364
154	0xbe89fba1	-0.2694979
155	0x3f322428	0.6958642
156	0x3ec6f390	0.38857698
157	0x3db8a2eb	0.09015449
158	0x3f188d31	0.5959044
159	0xbf3b6670	-0.7320318
160	0xbf9fe78f	-1.2492541
161	0xbddd048b	-0.10791882
162	0xbea39cfb	-0.31955704
163	0xbf02a3f1	-0.51031405
164	0xbdd83bb0	-0.105582595
165	0xbe90e41d	-0.28299037
166	0xbe228fd6	-0.15875182
167	0xbe679346	-0.22614774
168	0xbf553277	-0.8328013
169	0xbcfdafa9	-0.03096755
170	0xbbeee573	-0.007290536
171	0xbe0467fe	-0.12930295
172	0x3eabf2f9	0.3358381
173	0xbf4a1f87	-0.78954357
174	0xbe976a68	-0.2957337
175	0xbb76a53a	-0.0037635104
176	0x3e243b95	0.16038354
177	0x3e4c7fee	0.19970676
178	0xbec38138	-0.38184524
179	0x3ea2f43a	0.31826955
180	0xbe6c8b29	-0.2309996
181	0x3e9d1e4d	0.3068718
182	0xbdcdbfb4	-0.1004633
183	0xbdb953c7	-0.090491824
184	0x3ee4c9b7	0.44685146
185	0x3e748085	0.23877151
186	0x3d0425c4	0.03226258
187	0xbe70644f	-0.23475765
188	0x3d3c5d9a	0.045987703
189	0x3e6cf17a	0.23138991
190	0x3eac241c	0.336213
191	0x3db5bb54	0.08873621
192	0xbdce7f89	-0.10082919
193	0x3f2b57a3	0.669306
194	0xbe53bbdb	-0.2067713
195	0xbec2a05f	-0.38012978
196	0xbf281d84	-0.6567004
197	0xbed2e0c9	-0.41187122
198	0xbe3f9feb	-0.18713348
199	0xbd8a4519	-0.067514606
200	0xbf1e817f	-0.61916345
201	0x3f21836c	0.6309116
202	0x3eace80c	0.33770788
203	0xbf408c70	-0.7521429
204	0x3dd6eec0	0.10494757
205	0xbec4468c	-0.38335073
206	0xbf1a8c23	-0.6037008
207	0x3f2183dc	0.63091826
208	0x3f38175d	0.7191065
209	0xbf444086	-0.76660955
210	0x3ed2bfc0	0.4116192
211	0x3ec01320	0.3751459
212	0x3ececd6b	0.40391096
213	0x3f19e6b0	0.60117626
214	0x3ea20318	0.31642985
215	0x3e1d2aca	0.15348354
216	0x3e48314c	0.19550055
217	0xbe8b0d05	-0.2715837
218	0xbef53755	-0.47893777
219	0x3e245db0	0.16051364
220	0x3ed69956	0.4191386
221	0x3e9bc655	0.30424753
222	0x3f0c61db	0.54836816
223	0xbe4423d6	-0.19154295
224	0x3eb67bc3	0.35641298
225	0x3d4ae7e1	0.049537543
226	0xbed48667	-0.4150879
227	0xbe67ba0f	-0.2262957
228	0x3d652a9c	0.05594884
229	0xbda9941f	-0.08280205
230	0xbe0aec2f	-0.1356666
231	0xbe041191	-0.12897326
232	0x3e4d119a	0.20026246
233	0x3e23bbe2	0.1598964
234	0x3ec92dfc	0.39292896
235	0xbde6b15c	-0.11264297
236	0xbeeb16c2	-0.459158
237	0xbeb33d7b	-0.35007843
238	0xbd9ebcf6	-0.07750885
239	0xbdf59935	-0.119921125
240	0x3f3ea8c5	0.7447627
241	0xbf1e399e	-0.61806667
242	0x3ee621a0	0.4494753
243	0x3f1f54ad	0.6223858
244	0x3e5e23de	0.2169337
245	0x3f1150f8	0.56764174
246	0xbda4f341	-0.080542095
247	0x3f02d26e	0.5110234
248	0xbd0a58fe	-0.033776276
249	0xbf5d7b22	-0.8651601
250	0xbf2f19f0	-0.6839895
251	0x3f4f0fa3	0.80883235
252	0x3e858ca8	0.26083875
253	0x3f259239	0.64676243
254	0x3f04b7b0	0.51842785
255	0xbf0f06da	-0.5586983

weight f4 [16, 16]
0	0xbed53529	-0.4164212
1	0x3df47736	0.119368
2	0x3ebfaf6d	0.37438527
3	0xbe5db8ff	-0.21652602
4	0x3e220552	0.15822342
5	0xbeae41a5	-0.34034458
6	0xbe21dbe6	-0.15806541
7	0xbe94baa8	-0.29048657
8	0xbe104da8	-0.14092124
9	0x3edb537c	0.4283713
10	0xbe449bb6	-0.19200024
11	0xbe44a619	-0.19203986
12	0x3e03548d	0.12825222
13	0xbf035299	-0.5129791
14	0xbde582f6	-0.112066194
15	0x3e7d5a80	0.24741554
16	0x3e1aa9ec	0.15103883
17	0x3de3d22f	0.11124074
18	0xbe51486e	-0.20437786
19	0x3e431396	0.1905044
20	0xbe909668	-0.2823975
21	0x3e4717d8	0.1944269
22	0x3edc0680	0.4297371
23	0x3ea0a02b	0.31372198
24	0xbda23a5a	-0.07921286
25	0xbf21f3b3	-0.6326248
26	0x3f14bd3e	0.5810126
27	0xbd04f48b	-0.032459777
28	0xbf5c2c6b	-0.86005276
29	0x3e209552	0.15681961
30	0xbceb9502	-0.028757576
31	0xbeffdd3c	-0.49973476
32	0xbe49bd59	-0.19701137
33	0x3e458823	0.19290213
34	0x3ec2d60e	0.38053936
35	0xbe98896b	-0.29792342
36	0x3e9fe7d2	0.31231552
37	0x3dcb4d6b	0.09926876
38	0xbe1ba42b	-0.15199344
39	0x3d9cd5b0	0.07657945
40	0x3e90854f	0.28226706
41	0x3dcb12d9	0.09915704
42	0xbeefbfe6	-0.46826094
43	0x3d29c36b	0.04144613
44	0x3eca8f12	0.3956228
45	0xbe04e216	-0.1297687
46	0x3eb88d2a	0.360452
47	0x3e40b0e3	0.18817477
48	0xbc81fe46	-0.015868317
49	0x3edd74e9	0.43253258
50	0xbea1c4fd	-0.31595603
51	0xbed5bc76	-0.41745347
52	0x3f2ac662	0.6670896
53	0xbea017a8	-0.31268048
54	0xbe23d941	-0.16000845
55	0xbdd311c1	-0.10306121
56	0xbe5b756c	-0.21431512
57	0x3f033b2c	0.51262164
58	0xbece5382	-0.40298086
59	0xbe00c114	-0.12573653
60	0x3e2f0c72	0.17094591
61	0xbee7a79f	-0.45245072
62	0xbf0a4c89	-0.54023033
63	0xbce9ac50	-0.028524548
64	0x3d7b3357	0.06132826
65	0x3e8a06b3	0.26958236
66	0xbdb142a5	-0.086552896
67	0x3d60a8af	0.05484837
68	0xbedbcb4b	-0.42928538
69	0x3e2db01a	0.16961709
70	0x3d8200a8	0.063477814
71	0xbe8dd94b	-0.27704844
72	0x3e88564a	0.26628333
73	0x3bef464a	0.0073020803
74	0x3d0860be	0.033295386
75	0xbcad59b0	-0.02116093
76	0xbebd47bc	-0.3696879
77	0x3cf38479	0.029726254
78	0x3e38c741	0.1804476
79	0xbe27f7cc	-0.16403121
80	0xbe97570e	-0.29558605
81	0xbf014dc4	-0.50509286
82	0xbea592ed	-0.32338658
83	0x3d990b09	0.07472808
84	0xbde2766c	-0.110577434
85	0x3e460458	0.19337595
86	0x3f24029d	0.6406649
87	0x3e90a5a9	0.2825139
88	0x3e2b1db6	0.16710553
89	0xbeb14a95	-0.34627214
90	0x3df59ee4	0.119931966
91	0x3edd30b8	0.43201232
92	0xbe215449	-0.15754808
93	0x3e91e5ed	0.28495732
94	0xbe6a81e2	-0.22901109
95	0xbe94168a	-0.28923446
96	0xbb379220	-0.0028010681
97	0xbb63678c	-0.003469917
98	0x3db1a81c	0.086746424
99	0xbeb39386	-0.3507349
100	0x3dc94adc	0.098287314
101	0xbdfe3a0b	-0.124134146
102	0xbe33e148	-0.17566407
103	0xbef4a20c	-0.47779882
104	0x3f0ea181	0.55715185
105	0x3dd34af3	0.1031703
106	0xbe937166	-0.28797454
107	0xbe67b040	-0.22625828
108	0x3eb0306e	0.3441195
109	0xbdc0fc32	-0.094231024
110	0x3e832623	0.25615034
111	0x3ea6d315	0.32582918
112	0x3e35ba9f	0.17746972
113	0x3d8f83d2	0.070075646
114	0x3f036a5e	0.5133418
115	0xbf05567a	-0.5208508
116	0x3ef5fe6c	0.4804567
117	0xbea4afed	-0.3216547
118	0xbea83bb7	-0.3285806
119	0xbe5bb345	-0.21455105
120	0xbf21351e	-0.62971675
121	0x3f031284	0.5120013
122	0xbed42a88	-0.414387
123	0xbdea244e	-0.11432706
124	0x3e93c4f8	0.28861213
125	0xbde2e10e	-0.11078082
126	0x3df8aa34	0.12141839
127	0x3ef67030	0.48132467
128	0x3d93a588	0.07209307
129	0x3f01300f	0.50463957
130	0x3ef2c891	0.47418645
131	0xbe474103	-0.19458394
132	0x3db8aa16	0.09016816
133	0xbe03c6f0	-0.12868857
134	0xbea50e26	-0.32237357
135	0xbee32ff6	-0.4437253
136	0x3f3ace01	0.72970587
137	0x3e54e7ac	0.20791501
138	0xbeeb55c7	-0.4596388
139	0x3c9ca220	0.019120276
140	0x3ed47110	0.4149251
141	0xbe644d2a	-0.22295061
142	0x3d73118c	0.059342906
143	0x3b2e7d14	0.0026624845
144	0xbccc328f	-0.024926452
145	0x3e899af7	0.2687604
146	0x3eeea827	0.46612665
147	0xbe0c2246	-0.1368495
148	0x3e8b53cc	0.2721237
149	0xbe5bb798	-0.21456754
150	0xbd98a249	-0.074528284
151	0xbe439e52	-0.19103363
152	0x3f9e8999	1.2385741
153	0x3ec2702a	0.379762
154	0xbed92f0e	-0.42418712
155	0xbeebf72b	-0.46087012
156	0x3ed80aba	0.42195684
157	0xbdda82e4	-0.10669497
158	0x3d9be117	0.07611292
159	0x3e6baad3	0.23014383
160	0x3e9b6ee5	0.30358043
161	0xbde66211	-0.112491734
162	0x3e0dcff5	0.1384886
163	0xbed7ff18	-0.4218681
164	0x3de07303	0.10959437
165	0xbed0aa99	-0.40755156
166	0xbe8b12d2	-0.27162796
167	0xbe973847	-0.29535124
168	0x3df2b832	0.11851539
169	0x3e95b61b	0.29240498
170	0xbec0145d	-0.37515536
171	0xbd910fcb	-0.070830904
172	0x3db14cd5	0.08657233
173	0xbded04f3	-0.115732096
174	0x3d983798	0.07432479
175	0x3ea06c32	0.31332546
176	0x3eabd478	0.33560538
177	0xbf21beba	-0.6318165
178	0xbdbf200e	-0.09332286
179	0x3ebbd4f6	0.36685914
180	0xbd9e8d4f	-0.07741796
181	0x3f0cdd72	0.550254
182	0x3f0a81b0	0.5410414
183	0x3efcfac8	0.4941008
184	0x3efb67f8	0.4910276
185	0xbf103181	-0.56325537
186	0x3ed0fb60	0.40816784
187	0x3ef80a47	0.4844534
188	0xbc591131	-0.013248728
189	0x3ea0b113	0.31385097
190	0xbd48cfdc	-0.049026355
191	0xbe837a4d	-0.25679246
192	0x3d21396c	0.039361402
193	0x3d9f6e2e	0.07784687
194	0xbe192071	-0.14953782
195	0xbe063a0e	-0.13108084
196	0xbe30e172	-0.172735
197	0x3eba1f4e	0.3635201
198	0x3d3b1e48	0.045683175
199	0xbdea184c	-0.114304155
200	0x3e8d0526	0.2754299
201	0xbe230121	-0.159184
202	0x3e2101d3	0.15723352
203	0xbe6f4ed3	-0.23369913
204	0x3dd02dbe	0.10164975
205	0xbec4afe7	-0.38415453
206	0xbeaf7ec5	-0.34276405
207	0xbe485da8	-0.19566977
208	0xbe8ce155	-0.27515665
209	0xbee1ea0a	-0.4412387
210	0xbecaea1b	-0.39631733
211	0x3c7fdc24	0.01561645
212	0xbed292ba	-0.41127568
213	0x3cffed08	0.031240955
214	0x3ee8e6c0	0.45488548
215	0x3cb6f337	0.02233277
216	0x3ea7b5a0	0.32755756
217	0xbeb23fdc	-0.34814346
218	0x3ec5876e	0.38579887
219	0x3ed0e0dd	0.40796557
220	0xbea6ee27	-0.3260357
221	0x3ee56056	0.4480006
222	0xbe0a14dd	-0.13484521
223	0xbed101e1	-0.40821746
224	0x3eb2310b	0.34803042
225	0x3e7b081b	0.2451481
226	0x3e895643	0.26823625
227	0xbdcea025	-0.10089139
228	0xbdf678a7	-0.12034731
229	0xbe5ee08e	-0.21765348
230	0xbe1c8c34	-0.15287858
231	0xbec895db	-0.3917683
232	0xbf064582	-0.5244981
233	0x3e93cc23	0.2886668
234	0xbee56ace	-0.44808048
235	0xbea4bf5c	-0.32177246
236	0x3e44f9aa	0.19235864
237	0xbebe775c	-0.3720044
238	0x3d8ecd03	0.06972697
239	0x3ea2eccd	0.3182129
240	0x3e7154d8	0.23567522
241	0x3eae5046	0.3404562
242	0x3e6b468d	0.22976132
243	0xbe8496f0	-0.25896406
244	0x3e4628d9	0.1935152
245	0xbd309c00	-0.043117523
246	0xbe9d85d4	-0.30766165
247	0xbeef6577	-0.467571
248	0x3f241789	0.6409841
249	0x3daea615	0.085277714
250	0xbe56c147	-0.20972167
251	0xbdc19488	-0.09452158
252	0x3eb86f24	0.36022294
253	0xbee672ae	-0.4500937
254	0x3d8da992	0.069171086
255	0x3de3b91d	0.11119292
