mlartifacts/403163061964527456/b1d5a094c1a0400d8ee1bda497ec08d4/artifacts/models/data/model.pth (torch, 310178 bytes, 178 tensors)

att_src f4 [1, 1, 32]
0	0x3ec6c63c	0.38823116
1	0xbeb228aa	-0.3479665
2	0xbec041ac	-0.37550104
3	0x3eb5f156	0.35535687
4	0x3e3628b7	0.17788969
5	0xbc483241	-0.012219013
6	0xbe468e76	-0.19390282
7	0xbebee47f	-0.37283704
8	0x3e168b29	0.14701523
9	0x3c99a974	0.01875756
10	0xbeaf9a7c	-0.3429755
11	0xbeb7d90f	-0.3590779
12	0x3eac1ab4	0.33614123
13	0xbed19912	-0.40937096
14	0xbb7a30e8	-0.0038176123
15	0xbc3c9de9	-0.011512258
16	0x3df876ad	0.121320106
17	0xbe431526	-0.19051036
18	0x3c5dafe6	0.013530707
19	0x3ec0e802	0.37677008
20	0x3d5f16fc	0.05446528
21	0xbeb305c8	-0.34965348
22	0x3dd8dc37	0.10588878
23	0x3eaf103e	0.3419208
24	0x3eb24a81	0.34822467
25	0xbe85c960	-0.261302
26	0x3c19c783	0.009385946
27	0xbec55026	-0.3853771
28	0x3e2e7d26	0.17039928
29	0xbd6b7c6c	-0.057491705
30	0x3eb0a749	0.34502628
31	0x3e87b7f6	0.2650754

att_dst f4 [1, 1, 32]
0	0x3dd4ecae	0.103967056
1	0x3d8bd9e4	0.06828669
2	0xbeb674b1	-0.35635903
3	0xbeb89e4d	-0.36058274
4	0x3ea061e7	0.31324694
5	0x3ea74db3	0.32676467
6	0x3e4b26c9	0.19839014
7	0x3e3d95a3	0.18514113
8	0x3e8ee041	0.27905467
9	0x3e26a770	0.1627481
10	0x3defcaf6	0.117086336
11	0x3eba6477	0.36404774
12	0xbdcb0a4f	-0.099140756
13	0x3ea694d7	0.3253543
14	0x3e99191d	0.29901972
15	0xbeadc49a	-0.33939058
16	0xbe377d43	-0.17918877
17	0x3eba6ec1	0.36412624
18	0x3e83b12b	0.25721106
19	0xbcabb975	-0.020962456
20	0x3e861c70	0.2619357
21	0xbdbacaaf	-0.0912069
22	0x3e306542	0.17226127
23	0x3e258334	0.16163331
24	0x3ec8e5e5	0.39237896
25	0xbea4df2b	-0.32201514
26	0xbd4b6425	-0.049656052
27	0xbe6c9579	-0.23103894
28	0xbea696e6	-0.32537
29	0xbe4e0bc7	-0.2012168
30	0xbd28443f	-0.04108071
31	0xbdddfbf5	-0.108390726

bias f4 [32]
0	0x3e0c6eed	0.1371419
1	0xbe3023bb	-0.1720113
2	0x3e740aa9	0.23832192
3	0x00000000	0.0
4	0x3e5961b3	0.21228676
5	0x3e1ceb64	0.1532417
6	0xbe4c9f63	-0.19982676
7	0xbe588c41	-0.21147253
8	0x3e302375	0.17201026
9	0x00000000	0.0
10	0xbdfebcd6	-0.12438361
11	0x3e5ae704	0.21377188
12	0x3e3022e0	0.17200804
13	0xbe1d9c03	-0.15391545
14	0x3e3023a5	0.17201097
15	0x3e30263b	0.17202084
16	0x3e9cca36	0.30623025
17	0x3e62f0ec	0.22162217
18	0x00000000	0.0
19	0x3e1cc559	0.15309657
20	0x3da9e1b4	0.082950026
21	0x00000000	0.0
22	0xbe8282ee	-0.25490516
23	0x00000000	0.0
24	0x3e2c3472	0.16816881
25	0x3df0cb1b	0.11757489
26	0x3e8abb46	0.27096003
27	0xbe1fdfab	-0.15612666
28	0x3e3022ea	0.17200819
29	0x3e3025b3	0.17201881
30	0xbe23026f	-0.15918897
31	0x3e302310	0.17200875

weight f4 [32, 3]
0	0xbe1ff6cb	-0.15621488
1	0xbd959329	-0.07303459
2	0x3d88fe2b	0.06689104
3	0x3e8a1434	0.2696854
4	0xbe03b792	-0.12862995
5	0x3e68542b	0.22688358
6	0xbe28c876	-0.1648272
7	0xbdab627b	-0.08368393
8	0xbe9c19e1	-0.30488494
9	0xbe77550b	-0.24153535
10	0x3e70aaff	0.2350273
11	0xbe8ffbec	-0.2812189
12	0x3e8eb8b5	0.27875295
13	0xbdc004b8	-0.093759
14	0x3ebba5b8	0.3664987
15	0x3e69b916	0.22824511
16	0xbe39cf8b	-0.18145578
17	0x3e8e227c	0.27760684
18	0x3dda162e	0.10648762
19	0x3e73e985	0.2381955
20	0x3df837cf	0.1212002
21	0xbeb15c58	-0.34640765
22	0x3ce22af4	0.027608372
23	0x3ebbd502	0.3668595
24	0xbe9f5923	-0.31122693
25	0xbe614d28	-0.22002089
26	0xbe2a3951	-0.16623427
27	0x3e238fa5	0.15972765
28	0x3d37b18e	0.044847064
29	0x3eaac01b	0.3334969
30	0xbe057bf9	-0.13035573
31	0xbeac5f8d	-0.3366665
32	0x3e7349fc	0.23758692
33	0x3e6c5f80	0.23083305
34	0x3dd4ad7a	0.103846505
35	0x3dba2893	0.0908977
36	0xbea66d56	-0.32505292
37	0x3c8520d2	0.016251002
38	0x3e0b34e6	0.13594398
39	0xbdd88a33	-0.105732344
40	0xbe2109aa	-0.15726343
41	0x3d334f18	0.0437766
42	0x3e5a5113	0.2131999
43	0x3e2132fe	0.15742108
44	0xbe245b64	-0.16050488
45	0xbce05c0e	-0.027387645
46	0x3ed1c2b1	0.4096885
47	0xbe1885e0	-0.1489482
48	0x3e209368	0.15681231
49	0x3ecf92e5	0.4054176
50	0xbd2e5a52	-0.042566605
51	0xbdf8197b	-0.12114235
52	0xbce2bf13	-0.027679002
53	0xbe64aaf7	-0.22330843
54	0xbe5890cd	-0.21148987
55	0xbe223be3	-0.15843157
56	0xbec425b0	-0.38310003
57	0x3e90b961	0.28266433
58	0x3e539e73	0.20665912
59	0x3e99605e	0.29956335
60	0x3cc95bb1	0.024579855
61	0xbd2c908c	-0.04213004
62	0xbe8d3141	-0.2757664
63	0x3d4d1027	0.050064232
64	0xbe0adf4f	-0.13561748
65	0xbdd80c41	-0.10549212
66	0x3e74fcce	0.23924562
67	0x3e13b602	0.14424899
68	0xbc293fc5	-0.010330145
69	0xbe0ad6a0	-0.13558435
70	0xbebfa5bc	-0.37431133
71	0xbe2d2d18	-0.16911733
72	0x3ecc1eda	0.39867288
73	0xbe37df3d	-0.17956252
74	0xbed04b13	-0.40682277
75	0xbebfd0aa	-0.37463886
76	0xbe723a24	-0.23654991
77	0x3e2607f9	0.16213979
78	0x3ec97208	0.3934481
79	0xbeb49493	-0.35269603
80	0xbd58f584	-0.052968517
81	0xbe8f0b77	-0.27938434
82	0x3e3f7c55	0.18699773
83	0x3e2fc261	0.17163993
84	0xbec99403	-0.39370736
85	0xbe601fc6	-0.2188712
86	0x3dc2bbdd	0.09508488
87	0x3ebe92c4	0.37221348
88	0x3e92ca57	0.28669998
89	0x3cb413dd	0.021982128
90	0xbc8d2675	-0.017230252
91	0xbddcc4cf	-0.10779726
92	0xbda93a8a	-0.082631186
93	0x3ec4e62c	0.38456857
94	0x3ec0a9a9	0.3762944
95	0xbde64dc1	-0.11245299

att_src f4 [1, 1, 32]
0	0x3ed49af3	0.41524467
1	0x3e08ebe8	0.13371241
2	0x3e44e3d8	0.1922754
3	0x3d97a565	0.074045934
4	0x3eb8f63d	0.36125365
5	0x3e7e26d9	0.24819507
6	0x3e51ccaf	0.20488237
7	0xbe420d3f	-0.18950365
8	0xbdbca3f5	-0.0921096
9	0x3e323726	0.1740385
10	0x3daf76f9	0.08567614
11	0x3ee1a024	0.4406749
12	0xbef8f68a	-0.48625594
13	0x3e84a442	0.2590657
14	0xbbfeabd6	-0.0077719493
15	0xbd7db062	-0.06193579
16	0x3d8a1617	0.067424946
17	0x3f04e29e	0.5190829
18	0xbe287058	-0.16449106
19	0x3d9fded4	0.07806173
20	0x3f083eb8	0.532207
21	0x3de48503	0.111581825
22	0xbee0f9c5	-0.4394056
23	0xbe97f622	-0.29679972
24	0xbed75aa9	-0.42061356
25	0x3ea77e31	0.32713464
26	0xbe0f7eb2	-0.14013174
27	0xbddf12af	-0.108922355
28	0xbe847a94	-0.2587477
29	0x3e89be65	0.26903072
30	0xbee6efc0	-0.4510479
31	0xbe12a699	-0.14321364

att_dst f4 [1, 1, 32]
0	0x3e5b64cc	0.2142517
1	0x3e742c91	0.23845126
2	0xbe1998c9	-0.14999689
3	0xbcc59d2a	-0.024122793
4	0xbe259d05	-0.1617318
5	0x3c075d0e	0.008261932
6	0x3e2bed5f	0.16789769
7	0x3d46c1c2	0.048524626
8	0xbe3816f5	-0.17977507
9	0x3c34185e	0.010992138
10	0xbf11cc07	-0.56951946
11	0x3ec38218	0.3818519
12	0xbe6a9503	-0.22908406
13	0xbe99640c	-0.29959142
14	0x3e82f007	0.2557375
15	0xbe38660d	-0.1800768
16	0xbdafd245	-0.085850276
17	0xbe9f35be	-0.3109569
18	0x3e0e37b8	0.13888443
19	0xbe51a581	-0.20473291
20	0x3e167157	0.14691673
21	0xbe4c8c75	-0.19975455
22	0xbe88a164	-0.2668563
23	0xbe65a5c9	-0.22426523
24	0x3ef4b4fc	0.4779433
25	0x3edf02f8	0.43556952
26	0xbcf8de3f	-0.030379413
27	0x3dc83b96	0.0977699
28	0x3eee72fe	0.46572107
29	0xbeb9c7da	-0.36285287
30	0x3e15c3ba	0.14625445
31	0xbdbdec34	-0.09273568

bias f4 [32]
0	0xbe6f2169	-0.23352589
1	0xbc89a0e8	-0.016800359
2	0x3e7e1754	0.24813586
3	0x3e8cef88	0.27526498
4	0xbe53db20	-0.20689058
5	0xbb20494d	-0.0024457753
6	0xbe67a363	-0.22620921
7	0xbeb59cb5	-0.3547112
8	0x3e8032f5	0.25038877
9	0x3e8ccd16	0.27500218
10	0x3e859236	0.26088113
11	0xbe74ff41	-0.23925497
12	0x3e33c068	0.17553866
13	0x3e379a02	0.17929843
14	0x3dd69ad7	0.10478752
15	0xbe3bc26d	-0.18335886
16	0xbe2ad81d	-0.16684003
17	0xbe3023bc	-0.17201132
18	0x3e3dd455	0.1853803
19	0xbe96977d	-0.2941245
20	0xbeaddeb2	-0.33958966
21	0xbcf5777b	-0.0299642
22	0x3e3e559c	0.18587345
23	0xbe6f0c35	-0.233445
24	0xbe7868ef	-0.24258779
25	0x3d2aabe8	0.04166785
26	0x3e829c55	0.25509897
27	0xbe7ad7a8	-0.24496329
28	0x3d86335c	0.06552765
29	0xbe08dd4f	-0.13365673
30	0x3e1d515a	0.15363064
31	0x3e81dbe2	0.2536307

weight f4 [32, 3]
0	0x3e3373f3	0.175247
1	0xbec41c53	-0.3830286
2	0xbea45846	-0.32098597
3	0xbe4fdde0	-0.20299482
4	0xbe690951	-0.2275746
5	0xbef7a7c8	-0.48370194
6	0x3f06adbf	0.52608865
7	0x3db37597	0.08762663
8	0x3e4c84fc	0.19972605
9	0xbe9369f5	-0.28791776
10	0x3e2484e6	0.16066322
11	0x3f38023e	0.7187842
12	0x3d24423a	0.04010222
13	0xbe9c88fd	-0.30573264
14	0xbde5a7f9	-0.11213679
15	0xbed88350	-0.42287683
16	0xbf114e1e	-0.5675982
17	0x3f0cc7e7	0.54992527
18	0xbe8386f9	-0.25688913
19	0x3d5b5a38	0.053552836
20	0xbf12700e	-0.5720223
21	0xbd6da884	-0.058022037
22	0x3ebb1827	0.36541864
23	0xbe1654dc	-0.14680809
24	0x3e93301e	0.28747648
25	0x3e504e85	0.20342453
26	0xbea3b61f	-0.31974885
27	0xbee9a624	-0.45634568
28	0xbe77c8c7	-0.24197684
29	0x3f0aa1a1	0.54152876
30	0x3de694e2	0.11258866
31	0xbeed7c9b	-0.4638413
32	0x3d003a07	0.03130534
33	0x3e233c43	0.15940957
34	0xbf0f7c4b	-0.5604903
35	0xbee06910	-0.43830156
36	0xbe4f2275	-0.20227988
37	0x3f34f2fc	0.70683265
38	0x3df59d6b	0.11992916
39	0x3f008644	0.50204873
40	0xbe97c6cc	-0.29643857
41	0xbe32f7e8	-0.17477381
42	0x3e8a5e17	0.2702491
43	0xbc70af4e	-0.014690233
44	0x3e75b57f	0.23995017
45	0x3dc9cb3c	0.09853217
46	0xbde2c0c9	-0.11071927
47	0xbdeb396a	-0.1148556
48	0xbc844c74	-0.016149737
49	0xbe5b6d7c	-0.21428484
50	0xbedc9b73	-0.43087348
51	0xbef9649e	-0.48709577
52	0xbf099bb7	-0.53753227
53	0xbead1e39	-0.3381212
54	0x3e2910c2	0.16510299
55	0xbe5ee7d3	-0.21768121
56	0x3ea99827	0.33123896
57	0x3dfe45d5	0.12415663
58	0x3f00091d	0.50013906
59	0xbcb65c94	-0.022260942
60	0xbf1279c0	-0.57217026
61	0xbeb2456f	-0.348186
62	0xbdf2b373	-0.118506335
63	0xbe382135	-0.17981417
64	0x3e5b1836	0.21395954
65	0xbe7940dc	-0.24341148
66	0xbbfedf77	-0.007778104
67	0x3f358102	0.70899975
68	0x3d975bf8	0.073905885
69	0x3d99990c	0.074998945
70	0x3ed5c14b	0.41749033
71	0xbe377125	-0.17914255
72	0x3ce4261c	0.027850203
73	0x3f0dca26	0.5538658
74	0xbe794f5a	-0.24346676
75	0xbf062423	-0.5239889
76	0xbd2f8ee6	-0.042860888
77	0xbf0107ff	-0.50402826
78	0xbce8ff5b	-0.028442075
79	0xbeac8042	-0.33691603
80	0x3d6c77cf	0.057731446
81	0xbd586a8e	-0.052835993
82	0x3c1bcff9	0.009510034
83	0xbea06547	-0.31327268
84	0xbe448088	-0.19189656
85	0xbd82a555	-0.06379191
86	0x3ea46e77	0.32115528
87	0xbf152dee	-0.5827321
88	0xbec71e81	-0.3889046
89	0xbe9ea0e1	-0.30982116
90	0xbc9086bb	-0.01764237
91	0x3e925f1e	0.28588194
92	0x3ec765a2	0.38944727
93	0x3d5d6c30	0.054058254
94	0x3d8e0713	0.06934943
95	0x3eac76b3	0.3368431

weight f4 [32, 1]
0	0x3e7aaade	0.24479243
1	0x3e24117a	0.16022292
2	0xbc004c1b	-0.007830645
3	0xbd0b41eb	-0.03399841
4	0xbe572f4a	-0.21014133
5	0xbe0b82b7	-0.13624083
6	0xbd9c5215	-0.076328434
7	0x3dcf0de4	0.10110071
8	0x3e70531d	0.23469205
9	0x3ce74de5	0.028235385
10	0x3f0f2a21	0.5592366
11	0xbefa276b	-0.488582
12	0xbe2f1873	-0.1709917
13	0x3e709a30	0.23496318
14	0x3e1acfd6	0.15118346
15	0xbe0b1672	-0.13582781
16	0x3df057dd	0.117355086
17	0xbea9416e	-0.3305773
18	0xbd8b7c4a	-0.06810816
19	0x3e328c13	0.17436247
20	0x3e26b672	0.16280535
21	0x3d2b9af2	0.041895814
22	0xbebc51da	-0.36781198
23	0x3e3bdc69	0.18345799
24	0x3ec65201	0.3873444
25	0xbe91b71a	-0.28460008
26	0xbdf982b0	-0.1218313
27	0x3e05562c	0.13021153
28	0x3e8fd68a	0.28093368
29	0xbec094f9	-0.37613657
30	0x3e81e166	0.25367278
31	0x3e03fe1f	0.12889908

att_src f4 [1, 1, 32]
0	0x3e82bcf6	0.2553479
1	0x3e10ad30	0.14128566
2	0xbebcbeae	-0.36864227
3	0x3e821518	0.25406718
4	0x3cc64296	0.024201673
5	0xbe8ebcb3	-0.2787834
6	0x3e4a0b18	0.19730794
7	0xbcd15848	-0.025554791
8	0x3e1ccd3d	0.15312667
9	0x3e80c839	0.25152758
10	0x3ecf856a	0.40531474
11	0xbcb14cac	-0.021643005
12	0xbe4feb68	-0.20304644
13	0xbe046ad9	-0.12931384
14	0x3d7b70d7	0.06138691
15	0x3ee40ab3	0.44539413
16	0xbc8be8b1	-0.01707873
17	0x3e8b8744	0.27251637
18	0xbe1a24aa	-0.15053049
19	0xbdc110e9	-0.094270535
20	0xbe0c47a8	-0.1369921
21	0xbdda68ab	-0.10664495
22	0x3e9f784b	0.31146464
23	0xbe0cc2f8	-0.1374625
24	0xbebeb93a	-0.37250692
25	0x3ec00b1d	0.3750848
26	0xbebdb57d	-0.37052527
27	0x3e0aa1f4	0.13538343
28	0xbda96180	-0.0827055
29	0x3ec7ccbb	0.39023384
30	0x3dd4a2f8	0.10382646
31	0x3b9de5fc	0.004818676

att_dst f4 [1, 1, 32]
0	0xbe04cd23	-0.12968878
1	0xbf10baf5	-0.56535274
2	0x3c97cf52	0.018531475
3	0x3ec87b01	0.39156345
4	0xbe2a411c	-0.166264
5	0x3e5a20cf	0.21301578
6	0xbe167402	-0.14692691
7	0xbe44e2e3	-0.19227175
8	0x3df4a4a9	0.11945469
9	0x3efea811	0.497376
10	0xbe21c4be	-0.15797707
11	0x3d8121f0	0.06305301
12	0xbefa9648	-0.4894278
13	0xbeb0250e	-0.3440327
14	0xbef8fd1b	-0.48630604
15	0xbbb1b045	-0.0054226243
16	0xbe993c8b	-0.29929003
17	0x3e8eb51f	0.2787256
18	0x3ec8e78a	0.3923915
19	0x3e47e26a	0.19519964
20	0x3ebfc235	0.37452856
21	0x3ecf1d47	0.40452024
22	0xbd03c3b0	-0.032169044
23	0x3b2c154d	0.0026257813
24	0x3e7a3543	0.2443438
25	0x3ee05c05	0.43820205
26	0x3f207737	0.6268191
27	0x3de73bc8	0.11290699
28	0x3e744f12	0.23858288
29	0xbe9aee07	-0.30259725
30	0xbea4aa95	-0.32161394
31	0xbed8b06c	-0.423221

bias f4 [32]
0	0x3e0c6eed	0.1371419
1	0xbe3023bb	-0.1720113
2	0x3e740aa9	0.23832192
3	0x00000000	0.0
4	0x3e5961b3	0.21228676
5	0x3e1ceb64	0.1532417
6	0xbe4c9f63	-0.19982676
7	0xbe588c41	-0.21147253
8	0x3e302375	0.17201026
9	0x00000000	0.0
10	0xbdfebcd6	-0.12438361
11	0x3e5ae704	0.21377188
12	0x3e3022e0	0.17200804
13	0xbe1d9c03	-0.15391545
14	0x3e3023a5	0.17201097
15	0x3e30263b	0.17202084
16	0x3e9cca36	0.30623025
17	0x3e62f0ec	0.22162217
18	0x00000000	0.0
19	0x3e1cc559	0.15309657
20	0x3da9e1b4	0.082950026
21	0x00000000	0.0
22	0xbe8282ee	-0.25490516
23	0x00000000	0.0
24	0x3e2c3472	0.16816881
25	0x3df0cb1b	0.11757489
26	0x3e8abb46	0.27096003
27	0xbe1fdfab	-0.15612666
28	0x3e3022ea	0.17200819
29	0x3e3025b3	0.17201881
30	0xbe23026f	-0.15918897
31	0x3e302310	0.17200875

weight f4 [32, 1]
0	0x3e91c54b	0.28470835
1	0xbc647a18	-0.013945125
2	0xbeb0ae95	-0.34508196
3	0xbe2a6341	-0.16639425
4	0xbe299496	-0.16560587
5	0x3ce9d1f8	0.028542504
6	0xbdb6db63	-0.089285634
7	0x3da9710f	0.08273517
8	0x3e569743	0.2095614
9	0xbe8d9cca	-0.27658683
10	0xbd663f88	-0.056212932
11	0x3ca2e68a	0.01988532
12	0x3f1bea50	0.6090441
13	0xbea353d9	-0.31899908
14	0xbe1c8d7e	-0.1528835
15	0xbe544180	-0.20728111
16	0x3d5d22c9	0.05398825
17	0x3ea98a68	0.33113408
18	0xbda0ed17	-0.07857721
19	0x3db29d96	0.087214634
20	0x3ea4a9b4	0.32160723
21	0xbd8237dd	-0.06358311
22	0xbea72f9f	-0.3265352
23	0xbe420105	-0.18945701
24	0x3eb35fdd	0.35034075
25	0x3e7e176a	0.2481362
26	0xbede1cfe	-0.43381494
27	0x3da9142c	0.082558006
28	0x3e452863	0.19253688
29	0x3e4ffb10	0.20310616
30	0xbde537d9	-0.11192293
31	0x3e5171c4	0.20453554

weight f4 [32, 3]
0	0xbb88a281	-0.0041697626
1	0x3e141860	0.14462423
2	0x3dad4c83	0.08461859
3	0xbd982a4c	-0.074299425
4	0xbec3dcd2	-0.3825441
5	0xbf1fbfbf	-0.62401956
6	0x3e140250	0.14454007
7	0x3e3e3e13	0.18578367
8	0x3a2337ed	0.000622629
9	0x3ee684a7	0.4502308
10	0x3cdc455b	0.02688854
11	0x3e0c7373	0.13715915
12	0xbde05c74	-0.10955134
13	0x3cfa95cf	0.030589012
14	0x3e63ad4c	0.22234076
15	0x3e1a2cc8	0.15056145
16	0x3bbb2f25	0.005712407
17	0x3f2944d2	0.66120636
18	0xbcefa916	-0.029255431
19	0x3df42ee8	0.11923009
20	0xbd0e2e95	-0.034712393
21	0xbec6c5bd	-0.38822737
22	0xbedd9e6b	-0.43284926
23	0x3e161bb3	0.14659004
24	0x3e81ce34	0.25352633
25	0xbd85dacc	-0.06535873
26	0xbebd6ee6	-0.3699867
27	0x3edf4bee	0.43612617
28	0x3f2206bf	0.63291544
29	0x3e92a7a5	0.28643528
30	0xbd1417fd	-0.03615569
31	0xbd22030e	-0.039553694
32	0xbe4984a1	-0.196795
33	0x3e6b07fd	0.22952266
34	0xbf069367	-0.5256867
35	0x3e32b33e	0.17451188
36	0x3dde8378	0.108649194
37	0xbddddd80	-0.108332634
38	0xbf203f0a	-0.6259619
39	0xbef93fda	-0.48681527
40	0x3c613f98	0.013748072
41	0xbe290f11	-0.16509654
42	0xbeed1f74	-0.4631306
43	0xbf21520b	-0.6301581
44	0xbe89ca71	-0.26912263
45	0xbd015c89	-0.03158239
46	0xbe1bc8b9	-0.15213288
47	0x3e15af2d	0.14617606
48	0xbe87ecf6	-0.26547974
49	0xbebc6083	-0.36792383
50	0xbede1142	-0.43372542
51	0x3ef988f6	0.48737305
52	0x3efebd2c	0.49753702
53	0xbb9b1959	-0.0047332463
54	0x3e97760a	0.29582244
55	0x3dcd71b4	0.10031453
56	0x3f20586f	0.6263494
57	0x3dca4591	0.0987655
58	0x3f218365	0.6309112
59	0xbd502ca3	-0.05082382
60	0x3eb0e3ee	0.34548897
61	0x3f20a736	0.62755144
62	0x3ede4ec5	0.4341947
63	0xbe435683	-0.1907597
64	0x3eb5bd5e	0.35496038
65	0x3f12105b	0.57056206
66	0xbd077674	-0.03307195
67	0x3e63a063	0.22229151
68	0x3eb45218	0.35218883
69	0xbe5b08ac	-0.21390027
70	0xbdc00f7f	-0.09377956
71	0x3e21821a	0.15772286
72	0x3e3fea09	0.18741621
73	0x3eb2e68f	0.34941527
74	0x3e3d3f4a	0.18481174
75	0xbdc455bf	-0.09586667
76	0x3edc9ea2	0.43089777
77	0x3f22e2b2	0.6362716
78	0x3b95fb97	0.004577111
79	0x3f197a05	0.5995181
80	0x3f134ddf	0.57540697
81	0xbe3a8997	-0.18216549
82	0x3d84d088	0.06485087
83	0x3e3a1146	0.18170652
84	0xbe803f92	-0.250485
85	0x3ddb6f21	0.107145555
86	0x3dfd8cd7	0.12380379
87	0xbd12aafa	-0.035807587
88	0xbedf53e3	-0.43618688
89	0xbe77454d	-0.2414753
90	0xbe346c23	-0.17619376
91	0xbe04efaf	-0.12982057
92	0xbecb1251	-0.39662412
93	0xbeced95b	-0.40400204
94	0x3df000d6	0.117189094
95	0xbedc7f4f	-0.4306588

att_src f4 [1, 1, 32]
0	0x3eeb1f71	0.45922425
1	0xbc752ee8	-0.014964797
2	0x3f2b1b86	0.6683887
3	0xbec5c5df	-0.38627526
4	0x3e02a1a5	0.12756975
5	0xbc1c7197	-0.009548566
6	0x3ef89ac5	0.4855558
7	0x3dea1c71	0.11431206
8	0x3e27d934	0.1639145
9	0x3e93f7fd	0.28900138
10	0x3df02df3	0.11727514
11	0xbef5324c	-0.47889936
12	0xbe00d97d	-0.12582965
13	0x3e80c6d3	0.2515169
14	0x3e2bf936	0.16794285
15	0xbe82e577	-0.25565693
16	0x3e7372d3	0.2377427
17	0x3de5dfed	0.11224351
18	0xbd407fb5	-0.04699679
19	0x3f343852	0.7039844
20	0xbeb5750a	-0.35440856
21	0xbec13ae0	-0.3774023
22	0xbf18b93a	-0.59657633
23	0x3d187d32	0.03722877
24	0x3e210f6a	0.15728536
25	0xbf23dc82	-0.64008343
26	0xbef90362	-0.48635393
27	0xbed5a410	-0.41726732
28	0xbd118cd5	-0.0355347
29	0xbc6eb0aa	-0.014568487
30	0xbeb854bc	-0.36002147
31	0x3c6f66cb	0.01461191

att_dst f4 [1, 1, 32]
0	0xbec4d697	-0.3844497
1	0xbe3ad17a	-0.18243971
2	0x3e8f04eb	0.2793344
3	0xbcea13b0	-0.02857384
4	0xbe122c9e	-0.14274833
5	0xbea364c8	-0.31912827
6	0x3e08e8a7	0.1337
7	0xbecefb8a	-0.40426284
8	0x3c6dbe9f	0.01451078
9	0x3baf37ba	0.0053472193
10	0x3eaeaa27	0.3411419
11	0xbe0a13fc	-0.13484186
12	0xbe1dc677	-0.1540774
13	0x3d7523af	0.059848484
14	0x3d947123	0.072481416
15	0x3e7a0b8b	0.24418466
16	0x3dc5c763	0.096571706
17	0xbcbd27da	-0.023090292
18	0x3ebb6137	0.36597607
19	0xba4b53ad	-0.0007756304
20	0xbed104dd	-0.40824023
21	0xbcaa03a6	-0.020753693
22	0x3e4c760b	0.19966905
23	0xbe931518	-0.2872703
24	0x3de5f849	0.11228997
25	0x3eb214d3	0.34781513
26	0xbccc4cb2	-0.024938915
27	0xbe1be54f	-0.15224193
28	0xbea28518	-0.31742167
29	0xbe8c25c9	-0.27372578
30	0xbe035b23	-0.12827735
31	0xbeb2afe1	-0.3489981

bias f4 [32]
0	0x3e411ad8	0.18857896
1	0x3d5c691a	0.05381117
2	0xbea27c4f	-0.31735465
3	0x3d37554a	0.044759072
4	0xbec3e044	-0.3825704
5	0xbe10c82c	-0.1413886
6	0x3e302410	0.17201257
7	0x3e082dd9	0.1329874
8	0x3b4584a6	0.003013888
9	0xbe9c2ade	-0.30501455
10	0xbe1d02e8	-0.1533314
11	0x3e7c4acd	0.24637909
12	0x3d4a349f	0.04936659
13	0x3e80ab23	0.25130567
14	0x3d828324	0.06372669
15	0x3e98fda2	0.29881006
16	0xbe19fdf8	-0.15038288
17	0x3e351644	0.17684275
18	0x3e3c82e4	0.18409306
19	0xbe4ac228	-0.19800627
20	0xbe4f0160	-0.20215368
21	0xbe1745dd	-0.14772744
22	0x3dcc95ff	0.09989547
23	0x3e1d4468	0.15358126
24	0x3e71104e	0.23541376
25	0xbe1745dc	-0.14772743
26	0x3d46b5cd	0.048513222
27	0x3e9262ec	0.28591096
28	0xbd1a110e	-0.03761392
29	0x3dcc74c6	0.0998321
30	0x393d962c	0.00018080388
31	0xbd0215a2	-0.031758912

weight f4 [32, 3]
0	0xbcd93745	-0.026515612
1	0x3f178a20	0.5919514
2	0x3e8031ce	0.25037998
3	0xbe88c952	-0.26716095
4	0xbe8fdcac	-0.28098047
5	0x3e9f5aa1	0.31123832
6	0xbf08bf60	-0.53417015
7	0x3ebcdcc0	0.3688717
8	0x3e5d432b	0.21607654
9	0x3f02f512	0.511552
10	0x3e06e6df	0.13174008
11	0xbe7ae400	-0.24501038
12	0xbdc565e2	-0.09638573
13	0x3e368d7d	0.17827411
14	0x3e8b94c9	0.27261952
15	0xbe6b7a15	-0.2299579
16	0x3e46e603	0.1942368
17	0xbedb6aa6	-0.42854804
18	0x3debd9b7	0.11516135
19	0xbe158c4a	-0.14604297
20	0x3f27f3ef	0.6560659
21	0x3f065e1a	0.5248734
22	0x3d851af7	0.06499284
23	0xbd262204	-0.040559784
24	0x3de5b608	0.1121636
25	0xbc6246ca	-0.013810823
26	0x3ede02e5	0.43361583
27	0xbf272ec8	-0.6530576
28	0xbe2e43fd	-0.17018123
29	0x3e11f250	0.14252591
30	0xbf1eb86d	-0.6200016
31	0xbe2f664e	-0.1712887
32	0xbe0dd3d8	-0.13850343
33	0x3eef6545	0.4675695
34	0xbdf78586	-0.120860144
35	0xbddde567	-0.10834771
36	0x3b9cdf35	0.0047873505
37	0xbe3c21f9	-0.18372335
38	0xbebdfd1b	-0.37107167
39	0x3d53b638	0.05168745
40	0x3ed23656	0.4105708
41	0x3e66add4	0.22527248
42	0xbf045dfc	-0.5170591
43	0xbe3b3f56	-0.1828588
44	0x3eb31588	0.34977365
45	0x3f0be067	0.54639286
46	0xbe129013	-0.14312772
47	0x3d2b5858	0.041832298
48	0xbe928749	-0.2861884
49	0xbea230b1	-0.31677774
50	0x3ebbed0d	0.36704293
51	0xbd6f0871	-0.05835766
52	0x3d125e9a	0.03573475
53	0x3e982fa3	0.29723844
54	0x3d7e3edf	0.062071677
55	0xbe8495ff	-0.25895688
56	0xbe54d8f1	-0.20785882
57	0xbf4eb63f	-0.80746835
58	0x3e8a0f31	0.26964715
59	0x3dfbe38f	0.12299263
60	0x3df6eeba	0.12057252
61	0xbe92f1cb	-0.28700098
62	0xbee21575	-0.44156995
63	0xbb0d4108	-0.0021553654
64	0xbe81e3f5	-0.2536923
65	0xbee16556	-0.44022626
66	0x3f0a6c37	0.5407137
67	0x3eb3e9a1	0.35139182
68	0xbe96aa52	-0.2942682
69	0x3eab6ee3	0.33483037
70	0x3e8f00b6	0.2793023
71	0x3e96fb50	0.2948861
72	0xbe51cc06	-0.20487985
73	0x3d88e98a	0.06685169
74	0x3e8718c5	0.26386085
75	0x3d9ffcd9	0.07811899
76	0xbbe721a5	-0.0070535713
77	0xbf117605	-0.5682071
78	0x3f180841	0.59387594
79	0x3d65382b	0.05596177
80	0x3c071d05	0.008246665
81	0x3da8815d	0.08227799
82	0xbf2a8bc3	-0.6661951
83	0x3c7bc0df	0.015365808
84	0xbe090ee1	-0.13384582
85	0xbea5ff4a	-0.32421333
86	0x3e9454ab	0.28970847
87	0x3e913336	0.28359383
88	0x3c54648e	0.012963427
89	0x3e232e87	0.15935718
90	0x3e1c4b94	0.15263206
91	0xbf0db7db	-0.55358666
92	0x3eb906d2	0.36138016
93	0xbf1200bf	-0.5703239
94	0x3dd6e3a2	0.10492636
95	0x3d748de4	0.05970563

att_src f4 [1, 1, 32]
0	0xbe116a84	-0.14200789
1	0xbd52b151	-0.051438633
2	0x3e17ef4b	0.14837377
3	0x3f032e9c	0.51242995
4	0xbe4eea90	-0.20206666
5	0xbe1b2696	-0.15151438
6	0x3e363610	0.1779406
7	0x3e67c0b2	0.22632101
8	0xbe4ed824	-0.20199639
9	0x3d157398	0.036487192
10	0xbe35c7c4	-0.17751986
11	0xbde76ae0	-0.11299682
12	0xbf0a0a69	-0.53922135
13	0xbd25be2b	-0.04046456
14	0x3dfad69c	0.12247965
15	0x3d8cebfa	0.068809465
16	0x3e7a2529	0.24428238
17	0x3c0d0f51	0.008609609
18	0x3ef1e10c	0.4724201
19	0xbeacde09	-0.3376315
20	0xbf19c5d8	-0.6006751
21	0x3c8ca0a4	0.017166443
22	0xbe36d63b	-0.1785516
23	0x3e0248b2	0.12723044
24	0xbef1329e	-0.4710893
25	0xbd0b70c6	-0.034043096
26	0x3d82896b	0.06373867
27	0x3edab23f	0.42714116
28	0xbe78c692	-0.24294499
29	0xbe948d5e	-0.29014105
30	0x3d8cea9b	0.06880685
31	0xbf0e0150	-0.5547075

att_dst f4 [1, 1, 32]
0	0x3e84380e	0.25824016
1	0xbcdc0212	-0.026856456
2	0xbd9923d9	-0.074775405
3	0xbe77e8fa	-0.24209967
4	0xbe0a405c	-0.13501114
5	0xbdf1c1c8	-0.11804539
6	0x3e000196	0.12500605
7	0x3ec96c89	0.39340618
8	0x3e985d2c	0.29758584
9	0x3f0a7add	0.54093724
10	0xbdcec99b	-0.10097047
11	0xbd80e095	-0.062928356
12	0x3eef42b0	0.46730566
13	0x3e1bbcfd	0.15208812
14	0x3dd34e46	0.10317664
15	0x3e174b6d	0.14774866
16	0x3df5c31d	0.120001055
17	0xbef535bd	-0.47892562
18	0x3e8513f4	0.25991786
19	0x3e32a675	0.17446311
20	0xbe1762f8	-0.14783847
21	0xbe730738	-0.23733222
22	0xbe2e509c	-0.17022938
23	0xbee199b5	-0.44062582
24	0xbe640d4e	-0.222707
25	0xbe829fc2	-0.2551251
26	0xbe12b35e	-0.14326236
27	0xbf0afdbe	-0.5429343
28	0x3f0e82f4	0.5566857
29	0xbecdb565	-0.40177456
30	0x3eba2547	0.36356565
31	0x3ee29788	0.44256234

bias f4 [32]
0	0x3e0c6eed	0.1371419
1	0xbe3023bb	-0.1720113
2	0x3e740aa9	0.23832192
3	0x00000000	0.0
4	0x3e5961b3	0.21228676
5	0x3e1ceb64	0.1532417
6	0xbe4c9f63	-0.19982676
7	0xbe588c41	-0.21147253
8	0x3e302375	0.17201026
9	0x00000000	0.0
10	0xbdfebcd6	-0.12438361
11	0x3e5ae704	0.21377188
12	0x3e3022e0	0.17200804
13	0xbe1d9c03	-0.15391545
14	0x3e3023a5	0.17201097
15	0x3e30263b	0.17202084
16	0x3e9cca36	0.30623025
17	0x3e62f0ec	0.22162217
18	0x00000000	0.0
19	0x3e1cc559	0.15309657
20	0x3da9e1b4	0.082950026
21	0x00000000	0.0
22	0xbe8282ee	-0.25490516
23	0x00000000	0.0
24	0x3e2c3472	0.16816881
25	0x3df0cb1b	0.11757489
26	0x3e8abb46	0.27096003
27	0xbe1fdfab	-0.15612666
28	0x3e3022ea	0.17200819
29	0x3e3025b3	0.17201881
30	0xbe23026f	-0.15918897
31	0x3e302310	0.17200875

weight f4 [32, 1]
0	0xbd1d92fe	-0.03847026
1	0xbb6f77ee	-0.003653999
2	0xbe960eda	-0.29308206
3	0xbeade99c	-0.33967292
4	0x3a57c730	0.00082312804
5	0x3e2c01b0	0.16797519
6	0xbdddf4cb	-0.10837706
7	0x3e184cd5	0.14873059
8	0x3e83599c	0.25654304
9	0xbd5ba8d9	-0.053627823
10	0x3f1796da	0.59214556
11	0x3e5eeb97	0.21769558
12	0x3dea885b	0.11451789
13	0x3e815ebb	0.25267586
14	0x3e74cf98	0.23907316
15	0x3eaf2e8e	0.34215206
16	0xbed3c930	-0.4136443
17	0xbbda8475	-0.006668622
18	0xbef6cf03	-0.48204812
19	0x3e42b051	0.19012572
20	0x3edb0902	0.4278031
21	0xbd7d197b	-0.06179188
22	0x3dfc86c6	0.123303935
23	0xbe4aa4f4	-0.19789487
24	0x3e39780d	0.18112202
25	0x3ee60fe9	0.44934013
26	0x3c0d3e25	0.008620773
27	0xbe3133ac	-0.17304868
28	0x3da75718	0.08170909
29	0x3f2a29bc	0.6646993
30	0xbdf273a8	-0.11838466
31	0x3cb4e10f	0.022079973

weight f4 [32, 3]
0	0x3e8bb619	0.27287367
1	0xbe088bb5	-0.13334544
2	0x3ec857ed	0.39129582
3	0xbcf2b55e	-0.029627498
4	0xbeaad3ce	-0.3336472
5	0x3e836ba6	0.25668067
6	0x3e42444f	0.1897137
7	0x3d4cdc58	0.050014824
8	0xbec7d123	-0.39026746
9	0xbe8bf7c3	-0.27337465
10	0xbdde3068	-0.108490765
11	0x3dc1281a	0.09431477
12	0xbec49ead	-0.3840231
13	0x3e8ae9b9	0.2713144
14	0x3d7a04f1	0.06103987
15	0xbe0e7d85	-0.1391507
16	0x3dd648fb	0.10463139
17	0xbe8c0641	-0.2734852
18	0xbe329f57	-0.17443596
19	0x3d6e9b9b	0.058253866
20	0xbdf033bc	-0.117286175
21	0x3ee8c5e1	0.4546347
22	0x3e6710c5	0.22564991
23	0xbe163d8e	-0.14671919
24	0x3e71aad9	0.2360033
25	0xbe95eda9	-0.29282883
26	0x3e719e0e	0.2359545
27	0x3ea2b386	0.3177759
28	0xbdaccce0	-0.08437514
29	0x3f0c3085	0.54761535
30	0x3b6f6c66	0.0036533116
31	0xbea5bbf2	-0.32369953
32	0xbf066d27	-0.52510303
33	0x3dc1c050	0.09460509
34	0xbe52c2d6	-0.20582137
35	0xbe0146a0	-0.12624598
36	0x3e83e8b6	0.25763482
37	0x3ece1a56	0.40254468
38	0x3ecf848b	0.4053081
39	0x3d9c61c2	0.07635833
40	0xbe6a9f5b	-0.22912352
41	0x3e18a8c9	0.14908136
42	0x3e680bf7	0.22660814
43	0x3db32fdf	0.08749365
44	0xbce0c1a6	-0.027436089
45	0xbdaf3790	-0.085555196
46	0x3e5fca1d	0.21854444
47	0x3e97ce1b	0.29649433
48	0xbe4a7f7f	-0.19775198
49	0x3cc9db6f	0.024640767
50	0x3e2c1bfa	0.16807547
51	0xbf07253b	-0.52791184
52	0xbe64b71e	-0.22335479
53	0xbe68d0e9	-0.22735943
54	0x3d8ec9d6	0.06972091
55	0x3e213aa9	0.15745033
56	0x3c5d8842	0.013521256
57	0x3c9b26f3	0.01893947
58	0xbdfcead8	-0.123494804
59	0x3e85261f	0.26005647
60	0x3e896ac8	0.2683928
61	0xbec69a05	-0.38789383
62	0x3db4c3db	0.08826419
63	0xbe968aa2	-0.29402643
64	0xbe7fd37e	-0.24983022
65	0xbe0c35d6	-0.13692412
66	0xbeb99129	-0.3624356
67	0xbecaba53	-0.3959528
68	0x3e1787f2	0.14797953
69	0xbee2825e	-0.44240087
70	0xbed0e9fe	-0.40803522
71	0x3d8a675d	0.06757996
72	0xbd10457b	-0.03522251
73	0xbede5ecb	-0.43431696
74	0xbea4437b	-0.32082734
75	0xbe7dad6d	-0.24773188
76	0x3e2b482f	0.16726755
77	0xbe0efeb5	-0.1396435
78	0x3c98995a	0.018627811
79	0xbecc4b9b	-0.39901432
80	0xbe3f97b3	-0.18710212
81	0xbf03845a	-0.5137383
82	0x3dfadecd	0.12249527
83	0xbf05a7f0	-0.5220938
84	0x3ef70a81	0.482502
85	0x3ee80a2a	0.45320255
86	0xbe2a2631	-0.16616131
87	0xbed7c6ee	-0.4214396
88	0x3e50ddf2	0.20397165
89	0xbf05366d	-0.5203617
90	0x3eaa4947	0.3325903
91	0xbd5712da	-0.052508213
92	0x3ea11ca0	0.31467152
93	0x3e211f3e	0.15734574
94	0x3eee6b90	0.4656644
95	0x3e1fc01f	0.15600632

att_src f4 [1, 1, 32]
0	0x3d9b0fb5	0.07571355
1	0xbcef4f90	-0.029212743
2	0x3e266ca6	0.16252384
3	0xbde5e563	-0.11225393
4	0x3d1927a1	0.03739131
5	0x3dc4fab6	0.09618132
6	0x3ee26f86	0.4422571
7	0xbf21f121	-0.6325856
8	0x3d1dafa1	0.03849757
9	0xbc87af13	-0.016562974
10	0x3d3c15d0	0.04591924
11	0x3eb62f17	0.35582802
12	0x3e051726	0.12997112
13	0x3e8c2815	0.2737433
14	0x3c15e7c3	0.009149495
15	0x3dc92be8	0.098228276
16	0x3e978de0	0.2960043
17	0xbe82dcf3	-0.25559196
18	0xbdac3af0	-0.08409679
19	0x3dbe6691	0.09296907
20	0xbf20e356	-0.6284689
21	0x3ee6ff0d	0.45116463
22	0x3ec24f84	0.3795129
23	0x3ea825c9	0.32841328
24	0x3e4efd57	0.20213829
25	0x3e8f1e59	0.2795284
26	0xbe8294b1	-0.25504068
27	0x3ebb2eb6	0.36559075
28	0xbe94fe08	-0.2910006
29	0x3f3b0246	0.73050344
30	0x3de8f36e	0.113745555
31	0x3cbb9107	0.022896303

att_dst f4 [1, 1, 32]
0	0x3e08b334	0.1334961
1	0xbf13c203	-0.57717913
2	0xbd76117f	-0.06007528
3	0xbd8a7f68	-0.06762582
4	0xbf1c47b2	-0.610469
5	0xbe445443	-0.19172768
6	0xbe03af87	-0.12859927
7	0x3f03aef4	0.5143883
8	0xbe44aa03	-0.1920548
9	0xbecac003	-0.39599618
10	0xbe449c71	-0.19200303
11	0x3e7eae5c	0.248712
12	0x3e982d8d	0.29722252
13	0x3e5e750b	0.21724336
14	0xbe3ee000	-0.18640137
15	0xbe880fe8	-0.26574636
16	0xbecd49da	-0.40095407
17	0xbcf9aa7d	-0.030476803
18	0x3ed975d6	0.42472714
19	0xbf00b440	-0.5027504
20	0x3dab6824	0.083694726
21	0xbc6bed56	-0.014399847
22	0x3e0f93b9	0.14021195
23	0xbf0be14b	-0.54640645
24	0xbf0544e9	-0.52058274
25	0xbe98f510	-0.29874468
26	0x3d856d9f	0.06515049
27	0x3edda12e	0.43287033
28	0x3ef1e4a0	0.4724474
29	0x3ecbfe2a	0.3984235
30	0xbf1e0fb8	-0.61742735
31	0xbf07ab1e	-0.5299548

bias f4 [32]
0	0xbe6f2169	-0.23352589
1	0xbc89a0e8	-0.016800359
2	0x3e7e1754	0.24813586
3	0x3e8cef88	0.27526498
4	0xbe53db20	-0.20689058
5	0xbb20494d	-0.0024457753
6	0xbe67a363	-0.22620921
7	0xbeb59cb5	-0.3547112
8	0x3e8032f5	0.25038877
9	0x3e8ccd16	0.27500218
10	0x3e859236	0.26088113
11	0xbe74ff41	-0.23925497
12	0x3e33c068	0.17553866
13	0x3e379a02	0.17929843
14	0x3dd69ad7	0.10478752
15	0xbe3bc26d	-0.18335886
16	0xbe2ad81d	-0.16684003
17	0xbe3023bc	-0.17201132
18	0x3e3dd455	0.1853803
19	0xbe96977d	-0.2941245
20	0xbeaddeb2	-0.33958966
21	0xbcf5777b	-0.0299642
22	0x3e3e559c	0.18587345
23	0xbe6f0c35	-0.233445
24	0xbe7868ef	-0.24258779
25	0x3d2aabe8	0.04166785
26	0x3e829c55	0.25509897
27	0xbe7ad7a8	-0.24496329
28	0x3d86335c	0.06552765
29	0xbe08dd4f	-0.13365673
30	0x3e1d515a	0.15363064
31	0x3e81dbe2	0.2536307

weight f4 [32, 3]
0	0x3d24519a	0.040116884
1	0x3db1dd41	0.08684779
2	0xbec4294a	-0.3831275
3	0xbd8b3a99	-0.06798286
4	0xbe770bcc	-0.24125594
5	0x3e6217b9	0.22079362
6	0x3de9dfef	0.11419665
7	0xbe4fa709	-0.20278563
8	0xbe94492c	-0.28962076
9	0xbc62c29d	-0.013840345
10	0x3ecdf994	0.40229475
11	0x3e4dbf0e	0.20092413
12	0xbee74526	-0.45169944
13	0x3ea041e6	0.31300277
14	0xbe23c118	-0.15991628
15	0x3dd58851	0.10426391
16	0x3be03638	0.006842401
17	0xbde0f748	-0.10984665
18	0xbe055ada	-0.13022938
19	0x3e95c7eb	0.29254088
20	0xbeee869b	-0.4658707
21	0x3e989b5c	0.2980603
22	0x3ee78155	0.4521586
23	0xbdf2603d	-0.11834762
24	0xbe2c3e0d	-0.16820545
25	0xbe341d2e	-0.17589256
26	0x3eee7646	0.4657461
27	0x3d827ed6	0.06371848
28	0x3d1a4f5f	0.03767335
29	0x3e375824	0.17904717
30	0xbe9cea02	-0.30647284
31	0x3f1019cc	0.5628936
32	0x3dc7e8cd	0.097612
33	0xbe89a699	-0.26884916
34	0x3e183915	0.14865525
35	0xbeb0e8a7	-0.345525
36	0x3f1f42e9	0.6221147
37	0x3e0aa49c	0.13539356
38	0x3e3171ce	0.1732857
39	0xbd9d5612	-0.07682432
40	0x3eb60ee1	0.35558227
41	0x3e422d74	0.18962651
42	0x3ef2e73d	0.47442046
43	0xbe0f0417	-0.13966404
44	0x3e47b558	0.19502771
45	0xbda45efd	-0.0802593
46	0xbe5774c7	-0.21040641
47	0xbde8680a	-0.11347969
48	0x3eb373dd	0.35049334
49	0xbd697235	-0.056993682
50	0xbeab78ee	-0.334907
51	0xbefe9394	-0.49721968
52	0xbee09e5b	-0.43870816
53	0x3e3cea2c	0.18448704
54	0x3ea7a560	0.3274336
55	0xbe6aaf05	-0.22918327
56	0x3d6c8b13	0.05774982
57	0xbed2e351	-0.41189054
58	0x3d1d1d2a	0.03835789
59	0xbf1494a9	-0.5803934
60	0x3d0298b0	0.031883895
61	0x3e0476bc	0.12935919
62	0x3ebeafcc	0.37243497
63	0xbf1f0f9b	-0.6213319
64	0xbea3248a	-0.31863815
65	0xbe85d9df	-0.26142785
66	0xbeb3196a	-0.34980327
67	0x3bd61a42	0.006533892
68	0x3b13db94	0.0022561299
69	0xbe223efe	-0.15844342
70	0x3e227965	0.15866621
71	0xbeb0064b	-0.343798
72	0xbe6628e6	-0.22476539
73	0xbc2d1a0c	-0.010565292
74	0xbddec77e	-0.10877894
75	0x3e37865a	0.17922345
76	0x3ecdcda9	0.4019597
77	0xbf03a363	-0.51421183
78	0x3eaeede4	0.3416587
79	0x3d92cdee	0.07168184
80	0x3e7642dd	0.24048944
81	0xbd0a4a07	-0.033762004
82	0xbe1c919c	-0.1528992
83	0xbf3b0f24	-0.7306998
84	0xbd8faba8	-0.07015163
85	0xbf5884de	-0.8457774
86	0x3efae83c	0.49005306
87	0xbeaf3b32	-0.3422485
88	0x3e1922c5	0.1495467
89	0xbe8503ea	-0.2597955
90	0x3f04dde5	0.51901084
91	0xbdaebd13	-0.08532157
92	0xbe2b3596	-0.1671966
93	0x3db7959f	0.08964085
94	0xbee5a3a3	-0.44851407
95	0x3f0561d7	0.52102417

weight f4 [32, 1]
0	0x3b2dd966	0.0026527285
1	0x3eecb72e	0.46233505
2	0xbcc4d4e1	-0.02402729
3	0xbd5aaf62	-0.053389914
4	0x3ea22a0a	0.31672698
5	0x3e2e9bb5	0.17051585
6	0xbe2a1293	-0.16608648
7	0xbf0dcf74	-0.55394673
8	0x3e8f9006	0.2803957
9	0x3ee973aa	0.45596057
10	0xbe4c9a18	-0.19980657
11	0xbf0af6df	-0.54282945
12	0xbeb5079b	-0.35357365
13	0x3e537a0e	0.20652029
14	0xbb1d6e0b	-0.002402189
15	0x3f03d27d	0.51493055
16	0x3eb5e10b	0.35523257
17	0x3e20db7d	0.15708728
18	0xbf14e7fe	-0.5816649
19	0x3e9ea359	0.30984
20	0xbe1be735	-0.15224917
21	0xbdfd09d7	-0.123553924
22	0xbe5052d0	-0.2034409
23	0x3e7a68b1	0.24453999
24	0x3f0ea4ff	0.55720514
25	0x3ea66915	0.32502046
26	0x3e621869	0.22079624
27	0xbec0a19e	-0.37623304
28	0xbe6a9ea7	-0.22912084
29	0xbea0549b	-0.3131455
30	0x3eefb224	0.46815598
31	0x3e72a209	0.23694624

weight f4 [32]
0	0x3f609805	0.87731963
1	0x3f9ee5f3	1.2413925
2	0x3f806b79	1.0032798
3	0x3fb2f041	1.397957
4	0x3f905608	1.1276255
5	0x3f63b6d3	0.8895084
6	0x3f996adb	1.1985735
7	0x3fa18e5a	1.2621567
8	0x3f8fc471	1.1231824
9	0x3f30fd86	0.69136846
10	0x3f608b2e	0.8771237
11	0x3f7f8791	0.9981623
12	0x3f331435	0.6995271
13	0x3f810019	1.0078155
14	0x3f894501	1.0724183
15	0x3f794482	0.9737016
16	0x3f7e2ad9	0.9928413
17	0x3f7b40ab	0.9814555
18	0x3fa3750f	1.2770098
19	0x3f448aa6	0.7677406
20	0x3f85d112	1.0454428
21	0x3f5a2ead	0.8522747
22	0x3faa6a41	1.3313676
23	0x3f34f065	0.7067931
24	0x3f6eebf9	0.93328816
25	0x3f5a2e9b	0.85227364
26	0x3f57d915	0.84315616
27	0x3f81fcea	1.0155308
28	0x3f870446	1.0548179
29	0x3f8dd5d1	1.1080877
30	0x3f8e891d	1.1135594
31	0x3fa04ac6	1.2522819

bias f4 [32]
0	0xbdd20a5b	-0.102558814
1	0x3de215a9	0.110392876
2	0xbd867507	-0.0656529
3	0xbe9b9785	-0.30389038
4	0xbe81734c	-0.25283277
5	0xbe18af6c	-0.14910668
6	0x3dcd337b	0.10019585
7	0xbe8a48a6	-0.2700855
8	0xbee1fbb9	-0.44137362
9	0xbe877773	-0.2645832
10	0x3e72145f	0.23640583
11	0xbd9a3763	-0.075300954
12	0x3da36910	0.079790235
13	0xbea85381	-0.32876208
14	0x3d92580b	0.07145699
15	0x3eb2ab64	0.34896386
16	0xbe90f267	-0.28309938
17	0x3dfac0d7	0.122438125
18	0x3df5dbd7	0.12004822
19	0x3ed32981	0.41242602
20	0xbe24510c	-0.16046542
21	0x3e9590c2	0.29212004
22	0xbeba6b67	-0.36410066
23	0xbba4e101	-0.0050317054
24	0x3e0511fc	0.12995142
25	0xbebdebf7	-0.3709409
26	0xbd256f33	-0.04038925
27	0x3eb34ba1	0.35018638
28	0xbea33b8f	-0.31881377
29	0xbed28bd3	-0.41122302
30	0xbe0dba40	-0.1384058
31	0xbe0843fc	-0.13307184

running_mean f4 [32]
0	0x3ee41131	0.44544366
1	0x3e27feb1	0.16405751
2	0x3c91f660	0.017817676
3	0x3d29a22e	0.041414432
4	0x3b5ec32a	0.0033990839
5	0x37146512	8.84502e-06
6	0x3f133d7b	0.57515687
7	0x3e43d5df	0.19124554
8	0x3e95c196	0.29249257
9	0x33a9cec8	7.907289e-08
10	0x31c4cfd8	5.72798e-09
11	0x3e63f8b2	0.22262838
12	0x3ab9282a	0.001412635
13	0x3ef1ed26	0.47251242
14	0x3e4aa7fd	0.19790645
15	0x3ec00209	0.37501553
16	0x3d389b9b	0.045070272
17	0x3eb8f2b5	0.3612267
18	0x3d263344	0.040576234
19	0x3c505097	0.012714527
20	0x314ff435	3.026128e-09
21	0x2e0454e4	3.0088723e-11
22	0x3d95b889	0.07310588
23	0x3edf0b61	0.4356337
24	0x3ec446cf	0.38335273
25	0x2f78db34	2.2633345e-10
26	0x3e145d49	0.1448871
27	0x3e6aaa57	0.22916542
28	0x3db3db5e	0.08782075
29	0x3e666370	0.2249887
30	0x3e33eb12	0.17570141
31	0x3ca47c77	0.02007888

running_var f4 [32]
0	0x3d0a6158	0.03378424
1	0x3c2e7bf9	0.010649675
2	0x3b62a777	0.003458468
3	0x3bb4dc92	0.005519458
4	0x39227b46	0.00015495447
5	0x34f08051	4.4796846e-07
6	0x3cee46d4	0.029086508
7	0x3c14ccf0	0.009082064
8	0x3c4714b7	0.012150935
9	0x34d2e456	3.9281684e-07
10	0x34d2d7a2	3.9272442e-07
11	0x3c3b1f49	0.011421033
12	0x38878d86	6.4636624e-05
13	0x3c8d43a2	0.017244164
14	0x3c87a243	0.016556865
15	0x3c38b08f	0.011272564
16	0x3b9205be	0.004456251
17	0x3bef61f9	0.0073053804
18	0x3b1e633a	0.002416803
19	0x3ae2ed00	0.0017313063
20	0x34d2d941	3.927362e-07
21	0x34d2c673	3.925994e-07
22	0x3c4d6c8b	0.012538086
23	0x3c47130a	0.012150535
24	0x3c1232f2	0.008923279
25	0x34d2c6c6	3.9260175e-07
26	0x3c2b22d6	0.010445317
27	0x3c4ca9ad	0.012491626
28	0x3bd9702a	0.0066356855
29	0x3b32efb4	0.0027303519
30	0x3c748606	0.014924532
31	0x3a2482d0	0.0006275596

weight f4 [32]
0	0x3f44e167	0.76906437
1	0x3f53f71a	0.8279892
2	0x3f3ec162	0.7451383
3	0x3f800000	1.0
4	0x3f376c2f	0.7164945
5	0x3f89066f	1.0705088
6	0x3f49bb54	0.78801465
7	0x3f91bac4	1.1385121
8	0x3f875b6d	1.0574776
9	0x3f800000	1.0
10	0x3f887da4	1.0663342
11	0x3f008435	0.5020173
12	0x3f7db9c2	0.9911157
13	0x3f85e5c1	1.046074
14	0x3f8e36af	1.1110438
15	0x3f8f6f50	1.1205845
16	0x3f72321b	0.94607705
17	0x3f88634d	1.0655304
18	0x3f800000	1.0
19	0x3f6e4610	0.93075657
20	0x3f7a7ba6	0.9784492
21	0x3f800000	1.0
22	0x3f48212a	0.78175604
23	0x3f800000	1.0
24	0x3f30a6f3	0.69004744
25	0x3f9f54e7	1.2447785
26	0x3f874628	1.0568285
27	0x3f580861	0.84387785
28	0x3f3c6ca4	0.7360327
29	0x3f85e6f7	1.046111
30	0x3f573f65	0.8408111
31	0x3f6a570f	0.9153909

bias f4 [32]
0	0x3d82f998	0.063952625
1	0x3cdeb9f3	0.027188277
2	0x3e1b2ef4	0.1515463
3	0x3e059476	0.13044915
4	0x3ec23651	0.37932065
5	0x3ebb0687	0.36528417
6	0xbda5594b	-0.08073672
7	0xbeb2c911	-0.34919026
8	0xbd06b35e	-0.0328859
9	0x3bdfc03e	0.006828337
10	0xbe533047	-0.20623885
11	0x3e3b2e4e	0.18279383
12	0xbe085409	-0.13313307
13	0x3d94742d	0.07248721
14	0xbc58d5eb	-0.013234596
15	0xbe13bf6b	-0.14428489
16	0x3e5a4ae4	0.21317631
17	0x3dfb0b4a	0.122580126
18	0x3d245526	0.040120266
19	0x3eb09a84	0.34492886
20	0xbe97c857	-0.29645035
21	0xbd709048	-0.058731347
22	0x3e39768f	0.18111633
23	0xbd95edc4	-0.07320741
24	0x3d4fc37b	0.050723534
25	0xbeb2305b	-0.34802517
26	0x3ea845fa	0.32865888
27	0xbd8bfb94	-0.06835094
28	0xbcfbf892	-0.030758176
29	0xbdc619c7	-0.096728854
30	0xbcfee420	-0.031114638
31	0xbd883af6	-0.06651871

running_mean f4 [32]
0	0x3ee09173	0.4386097
1	0x3038a4f2	6.717321e-10
2	0x3f26ac8d	0.6510704
3	0x00000000	0.0
4	0x3f1e5ee1	0.61863524
5	0x3ef3b06e	0.47595543
6	0x30a1de2c	1.1777437e-09
7	0x319baeb9	4.5309574e-09
8	0x3f0f3e65	0.5595458
9	0x00000000	0.0
10	0x3c854a76	0.016270857
11	0x3f2120c1	0.62940603
12	0x3f1748ad	0.5909527
13	0x32720901	1.4088301e-08
14	0x3f05be06	0.5224308
15	0x3f05a672	0.522071
16	0x3f63a0f0	0.88917446
17	0x3f330c23	0.69940394
18	0x00000000	0.0
19	0x3ef7f761	0.48430923
20	0x3ea343c2	0.31887633
21	0x00000000	0.0
22	0x321fcd16	9.301649e-09
23	0x00000000	0.0
24	0x3f0e944f	0.5569505
25	0x3ed3db73	0.41378364
26	0x3f43bc09	0.76458794
27	0x3123ce04	2.3836728e-09
28	0x3f0b1145	0.54323226
29	0x3f17b996	0.59267557
30	0x2eb9e778	8.453943e-11
31	0x3f0a140d	0.53936845

running_var f4 [32]
0	0x3bbb0671	0.005707555
1	0x34d2cc52	3.926421e-07
2	0x3c49cf9e	0.012317566
3	0x34d2c673	3.925994e-07
4	0x3af12e95	0.0018400723
5	0x3aed270e	0.0018093304
6	0x34d2cc5b	3.9264236e-07
7	0x34d2f3f5	3.929305e-07
8	0x3bd9fb67	0.006652284
9	0x34d2c673	3.925994e-07
10	0x3b54fab0	0.0032498054
11	0x3b148c54	0.002266665
12	0x3cc90158	0.024536774
13	0x34d31415	3.9316424e-07
14	0x3bf42416	0.007450591
15	0x3c49ec09	0.012324342
16	0x3c494fb9	0.012287074
17	0x3bf19069	0.0073719514
18	0x34d2c673	3.925994e-07
19	0x3b2f9b23	0.002679535
20	0x3c8ea412	0.01741222
21	0x34d2c673	3.925994e-07
22	0x34d3b757	3.943521e-07
23	0x34d2c673	3.925994e-07
24	0x3c1ad73b	0.009450729
25	0x3c85782c	0.016292654
26	0x3c4f45df	0.012650936
27	0x34d2ca07	3.9262542e-07
28	0x3b31abdc	0.0027110493
29	0x3cff2510	0.031145602
30	0x34d2c690	3.926002e-07
31	0x3b358e04	0.0027703056

weight f4 [32]
0	0x3f3dfc99	0.7421356
1	0x3f6ea33d	0.9321783
2	0x3f9f6e59	1.245555
3	0x3f4c294f	0.7975053
4	0x3f6dcb37	0.92888206
5	0x3f654b8e	0.8956841
6	0x3f46a04d	0.7758835
7	0x3f55a5ab	0.83455914
8	0x3f4fb028	0.8112817
9	0x3f8884b5	1.0665499
10	0x3f8df160	1.1089287
11	0x3f901a65	1.1258055
12	0x3f8cf5cb	1.101251
13	0x3f9aabb5	1.2083651
14	0x3f81b627	1.0133713
15	0x3f511665	0.81674796
16	0x3f971249	1.1802455
17	0x3f53f717	0.82798904
18	0x3f3c8adc	0.7364938
19	0x3f83c81b	1.0295442
20	0x3f5e052f	0.8672666
21	0x3fa43551	1.2828771
22	0x3f965d53	1.174723
23	0x3f58eb08	0.8473363
24	0x3f82e0d2	1.022486
25	0x3f398453	0.72467536
26	0x3f969b42	1.1766131
27	0x3f986958	1.1907148
28	0x3f5a665b	0.8531243
29	0x3f5711ef	0.8401174
30	0x3f9b68c2	1.2141345
31	0x3f418a86	0.75601995

bias f4 [32]
0	0xbd90745d	-0.070534445
1	0xbed9882e	-0.4248671
2	0x3dede719	0.11616344
3	0xbe5effa5	-0.21777208
4	0x3e5cd5b4	0.21565896
5	0xbd042b02	-0.032267578
6	0x3d1c0303	0.03808881
7	0x3cf7d256	0.030251663
8	0xbdddd1c1	-0.10831023
9	0xbe0f1532	-0.13972929
10	0x3e13654c	0.1439411
11	0xbddf04ec	-0.10889611
12	0xbd2891ff	-0.041154858
13	0x3e05d028	0.13067687
14	0xbea74ab2	-0.32674176
15	0xbeea42b9	-0.4575403
16	0xbea83693	-0.32854137
17	0x3df6609b	0.12030145
18	0x3e955556	0.2916667
19	0xbea937a1	-0.33050254
20	0x3d096f95	0.03355368
21	0x3e8daafb	0.2766951
22	0xbe4ed428	-0.20198119
23	0xbe444094	-0.1916526
24	0x3d8804ab	0.06641515
25	0xbe43999b	-0.19101565
26	0x3d74922a	0.059709705
27	0x3e9cac0b	0.30600008
28	0x3e15dc3a	0.14634791
29	0xbeba79a1	-0.3642092
30	0xbd187274	-0.037218526
31	0xbdd384f9	-0.10328097

running_mean f4 [32]
0	0x3061ba6c	8.2119445e-10
1	0x3935cb6e	0.00017337289
2	0x3f34637c	0.704643
3	0x3f925ada	1.1433976
4	0x31cd102a	5.968123e-09
5	0x3e8efde3	0.27928075
6	0x2d0d7ca0	8.042594e-12
7	0x343bfee1	1.7508457e-07
8	0x3ee8b420	0.45449924
9	0x3f6cd232	0.9250823
10	0x3f02450d	0.50886613
11	0x30697fc3	8.4946467e-10
12	0x3f3cd4a7	0.7376198
13	0x3ecca6f9	0.3997114
14	0x3f4082a0	0.7519932
15	0x305d5338	8.051759e-10
16	0x2f0df5ef	1.2911248e-10
17	0x2db6a353	2.0763535e-11
18	0x3f45f96e	0.77333724
19	0x3393159c	6.849152e-08
20	0x34140ab7	1.3787472e-07
21	0x3499471c	2.855021e-07
22	0x3eb00d6e	0.34385246
23	0x30d624d5	1.5581018e-09
24	0x3070019d	8.7313784e-10
25	0x3a6f04d1	0.0009117844
26	0x3f3c3c24	0.7352927
27	0x2f121f75	1.3289798e-10
28	0x3ee3d8de	0.44501394
29	0x34925243	2.7254472e-07
30	0x3f39bd80	0.7255478
31	0x3f7fbf00	0.9990082

running_var f4 [32]
0	0x34d2cfb1	3.9266664e-07
1	0x3757178f	1.2820484e-05
2	0x3c7bcd28	0.015368737
3	0x3d52609d	0.05136167
4	0x34d31e92	3.9324055e-07
5	0x3d2f8c03	0.042858135
6	0x34d2c67d	3.9259967e-07
7	0x34dac1ca	4.0746664e-07
8	0x3cc13aa5	0.023587534
9	0x3d4f6764	0.05063571
10	0x3c89c27c	0.01681637
11	0x34d2d1bb	3.9268147e-07
12	0x3d3ce8b3	0.046120357
13	0x3cd04655	0.025424162
14	0x3c19c179	0.009384506
15	0x34d2c7b4	3.926085e-07
16	0x34d2c860	3.926134e-07
17	0x34d2c690	3.926002e-07
18	0x3c310b36	0.010805896
19	0x34d652c7	3.9920835e-07
20	0x34d96ff2	4.050085e-07
21	0x34e20b09	4.210381e-07
22	0x3c7aa6b6	0.015298536
23	0x34d2d83d	3.9272882e-07
24	0x34d2d056	3.9267132e-07
25	0x397d5735	0.00024160447
26	0x3c3d448a	0.0115519855
27	0x34d2c7b4	3.926085e-07
28	0x3cbdea09	0.023182886
29	0x34d7fbb6	4.0230015e-07
30	0x3cf0a497	0.029375358
31	0x3c760f31	0.01501827

att_src f4 [1, 1, 32]
0	0xbe9bf10c	-0.30457342
1	0xbd86376e	-0.06553541
2	0x3dd03a2d	0.10167346
3	0x3e1988fe	0.14993665
4	0x3e66323d	0.22480102
5	0x3d64acb5	0.05582877
6	0xbe8d2e33	-0.2757431
7	0x3e09072b	0.1338164
8	0x3e8617cb	0.26190028
9	0x3e842aba	0.25813848
10	0x3dcbdb01	0.09953881
11	0x3c80045d	0.01562708
12	0x3d813f0c	0.06310853
13	0xbe9aa1e6	-0.30201644
14	0x3e89af43	0.26891527
15	0xbdebf86d	-0.11521993
16	0xbec065ad	-0.37577572
17	0x3ec3f0a4	0.38269532
18	0x3e9bd466	0.30435485
19	0x3cb971d5	0.022637287
20	0x3e8a6a6a	0.27034312
21	0xbd713450	-0.05888778
22	0xbe640100	-0.22266006
23	0x3d3b159f	0.045674916
24	0x3ec6fe24	0.3886577
25	0xbea50080	-0.32226944
26	0x3e57049d	0.20997854
27	0x3e0684e3	0.1313663
28	0x3e664ac1	0.22489454
29	0xbeca0e79	-0.39464167
30	0xbec1caf9	-0.37850168
31	0xbea9c396	-0.33157033

att_dst f4 [1, 1, 32]
0	0xbd920475	-0.07129756
1	0xbe5759f3	-0.21030407
2	0x3d99fab5	0.07518522
3	0xbed21237	-0.41029522
4	0xbe0afc26	-0.1357275
5	0xbe61dd05	-0.22056969
6	0xbe5db001	-0.21649171
7	0xbe64db3d	-0.22349258
8	0xbc1af71c	-0.0094583295
9	0xbe8af77f	-0.2714195
10	0x3d1768a3	0.036965024
11	0x3e50b250	0.20380521
12	0x3e085b9b	0.13316195
13	0x3e698537	0.22804724
14	0xbe7d8ac9	-0.24759974
15	0x3e6f8ecd	0.23394318
16	0xbbc433f5	-0.005987639
17	0x3ea0cb4d	0.31405106
18	0xbdb751aa	-0.08951123
19	0x3e593ee6	0.212154
20	0x3dec0b0e	0.11525546
21	0x3ec10817	0.37701485
22	0xbecf8690	-0.4053235
23	0x3e8a68a7	0.27032968
24	0x3728008e	1.00137095e-05
25	0xbece2866	-0.40265197
26	0xbecff758	-0.40618396
27	0x3e805b80	0.2506981
28	0xbe9e84bb	-0.3096064
29	0xbe784400	-0.2424469
30	0xbdcced06	-0.10006146
31	0xbe1e5900	-0.15463638

bias f4 [32]
0	0x3dc6899b	0.09694215
1	0x3db3bd2b	0.08776315
2	0xbc888a20	-0.016667426
3	0xbc0c052f	-0.008546158
4	0x3e11a583	0.14223294
5	0x3e8591e8	0.2608788
6	0xbdbf1764	-0.09330633
7	0xbe1e273b	-0.15444653
8	0xbc55e9fa	-0.013056273
9	0x3e8300a0	0.25586414
10	0x3debe263	0.11517789
11	0xbc9207aa	-0.01782592
12	0x3e03f4e6	0.1288639
13	0xbd8b572e	-0.068037376
14	0xbd0d43a0	-0.03448832
15	0x3c95312c	0.018211924
16	0x3e19268a	0.14956108
17	0xbd7590f1	-0.05995268
18	0x3c7b748a	0.015347609
19	0xbdcb2410	-0.09918988
20	0x3dd1d626	0.10245924
21	0xbd8e56c4	-0.06950143
22	0xbedbe237	-0.42946026
23	0xbeab754d	-0.3348793
24	0xbe1363e2	-0.14393571
25	0x3d10e09d	0.035370458
26	0xbd89c1ce	-0.067264184
27	0x3dc12f38	0.094328344
28	0xbdaccc9f	-0.08437466
29	0x3d89f6fb	0.06736561
30	0xbeddcec2	-0.43321806
31	0x3e902536	0.2815339
