mlartifacts/403163061964527456/a2344aad7ca2429eacbb2b60961098fc/artifacts/models/data/model.pth (torch, 43418 bytes, 28 tensors)

bias f4 [8]
-93.369995 1.3918983 -7.328443e+17 0.00013452768 1.4499 -0.6145529 1.4500544 0.0015992522
00000000: 70bd bac2 b929 b23f 60b9 22dd 0010 0d39
00000010: 5396 b93f 5753 1dbf 629b b93f 009e d13a

weight f4 [8, 3]
-0.16789441 0.43989703 -0.3560458 1.1869189 -0.430147 1.5224684 0.34550145 -0.022078536
-0.44392154 0.21877259 -1.33304 -1.6238067 0.97190684 -0.55301744 1.8580027 -0.5807946
-0.50992465 -0.9304638 1.1439095 -0.1978488 1.923501 0.92766654 -0.0024459064 -0.9750286
00000000: 83ec 2bbe 2f3a e13e a34b b6be f5ec 973f
00000010: 3a3c dcbe 3fe0 c23f 91e5 b03e 0cde b4bc
00000020: af49 e3be ec05 603e 0ea1 aabf e6d8 cfbf
00000030: e3ce 783f 8d92 0dbf 08d3 ed3f f4ae 14bf
00000040: 6c8a 02bf e032 6ebf a06b 923f e098 4abe
00000050: 4835 f63f 8e7b 6d3f 804b 20bb 799b 79bf

weight f4 [8, 3]
1.062222 0.42126822 1.123969 0.8724525 0.83776915 1.3436537 0.23039949 -0.07325131
-0.5075103 -0.48816812 1.8546674 1.3062894 -0.19774848 0.42265296 -0.4016392 0.08966088
1.0319281 0.5748946 0.33056682 -0.2866817 -0.037564278 1.7668604 1.2417188 1.5984682
00000000: e4f6 873f 78b0 d73e 37de 8f3f 0c59 5f3f
00000010: 0a78 563f d8fc ab3f d8ed 6b3e c804 96bd
00000020: 32ec 01bf 2cf1 f9be be65 ed3f 7e34 a73f
00000030: 947e 4abe f865 d83e a7a3 cdbe 20a0 b73d
00000040: 3816 843f 4b2c 133f 0e40 a93e f2c7 92be
00000050: 00dd 19bd 7b28 e23f a4f0 9e3f 9b9a cc3f

bias f4 [8]
0.9350774 1.3141948 -0.32816663 1.0609443 0.11905098 0.69459593 -0.1179837 0.886649
00000000: 3c61 6f3f 8937 a83f 7505 a8be 06cd 873f
00000010: 00d1 f33d 0ad1 313f 70a1 f1bd 6efb 623f

weight f4 [8, 1]
1.4686333 0.30254984 -2.0096817 0.42528707 -1.7686764 -0.46145755 2.1420383 0.27449477
00000000: 2dfc bb3f d0e7 9a3e a09e 00c0 3abf d93e
00000010: fd63 e2bf 2a44 ecbe 2817 0940 948a 8c3e

weight f4 [8, 1]
-0.6528617 0.6754371 -0.73823965 -0.56416225 0.94194317 -1.4146341 1.2091655 -0.9469925
00000000: f221 27bf 72e9 2c3f 46fd 3cbf f06c 10bf
00000010: 3023 713f bb12 b5bf efc5 9a3f 1a6e 72bf

bias f4 [8]
-0.45028734 1.0393425 0.9662205 0.53754836 1.1566362 -0.89787257 0.5792361 -0.94533974
00000000: 108c e6be 2d09 853f 3a5a 773f c59c 093f
00000010: a80c 943f fada 65bf d148 143f c901 72bf

weight f4 [8, 3]
-0.54991406 -0.059543774 -0.5348749 0.7082019 0.4821773 0.5336359 0.09336429 -0.363678
-0.541646 -0.45290107 -1.2953551 -1.5099354 0.8875308 -0.02405256 1.1407367 -0.41862157
-1.2562546 -0.46458462 1.8286976 -0.454046 1.3760979 0.9217622 -0.34014562 -1.1998789
00000000: 2bc7 0cbf 2ce4 73bd 90ed 08bf b84c 353f
00000010: f1df f63e 5d9c 083f c735 bf3d 0134 babe
00000020: 50a9 0abf a6e2 e7be 32ce a5bf 9045 c1bf
00000030: 3835 633f e009 c5bc a903 923f 9155 d6be
00000040: f3cc a0bf 09de edbe c312 ea3f b878 e8be
00000050: fa23 b03f 9cf8 6b3f 9127 aebe a295 99bf

weight f4 [8, 3]
-0.4000474 -0.19908495 0.19813696 0.117937885 -0.32264712 0.023329027 -0.20750871 -0.0465862
0.015097771 -0.04873452 -0.4836216 0.33061513 0.14810231 -0.10806074 -0.18283588 -0.038017493
-0.23944761 0.44473422 0.3499833 0.34600815 0.45569324 -0.31744853 0.17954814 0.3101943
00000000: 03d3 ccbe eddc 4bbe 6ae4 4a3e 6b89 f13d
00000010: 0132 a5be 841c bf3c 2a7d 54be 2cd1 3ebd
00000020: a45c 773c d99d 47bd 409d f7be 6346 a93e
00000030: 22a8 173e f34e ddbd 5439 3bbe 3bb8 1bbd
00000040: c131 75be 34b4 e33e 0331 b33e fb27 b13e
00000050: a050 e93e 9d88 a2be 78db 373e cad1 9e3e

bias f4 [8]
-0.03604564 -0.53835326 0.28197798 -0.1119522 -0.294427 0.43774417 0.23941547 -0.23212947
00000000: 98a4 13bd 85d1 09bf 6b5f 903e 3247 e5bd
00000010: 23bf 96be 0120 e03e 5429 753e 59b3 6dbe

weight f4 [8, 1]
-0.991053 0.9248317 0.8548001 0.40275526 1.6648159 0.802691 1.7937956 0.27197415
00000000: a6b5 7dbf c5c1 6c3f 2ed4 5a3f f035 ce3e
00000010: b018 d53f 287d 4d3f 189b e53f 3240 8b3e

bias f4 [8]
-0.94300294 1.2823123 0.06508887 0.11863083 0.4723314 -1.295565 0.5147616 -0.1041041
00000000: a468 71bf cf22 a43f 504d 853d b8f4 f23d
00000010: 6cd5 f13e 13d5 a5bf 6bc7 033f 8834 d5bd

weight f4 [8, 3]
-0.3638412 -0.12127262 -0.4808058 0.6137943 -0.2814241 1.6712456 -0.45046532 -0.22407888
-0.52401096 -0.38056433 -1.33689 -1.0357742 1.4302517 0.52144367 1.4155937 -1.2603896
-0.9969179 -0.6506463 1.2278502 -0.42400217 1.2436887 0.7013726 -0.8099272 -1.0730299
00000000: 6549 babe c85d f8bd 2e2c f6be a021 1d3f
00000010: d216 90be 60eb d53f 64a3 e6be ef74 65be
00000020: 9525 06bf 54d9 c2be 361f abbf 4094 84bf
00000030: 7d12 b73f 557d 053f 2d32 b53f 7254 a1bf
00000040: 0336 7fbf c290 26bf 322a 9d3f d016 d9be
00000050: 3131 9f3f 288d 333f 6457 4fbf 0b59 89bf

weight f4 [8, 3]
1.021799 0.79143286 1.9299686 0.71016073 1.9290082 0.7826873 0.504413 -1.7408164
0.025183856 1.9575076 -0.06088102 1.2921731 0.33460748 -1.3996952 0.16503298 -0.23918995
-1.4685044 -0.14943445 0.0006094575 1.7875876 0.36758417 0.9776372 -0.25464946 1.7355092
00000000: 4fca 823f 589b 4a3f 3609 f73f 18cd 353f
00000010: bee9 f63f 325e 483f 3621 013f 12d3 debf
00000020: 604e ce3c 9c8f fa3f 605e 79bd ee65 a53f
00000030: ac51 ab3e 3629 b3bf 68fe 283e 36ee 74be
00000040: f4f7 bbbf 5805 19be 00c4 1f3a accf e43f
00000050: fe33 bc3e 6e46 7a3f 6a61 82be 2a25 de3f

bias f4 [8]
1.0939096 1.2569802 0.5740801 1.3646617 -0.08410972 -0.035143554 -0.32753104 1.5356982
00000000: 3b05 8c3f bae4 a03f eaf6 123f 3cad ae3f
00000010: b841 acbd b0f2 0fbd 26b2 a7be c291 c43f

weight f4 [8, 1]
1.5581867 0.38366008 -1.5758528 0.15571588 -1.6003072 -2.1908417 1.708235 -0.3188597
00000000: a972 c73f 186f c43e 8bb5 c9bf fc73 1f3e
00000010: ded6 ccbf c036 0cc0 72a7 da3f 9441 a3be

weight f4 [1, 8]
-0.30967703 -0.004682641 -0.30186167 0.17601956 -0.06051006 0.009480259 0.06161966 0.05832323
00000000: fd8d 9ebe d770 99bb 9d8d 9abe 793e 343e
00000010: 66d9 77bd 1753 1b3c e664 7c3d 57e4 6e3d

weight f4 [1, 8]
-0.34201843 0.059846923 0.06259114 0.22638407 -0.24085979 -0.10641502 -0.0920692 0.2592505
00000000: 0a1d afbe 0c22 753d c92f 803d 3ad1 673e
00000010: f3a3 76be 1ef0 d9bd c78e bcbd 7bbc 843e

weight f4 [1, 8]
0.3582291 1.5361397 -0.31622145 0.23798722 1.4393158 0.2733503 1.5328436 0.14989269
00000000: ce69 b73e 3aa0 c43f c7e7 a1be ecb2 733e
00000010: 803b b83f 92f4 8b3e 3834 c43f 787d 193e

weight f4 [1, 8]
1.6716547 1.1407436 0.063999414 1.3308572 0.2656851 -0.049010634 0.30836618 1.6935288
00000000: c8f8 d53f e303 923f 2012 833d 8759 aa3f
00000010: e107 883e 60bf 48bd 2ce2 9d3e 8dc5 d83f

weight f4 [1, 8]
-0.08755228 -0.126342 0.28124318 -0.046724923 0.11422626 0.023025202 -0.19665807 -0.095183894
00000000: 9c4e b3bd cc5f 01be 1bff 8f3e a262 3fbd
00000010: 75ef e93d 599f bc3c bc60 49be c6ef c2bd

weight f4 [1, 8]
0.023876779 0.08645039 0.08463635 -0.32680532 0.2362737 0.33863375 0.3222948 -0.14255404
00000000: 3c99 c33c e70c b13d d355 ad3d 0753 a7be
00000010: bcf1 713e 6761 ad3e d303 a53e b0f9 11be

weight f4 [1, 8]
-0.0061327037 -0.18061955 -0.0031605922 0.2731128 0.013223574 -0.02753424 -0.29049125 0.21147877
00000000: d9f4 c8bb 55f4 38be f021 4fbb 71d5 8b3e
00000010: b0a7 583c 7d8f e1bc 45bb 94be e48d 583e

weight f4 [1, 8]
-0.29468915 -0.15916774 -0.14058334 -0.26156294 -0.0070812185 -0.060360525 0.1864126 0.21633075
00000000: 7fe1 96be defc 22be 14f5 0fbe 94eb 85be
00000010: 9109 e8bb 993c 77bd f2e2 3e3e cf85 5d3e

weight f4 [1, 8]
0.24803463 0.22195925 0.26430765 -0.14400554 0.29204184 -0.120204076 -0.20504606 0.2634838
00000000: cafc 7d3e 4949 633e 5553 873e 3076 13be
00000010: 8286 953e 8e2d f6bd 98f7 51be 59e7 863e

weight f4 [1, 8]
0.18670164 -0.18665086 0.23439029 0.12137049 -0.33478266 -0.10707419 -0.24832986 0.13600855
00000000: b72e 3f3e 6721 3fbe 0204 703e 1791 f83d
00000010: a268 abbe b749 dbbd 2f4a 7ebe d345 0b3e

weight f4 [1, 8]
-0.34545162 1.1306598 -0.29645488 -0.22041911 1.3811405 -0.045607686 1.168916 1.2245568
00000000: 09df b0be 76b9 903f efc8 97be 8cb5 61be
00000010: 36c9 b03f 20cf 3abd 0a9f 953f 47be 9c3f

weight f4 [1, 8]
1.5283805 1.6342443 -0.09064263 1.17635 -0.34663284 -0.28126818 0.28929675 1.1571345
00000000: f9a1 c33f eb2e d13f d8a2 b9bd a392 963f
00000010: dc79 b1be 6202 90be b41e 943e fc1c 943f
