mlartifacts/403163061964527456/87105283f89c4f93ba18035dcbf98c7c/artifacts/models/data/model.pth (torch, 111254 bytes, 100 tensors)

bias f4 [16]
000000 3b d1 53 3e 53 aa a9 bd 69 70 93 be 1f e9 5d bd
       0.20685284 -0.0828444 -0.287967 -0.0541774
000010 9e 2d 98 3c d8 4a 8f 3c 13 b9 5a bd aa 17 df bd
       0.01857644 0.017491743 -0.053399157 -0.108931854
000020 4c b7 95 4d 3c c4 7b 3e 83 0b 86 be 48 b1 7a 3e
       3.139772e+08 0.24586576 -0.26180658 0.2448169
000030 8b f4 a2 3d f7 b1 9a bd c4 c0 4d be f5 da 99 3e
       0.07956799 -0.07553475 -0.20093066 0.30049863

weight f4 [16, 3]
000000 5c 96 cd bd 7c 39 51 be 3c 76 b8 be 62 07 a7 3e
       -0.100384444 -0.20432085 -0.36027706 0.3262282
000010 6e 88 21 3d b3 f8 36 3d 39 e8 c3 be 39 71 69 bd
       0.03943675 0.04467077 -0.3826311 -0.056992743
000020 f2 a9 c5 3e 40 29 b4 3e 84 bf 07 bf 52 59 c1 be
       0.3860622 0.3518772 -0.53026605 -0.37763458
000030 e4 75 60 3e 92 32 47 bd 0c 51 d6 3d e9 48 63 3e
       0.21919972 -0.048632212 0.10464677 0.22195782
000040 a1 c2 69 3e 9b 86 b6 3e 0f 96 b3 be 72 d1 11 be
       0.22828151 0.3564957 -0.35075423 -0.14240053
000050 6d 85 fc 3e e9 18 de be 81 3b 35 be 31 84 5d be
       0.49320546 -0.4337838 -0.1769848 -0.21632458
000060 9a ae 6c be 11 c9 1d 3e ca 9c 83 bd 79 91 0d be
       -0.2311348 0.15408732 -0.064263895 -0.13825025
000070 f1 c1 37 be 2d 12 d8 3e ef 7f 17 bf 43 62 8c be
       -0.17945077 0.42201367 -0.59179586 -0.27418718
000080 e1 f9 23 bd ec 77 59 3d 52 43 f7 3e c6 8f 71 3e
       -0.040033225 0.053092882 0.4829355 0.23590001
000090 57 21 80 be 95 59 14 3f 05 78 dc 3e aa a7 cb be
       -0.25025436 0.5794919 0.43060318 -0.39776355
0000a0 e4 ac b9 be 10 9d f0 bd c9 48 86 be 96 ce bd be
       -0.36264718 -0.11748707 -0.26227406 -0.37071675
0000b0 77 a3 fd be 84 40 b8 3e f4 b6 00 bd 17 f3 bf be
       -0.49538776 0.35986722 -0.031424478 -0.3749015

weight f4 [16, 3]
000000 9a a3 d4 3e 97 da 7a 3d c4 81 54 3e 49 60 ab 3e
       0.41531068 0.06124362 0.20752627 0.33471897
000010 ca 6c 34 3e ce de c6 3e e0 81 fd b8 30 f9 6e 3e
       0.17619625 0.3884186 -0.00012088171 0.23337245
000020 8a 9b e5 be 06 50 45 3e 0a 1e f2 3e 16 57 f2 bd
       -0.4484523 0.19268808 0.47288543 -0.118330166
000030 a1 7b 49 bd 41 93 8d be 8f a1 d7 bc ec 31 a8 be
       -0.049190167 -0.27651408 -0.026322154 -0.32850587
000040 a2 51 2e bd d5 02 05 3f 7b 9f 5e 3e 50 53 d4 be
       -0.04255832 0.51957446 0.21740524 -0.41469812
000050 32 68 13 3e 40 d5 e9 3e 6a ca 2a bc 8d 44 c0 3e
       0.14395216 0.4567051 -0.010424236 0.375523
000060 73 04 52 3e ad 72 bc 3e d6 7b 08 be a6 16 dd 3e
       0.2050951 0.3680624 -0.1332849 0.43181342
000070 ec 43 cf bd f6 c4 d7 be cf 45 cd 3c 05 b8 2b bc
       -0.10120377 -0.42142457 0.025057701 -0.010480885
000080 ea bc 3c be 73 21 63 bc c2 91 88 3d f7 3c 9a be
       -0.1843144 -0.013862955 0.06668426 -0.30124637
000090 6e c4 91 be 92 b3 2d bf db 51 82 be 42 b0 03 3f
       -0.28470176 -0.6785213 -0.25453076 0.51440823
0000a0 0f f5 3a be cb d2 8c be fe b6 eb 3e 1b d7 79 3e
       -0.18257545 -0.27504572 0.4603805 0.24398462
0000b0 f3 88 cf 3e fa 99 9f 3e ab 5c f0 be 44 2c 09 bf
       0.4053417 0.31172162 -0.469457 -0.5358317

bias f4 [16]
000000 1e 41 58 be 7c ec 42 3f 52 f9 c8 3e e5 11 eb 3e
       -0.2111859 0.76142097 0.39252716 0.4591209
000010 ae 54 69 be 81 8e 90 3f a3 93 33 3f a7 a6 01 3c
       -0.22786209 1.1293489 0.7014715 0.007913268
000020 d6 ac 99 bd 7d e4 84 bd a9 2a f1 be 1b 78 71 3e
       -0.07503669 -0.06488893 -0.4710286 0.23580973
000030 ba 06 33 bf 65 51 6e 3e da 63 9d bf 5f e3 d5 bd
       -0.6993214 0.23273237 -1.2296097 -0.10443758

weight f4 [16, 1]
000000 4f d3 43 bf 0a fc 27 3f 0e d4 7d 3f 06 1e 41 3f
       -0.76494306 0.65618956 0.99151695 0.7543644
000010 07 de 3d bf 61 05 1d bf d0 2f c4 be fb e6 68 3e
       -0.7416691 -0.6133633 -0.38317728 0.22744362
000020 98 99 aa 3e 11 4f 40 3e f5 87 6b 3e 26 e4 72 3f
       0.33320308 0.18780161 0.23001082 0.94879377
000030 10 78 16 3d df 97 f0 be 45 16 05 bf 1e 69 36 bf
       0.036735594 -0.46990868 -0.51987106 -0.71254146

weight f4 [16, 1]
000000 13 6e ab bd 54 6b 3f 3e ab c4 17 3f cb 19 79 3f
       -0.08370604 0.18693286 0.59284467 0.9730498
000010 cb e6 6c 3f e9 d9 7e bf 89 da c5 3e f4 c4 10 bf
       0.9253966 -0.99551255 0.38643292 -0.56550527
000020 ea 7a 37 bf 6b f0 cb 3e 88 c8 22 3f 61 fa bb be
       -0.71671927 0.39831862 0.63587236 -0.3671446
000030 65 4e e6 be 71 21 53 be 5f 98 7d be 47 12 6a bf
       -0.44981685 -0.20618226 -0.24765156 -0.9143414

bias f4 [16]
000000 ff e5 3a bf 5e 1b 91 3e c7 60 87 bf a7 84 3d 3e
       -0.73007196 0.28341192 -1.0576409 0.18507634
000010 9c 9e 6f bf 2f 18 7b 3f 1f f0 ff be e8 de c5 3e
       -0.93601394 0.98083776 -0.49987885 0.38646626
000020 b0 b4 f2 be 25 6b 26 bf 68 43 85 bf 6d aa 1b 3f
       -0.4740348 -0.6500724 -1.0411196 0.60806924
000030 41 6c 06 bf 2b 8b 0c bd 89 27 8e bf 0d c6 8f 3f
       -0.5250893 -0.03431241 -1.1105815 1.1232315

weight f4 [16, 3]
000000 0f 60 db 3e 20 9b 07 3f 60 32 e4 be ad 0d b8 3e
       0.42846724 0.52971077 -0.44569683 0.35947934
000010 fa 87 84 3e 68 fb d8 3e 52 0b 06 3f 6a f3 e1 be
       0.25884992 0.42379308 0.52361023 -0.44131023
000020 44 be 53 3d 5a 6a 71 be 1e 3f b3 be 3c 49 ac be
       0.051695123 -0.23575726 -0.35009092 -0.33649623
000030 33 8a 97 3e 84 90 11 bf 75 fc 95 be a3 ed d7 be
       0.29597625 -0.5686114 -0.29294172 -0.4217349
000040 de 32 90 be 6f 5f 96 3e 7c 2e 7d be ef 0f 9b be
       -0.2816381 0.29369685 -0.24724764 -0.30285594
000050 e2 d4 df 3e 97 c0 9c be 9a f9 ad 3e 39 b2 cb bd
       0.43717104 -0.30615684 0.33979493 -0.09946103
000060 70 2e 15 3e a1 18 cb bd e1 2a 13 3f 55 a0 91 3e
       0.14568496 -0.09916807 0.57487303 0.28442636
000070 0f 83 b1 be 97 df e2 be 8f 60 73 be 46 7d e0 be
       -0.34670302 -0.4431121 -0.23767303 -0.43845576
000080 c2 50 11 3e 0d 9e fd bd 99 b8 20 3f 80 5c bb bb
       0.14190963 -0.123836614 0.62781674 -0.005717814
000090 69 61 1a 3f 49 ff 4d 3e d0 63 4f 3d 66 77 d8 be
       0.60304886 0.20116915 0.050632298 -0.42278594
0000a0 54 16 bf be d8 70 c2 3d 7d 80 c4 3e ff 0e 6c 3e
       -0.37321723 0.094941795 0.3837928 0.23052596
0000b0 48 6d a9 bd 4e 57 31 3e 67 c6 64 be 89 ef 89 3e
       -0.08272797 0.1731846 -0.2234131 0.26940563

weight f4 [16, 3]
000000 55 c6 1e 3d 64 f8 dc bd 15 ee fc bd 4d dc 8b be
       0.038763363 -0.10789564 -0.12350098 -0.27316514
000010 f3 02 da 3c 25 e7 b3 3e 9e f7 b8 be 71 2e fa be
       0.026612734 0.35137287 -0.36126417 -0.48863557
000020 aa b2 e6 3d 4b 44 00 3f 23 1a f0 bd 14 e3 58 bd
       0.11264546 0.50104207 -0.11723735 -0.052950934
000030 40 27 3b bd a8 65 e7 3e a7 fa 0c bf ed 84 0c be
       -0.04569173 0.45194745 -0.55069965 -0.13722582
000040 5c b1 ef 3e 47 f1 54 3e 85 30 12 3e 4a e1 ec 3e
       0.46815002 0.20795165 0.14276321 0.46265632
000050 49 f7 cd 3e fa f2 fe be 6f 49 37 bd 34 5f 94 3e
       0.40227726 -0.4979475 -0.044747766 0.28978884
000060 ad 3e 69 bd 9a 8c c7 3d c3 6e 27 3f bd bd 9b 3d
       -0.056944538 0.097436145 0.65403384 0.07604549
000070 6b c2 27 3f ad 7f 6e bd 66 98 f3 3e 21 17 60 be
       0.65531033 -0.05822723 0.47577208 -0.21883823
000080 da 7b d0 3d f2 47 df be f9 08 9f be b4 14 c7 3e
       0.10179873 -0.43609577 -0.31061533 0.38882983
000090 59 41 bf 3d c4 29 f7 be ac 40 0f 3f b1 31 05 3f
       0.09338636 -0.48274052 0.55958056 0.5202895
0000a0 2f a5 d6 be 11 7d f7 be 5c ac 51 bd f1 a3 a6 3d
       -0.419229 -0.48337606 -0.051189765 0.08136738
0000b0 1f dc 23 be 11 61 19 3e 7d 15 89 3e 19 5d 42 3d
       -0.16001938 0.14978434 0.26774207 0.047452066

bias f4 [16]
000000 21 8c a4 3e cf 01 66 be 1e 7e 46 bd c0 3e 43 be
       0.3213816 -0.22461627 -0.04846012 -0.19066906
000010 c3 45 77 3f a3 d3 cc 3d 01 88 6c 3e d5 40 b7 be
       0.9659082 0.10001304 0.23098756 -0.3579165
000020 b2 94 1a 3f 75 09 e0 3e 56 60 0c bd 97 1c fd bc
       0.6038314 0.43757215 -0.03427156 -0.030897422
000030 ed 48 6b bf 72 66 c8 3e ee 97 60 3d 4b 94 b3 3e
       -0.9190815 0.3914066 0.05483239 0.35074076

weight f4 [16, 1]
000000 92 71 24 bf 20 b9 8d 3e 2a 39 ce be 68 ad 9d be
       -0.64235795 0.27680302 -0.40277988 -0.3079636
000010 6a ac 77 3f a3 9b 51 3f ea 0c be 3e 1d 8f 6a bf
       0.9674746 0.8187811 0.37119228 -0.91624624
000020 fc 6e 06 3f 28 8c 8f bf a5 97 92 be 46 92 72 bf
       0.525131 -1.1214647 -0.2863132 -0.94754446
000030 66 5c 32 bd 3a 36 03 be d4 63 86 bf d8 e9 52 3f
       -0.04354515 -0.12813655 -1.0499215 0.8238807

bias f4 [16]
000000 37 34 98 3f da 77 cb be 86 92 da be 6b d8 c9 be
       1.1890935 -0.39739877 -0.42689914 -0.39422926
000010 78 4a 29 3f 02 bd 8c 3e c1 90 19 3f 87 61 85 be
       0.66129255 0.27487952 0.599865 -0.2605097
000020 5a fb 23 3f 70 af 61 3e e6 08 82 bf 7b 3d 20 3f
       0.6405541 0.2203958 -1.0158966 0.6259381
000030 b3 a8 41 3f 83 9e 48 bd 77 40 68 3e 2c 65 88 3f
       0.7564804 -0.048979294 0.22680841 1.0655875

weight f4 [16, 3]
000000 69 87 0f 3f 94 69 77 bd 1f 8d c6 be a3 80 e0 3e
       0.56065995 -0.06040342 -0.38779542 0.43848142
000010 27 d3 00 bf ed 2d 78 be 3b cb 1a 3f 64 a5 a9 3e
       -0.5032219 -0.2423627 0.60466355 0.33133996
000020 57 66 2c 3e 29 f4 95 be 14 5d 11 bf 10 2e cb 3e
       0.16835915 -0.29287842 -0.5678265 0.3968358
000030 3d 1c d4 bd c7 e9 89 3d c6 b7 e5 be 7f a0 c4 bd
       -0.103569485 0.067340426 -0.4486677 -0.09600925
000040 de 8c e2 be db 4e 86 bd 44 56 08 be 70 93 26 3f
       -0.44248098 -0.06558009 -0.13314158 0.6506872
000050 c8 54 d9 3e b7 b1 b9 bc e9 92 11 be 3d 8e aa bc
       0.42447495 -0.022667749 -0.14216198 -0.020819778
000060 e9 7b ad be 6c a2 10 3f 38 69 5e be 32 6d 4d bd
       -0.33883598 0.56497836 -0.21719825 -0.050152965
000070 8d 0c ae 3e 59 c6 74 bd ce e7 3b bd ff 2c a0 3d
       0.3399395 -0.05975947 -0.045875363 0.07821082
000080 f3 17 0d bd 61 5a a2 be bf e7 27 3f 68 d7 b2 be
       -0.034446668 -0.3170958 0.6558799 -0.34929967
000090 33 6c 12 3f be ab ba 3e 21 6a b6 3e 68 40 f5 3e
       0.5719635 0.36459154 0.35627845 0.479007
0000a0 80 48 84 be 9d 30 d9 3e a8 dc 95 be 22 ff 92 be
       -0.25836563 0.42419901 -0.2926991 -0.28710276
0000b0 2c cc 81 be 62 ed 32 be 61 25 b3 be ff 9d c3 be
       -0.25351083 -0.17473367 -0.34989455 -0.3820648

weight f4 [16, 3]
000000 96 70 5b bd ab f9 00 be 05 2d 22 3f 10 a7 28 3f
       -0.053574167 -0.12595241 0.63349944 0.6587992
000010 52 3c 8a be 07 ed 9d be 9b 97 83 be 61 ff cd bd
       -0.26999146 -0.308449 -0.25701603 -0.10058475
000020 05 67 07 bf b8 c0 e9 3e 3c ea 80 be 62 7e b2 be
       -0.5289157 0.45654845 -0.25178707 -0.34862047
000030 b3 f9 49 bf 7f f1 bb 3e 3f 01 b1 3e 4e ea be 3d
       -0.78896636 0.36707684 0.34571263 0.09322034
000040 a6 83 87 3f 1c aa a8 be e0 a3 93 3b 43 87 0e 3f
       1.0587051 -0.32942283 0.0045056194 0.55675143
000050 09 ae 87 bd 6f 74 8a be f3 1b 07 bf f2 17 44 be
       -0.066249914 -0.27041957 -0.5277702 -0.1914976
000060 1f 82 d6 3e 35 a9 12 bf 05 0a 9c 3e 65 98 c2 be
       0.4189615 -0.5728944 0.30476394 -0.38006893
000070 32 50 e6 3e 73 3d d6 bd fe 8a c9 be 8e f8 9a 3e
       0.4498306 -0.10460939 -0.39363855 0.30267757
000080 f1 c6 03 3e 1a 83 94 3e 09 1d 98 bd 24 33 bf 3e
       0.12868859 0.29006273 -0.07427413 0.37343705
000090 cb b4 9f 3e 26 82 35 bf 64 1e 03 3f ea 17 d3 3e
       0.31192622 -0.70901716 0.5121825 0.41229182
0000a0 c9 86 36 be 90 27 d6 3e d5 51 98 bd 78 c7 31 be
       -0.17824854 0.4182706 -0.07437483 -0.17361248
0000b0 11 5c 0d 3f ac 83 c8 3e 9c 05 bb bd 08 e3 bf 3e
       0.5521861 0.39162958 -0.09131929 0.374779

bias f4 [16]
000000 b8 c9 5e bf fa 47 41 3f 89 a9 03 3b 5a 1d 82 3f
       -0.8702655 0.7550045 0.0020090064 1.0165207
000010 4e 60 70 bf 78 36 51 3f 23 05 16 3f be d0 e5 be
       -0.9389695 0.8172374 0.5860159 -0.4488582
000020 6e e8 d6 3d 66 c7 14 3f 82 6e f5 bd 39 77 1e 3f
       0.10493551 0.5811676 -0.11983968 0.6190067
000030 bd 9c 82 be e4 f8 8d be f3 2f 9c bf 56 d6 bc bd
       -0.25510207 -0.2772895 -1.2202133 -0.09220569

weight f4 [16, 1]
000000 9f 03 49 3f 74 a1 91 3e 66 2e 3b 3f be b0 63 3f
       0.7852115 0.2844349 0.73117673 0.8894156
000010 49 ea 1c 3f d5 81 83 be 6c 62 dc 3d 36 dc b4 bd
       0.6129499 -0.2568499 0.1076096 -0.088310644
000020 a5 df 3f bf f8 a6 72 bf dd 6d 0c 3f 76 ef 41 bf
       -0.7495063 -0.94786024 0.5485514 -0.75756013
000030 c3 69 d1 be 8a a6 25 bf 81 dc 4a 3f 96 aa 1b bf
       -0.40901002 -0.64707243 0.7924271 -0.6080717

weight f4 [16]
000000 05 17 7f 3f 8c f4 9b 3f 07 5c 77 3f d2 99 74 3f
       0.996445 1.2184005 0.966248 0.9554721
000010 da 80 83 3f 2f 88 85 3f 8b 07 69 3f da 30 87 3f
       1.0273697 1.0432185 0.91027135 1.0561783
000020 46 7b 90 3f f2 49 81 3f 38 94 86 3f c1 d2 8d 3f
       1.128762 1.0100691 1.0513983 1.1079942
000030 d7 a6 84 3f 9d a5 7b 3f 4c 18 87 3f 54 65 6e 3f
       1.0363415 0.9829958 1.055429 0.93123364

bias f4 [16]
000000 6a 4b fa 3d 0f fe d9 bd c0 5b 99 38 c8 85 1d bd
       0.12221415 -0.10644161 7.312698e-05 -0.038457662
000010 00 15 4a bd 6a 65 80 3d b5 0a 53 3e 95 26 22 bd
       -0.049336433 0.06269343 0.20609553 -0.039587576
000020 99 b7 85 3d 35 26 1c be 0c 5f 18 3d f6 45 19 be
       0.06529159 -0.1524895 0.03720002 -0.14968094
000030 33 7e 41 bd fa 22 1f be 35 f2 52 3d e5 f4 16 bd
       -0.047239494 -0.15540686 0.051500518 -0.036854643

running_mean f4 [16]
000000 83 af 11 3f c3 da e7 3e e1 6d e8 3e c6 01 f8 3e
       0.56908435 0.4528409 0.4539633 0.48438853
000010 eb 52 31 3f f8 96 0b 3f 32 60 1d 3f 4d 9f ca 3e
       0.6926715 0.54527235 0.6147491 0.39574662
000020 b3 90 31 3f 31 80 20 3f 54 13 08 3f f1 d9 f6 3e
       0.6936142 0.62695605 0.5315449 0.4821315
000030 ba 38 a4 3e b6 8b 15 3f 84 46 ff 3e 7e 36 1c 3f
       0.3207453 0.58416307 0.49858487 0.6102065

running_var f4 [16]
000000 05 ee 3d 38 3d 56 0e 39 52 07 19 3a 3f 10 06 3a
       4.5282784e-05 0.00013574302 0.00058375776 0.0005114115
000010 73 fe 63 3a 5f 37 d1 39 88 71 7a 3a 71 55 7c 39
       0.00086972787 0.0003990484 0.00095536606 0.00024064422
000020 56 ce 3f 3a 5c 1f 1a 3a 8e 85 50 3a 0a a1 bd 39
       0.0007316818 0.00058793067 0.00079544715 0.00036168873
000030 bc f9 89 3a eb 8c 0e 3a 88 d1 ed 38 50 98 49 39
       0.0010526697 0.00054378685 0.00011340069 0.00019225595

weight f4 [16]
000000 ec 31 7f 3f ae ec 6f 3f 68 89 85 3f 08 f1 7f 3f
       0.9968555 0.9372052 1.0432558 0.9997716
000010 d5 8d a8 3f 17 a6 7e 3f 89 2f 7b 3f 0c 86 86 3f
       1.3168284 0.99472183 0.9811941 1.0509658
000020 00 00 80 3f 8e 76 ad 3f dd ef 84 3f 27 a0 92 3f
       1.0 1.3551805 1.03857 1.1455125
000030 2b b1 86 3f 65 9a 86 3f d3 34 8b 3f 3e 98 8c 3f
       1.0522817 1.0515867 1.0875496 1.0983961

bias f4 [16]
000000 ba fb 1a bd d5 ac 35 bd f6 53 1b 3c 48 0e 8f bd
       -0.03783772 -0.04435428 0.009480467 -0.06985146
000010 95 b8 2f be 37 02 ba bd e6 d1 c5 3d f1 91 0b bd
       -0.17160256 -0.09082454 0.096591756 -0.034074727
000020 bb f8 97 3e c3 01 bf bc 65 01 ae ba fa 27 33 3e
       0.29681954 -0.02331627 -0.0013275562 0.17495719
000030 75 f2 30 bd b6 e6 1d 3e 56 ca 98 be 02 c9 4f be
       -0.043199975 0.1542004 -0.2984187 -0.20291522

running_mean f4 [16]
000000 d8 ab 1e 3f e0 9c 03 3f c3 28 41 3e d3 13 ca 3e
       0.6198096 0.5141125 0.18863206 0.3946825
000010 27 be e6 3e 97 83 45 3f 73 52 11 3f a6 dd d9 3e
       0.4506695 0.77153915 0.5676643 0.42551917
000020 fc ff 7f 3f d6 f2 de 3e fe e3 a5 3d 23 33 4b 3f
       0.99999976 0.43544644 0.08100127 0.79374903
000030 90 52 29 3f 73 3b e0 3e fe 41 4c 3e ee 39 67 3f
       0.66141605 0.43795356 0.19947049 0.9032277

running_var f4 [16]
000000 7d fa 8b 3c 19 81 4a 3c a3 f8 6d 3b 59 38 9a 3b
       0.017087216 0.012359881 0.003631153 0.004706424
000010 1a 0b 37 3c d8 34 20 3c 2a 27 99 3c 84 ea 41 3c
       0.01117208 0.009778224 0.018695433 0.011835698
000020 04 00 00 00 a9 09 87 3b 1b 23 ff 39 77 19 04 3c
       6e-45 0.0041210246 0.00048663546 0.008062712
000030 54 01 39 3c 8c eb 05 3c 97 15 98 3b 39 ae 63 3b
       0.011291821 0.0081738345 0.0046412456 0.0034741296

weight f4 [16]
000000 b7 18 97 3f 6e 15 97 3f dc 23 8b 3f 3f cb 87 3f
       1.1804417 1.1803415 1.0870318 1.0608901
000010 4b bd 90 3f 09 2c a4 3f 72 be a7 3f 54 d8 8b 3f
       1.1307768 1.2825938 1.3104994 1.0925393
000020 6b cf 88 3f 4f b0 90 3f 18 0d a5 3f a9 9e a8 3f
       1.0688299 1.1303805 1.2894621 1.3173419
000030 18 9a a8 3f c0 1d 91 3f 1c 27 9e 3f e7 0d 90 3f
       1.3172026 1.1337204 1.2355685 1.1254243

bias f4 [16]
000000 c9 17 01 be be 21 1f 3d ac 88 95 bb 81 52 54 3e
       -0.1260673 0.03885054 -0.0045634117 0.20734598
000010 33 84 0a 3d 13 68 c0 3d 84 e4 9d bd ce 8c 01 be
       0.03381748 0.093948506 -0.077096015 -0.12651369
000020 9c cf 17 3d 01 e9 ed 3c 87 d5 bc 3d 50 cd 29 bd
       0.037063226 0.029041769 0.092204146 -0.041455567
000030 a4 b2 98 bc cc d4 5e bd 67 d7 ee bd ae d7 9e bc
       -0.01863987 -0.054402158 -0.116621785 -0.019389953

running_mean f4 [16]
000000 78 1d c1 3e 2b 5a 63 3f ae 38 ec 3e 36 7d 53 3f
       0.37717795 0.8880946 0.46136993 0.8261293
000010 00 5c 54 3e b2 98 63 3f 45 f2 4c 3f 24 ea e1 3e
       0.2073822 0.8890487 0.80057174 0.44123948
000020 fe bd 0f 3f f4 a5 02 3f e5 0a a9 3e da 46 37 3f
       0.5614928 0.51034474 0.33016124 0.71592486
000030 98 56 88 3e ed 6d 06 3f 96 16 1f 3e a0 65 d0 3e
       0.26628566 0.52511483 0.1553596 0.40702534

running_var f4 [16]
000000 8a bc 3d 3a b7 cc 1e 3a 1b 28 67 3c 98 1b 0e 3b
       0.00072378723 0.00060577266 0.014108683 0.0021683928
000010 fe 5d 4c 3a a0 9d c4 3a 7c dc cb 39 55 b8 01 3b
       0.00077959883 0.0015000589 0.0003888345 0.0019793708
000020 6c 89 19 3b c4 04 a7 3b 72 81 88 3b 0c 0a c3 39
       0.0023427857 0.0050970037 0.0041658217 0.00037200784
000030 16 af 0a 3b bc 7e d1 3b 67 dc 04 3a d3 a2 e7 3b
       0.0021161488 0.0063932817 0.0005068243 0.0070689707

weight f4 [16, 16]
000000 f6 04 41 bd 25 d0 95 3e b3 88 91 be f4 e1 3e be
       -0.04712387 0.29260364 -0.28424606 -0.18640882
000010 61 c7 4c 3e ae 2c f4 bc 46 f2 75 3d ae bc 76 be
       0.19997932 -0.029806461 0.060045503 -0.24095413
000020 83 a0 a0 3d e1 86 6f 3e f3 65 b3 bd 25 3b 2e 3e
       0.07843115 0.23391296 -0.0875968 0.1701475
000030 a5 dc 97 bd 92 09 0c 3e db f6 68 3e f6 05 57 bd
       -0.074151315 0.13675526 0.22750418 -0.05249592
000040 f4 a4 67 3d b1 ab 0c 3e f1 e5 b5 bd c8 40 8c 3e
       0.056553796 0.1373737 -0.088817485 0.27393174
000050 18 5e 72 be 7a 29 40 3e 48 9e d8 bc 47 6d 80 3d
       -0.23668706 0.18765822 -0.026442662 0.06270843
000060 61 ed 0f 3e 9f 2c 8a 3e e3 db 64 3e 59 e5 6c be
       0.14055397 0.26987168 0.22349505 -0.23134364
000070 67 0d 71 3d 0d a4 15 3e 52 32 8c be a7 46 60 3e
       0.058850672 0.14613362 -0.2738214 0.21901952
000080 2c e5 03 be 5a bc 23 3d 8e 05 e8 3d a9 f2 99 3d
       -0.12880391 0.039974548 0.113291845 0.07516987
000090 dc 06 b9 3e be 86 a8 3c 62 0f d0 3d 68 c4 52 3e
       0.36138046 0.020572063 0.10159184 0.20582736
0000a0 6d 4c 8a be de d9 b6 3d a9 58 bf be 2c a1 bf bc
       -0.27011433 0.089282736 -0.3737233 -0.023392282
0000b0 86 59 b8 be 3c 8a 16 be 1e e0 b1 3e 01 89 85 be
       -0.360058 -0.1470117 0.347413 -0.26081088
0000c0 be 44 04 bc c4 d2 8c bd f1 84 5b bd 1d 3d 06 3e
       -0.00807303 -0.06876138 -0.05359358 0.1310925
0000d0 ae 24 89 be 60 6e 00 be 82 45 e5 3d 85 82 a8 3e
       -0.26785797 -0.12542105 0.11194898 0.32912078
0000e0 5c af 9a bb f2 89 03 be b4 87 90 be f9 4e a1 3e
       -0.0047206115 -0.1284559 -0.28228533 0.31505564
0000f0 19 37 45 3d c1 9b 2b 3e 9e 42 59 3e 06 30 88 3d
       0.04814825 0.16758634 0.21216819 0.06649785
000100 bb f2 1a be 71 78 0c be c0 e9 6a 3e 5c f3 21 be
       -0.15131657 -0.1371782 0.22940731 -0.1581549
000110 83 d3 a4 bd a2 a3 83 3d 58 7b 77 3d ee 98 ec bd
       -0.08048155 0.06427695 0.060420364 -0.115526065
000120 df 6e 69 3e 98 92 ca bd 3c 4d 22 be 5a 49 6b be
       0.227962 -0.09891242 -0.15849775 -0.229772
000130 a9 b7 61 be fa 37 14 3e 00 e7 0f bd 88 a9 34 be
       -0.22042717 0.14474478 -0.03513241 -0.17642796
000140 dc 8b b9 bd 8c 4c 5a bc 3e 51 35 be d0 08 ba bd
       -0.09059879 -0.013323914 -0.17706773 -0.09083712
000150 d4 3e bf bb fc c4 c6 3d ea 93 49 3d 68 bb 1a be
       -0.005836347 0.097055405 0.049213327 -0.15110552
000160 53 5a c0 3e eb be 9e 3d 48 0a 9e 3e 3e 95 10 3e
       0.37568912 0.077512585 0.3086722 0.14119431
000170 cf 2c 2a be 7b 16 4b 3c 91 79 9a be c9 8e 1a bc
       -0.16618656 0.0123954965 -0.30170873 -0.009433457
000180 fe d5 b6 3c f0 c4 5e 3e d2 55 3f be 9c 0b b0 3d
       0.022318836 0.21754813 -0.18685082 0.08595964
000190 54 0d 97 be d6 25 9a 3e e4 cb 6e 3b d6 33 66 bd
       -0.29502356 0.30106992 0.0036437446 -0.05620178
0001a0 b9 dd b9 3e 39 0d 29 be 67 fa 4b 3e 9d 1c 87 3e
       0.36301973 -0.1650895 0.1991974 0.26389018
0001b0 b9 c4 99 bd 1b c2 04 bd 07 e7 92 be 35 e5 6b 3e
       -0.07508225 -0.032411676 -0.28691885 0.23036654
0001c0 4f 3b 9c bd 0a da 97 3d 19 7a 22 3e 39 19 a6 bd
       -0.076285 0.074146345 0.15866889 -0.081102796
0001d0 03 39 b5 3c 0a e7 0c be 66 eb ca 3d b2 73 47 bd
       0.022121912 -0.1376001 0.0990818 -0.04869432
0001e0 58 aa 64 be e9 26 2a 3e 07 c5 88 3e f0 5f a2 3d
       -0.22330606 0.16616406 0.2671282 0.07928455
0001f0 03 ce d4 3d 2e a7 64 bd 6e 60 76 be b4 75 d9 bd
       0.10390856 -0.055823497 -0.24060223 -0.10618153
000200 f7 1b 69 3e 2c fd 83 bd 21 be 79 bd e8 4f 6b 3e
       0.22764574 -0.06444773 -0.060972337 0.229797
000210 78 ce 25 be 59 ed 8a 3e 9c 95 05 3e 87 ce 93 3c
       -0.16192043 0.27134207 0.13045353 0.018042816
000220 48 c7 b6 bd 35 23 34 3e 25 23 41 3e 08 25 b8 be
       -0.08924729 0.17591555 0.18861063 -0.35965753
000230 11 40 8d be 7c 66 64 be 40 e5 0c 3e 0c c7 4c be
       -0.2758794 -0.2230472 0.13759327 -0.19997805
000240 0f 3f 34 be c0 67 54 bd 52 d5 5c be 7e ea 8d be
       -0.1760218 -0.051856756 -0.2156575 -0.27717966
000250 93 23 2c 3e 13 db 4c 3e f4 3e c0 3d ed 78 70 3e
       0.16810445 0.20005445 0.09387007 0.2348363
000260 aa 4b f6 3b 0b 34 00 3e 46 61 63 3d 17 95 26 3e
       0.007516344 0.12519853 0.05551269 0.16267811
000270 ce 4e c6 bc eb 35 1b be 84 42 61 be fe 35 5c 3e
       -0.024207499 -0.15157287 -0.2199803 0.21504971
000280 88 74 c5 3d f2 9b 12 bf 7f 8b a1 bd 62 2d cb bd
       0.09641367 -0.57269204 -0.07887935 -0.099207655
000290 6c 8e cb 3c bc 20 0f be 00 67 3a 3d 58 50 6c be
       0.024848185 -0.13977331 0.045508385 -0.23077524
0002a0 7b db 99 be b3 68 04 3c 40 0a 59 be da 89 5a be
       -0.30050263 0.008081603 -0.21195316 -0.21341649
0002b0 5a b7 0c 3e 27 af 8a 3e 47 df 5a bd 83 1c 5a bc
       0.13741818 0.27086756 -0.05343559 -0.013312462
0002c0 d2 0c 21 be 5c 9b a8 bd 27 d4 89 3d d5 49 ae 3b
       -0.15727547 -0.082327574 0.06729918 0.00531886
0002d0 c5 2f 6b be 4b 95 41 be 6b 75 d8 bd b6 6d 90 3d
       -0.22967441 -0.18904607 -0.10569271 0.07052176
0002e0 c6 7f 2a bc 88 b1 0f 3e 88 74 8b bb a9 d0 1c be
       -0.01040644 0.14032567 -0.004255835 -0.15313973
0002f0 c7 8c f4 bb bf 1a 94 3e 4e 76 0e be fc 95 df 3c
       -0.007463071 0.28926656 -0.13912317 0.027293198
000300 d8 69 d1 3a a4 17 55 3d 9a fb 31 3e df a0 33 3e
       0.0015976978 0.0520245 0.17381135 0.17541836
000310 01 57 41 3e f7 4f 59 be e0 01 61 3e f2 c1 39 3e
       0.18880846 -0.2122191 0.21973372 0.1814039
000320 9c 56 d9 3d 45 3e 93 3d 5e b5 1e 3d fc 39 41 3e
       0.106122226 0.07189611 0.038747184 0.18869776
000330 13 4e a0 3b c9 d0 2b 3c 35 ce 19 bd 4c 8b 4c be
       0.0048921197 0.01048679 -0.03755017 -0.19975013
000340 e1 b5 3e 3e f1 88 2d 3d 2f 92 ac 3d 81 50 9b bd
       0.18624069 0.042366926 0.0842632 -0.07583714
000350 8a 12 56 3e 4c 9f 42 be 7b 4d e1 bd b5 60 39 bc
       0.2090551 -0.1900608 -0.11001106 -0.011314561
000360 9d 72 d9 bd 21 8c 4f be 7b 2c 07 be b4 bd 64 3d
       -0.10617564 -0.20268299 -0.13200562 0.055844977
000370 42 b0 22 be f9 63 87 bd e8 33 9a 3c 80 12 21 3d
       -0.1588755 -0.06610865 0.018823579 0.039324284
000380 44 54 17 be 16 23 f8 bd 20 64 7e 3d 6b 3d de bd
       -0.14778239 -0.12116067 0.062107205 -0.10851558
000390 ac e3 88 3e bc 37 f3 bd 41 93 01 be 15 df 31 3d
       0.267362 -0.11875865 -0.12653829 0.04342564
0003a0 4a 72 2c 3d 4d ec e7 bd 31 f9 d1 3c 52 7f 53 be
       0.042101182 -0.11324368 0.025631519 -0.20654038
0003b0 eb d5 61 be 36 34 cb bd 60 50 87 3e f6 82 cc bc
       -0.2205426 -0.09922068 0.2642851 -0.02496479
0003c0 de 53 23 bd 99 e0 f4 bd b4 1e 5c 3c aa e6 21 be
       -0.039874904 -0.11956901 0.013435055 -0.15810648
0003d0 d0 28 99 3d de 14 71 be d7 8a 5e 3e e9 e1 87 be
       0.074784875 -0.23543116 0.2173265 -0.26539543
0003e0 0c 93 7a 3e 4f 62 78 be 87 8c 6c 3e ff de 38 be
       0.24470156 -0.24256252 0.23100482 -0.18053816
0003f0 ed 2e 16 3e de 16 6c bd d2 e2 1a 3e 9d b7 70 3e
       0.14666338 -0.057638995 0.15125588 0.23507543

bias f4 [16]
000000 64 fe 0b be 42 0c 80 be a2 fb a5 be c4 11 38 3e
       -0.13671261 -0.25009352 -0.32418543 0.17975527
000010 c2 33 02 be 35 d3 89 be 66 68 1e 3e c9 4f 4f be
       -0.12715057 -0.2691895 0.15469512 -0.2024528
000020 04 25 82 3e 5c 0a 4d bd 92 09 72 39 5d e1 94 be
       0.25418866 -0.050058708 0.00023082484 -0.2907819
000030 0d 86 d8 3d 71 2d 7a bd 6f f4 e5 3d 97 7c 9e 3d
       0.10572443 -0.061078493 0.11228263 0.077386074

weight f4 [16, 16]
000000 59 88 ca bd 13 b2 76 be f0 f8 d1 3d 17 82 e1 bc
       -0.098892875 -0.24091367 0.10252559 -0.027527852
000010 2d cc 42 3e 28 7c 73 be 4a a7 14 3c 83 7c fb bc
       0.190232 -0.2377783 0.009073088 -0.03069902
000020 aa 42 00 be fa 06 3f be 40 33 32 3d b9 6a 5b be
       -0.1252543 -0.18655005 0.043505907 -0.2142743
000030 6f ff 7c 3e 3a 7b 12 3e ff 54 1b be 36 bb af bc
       0.24706815 0.1430482 -0.15169142 -0.021451574
000040 a1 da 84 bd bc cd 03 be f8 72 40 bd 4e a5 92 3d
       -0.06487013 -0.1287145 -0.046984643 0.071604356
000050 20 b8 23 3e 6a 8e b3 bd 5a d6 d4 bd c0 26 74 3e
       0.15988207 -0.08767398 -0.10392447 0.23842907
000060 11 da 2b 3d 4a 3c 3f be fd b4 72 bc 5f 76 d6 3d
       0.04195601 -0.18675342 -0.014813659 0.10471796
000070 93 84 14 3e 37 f4 c9 3c 69 6e 67 3e c0 3b 07 be
       0.14503698 0.024652584 0.22600712 -0.13206387
000080 33 00 e8 bd 6e b1 b7 3c e3 f9 37 bd 86 a8 3e 3e
       -0.11328163 0.022423472 -0.044916045 0.18618974
000090 9d a0 82 3d 2c dd cc 3d 1f ef 96 be 00 42 a8 bd
       0.06378291 0.10003123 -0.2947931 -0.082157135
0000a0 b4 bc ad be 45 62 23 3d 59 84 1a 3e ef 90 6d 3e
       -0.33933032 0.03988864 0.15089549 0.23199819
0000b0 90 ff 17 bc f1 2b 62 be 2a 2f 1a 3e 57 dd 15 3e
       -0.009277239 -0.22087075 0.15057054 0.14635216
0000c0 ff d0 80 3e e9 2e 88 3d 63 0e 65 be 6e 78 6e bc
       0.2515945 0.066495724 -0.2236877 -0.01455508
0000d0 06 6c 45 be ac e9 2b 3e 44 d3 6c 3e 32 e9 8a 3e
       -0.19279489 0.16788357 0.23127466 0.2713104
0000e0 18 47 24 bd ef 30 26 3e c7 44 9b bd 87 e8 fd bc
       -0.040106863 0.16229604 -0.075814776 -0.030994667
0000f0 62 4a d8 bd 42 f8 88 bd e0 92 1d bd 4d 2e 23 be
       -0.105610624 -0.066879764 -0.03847015 -0.15935631
000100 b5 c2 20 be d0 c6 ee bd 74 4d 1b 3e dd 4f 96 3e
       -0.15699275 -0.11659014 0.15166265 0.29357806
000110 19 b1 59 bd 25 5f d1 3c 6f 48 c4 3c c6 a1 50 3d
       -0.05314741 0.025558064 0.02396032 0.05093553
000120 4b a4 07 be 12 90 ac 3e b9 a3 82 3e 42 1e bc 3d
       -0.13246267 0.33703667 0.25515535 0.09185459
000130 b9 5f 69 be e4 58 30 be b5 01 4e be 54 9c c0 be
       -0.22790422 -0.17221409 -0.20117839 -0.3761927
000140 58 72 34 3d 26 e1 fe 3d 04 1a d7 3a ae cd 08 3e
       0.04405436 0.124452874 0.0016410952 0.1335971
000150 96 92 1c 3e e1 8c 3e bd e0 cf 8b be b5 d1 74 3e
       0.15290293 -0.04652107 -0.27307034 0.23908122
000160 93 ed 4f be 83 bb c5 3c 93 6b 1e be cb 5f a5 bd
       -0.20305471 0.024137264 -0.15470724 -0.08074912
000170 7c 3d 77 be d2 bd 31 3e 0e 55 ab bd 22 46 7c 3d
       -0.24144548 0.17357567 -0.08365832 0.06159032
000180 9c 3c 02 3e 9f 88 83 3d df bd 8e 3d d0 c5 44 be
       0.12718433 0.06422543 0.06969809 -0.19216084
000190 5f 8d 83 bc 64 8c 97 bd 34 54 a3 bc 66 c1 11 3d
       -0.016058622 -0.07399824 -0.019937612 0.03558483
0001a0 9e e3 00 3e 64 6e 60 bd 3b dd 31 bd 35 1b 1e 3e
       0.12586829 -0.054792777 -0.043423872 0.15440066
0001b0 5d f7 2b 3e 56 74 cb 3d 33 89 71 3e 3c f9 09 be
       0.1679358 0.09934299 0.23587494 -0.13473982
0001c0 c8 8b 33 be ab 5e 82 3d 09 f7 ee bc c6 e1 b7 3d
       -0.17533791 0.06365713 -0.02917053 0.0897861
0001d0 f8 ea 0d be 34 7d 83 be 7e 89 13 3d 08 4a 19 3e
       -0.13859165 -0.2568146 0.036019795 0.14969647
0001e0 ac bf a1 be 2f bd 17 3b 9a 46 f7 3b 9a e6 ac bd
       -0.31591547 0.0023153534 0.007546258 -0.08442421
0001f0 f2 a4 da 3a 01 cf 60 3e 1f 4e 5e 3e df df 8c bd
       0.0016681238 0.21953966 0.21709488 -0.068786375
000200 9e c5 26 3e 2c b2 30 be 36 31 d9 bd 1e d8 a0 be
       0.16286322 -0.17255467 -0.10605089 -0.31414884
000210 17 eb 5f bc 7c 65 3c 3d 36 f9 22 be c7 36 55 bd
       -0.01366689 0.04599522 -0.15915379 -0.052054193
000220 b8 67 cd 3e e9 4c a2 bc ed c7 51 3d 2d b1 e5 3d
       0.40118194 -0.019812064 0.051216055 0.11215434
000230 ba 43 83 3e 40 9d a2 3d 94 7e 42 3e f4 33 ea 3c
       0.2563761 0.07940149 0.18993598 0.028589226
000240 fb 90 30 be 08 10 bf bd 30 b5 75 3b 5d 05 9c bc
       -0.17242806 -0.093292296 0.003749203 -0.019045526
000250 a4 8d 9f 3c a7 5a ab 3d b0 ec 99 3e 8c 32 71 3c
       0.01947672 0.083669 0.3006339 0.014721524
000260 63 85 07 be ee fe 42 be e0 09 a1 3e 45 d2 b1 3e
       -0.13234477 -0.1904256 0.31452847 0.34730735
000270 9a 38 d0 3c cc fd 3b be 65 6e 89 be 33 9e 9f 3d
       0.025417615 -0.18358535 -0.26842037 0.07793846
000280 fd 1e 16 3e 5d 62 9b 3e 82 c2 9f 3d f7 51 2f 3e
       0.14660259 0.30348483 0.07800771 0.17121111
000290 9c 18 31 3e b2 b1 cb bd ce 0f f5 3d 02 68 fe 3d
       0.17294544 -0.09946002 0.11965905 0.12422182
0002a0 01 0c 59 bd f5 32 27 bd be 4b c0 3c a2 92 e1 3d
       -0.052989963 -0.04082008 0.023473617 0.11014296
0002b0 68 fb 20 3e 36 c3 12 be 64 58 79 be c9 a1 25 3e
       0.15720904 -0.1433228 -0.24350125 0.16174997
0002c0 24 7f 93 be b3 7d 91 be 6d cb 80 be ea 41 2f be
       -0.28807938 -0.28416213 -0.25155202 -0.17114988
0002d0 bd ed a0 bd 43 ba 33 be fe da fe bc 20 fe c6 bc
       -0.07857845 -0.17551522 -0.031110283 -0.024291098
0002e0 9c 6e ba be 73 4c ec bd fa 9a 63 be b5 7b 11 3e
       -0.36412513 -0.11538019 -0.22227088 0.14207347
0002f0 78 2a fa bd c5 73 44 be 84 6d 86 bb aa aa 3a be
       -0.122151315 -0.19184788 -0.0041024107 -0.18229166
000300 2a 21 7e 3c e1 1e 57 3e 85 b3 c4 3d 51 6f 81 be
       0.015510837 0.21007873 0.09604553 -0.2528024
000310 e6 28 df bd d2 bc 00 be 1b f5 b1 bd c6 99 bc bd
       -0.10896473 -0.12572029 -0.08689328 -0.092090175
000320 2b 9c a2 3e 28 5a 9e 3d df 62 9f be b2 9c a6 be
       0.31759772 0.0773204 -0.3113012 -0.32541424
000330 4c 1f b5 bd cb 26 c2 bd 76 78 38 be b2 ca a6 3c
       -0.0884386 -0.094800554 -0.18014702 0.020360325
000340 94 e8 47 be 43 29 e8 3d 0e 25 08 be d8 83 53 bc
       -0.19522315 0.11335995 -0.13295385 -0.012909852
000350 1d c4 4d bc 4c e2 35 be 49 27 84 bc 76 83 e7 bd
       -0.012558964 -0.17762107 -0.016132014 -0.11304371
000360 2c bb de 3d 65 09 f7 bb ea 43 8b be a4 e8 7f 3c
       0.10875544 -0.0075389617 -0.27200252 0.015619431
000370 06 8b 20 3e 26 5e 00 3e b7 3a 4d 3e b6 45 92 3e
       0.15678033 0.12535915 0.20041929 0.2856881
000380 48 5e 08 3e 19 9d 28 be e1 36 81 3d 61 82 4b 3e
       0.13317215 -0.16466178 0.063092954 0.19873954
000390 dc 3f 2b bd 76 9b de bd a5 0d 9c bd 22 8f 39 bd
       -0.041808948 -0.108694956 -0.0761979 -0.045302518
0003a0 75 f3 05 be fb c5 b5 3e 93 f9 0f be 96 e7 7c 3e
       -0.13081153 0.3550261 -0.14060049 0.24697718
0003b0 74 55 ce bc b2 3a 60 3d ee f6 56 be b3 3c 8e 3b
       -0.025187232 0.054743476 -0.20992634 0.004340732
0003c0 d6 e7 b7 3c 53 7f 47 3c 47 2d 1c be 55 29 ca 3d
       0.022449415 0.012176353 -0.15251647 0.09871165
0003d0 04 56 53 be 96 91 e0 3d 1b c8 2c bd 35 f7 aa bd
       -0.20638281 0.10965268 -0.042183023 -0.08347932
0003e0 f5 42 9a bc 4b 61 21 3e 5e c3 dc bd 4f fd a5 bd
       -0.018830756 0.1575977 -0.10779451 -0.081049554
0003f0 b7 1b 48 be 1b 9a 6a bd d5 07 6e be da 21 9e be
       -0.19541822 -0.057275873 -0.23245175 -0.30885202

weight f4 [16, 16]
000000 22 15 a3 bd 28 1f 3f be 6a 9f 8d 3d 44 ff 9a be
       -0.07963015 -0.18664229 0.069151714 -0.30272877
000010 b1 00 80 3d 18 97 e5 bd 86 02 8e 3d a7 95 30 3d
       0.06250132 -0.112104595 0.06934075 0.04311147
000020 05 c5 82 3e 63 77 b7 3d 32 f8 21 be f8 cc 26 3e
       0.2554094 0.08958318 -0.15817335 0.16289127
000030 87 33 5c 3e db 7c 07 3e 88 52 14 3e f4 35 66 3e
       0.21504031 0.13231222 0.14484608 0.22481519
000040 14 be 7f bd 7b ae 24 3e ea 42 44 3e 0b bf 04 3d
       -0.062437132 0.16082184 0.1916615 0.032408755
000050 63 db e7 bb 2a e1 87 3c d1 ed 0d 3e 45 90 c4 3d
       -0.0070757135 0.016586859 0.13860251 0.0959783
000060 bd 54 c6 3d 53 90 57 3e 60 f0 01 be 4b 04 ec bd
       0.09684131 0.21051149 -0.12689352 -0.11524256
000070 08 0a 49 3e 43 57 81 be 2c 2a 36 3e 6f 47 40 be
       0.19632733 -0.25261888 0.17789525 -0.1877725
000080 a4 77 86 bc 54 ec 82 3e f3 c2 bc 3d 39 1c 3a 3e
       -0.016414471 0.2557093 0.09216871 0.18174829
000090 28 7e fb bd be 7c 31 be 32 57 7d 3d a9 ff 5e bd
       -0.12279922 -0.17332742 0.061850734 -0.054443035
0000a0 20 42 91 3e a7 17 b5 3a 31 eb 80 bd ca f7 b1 3d
       0.28370762 0.0013816253 -0.06294859 0.0868984
0000b0 e6 1b 92 3e 86 2b 5d 3e a7 19 8e 3d 67 f5 17 3e
       0.2853691 0.21598634 0.069384865 0.14839707
0000c0 0f 75 cc 3d e1 89 d9 bc 3d e0 59 3e d6 98 fa 3c
       0.09983265 -0.026555004 0.21276946 0.030590456
0000d0 d3 6c 1f bd 04 94 f8 bc 22 01 99 bc e3 c0 5f be
       -0.038922142 -0.030344017 -0.018677298 -0.21850924
0000e0 82 73 eb be 9d c5 11 be 96 7b 12 3e 10 c0 94 be
       -0.45986563 -0.1423554 0.14304957 -0.29052782
0000f0 7c 69 51 bd 40 44 fb bb b8 49 da 3d 3c 3f 85 3e
       -0.05112599 -0.007668048 0.10658592 0.26024806
000100 80 ed 3a be 15 d4 83 3d 48 ed 52 be 96 26 b4 bc
       -0.18254662 0.06436936 -0.20598328 -0.021991055
000110 f0 24 e0 3c 60 0f d1 3d 51 49 0b 3e d2 f0 04 bf
       0.027361363 0.10208011 0.13602187 -0.5192996
000120 dc bf 70 bd 57 f7 ac be 66 39 c6 bb 77 50 22 bf
       -0.05877672 -0.33782455 -0.006049323 -0.6340403
000130 5b d9 b4 3e a1 33 bc 3d 63 fd e4 be b2 49 f4 3d
       0.3532208 0.09189535 -0.4472457 0.11928119
000140 23 5d 11 3d c9 0d 53 3e e8 2c 81 be 3b c6 6e 3e
       0.035489213 0.20610727 -0.25229573 0.23317806
000150 de e1 5c 3e f8 6f 23 3d da 78 1c be 6f 70 ad bd
       0.21570536 0.039901704 -0.15280476 -0.08468711
000160 2e 20 19 bd f4 fd 25 be dc 66 0c be 78 73 a9 bc
       -0.037384205 -0.16210157 -0.13711113 -0.020684943
000170 a0 02 3f be 9a e7 88 3e ec 60 98 3c 03 61 c2 3d
       -0.18653345 0.26739198 0.018600903 0.0949116
000180 ab fb 04 3e 13 53 21 be 23 94 db 3d e9 5d 57 be
       0.12986629 -0.15754347 0.10721614 -0.21031918
000190 19 dd a9 bd ff ba 73 be c9 b9 8d 3e bc be 42 bd
       -0.08294124 -0.23801802 0.27680805 -0.04754518
0001a0 21 85 3e 3c 74 fc dd 3d 05 b4 35 be ac 07 36 3d
       0.01162842 0.10839167 -0.17744453 0.04444091
0001b0 e2 55 ed bd 98 e7 0d 3e 07 14 48 3e 28 22 f1 3d
       -0.115886465 0.13857877 0.1953889 0.11774093
0001c0 d6 55 9e bd 29 1e 98 3d 3e 3a 4d bd 47 79 a0 3e
       -0.07731216 0.074276276 -0.050104372 0.31342527
0001d0 f0 fd f3 3d 6b 88 95 3e 3c f0 58 bd 1c 9f 1f bd
       0.11913669 0.2920564 -0.05296348 -0.038970098
0001e0 fe 21 a1 bd a8 df 33 3e 1c db 8b bd b5 bd bf be
       -0.078678116 0.17565787 -0.06828901 -0.37449422
0001f0 a0 12 22 bd e7 9c 69 3d 7d 3c aa 3d ca 67 e4 3e
       -0.039568543 0.0570344 0.083123185 0.44610435
000200 e6 7a cb be ed 64 bb bb 56 d7 96 3e a8 66 8a 3d
       -0.39742202 -0.0057188184 0.29461163 0.067578614
000210 f3 4d d8 be d0 4a dc 3d eb 8a 0c 3e c2 d0 02 3e
       -0.4224697 0.10756457 0.13724868 0.12774947
000220 35 43 01 bd c2 21 23 3e be 70 ff bd c3 2b 29 3e
       -0.031558234 0.15930846 -0.12472676 0.165206
000230 59 6b 8f 3e 93 9c 91 3e 7c 8c 8a be 8a 32 0c be
       0.28011587 0.2843977 -0.27060306 -0.13691154
000240 0c ca d0 3c 8d b4 63 3d 47 2c 32 3e d5 88 90 3c
       0.025486968 0.05559211 0.17399703 0.017643372
000250 85 c4 98 3e 6c e7 c8 bc f9 1e 23 3e c5 08 79 be
       0.29837433 -0.024524413 0.15929784 -0.24319752
000260 0b ff 35 3e 4a 17 d2 bd ef ca 1c be 96 32 72 bd
       0.17773072 -0.10258348 -0.15311788 -0.059130274
000270 d6 f5 5c 3e b2 df 50 3e a9 e5 ad be 0a 14 38 bd
       0.21578154 0.20397833 -0.3396428 -0.044940986
000280 33 2e 9b bd 77 89 3f 3d b4 76 88 3e b9 cb 24 3e
       -0.07577171 0.046761956 0.26653063 0.16093339
000290 ed e9 bb be 18 50 38 3e 16 ed a9 bd 64 fa b1 bd
       -0.3670191 0.17999303 -0.08297174 -0.08690336
0002a0 0f e3 2a 3d 6a 23 68 3e 64 58 e6 3d 63 41 da 3c
       0.041720446 0.2266976 0.11247328 0.026642507
0002b0 a8 1c bf 3d e6 7b 61 3e 59 41 75 be 19 98 72 be
       0.093316376 0.2201992 -0.2395071 -0.23690833
0002c0 1b 5e ea 3d a2 17 29 3e a7 0f 22 3e ad 9d 3e 3c
       0.114437304 0.16512921 0.15826283 0.0116342725
0002d0 07 e5 80 bd 0d b8 37 be 05 69 df bc fa fb 3d 3e
       -0.062936835 -0.17941304 -0.027271757 0.18553153
0002e0 1e 92 cf 3d 79 d4 e5 bd 1e 0a 6e be f9 27 0b be
       0.101352915 -0.112221666 -0.23246047 -0.13589467
0002f0 34 3c 02 bc c5 85 76 3d ad 8e 2a 3d 3b 8b 5d be
       -0.007948924 0.060186166 0.041639972 -0.21635143
000300 50 78 52 be fd 75 0a 3e d7 d9 6f be 94 b5 28 3d
       -0.20553708 0.13521571 -0.23422943 0.04118879
000310 c2 05 3c 3e 39 fc 53 3e dd 56 12 3e 5a d5 7b 3d
       0.18361571 0.20701684 0.14290948 0.061482765
000320 64 5f 75 bd 8e a2 57 3e fe bb 29 3d 12 62 b9 3d
       -0.059905425 0.21058103 0.04143905 0.090519086
000330 a7 63 e0 bd 5e c5 b6 3e 48 8f c5 bd ba 2c 9a 3e
       -0.10956507 0.35697454 -0.09646469 0.3011225
000340 0b 69 1c 3e 59 8b 64 3e 45 af 32 3e 3b 28 8a be
       0.15274446 0.22318782 0.17449673 -0.26983818
000350 34 16 d8 bd 36 9c 01 be e3 12 61 bc 15 1d 1e 3e
       -0.1055111 -0.12657246 -0.013737413 0.15440781
000360 ba 32 4b 3e c7 69 86 3d d9 2c 2c 3e 40 e2 12 3e
       0.1984357 0.06563144 0.16813983 0.1434412
000370 1f 89 d1 3d e8 b6 27 3e e0 97 52 bd 1e 10 25 be
       0.10231232 0.16378367 -0.05141437 -0.1611943
000380 19 a0 3b be 04 1b 5b be cb 19 db bd b2 4c 49 be
       -0.18322791 -0.21397024 -0.10698279 -0.19658163
000390 44 5b c7 bd 43 dd a4 bd 7e a3 9b 3e 86 e3 02 be
       -0.097342044 -0.08050015 0.30398172 -0.12782106
0003a0 21 03 20 be 87 5e fe 3d dc 8a 75 3e 1a da 75 be
       -0.15626194 0.124203734 0.23978752 -0.2400898
0003b0 c4 e1 ed 3d ac 11 4d 3e fa 2f ca 3d 9a 9e 5c 3e
       0.11615327 0.20026273 0.09872432 0.21544877
0003c0 f6 a0 94 3d bf ee a5 ba 90 54 57 3e 24 3d 74 3d
       0.07257263 -0.0012659653 0.21028352 0.05962862
0003d0 69 fb 4b be 93 e2 45 3e 35 bc e8 3d 3c c6 ff bc
       -0.19920124 0.19324712 0.11364023 -0.031222455
0003e0 f1 2f 7f bd 1b a7 54 be 8a 40 96 3d 19 14 e7 3d
       -0.06230158 -0.2076687 0.073365286 0.1128313
0003f0 9f 4c 85 3c b9 6d 38 be 7e 73 17 bc 4a ff 5f 3c
       0.016271887 -0.18010606 -0.009243844 0.0136717055

bias f4 [16]
000000 45 5e 50 be fe cf cf 3e f7 77 a6 bc 39 e9 a5 be
       -0.20348461 0.40588373 -0.020320876 -0.32404497
000010 00 32 ef 3d 5e b2 19 3e 73 d5 d2 bc 45 02 6e be
       0.116794586 0.15009448 -0.025736546 -0.23243053
000020 80 e7 8e 3e db f7 55 be 20 06 88 bd a8 0f 1f be
       0.27910995 -0.2089533 -0.06641793 -0.15533316
000030 52 ba 6d be 71 e7 3e 3e 2b 1f e3 3d e6 1c 7b 3e
       -0.23215607 0.18642975 0.11089929 0.24522743

weight f4 [16, 16]
000000 03 68 93 3e bf 94 b8 be aa 4b 29 3e 09 bd ae bd
       0.28790292 -0.36050984 0.1653277 -0.08532149
000010 59 57 0a 3e 42 94 c1 3d 11 6b 01 3e 92 ea ff 3d
       0.13509883 0.09452106 0.12638499 0.124959126
000020 4c 8d 74 3e 52 67 12 be 8e 21 be bd 28 06 8e be
       0.23882025 -0.14297226 -0.09283744 -0.27739072
000030 5a 3d 89 be a9 ea 09 3c af ed 6e 3e 03 dd 84 be
       -0.2680462 0.008417764 0.23332857 -0.2594987
000040 59 9f 1f 3d 9a aa 6d be 4d 3a 39 be d2 7e 84 3c
       0.038970325 -0.2320961 -0.18088646 0.016173754
000050 f7 da 3a be bb e6 08 be 1b c4 9d bc 8b e5 e4 3d
       -0.18247591 -0.13369267 -0.01925855 0.11176594
000060 60 a1 72 be 37 36 70 bd 46 2f e5 bd ba 0c 40 be
       -0.23694372 -0.058645453 -0.11190657 -0.18754855
000070 15 a7 97 be 4c c2 55 3e 90 fa 6b 3e 5b 32 88 3d
       -0.2961966 0.208749 0.23044801 0.066502295
000080 08 25 c0 bd df 5d de bd 6a 0d 22 3d c6 98 43 be
       -0.09382063 -0.10857748 0.039563574 -0.19101247
000090 5c d5 13 3e 50 e6 42 3e 0a 36 60 be 0d 55 1a 3e
       0.14436859 0.1903317 -0.21895614 0.15071507
0000a0 cf 23 6d 3e 32 f7 70 3e 5c 3c 57 be 6a ca 7c be
       0.23158191 0.23531798 -0.21019119 -0.2468659
0000b0 92 fa f2 bd 25 7d 2f 3e 5c 02 59 3e d8 e5 3f 3e
       -0.11864199 0.17137583 0.21192306 0.18740022
0000c0 32 10 82 3e 8e 56 aa bd 5e 5f 36 3e 82 27 22 be
       0.2540298 -0.0831729 0.17809817 -0.15835384
0000d0 7c 71 06 be 86 70 5d be 40 27 8c 3d f1 5d d9 3d
       -0.13129228 -0.21624956 0.06843424 0.10613621
0000e0 bc 87 1c be ff 53 75 be 52 ef 58 3e 10 8a 2a be
       -0.15286154 -0.23957823 0.21185043 -0.16654229
0000f0 f4 da aa 3c 0a 07 03 3e d0 5b 63 3d 18 69 b8 3d
       0.020856358 0.12795654 0.05550748 0.0900442
000100 8d d2 b8 3e 7b 97 0e be 6f cd 79 be 91 6e 71 be
       0.36098137 -0.13924973 -0.24394773 -0.23577334
000110 3b 24 f0 3d 14 8e 1b be 27 3d d8 3d 1a 86 2c 3e
       0.117256604 -0.15190917 0.10558539 0.1684803
000120 97 78 f3 bd 77 76 8c bd d2 a0 37 be a1 c6 ba bd
       -0.11888235 -0.06858533 -0.17932442 -0.09119917
000130 76 d4 83 3e 18 b1 46 3a 41 80 ff 3d 2f 1b 00 3e
       0.25748032 0.00075794896 0.12475634 0.1251037
000140 38 56 69 be 27 98 71 3e 40 fc 39 3e 18 89 34 bd
       -0.22786796 0.23593198 0.18162632 -0.044076055
000150 b4 50 0c be 92 b6 88 3d 8b 1e 25 3e 38 27 63 be
       -0.13702661 0.066754475 0.16124932 -0.2218293
000160 0a 34 03 3d 6b 86 d0 bd 38 07 e3 bc 54 bd ff 3d
       0.03203205 -0.10181888 -0.027713403 0.12487283
000170 bb 33 e4 bd 1a d8 4b bd 1c 4a e9 3c 29 08 31 3d
       -0.11142679 -0.049766637 0.02847772 0.043220673
000180 46 2e 0a 3e 74 0a 79 be e9 8f e3 bd df b3 3e 3e
       0.13494214 -0.24320394 -0.11111433 0.18623303
000190 99 5a ee 3d a7 2b d2 3d 32 47 ca bd 13 6e c4 3d
       0.11638374 0.10262232 -0.09876861 0.095913075
0001a0 e1 2a 9f 3d b5 f0 f0 3d 1b db 79 be b8 cc 89 3e
       0.077718504 0.11764661 -0.24399988 0.26914
0001b0 c2 65 cb 3d 67 c5 66 3e e2 2b 2c be f4 47 0b 3e
       0.09931518 0.2253624 -0.16813615 0.13601667
0001c0 4a 75 1d 3e 70 ea 1e bd 6e cd 0b 3d 2b 3e 57 be
       0.15376773 -0.038797796 0.03413146 -0.21019809
0001d0 6d e6 c6 3e 20 c7 ba bd bb e3 5a 3a 6e dd 08 3e
       0.38847676 -0.09120011 0.00083499745 0.13365719
0001e0 f6 3a 0a be c1 9b a6 bd b9 fb 89 3d 5a 32 e4 3d
       -0.13499054 -0.081351765 0.067374654 0.11142416
0001f0 05 56 2a be c1 28 23 3d 8b 57 52 3e f2 65 13 3c
       -0.16634376 0.039833788 0.20541207 0.008996474
000200 5a 45 3e 3e 13 a4 0e 3e 83 61 0b 3e 0b 3d 91 3e
       0.18581143 0.13929777 0.13611417 0.28366885
000210 89 07 67 be 75 71 8c 3c e3 9e 92 be cf 35 8a bc
       -0.22561468 0.017143944 -0.28636846 -0.016871361
000220 57 5b 15 bc f8 dc 4f be 36 b1 8b bd df b4 70 be
       -0.009116015 -0.20299137 -0.0682091 -0.23506497
000230 7f 18 5c 3e a6 46 ae bd a8 8e 33 3e 2f 3a 35 be
       0.2149372 -0.08509569 0.17534888 -0.17697977
000240 dc 77 0d 3e 14 14 21 3e c0 23 8d 3d 1e fe a5 3d
       0.13815254 0.15730315 0.068915844 0.0810511
000250 7b 07 de 3d 2f 40 84 be e6 9c 0a be 8c a9 d9 bd
       0.108412705 -0.25830218 -0.13536415 -0.106280416
000260 72 a1 18 3e 46 03 2a be d0 1f ab bd 54 a8 d2 3d
       0.14905336 -0.16602811 -0.08355677 0.10286012
000270 90 d5 23 3d 7d 67 8a 3d f2 6d 72 3e 9a b9 72 be
       0.03999859 0.0675802 0.23674753 -0.23703614
000280 a7 27 07 3e d1 dd 91 3e 54 dc 83 3d 02 d3 ad 3c
       0.1319872 0.28489545 0.06438509 0.02121878
000290 96 55 5b be a6 3d 52 3e 6f 03 3e 3e 26 f7 35 3e
       -0.21419367 0.2053133 0.18555997 0.17770061
0002a0 f3 7f 98 be 85 ad 7a be 27 4a 38 3e c7 7d 71 be
       -0.29785118 -0.24480255 0.17997037 -0.23583136
0002b0 3a a5 7d be c0 c1 5a be b6 15 62 3e a0 54 81 bd
       -0.2477006 -0.21362972 0.22078595 -0.06314969
0002c0 07 19 80 3e fd 30 98 3e eb eb a6 bc 41 16 94 3e
       0.25019094 0.29724875 -0.020376166 0.28923228
0002d0 07 a9 4e be 72 b7 d3 3d 1c 21 ff bd 71 dc 81 be
       -0.20181666 0.10337724 -0.12457487 -0.25363496
0002e0 ed dc 0c 3d 56 df 9c bd f2 80 1f 3d 95 ba 4b bd
       0.03439038 -0.076597854 0.03894133 -0.049738485
0002f0 b1 00 80 bd 7c e9 0b 3e e8 dc 8f 3e 49 90 a5 bc
       -0.06250132 0.13663286 0.28098226 -0.020210402
000300 da 01 10 be 0e 1a d6 3d 87 9b 6a 3e 1a a1 65 be
       -0.14063206 0.10454188 0.22910891 -0.22424737
000310 c3 c7 d8 bc 09 2e 5d be 1d 01 16 bd 28 74 65 be
       -0.026462441 -0.21599592 -0.036622155 -0.22407591
000320 dc 85 9b 3d e3 64 06 3e f8 ca 20 3d 91 4f 1d be
       0.07593891 0.13124423 0.039256066 -0.15362383
000330 65 2c 49 bd c6 45 98 be 81 95 1f be ef 35 9e 3c
       -0.049114604 -0.29740733 -0.15584375 0.019312827
000340 90 f9 1a be 6d dc 85 3e 12 f2 61 bc 6b 4f 94 3e
       -0.15134263 0.26144734 -0.013790624 0.2896684
000350 fe 0f 2e 3d 5a b3 83 be 0a c3 a7 3d 0f c4 41 be
       0.04249572 -0.25722772 0.081914976 -0.18922447
000360 87 ae 19 3e 16 b5 54 bd 39 09 5a 3e bd 6a 01 3e
       0.15007983 -0.05193051 0.2129258 0.12638374
000370 0e f7 73 be 9f bc 4b 3e 70 81 2e be 73 24 83 bc
       -0.23824713 0.19896172 -0.17041564 -0.016008591
000380 f1 69 ab bd ca ce fa bd 1d 0a 08 3b 50 91 0b 3e
       -0.08369816 -0.12246473 0.002075798 0.13629651
000390 e8 70 2a 3d 3a 74 af 3e c8 8a 09 3e 49 63 c8 3d
       0.041611582 0.3426836 0.13431847 0.09784562
0003a0 3b d4 8d bc f9 be db bd 2d 79 a8 3d 88 b1 c8 3c
       -0.017313113 -0.107297845 0.082262374 0.024498716
0003b0 b6 b0 a9 3d 81 27 7f 3d 7a e0 50 bd 4f e4 47 3e
       0.08285658 0.062293533 -0.050995328 0.19520687
0003c0 ec b7 14 be ca 3a d3 be dd 13 3b bc d0 8f f3 bd
       -0.14523286 -0.4125579 -0.01141831 -0.118926644
0003d0 03 a9 55 3e ae 2b 45 be 31 af bf 3d 12 d7 0b be
       0.20865254 -0.19254944 0.09359587 -0.13656262
0003e0 0c 06 49 3e c6 e2 86 3e ef 04 00 3e 6a b1 06 be
       0.19631213 0.2634489 0.12501882 -0.13153616
0003f0 73 ad 2f be 22 c8 c3 3d d4 38 9c 3e f0 19 91 bc
       -0.1715601 0.09559657 0.30512106 -0.017712563
