mlartifacts/982343343277370496/b67d687c817f41ab988b20c54bf03806/artifacts/models/data/model.pth (torch, 713938 bytes, 130 tensors)

bias f4 [64]
000000 dc e4 cd 3b 5b 31 93 bb 4b 07 7f bc 00 00 00 00
       0.0062833857 -0.0044919676 -0.015565704 0.0
000010 ae c7 19 bc 55 02 76 bc 21 dd 59 3c 5c 13 93 ba
       -0.009385986 -0.015015204 0.01329735 -0.001122098
000020 08 c1 07 bc 5d ab 6f bb 2b ae cd 3b ce 01 29 3b
       -0.008285768 -0.0036570646 0.006276866 0.002578843
000030 00 7a 58 3c 6d 56 77 3b 00 00 00 00 d9 72 67 3c
       0.013212681 0.0037740723 0.0 0.014126503
000040 8c cb 59 3b 11 28 93 39 60 bd 34 bc 00 00 00 00
       0.0033232896 0.00028067877 -0.011031479 0.0
000050 22 7b 4a 3c c2 31 33 bb 39 8a 13 bc 6e c5 8f ba
       0.012358459 -0.002734289 -0.009005123 -0.0010968873
000060 00 00 00 00 b6 d4 b9 bb 29 7a bf 38 00 00 00 00
       0.0 -0.005671109 9.130344e-05 0.0
000070 4a e2 03 3c 14 54 16 3c a1 83 c4 bb 27 78 1c bc
       0.008049557 0.009175319 -0.0059971367 -0.009550131
000080 9f 93 30 3b 00 00 00 00 9e 1b 9a bb 87 f9 d7 bb
       0.0026943458 0.0 -0.0047029993 -0.0065910253
000090 75 a1 7c 3c 5c 14 3a 3b cb ea 98 3b 41 3a 5f 3a
       0.015419354 0.0028393483 0.0046666614 0.00085154554
0000a0 97 ba da ba f8 37 89 b9 01 dc 54 3b e0 62 f4 3b
       -0.0016687688 -0.00026172376 0.0032479765 0.007458076
0000b0 da be d0 bb ef 1c 20 3c fc bb a1 3b 64 a0 97 ba
       -0.0063704075 0.009772523 0.0049357396 -0.0011568186
0000c0 18 ba ab 3a 8b eb 66 bb 89 58 97 ba c7 86 00 3c
       0.0013101725 -0.003523561 -0.0011546771 0.007844633
0000d0 00 00 00 00 00 00 00 00 2b a6 68 3b 00 00 00 00
       0.0 0.0 0.0035499434 0.0
0000e0 00 00 00 00 5b 4e df bb fe cc 11 3b 79 e4 9e ba
       0.0 -0.0068147606 0.002224743 -0.0012122534
0000f0 c4 39 28 3c 02 b5 3c 39 31 ba 88 3c ee f6 c0 3b
       0.010267679 0.00017996508 0.016690345 0.0058888113

weight f4 [64, 3]
000000 ec 3d cc 3e 40 9f a7 3e 3c e1 09 bf 83 7f e0 3e
       0.39890993 0.32738686 -0.53859305 0.43847284
000010 1e 00 03 bf aa 25 4d 3e e3 4e 68 be 50 78 fa bd
       -0.51172054 0.20033899 -0.22686343 -0.12229979
000020 bc f9 64 3e 12 9a bd 3e 86 9c 3d 3e 43 d2 97 be
       0.22360891 0.3703161 0.1851674 -0.29652604
000030 fb 1c fc 3e c0 8d ad bd 3a 35 66 bc fa 83 c6 be
       0.4924086 -0.08474302 -0.014050776 -0.38772565
000040 0d fb 0d be de 3c 11 3f e4 4a ba be 48 f9 15 3e
       -0.138653 0.567335 -0.36385262 0.14645875
000050 a6 8b bb be 73 db 14 3e 08 b9 bc bd 36 b1 12 3f
       -0.3662998 0.14536838 -0.092149794 0.5730165
000060 0a a7 fb 3e d5 f0 b1 3e 24 d4 4a be 52 cf 0c 3f
       0.49150878 0.34754053 -0.19807488 0.55003846
000070 45 39 8f be d6 33 3d be 6d 92 ca 3e 0a 15 e0 3e
       -0.2797338 -0.18476805 0.3956484 0.43766052
000080 ca b9 6a 3e b3 1a 15 3e 65 de ee 3e ee 27 a9 be
       0.22922435 0.14560966 0.4665405 -0.33038276
000090 a7 39 01 3f 61 3f 85 3e 5e cd 0b bf b1 6a a1 bd
       0.50478595 0.26024917 -0.5461024 -0.07881678
0000a0 e8 23 01 3e da 35 65 be c6 9c 68 be 19 28 88 3e
       0.12611353 -0.22383824 -0.22716054 0.26593092
0000b0 26 f9 9b bd 10 8a f4 bc 6e 7b 97 3e e8 09 a0 be
       -0.07615881 -0.02985099 0.29586357 -0.31257558
0000c0 c7 f1 c0 3e 86 af 99 bd a7 bf 8d 3e 51 35 d9 be
       0.3768446 -0.075041816 0.27685282 -0.4242349
0000d0 f8 0b e1 be 89 00 0d bf bf 1c 12 3e 84 64 8c 3e
       -0.43954444 -0.5507894 0.14268778 0.27420437
0000e0 62 f0 d5 be 1c b6 f0 be 00 f7 9c 3d c4 16 5f be
       -0.4178496 -0.47013938 0.07664299 -0.21786028
0000f0 91 be 9d be ce d0 9b be b6 be 5b 3d 97 c1 92 bd
       -0.30809453 -0.30432743 0.053648673 -0.071658306
000100 e9 d5 4b be 70 e0 d8 be 1f 25 29 bc 45 6d bc bd
       -0.19905819 -0.42358732 -0.010323792 -0.09200529
000110 8a 69 a6 be 32 75 9d 3e 58 a3 c0 be 13 42 d0 3d
       -0.32502395 0.30753475 -0.3762462 0.10168853
000120 dc 65 82 3e 31 be 88 bc 04 76 c0 be 3f d1 01 3f
       0.25468338 -0.016692253 -0.3759004 0.5070991
000130 ec 15 f2 3d 6a 73 a5 3e e5 c6 d5 be 83 09 db 3e
       0.118205875 0.32314616 -0.41753307 0.42780694
000140 64 1f 15 be 01 d3 0c bf ed d4 d8 be 40 2a e7 be
       -0.14562756 -0.55009466 -0.4234995 -0.45149422
000150 8a 43 24 be 06 8c 0c bf f4 0c 2e be 4e 2d 01 3f
       -0.16041389 -0.5490116 -0.16997129 0.50459754
000160 16 5a 2a bd f8 ea 4a 3e 35 71 e0 be f7 83 06 3e
       -0.04158982 0.19816196 -0.4383637 0.13136278
000170 7c 18 be 3e df fa eb 3e 9d d9 ed be 84 8d 00 3f
       0.37128055 0.46089837 -0.46455088 0.50215936
000180 b0 42 e7 be 40 d8 73 3e c2 56 da be 58 ef 60 3e
       -0.45168066 0.23812962 -0.42644316 0.21966302
000190 f3 40 f8 3d 55 1e 02 bf 95 59 29 3d 47 00 16 3f
       0.12121763 -0.50827533 0.041345198 0.58594173
0001a0 12 18 f0 3e 2b 20 60 be cf 96 1e 3d 30 26 5e 3e
       0.46893364 -0.21887271 0.03871804 0.21694255
0001b0 14 06 9d 3d be b7 69 bd 07 90 0c 3d d9 3f 31 3e
       0.07667175 -0.057059996 0.034317043 0.17309512
0001c0 64 6b 72 3d ab ac 9a be 0c a6 ec 3e 16 61 93 be
       0.059184447 -0.3020986 0.46220434 -0.28785008
0001d0 96 25 07 bf d1 48 ea be c0 a7 f7 3e 7a e4 a9 be
       -0.52791727 -0.4575868 0.4837017 -0.33182126
0001e0 54 0b 6c 3e b3 58 c5 be f7 ec 01 bf c5 a8 85 bd
       0.23051196 -0.38544235 -0.50752205 -0.06526331
0001f0 88 36 26 be a4 47 17 bd 8c f5 ae 3e 37 61 12 bf
       -0.1623174 -0.036933556 0.34171712 -0.5717959
000200 1e e7 48 bd 73 a5 d6 3e 0d 39 4e bd 87 67 1e be
       -0.049048536 0.41923103 -0.050347377 -0.1546918
000210 c0 16 ed 3e 55 18 35 3e bf a2 cd be 0e 57 46 bd
       0.4630642 0.17685063 -0.40163228 -0.048422866
000220 8d 57 9f 3e 5c 0d e0 3d 37 68 21 3e 1c bc b7 3e
       0.31121483 0.10940048 0.15762411 0.35885704
000230 f5 76 c5 3d ed 6f 26 be b8 dc 12 bf e7 0d ea be
       0.0964183 -0.16253634 -0.5736804 -0.45713732
000240 c8 6b 7b 3e 5f c5 88 3e 33 1a 7e 3e 95 c9 53 be
       0.24552834 0.26713082 0.24814682 -0.20682366
000250 86 50 15 bf 66 7f ef 3e fa 7c c6 be a3 38 82 3c
       -0.58325994 0.46776885 -0.38767225 0.015896147
000260 bd f2 a6 3e fc 6a f7 bd 74 49 bd be b8 91 09 bf
       0.3260707 -0.120809525 -0.36970103 -0.53737974
000270 4e 6e 82 be f1 94 f3 3e 79 02 cb 3e 89 86 03 bf
       -0.2547478 0.4757457 0.39650324 -0.5137716
000280 7b b4 52 3e a2 f5 6c be 4c 09 3f bd e4 d5 bf be
       0.2057666 -0.23140576 -0.046639726 -0.37467873
000290 11 3a b9 be 15 12 4e bd 64 1f 14 be d1 d6 ae be
       -0.36177114 -0.050310213 -0.144651 -0.34148267
0002a0 5e e1 82 3e bb c7 85 be 50 41 32 be 04 3d 1d bd
       0.25562567 -0.26128945 -0.17407727 -0.038388267
0002b0 d4 d4 12 3f 60 a1 d7 be e7 d6 ae 3d f3 82 f7 3e
       0.57356 -0.42115307 0.08537083 0.48342094
0002c0 6c ec c5 be 49 48 98 be e1 1c 5b bd 14 f3 6b be
       -0.38656938 -0.2974265 -0.053494338 -0.23041946
0002d0 24 71 20 be c9 f6 05 bf 40 a5 ec 3e 83 bb 22 3e
       -0.1566816 -0.5232969 0.46219826 0.15891843
0002e0 11 d5 ec be b1 8e a4 3d ce d0 8c be 35 cc 92 be
       -0.46256307 0.08035029 -0.27503055 -0.28671423
0002f0 60 07 69 3e 12 47 87 3d 3c d0 06 bf 9a a6 d4 3e
       0.2275672 0.066053525 -0.5266149 0.41533357

weight f4 [64, 3]
000000 ac 33 94 3e 64 e0 e3 be 67 4a 75 3e f6 bb d7 3e
       0.28945673 -0.44507134 0.23954163 0.4213559
000010 b1 4b 16 3e c2 e9 de be 86 a8 23 be 06 89 e2 bc
       0.14677311 -0.43537718 -0.15982255 -0.027653228
000020 ce b9 3d be c1 f7 0f bf c3 68 a4 3d a9 96 bc be
       -0.1852791 -0.5623742 0.08027794 -0.36833695
000030 4b 95 cf 3e d0 48 4a be 9d a8 f3 bd 80 b6 61 3e
       0.4054359 -0.19754338 -0.11897395 0.22042274
000040 31 9a c8 3e 76 ff b0 bd a5 38 fc 3e 54 a9 05 bf
       0.3918014 -0.08642475 0.49261966 -0.522115
000050 6d a7 93 3e 56 bc 07 bf 34 3f 1a 3e 12 3f d2 3e
       0.28838673 -0.5302175 0.15063173 0.41063744
000060 25 ff ce be 8b f6 bb 3e 05 0c 9e be 1d f6 f9 3d
       -0.40429035 0.36711535 -0.30868545 0.122051455
000070 f6 ce ef 3d 5d 7e 19 be 90 67 49 3e cb e9 1d bd
       0.117093965 -0.1498961 0.19668412 -0.03855304
000080 95 74 ca 3e b7 7e a5 3e 11 08 83 be 2d ee 0f bf
       0.3954207 0.32323238 -0.25592092 -0.562228
000090 bf c0 46 be 88 e4 02 3f a5 a2 f9 3e 46 eb e0 be
       -0.19409464 0.5112996 0.487569 -0.439295
0000a0 d1 b5 0c 3f e2 e3 7a be 5e 21 c8 be 92 e0 2c bd
       0.5496493 -0.24500993 -0.39087957 -0.042206354
0000b0 9b 4f 9f be 6f 52 79 bd ac 36 c3 be 03 14 80 bd
       -0.31115422 -0.06086963 -0.3812765 -0.06253817
0000c0 19 03 97 be c9 50 55 be cd c4 3f be a3 a8 05 3f
       -0.2949455 -0.20831598 -0.18727417 0.52210444
0000d0 46 0d 25 3e 79 c2 4a 3e 45 96 48 3e 5e 2f 56 be
       0.16118345 0.19800748 0.19588573 -0.20916507
0000e0 f4 46 08 3e 8e c9 12 bf 45 31 ac be f4 f4 a8 3e
       0.13308316 -0.573388 -0.3363134 0.32999384
0000f0 0d 35 ac 3e 3f 3e 4f 3e 79 a2 8e 3d d7 c7 23 be
       0.33634225 0.20238589 0.06964583 -0.15994202
000100 b4 1e 9a 3e 94 74 ac 3e 57 73 ab 3e 73 6a 07 be
       0.3010155 0.33682692 0.33486435 -0.13224201
000110 ad 5f b4 be f9 53 90 3e eb b4 04 bf 67 eb 14 bd
       -0.35229245 0.28189066 -0.5183856 -0.03635731
000120 9c 87 02 be 54 9a 6d bc 92 77 e4 be fc 3b a6 3e
       -0.12747043 -0.014502127 -0.44622475 0.3246764
000130 62 84 14 bd 5f 3e 38 3e 5a 3d fa be 81 c3 c0 3d
       -0.036259063 0.17992543 -0.48874933 0.094122894
000140 15 bc 28 be e0 41 21 3e 1b d4 69 be ff 3d e0 3e
       -0.16477998 0.15747786 -0.22834818 0.437973
000150 db 8e 12 be 3d 0e 68 3d 59 60 19 be 5d c4 a4 bd
       -0.14312308 0.056654204 -0.1497816 -0.08045266
000160 20 f5 10 3f 0e ae 33 3e b4 13 e7 be 7c 14 c6 3c
       0.5662403 0.17546865 -0.4513222 0.02417969
000170 51 36 5b 3e 12 7f 0b bf 7e 9d b9 3d 79 0b e6 be
       0.21407439 -0.5449077 0.090632424 -0.44930628
000180 75 bb 71 bd 42 63 03 3f c1 fd 11 3f 58 37 95 be
       -0.059016664 0.5132333 0.5702782 -0.29143786
000190 67 2c 98 be ea 95 88 be 48 04 11 3d 3a b1 e1 be
       -0.29721376 -0.26676875 0.035404474 -0.44080526
0001a0 5c d5 92 be 7d 56 09 3f 4f 61 8d 3e 91 7f 26 3b
       -0.28678405 0.53647596 0.27613303 0.0025405625
0001b0 f5 2c b5 3e 26 ac bd be fd d5 b0 3d d1 75 4d be
       0.35385862 -0.370454 0.08634565 -0.20064475
0001c0 cb 45 f8 3e 86 7a cb 3d 1b d8 ef 3d 47 8e df 3e
       0.48490748 0.09935479 0.11711141 0.43663236
0001d0 87 a8 ed 3e 45 d3 c3 be 52 76 fc bd 68 76 13 bf
       0.4641764 -0.38247123 -0.12327255 -0.5760255
0001e0 6b 04 a6 bd 8a c9 a3 3e 8b 00 03 bf c2 3b b1 3e
       -0.081063114 0.319897 -0.51172704 0.34615904
0001f0 b8 91 df 3e 98 7b 30 be 1c ff 04 be b0 c0 c8 3e
       0.43665862 -0.17234647 -0.12987942 0.3920951
000200 dd 83 06 3f 88 46 04 3f 89 fb f7 3e df 64 91 3e
       0.5254496 0.5167012 0.48434094 0.2839727
000210 79 74 b7 3e 22 44 c0 bc d3 5a f5 3e be ad a1 bd
       0.3583105 -0.023469988 0.47920856 -0.07894467
000220 70 7b 04 3d 72 f0 9f be dc ce e3 be 31 49 33 3e
       0.03234428 -0.31238133 -0.4449376 0.17508389
000230 b2 89 a8 3d b5 a9 19 be 07 3d ed be cb 53 c1 bc
       0.08229388 -0.15006144 -0.46335623 -0.023599526
000240 72 f5 ef bd 92 a4 f1 bb 04 c2 1b be 82 75 0b 3f
       -0.11716737 -0.0073743546 -0.1521073 0.5447618
000250 77 dc 14 bf af da 08 3f 78 60 59 3e 1b 90 04 3e
       -0.581489 0.53458685 0.21228206 0.12945597
000260 5d c2 d6 bd 6d 5a 08 bf 23 2a f7 be 35 6d 03 3e
       -0.104862906 -0.5326298 -0.48274335 0.12834628
000270 c7 15 a5 be 65 2e 6d 3e 42 c4 c2 bc 1c 1f f2 be
       -0.32243177 0.2316223 -0.023775224 -0.4728936
000280 01 46 b9 be 3e 66 9d 3e a7 3e 18 3e 2c 5c 6e 3c
       -0.3618622 0.30742067 0.1486765 0.014548343
000290 33 7f 8c 3e b2 80 a4 3e f5 a1 21 3e 13 ff 94 bd
       0.27440795 0.32129437 0.15784438 -0.07275214
0002a0 54 ef 83 be 16 23 d2 3e 46 5d 8d 3d 02 9b cc 3e
       -0.2576853 0.41042393 0.06902556 0.39962012
0002b0 e5 2a 6e 3e fb c5 c1 be f9 a2 04 3f 5a 13 57 be
       0.2325855 -0.3784636 0.51811177 -0.21003476
0002c0 bd 54 9e be 72 38 c1 bc 62 b8 0b be 13 90 96 be
       -0.30924025 -0.023586486 -0.13644555 -0.29406795
0002d0 75 8e ce bd ac 38 aa 3e 74 f1 e6 3e f3 a6 73 be
       -0.10085765 0.33246362 0.4510609 -0.23794155
0002e0 22 88 f6 be 32 24 10 bf ec c3 20 be 69 f9 f8 be
       -0.48150736 -0.5630523 -0.15699738 -0.48627785
0002f0 b7 04 af bd bf d6 8c be df b3 af be 43 65 40 be
       -0.08545821 -0.27507588 -0.34316918 -0.18788628

bias f4 [64]
000000 15 08 79 be 96 1e 8f 3e 8b e7 31 3e a7 c3 ba bd
       -0.2431949 0.27953023 0.17373483 -0.09119349
000010 e2 47 bc bd 1f a4 ea be a7 1e 44 be ab 0f 13 bf
       -0.09193398 -0.4582834 -0.19152318 -0.5744578
000020 8b 9d 01 bf c4 4a 82 be 70 46 4a bd 9f 86 09 3f
       -0.50631016 -0.25447667 -0.04938358 0.5372104
000030 61 59 aa be c4 fb 56 be 83 ca 1f 3e 03 cc 0a 3e
       -0.33271316 -0.20994478 0.15604596 0.13554387
000040 7d d8 fb 3d 4b e6 93 be 6a 1e 1f be 21 22 da be
       0.12297151 -0.28886637 -0.15538946 -0.42604163
000050 0b 8c 0a bf 79 72 8d be c7 66 d5 be 2d dd 03 3e
       -0.5411994 -0.27626398 -0.41679975 0.1287734
000060 8f 95 ba be ed fe 56 3e 87 38 a4 be 40 bb 40 3d
       -0.3644223 0.20995684 -0.32074377 0.047053576
000070 a0 75 a3 bd 19 88 05 bf 9d 97 b6 be 07 38 b4 be
       -0.079814196 -0.52160794 -0.35662547 -0.35198995
000080 33 5f 2d 3e ca a7 00 be 3d ab 0e 3e 55 01 e4 bd
       0.16930847 -0.12564006 0.1393251 -0.111330666
000090 25 95 95 3d cd 6f 0d bf 1e 09 ec 3e e9 bd c6 3d
       0.07303838 -0.5524872 0.46100706 0.09704191
0000a0 67 f7 bc be 6a fc 25 be 5b 79 73 3e 85 6b 52 be
       -0.36907503 -0.1620957 0.23776762 -0.20548828
0000b0 5e 4d 9f be 45 b9 0a 3f c0 9c 84 3e e9 59 fb 3e
       -0.31113714 0.5418895 0.2590084 0.49092034
0000c0 72 4f de be 24 73 9f 3e 59 58 b0 bd 2a c4 bf 3e
       -0.43419987 0.31142533 -0.08610601 0.3745435
0000d0 25 b9 e9 be 1b 8f 41 be 0f 8d 20 be 87 a7 ae bc
       -0.45649067 -0.18902247 -0.1567881 -0.021320118
0000e0 c5 7f 9f bd c0 23 10 bf 16 5c 1d be 74 70 c2 3e
       -0.07788042 -0.5630455 -0.15367159 0.3797642
0000f0 67 9d 04 3e ef 4e 44 be 18 6d b6 3d 89 3c 9e 3e
       0.12950669 -0.19170736 0.08907527 0.3090556

weight f4 [64, 1]
000000 34 b8 70 bf 92 c3 fd 3e b4 42 74 bf 2a 25 7b bf
       -0.9403107 0.4956327 -0.9541428 -0.9810358
000010 33 dc 98 be 2b bf c3 3e 9c c5 b6 be f8 92 24 3e
       -0.298555 0.38231787 -0.3569764 0.16071689
000020 40 72 41 be fa 74 d3 be d2 1a 53 bf 78 6e 42 3e
       -0.18891239 -0.41300184 -0.824628 0.18987453
000030 4e 23 f0 bd 77 cd 08 3f fe 56 16 bf 34 52 91 3e
       -0.11725484 0.53438514 -0.5872649 0.28383029
000040 18 18 29 3f c4 e8 45 bf 23 82 7a 3f 0c 9e 43 bf
       0.6605239 -0.773083 0.9785482 -0.76413035
000050 b7 66 58 be 21 05 2d 3d 6a ad 26 3f 81 fc 45 bc
       -0.21132933 0.04224122 0.6510836 -0.012084127
000060 43 3c f5 be 57 6a 59 3e 50 9e 7f bf 45 ed f5 ba
       -0.4789754 0.21231972 -0.9985094 -0.0018762728
000070 84 4a d0 be 65 bb 92 be 10 0a db 3d 53 54 01 bf
       -0.4068185 -0.28658596 0.10695279 -0.50519294
000080 e6 9b 39 3e 06 b9 4e 3f 5b 30 33 3f 8d cd fb 3e
       0.18125877 0.80751073 0.6999566 0.4918026
000090 65 86 b4 be a6 45 6e bf 64 2f 3d bd e0 3b e8 bd
       -0.35258785 -0.93075025 -0.046187773 -0.11339545
0000a0 a4 c3 7b 3f d0 a1 78 be 01 9f 07 3f 9e 2c 55 3f
       0.983454 -0.24280477 0.52976996 0.83271205
0000b0 18 16 bc 3d 1e 5b ae 3e de 48 61 bf c2 20 46 3f
       0.091839015 0.34053892 -0.8800181 0.77393734
0000c0 4e 7a b6 be e6 53 65 3f 74 2b e7 be 74 18 35 3f
       -0.35640186 0.89581144 -0.4515034 0.7074044
0000d0 78 cc 9f be 60 c6 e0 be f4 87 da be 91 21 13 be
       -0.31210685 -0.43901348 -0.4268185 -0.14368273
0000e0 3b df 30 3e e0 78 79 bd a2 99 69 be e7 f5 a9 3e
       0.17272656 -0.06090629 -0.22812513 0.3319542
0000f0 bb f2 fd be 77 00 19 3f ff fe 09 bf bc 80 85 3e
       -0.4959925 0.59766334 -0.5390472 0.2607478

weight f4 [64, 1]
000000 85 aa 59 be 18 2b 58 3e 5e e4 f5 be 50 8a 8a bd
       -0.21256454 0.21110189 -0.48025793 -0.06764662
000010 db 9b 49 bf ae 5a 76 bf e3 e4 23 3e 5c 48 49 3e
       -0.7875344 -0.96232116 0.16005282 0.19656509
000020 49 dd 82 be 85 85 fd be 32 26 f9 be 04 6a d9 3e
       -0.25559452 -0.4951593 -0.48661953 0.42463696
000030 aa 6a 67 3f 9d fb 1e bf 90 3c 0d bf c0 86 59 3f
       0.9039713 -0.6210268 -0.55170536 0.8497124
000040 20 7e ab be db d3 04 3f e4 f3 cd be 84 da 2f bf
       -0.33494663 0.51885766 -0.40225136 -0.68692803
000050 91 07 37 be 23 21 97 3e 33 34 e2 3e f3 6e 4e bf
       -0.1787398 0.2951747 0.4418045 -0.80638045
000060 e4 dc 34 bf 36 90 25 bf 6e 70 b8 3e ea cb 74 bf
       -0.7064955 -0.64673173 0.36023277 -0.9562365
000070 1f 40 5b 3f 94 11 46 3f ff 45 1b 3e 51 df 6d bf
       0.85644716 0.7737057 0.1516342 -0.9291888
000080 df fd 21 3f 80 b8 6a bf 59 0c 62 bd 40 55 b4 be
       0.63278 -0.91687775 -0.055187557 -0.3522129
000090 1a fe 99 be e9 cd 19 3f c2 81 8e 3c a3 63 4c bf
       -0.30076677 0.6007982 0.017395858 -0.79839534
0000a0 ee bb 89 3e b9 6f 46 3f 64 e9 db 3e 73 16 df 3e
       0.2690119 0.77514225 0.429515 0.43571815
0000b0 1b 78 95 3e da 7a 88 be b6 8f 1a bf aa 00 2b 3f
       0.29193196 -0.26656228 -0.60375535 0.6679789
0000c0 ba 73 70 bf dc 4b 41 3d b6 e1 dc 3e 1f b1 d5 3e
       -0.93926585 0.047191486 0.43140954 0.41736695
0000d0 42 dd 55 bf c0 53 3f 3d 7c 14 18 bf 6c d7 4b bf
       -0.8354074 0.04671073 -0.59406257 -0.7962558
0000e0 80 75 fe bc 09 56 8e 3e 77 06 bd 3e 28 a4 01 be
       -0.031061888 0.27800015 0.36918995 -0.12660277
0000f0 42 32 cd 3e ca 0e 58 bf 36 de 77 3d f6 a3 3c 3f
       0.40077406 -0.84397566 0.06051465 0.73687685

bias f4 [64]
000000 a7 70 93 3e 03 19 55 3f 94 54 5a bf e0 76 e3 bd
       0.28796884 0.8324129 -0.85285306 -0.11106658
000010 51 58 42 3f e2 0f 5e 3f a6 0d 26 3e f6 be 08 3f
       0.7591601 0.86742985 0.16216144 0.53416383
000020 0d fe 34 bf 13 c5 bf be ac d7 09 be 54 8b 49 bf
       -0.7070015 -0.37455043 -0.13461179 -0.7872822
000030 6a 57 28 be 04 1f 5f 3f 14 35 91 be ff 15 84 bd
       -0.16439596 0.871567 -0.28360808 -0.06449508
000040 ba 3a 39 3f 4e 41 a2 be 85 79 2f bf 7e 8b 35 bf
       0.72355235 -0.3169045 -0.685448 -0.70915973
000050 4e c9 07 bf 80 2c dd be fd 1b c9 be fa a4 b8 3d
       -0.5304154 -0.43198013 -0.39279166 0.09015842
000060 e8 44 08 be a3 c2 b3 3d 7b 2f 59 bf c4 b6 1e bf
       -0.13307536 0.087773584 -0.84838074 -0.6199763
000070 7e cb 7b bf 6f 5f 79 bf 8e dc 5d 3f 59 4d 33 3f
       -0.9835738 -0.97411245 0.86664665 0.700399
000080 49 b4 05 bf 3c 81 22 bf 15 cb 17 3e 8f 6c ef be
       -0.5222822 -0.63478446 0.14823563 -0.4676251
000090 e3 3f 64 3f 0c 51 0c 3f 2a 63 7f 3d 98 b3 44 be
       0.89159983 0.5481117 0.06235043 -0.19209135
0000a0 64 71 68 be 69 80 f1 3e 25 8c 8e bd 79 0f 7f be
       -0.22699505 0.47168282 -0.06960324 -0.24908246
0000b0 91 0e 4e be a7 3d 34 3f 88 26 44 3f 47 c6 45 3f
       -0.20122744 0.70406574 0.76621294 0.7725567
0000c0 35 97 4d be 8d a2 83 bd 6d dd 72 bf a4 2c e8 3e
       -0.20077212 -0.064274885 -0.9486912 0.45346558
0000d0 70 44 76 3e 26 a6 20 bf d9 48 ec 3e a8 81 c7 be
       0.24049544 -0.6275352 0.46149328 -0.38966107
0000e0 ec 58 e0 be a1 79 5c 3e 05 29 31 bf 8b 0d 28 3f
       -0.43817842 0.21530773 -0.69203216 0.65645665
0000f0 15 f4 c7 3e b1 fc 24 bf d3 c3 c8 3e 71 b7 7c bf
       0.39053407 -0.64448076 0.39211902 -0.9871741

weight f4 [64, 3]
000000 3a 0a bb be 01 76 d0 be 10 a1 0d be 1c 75 f2 3d
       -0.3653124 -0.4071503 -0.13830972 0.11838743
000010 a1 29 b0 3e ec c9 9f 3e a8 38 cb 3e a7 6c ee be
       0.3440676 0.31208742 0.39691663 -0.4656727
000020 4f ea c4 be 91 74 79 be f4 d3 0c bf 2d 30 e7 bc
       -0.38460013 -0.24360873 -0.55010915 -0.028221214
000030 de aa 49 3e f2 24 dc 3e 1c f8 10 be c9 56 03 bf
       0.19694087 0.42996937 -0.14157146 -0.513043
000040 ad 0d e2 3e ca ca fb 3d 5e 23 4f bd 27 b0 ae 3e
       0.4415106 0.12294538 -0.05057084 0.3411877
000050 fc 51 d4 3e 9c 62 ef 3e bc 25 fb 3e ad 7d a8 be
       0.414688 0.4675492 0.49052227 -0.32908383
000060 0e 35 74 3e 1f 82 c7 be 67 e4 0c bf d9 aa 00 3f
       0.23848364 -0.38966462 -0.55036014 0.5026069
000070 a9 17 f3 3d fc 28 ca 3d ac 9d e7 3e 38 4c 01 3f
       0.11869747 0.098710984 0.45237482 0.50506926
000080 40 e3 c8 3e 20 c2 27 3e e9 31 1f be da 6d 28 be
       0.39235878 0.16382647 -0.15546383 -0.16448155
000090 bf 38 d0 3e 66 ff 85 3e d2 40 da bd e6 31 a5 bd
       0.40668294 0.26171416 -0.10656895 -0.08066158
0000a0 79 94 6d 3e 23 d6 05 bf d5 41 df 3e 30 99 c9 3e
       0.23201169 -0.5227987 0.43604913 0.39374685
0000b0 68 e4 59 3e 95 91 c5 3e a1 85 93 3e 65 52 53 be
       0.21278536 0.38587633 0.28812888 -0.206369
0000c0 21 39 f0 be 1f 01 03 3f 4b 4b 3d be bb a8 81 bc
       -0.46918586 0.51173586 -0.18485753 -0.015827527
0000d0 55 1f e4 be 0d c0 a3 3e 81 83 c1 3e d0 86 64 be
       -0.44555154 0.3198246 0.37795642 -0.22317052
0000e0 ce 20 9e be 31 5c 5d 3e 4f e5 29 3d e3 40 86 3e
       -0.30884403 0.216172 0.04147845 0.2622138
0000f0 45 f0 fa bd de 68 bb 3e 7f b6 b7 3e 70 4f e0 be
       -0.12252859 0.36603445 0.3588142 -0.43810606
000100 bd a7 7f 3e 45 d8 93 3e b7 e7 0c bf bc 32 5c 3e
       0.24966331 0.28875938 -0.5504107 0.21503729
000110 1a e8 04 bf 58 ea 0c 3f 86 1d b4 3e 1c b0 e7 3e
       -0.5191666 0.5504508 0.35178775 0.45251548
000120 9c be d8 be fd e1 e6 3e d8 dd 2f 3e f5 9d d6 3e
       -0.42332923 0.4509429 0.1717447 0.41917387
000130 ba fc e4 bd b9 3c b9 bc 58 51 ef be 5b c6 0f bf
       -0.11181016 -0.022611963 -0.46741748 -0.5616204
000140 6c 78 22 be 19 3e 0b bf 8c 50 bb 3d 44 d6 48 3e
       -0.1586625 -0.5439163 0.091462225 0.19612986
000150 30 14 c7 be cb b0 0f bf 64 75 c7 be 3a 82 d4 be
       -0.3888259 -0.5612914 -0.3895675 -0.41505605
000160 87 45 07 bf 17 1b 9a 3c 73 54 87 3e 0c 03 e9 bd
       -0.52840465 0.018811746 0.26431617 -0.11377534
000170 23 56 5e 3e 61 e2 70 be 0e ae 55 be 5b 4f b2 3e
       0.21712546 -0.23523857 -0.20867178 0.34826168
000180 47 30 3f 3e 54 3c 8c 3e 59 9b fc 3e 52 2f f7 3b
       0.1867076 0.27389777 0.4933727 0.007543483
000190 35 54 38 bd 09 5a d1 3e 0f 19 23 be 23 c1 e0 3d
       -0.04500218 0.40889004 -0.15927528 0.10974338
0001a0 4c f5 52 bd e4 c2 a1 3d 0d 71 9f 3e 89 0b c1 3c
       -0.051503465 0.078985006 0.31140938 0.02356507
0001b0 fa 01 8c be e0 26 63 3e 9a 7e e7 3e d1 31 51 3e
       -0.27345258 0.22182798 0.45213777 0.2042916
0001c0 94 ea 09 bf 38 6a 12 3f ab 52 11 bf 23 b6 11 3e
       -0.5387356 0.57193327 -0.56766766 0.14229636
0001d0 99 a2 de 3e 55 c1 5d be 8a d3 f9 3e 00 cd 44 be
       0.43483427 -0.21655782 0.48794204 -0.19218826
0001e0 3d df c6 3e 79 eb 05 bd 11 c7 52 be 72 3d fe 3e
       0.38842192 -0.032695267 -0.2058375 0.49656254
0001f0 c6 da 0d 3f cf bc 9b be 75 0b f0 3d 48 43 99 3e
       0.55411947 -0.30417487 0.11720935 0.29934144
000200 9a 41 00 3f c6 83 a5 3e ed a6 16 3e 91 fe f6 3d
       0.501001 0.32327098 0.14712115 0.120602734
000210 8d 49 94 3c ff 27 ec be e1 79 56 bc c9 34 a1 be
       0.018101478 -0.46124265 -0.013090582 -0.31485584
000220 74 20 04 bf fc 95 08 bf 4e fb 26 be d4 68 16 3f
       -0.5161202 -0.5335386 -0.16306803 0.58753705
000230 10 8a 15 be f7 1a 74 be 74 27 86 3e 9b d6 b9 be
       -0.14603448 -0.23838411 0.26201975 -0.36296543
000240 5e a0 09 be b3 b0 f4 bd 3b ec b9 be 74 48 bd 3e
       -0.13440081 -0.11947765 -0.36313042 0.3696934
000250 74 b7 a5 3e 56 b4 19 bb 20 ae 08 3e b8 7f 14 3e
       0.32366526 -0.0023453436 0.13347673 0.14501846
000260 bf 95 10 bf b6 f7 4e bd a6 11 fb bd 91 15 6f 3e
       -0.56478494 -0.050529204 -0.122592255 0.2334807
000270 08 0c a0 be c4 26 a7 be 49 3b a2 be 7f 84 12 bf
       -0.3125918 -0.32646763 -0.31685856 -0.57233423
000280 06 e6 92 3e 50 68 c2 be 67 11 05 3f 87 e0 c9 3e
       0.2869112 -0.3797021 0.5197968 0.39429113
000290 7d 86 4e be ef ee 0e bf 1a c6 c7 be f4 20 d4 3e
       -0.2016849 -0.55833334 -0.39018327 0.4143139
0002a0 9e 49 d3 3e 71 c8 0c 3f 49 3c 89 be a2 6e 98 3d
       0.41267103 0.5499335 -0.26803806 0.074429765
0002b0 4f 8a 3d be ed 91 05 bf 4f 35 06 bf 21 fe 9a 3e
       -0.18509792 -0.5217579 -0.5242509 0.3027201
0002c0 48 ec f7 3c ce 57 cc 3e ed 8a ff be af 54 00 bf
       0.030264035 0.3991074 -0.4991068 -0.50129217
0002d0 b3 9b 9b be fe cc 46 3e 67 62 ed 3e 31 fe da be
       -0.30392227 0.19414136 0.46364138 -0.42772058
0002e0 61 52 8b 3e c3 24 7b bd 19 11 fb 3d 1f 37 00 3e
       0.27211288 -0.061314356 0.122591205 0.12521027
0002f0 78 9a dd be 76 22 64 be 49 31 4c 3e 87 30 0f bf
       -0.43281913 -0.22278771 0.19940676 -0.5593342

weight f4 [64, 3]
000000 6a 7e 3c bd ad a6 97 be bb 6f 0e 3f c5 fb 89 3c
       -0.046018995 -0.2961935 0.5563924 0.016843686
000010 bc 16 3b 3e e5 3a 93 3e 7b 58 a5 be 16 12 22 be
       0.18270391 0.2875587 -0.32294068 -0.15827212
000020 00 96 0f bf 40 77 fd 3e 97 1d 09 bf 78 42 d2 3e
       -0.56088257 0.49505043 -0.53560776 0.41066337
000030 7d bd 87 be 22 ba bd bd d3 a5 bc be ab dc 09 bf
       -0.26511756 -0.09264018 -0.36845264 -0.5385234
000040 85 36 5e 3e b8 e5 69 be c5 7d c9 bd 33 f4 a0 3e
       0.21700485 -0.22841537 -0.09838442 0.3143631
000050 59 33 98 bc 6c cd 6b be 87 16 9f 3e 39 c2 5c be
       -0.018579172 -0.23027581 0.31071874 -0.21558465
000060 35 26 13 3f 71 3e d5 bd 9c 60 2f 3e 26 7a 08 bf
       0.57480174 -0.104123004 0.17126697 -0.53311384
000070 f4 c3 c6 bc ae 7c 0a 3f 69 b3 7d be c1 2d ce bd
       -0.02426336 0.54096496 -0.24775471 -0.100673206
000080 4a b4 fd 3e 4b 35 92 bd 18 ec 9f 3e 7d 3e 12 3f
       0.49551612 -0.07139071 0.31234813 0.571266
000090 ac 8e a9 bd cb 91 fb 3e e0 d6 49 3e 99 03 d7 3d
       -0.082791656 0.4913467 0.19710875 0.10498733
0000a0 c8 b2 6d 3d 6e d5 e4 3e 5c eb 45 3e 25 48 8f 3d
       0.058031827 0.44694084 0.19328064 0.06996182
0000b0 53 5c 0f 3f d6 22 f6 be e6 2c 83 3e 77 79 a2 3e
       0.5600025 -0.48073453 0.25620192 0.31733295
0000c0 3b b2 e2 3e ce 5a cf be a5 f9 1a 3e bd e0 db be
       0.44276604 -0.40498966 0.15134294 -0.429449
0000d0 b0 c8 67 be ff df 66 be 9d b1 9f be 09 46 a9 bc
       -0.2263515 -0.22546385 -0.31190196 -0.020663278
0000e0 14 08 b7 be 0b 61 b5 3e b4 46 f6 3d d4 6d b0 be
       -0.3574835 0.354256 0.12025204 -0.34458792
0000f0 c0 5a 15 3e fb b3 9d bd eb 7b e8 3e ab dd 32 3e
       0.145854 -0.07700344 0.45407042 0.17467372
000100 7e 50 f3 bb 6f 99 ab 3e 73 4d a4 3e 0d 98 92 3e
       -0.007425367 0.33515498 0.3209034 0.2863163
000110 a6 62 9a be f4 dd 9a be db 78 f7 3e 1d 9b f5 be
       -0.30153388 -0.30247462 0.48334393 -0.47969905
000120 d9 be 2f be 8b 9a 79 3e ae 51 eb bd 6d fa e5 3c
       -0.17162646 0.2437536 -0.114901885 0.028073514
000130 f7 c1 0f bd 3f 9e d3 be c6 e4 03 3f b5 1e b1 bd
       -0.03509709 -0.4133167 0.51520956 -0.08648435
000140 a6 06 ae 3e cc 0e b2 3e 7c 35 19 be 54 5c b9 be
       0.33989447 0.34776914 -0.14961809 -0.36203253
000150 d2 d4 f1 3e 8b bc 67 3d 3c 4a f8 bd 94 0a ac 3e
       0.47232682 0.056576293 -0.12123534 0.3360182
000160 fc 3f 13 be 65 04 9e 3d 73 2f a2 3e d6 5b 46 be
       -0.14379877 0.07715682 0.31676826 -0.1937097
000170 fa 9e a8 3c 37 54 b5 3e 96 09 c9 be 76 27 cc 3e
       0.020583618 0.35415813 -0.39265126 0.39873856
000180 23 50 43 be 8e b9 d8 be 9e a1 10 3e 31 a3 fd be
       -0.19073538 -0.42329067 0.14124152 -0.49538568
000190 4d de a8 3e 78 e4 c9 be 53 9b b3 be 0a db b4 bd
       0.32982102 -0.3943212 -0.3507944 -0.08830841
0001a0 33 cc 0a 3f 3f 7b b8 3e 1e 14 df be e0 d1 ac be
       0.54217833 0.3603153 -0.43570036 -0.33753872
0001b0 bc 98 f3 bd 00 ba 65 3e 52 8f 2a be c4 fd 49 bd
       -0.11894366 0.22434235 -0.16656235 -0.049314275
0001c0 c7 7e b3 3e 29 f0 2b 3d a0 14 e7 be b3 05 48 be
       0.3505766 0.04197708 -0.45132923 -0.19533424
0001d0 07 2e 64 be 88 21 1d 3d 10 86 6d 3e b0 21 08 bf
       -0.22283183 0.038362056 0.23195672 -0.53176403
0001e0 16 c7 0a be 3f 3d 0f 3c b8 64 b0 be 66 38 31 3e
       -0.13552508 0.00874263 -0.34451842 0.1730667
0001f0 f0 54 44 bd 80 f4 be bd f4 39 eb 3e c9 a0 0d 3f
       -0.047932565 -0.093239784 0.45942652 0.55323464
000200 8d cb ad 3d 0c ec 19 3e dc 81 c0 be 73 28 c8 bd
       0.0848609 0.15031451 -0.37599075 -0.0977334
000210 a2 83 39 3e 5b 32 02 bf f0 70 f8 3e 0b 00 de 3e
       0.1811662 -0.50858086 0.48523664 0.43359408
000220 79 d7 ea be dc 11 d5 be 80 8c 69 be b7 f3 ff be
       -0.45867518 -0.41615188 -0.22807503 -0.49990627
000230 8e eb d0 be 3c a9 f9 3e 26 f2 0a bf 9a 62 c2 bc
       -0.40804714 0.48761928 -0.5427574 -0.023728658
000240 bd 08 86 be 05 db e9 3e 32 08 a9 3e 6c 3d ec 3e
       -0.26178542 0.4567491 0.33014065 0.4614061
000250 2f 3f df 3c 17 36 65 be 61 d8 7b 3e 2a fb b7 3e
       0.027251808 -0.22383915 0.24594261 0.3593381
000260 fe 13 f2 bc 06 15 ca bd 00 06 f8 3e 0a f3 2c 3e
       -0.029550549 -0.09867291 0.48442078 0.16889587
000270 60 79 b2 be 12 cb bb be fc e9 10 3f 6d 34 50 3e
       -0.34858227 -0.36678368 0.5660703 0.20332499
000280 56 20 23 3e c8 8e f2 3e 38 fd 13 3f ae 9a af 3e
       0.15930304 0.47374558 0.57808256 0.342977
000290 c8 ad 81 bc 9c 2f 07 3e 5d 8c 7f 3d 84 c0 08 3f
       -0.015829936 0.13201755 0.06238972 0.53418756
0002a0 13 9e 86 bd 04 2c e8 be 76 64 4b be ba a8 0e 3e
       -0.06573119 -0.4534608 -0.19862542 0.13931552
0002b0 23 f4 09 bd 6d 0e 12 3f 00 e2 39 3e 8b 7c fe be
       -0.033680093 0.5705326 0.18152618 -0.49704394
0002c0 72 db 6a 3e d0 b1 1e bc 6f 7d e3 3e ce 04 91 3e
       0.22935274 -0.0096859485 0.44431636 0.28323978
0002d0 5e f6 e9 3e 69 8c b8 3d af 70 08 3e 5c 97 9c be
       0.45695776 0.09011156 0.13324235 -0.30584228
0002e0 95 d5 16 be 4e e4 fa bd 26 07 b8 be db 2a 51 bd
       -0.14729913 -0.12250577 -0.35942954 -0.05106626
0002f0 2c b9 06 bc 27 74 81 3e e8 77 8b 3e 37 9a 26 3e
       -0.008222859 0.2528393 0.2723992 0.16269766

bias f4 [64]
000000 1a ef 61 be a5 32 05 be da da 17 be 38 85 d1 be
       -0.22063866 -0.130076 -0.14829579 -0.4092195
000010 88 03 0f 3f 81 18 8e 3e 03 bd cf be c0 56 03 3f
       0.55864763 0.2775307 -0.40573892 0.51304245
000020 99 99 9b 3e 39 4b 2b be 5c cd 9a 3e de ad d2 be
       0.30390623 -0.16727914 0.30234802 -0.41148275
000030 74 82 d0 3e 6b 38 93 3e 87 86 d9 be 65 ca a2 3c
       0.40724528 0.2875398 -0.4248545 0.0198719
000040 72 c0 c3 3e 66 f0 ce 3d 5f ab f9 be 64 7b db 3e
       0.38232762 0.10104446 -0.48763558 0.42867577
000050 f9 39 4a be 24 c5 0c be 54 39 dd be e1 73 39 3e
       -0.19748677 -0.13747078 -0.432078 0.1811061
000060 a5 72 f8 3e 0d ff 0c bf 46 c0 82 be 41 a2 ab bd
       0.48524967 -0.55076677 -0.25537318 -0.08380557
000070 e3 47 29 be 51 3c 03 3f 64 df a8 3e 5f b2 a8 3d
       -0.16531329 0.5126391 0.32982934 0.082371466
000080 65 b6 21 be fa 5b 62 be 43 76 b6 be 51 47 95 3d
       -0.15792234 -0.22105399 -0.35637102 0.07288993
000090 f4 7a 29 bd 4f 57 83 be 27 87 c8 3e e1 16 de 3e
       -0.041377023 -0.2565255 0.39165613 0.4337683
0000a0 56 09 d7 3d 9b 51 fd be 9f 93 f3 3d 86 f1 05 bf
       0.104998276 -0.49476323 0.11893391 -0.5232166
0000b0 06 a3 15 be fe 4c ea be 45 01 23 be df fd 4d 3e
       -0.1461297 -0.45761865 -0.15918453 0.20116375
0000c0 a6 94 99 3e 64 2c 09 3f 6c da 8b be 84 d7 9c be
       0.29996222 0.5358336 -0.2731508 -0.30633175
0000d0 2c 64 fb be 14 56 da be 7b 57 0a 3f 8e cf de 3e
       -0.49099863 -0.42643797 0.54039735 0.43517727
0000e0 5f a4 de be 57 32 0b be de 46 dd bd f0 67 ba 3d
       -0.4348478 -0.13593422 -0.108045325 0.09101856
0000f0 14 a3 82 be e0 14 01 3e 88 49 a7 bb ce 8b a6 bd
       -0.25515044 0.1260562 -0.005105201 -0.081321344

weight f4 [64, 1]
000000 6c af fd 3e 02 4e 5d 3e 20 0f 5d 3f 6a f3 3d bf
       0.495479 0.21611789 0.86351204 -0.74199545
000010 c6 36 1d 3f 60 c8 a1 be e1 4c 78 bf 56 10 28 bf
       0.614117 -0.31598186 -0.9699231 -0.65649927
000020 16 f4 2f bf a8 1f de 3e 6a 6d 79 3f f0 fe 6c bf
       -0.6873182 0.43383527 0.9743258 -0.92576504
000030 bf c8 05 3e 3a 27 08 3e 60 50 86 3d 9f 2f 22 bf
       0.1306486 0.13296214 0.06558299 -0.63353914
000040 b1 a9 e7 3e be b8 12 bf bc c6 de be 60 eb cd 3e
       0.45246652 -0.57313144 -0.43510997 0.4021864
000050 f7 91 1f 3f e8 9f b2 be 5c 67 b6 be d7 0b 09 be
       0.623321 -0.34887624 -0.35625732 -0.13383423
000060 98 3c 47 be be 22 60 3f 64 b4 5c bf e0 d3 2c 3f
       -0.19456708 0.8755301 -0.86212754 0.67510796
000070 1a c5 2d bf b1 09 14 3e 70 a7 a5 3d a3 9b 2f 3f
       -0.6787888 0.14456822 0.08088577 0.6859686
000080 48 41 9f be 9a be 21 bf 7b 2a 09 be 16 67 3e 3f
       -0.31104493 -0.6318146 -0.13395111 0.74376047
000090 b4 03 2f bf 4e d8 3d bf e8 7d 77 3f 82 58 77 bf
       -0.68365026 -0.7415818 0.9667649 -0.9661943
0000a0 b7 e5 78 3f b6 f7 2d bf ba a2 af be f0 79 4f bf
       0.9722552 -0.679561 -0.34303838 -0.81045437
0000b0 ca e2 1c 3f b9 d3 1c 3f 8e d9 7d bf e8 59 07 bf
       0.6128355 0.61260563 -0.9916009 -0.5287156
0000c0 e0 16 ad be f4 82 c8 be 29 10 c0 3d ec 31 72 3f
       -0.33806515 -0.3916241 0.09378082 0.94607425
0000d0 f0 56 fd bd 64 30 91 be 72 33 1a bf 40 b5 03 3d
       -0.12370098 -0.28357232 -0.6023475 0.032155275
0000e0 9c 6c a3 be 5f 88 30 be a7 d8 5c bf 78 09 07 3f
       -0.319188 -0.17239521 -0.86268085 0.52748823
0000f0 06 5d 64 3f a0 4c 6b bf 2c 25 6b 3f 5b 09 98 be
       0.8920444 -0.91913795 0.91853595 -0.29694638

bias f4 [64]
000000 93 78 a6 3e 7f b0 76 bf bf a7 0d be 86 12 3f bf
       0.32513866 -0.9636306 -0.13833521 -0.7463764
000010 a1 00 59 3f 14 3f 5b bf f2 b6 26 bd 68 87 5a bf
       0.84766585 -0.85643125 -0.040701814 -0.85362864
000020 81 64 28 3d b3 1b 29 be ed 69 bb 3e d0 06 12 bf
       0.041111473 -0.16514473 0.36604252 -0.57041645
000030 83 a7 bd 3d e8 a7 57 bf e0 c3 94 be 1c d6 80 be
       0.09260466 -0.8424058 -0.2905569 -0.25163352
000040 38 0b 2e 3f 64 f5 1c bf 38 a7 38 be e8 5e 3b bf
       0.6798587 -0.61311936 -0.18032539 -0.7319169
000050 47 c1 a6 3e 27 7c 0a bf 60 b5 5a 3f 96 93 e2 bd
       0.32569334 -0.5409569 0.85433006 -0.11063306
000060 a2 8d 60 bf 73 ac af 3d 37 ab 4a bf e2 ea 13 3f
       -0.87716115 0.08577814 -0.79167503 0.5778028
000070 07 a6 f6 be 30 23 82 3e 96 03 37 bf df 62 40 bf
       -0.48173544 0.2541747 -0.71489847 -0.75150865
000080 c9 9a 18 3f 58 8e 7c bf b7 67 5f bd 6c 81 ce bd
       0.59611183 -0.986547 -0.05454227 -0.10083279
000090 10 0b e9 3d 4e 75 97 be 49 ac de bc 90 6c 75 3e
       0.11379063 -0.29581684 -0.027181761 0.23967195
0000a0 c2 97 fb be 7d 6d 0b bf d3 32 05 bf 8c 0f a3 be
       -0.4913922 -0.5446394 -0.52030677 -0.318478
0000b0 5b d7 c0 be 9c 3a 2e bd a9 15 dd 3e c6 ae f2 be
       -0.37664303 -0.042536363 0.43180588 -0.47398967
0000c0 4a 46 55 3c b4 91 8a 3d 43 e0 53 bf 1a bc 42 bf
       0.0130172465 0.06766072 -0.8276407 -0.7606827
0000d0 d4 84 fc be c8 cd 38 be 96 81 02 3f f0 10 d4 3d
       -0.4932009 -0.1804725 0.5097898 0.10354793
0000e0 de c3 5f bf 3d 29 68 3f 45 7e 8e 3e e9 72 6c 3f
       -0.87408245 0.90687925 0.2783071 0.9236284
0000f0 c1 bd b0 3e af 86 0a 3f 85 ad 93 be ca 0b d0 be
       0.3451977 0.5411176 -0.28843322 -0.40633994

weight f4 [64, 3]
000000 52 01 ce 3e ae 4c fc bd aa 1b 7c 3c bb 8c 03 3f
       0.40235382 -0.12319313 0.015387455 0.5138661
000010 b7 3e b8 be 70 9e c6 be 32 dd e9 3e da d0 f0 3e
       -0.35985348 -0.38792753 0.4567657 0.4703434
000020 3e 0e cf bd dd 1c a0 be 32 76 f3 be 60 b8 18 3e
       -0.10110138 -0.3127202 -0.47551113 0.14914083
000030 8e d5 0b bf 65 9d 09 bf fb 44 e1 be 49 27 22 be
       -0.54622734 -0.5375579 -0.4399794 -0.15835299
000040 ff 77 78 be ec 0d 8f 3d e2 e0 3d be 71 1e 8f bd
       -0.24264525 0.06985077 -0.18542817 -0.06988228
000050 78 e6 d2 3d 5f 39 ae 3e 2b d1 e8 3e e7 c9 a7 be
       0.10297865 0.34028146 0.45472082 -0.32771227
000060 ab e0 b3 3e 2f ca 86 3e a9 8e 98 be 84 0a 06 be
       0.35132346 0.2632613 -0.2979634 -0.13089949
000070 f1 c9 eb 3e c5 71 ce 3d be 02 85 be 08 d6 d8 be
       0.46052507 0.100802936 -0.25978655 -0.42350793
000080 bd af ac 3e da 15 1d be ac 1b 9e be c1 9b ad be
       0.33727828 -0.15340367 -0.30880487 -0.33907893
000090 51 fb dc 3d be 4b 9c 3d b3 cc d8 be e8 4c ce 3e
       0.10790122 0.07631634 -0.42343673 0.4029305
0000a0 b4 8b ee 3e 03 b3 00 3f 60 8a fe be ae 75 f0 be
       0.4659096 0.5027315 -0.49714947 -0.46964782
0000b0 c7 dd 9d 3e bd 00 f6 be 80 8a 79 3a 28 64 f2 be
       0.30833265 -0.48047438 0.00095192343 -0.47342038
0000c0 c4 4f 8f bd 8d 30 3f ba 29 92 0c be cc b0 7f 3d
       -0.06997636 -0.00072933064 -0.1372763 0.062424466
0000d0 87 12 62 be 75 30 80 3e c4 1c af 3e a9 58 b1 be
       -0.2207738 0.2503697 0.34201634 -0.34637955
0000e0 e4 94 6f 3e cc 16 11 bf 67 c1 8a be 84 e3 b5 be
       0.23396641 -0.5667541 -0.2710068 -0.35525143
0000f0 cc 32 f3 3c b8 7b 87 3e df ce 56 3e 61 29 04 3f
       0.029687308 0.26461577 0.20977353 0.5162564
000100 81 54 12 be a5 dc ec be a8 a3 9c 3d 84 e2 e8 3e
       -0.14290048 -0.46262088 0.076484025 0.45485318
000110 3f 10 97 be 6e 25 e3 bc 01 ea 73 be 66 42 97 3c
       -0.29504582 -0.027727809 -0.23819734 0.018464278
000120 26 b5 05 3f d4 ec 53 be 02 2a d0 3e 8e c7 7b be
       0.52229536 -0.20695812 0.4065705 -0.24587843
000130 d9 ca 2c 3e 1d ee 87 3e 7b 6e 54 3e 15 44 06 bf
       0.16874255 0.26548854 0.2074527 -0.52447635
000140 2b c0 bd 3e 5a c9 01 3e bc 6b 1f 3e b4 f3 06 bf
       0.37060675 0.12674466 0.15568441 -0.5271561
000150 b1 61 da be 4b c9 0e 3f d5 43 9c be 96 2b 04 bf
       -0.42652658 0.557759 -0.30520502 -0.51629007
000160 4b 79 c7 be 1e 19 de 3e 0b 5f 81 be 04 e8 de be
       -0.38959727 0.43378538 -0.25267825 -0.4353639
000170 65 16 bc 3d e9 26 04 3e cc 94 bd be 05 cb 65 3e
       0.09183959 0.12905468 -0.37027586 0.22440727
000180 89 b0 90 be b1 37 82 be e0 98 c6 bd 4b c0 61 3e
       -0.28259686 -0.25433114 -0.09697127 0.2204601
000190 0e f1 a7 be 4c e2 b6 be 5f 31 e4 bc cb 34 69 3e
       -0.32801098 -0.35719526 -0.027855573 0.22774045
0001a0 20 ec bf be 70 c2 f9 be 9e 0c 27 be 00 8b 0d 3f
       -0.37484837 -0.48781157 -0.16313407 0.5529022
0001b0 c0 76 f3 be d3 53 d0 3e d9 f7 d5 3e 15 c5 0c bf
       -0.47551537 0.40688953 0.41790655 -0.54988223
0001c0 42 72 e0 3e c7 87 c5 3e 67 99 f1 3c 97 70 a6 3e
       0.43837172 0.38580152 0.029492093 0.32507774
0001d0 99 f1 eb bc 01 01 9c bd fe f6 fe bc b1 00 a4 3e
       -0.028801726 -0.07617379 -0.031123634 0.32031778
0001e0 70 62 03 bf 00 de 40 3e fa 29 5b 3e b3 21 ec be
       -0.5132208 0.18834686 0.21402732 -0.4611946
0001f0 47 70 f8 3c cf d7 b4 bc 4c 99 13 bf 7d c0 f8 be
       0.030326976 -0.022075562 -0.5765579 -0.48584357
000200 bb 16 69 be ae 0e 74 be 7b 83 d3 bd a3 54 a1 3d
       -0.22762577 -0.23833725 -0.10327812 0.07877471
000210 2f d0 87 be 06 e9 2e 3e 9c d1 a8 3e 40 47 22 3d
       -0.2652602 0.17081079 0.3297242 0.03961873
000220 d0 c1 23 3e 9b 67 e4 be 16 67 4c 3c c4 9d e4 be
       0.15991902 -0.44610295 0.0124757495 -0.44651616
000230 77 4c c2 3e be 9c 74 be 6e ec 0c bf ff 29 1d 3e
       0.37948963 -0.23887917 -0.55048263 0.15348051
000240 45 c4 b6 3d 86 71 a8 be c2 48 dd be 5e f4 fc 3e
       0.08924154 -0.32899112 -0.43219572 0.49405187
000250 18 df 03 bf 2c ab 91 3d 8a 0e 3b be d8 55 fe be
       -0.5151229 0.071127266 -0.18267265 -0.4967487
000260 d9 d3 7b be f1 09 81 3e 50 76 94 3e 76 16 a6 3d
       -0.24592532 0.25202897 0.28996515 0.08109753
000270 28 ab b0 be c8 3b a2 be ed 23 0f bf 69 78 f8 3d
       -0.34505582 -0.31686234 -0.55914193 0.121323414
000280 b0 a7 1c 3e df 82 a5 bd e8 1f cb be a4 00 0b 3f
       0.15298343 -0.08081602 -0.3967278 0.5429785
000290 e5 f3 97 3d 5b ac b0 bd 22 d8 21 be d8 0d 38 3d
       0.07419566 -0.08626624 -0.15805104 0.044935077
0002a0 95 58 c2 bc 44 b0 5a 3e 06 aa db 3d f7 20 82 3e
       -0.02372388 0.21356302 0.10725789 0.25415775
0002b0 ab be a3 3e a0 16 f9 3d b3 e8 0b 3f 04 2f bd bd
       0.31981406 0.121625185 0.54651946 -0.09237483
0002c0 10 61 b8 3e db f9 e1 be 0d c8 34 3d 77 6e ee be
       0.36011553 -0.44135937 0.044136096 -0.46568653
0002d0 48 fc fa 3d 02 ee 8c be 44 4a 01 3f 1c 89 46 be
       0.1225515 -0.27525336 0.50503945 -0.1938824
0002e0 e8 b8 0f 3f e7 8d c7 3e ce 31 01 3f 81 4f 64 be
       0.5614152 0.3897545 0.5046662 -0.22295953
0002f0 99 1e c0 be 9a 39 f6 3e 4e de 02 3f bb 49 17 bd
       -0.37523344 0.48090822 0.5112046 -0.03693555

weight f4 [64, 3]
000000 5f 8d 29 be a8 85 a8 be 9e 47 01 be 59 f5 9d be
       -0.16557835 -0.32914472 -0.12624976 -0.30851248
000010 0f e7 dd 3e f9 c9 f6 bd 2e 08 ec be 25 8a c6 3b
       0.43340346 -0.12050242 -0.4609999 0.0060589486
000020 67 af b8 3e 9f f1 48 3d ac b5 de 3e 87 fb b9 bd
       0.3607132 0.049058553 0.4349798 -0.09081178
000030 fe ec 81 be 24 f3 97 3e 6c 0d d5 3e a1 dc 8e 3e
       -0.25376123 0.2967769 0.41611803 0.27902701
000040 71 c2 4f 3e 9c 27 9c be cb 44 f8 3b af 7e 81 be
       0.20289017 -0.3049897 0.00757656 -0.25291964
000050 f7 28 0e 3f 56 eb f2 be c8 13 11 bf 61 77 00 bf
       0.5553126 -0.47445172 -0.5667081 -0.5018216
000060 63 f6 9c bd 46 06 db 3d b1 3f 90 be bb 8f da 3e
       -0.07664182 0.10694556 -0.28173593 0.42687783
000070 2e 03 13 3f 1a a9 b0 be 37 ae 1f be 26 f3 b5 bc
       0.57426727 -0.34504014 -0.15593801 -0.022210669
000080 93 ac a2 be 16 38 c7 3e 12 5b 89 3e ac 34 94 be
       -0.3177229 0.38909978 0.26827294 -0.28946435
000090 0f 10 a2 3e 9d 7b 7d 3e da a5 dd be ca 3c e2 be
       0.31652877 0.24754186 -0.43290597 -0.44187003
0000a0 fa 9b 39 be fb 99 be 3e 46 4e a7 3e 30 61 1e be
       -0.18125907 0.37226853 0.32676905 -0.15466762
0000b0 f1 3b de 3e d0 bf 02 bf b7 7d 7a bc c5 e2 c6 be
       0.43405107 -0.5107393 -0.015288762 -0.38844886
0000c0 ae bc b1 be 22 a5 0b 3f f8 88 b2 3d 98 a6 9d 3e
       -0.34714264 0.5454885 0.08717531 0.30791163
0000d0 fe 9c a4 be ac 9a c2 3e c4 fe 0a be 64 a9 82 be
       -0.32151026 0.3800863 -0.13573748 -0.2551986
0000e0 66 b5 89 be 09 33 84 be 88 4c f8 bd 1c a3 e1 be
       -0.2689621 -0.25820187 -0.12123972 -0.44069755
0000f0 6a 15 c7 be e7 8e 77 bd f5 04 db 3e 43 34 b5 3e
       -0.38883525 -0.060439017 0.4277722 0.35391435
000100 a4 2d e3 3e 89 9e c1 3d a3 2d f1 3e 3e 1d 09 3f
       0.4437076 0.09454066 0.4710513 0.53560245
000110 39 d0 f9 3d c4 b5 b7 be 63 7a eb be d4 9f b4 bd
       0.121979184 -0.35880864 -0.4599181 -0.08819547
000120 4f 8e 05 3f 33 86 90 3e f4 ce d4 3e 02 ac ce be
       0.5217027 0.28227386 0.41564143 -0.40365607
000130 d5 d4 af be a5 9a 18 be 22 28 2e bd 68 7c 88 bd
       -0.34342065 -0.14902742 -0.042518742 -0.066643536
000140 29 e5 12 3b 0e b4 4f 3e 81 5a 8e be 2d 26 cd be
       0.0022414422 0.20283529 -0.27803424 -0.40068188
000150 95 7d 89 be 63 01 5e 3e 03 67 cc be c3 fe ce 3d
       -0.26853624 0.21680216 -0.39922342 0.10107186
000160 e4 d4 9a 3e 74 31 c8 3e cc b8 8f 3e 9b af ce be
       0.30240548 0.3910023 0.28070676 -0.4036835
000170 30 16 cf be c8 22 9e 3e cf 10 ba 3e 1b 09 d3 bd
       -0.40446615 0.3088591 0.3634095 -0.10304471
000180 c5 17 9f be 0e 0b 8e 3e e3 f1 14 bf 5d 8a b2 bd
       -0.31072822 0.2774281 -0.5818159 -0.08717797
000190 d6 35 16 be 40 a8 5b 3e 49 8f d9 be 79 2e ec be
       -0.14668974 0.21450901 -0.4249213 -0.46129206
0001a0 96 48 7f be f0 a2 b8 be cf 26 8c bd 61 5b 9a 3c
       -0.24930033 -0.3606181 -0.0684334 0.018842401
0001b0 2b c6 ec 3e 58 9d 84 3e 67 6a c9 3d e4 13 22 be
       0.4624494 0.25901294 0.09834748 -0.158279
0001c0 38 1a 92 3e d6 ef f3 be 6f 23 9b be a7 7f 48 3e
       0.28535628 -0.47643918 -0.3030047 0.19579946
0001d0 14 02 d8 3e 71 04 8e be d1 d1 cd bd 91 a9 de be
       0.42189085 -0.27737764 -0.10049785 -0.43488744
0001e0 27 de be 3d 74 23 8d be 52 5b e5 3d 91 c6 fa 3e
       0.09319716 -0.2756611 0.111990586 0.4897962
0001f0 b9 eb e3 3e e8 03 0e bf 1d a6 0a 3f b9 99 f9 3e
       0.4451578 -0.5547471 0.5415972 0.48750094
000200 55 04 f7 3e bd 64 32 bd ba c2 80 3d 6f 7a 8d 3e
       0.48245493 -0.043553103 0.06287141 0.27632472
000210 72 30 c9 be c9 1d 67 3d cd 19 6f 3e 99 85 81 bd
       -0.39294773 0.05642489 0.23349686 -0.0632431
000220 80 ba d2 3e ba 90 7b 3e 61 c4 c1 be 14 af ea be
       0.41157913 0.24566928 -0.37845138 -0.458367
000230 6c 43 98 3e 2b 40 05 3f 03 ed 81 3e 49 91 83 be
       0.2973894 0.5205104 0.25376138 -0.2569678
000240 ef a8 90 3e 37 0c b8 3e f0 02 d3 be 08 a7 f7 3e
       0.28253886 0.3594682 -0.4121318 0.48369622
000250 af 77 58 3e 19 01 3c be cb 9f 8d 3e 65 94 5e be
       0.21139406 -0.18359794 0.27660975 -0.21736296
000260 48 70 b9 be fe 17 18 bd ca f4 b1 3e 59 fa fb bd
       -0.36218476 -0.037132256 0.34757072 -0.123036094
000270 e4 ce e4 be ef 87 0a 3f 93 14 07 be 47 e3 04 3e
       -0.44689095 0.5411367 -0.13191442 0.12977324
000280 68 a0 db be a0 eb 8b 3e 6b db 80 3e e9 21 e5 3e
       -0.42895818 0.27328205 0.25167403 0.44752434
000290 ef 17 fb bd f9 b3 db 3e c2 be da 3e da f9 42 be
       -0.12260424 0.42910746 0.42723662 -0.19040623
0002a0 79 da 80 3e a3 dd 62 be 69 d6 0e 3f e1 b4 88 3e
       0.2516668 -0.2215486 0.55795914 0.267005
0002b0 7b 4d df 3e be a6 0d bf be a9 00 3f 89 5f f6 bd
       0.436138 -0.55332553 0.50259006 -0.12029941
0002c0 35 e3 cc 3e f7 78 fc 3e f1 1a ec 3d 8d b4 11 3e
       0.40017095 0.4931104 0.11528576 0.14229031
0002d0 b3 0c 96 3e bc ac 46 3e 5c 23 f4 3e 49 03 c8 3e
       0.29306564 0.1940183 0.47683227 0.39065006
0002e0 30 5b ee 3e 03 7f 9e be c5 44 b2 3e b4 72 19 bd
       0.46553946 -0.30956277 0.34818092 -0.037462905
0002f0 42 26 14 3e 39 bb fa be 86 9e 51 be d5 5f cd be
       0.14467719 -0.48970965 -0.20470628 -0.40112177

bias f4 [64]
000000 44 52 d3 be 49 9f 0e bf 53 14 60 be 5c e9 df be
       -0.412737 -0.557118 -0.21882753 -0.43732727
000010 79 e1 6e 3e ac 7a 87 be 69 a7 b9 3e 1d 1a ea 3b
       0.23328198 -0.2646078 0.36260536 0.007144226
000020 26 21 04 3d d6 e5 fe be 38 59 ce be ea 1d 9c 3e
       0.032258175 -0.49784726 -0.40302444 0.30491573
000030 ce 85 a6 be 4c b6 00 be 3d 0a 8c bd 3f c7 20 be
       -0.3252396 -0.1256954 -0.0683789 -0.15701006
000040 83 ec cf 3e 42 1b 66 3e 8b ae 33 3d 8a b5 be 3e
       0.40610132 0.22471336 0.04386763 0.37247878
000050 37 93 71 bd 66 81 ae be a5 fd e0 be 9d eb 70 be
       -0.058978286 -0.34083098 -0.43943515 -0.2352738
000060 51 bd 2e bd 79 4e d9 3e 51 ce d5 3e a3 52 bd 3e
       -0.042661015 0.42442682 0.4175897 0.3697711
000070 b3 c5 25 3d bc 93 09 3e c6 70 8c be ba 0b 0a 3f
       0.040471744 0.13435262 -0.2742979 0.53924143
000080 88 43 73 3d 53 06 a0 be 56 f8 0e bf e0 75 a9 3e
       0.059390575 -0.31254825 -0.5584768 0.33097744
000090 29 1f f5 3e 1f 61 03 bf ef 99 2f 3e 2d 1a d1 3e
       0.47875336 -0.5132007 0.17148565 0.40840283
0000a0 e1 3a 40 be 43 a2 b8 bd 81 c7 af 3c 15 1e ad 3e
       -0.1877246 -0.09015324 0.021457436 0.33812013
0000b0 8c 5a 26 be 52 9c 00 3f 3e f3 cf 3e e3 50 86 3e
       -0.16245478 0.50238526 0.40615267 0.26233587
0000c0 42 c5 6d 3e ad b9 10 bf 67 40 c9 be f3 20 01 bf
       0.23219779 -0.5653332 -0.39306948 -0.504409
0000d0 e7 80 59 3e a1 f4 dd 3e 44 a8 93 3e d5 9c aa be
       0.21240579 0.433507 0.28839314 -0.33322778
0000e0 8e 21 dc 3e e4 30 c3 be bf 59 0b be 31 0c 8d 3e
       0.4299435 -0.38123238 -0.13608454 0.27548364
0000f0 83 84 b7 3e a5 bb 31 be 65 60 ba 3d e3 de 29 3c
       0.35843286 -0.17356737 0.09100417 0.010368082

weight f4 [64, 1]
000000 98 f9 16 be 02 bf 81 be 14 8d 02 bf e4 21 b7 3e
       -0.1474365 -0.2534104 -0.5099652 0.35768044
000010 f9 fa 86 3e e7 57 90 3e 58 f4 eb 3d c0 15 1e bf
       0.26363352 0.28192064 0.11521214 -0.6175194
000020 6c 8b 66 bf 70 98 7e 3f 90 51 08 3f 2e e9 ff 3e
       -0.9005649 0.9945135 0.53249454 0.4998259
000030 70 a6 56 3f 64 96 93 bd 58 e9 41 bf a6 90 33 bf
       0.83847713 -0.07206419 -0.7574668 -0.7014259
000040 2e 3b 4d 3f b0 80 7b 3f 85 00 37 3f 2a 9e 5d bf
       0.80168426 0.98243237 0.7148517 -0.86569464
000050 a6 4b d2 bc 60 e7 39 bf f2 eb f4 3e 65 91 35 3f
       -0.025670838 -0.72618675 0.47836262 0.7092498
000060 22 d9 74 3f a4 00 c8 3e 40 c0 66 be 28 8d 5b 3e
       0.9564382 0.3906299 -0.22534275 0.21440566
000070 3c 7b 19 bf 92 c4 72 bf dc 4a ad be d3 6c cd 3e
       -0.59953666 -0.9483119 -0.33846176 0.4012209
000080 12 fa 64 bf cd 9d 99 bd df 9d 73 3e 37 3a 19 3d
       -0.89444077 -0.07500801 0.23790692 0.037409034
000090 7d 60 87 3d 2c 9d 9e 3e 1d fc 43 bf 7a 1f 34 3f
       0.066102006 0.30979288 -0.7655657 0.7036053
0000a0 10 cc bc 3e 91 55 63 bf 2e 51 cd bc 4a 51 32 bf
       0.36874437 -0.8880244 -0.025063124 -0.6965529
0000b0 dd dd d1 3e 1d b4 52 bf e0 90 89 3e ec 8d 05 3f
       0.4098958 -0.8230608 0.26868343 0.5216968
0000c0 fe 97 92 be 9a 6a 47 3e 74 37 57 bf 66 47 1e 3f
       -0.28631586 0.19474259 -0.8406899 0.61827695
0000d0 5c d6 32 bf bd ae 6e 3f 54 83 cf be af af 5b 3e
       -0.69858336 0.9323538 -0.40529883 0.21453737
0000e0 89 d5 a2 be 38 4a b6 be 85 72 33 bd 9f 07 fd 3e
       -0.3180354 -0.356035 -0.043810386 0.49419877
0000f0 30 a6 07 bd 9e 07 c7 be 23 3b a7 be 34 50 b7 3e
       -0.033117473 -0.38873 -0.32662305 0.35803378

weight f4 [64]
000000 ac e2 7d 3f dd e3 7a 3f 00 00 80 3f 71 55 7f 3f
       0.99174 0.9800394 1.0 0.9973975
000010 91 33 80 3f 00 00 80 3f 00 00 80 3f cc 82 7f 3f
       1.0015737 1.0 1.0 0.99808955
000020 74 22 7f 3f d6 c9 7b 3f 69 20 81 3f 6f 8e 80 3f
       0.99661946 0.9835485 1.0088016 1.0043467
000030 04 9d 7d 3f e3 2a 7e 3f 53 94 7f 3f 2e 80 7f 3f
       0.9906771 0.9928419 0.998357 0.9980496
000040 bb 50 7f 3f 00 00 80 3f 00 00 80 3f 8d db 7c 3f
       0.9973256 1.0 1.0 0.9877251
000050 2c 19 81 3f 85 bf 7f 3f 46 1a 80 3f a3 b9 7e 3f
       1.0085807 0.9990161 1.0008018 0.9950201
000060 b3 c1 7d 3f 00 00 80 3f e9 35 80 3f 3e bc 7f 3f
       0.99123687 1.0 1.0016452 0.9989661
000070 26 d1 7f 3f 8c f9 80 3f 01 95 7e 3f 0d 7f 80 3f
       0.9992851 1.0076156 0.9944611 1.0038773
000080 00 00 80 3f 00 00 80 3f 63 6e 80 3f 36 80 80 3f
       1.0 1.0 1.0033687 1.0039127
000090 d9 fe 7e 3f ca fc 80 3f 00 00 80 3f 42 53 80 3f
       0.99607617 1.0077145 1.0 1.0025408
0000a0 00 00 80 3f 00 00 80 3f 8f e6 7e 3f 00 00 80 3f
       1.0 1.0 0.99570554 1.0
0000b0 b4 63 80 3f 00 00 80 3f 00 00 80 3f bc 63 7e 3f
       1.0030427 1.0 1.0 0.9937093
0000c0 67 2d 81 3f 5d 6c 80 3f 9c 0c 80 3f 40 0d 82 3f
       1.0091981 1.003307 1.0003848 1.0160294
0000d0 62 28 80 3f 2b 75 7f 3f 21 00 80 3f 5a f7 7e 3f
       1.0012324 0.9978816 1.0000039 0.9959618
0000e0 00 00 80 3f 70 29 80 3f f0 65 80 3f 33 05 7e 3f
       1.0 1.0012646 1.0031109 0.99226683
0000f0 3e c5 80 3f 00 00 80 3f 00 00 80 3f d3 b4 80 3f
       1.0060194 1.0 1.0 1.0055183
