mlartifacts/982343343277370496/7496234148184e73bde56956843b7551/artifacts/models/data/model.pth (torch, 712914 bytes, 130 tensors)

bias f4 [64]
0	0xbd0ede04	-0.0348797
1	0xbd39fd1e	-0.045407407
2	0x3c84bb6e	0.016202655
3	0xbc633738	-0.013868146
4	0x3c84f854	0.016231693
5	0x3c8241c4	0.0159005
6	0xbcd2ec96	-0.025747579
7	0x00000000	0.0
8	0xbb8cea7f	-0.004300415
9	0x3ce11705	0.027476797
10	0xbc96c956	-0.018406551
11	0x3c9e17bf	0.019298432
12	0x3c1c0d07	0.00952459
13	0x3c736c52	0.014857369
14	0xbcfe6995	-0.031056205
15	0xbc8281e2	-0.015931074
16	0x00000000	0.0
17	0xbd2d9e1b	-0.04238711
18	0xbcba0833	-0.022708988
19	0xbc55ff32	-0.013061332
20	0xbd0dbf28	-0.03460613
21	0xbd2bd4a1	-0.041950826
22	0xbc67dde8	-0.014152028
23	0x00000000	0.0
24	0xbce41c8d	-0.027845645
25	0x3b9d5e26	0.004802483
26	0xbd0562de	-0.03256499
27	0x3a3ce76c	0.00072061154
28	0x3c9347ff	0.017978666
29	0x3ba6a4a6	0.0050855456
30	0xbd077ce5	-0.033078093
31	0x3c864c1c	0.016393714
32	0x3cd2924d	0.025704527
33	0x3b751d7a	0.0037401603
34	0xbc3187f0	-0.010835633
35	0x00000000	0.0
36	0xbc912844	-0.017719395
37	0x3c3c6398	0.011498354
38	0xbcbb046a	-0.022829253
39	0x3b557e8f	0.0032576656
40	0x3c9d811f	0.019226609
41	0x3cfe50a0	0.031044304
42	0xbce85c2e	-0.028364267
43	0x00000000	0.0
44	0xbcae19bd	-0.021252507
45	0x3b38afb3	0.0028180897
46	0x00000000	0.0
47	0xba5e83e3	-0.00084882806
48	0xba3282f6	-0.0006809676
49	0x00000000	0.0
50	0xbcc32922	-0.023823325
51	0xbcd6340c	-0.026147865
52	0xbc718835	-0.014741947
53	0x3cc3c44f	0.023897318
54	0x3d46d88e	0.048546366
55	0x3b1ed2ef	0.0024234613
56	0x00000000	0.0
57	0xbd017c36	-0.031612597
58	0x00000000	0.0
59	0xbd2eb341	-0.04265142
60	0xbd0d32cd	-0.034472276
61	0x00000000	0.0
62	0xbc7d3566	-0.015454626
63	0xbb128377	-0.0022356191

weight f4 [64, 3]
0	0x3edf8693	0.4365736
1	0x3dfa15c3	0.12211182
2	0xbeec21ad	-0.46119443
3	0xbea81835	-0.32830968
4	0xbee34f0b	-0.44396242
5	0xbe5b94fc	-0.21443552
6	0x3c7bd894	0.0153714605
7	0xbef1da15	-0.47236696
8	0x3e2a4c61	0.16630699
9	0xbe7a1360	-0.24421453
10	0xbea67448	-0.3251059
11	0x3e79d3f7	0.24397264
12	0xbd9e7448	-0.07737023
13	0xbeb07c22	-0.34469706
14	0xbc8041c9	-0.015656369
15	0x3d23f745	0.040030736
16	0x3df92c41	0.12166644
17	0x3f06e67a	0.5269543
18	0xbd4eee89	-0.050520454
19	0x3efc8d94	0.49326766
20	0x3e396113	0.18103437
21	0xbe19aa9c	-0.15006489
22	0x3f029ecb	0.5102355
23	0xbf098e30	-0.53732586
24	0x3de577fa	0.11204524
25	0xbe712630	-0.23549724
26	0xbec9abc2	-0.39388853
27	0xbebe9b5a	-0.372279
28	0xbeec39fb	-0.46137986
29	0x3ed50a4f	0.41609427
30	0xbe9d0a57	-0.3067195
31	0x3e8053e1	0.25063995
32	0xbf11eb77	-0.56999916
33	0x3ddc0db9	0.10744805
34	0x3f0fcde4	0.5617354
35	0x3eae9f6c	0.34106004
36	0xbed22756	-0.41045636
37	0x3e08f01e	0.13372847
38	0x3edd6b8e	0.4324612
39	0xbdd4b58c	-0.1038619
40	0x3e929673	0.2863041
41	0x3d89259a	0.06696625
42	0xbdd234a0	-0.10263944
43	0x3e6baf1e	0.2301602
44	0x3f13828c	0.57621074
45	0xbf070c00	-0.52752686
46	0xbea39161	-0.31946853
47	0x3df9c922	0.12196566
48	0xbf12474c	-0.5714004
49	0xbf0d02b6	-0.5508226
50	0xbec38870	-0.3819003
51	0xbed87f70	-0.42284727
52	0x3e3fff14	0.18749648
53	0xbe841070	-0.2579379
54	0xbe71ee07	-0.23625956
55	0xbd6cec4d	-0.05784254
56	0xbba1d867	-0.0049391272
57	0x3e2a762e	0.16646644
58	0xbea0876b	-0.31353316
59	0xbf06c8bf	-0.52650064
60	0x3d9cee90	0.0766269
61	0xbe42692b	-0.18985431
62	0xbe2fa2a9	-0.17151894
63	0x3ea23dde	0.31687826
64	0x3f024ab0	0.50895214
65	0x3e2b1fde	0.16711375
66	0xbec414a7	-0.38297006
67	0x3e99fe3f	0.30076787
68	0xbeec983f	-0.46209905
69	0xbef50975	-0.47858778
70	0xbe8ec25a	-0.27882653
71	0xbecbd4b8	-0.3981073
72	0x3e84eec7	0.25963423
73	0x3dbc55c4	0.09196046
74	0xbe721599	-0.23641051
75	0x3ee35c0e	0.4440617
76	0xbec649bc	-0.3872813
77	0x3ecc4e99	0.39903715
78	0xbe62e90e	-0.22159216
79	0xbe52feb0	-0.20604968
80	0xbf03a731	-0.5142699
81	0x3e511a2b	0.20420139
82	0xbddd5ba1	-0.108084925
83	0xbf012527	-0.50447315
84	0x3e15a542	0.14613822
85	0x3d935813	0.07194533
86	0x3f039173	0.5139381
87	0xbf08ab4e	-0.5338639
88	0xbedba6a6	-0.4290058
89	0x3d9ffb0b	0.078115545
90	0xbd86c3dc	-0.06580326
91	0xbe61a025	-0.22033747
92	0xbe9f5407	-0.31118795
93	0xbeb8400c	-0.35986364
94	0xbea84008	-0.32861352
95	0x3e501d28	0.20323622
96	0xbef4d1e7	-0.47816393
97	0xbd9dc767	-0.077040486
98	0x3e127a73	0.14304523
99	0xbe64d97e	-0.22348592
100	0x3ec41b12	0.38301903
101	0x3e791aaa	0.24326578
102	0xbe9d6606	-0.307419
103	0xbed35be5	-0.41281047
104	0xbf1987c9	-0.59972817
105	0xbdc8fa88	-0.0981341
106	0x3efe1670	0.49626493
107	0xbd948e5a	-0.07253714
108	0xbed5c7e9	-0.41754082
109	0xbec5d937	-0.38642284
110	0x3ecf6db7	0.40513393
111	0xbf0f701c	-0.5603044
112	0x3dac5229	0.08414108
113	0xbf09182d	-0.53552514
114	0x3eb823f7	0.3596494
115	0x3e85e265	0.26149288
116	0xbe25fd40	-0.16209888
117	0x3d0b1f27	0.033965256
118	0xbeb0c17c	-0.34522617
119	0xbd90c459	-0.070687
120	0x3e9654ab	0.29361472
121	0xbe7a000b	-0.24414079
122	0x3ea58976	0.32331437
123	0xbf0b2c4e	-0.5436448
124	0x3e990200	0.29884338
125	0xbdfc0c81	-0.123070724
126	0x3e3a44a1	0.18190242
127	0xbf028a87	-0.50992626
128	0x3ed34f9d	0.41271678
129	0xbe2f482f	-0.1711738
130	0xbdb7cfb5	-0.08975164
131	0xbe12853d	-0.14308639
132	0xbe98670d	-0.29766122
133	0xbeed9917	-0.4640586
134	0x3bdeb6f6	0.006796713
135	0x3ceeaf25	0.02913625
136	0x3ebd81cf	0.370131
137	0xbe8ea2e5	-0.27858654
138	0xbe79a4be	-0.2437925
139	0x3d8c2d19	0.06844539
140	0xbe01e44f	-0.12684749
141	0xbe7980f4	-0.24365598
142	0x3f11bad5	0.5692571
143	0x3d48295b	0.048867565
144	0xbefa7051	-0.48913816
145	0xbdb0ad4a	-0.08626802
146	0x3e7c0e94	0.24614936
147	0xbdb981cd	-0.09057961
148	0xbe9b2ec7	-0.30309126
149	0x3ea1cac4	0.3160001
150	0x3e3ed730	0.18636775
151	0x3d19af09	0.037520442
152	0xbd2874ea	-0.041127123
153	0x3e213ce5	0.15745886
154	0x3ed8fae4	0.42378914
155	0x3ee7a76a	0.45244914
156	0x3e0dcde0	0.13848066
157	0xbe9741e9	-0.29542473
158	0xbde18976	-0.11012547
159	0xbe22e051	-0.15905882
160	0x3dbea52d	0.093088485
161	0xbece5d7d	-0.403057
162	0xbe53614c	-0.20642585
163	0x3dfd3460	0.12363505
164	0xbebcde86	-0.36888522
165	0xbed087ca	-0.407286
166	0x3d7c763a	0.061636187
167	0x3d89a659	0.067211814
168	0x3dd3a7ac	0.10334715
169	0xbe9d9cfd	-0.30783835
170	0x3e739137	0.23785864
171	0x3d3aa088	0.04556325
172	0x3c62cd2c	0.013842862
173	0xbdb2e28f	-0.08734619
174	0x3d58ec00	0.052959442
175	0x3cdb9d5c	0.026808433
176	0xbee093fd	-0.43862906
177	0xbda0c355	-0.07849757
178	0x3f0ba7cd	0.5455292
179	0x3d616b47	0.05503395
180	0x3f0b4ac0	0.54410934
181	0xbed08f4e	-0.40734333
182	0x3ed7ee6e	0.42174095
183	0xbee7dd5a	-0.45286065
184	0xbe9526d8	-0.29131198
185	0xbcaaa04d	-0.02082839
186	0xbef1d512	-0.47232872
187	0x3eeb2f79	0.45934656
188	0xbd6288b5	-0.055306155
189	0xbee92126	-0.45533103
190	0x3ef7c5eb	0.48393187
191	0x3efb5299	0.49086455

weight f4 [64, 3]
0	0x3eed7632	0.46379238
1	0x3ec9703b	0.39343438
2	0xbe89c5bf	-0.2690868
3	0x3e17be6d	0.14818735
4	0x3e7f98a3	0.2496057
5	0x3f0e3f71	0.55565554
6	0xbddb072c	-0.10694727
7	0xbeef80bc	-0.46777904
8	0x3eccb066	0.3997833
9	0x3ba15b1a	0.00492419
10	0x3eb07173	0.34461555
11	0x3cf3899a	0.0297287
12	0xbec8a39b	-0.3918732
13	0x3ef5754a	0.47941047
14	0xbee7f3d8	-0.45303226
15	0x3e6f02a3	0.2334085
16	0x3f04572e	0.51695526
17	0xbed9d97c	-0.4254874
18	0xbeb6ed0c	-0.35727727
19	0xbf16e266	-0.58939207
20	0xbe6b0b09	-0.22953428
21	0xbd010815	-0.03150185
22	0x3f02bf62	0.51073277
23	0xbecf5ea8	-0.40501904
24	0xbe14ae53	-0.14519624
25	0xbea1587a	-0.31512815
26	0xbdd22502	-0.10260965
27	0xbe7bf58e	-0.2460539
28	0x3e9e2ea0	0.30894947
29	0xbd833ac0	-0.0640769
30	0xbecba77a	-0.39776212
31	0xbeb4e3d5	-0.35330072
32	0xbea82768	-0.32842565
33	0x3f05a561	0.52205473
34	0xbe906edb	-0.28209576
35	0xbdb072cf	-0.08615648
36	0xbf0aed9d	-0.5426882
37	0x3e6cafd7	0.23113953
38	0x3ebe14cf	0.3712525
39	0xbed1a00f	-0.40942428
40	0x3e19f86f	0.15036176
41	0x3f0f840a	0.5606085
42	0x3eea6e14	0.45787108
43	0x3e8d89b2	0.27644116
44	0x3e7f0be8	0.24906886
45	0x3ec4d366	0.38442534
46	0xbe6ca6c5	-0.23110493
47	0xbed29a03	-0.41133127
48	0xbd6eb4bf	-0.05827784
49	0xbf06ca87	-0.5265278
50	0x3eee4ae5	0.46541515
51	0xbeb5853f	-0.3545322
52	0xbf0ac122	-0.5420095
53	0xbecd57be	-0.40106004
54	0xbf0c2fa9	-0.54760224
55	0xbc8dcb4f	-0.01730886
56	0x3d4d30c5	0.05009534
57	0xbedca6b0	-0.43095922
58	0x3da9ac2c	0.08284792
59	0xbf025e64	-0.5092528
60	0x3e92d477	0.28677723
61	0xbe6603e4	-0.22462422
62	0xbeabca5d	-0.33552828
63	0x3f0d35e8	0.5516038
64	0xbeef8833	-0.467836
65	0xbe87e8af	-0.2654471
66	0x3e98de0f	0.29856917
67	0xbee37065	-0.44421688
68	0xbeb569cb	-0.35432276
69	0x3e480558	0.19533288
70	0xbe2f1794	-0.17098838
71	0x3c78daa1	0.015188844
72	0x3e6f55ef	0.23372625
73	0xbee216c0	-0.44157982
74	0xbd20a83e	-0.03922295
75	0xbe9101b8	-0.28321624
76	0xbc329450	-0.010899618
77	0xbef8fa7a	-0.48628598
78	0xbf10e1da	-0.5659462
79	0xbe2a6ea1	-0.16643764
80	0xbdb35e7a	-0.08758254
81	0xbed44585	-0.4145929
82	0xbed43693	-0.41447887
83	0x3edfc3d3	0.4370409
84	0xbe53bfde	-0.2067866
85	0x3e9b3019	0.30310133
86	0xbece7b45	-0.40328422
87	0xbed1884e	-0.40924305
88	0x3ef98e83	0.4874154
89	0xbd631a98	-0.055445284
90	0x3f069e02	0.5258485
91	0x3ef1d7b2	0.47234875
92	0x3eaa225b	0.33229336
93	0x3ee8a626	0.4543926
94	0x3d55b7cf	0.052177247
95	0xbed7f77e	-0.4218101
96	0x3f102c9b	0.5631806
97	0xbc050ac8	-0.008120246
98	0x3e2308f9	0.15921392
99	0xbe0288f0	-0.1274755
100	0xbee9806d	-0.45605794
101	0xbb920fcf	-0.004457451
102	0x3f124491	0.57135874
103	0x3e241129	0.16022171
104	0xbed53a9f	-0.41646287
105	0xbe08f310	-0.13373971
106	0xbe99f08c	-0.30066335
107	0xbb9fee82	-0.0048807273
108	0x3f081115	0.53151065
109	0xbe9da58b	-0.30790362
110	0x3ee83e32	0.4535995
111	0x3dba2173	0.09088411
112	0x3ed784e4	0.42093575
113	0x3e1d57c5	0.15365513
114	0xbd66c1da	-0.056337215
115	0xbe33eae6	-0.17570075
116	0x3ec14afa	0.37752515
117	0xbdc8b475	-0.098000444
118	0xbf022b8e	-0.5084771
119	0xbd81a529	-0.0633033
120	0xbed1a0c3	-0.40942964
121	0x3cd8afde	0.026451048
122	0x3e20ac81	0.15690805
123	0x3ee4fc6c	0.44723833
124	0xbe825878	-0.2545812
125	0x3ec0f4ed	0.37686864
126	0xbdc97121	-0.09836031
127	0x3f055e47	0.5209698
128	0x3ea8fc27	0.33004877
129	0xbea59765	-0.32342067
130	0x3ebcc6ae	0.3687033
131	0xbe407030	-0.18792796
132	0x3eb958d3	0.3620058
133	0x3eb7d353	0.35903415
134	0x3eb302e9	0.34963158
135	0xbdf1997f	-0.11796855
136	0x3dc7802f	0.09741246
137	0xbe956acf	-0.2918305
138	0xbea39689	-0.31950787
139	0xbec0115d	-0.37513247
140	0xbd8c0acb	-0.06837996
141	0x3f09cad5	0.5382512
142	0x3d8360d4	0.06414953
143	0xbda9347c	-0.08261964
144	0x3ec3771d	0.38176814
145	0xbe2da42e	-0.16957161
146	0xbe2b47e2	-0.1672664
147	0x3d56ef18	0.05247411
148	0x3bb331fb	0.0054686046
149	0x3ec40ea9	0.38292435
150	0x3ec341a3	0.38136014
151	0xbf006752	-0.50157654
152	0xbef1c901	-0.47223666
153	0xbe42cc93	-0.19023351
154	0x3f0117b6	0.50426805
155	0xbe7ecff9	-0.24884023
156	0xbf00506a	-0.501227
157	0x3d2fd7ee	0.042930536
158	0xbe80ae8f	-0.25133178
159	0x3e83abd9	0.25717047
160	0x3eb5e634	0.35527194
161	0xbe26fe67	-0.16307984
162	0x3e319342	0.1734133
163	0x3da0226c	0.078190655
164	0x3e17da4c	0.14829367
165	0x3e4127d5	0.18862851
166	0xbebbc261	-0.36671737
167	0x3e3a16ec	0.18172807
168	0xbe41f921	-0.18942691
169	0x3f01fbc5	0.50774795
170	0xbecb07b8	-0.39654326
171	0x3ec7a01b	0.38989338
172	0x3a80d6ea	0.0009829674
173	0xbdb4cba2	-0.088279024
174	0xbeca0da1	-0.39463523
175	0x3f091436	0.53546464
176	0xbec345db	-0.38139233
177	0x3ec7d3c3	0.3902875
178	0xbe73e01c	-0.2381596
179	0xbd05a6ed	-0.032629896
180	0x3eb471ab	0.35242972
181	0x3f061979	0.5238262
182	0x3e8e373e	0.2777652
183	0xbe9efc2a	-0.3105176
184	0x3ef38096	0.4755904
185	0x3db3016f	0.08740508
186	0x3ef07aa0	0.46968555
187	0x3e8754d7	0.26431915
188	0x3dbf87fa	0.09352107
189	0x3e0e8bc8	0.1392051
190	0xbea93582	-0.33048636
191	0x3efae34f	0.49001548

bias f4 [64]
0	0x3eea467e	0.45756906
1	0x3ee51272	0.44740635
2	0x3e5c121b	0.21491282
3	0xbef6d787	-0.4821131
4	0xbe124dc4	-0.14287478
5	0x3f0002ff	0.5000457
6	0x3e8a5a3e	0.27021974
7	0xbe2c027b	-0.16797821
8	0xbdb3ae03	-0.087734245
9	0xbee6ba71	-0.45064119
10	0x3ec4e133	0.38453063
11	0x3f0f0aa9	0.5587564
12	0xbcbcc670	-0.023043841
13	0x3edf7d79	0.43650416
14	0x3eb4410c	0.35205877
15	0xbe8b13bb	-0.2716349
16	0x3e957a03	0.2919465
17	0x3eb470ca	0.352423
18	0xbefaedd9	-0.49009588
19	0xbdf53cea	-0.11974509
20	0x3e8b40ab	0.27197775
21	0xbe880561	-0.26566604
22	0x3d1a4ab5	0.037668902
23	0x3e235680	0.15950966
24	0x3ec6f1b2	0.38856274
25	0xbe5e41b7	-0.21704756
26	0xbef27e2e	-0.47361892
27	0x3e94b12a	0.29041415
28	0x3ecd8016	0.40136784
29	0xbe39aade	-0.18131587
30	0x3dcae133	0.099062346
31	0xbf0be76c	-0.54649997
32	0x3eebf8a5	0.46088138
33	0x3e25c2ca	0.16187587
34	0xbe2c5b12	-0.16831616
35	0xbe75d837	-0.2400826
36	0x3e525dc0	0.20543575
37	0x3d81a2a2	0.06329848
38	0xbbd60524	-0.0065313745
39	0xbea47ab9	-0.3212488
40	0x3ed5fd2c	0.41794717
41	0xbef5f929	-0.48041657
42	0x3e0ca5a4	0.13735062
43	0x3cb66f14	0.022269763
44	0x3e9d68bd	0.3074397
45	0xbe6a2fcd	-0.22869797
46	0xbdcdbfc7	-0.10046344
47	0xbe1b89a5	-0.15189226
48	0x3e22e8f7	0.15909182
49	0xbe334187	-0.17505465
50	0x3d16aaec	0.036784098
51	0xbeaa2159	-0.33228567
52	0xbf23aa40	-0.63931656
53	0xbeb4ed60	-0.35337353
54	0x3ec8bf31	0.39208367
55	0x3f0fb163	0.56130046
56	0x3ec4da5e	0.3844785
57	0x3e6a3372	0.22871187
58	0xbf0adcc5	-0.5424312
59	0x3f0b541e	0.5442523
60	0x3e4d23be	0.20033166
61	0xbed96b23	-0.4246455
62	0x3f1286df	0.57237047
63	0xbaf00844	-0.001831301

weight f4 [64, 1]
0	0xbf400f3a	-0.75023234
1	0x3f01e473	0.5073921
2	0x3f2ab124	0.66676545
3	0xbf370dfa	-0.715057
4	0x3decdf63	0.11566045
5	0xbe012860	-0.12613058
6	0xbdb622ac	-0.08893332
7	0xbddfdc20	-0.109306574
8	0xbf4c1828	-0.7972436
9	0xbd5e5240	-0.05427766
10	0x3d66f280	0.05638361
11	0xbf5a23c2	-0.8521081
12	0x3f5a072d	0.851672
13	0x3f5f3ed1	0.87205225
14	0xbf688d93	-0.90841025
15	0xbefd730c	-0.49501836
16	0xbe796c80	-0.24357796
17	0xbe432150	-0.19055676
18	0xbdd46590	-0.10370934
19	0xbf33819c	-0.70119643
20	0xbe019e1b	-0.12657969
21	0xbd81a95e	-0.06331132
22	0x3d4bbb60	0.04973924
23	0x3f17392c	0.5907161
24	0xbf471f52	-0.77782166
25	0x3e7874e7	0.24263345
26	0x3f125814	0.57165647
27	0x3f7d147e	0.98859394
28	0xbf5b21d0	-0.8559847
29	0xbf70c31a	-0.940477
30	0xbf3654ef	-0.7122335
31	0x3f775242	0.9660989
32	0x3f2860ce	0.6577271
33	0x3f2fa9be	0.6861838
34	0x3c0db642	0.008649411
35	0xbe7ff478	-0.24995601
36	0xbf73a7bd	-0.95177823
37	0xbf5e26cc	-0.8677795
38	0x3f5fc11f	0.87404054
39	0xbf711168	-0.94167185
40	0xbe8f41be	-0.27979845
41	0xbee0122c	-0.43763864
42	0xbf3717c8	-0.7152066
43	0x3f30dd21	0.69087416
44	0x3eeb6d14	0.45981658
45	0x3e42c7dc	0.19021553
46	0xbe83ed94	-0.25767195
47	0xbf06bbb2	-0.5263015
48	0x3f558265	0.8340209
49	0xbe3df4a9	-0.18550362
50	0x3f15b97a	0.5848614
51	0xbe27d4f0	-0.16389823
52	0x3ec27a45	0.3798391
53	0x3f0e8647	0.5567364
54	0x3f14250f	0.57869047
55	0xbed2ab19	-0.41146162
56	0x3eaf9fdd	0.34301654
57	0xbf7ffecc	-0.99998164
58	0xbf1b8dde	-0.6076335
59	0xbed8e65c	-0.4236325
60	0x3ec8d8aa	0.39227802
61	0x3f4a6561	0.7906094
62	0x3f347baf	0.70501226
63	0xbf33a9e8	-0.7018113

weight f4 [64, 1]
0	0x3ef48bf0	0.47763014
1	0x3e6eb952	0.23312882
2	0xbf1b3e56	-0.6064199
3	0x3ef5cd96	0.48008412
4	0xbe9c543e	-0.30533022
5	0xbf49489b	-0.7862641
6	0xbef50536	-0.47855538
7	0xbea2a16c	-0.3176378
8	0xbf11b5a4	-0.56917787
9	0xbf09644c	-0.53668666
10	0x3f1feb14	0.62468076
11	0xbf080998	-0.5313964
12	0x3e12e09e	0.14343497
13	0x3f5908ea	0.84779227
14	0x3eca62bc	0.39528453
15	0xbd0aee62	-0.033918746
16	0xbedf6d0c	-0.43637884
17	0xbdd6c294	-0.104863316
18	0x3efa21df	0.48853967
19	0xbeb2bae7	-0.3490822
20	0x3e093cd1	0.13402106
21	0xbf14b441	-0.58087546
22	0xbef81186	-0.4845087
23	0xbe8350d4	-0.25647604
24	0xbed0012c	-0.40625894
25	0x3f82ad6f	1.0209178
26	0xbf015ae6	-0.50529325
27	0xbf1523a2	-0.58257496
28	0x3f812711	1.0090047
29	0x3e9f71a9	0.31141403
30	0x3e63d15c	0.22247833
31	0x3f3c9958	0.73671484
32	0xbf81f99c	-1.01543
33	0xbe98bb67	-0.29830477
34	0xbe45b8e2	-0.19308808
35	0x3f1afadc	0.6053903
36	0xbf0501a4	-0.5195563
37	0x3ef17c70	0.4716525
38	0x3f5d3ef0	0.8642416
39	0xbedc301f	-0.43005463
40	0x3ea7ea3b	0.3279589
41	0xbed34ed8	-0.4127109
42	0x3f47e189	0.78078514
43	0x3ecb927c	0.39760196
44	0xbf2713d4	-0.6526463
45	0xbe9aff28	-0.30272794
46	0x3d8890f0	0.0666827
47	0xbc88aa49	-0.01668276
48	0x3f3ade08	0.7299504
49	0xbf71a284	-0.94388604
50	0x3f03c239	0.51468235
51	0x3e146031	0.14489819
52	0xbf7b9da9	-0.98287445
53	0xbf1da22a	-0.6157557
54	0x3f22cdb5	0.63595134
55	0xbf01fd74	-0.50777364
56	0xbe9901e4	-0.29884255
57	0xbef294c7	-0.47379133
58	0xbeb89a00	-0.36054993
59	0x3efd0664	0.49418938
60	0x3e8214d6	0.25406522
61	0x3e8320ec	0.25611055
62	0xbeb0f131	-0.34559014
63	0xbf3da9f3	-0.74087447

bias f4 [64]
0	0xbec61e10	-0.3869481
1	0xbee5d831	-0.44891503
2	0x3f3cd3d5	0.7376073
3	0x3ea264b9	0.3171747
4	0x3f17b215	0.59256107
5	0x3e2e208b	0.17004602
6	0x3f367bad	0.71282464
7	0xbf5812b2	-0.84403527
8	0xbee21472	-0.44156224
9	0xbd5f2d06	-0.054486297
10	0xbe73ac67	-0.23796235
11	0x3ec4bb6d	0.38424245
12	0x3ef75d0e	0.48313183
13	0xbf57602e	-0.84131134
14	0xbeb11cdd	-0.34592333
15	0x3ea4127d	0.32045355
16	0x3dcf2dd0	0.1011616
17	0x3f373450	0.715642
18	0x3f42167b	0.7581555
19	0x3eea6219	0.45777968
20	0x3ec302b4	0.38088
21	0x3f074b88	0.52849627
22	0xbdda5284	-0.1066027
23	0xbf78678a	-0.9703299
24	0xbd9eaf66	-0.07748298
25	0x3f63d2c5	0.88993484
26	0x3c5ec703	0.013597253
27	0xbf17f5df	-0.59359545
28	0x3f416df4	0.755584
29	0x3f2110e9	0.6291643
30	0xbee9bc4d	-0.45651475
31	0xbf4100bf	-0.75391763
32	0xbdd48517	-0.103769474
33	0xbf105d52	-0.56392395
34	0xbd6d3bb9	-0.057918284
35	0xbf388532	-0.7207824
36	0xbf55e027	-0.83545154
37	0x3d3a4bbb	0.04548238
38	0xbf0658ce	-0.52479255
39	0x3ee1a892	0.4407392
40	0x3f0a4b96	0.54021585
41	0x3f77ce7b	0.9679944
42	0xbe92c083	-0.286625
43	0xbf1ca994	-0.61196256
44	0xbdfab8be	-0.12242268
45	0xbec108a7	-0.37701914
46	0xbf656d72	-0.89620125
47	0x3f37d425	0.7180808
48	0xbf1e8187	-0.61916393
49	0xbf3f300a	-0.74682677
50	0x3f262354	0.64897656
51	0xbf6719b9	-0.90273625
52	0x3f41a6d2	0.7564517
53	0x3f556e80	0.83371735
54	0x3f344a0e	0.704255
55	0x3e40ec8b	0.18840234
56	0xbe0b0ac8	-0.13578331
57	0x3f388165	0.7207244
58	0xbf5f3688	-0.87192583
59	0x3ef15e87	0.4714243
60	0x3ee73347	0.4515631
61	0xbcf82540	-0.0302912
62	0xbd368b39	-0.044566367
63	0xbf7ee823	-0.9957296

weight f4 [64, 3]
0	0x3eb66dd6	0.35630673
1	0x3e057cbf	0.13035868
2	0xbe1f414a	-0.1555225
3	0x3d24af49	0.040206227
4	0x3e8730f9	0.2640455
5	0xbef73eda	-0.4829014
6	0x3edf9f4c	0.4367622
7	0xbf04d91f	-0.518938
8	0xbe723743	-0.23653893
9	0xbcfb7caa	-0.030699093
10	0xbd921fd3	-0.07134976
11	0xbd6e7045	-0.058212537
12	0xbef1a547	-0.4719641
13	0x3ecb6270	0.3972354
14	0x3e417689	0.18892874
15	0x3e19bb86	0.15012941
16	0xbee0f647	-0.43937895
17	0x3e7eecaa	0.24894968
18	0x3ea44dac	0.3209051
19	0xbe424448	-0.1897136
20	0x3cf272aa	0.029595692
21	0x3eecdaa9	0.46260574
22	0xbe80af35	-0.25133672
23	0x3efce283	0.49391565
24	0x3e9373b9	0.28799227
25	0x3e9be25c	0.30446136
26	0x3e697942	0.22800162
27	0xbef0c7b0	-0.4702735
28	0x3e85e74d	0.2615303
29	0x3d4c8d39	0.049939368
30	0x3f0e08ef	0.5548238
31	0x3e7fd12b	0.24982135
32	0xbeaa6b81	-0.33285144
33	0x3e8793aa	0.26479846
34	0xbe7239a7	-0.23654805
35	0x3ef6bee6	0.4819252
36	0x3ef7d1af	0.48402163
37	0x3e19a7a0	0.1500535
38	0x3f107d3c	0.5644109
39	0x3f0e33f2	0.5554801
40	0x3e8f001b	0.27929768
41	0x3ebc5187	0.3678095
42	0xbe90310c	-0.2816242
43	0x3e3a5150	0.18195081
44	0xbee41c0c	-0.44552648
45	0x3f1583f4	0.5840447
46	0x3dc7f676	0.097638056
47	0xbe9ec4ec	-0.31009614
48	0x3c6261d7	0.013817272
49	0xbebd2f96	-0.36950368
50	0xbdde81c6	-0.10864596
51	0x3f01b4c4	0.5066645
52	0x3f0a8f2d	0.5412472
53	0xbeb5c6a7	-0.35503122
54	0x3ee3a7fd	0.44464102
55	0xbec35c08	-0.38156152
56	0xbeb75b4c	-0.3581184
57	0x3ee53461	0.44766524
58	0x3d7cb52f	0.061696228
59	0x3f118af8	0.56852674
60	0x3ea46d00	0.3211441
61	0xbf09c09e	-0.53809536
62	0x3eb0984d	0.34491196
63	0xbe93e14a	-0.2888282
64	0x3e8e5831	0.2780166
65	0xbeb846b3	-0.3599144
66	0x3e5a3059	0.21307506
67	0xbe2c147c	-0.16804689
68	0xbede92f3	-0.43471488
69	0x3ea5f7c1	0.32415584
70	0x3ea09c9d	0.31369486
71	0xbf1365f5	-0.5757745
72	0xbe0087b3	-0.12551765
73	0x3e80e563	0.25175008
74	0x3ed1bb8d	0.40963402
75	0xbeeb860e	-0.46000713
76	0x3e39f6b2	0.18160513
77	0xbec83139	-0.39100054
78	0x3eaae876	0.3338048
79	0xbeea3cef	-0.45749614
80	0xbf0777c6	-0.52917135
81	0xbd8a468b	-0.06751736
82	0x3f053206	0.52029455
83	0xbd8a28ae	-0.0674604
84	0xbe16467e	-0.14675328
85	0xbeb2e273	-0.34938392
86	0xbe329a30	-0.1744163
87	0xbe8f8a4c	-0.280352
88	0xbed9eef4	-0.4256512
89	0xbb265816	-0.0025382093
90	0x3dfa4048	0.12219292
91	0xbe3448a9	-0.17605843
92	0xbedc9362	-0.43081194
93	0x3e9d96ac	0.30779016
94	0x3efd852f	0.49515674
95	0x3e15e436	0.14637837
96	0x3eecefed	0.462768
97	0x3d395edd	0.045256484
98	0xbd11ec30	-0.035625637
99	0xbe28669c	-0.16445392
100	0x3ecfbc1c	0.40573204
101	0xbd323011	-0.04350287
102	0xbd548496	-0.051884256
103	0x3c87fe14	0.016600646
104	0xbea7162a	-0.32634097
105	0xbf11d541	-0.56966025
106	0x3ede75d9	0.43449286
107	0x3974cbe8	0.00023345614
108	0xbe9cacbc	-0.30600536
109	0xbf0919fc	-0.53555274
110	0xbe948ace	-0.2901215
111	0x3ebe0306	0.37111682
112	0xbe23b0cc	-0.15985411
113	0x3d55a124	0.05215563
114	0xbe9ca2ba	-0.305929
115	0x3e53afbc	0.20672506
116	0xbf13c7c4	-0.57726693
117	0x3de25e36	0.110531256
118	0x3ee16389	0.44021252
119	0xbea9066d	-0.33012715
120	0xbe0caad8	-0.13737047
121	0xbd08b17a	-0.03337238
122	0x3eada93a	0.33918172
123	0xbef503cc	-0.4785446
124	0x3edb5abc	0.42842662
125	0x3e92c1a4	0.2866336
126	0xbeb9e459	-0.36307028
127	0xbf0b8960	-0.5450649
128	0x3d3ea391	0.046542708
129	0xbf09060d	-0.5352486
130	0x3de57120	0.112032175
131	0x3f0e4ec6	0.5558895
132	0x3eaf9fad	0.3430151
133	0x3e92e25e	0.2868833
134	0xbed44f69	-0.41466835
135	0xbf11f271	-0.5701056
136	0xbf135bbe	-0.5756186
137	0x3e4b099e	0.19827887
138	0xbea87fbe	-0.3290996
139	0xbe80196e	-0.250194
140	0x3ed3b627	0.4134991
141	0xbe473880	-0.19455147
142	0xbebb916a	-0.3663438
143	0xbe1c97f9	-0.15292348
144	0xbf0224b8	-0.5083728
145	0x3f0a78d5	0.54090625
146	0xbdd94183	-0.106081985
147	0xbec6ed53	-0.3885294
148	0xbe8d7ec4	-0.27635777
149	0x3e154c35	0.14579852
150	0xbf11c2ec	-0.5693805
151	0xbf0b56d6	-0.54429376
152	0xbe4ff8e9	-0.20309795
153	0x3ee1a480	0.44070816
154	0x3e98cb0c	0.29842412
155	0xbec96750	-0.39336634
156	0x3f0f3644	0.5594218
157	0xbec2be61	-0.38035873
158	0x3ee350c5	0.4439756
159	0xbe8a6f31	-0.27037957
160	0x3d4b4954	0.049630478
161	0x3ee5a1f7	0.44850132
162	0xbf06fd4f	-0.5273027
163	0x3e7360e8	0.23767436
164	0x3e95a752	0.29229218
165	0x3edda63d	0.43290892
166	0x3dfa9c7c	0.12236878
167	0x3e80a892	0.2512861
168	0xbef9a8f2	-0.48761708
169	0xbefaa757	-0.48955795
170	0xbeecad74	-0.46226084
171	0xbefc837a	-0.4931906
172	0xbe9c6529	-0.3054593
173	0xbecb4caf	-0.39706942
174	0xbebe5e6d	-0.37181416
175	0xbeeb45cf	-0.45951697
176	0xbdc57152	-0.09640755
177	0xbeca23e5	-0.3948051
178	0xbd865918	-0.06559962
179	0xbf0c9b87	-0.54924816
180	0xbefe3028	-0.49646115
181	0xbf158ca2	-0.58417714
182	0xbe32a0b3	-0.17444114
183	0xbe0c3329	-0.13691391
184	0xbd1bf8d2	-0.03807909
185	0xbeeb7824	-0.45990098
186	0xbeaeba1a	-0.3412636
187	0xbf14200e	-0.5786141
188	0xbef70e0c	-0.48252904
189	0xbe6c4d96	-0.23076472
190	0x3ebb4be2	0.36581331
191	0x3d41a981	0.047280792

weight f4 [64, 3]
0	0xbecb3fed	-0.3969721
1	0x3ea4fa2c	0.32222116
2	0x3e53d552	0.20686844
3	0xbe173a1e	-0.14768264
4	0xbefadf4f	-0.48998496
5	0x3eac45cb	0.33646998
6	0x3e294ccd	0.16533203
7	0xbef36521	-0.47538093
8	0xbeaee1e3	-0.34156713
9	0x3c9dee58	0.01927869
10	0x3e9c49c1	0.3052502
11	0x3e1521d5	0.14563687
12	0xbec58984	-0.3858148
13	0xbe4b5a5b	-0.19858687
14	0xbf022f27	-0.508532
15	0xbdd5d35f	-0.104407065
16	0xbd8f5211	-0.06998075
17	0x3d235f41	0.039885763
18	0x3c4e2264	0.012581442
19	0x3e3be72a	0.18349901
20	0xbd9f3a03	-0.07774737
21	0xbe8b54a0	-0.27213
22	0xbef17d5c	-0.47165954
23	0x3ec2c24a	0.38038856
24	0xbef5f364	-0.48037255
25	0x3ebf9a37	0.37422344
26	0xbdf0ca35	-0.11757318
27	0x3e51272e	0.20425102
28	0x3eaa13ec	0.33218324
29	0xbf0a8383	-0.5410692
30	0xbe9692ca	-0.29408866
31	0x3f124afc	0.5714567
32	0xbf0f7a24	-0.56045747
33	0xbe164ea5	-0.14678438
34	0x3e139fee	0.14416477
35	0x3ef776df	0.4833288
36	0xbdc7ec2c	-0.09761843
37	0x3ec30a0b	0.380936
38	0xbf04ac73	-0.51825637
39	0xbdb0c5fa	-0.08631511
40	0x3de847cb	0.113418184
41	0xbe0fd5e7	-0.14046441
42	0xbf06585f	-0.52478594
43	0xbe9e187f	-0.30878064
44	0x3f00fa30	0.50381756
45	0x3f099ab0	0.5375166
46	0xbf14305b	-0.57886285
47	0xbed3ede7	-0.41392443
48	0x3eba9903	0.36444864
49	0x3ed1727f	0.40907666
50	0x3ec1da5a	0.37861902
51	0xbdae41dd	-0.08508656
52	0x3ee82436	0.45340127
53	0x3f10fb3b	0.5663335
54	0x3ee97499	0.4559677
55	0x3d105a7d	0.035242546
56	0xbebfc056	-0.37451428
57	0xbe9fa206	-0.31178302
58	0x3daba827	0.08381682
59	0x3ec39d01	0.38205722
60	0x3ed639e0	0.4184103
61	0xbd917e9f	-0.07104229
62	0xbdfc83aa	-0.123298004
63	0xbf140dea	-0.5783373
64	0x3f0da47a	0.55329096
65	0xbea253c5	-0.31704536
66	0x3e530b95	0.20609887
67	0x3da50aa3	0.080586694
68	0x3ba685e9	0.0050818813
69	0xbf0a276d	-0.5396641
70	0xbddad57f	-0.106852524
71	0xbc14b67f	-0.009076714
72	0x3e433cff	0.19066237
73	0xbe82d5a4	-0.2555362
74	0x3d20450f	0.03912836
75	0x3d9e6604	0.07734302
76	0x3ec844ac	0.39114892
77	0x3d9a195e	0.0752437
78	0x3f08a405	0.53375274
79	0xbdbb34d1	-0.09140933
80	0x3c907d1e	0.017637786
81	0x3f09ce44	0.5383036
82	0xbd6ab969	-0.057305727
83	0x3f1987fe	0.5997313
84	0xbe93df68	-0.28881383
85	0x3ee40280	0.44533157
86	0x3ea85291	0.32875493
87	0x3c1c27bb	0.009530957
88	0xbebab7e0	-0.3646841
89	0xbef23159	-0.47303274
90	0xbee8f265	-0.45497432
91	0x3e8349bf	0.256422
92	0x3e5d31c1	0.21601011
93	0x3d0daea9	0.034590397
94	0x3db14819	0.0865633
95	0xbf0eb8f4	-0.55750966
96	0xbee65b43	-0.44991502
97	0xbec90117	-0.39258644
98	0x3d7f0a14	0.06226547
99	0xbd919ef5	-0.07110397
100	0x3e555687	0.20833789
101	0x3f014bff	0.50506586
102	0xbf05c562	-0.5225431
103	0x3ed61fee	0.41821235
104	0x3f10f4d1	0.5662356
105	0xbedae070	-0.42749357
106	0xbef18854	-0.47174323
107	0x3f07e12d	0.53077966
108	0x3ee77bb0	0.45211554
109	0xbe835816	-0.25653142
110	0x3f174943	0.59096164
111	0x3e7e1744	0.24813563
112	0x3d7cdf54	0.06173642
113	0x3e803155	0.25037637
114	0x3ca6c99b	0.020359805
115	0x3e685298	0.22687757
116	0x3e8f6c90	0.28012514
117	0x3d087700	0.033316612
118	0xbee0e16e	-0.4392199
119	0x3df4b578	0.11948675
120	0xbe9366ed	-0.28789464
121	0xbefd12ed	-0.49428502
122	0xbe57bd22	-0.21068242
123	0x3df34550	0.11878455
124	0x3d739583	0.059468757
125	0x3db35b59	0.087576576
126	0xbf08d7d5	-0.53454334
127	0xbdb4efca	-0.08834799
128	0x3ea2c685	0.31792083
129	0xbe1f6848	-0.15567124
130	0x3e453fb8	0.19262588
131	0xbeeaeb97	-0.45882866
132	0x3eec8bba	0.46200353
133	0xbee7f081	-0.45300677
134	0x3dc75c77	0.09734433
135	0xbf1202c5	-0.57035476
136	0xbee3042b	-0.44339117
137	0xbdd5fd16	-0.10448663
138	0xbd0717b1	-0.03298158
139	0xbdd7b27f	-0.10532092
140	0xbee38ee7	-0.44444963
141	0xbd3449e8	-0.044015795
142	0x3be75d55	0.0070606866
143	0x3d9f9bc3	0.07793381
144	0x3e0a0aea	0.13480726
145	0xbeb9faa9	-0.3632405
146	0x3e946f3a	0.2899111
147	0xbd807f76	-0.06274311
148	0xbec1665d	-0.3777341
149	0xbecd5739	-0.40105608
150	0xbea62435	-0.324495
151	0xbf01989f	-0.50623506
152	0xbdfe293d	-0.12410209
153	0x3e8f66c5	0.28008094
154	0xbe7ede5a	-0.24889508
155	0xbde5d1b9	-0.11221642
156	0xbe8880a3	-0.26660642
157	0xbeff77eb	-0.49896178
158	0x3e281307	0.16413508
159	0x3f013c73	0.50482863
160	0xbe6d6b84	-0.23185545
161	0x3eef7688	0.4677012
162	0x3e8586ba	0.2607935
163	0xbe82e45d	-0.25564852
164	0x3ee57a42	0.44819838
165	0xbec9242d	-0.39285412
166	0x3e444cd9	0.1916994
167	0x3f195160	0.59889793
168	0xbe366996	-0.17813715
169	0xbeb09f7b	-0.34496674
170	0x3f052b6e	0.52019393
171	0x3e003957	0.12521873
172	0x3e3bf8d1	0.18356635
173	0xbe8e1f7b	-0.27758393
174	0x3efaefac	0.4901098
175	0x3ed959a3	0.424512
176	0xbeb14df9	-0.346298
177	0xbdfda188	-0.12384325
178	0x3eeecbcc	0.4663986
179	0xbe890d85	-0.26768127
180	0x3e48206e	0.19543621
181	0xbd66561c	-0.056234464
182	0x3f01ac02	0.5065309
183	0x3e584ef6	0.21123871
184	0x3ca7c009	0.020477312
185	0xbecacce3	-0.3960944
186	0x3ee1060a	0.4394992
187	0x3ea807df	0.32818505
188	0x3e5afad2	0.21384743
189	0x3eb290a6	0.34875983
190	0xbd2005db	-0.039068084
191	0xbdcf4225	-0.10120038

bias f4 [64]
0	0xbe665525	-0.22493418
1	0x3d159436	0.036518298
2	0xbe53a2ad	-0.20667525
3	0x3e3e5a5f	0.18589161
4	0xbe9895ab	-0.29801688
5	0xbf0282a8	-0.50980616
6	0xbe132430	-0.14369273
7	0xbeddb0d6	-0.43298978
8	0xbe05e42b	-0.1307532
9	0x3ea877c4	0.32903874
10	0x3c884ce8	0.016638234
11	0xbd44c35d	-0.048037875
12	0x3e8a1c72	0.26974827
13	0xbeb2022a	-0.34767276
14	0x3f06ef4d	0.52708894
15	0xbc4f11e6	-0.012638545
16	0xbf101be3	-0.5629255
17	0xbe3fb8ca	-0.18722835
18	0x3db0ae26	0.08626966
19	0xbc14dfcb	-0.0090865595
20	0x3ebd0622	0.3691874
21	0x3db1ea54	0.08687273
22	0xbc8822a1	-0.016618075
23	0x3e86c8ac	0.26324975
24	0xbdc2be03	-0.09508898
25	0x3d95b035	0.073089994
26	0x3b4afb56	0.0030972562
27	0xbe9a174d	-0.30095902
28	0x3c529bd7	0.012854538
29	0xbe6a6866	-0.22891387
30	0x3ea41cd5	0.32053247
31	0xbdcd3d79	-0.100214906
32	0x3f0520ef	0.5200338
33	0x3e48dc83	0.19615369
34	0x3dbcd625	0.09220532
35	0xbf10cfe2	-0.56567204
36	0x3f09bdda	0.53805315
37	0xbd6fa557	-0.05850729
38	0xbdb374f5	-0.08762542
39	0x3dcdc952	0.100481644
40	0x3f042c4d	0.516301
41	0x3e6d2574	0.23158818
42	0x3e8a6333	0.27028808
43	0x3e1e1dc5	0.15441044
44	0xbed82d71	-0.4222217
45	0xbeb5d828	-0.35516477
46	0x3ee438a5	0.44574466
47	0x3e149824	0.14511162
48	0xbd15ff71	-0.03662056
49	0x3edfbe04	0.43699658
50	0x3e94a0ef	0.29029033
51	0xbe79517e	-0.24347493
52	0xbf0a921f	-0.54129213
53	0x3e964a36	0.29353493
54	0x3ee47e7b	0.44627747
55	0x3d2d1409	0.042255435
56	0x3ec33850	0.381289
57	0xbd0bfdf6	-0.034177743
58	0xbdc9c926	-0.09852819
59	0x3e528120	0.2055707
60	0x3e7e633a	0.2484254
61	0xbebc2d87	-0.36753485
62	0xbee987ad	-0.45611325
63	0x3e9d0418	0.30667186

weight f4 [64, 1]
0	0x3f4afe1c	0.7929399
1	0x3f131e99	0.57468563
2	0x3e92f4d6	0.2870242
3	0xbe4fd7f1	-0.20297219
4	0x3f6c0fac	0.92211413
5	0x3eee0872	0.46490818
6	0x3f72ec13	0.9489147
7	0x3f3b2bec	0.73113894
8	0x3da71b50	0.08159506
9	0x3f351974	0.70741963
10	0x3efa5e77	0.48900196
11	0x3ea72cff	0.32651517
12	0xbf5ba3d6	-0.8579687
13	0xbed32a95	-0.41243425
14	0xbf820387	-1.0157326
15	0x3f6e8b40	0.9318123
16	0x3e35bf08	0.17748654
17	0xbf0ac9c6	-0.5421413
18	0xbf856bf5	-1.0423571
19	0xbf7ac4be	-0.97956455
20	0xbef1e4d6	-0.472449
21	0x3f3fda06	0.7494205
22	0xbe479f1f	-0.19494294
23	0x3ee3e604	0.44511425
24	0xbeaf0bb1	-0.34188607
25	0x3e251952	0.1612294
26	0xbe6c11e4	-0.230537
27	0x3e10693f	0.14102648
28	0x3e9af7d8	0.30267215
29	0xbf588858	-0.84583044
30	0x3ec5705d	0.3856229
31	0xbe613523	-0.21992926
32	0xbe25f33e	-0.16206071
33	0x3e354d5a	0.17705289
34	0xbf475fc8	-0.77880526
35	0x3eb51a2c	0.3537153
36	0x3f3f2b36	0.7467531
37	0xbe292bf8	-0.16520679
38	0xbe08190f	-0.13290809
39	0x3f5294f8	0.8225856
40	0x3f0f3e33	0.55954283
41	0xbd1ae165	-0.03781261
42	0x3f040e89	0.5158468
43	0xbf6d80b8	-0.92774534
44	0x3f78f331	0.9724608
45	0xbf40fe64	-0.7538817
46	0xbf1e856e	-0.6192235
47	0x3f6a14cc	0.91437984
48	0x3f23b948	0.6395459
49	0x3f2654b4	0.64972997
50	0xbe787b6b	-0.2426583
51	0xbf44659f	-0.7671756
52	0xbf18845b	-0.5957696
53	0x3ed3dde5	0.4138023
54	0x3f3b8199	0.73244625
55	0x3ee70df3	0.4512783
56	0x3eaf68c0	0.34259605
57	0x3ee1e8a0	0.4412279
58	0x3f2a154a	0.66438735
59	0xbf5446c3	-0.82920474
60	0x3f634016	0.8876966
61	0x3f4a89f0	0.79116726
62	0xbeaaf945	-0.33393303
63	0xbebc3d13	-0.36765346

bias f4 [64]
0	0x3f30b8c3	0.69031924
1	0x3f02701e	0.5095233
2	0x3ee43097	0.4456832
3	0xbf2ee4a6	-0.6831764
4	0x3d0edb25	0.03487696
5	0xbeb24115	-0.3481528
6	0xbe2d2e75	-0.16912253
7	0xbf513efa	-0.8173672
8	0x3d9b9798	0.075972736
9	0x3f7213a5	0.94561225
10	0xbdf04e4c	-0.11733684
11	0xbf03614b	-0.5132033
12	0x3ddbff14	0.10742012
13	0x3c87d165	0.01657934
14	0x3f5d3cca	0.8642088
15	0xbd6311eb	-0.05543701
16	0xbf5cd740	-0.86265945
17	0x3ee9b022	0.4564219
18	0x3f0cd381	0.5501023
19	0x3eb29285	0.3487741
20	0x3e8b52b0	0.27211523
21	0x3f2a79e0	0.66592216
22	0x3f226afe	0.6344451
23	0xbdb894f0	-0.090127826
24	0x3f2fd04b	0.68677205
25	0x3dbbe8df	0.09175276
26	0x3e307b0b	0.17234437
27	0x3ed9846d	0.42483845
28	0xbc34f8d7	-0.011045656
29	0x3eee33ea	0.46523982
30	0x3e69bb3f	0.22825335
31	0x3f30233d	0.6880377
32	0x3f80f156	1.007365
33	0x3f2dd7e2	0.67907536
34	0x3f46cf01	0.7765961
35	0xbf407028	-0.75171137
36	0x3f6886e3	0.9083082
37	0xbf352464	-0.7075865
38	0x3f074fe8	0.528563
39	0x3f233e8e	0.63767326
40	0xbb42b086	-0.0029707267
41	0x3d4ab2b1	0.04948682
42	0xbef9fc93	-0.4882551
43	0xbf1de358	-0.61675024
44	0x3f439c5a	0.7641045
45	0x3ef12d11	0.47104695
46	0xbf3936b2	-0.72349083
47	0xbe05966a	-0.1304566
48	0x3ee5f133	0.44910583
49	0xbecd70cc	-0.4012512
50	0xbe99c8ec	-0.30036104
51	0xbe045bb0	-0.12925601
52	0xbf46a2c0	-0.77592087
53	0xbeb15f9a	-0.3464325
54	0x3e6f9e95	0.23400338
55	0x3edca21f	0.4309244
56	0xbf38385e	-0.7196101
57	0x3f0fcc6d	0.56171304
58	0xbf290d4e	-0.66035926
59	0xbec0bd88	-0.376446
60	0x3d5f4909	0.05451301
61	0xbf3f4eee	-0.7472981
62	0x3e0fdc03	0.14048772
63	0xbe6e4b50	-0.23270917

weight f4 [64, 3]
0	0x3d6e993a	0.058251597
1	0x3f143b4c	0.5790298
2	0xbefee78d	-0.49786034
3	0x3e302313	0.1720088
4	0x3efef435	0.4979569
5	0x3d1c68b5	0.038185794
6	0x3c245531	0.010030077
7	0xbee346c8	-0.4438994
8	0xbefeaecd	-0.49742737
9	0x3ee89611	0.45426992
10	0x3d8ccc31	0.06874884
11	0xbe313ecc	-0.17309111
12	0xbeaa2474	-0.33230937
13	0xbe52a318	-0.20570028
14	0xbe699744	-0.2281161
15	0x3ea71bf7	0.32638523
16	0x3e887600	0.26652527
17	0xbd975cb2	-0.07390727
18	0x3e3c914d	0.18414803
19	0x3ec018c2	0.3751889
20	0xbdc4f7e6	-0.096175954
21	0x3c09376f	0.008375033
22	0x3eac7146	0.3368017
23	0xbe8cdcad	-0.27512112
24	0xbc5fedf6	-0.013667574
25	0xbf13319e	-0.57497585
26	0x3eb52f89	0.3538783
27	0x3e29bdc4	0.16576296
28	0x3df4a425	0.119453706
29	0xbe9525a2	-0.29130274
30	0x3ea2ceac	0.31798303
31	0x3f0152e3	0.505171
32	0xbec81c42	-0.3908406
33	0xbd775c92	-0.060391016
34	0xbcf11161	-0.029427232
35	0xbf0f8c6a	-0.5607363
36	0x3e2987bf	0.1655569
37	0x3f042a56	0.516271
38	0xbe8d04a5	-0.27542606
39	0xbf0c6a3c	-0.548496
40	0xbec73c57	-0.38913223
41	0x3ebab10b	0.36463198
42	0xbe8e1184	-0.27747738
43	0xbe1ec54e	-0.15504953
44	0xbe284f76	-0.16436562
45	0xbe1fc58b	-0.156027
46	0x3eddea6a	0.43342906
47	0x3e882155	0.2658793
48	0x3e155209	0.14582075
49	0xbc9f272d	-0.01942786
50	0x3e668429	0.22511353
51	0xbd3993aa	-0.04530684
52	0x3f130f47	0.57445186
53	0x3e930715	0.2871634
54	0xbeec9aa8	-0.46211743
55	0x3f0722a2	0.5278722
56	0x3cdfa2f6	0.027299386
57	0xbe8a4dbd	-0.27012435
58	0x3e39d0a6	0.18146
59	0xbdbba4d1	-0.091622956
60	0x3f1abc74	0.60443807
61	0xbc5a0dd1	-0.013308958
62	0x3f08197e	0.531639
63	0xbeed1aea	-0.46309596
64	0xbe8b3fb7	-0.27197048
65	0x3f0ed26d	0.55789834
66	0xbf0f3ffb	-0.55957
67	0xbeeb75f6	-0.45988435
68	0xbc6dcefd	-0.014514682
69	0xbe0a6dcc	-0.13518447
70	0x3d548413	0.05188377
71	0x3d5200fb	0.051270466
72	0x3ec6cd83	0.38828668
73	0x3e943478	0.2894628
74	0x3b35388c	0.0027652113
75	0xbeccca5e	-0.39998144
76	0xbf031419	-0.5120254
77	0x3e327917	0.17429005
78	0xbebdac99	-0.37045744
79	0x3f09b29d	0.5378817
80	0xbef2bb12	-0.47408348
81	0x3f004007	0.500977
82	0x3e2fa47c	0.1715259
83	0xbd7f1e30	-0.06228465
84	0xbef0af37	-0.47008678
85	0x3ecb6370	0.39724302
86	0xbf00b273	-0.5027229
87	0xbdc1c913	-0.0946218
88	0xbef0ea7e	-0.47053903
89	0xbe0821ac	-0.13294095
90	0x3e1bc7e0	0.15212965
91	0xbda9787d	-0.082749344
92	0xbef911bc	-0.48646343
93	0x3ec58c78	0.38583732
94	0xbdf21c6d	-0.11821828
95	0xbe9630ae	-0.29334015
96	0xbee9132b	-0.45522436
97	0xbef36f5a	-0.47545892
98	0xbef7a7f9	-0.4837034
99	0xbf0c2951	-0.54750544
100	0xbe37f0af	-0.17962907
101	0x3eb7c11c	0.35889518
102	0x3daf94c8	0.085733
103	0xbf03d6bd	-0.5149954
104	0x3e5697dc	0.20956367
105	0xbee22230	-0.44166708
106	0xbef82507	-0.4846575
107	0x3e676636	0.22597584
108	0x3f03b85b	0.5145318
109	0xbec10a93	-0.3770338
110	0xbd7242bd	-0.059145678
111	0xbec5d83b	-0.38641533
112	0x3f0dc379	0.5537639
113	0xbf03b8d6	-0.5145391
114	0xbe0ef90d	-0.13962193
115	0xbd225bb4	-0.039638236
116	0x3eaf908b	0.34289965
117	0xbe894afa	-0.26815015
118	0xbcb867b6	-0.02251039
119	0x3e961533	0.2931305
120	0x3e244fb0	0.16046023
121	0x3dceee8c	0.10104093
122	0xbe1aa5db	-0.15102331
123	0x3d6b6e0c	0.057477996
124	0x3e5bc7ba	0.21462908
125	0xbbb11710	-0.0054043606
126	0x3e7ff175	0.24994452
127	0x3e2d2193	0.16907339
128	0x3e8422d0	0.2580781
129	0xbf12c78e	-0.57335746
130	0xbf127b59	-0.57219464
131	0x3ebb5f02	0.36595923
132	0xbda578c8	-0.08079678
133	0x3e5d07fe	0.2158508
134	0xbf05f149	-0.52321297
135	0xbe934545	-0.28763786
136	0x3ea06204	0.3132478
137	0xbe49882a	-0.19680849
138	0x3e9ae08c	0.3024944
139	0xbdedf844	-0.116196185
140	0xbf0adc94	-0.54242826
141	0x3edbbc74	0.42917216
142	0xbef01db4	-0.46897662
143	0x3ef69a12	0.4816442
144	0xbdee2f8d	-0.11630163
145	0x3e5c1774	0.21493322
146	0xbbd33b0c	-0.006446248
147	0xbed75299	-0.42055205
148	0xbec78a94	-0.38972914
149	0x3ee21fa3	0.44164762
150	0x3e3b5474	0.18293935
151	0x3f1612fc	0.5862272
152	0xbee5b8fe	-0.448677
153	0x3f0dacf4	0.5534203
154	0x3f04287c	0.51624274
155	0xbd719fe5	-0.058990378
156	0xbcf44b54	-0.029821075
157	0xbdebcd86	-0.1151381
158	0xbd841b18	-0.0645048
159	0xbea46fa7	-0.32116434
160	0xbf12170e	-0.5706643
161	0xbeb0bd8d	-0.34519616
162	0x3f0697bd	0.52575284
163	0xbf0602e3	-0.52348155
164	0x3d424989	0.04743341
165	0x3dbc25a7	0.09186869
166	0xbe21d6fd	-0.15804668
167	0x3e9fb8ea	0.31195766
168	0x3e129c96	0.14317545
169	0x3efba7a1	0.49151328
170	0x3dcb556e	0.09928404
171	0xbeb2f510	-0.34952593
172	0xbedd6f92	-0.43249184
173	0xbe02d9a1	-0.12778331
174	0x3f13a0e8	0.576674
175	0x3eaea769	0.341121
176	0xbe92f63f	-0.28703496
177	0xbec2e171	-0.38062623
178	0xbee1432a	-0.43996555
179	0x3e92e2c6	0.2868864
180	0x3e57802e	0.2104499
181	0x3eb6627a	0.35622007
182	0xbeeb40bd	-0.4594783
183	0x3e9689b9	0.2940195
184	0xbde02a8f	-0.109456174
185	0xbde4b02f	-0.11166417
186	0xbe17bfdc	-0.14819282
187	0x3f0c6e08	0.54855394
188	0x3e018834	0.12649614
189	0x3e727af3	0.23679714
190	0x3ed50e98	0.41612697
191	0xbe70c340	-0.23511982

weight f4 [64, 3]
0	0x3d080ca3	0.033215176
1	0xbed4e7d4	-0.4158312
2	0xbf16dc9c	-0.58930373
3	0x3ed4216a	0.41431743
4	0x3eeb9b6a	0.4601701
5	0xbee95367	-0.45571443
6	0x3f0f8073	0.5605537
7	0xbef97710	-0.4872365
8	0x3d455ced	0.048184324
9	0xbe946f66	-0.2899124
10	0xbeeff163	-0.4686385
11	0x3c1bdcad	0.009513062
12	0x3e7bb307	0.24580012
13	0xbeba1dbc	-0.3635081
14	0x3ef4f617	0.47844002
15	0x3e3e83c5	0.18604954
16	0x3e5be410	0.21473718
17	0xbf0538c3	-0.52039737
18	0x3ed7a39f	0.4211702
19	0xbe2458b7	-0.16049467
20	0x3ecb8d56	0.39756268
21	0xbe81ff80	-0.25390244
22	0x3ec2362a	0.3793195
23	0xbdc42f20	-0.09579301
24	0xbf0a1f6a	-0.53954184
25	0xbee0c23f	-0.43898198
26	0xbeaf75af	-0.34269473
27	0x3ce7fcfd	0.028318876
28	0x3f0deb55	0.55437213
29	0xbe5f868a	-0.21828666
30	0xbe982f30	-0.297235
31	0xbed2f697	-0.41203758
32	0xbe84f41a	-0.25967485
33	0xbe84bf84	-0.25927365
34	0xbd963a7b	-0.07335373
35	0xbedb67a6	-0.42852515
36	0xbc402171	-0.011726723
37	0x3f052ba2	0.52019703
38	0x3ecde9df	0.40217492
39	0x3e713930	0.23556972
40	0xbf114415	-0.5674451
41	0x3dbd6c37	0.09249156
42	0x3eeeb060	0.46618938
43	0xbe9b9991	-0.303906
44	0xbee74a03	-0.45173654
45	0xbeaa4596	-0.33256215
46	0x3ef02677	0.46904346
47	0x3e0b888e	0.1362631
48	0x3eef460e	0.46733135
49	0x3e13451a	0.14381829
50	0x3edd76c3	0.4325467
51	0x3e3915d6	0.18074736
52	0x3f03aea4	0.51438355
53	0xbf11996e	-0.5687474
54	0xbf13abed	-0.5768421
55	0x3de89753	0.11356988
56	0x3e348a35	0.17630847
57	0x3ed90e3d	0.42393675
58	0xbf00756b	-0.50179166
59	0xbd1f252a	-0.0388538
60	0xbec02ccf	-0.37534186
61	0xbe95c29f	-0.29250047
62	0x3e260f9c	0.16216892
63	0xbd8d5b37	-0.069021635
64	0xbe76bb78	-0.24094951
65	0x3e9ac28f	0.3022656
66	0xbe85f882	-0.2616616
67	0x3e90aa6f	0.2825503
68	0x3ebd33db	0.36953625
69	0x3ede0751	0.43364957
70	0xbe9b5300	-0.3033676
71	0xbf15334d	-0.58281404
72	0x3f0db3e8	0.5535264
73	0xbd7da66a	-0.061926283
74	0x3e811922	0.25214487
75	0xbd30bf65	-0.043151278
76	0x3e440862	0.19143823
77	0xbe9a9f36	-0.30199593
78	0x3eed6458	0.4636562
79	0x3eb51a0c	0.35371435
80	0xbe3f2b3e	-0.1866884
81	0x3f08d0ae	0.5344342
82	0x3e800b0b	0.25008425
83	0x3eb296e4	0.34880745
84	0xbf1397bb	-0.576534
85	0xbe4a96d2	-0.19784096
86	0xbd28c395	-0.041202147
87	0xbe2db3e1	-0.1696315
88	0xbd992b49	-0.07478959
89	0xbf034f37	-0.5129275
90	0x3e63b972	0.2223871
91	0x3ebd5414	0.3697821
92	0xbf107579	-0.5642925
93	0x3ee1d049	0.4410422
94	0x3ebe2c14	0.37143004
95	0xbed04767	-0.40679476
96	0xbed325a0	-0.41239643
97	0xbd9d1131	-0.076692946
98	0xbee985d7	-0.45609924
99	0x3e7f6915	0.2494243
100	0x3ebeba27	0.37251398
101	0x3f0c24d3	0.5474369
102	0xbd4ad254	-0.04951699
103	0x3f05d353	0.5227558
104	0x3ec0eb56	0.37679547
105	0xbe42504b	-0.18975942
106	0xbe42f896	-0.1904014
107	0xbedb4da1	-0.42832664
108	0xbd8e9992	-0.06962885
109	0x3ee157be	0.44012254
110	0xbf12d6c0	-0.5735893
111	0x3d21a337	0.039462294
112	0xbb206bab	-0.0024478238
113	0xbda3dc4e	-0.08001004
114	0xbc98d74f	-0.018657355
115	0x3efa14f2	0.48844105
116	0x3f0e97b0	0.55700207
117	0x3e972479	0.29520014
118	0xbe53dd90	-0.20689988
119	0x3e66bb3e	0.22532365
120	0xbe1f459e	-0.155539
121	0x3f04b910	0.5184488
122	0x3f08f70a	0.5350195
123	0xbee7cb24	-0.45272171
124	0xbf0ac2d2	-0.5420352
125	0xbe37051b	-0.17873041
126	0xbe88486c	-0.26617754
127	0xbc68dee1	-0.014213295
128	0x3d3436a9	0.04399744
129	0x3f00bb9e	0.5028628
130	0xbedcac41	-0.4310017
131	0x3e4bb1f0	0.19892097
132	0x3e04bce6	0.12962684
133	0x3cb7b22a	0.022423822
134	0x3ed947d0	0.424376
135	0x3c5142d9	0.012772285
136	0x3eb4f087	0.35339758
137	0x3ec00ea3	0.37511167
138	0x3f10019a	0.56252444
139	0x3e9c46fa	0.305229
140	0xbe41d8c0	-0.1893034
141	0xbe7cea41	-0.24698736
142	0xbdea6023	-0.11444118
143	0xbe79cc0c	-0.24394244
144	0xbf0ae077	-0.54248756
145	0x3f12da5c	0.5736444
146	0xbee7dcf0	-0.4528575
147	0xbce67bd9	-0.028135227
148	0x3f0c809d	0.5488375
149	0x3e6fcbfc	0.23417658
150	0xbe62b061	-0.22137596
151	0xbf17c873	-0.59290236
152	0x3e4b737e	0.19868276
153	0xbe137e26	-0.1440359
154	0x3ed4c3f9	0.41555765
155	0xbe86f922	-0.26361948
156	0xbf14c5c5	-0.5811427
157	0xbd6218e4	-0.05519952
158	0x3d8ee5b0	0.06977403
159	0xbec724e6	-0.3889534
160	0x3ea9522a	0.330705
161	0x3e07cb54	0.13261157
162	0x3ec7a0e6	0.38989943
163	0xbbc3b011	-0.0059719165
164	0x3ed3de1d	0.41380396
165	0xbf06510e	-0.5246743
166	0xbe936b79	-0.28792933
167	0xbef9af6c	-0.4876665
168	0x3ef8fa41	0.4862843
169	0xbf0d858e	-0.55281913
170	0xbd5f364a	-0.054495133
171	0x3ef9b832	0.48773342
172	0xbeaa7e36	-0.33299416
173	0xbd2871ca	-0.041124143
174	0xbe996759	-0.2996166
175	0xbc2b69cc	-0.010462236
176	0x3f05fc25	0.5233787
177	0xbef6eda8	-0.48228192
178	0x3e7a6b3b	0.24454968
179	0xbcbc5076	-0.022987586
180	0xbdb36b24	-0.0876067
181	0x3ddb516e	0.10708891
182	0x3d37ab21	0.044840936
183	0xbe8ba332	-0.27272946
184	0xbe33c7f5	-0.17556746
185	0xbee974eb	-0.45597014
186	0x3d32147f	0.043476578
187	0x3e089856	0.13339362
188	0x3f034159	0.5127159
189	0x3dc123b8	0.09430641
190	0x3f0ec851	0.5577441
191	0x3e8d0e23	0.27549848

bias f4 [64]
0	0xbe9a8037	-0.30175945
1	0xbdecb35f	-0.1155765
2	0x3cd3ac0a	0.02583887
3	0x3ddf7664	0.10911253
4	0xbed99c1c	-0.42501915
5	0xbedb73c3	-0.42861757
6	0xbef0d2a0	-0.47035694
7	0x3e829fcb	0.25512537
8	0x3ec62aa4	0.38704407
9	0xbec38764	-0.38189232
10	0xbd21210f	-0.039338168
11	0x3f0e8d63	0.5568449
12	0x3f14924b	0.58035725
13	0xbdfccffb	-0.123443566
14	0x3e854978	0.26032615
15	0x3e89c910	0.2691121
16	0x3e680b91	0.22660662
17	0xbe23c5fe	-0.15993497
18	0xbe9289bb	-0.28620705
19	0xbe06c37a	-0.13160506
20	0x3ead70b5	0.3387505
21	0x3ed722de	0.4201879
22	0xbea4d280	-0.3219185
23	0x3e8294ef	0.25504252
24	0xbf19657f	-0.59920496
25	0x3e4b80b4	0.19873315
26	0x3d5858ec	0.052819178
27	0x3eec739d	0.46181956
28	0x3e292fb4	0.16522104
29	0xbeb08e4a	-0.34483558
30	0x3eefb0f0	0.4681468
31	0x3ef4118c	0.47669637
32	0x3efc8436	0.4931962
33	0x3b35a2e8	0.0027715508
34	0xbf1081cf	-0.5644807
35	0x3efca847	0.49347135
36	0x3e4c0aef	0.19926046
37	0xbe817051	-0.25281003
38	0xbe59977f	-0.21249197
39	0xbec3bb82	-0.38228995
40	0xbcc538dc	-0.024074964
41	0xbcebec1d	-0.028799111
42	0x3f096211	0.5366526
43	0xbe468f31	-0.1939056
44	0x3e4a3d35	0.19749911
45	0xbe82df13	-0.25560817
46	0xbe47a0b8	-0.19494903
47	0x3f12951b	0.57258767
48	0x3e7c37cd	0.24630661
49	0xbe7c7a37	-0.24655996
50	0x3e88ae7a	0.26695615
51	0xbd8c5ccd	-0.06853638
52	0x3e14995f	0.14511631
53	0xbe9e2a5b	-0.3089169
54	0x3f052595	0.5201047
55	0x3e6477f0	0.22311378
56	0x3ea1397b	0.31489167
57	0x3e3782fa	0.17921057
58	0x3ded57cd	0.11589012
59	0x3e42c159	0.19019069
60	0xbe447c17	-0.19187962
61	0x3ee51558	0.44742846
62	0xbe635eff	-0.22204207
63	0xbea471a5	-0.32117954

weight f4 [64, 1]
0	0xbf7f3552	-0.99690735
1	0x3f1e9e01	0.61959845
2	0x3f79e51a	0.97615206
3	0xbf72a11c	-0.94777083
4	0x3e2bfbf8	0.16795337
5	0x3ec2f702	0.38079077
6	0x3e636cf5	0.22209533
7	0xbf1f0af4	-0.6212609
8	0x3f61aa42	0.8815042
9	0xbf6027fc	-0.8756101
10	0xbf1a57dc	-0.6029031
11	0xbee11168	-0.43958592
12	0xbdacebc9	-0.0844341
13	0xbf4cd125	-0.8000663
14	0xbbe54208	-0.006996397
15	0xbf043208	-0.5163884
16	0x3f81ca71	1.0139905
17	0xbf5acd4c	-0.8546951
18	0x3f16f91a	0.5897385
19	0xbf57d3b2	-0.84307396
20	0xbed8f1e8	-0.4237206
21	0x3ea2826a	0.31740123
22	0xbf4ead52	-0.80733216
23	0xbf601f3e	-0.8754767
24	0x3f5cc03c	0.86230826
25	0x3edd0058	0.43164325
26	0xbf5d70ba	-0.8650013
27	0xbf116a90	-0.56803226
28	0xbf655f04	-0.8959811
29	0xbf1ad738	-0.6048465
30	0x3f1dc01d	0.61621267
31	0xbf54f2d8	-0.8318305
32	0x3f2b5382	0.669243
33	0x3f463c4a	0.77435744
34	0x3e9827c6	0.29717845
35	0x3dd9e1e0	0.10638785
36	0xbe3b9575	-0.18318732
37	0x3f03582a	0.513064
38	0xbe8cd80d	-0.27508584
39	0x3d702460	0.05862844
40	0xbf4564d6	-0.7710699
41	0xbf5aa90c	-0.85414195
42	0x3de288ec	0.11061272
43	0x3f768bdb	0.9630715
44	0xbf4018c1	-0.7503777
45	0x3ec34d4a	0.38144904
46	0xbf7811a8	-0.9690194
47	0x3f13789c	0.5760591
48	0xbf5a4083	-0.8525469
49	0x3f0539f5	0.5204156
50	0x3eb25e74	0.34837687
51	0x3dd50990	0.104022145
52	0x3f464f79	0.77465016
53	0x3f0921d1	0.53567225
54	0xbf341a1f	-0.7035236
55	0xbeaf5ac9	-0.3424895
56	0xbe2deb12	-0.16984203
57	0xbe99f0fc	-0.3006667
58	0xbf3b15e0	-0.73080254
59	0x3e9c82d0	0.30568552
60	0xbf4ad278	-0.792274
61	0xbf10cd19	-0.56562954
62	0xbf6861a7	-0.90774006
63	0xbe294688	-0.16530812

weight f4 [64]
0	0x3f800000	1.0
1	0x3f7c7839	0.98620945
2	0x3f800000	1.0
3	0x3f7ac223	0.9795248
4	0x3f800000	1.0
5	0x3f800000	1.0
6	0x3f800000	1.0
7	0x3f800000	1.0
8	0x3f800000	1.0
9	0x3f7ae637	0.9800753
10	0x3f8691e3	1.0513271
11	0x3f7a821a	0.9785477
12	0x3f7e59d0	0.99355793
13	0x3f800000	1.0
14	0x3f8154ee	1.0104043
15	0x3f792180	0.9731674
16	0x3f8aca37	1.0842961
17	0x3f7ef9cf	0.9959993
18	0x3f7a7c59	0.9784599
19	0x3f848f34	1.0356202
20	0x3f782a3f	0.9693946
21	0x3f81804d	1.0117279
22	0x3f7a57ab	0.9779002
23	0x3f7fc3ed	0.99908334
24	0x3f77034c	0.96489406
25	0x3f7f7296	0.9978422
26	0x3f7b9084	0.9826739
27	0x3f7a1c8f	0.97699827
28	0x3f7ac067	0.9794983
29	0x3f800000	1.0
30	0x3f795932	0.97401726
31	0x3f800000	1.0
32	0x3f7e851d	0.99421865
33	0x3f7cfda5	0.9882453
34	0x3f82e6e8	1.0226717
35	0x3f800000	1.0
36	0x3f7b7305	0.9822238
37	0x3f7bce0e	0.9836129
38	0x3f853bd4	1.0408883
39	0x3f812968	1.0090761
40	0x3f7c68d8	0.9859748
41	0x3f7eafa2	0.99486744
42	0x3f7ad5d9	0.97982556
43	0x3f7b9ffb	0.98290986
44	0x3f800000	1.0
45	0x3f800000	1.0
46	0x3f8012a5	1.000569
47	0x3f7e8394	0.9941952
48	0x3f80e812	1.0070822
49	0x3f7fbaa8	0.9989419
50	0x3f7c9cd5	0.98676807
51	0x3f800000	1.0
52	0x3f800000	1.0
53	0x3f7b8470	0.9824896
54	0x3f7aa3c8	0.9790616
55	0x3f7b99b3	0.982814
56	0x3f808aa0	1.0042305
57	0x3f83d52d	1.0299431
58	0x3f7b78b7	0.9823107
59	0x3f7da96f	0.9908666
60	0x3f7b95ec	0.9827564
61	0x3f800000	1.0
62	0x3f7d5ac1	0.98966604
63	0x3f7a9229	0.9787927

bias f4 [64]
0	0xba3bb396	-0.0007160244
1	0x3d108484	0.035282627
2	0x39f0a2fb	0.00045897797
3	0x3c9662f8	0.018357739
4	0xbc1d9b29	-0.009619513
5	0x3c12fab3	0.008970904
6	0xbcf20076	-0.029541235
7	0xbb9c6496	-0.004772733
8	0xbcabd170	-0.020973891
9	0xbcf3d0ab	-0.029762587
10	0x3b7b2c8f	0.003832612
11	0xbc2107f0	-0.009828553
12	0x3cbc2fbe	0.022971984
13	0x3c792b1f	0.015208035
14	0x3ccfdd13	0.025373971
15	0x3d054f95	0.0325466
16	0xbc19cf3d	-0.009387788
17	0x3be13601	0.006872893
18	0xbb689427	-0.0035488696
19	0x3d1c810b	0.038209002
20	0x3c15edad	0.009150905
21	0x3c1784e9	0.009247997
22	0x3c7c9947	0.015417404
23	0x3b9f128b	0.0048545054
24	0x3b1feb1d	0.0024401613
25	0x3cd2ca84	0.025731333
26	0x3cdcebca	0.026967902
27	0x3ccdfc60	0.025144756
28	0xbcdc091a	-0.026859809
29	0x3b98f313	0.0046676486
30	0xbc43210b	-0.0119097335
31	0x3cc1337b	0.023584118
32	0xbba104fa	-0.0049139233
33	0xbb3619e0	-0.0027786419
34	0x3cb99008	0.022651687
35	0xbb872818	-0.0041246526
36	0x3d222e2b	0.03959481
37	0xba74c0d8	-0.0009336597
38	0xbcb39b28	-0.02192457
39	0xbccb5bf3	-0.024824118
40	0xbd3235df	-0.043508407
41	0xbd0f46f6	-0.034979783
42	0xbd1011b4	-0.035173133
43	0xbd366cc8	-0.044537336
44	0xbb84bf71	-0.004051142
45	0xbc48aa4b	-0.012247632
46	0x3b1dc0ec	0.002407129
47	0x3cf661cf	0.030075936
48	0xbce6b3bb	-0.028161874
49	0xbcb4eda0	-0.022085965
50	0x3c664633	0.014054823
51	0xbc5255fa	-0.012837881
52	0xbc9c828b	-0.019105216
53	0xbc9c0bc9	-0.019048588
54	0xbcb63ec5	-0.022246728
55	0xbc5b9fa6	-0.013404762
56	0xbc5ea8a7	-0.013590015
57	0x3c62bf1f	0.013839512
58	0xbb628445	-0.0034563702
59	0x3c041fb5	0.0080642
60	0xbc195e8e	-0.0093609225
61	0xbb6b9b1c	-0.0035950607
62	0xbbd370f6	-0.006452675
63	0x3d2157af	0.039390262
