mlartifacts/403163061964527456/104d477b9f9b49baa78ddcda146da9a8/artifacts/models/data/model.pth (torch, 238156 bytes, 82 tensors)

bias f4 [32]
0.038995713 -0.8210643 0.032075617 -1.1113386 -0.6222162 0.0002088251 -1.1012914 -6.7684955e-06
-1.0637007 1.082106 -0.0002516809 -0.00021325324 -0.027574843 0.031750336 -0.10333729 -0.0016612308
-0.00179474 0.03833752 -0.96582943 0.62784415 0.41151273 -1.1118265 0.04088718 0.99623
-1.4035725e+23 1.1117585 8.819019e-05 0.0024369224 -4.118249e-06 0.00040949663 -0.00012089866 -0.0044636605
00000000: f8b9 1f3d 4531 52bf b961 033d 5840 8ebf
00000010: 9049 1fbf 10f8 5a39 1ef7 8cbf ef1c e3b6
00000020: 5827 88bf 7382 8a3f 0af4 83b9 bb9c 5fb9
00000030: a3e4 e1bc a40c 023d 80a2 d3bd a8bd d9ba
00000040: 7b3d ebba ce07 1d3d 9940 77bf 65ba 203f
00000050: ccb1 d23e 5550 8ebf 5179 273d ee08 7f3f
00000060: 41c6 ede5 1a4e 8e3f bff2 b838 c6b4 1f3b
00000070: 7d2f 8ab6 b5b1 d639 f98a fdb8 e643 92bb

weight f4 [32, 3]
0.9169253 0.3933165 0.23082264 -0.20727688 -0.18501969 -0.09717928 1.0546153 0.5644051
0.053406056 -1.4854331 0.4285239 0.21493709 -0.2866029 -0.039441705 0.01886964 0.24380143
0.6916638 0.18613313 -0.2635502 -0.51170605 -0.004792147 0.37041214 1.1149168 1.3232106
-0.9993236 -0.9276164 -0.46175918 -0.40701726 0.3277627 0.5207967 0.6487935 -1.0426441
-0.5459216 -0.09025438 0.7154803 -1.1032472 -0.15687001 -0.64350754 -0.028896438 0.8102818
0.61355704 0.21484728 -0.5913847 -0.14221887 -0.08235436 -0.8842634 -0.7198805 0.003672723
-0.11709621 -0.2647785 -0.9134786 0.8670177 0.9415286 0.86816275 -0.69007295 -0.9472369
-0.3742272 0.7115203 0.71203005 0.36542282 0.6304368 1.0451937 0.47396845 -1.2589467
-1.565917 -0.16384904 0.06015413 0.895874 0.47876048 0.56173337 0.4104629 0.10017353
0.10979356 -0.34246317 -0.5133606 0.56445366 -0.26773164 0.09722775 0.4786795 0.7097072
0.9980951 0.5423241 0.5788885 0.5851699 -1.2799171 1.6160723 0.33697492 -0.061249685
-1.5351663 -0.34400693 -0.48472938 -0.93573904 -0.34826702 0.37269485 -0.8185044 -0.42575118
00000000: 9ebb 6a3f c860 c93e c55c 6c3e 6440 54be
00000010: cd75 3dbe ee05 c7bd a2fd 863f da7c 103f
00000020: 4fc0 5a3d ac22 bebf 7c67 db3e 7818 5c3e
00000030: 9ebd 92be a08d 21bd 8194 9a3c 15a7 793e
00000040: e110 313f af99 3e3e 0df0 86be 2bff 02bf
00000050: 7107 9dbb a9a6 bd3e 98b5 8e3f f75e a93f
00000060: acd3 7fbf 4578 6dbf b36b ecbe 9164 d0be
00000070: 83d0 a73e ef52 053f 5517 263f 5d75 85bf
00000080: 85c1 0bbf 4ad7 b8bd b829 373f 3437 8dbf
00000090: 88a2 20be e9bc 24bf 39b8 ecbc a16e 4f3f
000000a0: 1312 1d3f ed00 5c3e fd64 17bf d3a1 11be
000000b0: 67a9 a8bd 165f 62bf 174a 38bf 11b2 703b
000000c0: 23d0 efbd 0c91 87be bcd9 69bf dff4 5d3f
000000d0: 0508 713f ea3f 5e3f 9fa8 30bf 1e7e 72bf
000000e0: b59a bfbe 3226 363f 9a47 363f b318 bb3e
000000f0: 4e64 213f e8c8 853f feab f23e 2a25 a1bf
00000100: f86f c8bf 0bc8 27be 2d64 763d 0058 653f
00000110: 1820 f53e c2cd 0f3f 3128 d23e c827 cd3d
00000120: 72db e03d 5557 afbe 9a6b 03bf 0980 103f
00000130: 1f14 89be 581f c73d 7b15 f53e 5faf 353f
00000140: 2983 7f3f c1d5 0a3f 0932 143f b2cd 153f
00000150: 53d4 a3bf 75db ce3f fa87 ac3e f3e0 7abd
00000160: 5480 c4bf ad21 b0be 732e f8be 988c 6fbf
00000170: 0e50 b2be dcd1 be3e 8189 51bf 0ffc d9be

weight f4 [32, 3]
-0.57893693 -0.7997977 0.00583647 0.73891026 -0.48273256 -0.009368697 0.22660471 -0.73599255
1.0375837 -0.63561344 -0.06338787 -0.7766804 1.3822355 1.0402689 -0.3991821 -0.75669074
-0.25914785 -0.3987496 0.96151584 0.6832177 0.0959567 0.3055137 -0.28293744 0.34506756
0.13443844 0.9382789 0.4814264 1.1170756 0.312559 1.0515817 0.4595888 0.18223345
0.17018613 1.130267 0.2303928 0.8083005 0.02389014 -0.46390617 -0.19775493 -0.9490419
-0.47245488 -0.72955626 -0.23109685 -0.4224697 -0.2293138 0.42142907 0.016921572 0.5543518
-0.9694459 -0.60046506 -0.07704989 0.37247908 0.053658124 0.78868353 -1.0198728 -0.39237776
-0.29897946 -0.086002834 -0.4639107 -0.5619882 0.6841335 1.1003336 0.09795048 0.26223457
0.1420069 0.5368665 0.30096513 0.08858507 0.32516217 0.56736195 0.3853769 0.72961617
0.798543 0.9571482 0.56328595 -0.9891249 -0.120894484 -0.09455824 0.23711611 0.4460842
0.19560263 -1.0519556 -0.6041484 -0.33422205 0.96139205 0.044483967 0.9134053 0.014108685
0.3926031 0.33599997 0.73571414 1.1013738 0.50219154 1.0277611 0.61783093 0.6919937
00000000: 3635 14bf 8bbf 4cbf dc3f bf3b 3929 3d3f
00000010: b928 f7be 2a7f 19bc 110b 683e 026a 3cbf
00000020: 8bcf 843f 90b7 22bf 80d1 81bd 87d4 46bf
00000030: 18ed b03f 8827 853f 9961 ccbe 7cb6 41bf
00000040: 07af 84be e828 ccbe e725 763f 5be7 2e3f
00000050: f284 c43d 4b6c 9c3e 2ddd 90be b2ac b03e
00000060: 3baa 093e 0c33 703f 857d f63e 55fc 8e3f
00000070: bc07 a03e 3b9a 863f 394f eb3e 689b 3a3e
00000080: 4645 2e3e 97ac 903f 17ec 6b3e c8ec 4e3f
00000090: 41b5 c33c 1c85 edbe 4580 4abe 69f4 72bf
000000a0: 9be5 f1be 33c4 3abf a7a4 6cbe f34d d8be
000000b0: 3dd1 6abe 8dc5 d73e 1c9f 8a3c 00ea 0d3f
000000c0: 9b2d 78bf 14b8 19bf 55cc 9dbd 94b5 be3e
000000d0: 9fc8 5b3d 2ae7 493f 318b 82bf bde5 c8be
000000e0: d613 99be 4122 b0bd b485 edbe 75de 0fbf
000000f0: 6023 2f3f bbd7 8c3f 439a c83d 9c43 863e
00000100: 426a 113e 1570 093f 1a18 9a3e 176c b53d
00000110: a87b a63e a23e 113f 1f50 c53e 20c8 3a3f
00000120: 506d 4c3f aa07 753f 8233 103f 4a37 7dbf
00000130: 8797 f7bd c0a7 c1bd 91ce 723e 2665 e43e
00000140: 0e4c 483e 7ba6 86bf 78a9 1abf 271f abbe
00000150: ca1d 763f d234 363d eed4 693f 1d28 673c
00000160: 4603 c93e 3008 ac3e c357 3c3f d1f9 8c3f
00000170: a08f 003f ad8d 833f 2b2a 1e3f 8026 313f

bias f4 [32]
-0.2742365 1.0186288 0.34164956 -0.72483844 -0.85195047 -0.16579467 0.35583898 1.0107925
0.93802655 0.96311474 1.0189973 0.7841815 -0.9876113 -1.0101836 -0.9167234 0.8875841
-0.42913374 0.3432371 -0.55485237 -0.23706938 0.59045744 0.7949002 0.89108145 0.096772626
0.41166475 -0.94851536 1.1048352 -0.9265025 0.85031044 0.8540365 0.37719265 1.1203742
00000000: ba68 8cbe 6e62 823f b1ec ae3e 038f 39bf
00000010: 6d19 5abf 14c6 29be 8730 b63e a661 813f
00000020: 8222 703f b08e 763f 816e 823f 1ec0 483f
00000030: 18d4 7cbf b24d 81bf 62ae 6abf b638 633f
00000040: 6bb7 dbbe c6bc af3e ce0a 0ebf 51c2 72be
00000050: 3828 173f 947e 4b3f ea1d 643f ba30 c63d
00000060: b9c5 d23e e7d1 72bf 3d6b 8d3f 452f 6dbf
00000070: f2ad 593f 23a2 5a3f 651f c13e 6c68 8f3f

weight f4 [32, 1]
0.43083262 -0.046607494 0.7799292 -0.5974286 -0.5724311 0.7030357 0.35699293 0.9861812
0.15180302 0.50945574 -0.20178273 0.7758777 -0.90887356 -0.10517935 -1.4590056 -0.24104844
-0.43242827 0.18793452 -1.4963181 -1.377479 0.7993877 0.57091826 1.0740308 -0.35521558
0.6510987 -0.76488584 0.6426706 -1.2194363 0.89732695 -0.26947868 1.3747611 1.1025928
00000000: 1896 dc3e 80e7 3ebd 71a9 473f 15f1 18bf
00000010: d88a 12bf 26fa 333f c7c7 b63e 5f76 7c3f
00000020: 4072 1b3e b16b 023f 22a0 4ebe ec9f 463f
00000030: f0ab 68bf 4568 d7bd b2c0 babf 67d5 76be
00000040: 3d67 ddbe e871 403e 5a87 bfbf 3b51 b0bf
00000050: aca4 4c3f b327 123f d779 893f d1de b5be
00000060: 68ae 263f 8fcf 43bf 0f86 243f 7d16 9cbf
00000070: 38b7 653f 1cf9 89be 2cf8 af3f c321 8d3f

weight f4 [32, 1]
0.7975318 -1.0644653 0.63001424 -0.8215904 -0.9670736 0.83594084 -1.5239327 -0.85891116
-0.779327 1.1387448 0.6213073 -0.4999792 -1.3794341 1.3583982 -1.3118358 -0.45096704
-0.6109356 0.61241335 0.39952993 -0.35346013 0.90210617 0.8929049 0.2692812 1.4256157
-0.99013376 0.8184407 -0.5399776 1.3994838 -0.15139088 0.41480437 -0.48839292 -0.8649313
00000000: 0b2b 4c3f 6640 88bf 9d48 213f c053 52bf
00000010: 2392 77bf 3800 563f 3a10 c3bf 9ae1 5bbf
00000020: f981 47bf 64c2 913f ff0d 1f3f 46fd ffbe
00000030: 4c91 b0bf fedf ad3f 3cea a7bf 27e5 e6be
00000040: 4766 1cbf 1fc7 1c3f 308f cc3e baf8 b4be
00000050: 6ef0 663f 6a95 643f 3adf 893e 937a b63f
00000060: 6879 7dbf 5485 513f f93b 0abf 4922 b33f
00000070: 3606 1bbe 3d61 d43e a30e fabe 236c 5dbf

bias f4 [32]
-0.4648669 -1.0534217 0.51503736 -0.6435421 -1.0664366 -0.50443316 -0.81784636 0.55888474
-1.3445883 1.7767931 0.9365886 -0.022248613 0.41497988 0.545343 0.49344742 -0.19025593
0.34889612 -0.2654472 -0.8873915 0.7228437 0.20107804 -0.856607 -0.28256482 1.7888279
0.13826203 2.0383348 -0.9218867 -0.7978223 -0.16497964 -0.8162303 0.92643857 -0.10173975
00000000: 0903 eebe 86d6 86bf 7dd9 033f 2dbf 24bf
00000010: ff80 88bf 8822 01bf 615e 51bf 1213 0f3f
00000020: 781b acbf f56d e33f 45c4 6f3f b942 b6bc
00000030: 3e78 d43e 999b 0b3f 24a5 fc3e 73d2 42be
00000040: 83a2 b23e b2e8 87be 172c 63bf 490c 393f
00000050: 67e7 4d3e 994a 5bbf 56ac 90be 50f8 e43f
00000060: 9094 0d3e 1474 0240 c400 6cbf 153e 4cbf
00000070: 6cf0 28be 78f4 50bf 142b 6d3f ee5c d0bd

weight f4 [32, 3]
0.7253563 0.5917609 0.67806786 -0.39828423 -0.9479229 -0.7374559 0.24656893 0.14807297
0.14240082 -1.1269481 -0.48785836 -0.2034424 -0.5135092 -1.0583217 -0.014987347 0.029900799
1.5644723 -0.446372 -0.6568031 -0.83398587 -1.0623318 -0.09965351 1.6180046 0.8618616
-1.0770712 -1.0269758 -0.47165677 0.21180406 0.09380123 0.81003565 1.3864785 -0.6911358
-0.27665251 -0.37763754 1.3157009 -0.99751097 -0.32645234 -0.72676045 -0.35624552 0.004864498
0.8701491 0.11951467 -0.76921874 -0.3062257 -0.47427616 -0.08538992 -0.9248403 -0.6287415
-0.07813024 -0.81200314 -0.7418914 0.06632221 0.4431931 -0.007765092 -1.1239856 -0.69847256
-0.052094433 -0.013778397 0.31442901 0.58167946 0.6609005 0.72518647 1.1021645 -0.7162609
-1.3543475 -0.06454658 0.056641687 0.17634395 1.1165346 0.13273485 0.37885877 0.7416623
0.33667412 -0.013293029 0.21788988 0.12620318 0.53465825 0.19413465 -0.012180933 0.16559334
1.5231926 0.06480245 0.050913062 0.7311363 -0.9149655 0.96828663 -0.20374966 0.46679884
-0.8978443 -0.22790603 -0.55510604 -0.39498535 -0.6144338 0.15223208 -0.6659226 -0.9735452
00000000: f3b0 393f a47d 173f db95 2d3f e9eb cbbe
00000010: 13ab 72bf e9c9 3cbf 917c 7c3e 71a0 173e
00000020: 85d1 113e d63f 90bf 92c8 f9be 3453 50be
00000030: 5775 03bf 1677 87bf 7d8d 75bc 85f2 f43c
00000040: a140 c83f df8a e4be 3f24 28bf 1980 55bf
00000050: 7dfa 87bf 2417 ccbd c61a cf3f f6a2 5c3f
00000060: 78dd 89bf f173 83bf ff7c f1be 2ae3 583e
00000070: dc1a c03d 7f5e 4f3f 2178 b13f 47ee 30bf
00000080: 66a5 8dbe b559 c1be e368 a83f e15c 7fbf
00000090: c324 a7be f90c 3abf d065 b6be 5e66 9f3b
000000a0: 17c2 5e3f 1bc4 f43d 85eb 44bf 9dc9 9cbe
000000b0: 53d4 f2be e9e0 aebd 55c2 6cbf 34f5 20bf
000000c0: bf02 a0bd 70df 4fbf 98ec 3dbf f0d3 873d
000000d0: 35ea e23e 5072 febb c3de 8fbf 19cf 32bf
000000e0: f960 55bd c9be 61bc d7fc a03e f2e8 143f
000000f0: c630 293f d2a5 393f ba13 8d3f e05c 37bf
00000100: 425b adbf ff30 84bd 1d01 683d 8293 343e
00000110: 9bea 8e3f a5eb 073e c7f9 c13e 95dd 3d3f
00000120: 8d60 ac3e 01cb 59bc 861e 5f3e 683b 013e
00000130: 5ddf 083f 3ccb 463e 8992 47bc 4d91 293e
00000140: faf7 c23f 26b7 843d 378a 503d c02b 3b3f
00000150: 2e3b 6abf a2e1 773f c0a3 50be 4200 ef3e
00000160: 20d9 65bf 3360 69be 6e1b 0ebf 853b cabe
00000170: 894b 1dbf bae2 1b3e e779 2abf 423a 79bf

weight f4 [32, 3]
0.12591192 -0.27040097 0.2588906 -0.6789075 -0.8921646 -0.77288735 0.8243059 -0.1991266
0.006007866 -0.6617618 -0.36816156 -0.8920974 -0.6332543 -0.15436623 -1.0431585 -0.58088154
-0.42661673 -0.029100364 -0.20590238 -1.6841742 -0.48113668 1.0128832 0.70207846 0.9287655
0.8995955 1.187338 0.9588196 -0.4516391 -0.5583934 -0.8751019 -0.86675996 -1.2010132
-0.5329897 -0.5725927 -1.1172656 -1.0673796 -0.11034402 0.46393916 0.05165379 0.88660437
0.9754952 1.0612681 -0.9340005 -1.353034 -0.9962847 -0.101298764 0.41896036 0.66384745
0.19724685 -0.48660874 -0.1291071 0.1851796 0.28723142 -0.44601628 0.0017560897 0.45694664
-0.4804933 -1.4034195 -0.35310027 -1.3040098 -0.14880557 -1.1088723 -1.0073944 -0.30623162
-0.5604241 -0.7745933 -0.17622107 -0.119414546 0.48306376 0.5015079 0.3729748 1.075727
-0.561976 -0.8258132 -0.83568877 0.5988418 0.31256792 0.78291714 0.31972736 -0.695309
-0.12650153 1.091538 0.055527747 0.9262695 0.7014602 1.0289849 0.60298324 -0.675873
-1.0073774 -0.5321214 -0.06616206 -0.4966441 -0.5615417 -0.89688313 -0.7867229 -1.0433778
00000000: 0eef 003e ff71 8abe 4f8d 843e e2cc 2dbf
00000010: e664 64bf f2db 45bf b605 533f d8e7 4bbe
00000020: a2dd c43b 3969 29bf ac7f bcbe 7f60 64bf
00000030: f41c 22bf 2e12 1ebe 3886 85bf a7b4 14bf
00000040: 826d dabe e363 eebc 13d8 52be 0593 d7bf
00000050: 8c57 f6be 28a6 813f 6abb 333f 93c3 6d3f
00000060: e44b 663f b1fa 973f 3475 753f 3d3d e7be
00000070: dff2 0ebf ae06 60bf fbe3 5dbf cdba 99bf
00000080: 0372 08bf 6f95 12bf 8f02 8fbf e59f 88bf
00000090: 0cfc e1bd 6f89 ed3e ed92 533d 81f8 623f
000000a0: 0eba 793f a2d7 873f a81a 6fbf 3830 adbf
000000b0: 840c 7fbf ba75 cfbd f981 d63e e8f1 293f
000000c0: 14fb 493e c824 f9be a734 04be b99f 3d3e
000000d0: ff0f 933e 3f5c e4be 982c e63a e9f4 e93e
000000e0: 3803 f6be 40a3 b3bf 8fc9 b4be cbe9 a6bf
000000f0: 7d60 18be 87ef 8dbf 4df2 80bf 64ca 9cbe
00000100: f477 0fbf bf4b 46bf 4c73 34be 9d8f f4bd
00000110: 2254 f73e d262 003f 8ef6 be3e 6cb1 893f
00000120: a9dd 0fbf 7e68 53bf b3ef 55bf b24d 193f
00000130: e708 a03e 426d 483f 4eb3 a33e c5ff 31bf
00000140: 9e89 01be 84b7 8b3f 1071 633d ff1f 6d3f
00000150: e592 333f c7b5 833f 1c5d 1a3f 0306 2dbf
00000160: bef1 80bf 1c39 08bf f97f 87bd 2348 febe
00000170: 32c1 0fbf 229a 65bf ac66 49bf 678d 85bf

bias f4 [32]
-0.14052048 -0.89039046 0.12974319 -0.7047427 -0.43482378 -0.6825768 -0.15686937 0.98520523
0.47792098 -0.9420852 -0.2408147 -0.42372745 -0.6285017 0.724255 -0.81485546 0.039788812
-0.38583872 -0.17737089 -0.29939634 -1.5156429 -0.80451113 -0.93711174 0.30378354 0.5291612
-0.9190812 0.9236117 0.26423815 0.8067485 0.98635113 -0.9295925 0.21657805 -0.797553
00000000: 9ae4 0fbe a1f0 63bf 66db 043e 056a 34bf
00000010: 39a1 debe 5abd 2ebf 5da2 20be 6936 7c3f
00000020: 0fb2 f43e 7f2c 71bf 2198 76be cef2 d8be
00000030: 7de5 20bf c768 393f 5e9a 50bf 98f9 223d
00000040: a78c c5be b7a0 35be 7a4a 99be 9600 c2bf
00000050: 71f4 4dbf 8ee6 6fbf 8489 9b3e 1c77 073f
00000060: e848 6bbf d171 6c3f 394a 873e 1287 4e3f
00000070: 8281 7c3f c6f9 6dbf a3c6 5d3e 6f2c 4cbf

weight f4 [32, 1]
0.2614208 -0.21174991 0.1560041 -0.08946371 -0.6184707 -1.9780607 -0.5166091 1.1422546
-0.89786357 1.8197323 0.7296794 0.3707597 -1.0447108 0.37781414 -0.16672239 -0.8363954
-0.8175675 0.5579206 -1.2299385 0.51271534 -0.2949595 0.9925174 0.062352296 0.13204299
-0.530439 -0.84742546 0.866977 0.90638286 -1.2691948 -1.8107643 -0.86801505 0.42481837
00000000: f2d8 853e f8d4 58be 8abf 1f3e c038 b7bd
00000010: 1954 1ebf 1831 fdbf 7e40 04bf 6635 923f
00000020: 63da 65bf fdec e83f 45cc 3a3f 37d4 bd3e
00000030: 15b9 85bf db70 c13e 46b9 2abe 021e 56bf
00000040: 1b4c 51bf e2d3 0e3f a06e 9dbf 5041 033f
00000050: ee04 97be 9f15 7e3f 1f65 7f3d 4736 073e
00000060: daca 07bf e0f0 58bf 34f2 5d3f b508 683f
00000070: fa74 a2bf 20c7 e7bf 3c36 5ebf cb81 d93e

bias f4 [32]
0.34982178 -1.0951245 -0.7860589 -2.0391746 -1.3447114 -0.54992163 -1.8925457 0.65085506
-1.5279932 1.9075477 -0.66170746 0.42676246 -0.50479394 -0.48805034 -1.0984533 0.405523
0.46085677 -0.05309505 -1.6961672 1.5651369 0.68180937 -1.104098 0.07594914 0.7777989
0.5673535 1.8590872 0.07273815 -0.7728439 -0.7598011 0.5490191 0.41390857 0.86481595
00000000: d71b b33e 0a2d 8cbf 283b 49bf d681 02c0
00000010: 811f acbf aac7 0cbf f03e f2bf 709e 263f
00000020: 4895 c3bf 862a f43f a965 29bf 9c80 da3e
00000030: 2d3a 01bf bce1 f9be 1e9a 8cbf b6a0 cf3e
00000040: 6bf5 eb3e 327a 59bd 021c d9bf 6856 c83f
00000050: 0f8b 2e3f 1553 8dbf 398b 9b3d d41d 473f
00000060: 143e 113f 92f6 ed3f bdf7 943d 19d9 45bf
00000070: 5382 42bf 848c 0c3f d3eb d33e 9464 5d3f

weight f4 [32, 3]
0.06603382 0.41483057 1.0811163 -1.0395755 -0.3175558 -0.6724928 0.2793229 0.84159654
0.8825578 -1.0606276 -0.004876012 0.3995424 -0.8611776 -1.0087118 -0.36062923 -0.12402164
0.7425743 0.35913607 -1.0194522 -0.21394955 -1.0844373 0.04845333 1.361604 1.3744733
-0.3612555 -0.7968486 -0.66143894 0.417798 0.09199706 0.110389784 1.0502633 -0.7811257
-0.31115866 -0.8666835 0.8974755 -1.1405889 -0.6040607 -0.23595686 -0.8989123 0.99029636
0.968693 1.0359166 -0.78646743 -0.14794262 -0.4673598 -0.8954581 -0.4897463 -0.75779223
-0.68487984 -0.16348025 -1.1015112 0.37870392 0.94028205 0.71287054 -0.5005406 -0.57673895
-0.21991435 0.92614156 0.36780772 0.66259813 0.9410898 1.102277 0.3122603 -1.1844612
-0.74616235 -0.38471752 0.26035812 0.4441613 0.44194874 0.5906572 0.76311636 0.9969767
-0.5507856 -0.128683 -0.28494954 0.41633397 -0.086234696 0.29051128 0.5026802 0.43445772
0.8929295 -0.02800386 0.30563387 1.0833361 -0.6211229 1.1609448 -0.15024257 -0.52186024
-1.254567 -0.52448714 -0.3534135 -0.99152446 -0.69613326 -0.08538995 -1.0501539 -0.76991445
00000000: bd3c 873d ac64 d43e 0562 8a3f cf10 85bf
00000010: ac96 a2be 7d28 2cbf 6903 8f3e df72 573f
00000020: 4fef 613f a5c2 87bf f4c6 9fbb d290 cc3e
00000030: 2376 5cbf 781d 81bf 65a4 b8be 0fff fdbd
00000040: 5919 3e3f afe0 b73e 697d 82bf 9715 5bbe
00000050: d7ce 8abf 0077 463d 0a49 ae3f beee af3f
00000060: 7bf6 b8be 45fe 4bbf 1054 29bf 9fe9 d53e
00000070: f468 bc3d 0a14 e23d 076f 863f dbf7 47bf
00000080: 3050 9fbe f8de 5dbf f4c0 653f d1fe 91bf
00000090: b9a3 1abf ad9e 71be 1e1f 66bf 1084 7d3f
000000a0: 44fc 773f ea98 843f ee55 49bf 457e 17be
000000b0: c949 efbe be3c 65bf 07c0 fabe acfe 41bf
000000c0: 4954 2fbf 5e67 27be 52fe 8cbf 7be5 c13e
000000d0: 53b6 703f af7e 363f 6e23 00bf 2aa5 13bf
000000e0: 3a31 61be 9d17 6d3f 4b51 bc3e 08a0 293f
000000f0: 43eb 703f 6a17 8d3f 95e0 9f3e 6d9c 97bf
00000100: 7f04 3fbf b2f9 c4be a94d 853e 1c69 e33e
00000110: 1b47 e23e 4f35 173f 985b 433f dd39 7f3f
00000120: 4900 0dbf 7ac5 03be e8e4 91be ba29 d53e
00000130: d19b b0bd e5bd 943e a6af 003f 3e71 de3e
00000140: 0797 643f 5a68 e5bc 0b7c 9c3e c2aa 8a3f
00000150: e901 1fbf d799 943f 30d9 19be a298 05bf
00000160: a795 a0bf ca44 06bf 9df2 b4be 8cd4 7dbf
00000170: ca35 32bf ede0 aebd 716b 86bf 1d19 45bf

weight f4 [32, 3]
-0.8184575 -1.0131874 -0.7884947 0.37271035 -0.5925672 0.80608773 -0.0016503058 0.63969964
0.8755081 -0.46306846 -0.3888487 -0.5580285 -0.58156 -0.75335 -0.20292795 0.32188907
0.060381457 0.2711938 0.8497774 0.046208404 0.7268341 0.06997077 -0.66886324 0.5717299
1.1068999 0.895225 0.6794686 1.1391047 0.12383564 0.8505167 0.3118174 0.8336572
0.3891485 0.36766446 0.7588286 0.4146621 -1.0146086 -1.0533557 -0.38964137 -0.58604765
-0.536991 -0.5635483 -0.17926738 -0.9915316 -0.9322341 0.12480712 1.0188304 0.63089323
-1.0774438 -0.9741818 -0.92638195 0.73898053 0.6937268 0.7958203 -0.6216297 -0.18504931
-0.23810096 -0.045394868 -0.53539246 -1.1075892 0.93069124 0.52446586 0.87806404 0.3675661
0.8763157 0.14097647 0.68986166 0.979484 0.19383445 1.0891628 0.14741862 0.38026354
1.1081789 0.8179522 0.96356946 -0.6494753 -0.061831605 -0.82115966 0.7459309 0.019225689
1.0879039 -0.54596835 -0.43009162 -0.9066234 0.065718435 0.7197172 0.1914347 0.116218664
0.2738751 0.927276 0.8880638 1.0077423 0.39668193 0.969363 0.0413671 0.15922119
00000000: 6e86 51bf 20b0 81bf cada 49bf e4d3 be3e
00000010: 7cb2 17bf c45b 4e3f 134f d8ba 5bc3 233f
00000020: 4d21 603f 4f17 edbe 2d17 c7be f5da 0ebf
00000030: 1ee1 14bf 8cdb 40bf 58cc 4fbe a5ce a43e
00000040: 8c52 773d ead9 8a3e 038b 593f 0645 3d3d
00000050: cd11 3a3f d64c 8f3d 9f3a 2bbf e45c 123f
00000060: e5ae 8d3f 772d 653f a7f1 2d3f 2fce 913f
00000070: 8a9d fd3d 76bb 593f 88a6 9f3e 8f6a 553f
00000080: 793e c73e 843e bc3e 9742 423f 974e d43e
00000090: b2de 81bf 5cd4 86bf 137f c7be 3807 16bf
000000a0: 3e78 09bf b444 10bf de91 37be 04d5 7dbf
000000b0: e5a6 6ebf e09a ff3d 0969 823f 3882 213f
000000c0: aee9 89bf fa63 79bf 5e27 6dbf d42d 3d3f
000000d0: 1498 313f e1ba 4b3f 2023 1fbf 917d 3dbe
000000e0: bdd0 73be f8ef 39bd 7b0f 09bf 7cc5 8dbf
000000f0: c841 6e3f 6543 063f cec8 603f a031 bc3e
00000100: 3a56 603f 235c 103e c69a 303f 77bf 7a3f
00000110: 8a7c 463e b069 8b3f e8f4 163e e7b1 c23e
00000120: ced8 8d3f 5165 513f 7dac 763f 0344 26bf
00000130: 2343 7dbd 8537 52bf 54f5 3e3f 317f 9d3c
00000140: 6f40 8b3f 95c4 0bbf f834 dcbe 7918 68bf
00000150: 6397 863d 633f 383f 7507 443e 0d04 ee3d
00000160: 5b39 8c3e f661 6d3f 2658 633f b3fd 803f
00000170: e519 cb3e 2c28 783f 8c70 293d e10a 233e

bias f4 [32]
-0.33072662 0.7178358 0.0011348453 -1.1040475 -0.21538658 -0.1872634 0.89666945 1.1351769
0.08898314 0.01551953 0.5031531 0.9054807 -0.24493474 -0.40359074 -0.19331956 1.1172909
-0.5633577 0.95163727 0.025981016 -1.101309 0.96485364 0.7491207 0.7987783 0.034099147
0.059396025 -0.8964552 0.23228678 -0.10838761 0.6287047 0.85347193 0.67192817 0.5391151
00000000: 0055 a9be 16c4 373f 17bf 943a 6e51 8dbf
00000010: 4d8e 5cbe fac1 3fbe 218c 653f 7a4d 913f
00000020: cb3c b63d a045 7e3c a4ce 003f 95cd 673f
00000030: 2cd0 7abe 72a3 cebe 90f5 45be 6303 8f3f
00000040: 3638 10bf 809e 733f 24d6 d43c b1f7 8cbf
00000050: a600 773f 60c6 3f3f bc7c 4c3f 8cab 0b3d
00000060: 3f49 733d 177e 65bf 96dc 6d3e 53fa ddbd
00000070: cbf2 203f 237d 5a3f 7c03 2c3f 7203 0a3f

weight f4 [32, 1]
-0.33011496 0.10727227 0.7286276 -1.2904557 0.45847404 0.74739766 -0.098840505 1.1761621
0.52854645 -0.099221416 1.4158137 0.38252103 0.12937401 0.43336686 0.41699663 0.47026837
-0.38044813 0.94137454 0.29511797 0.024948599 0.8102876 1.3263544 1.4725367 1.3969159
1.4670087 -1.0749695 0.06077845 -0.42073002 -0.25627115 0.81987333 1.355257 1.1139644
00000000: d404 a9be 90b1 db3d 5787 3a3f a72d a5bf
00000010: 1cbd ea3e 7455 3f3f e46c cabd 7b8c 963f
00000020: d24e 073f 9934 cbbd 6239 b53f ccd9 c33e
00000030: 9f7a 043e 43e2 dd3e 9580 d53e 04c7 f03e
00000040: 19ca c2be ecfd 703f b419 973e 0161 cc3c
00000050: 026f 4f3f fbc5 a93f 157c bc3f 24ce b23f
00000060: f1c6 bb3f 9a98 89bf d3f2 783d ed69 d7be
00000070: f935 83be 38e3 513f 1079 ad3f 6396 8e3f

weight f4 [32, 32]
-0.4562602 -0.4512872 -0.54388237 -0.39233613 -0.6170843 0.59729594 -0.68729013 0.51597273
0.6339776 -0.4361865 -0.49064976 -0.4580941 0.72191715 0.7029216 0.5435329 -0.4623562
-0.61358625 -0.4842291 -0.73030233 -0.527141 -0.40650618 -0.56541 -0.58563864 0.65549195
-0.525584 0.720673 0.4185211 0.4865352 0.6938672 -0.41202214 -0.46031743 -0.6386489
-0.5481598 -0.621712 -0.65283185 -0.70930815 -0.46243995 0.4370448 -0.6835118 0.53995
0.5734973 -0.5592945 -0.4806514 -0.5781523 0.4715384 0.6243683 0.70183146 -0.42855948
-0.5674496 -0.57183564 -0.71454805 -0.7293013 -0.638631 -0.38873136 -0.62516505 0.5745111
-0.4270212 0.6575567 0.38204485 0.59669256 0.6785844 -0.5848768 -0.6624482 -0.45258397
-0.16671413 -1.2013395 0.081349075 -1.2203594 -1.1237884 0.098576546 -1.2570956 1.0408465
1.1818649 -1.0603821 -1.0392761 -1.2543843 -0.15862286 1.0819669 -1.1411163 0.032729626
0.08214867 -0.019530237 0.1710689 -0.98420703 -1.0865527 -1.2192333 0.15681547 1.1236117
-1.0051702 1.2355351 -0.035283685 1.2853541 1.0175265 -1.0414517 0.11159703 -1.1483856
0.473207 0.55765486 0.56724507 0.67136174 0.62715405 -0.50663596 0.47698188 -0.7326522
-0.49475652 0.6807603 0.571058 0.46661228 -0.67867845 -0.48790607 -0.52055943 0.52413756
0.5750972 0.71230674 0.6209109 0.50602806 0.48256603 0.48930272 0.6292447 -0.68733203
0.63182175 -0.6802967 -0.6185425 -0.4525494 -0.7122717 0.552967 0.42121667 0.49130124
0.61424965 0.61462533 0.5559378 0.544335 0.5987231 -0.48938283 0.64574033 -0.61324483
-0.616159 0.5669729 0.3811986 0.43538466 -0.72945434 -0.7191856 -0.4537831 -0.5301827
0.49978787 0.5870867 0.5093825 0.44072562 0.49300504 0.47412136 0.67943186 -0.50133824
0.44888598 -0.5046916 -0.42517936 -0.48533565 -0.44616026 0.58703285 0.47658125 0.5296297
0.48885483 0.51603097 -0.38257402 0.67454964 0.66432214 0.6070982 0.55951834 -0.42990404
-0.6898211 0.59648436 -0.6265918 0.6611394 0.61843807 -0.46552956 -0.5476141 0.6099462
0.5437896 0.4942343 0.5070583 0.54648155 0.7087837 0.46716076 0.4522719 -0.7007143
0.43562046 -0.564771 -0.6674214 -0.5976255 -0.47005987 0.5607768 0.69321305 0.6580535
0.8115361 0.4019745 0.9962626 0.2358303 0.16353174 -1.1571997 0.42595258 -0.3581903
-0.33080468 -0.034909636 0.14662778 0.1935868 -0.98522663 -0.44977736 -0.0011135531 1.1449282
0.7478764 0.67030555 0.96607 0.30131114 0.35006446 0.16216362 0.96408594 -0.049354944
0.47868997 0.0016743295 -0.83758795 -0.24012417 -0.06392204 0.12402863 0.57333505 0.5269128
0.5288185 0.6756582 0.6601463 0.5298393 0.46617305 -0.5683192 0.49551532 -0.40383047
-0.5786652 0.71041316 0.41732198 0.70637625 -0.6645676 -0.65654665 -0.6724708 0.62316597
0.43921053 0.5603934 0.48892266 0.607003 0.56875265 0.6586917 0.42294014 -0.6255371
0.424972 -0.6268513 -0.4365916 -0.69879013 -0.63210136 0.72347224 0.46354485 0.73142135
00000000: f09a e9be 1e0f e7be e03b 0bbf 48e0 c8be
00000010: 3df9 1dbf 63e8 183f 3ff2 2fbf ca16 043f
00000020: 5b4c 223f d653 dfbe 7236 fbbe 4f8b eabe
00000030: 90cf 383f acf2 333f f924 0b3f f4b9 ecbe
00000040: fd13 1dbf e0ec f7be 18f5 3abf b6f2 06bf
00000050: 9421 d0be b6be 10bf 6aec 15bf 52ce 273f
00000060: ac8c 06bf 077e 383f 6648 d63e 241b f93e
00000070: 48a1 313f 91f4 d2be baae ebbe 7f7e 23bf
00000080: 3354 0cbf 8528 1fbf fd1f 27bf 3895 35bf
00000090: eec4 ecbe 56c4 df3e a1fa 2ebf 2a3a 0a3f
000000a0: b8d0 123f ed2d 0fbf f117 f6be ca01 14bf
000000b0: 7b6d f13e 9ad6 1f3f 3aab 333f 266c dbbe
000000c0: 6144 11bf d263 12bf 9fec 36bf 7db3 3abf
000000d0: 527d 23bf cc07 c7be d10a 20bf 2913 133f
000000e0: 86a2 dabe a355 283f 629b c33e d8c0 183f
000000f0: b5b7 2d3f 7cba 15bf 3596 29bf 16b9 e7be
00000100: 1cb7 2abe 7ec5 99bf 589a a63d bd34 9cbf
00000110: 4cd8 8fbf 80e2 c93d 82e8 a0bf 753a 853f
00000120: 5947 973f 9aba 87bf 0007 85bf aa8f a0bf
00000130: 086e 22be e47d 8a3f 1910 92bf 800f 063d
00000140: 903d a83d e0fd 9fbc b02c 2f3e fef4 7bbf
00000150: 2914 8bbf d60f 9cbf 3c94 203e 82d2 8f3f
00000160: 6ba9 80bf 0426 9e3f a085 10bd 7c86 a43f
00000170: 4f3e 823f 4a4e 85bf fc8c e43d 4dfe 92bf
00000180: 3048 f23e 78c2 0e3f f936 113f 5dde 2b3f
00000190: 2b8d 203f e5b2 01bf f836 f43e 188f 3bbf
000001a0: ba50 fdbe 4f46 2e3f db30 123f cee7 ee3e
000001b0: dfbd 2dbf d3ce f9be 6243 05bf e12d 063f
000001c0: 9239 133f bc59 363f 04f4 1e3f 0e8b 013f
000001d0: e512 f73e e385 fa3e 2e16 213f fef4 2fbf
000001e0: 12bf 213f ed27 2ebf cd58 1ebf 8eb4 e7be
000001f0: 7057 36bf 3f8f 0d3f b6a9 d73e d68b fb3e
00000200: 773f 1d3f 1658 1d3f f151 0e3f 8a59 0b3f
00000210: eb45 193f 6390 fabe 3d4f 253f 9dfd 1cbf
00000220: 99bc 1dbf 2325 113f 772c c33e bdea de3e
00000230: 85bd 3abf 8c1c 38bf 4256 e8be 0eba 07bf
00000240: 32e4 ff3e 504b 163f e466 023f caa6 e13e
00000250: 286b fc3e 09c0 f23e 3fef 2d3f b457 00bf
00000260: 62d4 e53e 7833 01bf 1cb1 d9be ea7d f8be
00000270: 1e6f e4be c947 163f 7502 f43e d095 073f
00000280: 2e4b fa3e 9b1a 043f bee0 c3be 49af 2c3f
00000290: 0411 2a3f ca6a 1b3f 983c 0f3f 621c dcbe
000002a0: 1e98 30bf 33b3 183f 5268 20bf 6f40 293f
000002b0: f551 1e3f e459 eebe 7030 0cbf 6f25 1c3f
000002c0: cc35 0b3f 470c fd3e 93ce 013f 37e6 0b3f
000002d0: d972 353f b22f ef3e 2f90 e73e 0362 33bf
000002e0: a509 df3e d594 10bf 21dc 2abf fcfd 18bf
000002f0: b0ab f0be 128f 0f3f 6976 313f 3276 283f
00000300: d4c0 4f3f 9acf cd3e 110b 7f3f 807d 713e
00000310: dd74 273e 1f1f 94bf 7516 da3e b864 b7be
00000320: 3b5f a9be 68fd 0ebd 9825 163e 9e3b 463e
00000330: d037 7cbf 3849 e6be a4f4 91ba 028d 923f
00000340: d474 3f3f 2599 2b3f 5d50 773f 7445 9a3e
00000350: a63b b33e 380e 263e 56ce 763f 6928 4abd
00000360: da16 f53e 2d75 db3a 2a6c 56bf 1ce3 75be
00000370: 8fe9 82bd b902 fe3d 16c6 123f c2e3 063f
00000380: a660 073f f0f7 2c3f 59ff 283f 8ca3 073f
00000390: 3cae ee3e 5e7d 11bf 2fb4 fd3e dec2 cebe
000003a0: 6723 14bf a3dd 353f 3aab d53e 13d5 343f
000003b0: 1a21 2abf 7113 28bf 0c27 2cbf ce87 1f3f
000003c0: 34e0 e03e f175 0f3f 1254 fa3e 8c64 1b3f
000003d0: c699 113f 05a0 283f 9c8b d83e 3323 20bf
000003e0: ee95 d93e 5479 20bf ef88 dfbe e9e3 32bf
000003f0: 65d1 21bf 7a35 393f c055 ed3e 6e3e 3b3f

bias f4 [32]
0.41030186 0.7263562 1.1920056 -0.6018156 -0.47120568 -0.50513744 -0.26039806 -0.5410954
-0.5043044 -0.67160225 1.095427 0.3887862 -0.67326 0.68147445 -0.493061 1.0999916
-0.65242714 -0.6878377 -0.38384503 0.5873403 -0.71249247 0.572717 0.59092754 0.5349599
-0.5221605 0.10740423 -0.6283853 -1.0001643 0.6638936 0.40303773 0.6662958 0.4374456
00000000: 1613 d23e 7bf2 393f a493 983f 9610 1abf
00000010: df41 f1be b050 01bf e552 85be 3a85 0abf
00000020: 181a 01bf 20ee 2bbf f436 8c3f fc0e c73e
00000030: c45a 2cbf 1c75 2e3f 7e72 fcbe 86cc 8c3f
00000040: 7705 27bf 2216 30bf 5687 c4be ef5b 163f
00000050: e865 36bf 959d 123f 0747 173f 22f3 083f
00000060: 4fac 05bf c0f6 db3d dcdd 20bf 6205 80bf
00000070: eef4 293f f65a ce3e 5d92 2a3f dff8 df3e

weight f4 [32, 32]
-0.50638497 -0.57448053 -0.6968225 -0.4222665 -0.68291926 -0.46456102 -0.39415988 0.43402594
-0.39132714 0.66976774 -0.7163206 0.59126896 -0.72258157 0.4094168 -0.6611652 0.47467208
0.4921103 -0.5405556 -0.6791743 0.6163318 0.68239176 0.48812038 -0.5106621 0.7065036
-0.6218872 0.6906682 -0.6986215 -0.45602608 -0.6101896 -0.6730374 0.64150536 0.5168565
-0.70661217 -0.6428132 -0.46362427 -0.7283398 -0.7308334 -0.63813287 -0.5060086 0.52185166
-0.5584693 0.6241697 0.41686004 0.6312133 -0.52447 0.54952806 -0.4357364 0.72497493
0.5146054 -0.7201535 -0.41708547 0.7292547 0.42709023 0.6845114 -0.5621946 0.44449788
-0.5209619 0.46454814 -0.39129406 -0.63147634 -0.5075494 -0.5611981 0.6732392 0.4476778
-0.005217612 -1.2686977 -0.049254715 -1.1046615 -0.99422216 0.056770712 -1.2390873 -0.0952059
-1.0937828 1.0335147 -0.13423502 -0.019148946 0.12289983 -0.07527 -0.15090519 -0.15637794
0.030109406 0.029000878 -1.2468581 1.2633457 1.0462332 -1.1555078 0.14501792 1.2348697
-1.2680055 1.2130401 0.16664666 -0.20180455 -0.069404244 0.017111301 0.12898505 -0.064683676
0.5016055 0.63682973 0.47529066 0.6505102 0.53456575 0.65433717 0.53191394 -0.5268334
0.619056 -0.4302843 0.48703656 -0.67146194 0.62167805 -0.7237274 0.5131308 -0.51419574
0.5239934 0.39035422 -0.42374104 -0.7090185 0.60374033 -0.6627708 0.5560801 -0.6421823
0.40695378 -0.62196964 0.59899765 0.5510831 0.7172512 0.6373613 -0.5049833 -0.61389923
0.5956693 0.47009906 0.4877007 0.61665106 0.56120425 0.56148595 0.506859 -0.5114628
0.5836546 -0.6416673 0.6633795 -0.64364046 0.6878713 -0.5455058 -0.3939138 0.5866527
0.6021169 -0.6376383 0.49344805 -0.41995507 -0.7268502 -0.5919162 0.58510506 -0.4737
0.49809003 -0.6350785 -0.5993309 0.6609041 0.42839897 0.5647595 -0.57280153 -0.47149348
-0.41721103 0.69329244 0.5302111 -0.45168158 0.42298615 0.59209424 0.672432 0.6813212
0.4818177 -0.38353616 0.6778418 0.61651295 0.68934786 -0.40098363 0.55449146 -0.5685617
-0.4595808 0.64953965 -0.61002547 0.5811955 -0.64889187 -0.60186154 0.71128833 -0.46766114
0.72979903 -0.61715984 0.73196876 -0.3914319 0.5136998 -0.5855442 -0.5627601 -0.4066188
0.84418404 0.19349796 1.0321751 0.41569808 0.46724972 0.72396094 0.32993427 -0.5178919
0.35338145 -0.4656958 -0.918502 -0.8265417 -1.1921499 1.094512 0.089230195 -1.1165364
-0.64500564 0.80336154 0.18846537 -0.31974384 0.119742215 -1.0225997 0.8408221 -0.26331595
0.40971085 -0.21619463 0.87558943 0.87190384 0.60335565 0.89120066 -0.9147299 -0.74382854
-0.6153626 0.4765084 0.47365427 0.44123805 0.5663776 0.39606625 0.4628475 -0.7013227
0.6067629 -0.70650923 0.7182383 -0.56333005 0.6562771 -0.6946659 0.6352698 -0.5891306
-0.5866023 0.42903215 0.41093206 -0.5552296 -0.47140366 -0.53908306 0.42286006 -0.43312538
0.69220614 -0.5228106 0.69554317 0.51381564 0.64014596 0.49381778 -0.5039578 -0.50306386
00000000: 72a2 01bf 2811 13bf f662 32bf 5133 d8be
00000010: ccd3 2ebf f1da edbe 53cf c9be a638 de3e
00000020: 085c c8be e675 2b3f c960 37bf 675d 173f
00000030: 1bfb 38bf 149f d13e 1f42 29bf 3808 f33e
00000040: e2f5 fb3e da61 0abf 5ede 2dbf ecc7 1d3f
00000050: 3ab1 2e3f eaea f93e c0ba 02bf 6cdd 343f
00000060: 0034 1fbf a2cf 303f dcd8 32bf 407c e9be
00000070: 6335 1cbf 2e4c 2cbf b239 243f b550 043f
00000080: 89e4 34bf 688f 24bf 2960 edbe 7a74 3abf
00000090: e617 3bbf ad5c 23bf c889 01bf 1298 053f
000000a0: d8f7 0ebf 96c9 1f3f ae6e d53e 3297 213f
000000b0: aa43 06bf dfad 0c3f d718 dfbe f597 393f
000000c0: 2ebd 033f fb5b 38bf 3a8c d5be 70b0 3a3f
000000d0: 92ab da3e 243c 2f3f fceb 0fbf 3a95 e33e
000000e0: c25d 05bf 41d9 ed3e b257 c8be 6fa8 21bf
000000f0: c2ee 01bf aeaa 0fbf 6759 2c3f 0636 e53e
00000100: 80f8 aabb b064 a2bf 50bf 49bd 8c65 8dbf
00000110: 5885 7ebf 6888 683d 6a9a 9ebf 50fb c2bd
00000120: 1301 8cbf 364a 843f e874 09be 40de 9cbc
00000130: e8b2 fb3d 2827 9abd e486 1abe 8a21 20be
00000140: 00a8 f63c 4093 ed3c 0c99 9fbf 50b5 a13f
00000150: f8ea 853f aee7 93bf 947f 143e 3610 9e3f
00000160: 014e a2bf e644 9b3f 6ca5 2a3e daa5 4ebe
00000170: d023 8ebd 002d 8c3c a814 043e e078 84bd
00000180: 3869 003f 4607 233f 4c59 f33e d687 263f
00000190: 4dd9 083f a482 273f 832b 083f 8ede 06bf
000001a0: 747a 1e3f 394e dcbe db5c f93e eee4 2bbf
000001b0: 4b26 1f3f 3346 39bf 8a5c 033f 55a2 03bf
000001c0: 6e24 063f 82dc c73e 96f4 d8be 3d82 35bf
000001d0: ba8e 1a3f 59ab 29bf 445b 0e3f 0f66 24bf
000001e0: 3f5c d03e 6739 1fbf e957 193f c813 0d3f
000001f0: c69d 373f 1c2a 233f 9646 01bf 8028 1dbf
00000200: c97d 183f d3b0 f03e e8b3 f93e d8dc 1d3f
00000210: 15ab 0f3f 8bbd 0f3f 83c1 013f 3aef 02bf
00000220: 636a 153f 4f44 24bf 3dd3 293f 9fc5 24bf
00000230: 5518 303f 45a6 0bbf 12af c9be df2e 163f
00000240: 5524 1a3f 433c 23bf 39a5 fc3e 5a04 d7be
00000250: db12 3abf d287 17bf 72c9 153f ce88 f2be
00000260: a805 ff3e 8194 22bf c06d 19bf 0331 293f
00000270: 1c57 db3e 1494 103f 1fa3 12bf 9867 f1be
00000280: af9c d5be 9d7b 313f eabb 073f cf42 e7be
00000290: a491 d83e 7d93 173f 8124 2c3f 116b 2e3f
000002a0: cfb0 f63e da5e c4be 0a87 2d3f cbd3 1d3f
000002b0: 1a79 303f ba4d cdbe 27f3 0d3f 428d 11bf
000002c0: 2d4e ebbe 3b48 263f a12a 1cbf 3ac9 143f
000002d0: c71d 26bf 9913 1abf fe16 363f 4871 efbe
000002e0: 1cd4 3a3f 30fe 1dbf 4e62 3b3f c369 c8be
000002f0: d581 033f 3ae6 15bf 0c11 10bf 5730 d0be
00000300: 721c 583f 5424 463e 501e 843f 61d6 d43e
00000310: 5b3b ef3e 8155 393f 25ed a83e 9094 04bf
00000320: 6aee b43e ae6f eebe f222 6bbf 3d98 53bf
00000330: 5e98 98bf f818 8c3f 52be b63d aaea 8ebf
00000340: 171f 25bf 1aa9 4d3f 11fd 403e 77b5 a3be
00000350: 683b f53d 8ce4 82bf 1e40 573f 59d1 86be
00000360: 9fc5 d13e 2062 5dbe a126 603f 1735 5f3f
00000370: 8475 1a3f ba25 643f bd2b 6abf 8c6b 3ebf
00000380: 6788 1dbf e9f8 f33e d082 f23e f4e9 e13e
00000390: 1ffe 103f 32c9 ca3e 59fa ec3e e289 33bf
000003a0: d054 1b3f cadd 34bf 77de 373f 6636 10bf
000003b0: c701 283f a0d5 31bf 0ba1 223f 43d1 16bf
000003c0: 912b 16bf 1aaa db3e b065 d23e 8723 0ebf
000003d0: d25b f1be 5901 0abf 1d81 d83e 9cc2 ddbe
000003e0: 6c34 313f ead6 05bf 1e0f 323f 6c89 033f
000003f0: 9be0 233f afd5 fc3e 6103 01bf cbc8 00bf

weight f4 [32, 32]
-0.5120158 0.48846984 0.55513227 -0.5419286 0.54013336 0.63521177 0.54824597 -0.66609484
0.6148828 -0.48518157 0.5783305 -0.51147777 0.38179398 -0.6347601 0.7039193 -0.66882145
0.50148964 0.49298945 -0.65597486 0.38875577 0.42552412 -0.55916053 0.4348697 -0.52679396
0.45762938 -0.6552016 0.589648 -0.6215478 0.684191 0.39816326 -0.67930645 -0.580189
0.6912576 0.5750187 0.5732973 0.54869735 0.5102149 0.6445744 0.6179078 -0.42235956
0.38370422 -0.624725 0.70476705 -0.6787667 0.6003437 -0.64260435 -0.6374194 0.681921
-0.7004971 0.7180355 0.53672487 -0.60566026 -0.63935006 -0.4189832 0.696845 -0.6118465
0.5326925 -0.46200266 -0.71475965 0.56652826 0.497336 0.47942016 -0.5954706 -0.483762
0.54991007 -0.55656755 -0.44287616 0.6877075 -0.63000816 -0.52960485 -0.5114567 0.6894386
-0.38748497 0.45879024 -0.5428 0.45938832 -0.52646375 0.4496994 -0.42058134 0.7318212
-0.5701088 -0.65109 0.59872586 -0.50920516 -0.6719477 0.62052035 -0.50520414 0.54970366
-0.68740386 0.58694154 -0.67231894 0.5076417 -0.59119165 -0.47675207 0.44981667 0.41827223
-0.5772861 -0.38413614 -0.47559822 0.49772742 -0.55827695 -0.68869483 -0.55154234 -0.5528574
-0.5192518 0.63790107 -0.42625338 0.44832227 -0.6614936 0.67929447 -0.5555359 -0.48738465
-0.5120658 -0.71088606 0.41958326 -0.40305862 -0.5983202 0.70903826 -0.7031302 0.72530186
-0.4799203 0.72597015 0.45343244 0.5889475 -0.580032 -0.6146304 0.5563438 0.56755996
0.5877038 0.44318777 0.4024394 -0.57280266 0.6490121 0.4233591 0.4927604 -0.64903325
0.5853459 -0.38380742 0.70107096 -0.47395992 0.5089801 -0.71742266 0.407585 -0.6530686
0.39740643 0.5836052 -0.5087158 0.38363042 0.45049042 -0.56893706 0.49348468 -0.6609568
0.5151995 -0.49275684 0.55653256 -0.7141976 0.38121784 0.43232244 -0.38586104 -0.43941072
0.68897617 0.5359485 0.46085095 -0.4423898 0.58426213 0.6424416 0.686711 -0.5881025
0.6301164 -0.6253916 0.5389493 -0.6760437 0.6673936 -0.67742944 0.5503454 0.47631398
0.54202753 0.57729495 -0.61057043 0.71652395 0.6153074 -0.42910856 0.40307775 -0.4370423
0.6964031 -0.406852 -0.60564977 -0.68800735 0.63244313 0.58810294 -0.61632395 -0.49340993
0.59099555 0.6264731 0.37930167 0.5609577 0.65307015 0.530536 0.48884735 -0.66979706
0.45306042 -0.5158373 0.40924823 -0.658174 0.4474045 -0.6836191 0.6174676 0.42430303
0.4911778 0.51639944 0.47522968 0.49046156 0.6758364 -0.50120825 0.5670424 -0.705874
0.53764737 -0.71730727 -0.4107732 0.6464092 0.64054346 0.5352184 -0.4162938 -0.6927202
0.5871049 -0.41750544 -0.47532877 0.6667156 0.59511703 -0.39996547 -0.4322934 0.60247487
-0.6735966 0.6474105 -0.68965596 0.53564614 -0.5924135 0.5389897 -0.6483407 0.6570463
-0.6458367 -0.51777536 0.70536625 0.43313777 -0.59165066 0.66699094 -0.6429361 0.49383217
-0.3858107 0.63220227 -0.58987063 0.46699217 -0.5190825 -0.5060172 0.5386367 0.62954825
00000000: 7813 03bf b818 fa3e 261d 0e3f d5bb 0abf
00000010: 2e46 0a3f 3d9d 223f d959 0c3f 3185 2abf
00000020: f668 1d3f b869 f8be 780d 143f 35f0 02bf
00000030: 807a c33e a37f 22bf 0e34 343f e237 2bbf
00000040: a061 003f 1d69 fc3e f8ed 27bf ff0a c73e
00000050: 4cde d93e 2525 0fbf 3ea7 de3e f8db 06bf
00000060: 664e ea3e 4bbb 27bf 2cf3 163f c21d 1fbf
00000070: 2427 2f3f 0edc cb3e 07e7 2dbf 4487 14bf
00000080: 42f6 303f 6d34 133f 9dc3 123f 6e77 0c3f
00000090: 729d 023f d402 253f 352f 1e3f 833f d8be
000000a0: e174 c43e faed 1fbf 9d6b 343f a8c3 2dbf
000000b0: 20b0 193f b881 24bf eb2d 23bf 6092 2e3f
000000c0: c753 33bf 2dd1 373f cd66 093f 8d0c 1bbf
000000d0: 72ac 23bf f784 d6be 6f64 323f f9a1 1cbf
000000e0: 895e 083f 9d8b ecbe 7dfa 36bf ff07 113f
000000f0: d3a2 fe3e 8f76 f53e c370 18bf a7af f7be
00000100: e8c6 0c3f 367b 0ebf aac0 e2be 990d 303f
00000110: 3748 21bf 2f94 07bf d4ee 02bf 0c7f 303f
00000120: 6e64 c6be 8ee6 ea3e f1f4 0abf f234 eb3e
00000130: 54c6 06bf 003f e63e 7056 d7be a258 3b3f
00000140: a6f2 11bf d6ad 26bf 1946 193f 455b 02bf
00000150: c404 2cbf 6cda 1e3f 0f55 01bf 61b9 0c3f
00000160: b3f9 2fbf cd41 163f 181d 2cbf cef4 013f
00000170: 5658 17bf d918 f4be 5f4e e63e c727 d63e
00000180: 06c9 13bf 7ead c4be 9c81 f3be 21d6 fe3e
00000190: 3deb 0ebf 4e4e 30bf e131 0dbf 1088 0dbf
000001a0: b0ed 04bf 7c4d 233f e23d dabe 7f8a e53e
000001b0: a557 29bf 3ee6 2d3f 9a37 0ebf 7b8a f9be
000001c0: bf16 03bf a1fc 35bf 9ed3 d63e b35d cebe
000001d0: 832b 19bf 8883 353f 5700 34bf 62ad 393f
000001e0: 1db8 f5be 2ed9 393f 4c28 e83e 43c5 163f
000001f0: fa7c 14bf 6b58 1dbf 8c6c 0e3f 9c4b 113f
00000200: c273 163f 82e9 e23e 890c ce3e 32a3 12bf
00000210: a825 263f 86c2 d83e 174b fc3e 0b27 26bf
00000220: 3bd9 153f 6882 c4be 6379 333f e0aa f2be
00000230: 854c 023f 03a9 37bf fbae d03e 812f 27bf
00000240: db78 cb3e 2667 153f 333b 02bf 356b c43e
00000250: aea6 e63e dca5 11bf 06aa fc3e 7734 29bf
00000260: 1de4 033f a04a fcbe eb78 0e3f a7d5 36bf
00000270: fc2e c33e 5e59 dd3e 948f c5be 71fa e0be
00000280: be60 303f ec33 093f a8f4 eb3e ea80 e2be
00000290: 3492 153f 0d77 243f 4bcc 2f3f e38d 16bf
000002a0: 4f4f 213f aa19 20bf 95f8 093f 3311 2dbf
000002b0: 4fda 2a3f 046c 2dbf 70e3 0c3f 6ddf f33e
000002c0: 51c2 0a3f 9ac9 133f 584e 1cbf 1d6e 373f
000002d0: c984 1d3f 1eb4 dbbe 3560 ce3e 02c4 dfbe
000002e0: 7947 323f e84e d0be dd0b 1bbf 4021 30bf
000002f0: cbe7 213f ea8d 163f 68c7 1dbf 3aa0 fcbe
00000300: 7c4b 173f 8b60 203f d433 c23e ec9a 0f3f
00000310: 9b2f 273f 35d1 073f 334a fa3e d277 2bbf
00000320: 89f7 e73e ea0d 04bf fc88 d13e 177e 28bf
00000330: 3412 e53e a901 2fbf 5b12 1e3f 3f3e d93e
00000340: a87b fb3e c132 043f 4e51 f33e c71d fb3e
00000350: 9d03 2d3f 2f4f 00bf b129 113f 29b4 34bf
00000360: 42a3 093f 73a1 37bf dd50 d2be 137b 253f
00000370: a8fa 233f 1304 093f 7624 d5be 1c56 31bf
00000380: 824c 163f 46c3 d5be 4b5e f3be e0ad 2a3f
00000390: 9759 183f 46c8 ccbe 8f55 ddbe cb3b 1a3f
000003a0: d470 2cbf b2bc 253f 4b8d 30bf 1b20 093f
000003b0: 69a8 17bf 3bfb 093f a8f9 25bf 3034 283f
000003c0: 8e55 25bf ed8c 04bf e292 343f 3cc4 dd3e
000003d0: 6b76 17bf ebbf 2a3f 7697 24bf 92d7 fc3e
000003e0: fb88 c5be 02d8 213f c301 17bf 9919 ef3e
000003f0: 97e2 04bf 588a 01bf 18e4 093f 132a 213f

bias f4 [32]
-0.4022323 -0.5425793 0.45886058 0.72878915 -0.6703538 -0.6075225 -0.4165246 0.6430387
-1.2789552 0.43008018 -0.5819793 -0.5359541 0.39148635 0.44347426 -0.5502701 -0.38064188
-0.7205947 0.5493867 -0.6791294 -0.45798331 0.51688427 -0.39914063 -0.5388874 -0.7034365
0.56593245 0.6784686 0.47507492 0.7044449 -0.4713189 -0.634467 -0.70381486 -0.72126377
00000000: 64f1 cdbe 7ae6 0abf c6ef ea3e ed91 3a3f
00000010: 4e9c 2bbf 9886 1bbf b642 d5be 2f9e 243f
00000020: ceb4 a3bf 7833 dc3e 98fc 14bf 4a34 09bf
00000030: e670 c83e 0f0f e33e 80de 0cbf 7ee3 c2be
00000040: e578 38bf 9ba4 0c3f 6ddb 2dbf ca7c eabe
00000050: 8752 043f 295c ccbe 86f4 09bf 6a14 34bf
00000060: f3e0 103f 1eb0 2d3f 053d f33e 8056 343f
00000070: b650 f1be 6e6c 22bf 362d 34bf bea4 38bf

weight f4 [32, 32]
-0.42272356 0.4553147 0.7203486 0.555274 0.3836699 -0.5039712 -0.4734969 0.5886241
-0.48405433 -0.481461 0.42199442 -0.72037995 0.44941503 0.7102542 -0.5977316 -0.41526264
0.4786392 -0.73151255 -0.41215366 0.49084443 -0.47164503 0.5255695 0.5548236 -0.7129587
-0.67258793 0.5291137 -0.50420314 0.6837879 0.7242284 0.3959293 -0.6075349 -0.5596954
-0.62921435 -0.54291743 0.40075654 0.38487056 -0.47807762 -0.58778256 -0.7027337 -0.5713611
0.6358993 -0.66023904 0.72600996 -0.6389608 -0.40399152 0.56816083 -0.6758889 0.37934753
0.5712959 -0.69163513 -0.5998721 -0.6010663 -0.5319759 0.5494081 0.7256513 0.5808193
-0.563301 0.70523745 0.67248034 0.41068035 -0.54703104 0.45284754 -0.5248402 -0.5221044
0.5563677 -0.505631 -0.42071852 -0.5593217 -0.53786296 0.5790756 0.5170347 -0.6143499
0.6590926 0.640491 -0.47554702 0.41694564 -0.6946894 -0.5390645 0.5164758 -0.6796909
-0.49877992 0.59834415 0.6490119 0.602241 0.63816875 -0.4227975 -0.66333544 0.47652024
0.48258775 -0.3795173 0.58073026 -0.4358023 -0.5327548 -0.5793013 0.6710835 0.5973177
0.6810488 -0.38421583 0.59178144 -0.55590993 0.44174123 0.3891282 -0.42701167 0.5024868
0.5070021 0.60662377 -0.56300527 0.44338402 0.43607092 -0.44196793 0.44265667 0.5099593
-0.3949991 0.6033835 0.6975211 -0.42753488 0.42732778 -0.6705953 -0.7016839 -0.4971163
0.53137934 -0.56923467 0.5720771 -0.7125255 0.66616666 -0.6663385 0.7084999 0.3870619
-0.7036723 0.46766362 0.5641528 0.4683622 0.6048904 -0.52805275 -0.5848425 0.40391824
-0.6854388 -0.46898335 0.6396951 -0.44039544 -0.5050579 0.41948912 -0.3946046 -0.48744288
0.4261175 -0.65233874 -0.45712626 0.597697 -0.6543482 0.62368023 0.6654843 -0.54355377
-0.7209556 0.69839 -0.62070566 0.6465697 0.65917736 0.6260456 -0.69556373 -0.72856045
-0.7125925 0.5290749 0.5974324 0.38818377 -0.40288347 -0.4153685 -0.5652664 0.5626615
-0.411392 -0.5532488 0.65821415 -0.3824461 -0.4394353 0.48676318 -0.41548836 -0.6164943
0.38966095 -0.6920685 -0.6809629 0.60772055 -0.49238503 0.6549219 0.6570555 0.5528165
-0.53819865 0.70242697 -0.48633152 0.73035085 0.6133925 0.5806682 -0.681869 -0.44554484
-0.5200986 0.6614681 0.73194426 0.41186145 -0.7006867 -0.46845865 -0.58301437 -0.3934093
-0.45392424 -0.5164 0.69498146 -0.58538216 -0.66567606 0.6046604 -0.43900818 -0.63304585
0.68507105 -0.47697502 -0.718272 -0.48874128 -0.61545074 0.42023677 0.590188 0.47276556
-0.54339516 0.53082985 -0.38913423 0.52405024 -0.6765495 0.5956907 -0.7074583 -0.56816685
0.7178456 -0.56335455 0.7002789 -0.46205938 -0.42552236 0.61545986 -0.7172293 0.54468274
0.5949603 0.40162683 -0.39715546 0.70018864 -0.40567473 0.42418307 0.3986421 0.393183
-0.7252233 0.7151492 0.62394476 -0.5822204 0.5128671 -0.6928518 -0.40417778 -0.5619507
0.4696342 -0.65973157 0.37909153 -0.6997052 -0.71449333 0.50578964 0.7152841 0.654919
00000000: 396f d8be 021f e93e c468 383f 7026 0e3f
00000010: 6270 c43e 4204 01bf 306e f2be 12b0 163f
00000020: f8d5 f7be 0e82 f6be a70f d83e d26a 38bf
00000030: ba19 e63e 38d3 353f f004 19bf 4e9d d4be
00000040: 3210 f53e 6844 3bbf ce05 d3be f64f fb3e
00000050: 757b f1be b98b 063f eb08 0e3f 7684 36bf
00000060: b92e 2cbf ff73 073f 7513 01bf b90c 2f3f
00000070: 0867 393f 3fb7 ca3e 6887 1bbf 3348 0fbf
00000080: 3114 21bf a3fc 0abf f62f cd3e c10d c53e
00000090: 97c6 f4be eb78 16bf 5be6 33bf b944 12bf
000000a0: 4cca 223f 6d05 29bf cadb 393f ef92 23bf
000000b0: fad7 cebe fd72 113f 0e07 2dbf d739 c23e
000000c0: 7340 123f 000f 31bf 3891 19bf 7bdf 19bf
000000d0: 932f 08bf 02a6 0c3f 49c4 393f 93b0 143f
000000e0: 7f34 10bf 718a 343f ac27 2c3f b244 d23e
000000f0: 3a0a 0cbf a2db e73e ed5b 06bf a2a8 05bf
00000100: 1d6e 0e3f 0971 01bf 6b68 d7be b52f 0fbf
00000110: 63b1 09bf 4c3e 143f 635c 043f 0946 1dbf
00000120: 4bba 283f 38f7 233f e67a f3be e679 d53e
00000130: 2ad7 31bf 2200 0abf c237 043f 3900 2ebf
00000140: 1560 ffbe 152d 193f a525 263f 772c 1a3f
00000150: 075f 233f ea78 d8be 5ad0 29bf 76fa f33e
00000160: be15 f73e 1750 c2be bdaa 143f 7b21 dfbe
00000170: 9e62 08bf 174d 14bf 21cc 2b3f d0e9 183f
00000180: 3759 2e3f f0b7 c4be fd7e 173f 1d50 0ebf
00000190: e82b e23e d03b c73e 46a1 dabe faa2 003f
000001a0: e4ca 013f b24b 1b3f 1d21 10bf 3b03 e33e
000001b0: b044 df3e 9f49 e2be e5a3 e23e b18c 023f
000001c0: 523d cabe 5777 1a3f be90 323f dae5 dabe
000001d0: b5ca da3e 22ac 2bbf 8ea1 33bf 0786 febe
000001e0: 7a08 083f 5db9 11bf a573 123f 1268 36bf
000001f0: e689 2a3f 2995 2abf 4060 353f fa2c c63e
00000200: de23 34bf 9b71 ef3e 516c 103f 2ccd ef3e
00000210: 19da 1a3f 772e 07bf 3db8 15bf 5fce ce3e
00000220: eb78 2fbf 961e f0be 0fc3 233f 837b e1be
00000230: 794b 01bf 47c7 d63e 9d09 cabe 1d92 f9be
00000240: 132c da3e acff 26bf 740c eabe ac02 193f
00000250: 5d83 27bf 82a9 1f3f 2e5d 2a3f 5726 0bbf
00000260: 8c90 38bf b0c9 323f 91e6 1ebf 9885 253f
00000270: d9bf 283f 8644 203f 7710 32bf f082 3abf
00000280: 766c 36bf 7471 073f 54f1 183f 06c0 c63e
00000290: be46 cebe 2eab d4be 4cb5 10bf 960a 103f
000002a0: f9a1 d2be b7a1 0dbf b980 283f facf c3be
000002b0: aafd e0be 0639 f93e e4ba d4be 92d2 1dbf
000002c0: a481 c73e 672b 31bf 9653 2ebf 9393 1b3f
000002d0: e419 fcbe f6a8 273f ca34 283f 6285 0d3f
000002e0: 63c7 09bf 41d2 333f 7200 f9be 46f8 3a3f
000002f0: 4a07 1d3f aca6 143f f78e 2ebf 741e e4be
00000300: 2f25 05bf f955 293f b360 3b3f 81df d23e
00000310: 3460 33bf d0d9 efbe 6e40 15bf f26c c9be
00000320: c268 e8be ca32 04bf 4eea 313f 9bdb 15bf
00000330: bf69 2abf 06cb 1a3f aec5 e0be 4b0f 22bf
00000340: d160 2f3f 1236 f4be ace0 37bf 4c3c fabe
00000350: 2e8e 1dbf 4629 d73e 9016 173f 540e f23e
00000360: f21b 0bbf 77e4 073f 9a3c c7be 2828 063f
00000370: 5932 2dbf 307f 183f fd1b 35bf 6273 11bf
00000380: bbc4 373f 0138 10bf 7a45 333f 0c93 ecbe
00000390: 11de d9be c78e 1d3f 579c 37bf 5470 0b3f
000003a0: 514f 183f 08a2 cd3e f657 cbbe 903f 333f
000003b0: 99b4 cfbe 862e d93e d11a cc3e 484f c93e
000003c0: 3ca8 39bf 0514 373f d8ba 1f3f 650c 15bf
000003d0: 424b 033f bc5e 31bf 64f0 cebe 00dc 0fbf
000003e0: e573 f03e 2be4 28bf 4918 c23e e11f 33bf
000003f0: 09e9 36bf 6e7b 013f dc1c 373f c6a8 273f
